output/2023-09-24-20-37-59/trained_model/tetris_epoch3101_score14300.pt (torch, 842187 bytes, 8 tensors)

weight f4 [32, 1, 4, 4]
00000000: 2ac5 893d 8d65 7f3c 6151 96bc e439 c53b
00000010: 3974 05bd 2f5d 763d ea43 0fbc 429c 4d3d
00000020: 517d 43be 909b 0a3e b5b9 463e 3ae2 643b
00000030: 84b7 9c3d 71d3 143e 79df 233e b5bd 22bd
00000040: 74d1 c73e 21d0 0fbd b1cf 13bf 237e 8fbe
00000050: ddea babe 5b81 3b3d 981b 53be ef78 533a
00000060: 63ad f13d 1bed c9be 382b 1cbc 8e01 b1be
00000070: 85ae 09be 0eb1 4f3c 7af5 c13d 7985 20bf
00000080: 2c73 973d 95b7 5f3d 9245 41bf 524c 38be
00000090: 1f78 8dbd 15d3 8dbe 1096 0e3e 9a26 94be
000000a0: d7fa a83d 7e9b 993e 07ea 963d 6e3e 6cbd
000000b0: 0f04 bfbd 8af5 02be e085 dfbd 1d15 abbd
000000c0: bb07 4ebe 2881 d5be 0bd4 20bd 8938 9d3c
000000d0: b200 173e 2f2e d6bd 8f82 7d3e e27a e33d
000000e0: c8e2 1abe 6989 c73d ec62 f3be 300b 8b3d
000000f0: 2ce9 5fbe 63d4 aebe 63c0 ddbe a02e 143e
00000100: bf45 e4bd 0645 27bf b8b1 0abd 96d5 fcbc
00000110: 2930 8c3d c18c f93d add8 0a3e 848e 783d
00000120: b0fa 883e eabc 69bf 25b1 9e3e 32e5 9dbc
00000130: 51d5 5abd eed9 b3bd 0a83 7cbb 2eb3 5bbc
00000140: 804c 2b3b 9ac7 763d 542e 1bbe 5a05 83bd
00000150: e8ce 463c d21d febc 507b a23e b948 523f
00000160: a0ce 973c 2f73 293c 07ff 95be cba6 3cbf
00000170: 4608 82bc 85f4 1cbd 75b0 efbd 2281 01bd
00000180: cc46 463d 1150 b13c 4d04 0b3e 7539 933e
00000190: 6480 8e3d 484a 02bc f465 5d3e 85d1 fdbe
000001a0: d3be c03d 642f 993d df7b fa3a d99c 1cbf
000001b0: b871 5fbd 2996 4d3b 5499 8b3d 8e3d 8bbe
000001c0: 1a49 7e3c 0060 1d3c 9c90 243e 3dd5 5fbe
000001d0: e6a7 9e3d bd38 9f3d 489c 37bf aab9 f5be
000001e0: d6b8 b0bc 71e5 b03d b406 a8be 1c8d 3dbe
000001f0: c838 b7bc 4ce8 4a3e c783 9cbe 5be9 10bf
00000200: cd89 d7bd 57d6 6b3d 7736 b9be cd5d 27be
00000210: 0ace 053e 95df 5d3e 305d 323e 8210 80be
00000220: 826c 25bd 5042 0c3e a07c a5be 2805 53bf
00000230: 78c4 fa3d b8be 90bd 5e68 96bd c6e6 b53c
00000240: 8252 c6bd 2e53 6e3c 00c7 d03b e1a5 6e3d
00000250: 3a9a debd b16c 36be ad0b e9be beef 923c
00000260: dd1d d1bd 7a70 f03e fc60 583e a260 4abd
00000270: 2416 863d b52c 78bf 090b bf3d a758 df3c
00000280: 328a 0a3d b9bc 92bd de09 6ebd 8093 84bd
00000290: 8f0b c8bc e127 753d e925 8ebe 9acc 69bb
000002a0: 1415 7bbd c6ea a83c 5d8c 173f 6605 8fbd
000002b0: 06b1 2dbc d86b 0fbd c023 36bf c5f7 70bb
000002c0: 433f 5bbe cc45 aebe 0b60 a6be a7e0 f6bd
000002d0: 2329 6cbd e0eb 8fbe df5c 8abb e3e1 6a3e
000002e0: aac5 58bd 1d4a 513d 507d 113e 6493 19bf
000002f0: feca 543d efd1 fcbc e6aa c73d 2ea3 e8be
00000300: ab41 0d3e d46c b6bd 40d9 f2bb 9e25 cbbd
00000310: 8994 86bb d247 043f a276 80bd 114e e4bc
00000320: a65a 563d 8db0 0cbf a169 683e 4818 bcbc
00000330: 6bc0 e7bd ec1e 03bf d2bd 31be 0853 883c
00000340: 8df9 47bc 9b0f 41bd 5245 8ebc f5af 583c
00000350: ad58 053c 1713 2a3e 35b6 da3d b286 1a3b
00000360: 0ea6 903d adef 663f cb86 aebc 3c40 363d
00000370: 681d febb e4ce b3bf a004 ac3d d817 42bc
00000380: e073 8d3c b38a fe3e 1420 353d 0681 023b
00000390: 015a 6cbc 2881 3f3f 129f 97bc 6d65 12b9
000003a0: 6686 7ebb a34c a5bf 71b9 5c3b 1de2 adbb
000003b0: 200a 12bd e94d 09bd 1360 0abd 0232 f1bc
000003c0: c796 84be 313a 56bd 713a f63d eba4 ebbd
000003d0: 7b09 98bd 48cc 70be f08f 67bd 0b78 ecbc
000003e0: 32ea 223e 340c 2f3e 2b25 ef3d 36cb 113e
000003f0: fbd5 91bb 8c12 c33d c237 97bc 30b4 0f3e
0.06727059 0.015588176 -0.018349351 0.006018864 -0.03258154 0.06014746 -0.008744219 0.050197847
-0.19090773 0.13535905 0.19406779 0.003492488 0.0765219 0.14533783 0.16003217 -0.0397317
0.39026988 -0.035110597 -0.57738787 -0.28025922 -0.3650731 0.04577766 -0.20615995 0.0008067032
0.11800649 -0.3943871 -0.0095317885 -0.345715 -0.1344548 0.0126764905 0.09470649 -0.62703663
0.07395014 0.054618437 -0.7549678 -0.17997864 -0.06907677 -0.27700105 0.13924432 -0.289357
0.08250969 0.30001444 0.07368856 -0.057676725 -0.09326946 -0.12788978 -0.109142065 -0.083536364
-0.20120136 -0.417001 -0.03926472 0.019191997 0.14746359 -0.104580276 0.24756835 0.111074224
-0.15125573 0.09743006 -0.4753641 0.06789243 -0.21866292 -0.34146413 -0.43310842 0.14470911
-0.111461155 -0.65339696 -0.033860892 -0.030863564 0.06845123 0.1218505 0.13559218 0.06068279
0.2675376 -0.91303885 0.30994526 -0.019274328 -0.05342609 -0.08781801 -0.0038530254 -0.013409419
0.0026138127 0.06024895 -0.15154392 -0.06397505 0.012134291 -0.031020079 0.31734705 0.82142216
0.018531144 0.010342403 -0.29296133 -0.73692006 -0.015873086 -0.03831913 -0.117035784 -0.03161729
0.04840736 0.021644624 0.1357586 0.28754774 0.06958082 -0.00795228 0.21620923 -0.49573913
0.09411397 0.07479742 0.0019110403 -0.6117683 -0.05455181 0.003137002 0.068163544 -0.271954
0.015520358 0.009605408 0.16070789 -0.21858688 0.07746868 0.07774494 -0.7172284 -0.47993213
-0.021572512 0.086375125 -0.32817614 -0.1851086 -0.022365943 0.19815177 -0.30569288 -0.5660607
-0.1052433 0.057577457 -0.36174366 -0.16344376 0.13066879 0.21667321 0.1741836 -0.25012594
-0.040386684 0.13697171 -0.32321644 -0.8242974 0.12244505 -0.07067627 -0.07344125 0.022204768
-0.09683706 0.014546199 0.006371379 0.058263663 -0.1086926 -0.178149 -0.4551672 0.017936584
-0.10210774 0.46960813 0.21130747 -0.049408562 0.06547192 -0.9694322 0.09328277 0.027263952
0.0338232 -0.07164902 -0.05811488 -0.06473446 -0.024419574 0.059852485 -0.27763298 -0.003567493
-0.0612994 0.020619761 0.5919855 -0.069834515 -0.010601288 -0.035014957 -0.711483 -0.0036768776
-0.21410851 -0.34037626 -0.3249515 -0.12054568 -0.05765642 -0.28109646 -0.004222497 0.22937731
-0.052922882 0.05109607 0.14207959 -0.59990525 0.0519514 -0.030861823 0.09749393 -0.45436996
0.13794582 -0.08907476 -0.007411152 -0.09919284 -0.0041070622 0.5167209 -0.062726274 -0.027869256
0.052332543 -0.54956895 0.22696544 -0.022960797 -0.11315998 -0.5121906 -0.17357567 0.016641155
-0.012205494 -0.047134023 -0.017367039 0.013225545 0.008138818 0.16608845 0.106792845 0.002357882
0.070629224 0.90209466 -0.021304509 0.044494852 -0.0077549703 -1.4047513 0.0839932 -0.011846505
0.017267168 0.49715194 0.044220045 0.001991333 -0.0144257555 0.7480645 -0.018508468 -0.00013961429
-0.0038837432 -1.2914013 0.0033679868 -0.005306496 -0.035654187 -0.033521567 -0.03378303 -0.02944279
-0.25896284 -0.05230159 0.120228656 -0.11506065 -0.07423683 -0.23515427 -0.056533754 -0.028865835
0.15909651 0.17094499 0.11677011 0.14237675 -0.0044505573 0.09525022 -0.018459205 0.1403358

weight f4 [32, 32, 5, 5]
00000000: 6c6c 4e3e 4c87 40be b087 b13d d454 d83d
00000010: 5dc4 0f3e 66fd 3e3e b4bf 75be 276f 0c3d
00000020: 7422 6dbd 7181 86be 0361 8d3d 4755 b8bd
00000030: 4013 293d 041b 8abe d57f 113d 4324 79bd
00000040: 2c7d 03bf 32be a5be 8c25 82bc e2f5 69be
00000050: 7623 3b3d 7398 9e3d 8c20 25be 5687 603d
00000060: d601 ce3d b4c8 573e e7fe 6abe 1909 493e
00000070: fe47 8b3e b846 b93e fd04 5e3e 4699 d53e
00000080: 8ff3 1dbe 40b9 74bd b68c a33d afc5 333e
00000090: 6258 e9be 8d4b c9be 07fb 223e ebd4 aabe
000000a0: e88c e6bc 8e5b 043e fdbb 7fbd 64d1 303c
000000b0: 2a7f b1be b545 40be 0e29 053f 3a5e 0dbc
000000c0: eccd 5b3e d406 563e baaa d03d 9454 7bbe
000000d0: 0320 243e 0270 3b3d e4ff 603e 7f75 b63e
000000e0: acf9 193e 3835 8dbe ab9d 09bf 39b2 8bbe
000000f0: 2cd5 64bc fd18 143e f0cc 8bbc 368d 51be
00000100: f8b5 383d 8bde 7a3e c0f7 d9be 5b57 db3d
00000110: 7296 e23d 1cdc 55be 5fce 4abc 9a7d 70be
00000120: 9b78 2b3c abe1 babe fc1e 9d3e 79a0 aebe
00000130: aa91 b7be a7b5 813e 53f9 39bf e910 653e
00000140: 005a f9be 3324 323e 862f be3d bb7b e4be
00000150: 2cd1 7cbe 748b 22bf a11c 3cbe d7fa 60be
00000160: 3a70 1b3d 4ff4 20bf 3bd9 a7bf eba2 3c3e
00000170: 9b98 f5be 9c8b bf3d f369 393e ea3f cabd
00000180: 9a28 3a3e bb3b cebd c12f ba3e b183 85be
00000190: 4b2d a4bd 0dca b43e b528 b73d 20a6 493f
000001a0: 39ce 30bf 8724 0abf f4b5 db3e 1e9b 133d
000001b0: b083 fe3d 9217 2b3d 89cb efbe 16b8 a13d
000001c0: 207f 473e 5f7b 57be 7024 253f 6d8b a6be
000001d0: ab81 fabd 2495 f7be 714d 63be ca1f 9cbe
000001e0: 083e fe3d 5b8f 153e e5c0 273e ca7b debd
000001f0: 13f2 b0bd 4824 e0bd e2b6 313e a31e 0ebe
00000200: 1291 473d 0e4e c9bc d4ab 0ebd fd47 e3bd
00000210: 2052 443e d587 333d 81f3 21be da62 b3bc
00000220: 4144 39bd 9afd 59bd ab77 65bd b811 58be
00000230: 3c01 ffbe c5a1 88bf cefa 06bf 47c4 f5bd
00000240: f3b5 07bf 8883 5d3d 4dc4 aabd 8c20 c9bc
00000250: a169 73be 58de edbe 2db4 e03e 9ee8 e23d
00000260: 974b d9bb f1a8 eabe 4226 ddbe db7d 763e
00000270: 48d7 2a3e 8914 c1be 7875 0b3d de24 85bf
00000280: f8c5 253d d142 843e faa1 91be 37cf 6c3e
00000290: f81e f03d c8a7 b6be e192 5cbe 50f1 98be
000002a0: 4c7b 503d 578d a0be 7f37 a73b edd9 5a3d
000002b0: f0ca de3d 6d9a 883e 86ef 2f3e d7c9 08be
000002c0: f4b0 08bf 138f 023f a7e4 63be cce6 81be
000002d0: e22c 313e 9da2 21bc c04a de3d 3497 613e
000002e0: 308f 8abf e107 843e 3a33 b6be b7b1 8ebe
000002f0: 5f9d 1e3e ee1f 40bb 1b6c 8e3e 2858 85be
00000300: 0235 07be ea20 c03d 882f ee3e 1485 a8be
00000310: 35be 6fbe 3e5f a0bd 0348 883e 2f84 0a3e
00000320: 0d03 773e 7100 f4bd 7880 693e bf02 943e
00000330: c14f 8c3e 4aae 37bf bd38 1abc f94e 1fbe
00000340: 2246 1c3d 8766 b0bd 55f9 10bf bf68 3f3e
00000350: 0f33 32be f9b7 a43d 969d 27bf f338 ffbe
00000360: 86d2 a3be 0953 68be ceb9 553d 7393 d63d
00000370: ed3e 81be dd4c 893d c88b 14bc cc11 a9be
00000380: 0108 b73e 2c79 d43d 2555 ad3d 44eb 81be
00000390: f400 71bc e82c e7bb 27f1 d4be 230f 8a3d
000003a0: dcdc 3fbe 01fe 14bf 7b3d 46be d653 55bf
000003b0: aa95 f4bd 7b57 c0bd a3e3 623c b23f a7be
000003c0: 2953 bbbd 11b5 983e 60f8 cdbe 3d2c 973d
000003d0: 9f3f 23bf 5ef4 54be 7c6f 3d3e 907e 0e3e
000003e0: 5537 93bd a193 293e 53af c83e 0ebf 49bf
000003f0: 75b3 54bd 9532 573e f69e 59bc dca4 1ebf
0.20158547 -0.18801612 0.086684585 0.10563055 0.1403975 0.18651351 -0.2399891 0.03428569
-0.057894185 -0.2627063 0.06903269 -0.0900064 0.041278124 -0.26973736 0.0355223 -0.060825597
-0.5136287 -0.3237167 -0.015887044 -0.22847703 0.045688115 0.07743921 -0.16125697 0.054816566
0.10058944 0.21072656 -0.229488 0.19632377 0.27203363 0.36186767 0.2168159 0.417185
-0.15424941 -0.05974698 0.07985823 0.17555879 -0.45575243 -0.39315453 0.15916072 -0.3336557
-0.028143361 0.1292555 -0.06243514 0.01079211 -0.3466733 -0.18776591 0.5201577 -0.008628422
0.21465272 0.20901042 0.101888135 -0.24543983 0.16027837 0.045761116 0.21972615 0.35636517
0.15036649 -0.27579665 -0.5375621 -0.2728441 -0.01396684 0.14462657 -0.017065495 -0.20464024
0.045095414 0.24498956 -0.4257183 0.10710021 0.110638514 -0.20884746 -0.012378304 -0.23485413
0.010465766 -0.36500296 0.30687702 -0.34106806 -0.3585332 0.25333902 -0.72646064 0.22369732
-0.48701477 0.17396621 0.09286408 -0.4462565 -0.24689168 -0.6349404 -0.18370296 -0.21970688
0.037948824 -0.62872785 -1.3113168 0.18421523 -0.4796799 0.093528 0.18106823 -0.09875472
0.18179551 -0.100699864 0.36364558 -0.26077035 -0.080164514 0.35310403 0.08943311 0.7876911
-0.6906467 -0.53961986 0.42912257 0.036036603 0.12427461 0.041770525 -0.46834973 0.0789644
0.19482088 -0.21043156 0.64508724 -0.32528248 -0.122317635 -0.48355973 -0.2219751 -0.30493003
0.12414175 0.14605467 0.16382177 -0.10863455 -0.08639922 -0.1094442 0.1735492 -0.13878874
0.048722334 -0.024573352 -0.034831837 -0.11097715 0.19171953 0.04383071 -0.15815546 -0.021897722
-0.045231108 -0.05322037 -0.056022327 -0.21100509 -0.4980563 -1.0674368 -0.5272645 -0.120003276
-0.5301201 0.054080516 -0.08338223 -0.024551652 -0.23770763 -0.46458697 0.43887463 0.110795245
-0.0066313255 -0.45832017 -0.4319325 0.24071448 0.16683686 -0.3771098 0.034047574 -1.0401876
0.040472 0.25832227 -0.2844389 0.23125921 0.11724657 -0.35674882 -0.21540405 -0.29871607
0.050898835 -0.31357834 0.005103051 0.053430486 0.10878551 0.26680318 0.17181215 -0.13358246
-0.5339501 0.50999564 -0.22255193 -0.25371397 0.17302278 -0.00986543 0.10854101 0.22030336
-1.0824947 0.2578726 -0.35585958 -0.2786996 0.1548972 -0.0029315907 0.27816853 -0.2604382
-0.13203815 0.09381278 0.46520638 -0.3291403 -0.23412402 -0.07830666 0.2661744 0.13526987
0.24122258 -0.11914147 0.22802913 0.28908345 0.27404597 -0.7175032 -0.0094129415 -0.1555747
0.03815282 -0.086133055 -0.5663045 0.18692301 -0.1740229 0.080429025 -0.6547483 -0.49848136
-0.31996554 -0.22687925 0.05217915 0.104773425 -0.2524332 0.06704114 -0.00906653 -0.3302139
0.35748294 0.10374674 0.08463506 -0.25374806 -0.0147097 -0.007054914 -0.41590235 0.06741168
-0.18736595 -0.5820008 -0.1935939 -0.8333105 -0.11942609 -0.093916856 0.013848218 -0.32665783
-0.09146721 0.29825643 -0.40228558 0.07381485 -0.63768953 -0.20796344 0.18499559 0.13915467
-0.07188288 0.16560222 0.39196262 -0.7880715 -0.051928956 0.2101539 -0.013282528 -0.61970305

weight f4 [64, 32, 5, 5]
00000000: 8c00 323e 422c 893d c5d9 e5bd 9a9e 4a3e
00000010: 5f57 bbbe 826f 643e f3e5 0c3e da00 e83d
00000020: 6105 dabd 6c79 313d fdb1 e8bc 876a 6cbe
00000030: 59de 1fbe 635d 673b 4fde 1f3f 1dae e7bd
00000040: c4ee a93d b9d0 1f3e 0311 91bd 1995 a53e
00000050: a7f2 93bd c42f 4ebe 8b73 54bd cb44 da3e
00000060: 27bc b03d 3e0e eb3e 77f4 cabe 6d09 e6bd
00000070: 7c2d 8fbe 588a fe3d c47f aebd f33e b73e
00000080: acd6 663e 1ade fcbe 19c9 8fbe 3d0d 99be
00000090: 329a f83d c3ae fb3e 246d 08bd 31e5 60be
000000a0: 3925 e63e cb49 b03e 21d6 a1be 6180 ea3e
000000b0: e399 01be 156d f9bd 3689 f23e a6e4 da3e
000000c0: 74cb 4b3e cc5c e9bc 7714 d0be 5f1c ca3d
000000d0: 3385 cd3e 4359 4f3c 1329 30bd 0100 163f
000000e0: 840c 74bd 6a43 28bf 6034 f0be ab5a 49bf
000000f0: ed25 a13e 15c6 223d 84ff b7be 39ec 973e
00000100: 8d5b 96be d850 1d3d a42f 8c3c b606 cd3e
00000110: cfc8 42be 42e1 3bbe bbc7 223f 314e 643e
00000120: f0ed a3bd 2f86 fc3d 4cbf 56be cf91 7ebe
00000130: 71ca eabe c523 983c 87fe 883e 26f2 b0be
00000140: 4afa 163f 182e bd3e 9a3c d13d 2a29 9c3e
00000150: e402 d73e a49c 8ebd 9e07 acbe d763 bbbe
00000160: 8e9f 86be 6cd7 90bf 1f53 49bf 7cd6 c93d
00000170: 7dae b9bf f5d4 c3be dac4 123e 921e 733e
00000180: 6abb 643d a821 30be 1b13 003f ad8e a83d
00000190: f2bf c8be 887b 9b3e d914 883c d972 8e3d
000001a0: ccc1 913e f1d7 0b3d 25d6 3fbe 149e 753e
000001b0: e912 0d3e 22aa 2e3f b890 7a3e 02c4 b83d
000001c0: 41a4 56be 10e7 93bd 0198 94be 5375 63be
000001d0: 478f cc3d fb33 9fbe 0145 3ebf f70b 23bf
000001e0: ddc4 c9be 5652 efbd 2599 003c 4103 ab3e
000001f0: cc93 46be d0a3 3abe 7228 0ebf 5e93 44be
00000200: 5a09 b23e e644 77bf cff9 e73e be31 81be
00000210: 14a1 433e 02bf 893b d837 19be c9d9 b83d
00000220: f2f2 1c3e abb8 a03e caab 9abd 4491 82be
00000230: 1aff 1ebf 79ee 63be abb3 d03d f590 ebbd
00000240: 0966 97bc e68b d9be a6fb 37bd 21f5 003e
00000250: 9773 90bc 36d4 1a3e 1fb2 e33c 1c48 d7be
00000260: 9de9 0dbb 3bfc 82be 5ed5 09bf 93ec f63d
00000270: fa1b f13c 6df2 3b3e 5b7e 60bd 9f75 133d
00000280: 8899 58bc ad62 553e 08fa 913e a851 94be
00000290: 464b 47be 47b6 453d 9938 96bd f6fe 46bd
000002a0: d226 11be 8d74 edbe f4d3 b63e ee1f 293e
000002b0: aa81 fe3d 2a40 a8bd 9a36 dabe 6b7d 8bbd
000002c0: 0112 13bf ae3a bbbd b68e 10bd da08 8f3e
000002d0: 3b9e da3e 1330 c93b f435 06bd 4906 3abd
000002e0: 3947 623e 556e d73e 0e34 cbbe beeb 48be
000002f0: 12f3 b93e 914c de3e fd68 5fbe e4e2 02be
00000300: 5ca6 3cbc 6447 13be 0a0d abbd 64d3 c23e
00000310: 6a32 0bbe 506d 943d 00d8 32bf 256b 32be
00000320: 1be5 1a3e be35 913e 4de6 0f3c 24fa d3be
00000330: e295 6f3b bfe8 bb3e b03f 7abf 8795 133e
00000340: 7a78 8dbe 59f5 2c3e b5f2 e83e aaaf 273e
00000350: d7de ac3c d4d0 51be 81d9 f0be d99a de3e
00000360: ba1f 3fbd fc4f 243e 2669 acbd 8785 0f3f
00000370: 9a5d a73e 3c82 7abd 682d 0fbe 4ac0 ea3d
00000380: 710b bfbd 68e3 fb3e 14f8 7e3d 8eff 4fbe
00000390: 8363 99be 2c10 ad3e daca 913d 9197 e63e
000003a0: c1ce 353e 50f1 3abc bb63 223f 8f58 9a3d
000003b0: 6259 903e 9c64 5f3d 0b71 de3d 8cb3 1f3e
000003c0: 179a d13e a59a 263e c4c3 43be 5309 aa3e
000003d0: aba3 df3c ac0a 263e 5687 64be c27d 343e
000003e0: ff46 f13e bae2 c4be 9061 983e aa59 4e3d
000003f0: da02 c73e b109 a2bc a13c 003f d32e db3e
0.17383021 0.06697895 -0.11223177 0.19787064 -0.36590096 0.22308162 0.13759594 0.113282874
-0.10645557 0.043328688 -0.028405184 -0.23087512 -0.15612163 0.0035303466 0.6244859 -0.11312506
0.08297494 0.15606965 -0.07083323 0.32340315 -0.07224017 -0.20135409 -0.051868003 0.4263061
0.08629637 0.45909303 -0.39639637 -0.112322666 -0.2796439 0.12428731 -0.08520463 0.35790214
0.22542828 -0.493882 -0.28083113 -0.29892913 0.121387854 0.4915677 -0.03330721 -0.2196243
0.44950274 0.344313 -0.3160868 0.4580107 -0.1265636 -0.12179009 0.4737031 0.4275257
0.1990183 -0.028486632 -0.40640613 0.098686926 0.40140685 0.012655559 -0.04300792 0.58593756
-0.05958225 -0.65727866 -0.4691496 -0.78653973 0.31474248 0.039739687 -0.3593713 0.2967241
-0.29366723 0.038407177 0.01711256 0.40044183 -0.19021915 -0.18347648 0.63586015 0.22295453
-0.08004367 0.12330281 -0.20971411 -0.24860309 -0.45857576 0.018571744 0.2675669 -0.34559745
0.5897566 0.3694923 0.10216637 0.30500156 0.41994393 -0.069634706 -0.3359956 -0.3659961
-0.26293606 -1.1315742 -0.7864246 0.09855363 -1.4506375 -0.3824841 0.14332905 0.2374213
0.055842794 -0.17200339 0.5002915 0.08230338 -0.39208943 0.30367684 0.016611503 0.06955499
0.28468168 0.034141485 -0.18734033 0.23986083 0.13776745 0.6822835 0.24469268 0.090217605
-0.20961095 -0.07221806 -0.2902222 -0.22212724 0.099882655 -0.31094345 -0.7432404 -0.6369013
-0.39408007 -0.11685626 0.0078490125 0.3340092 -0.19392318 -0.18226552 -0.55530465 -0.19196841
0.3477276 -0.96589506 0.45307776 -0.25233263 0.19104415 0.004203678 -0.14962709 0.09025914
0.15327051 0.3139089 -0.075522974 -0.25501454 -0.62108004 -0.22258939 0.10190519 -0.11502258
-0.018481271 -0.42489547 -0.044917725 0.1259351 -0.017633243 0.15120015 0.027794896 -0.42047203
-0.0021654137 -0.25583062 -0.538412 0.12056842 0.029432286 0.18354197 -0.054808002 0.036000844
-0.013220198 0.20838423 0.2851107 -0.2896855 -0.19462308 0.048269536 -0.07335014 -0.048582993
-0.14174965 -0.46377984 0.35708582 0.16516086 0.12427075 -0.08215363 -0.42619783 -0.06811031
-0.57449347 -0.09142052 -0.03529235 0.2793644 0.42698845 0.006139764 -0.032766297 -0.04541615
0.22097482 0.42076364 -0.39688152 -0.19621179 0.3631826 0.4341779 -0.21817394 -0.12781864
-0.011514273 -0.14382702 -0.083520964 0.38051903 -0.1359345 0.07247412 -0.6986084 -0.17423685
0.1512646 0.28361315 0.008782935 -0.4140178 0.0036557843 0.3670101 -0.9775343 0.14412509
-0.2763098 0.16890468 0.4549767 0.16375604 0.021102352 -0.20489818 -0.47040942 0.43477514
-0.046661116 0.16046137 -0.08418493 0.5606312 0.326886 -0.061159357 -0.13982165 0.114624575
-0.09328354 0.49196935 0.062248304 -0.2031233 -0.29958734 0.338014 0.07118769 0.4503751
0.17754652 -0.011410072 0.63433427 0.075364225 0.28193194 0.054539308 0.10861405 0.15595835
0.40937874 0.1626993 -0.19117647 0.3321024 0.027299723 0.16215008 -0.22317252 0.17626098
0.47124478 -0.3845423 0.29761934 0.05037848 0.38869363 -0.019780012 0.5009251 0.42809162

weight f4 [256, 256]
00000000: c865 163d 1095 033d 10af b1bb 3cb7 3b3d
00000010: a30c b63d b212 aabc 96b9 90bd 6887 d0bd
00000020: 4cbf 573c e351 fbbd f134 85bd afee 3e3d
00000030: 713c fa3d 8303 b43d 5e3c 4cbd 1288 143d
00000040: 2a3e 38be eb50 143e 5095 203d 0706 20ba
00000050: 7f56 f8bd c510 403d 0077 f5bc ff40 c1bd
00000060: 6bab 963d c132 15be 334a 23be c221 07bd
00000070: e946 343d 4391 423c cf95 d1bc cd20 013d
00000080: c97a 1b3f b9d9 68be 86d1 5a3c dd82 003e
00000090: f252 453c 84e2 1b3c cf8f 01bd dbfa 193b
000000a0: 8ce9 f93a 1aab 8ebe fc20 643c 6eb4 7abd
000000b0: e957 823b a376 2bbd 2102 42be 128c 273d
000000c0: 6914 95bd 7c71 343d 94df abbd 56b7 823e
000000d0: ad36 84bc 8046 ed3b 38d7 7cbd cd84 b9bd
000000e0: a448 46bd e59d ddbe 795a 733e 44d8 40bd
000000f0: 0041 303e 288c 23bb 9bc5 49be 0cca 84be
00000100: 236e 9abd 8993 99bd 93ff b1bd 758e 9b3d
00000110: c05c 303e 57fa 3dbc 0c48 8d3d 36f6 8bbd
00000120: 4646 2fbd 0f7f 20bd 9671 933d 2d8a 90bb
00000130: 90fe 03be 5b01 483d 2bdc 36bd 7bd0 37bc
00000140: d522 383d 0226 e2bc ceea fb3d aa0f dd3d
00000150: 3298 0ebe f677 97bc 1681 853b 104b a9bb
00000160: 1c06 7dbb 31d3 393d 0e3c b2bd 32f0 d1ba
00000170: dd54 123d 4fa4 36bd 74ed 2b3d 6312 b7bd
00000180: a395 0a3f b907 5abe a0b0 3dbd c74d 9f3d
00000190: 5a7b 603e f2a0 a6bd 83c9 7e3e 9602 0bbf
000001a0: 3884 e83d 962c a13d 9913 be3b 724f e13d
000001b0: 2dd9 093e a59f 403c 3601 253e d4a0 4d3e
000001c0: 558d 4bbc c250 a2bd e4db 70bd c307 7c3d
000001d0: 2713 b7bd e598 f33c edbd 16bc 6729 6539
000001e0: 53f0 27be 5b59 cd3d bc52 8dbe be1f 90be
000001f0: 5a12 5d3d ccc9 083d 5e5c 94bc 5f7f bebd
00000200: b8e7 ebbd 50da 06be ab09 10be 9590 6e3e
00000210: c4aa a63d decf b3bd ffb6 9abd 2609 b8bc
00000220: 787e 87bb 4296 803c bdd5 1d3c e8d5 91bc
00000230: 792e c7bd ecdb 85bc 047d c13d e2be d43c
00000240: a21d f63d 1958 913c 4ab2 0c3d 2dc9 d9bd
00000250: 03b3 ecbc a3df 893d 0302 c4bc 9211 79bc
00000260: 7bad 803d 9894 af3d 8bc2 a03d ec9c 21be
00000270: 2635 5a3d 2b73 a7bd b06d d0bd 8838 e63d
00000280: b2fd 77bd 0417 123d 8cd0 63bd 1160 a43d
00000290: 2946 d9bd bc80 343d c242 993d 209e 7abb
000002a0: fe99 b53d d49d d33d 63c6 413d 4bcf b13d
000002b0: 9ffd 0ebe d4d9 febd fbd3 b5bb 6cd0 dabe
000002c0: 09a3 853d 9f44 843b 184b b03d ca70 a7bd
000002d0: c7f9 9abd 2ce8 82bd db41 923b 5bad 3dbc
000002e0: 6a21 4fbe 2aba d1bd 2071 113d 76b8 edbd
000002f0: 239e b53b b7cd b03d c764 80bd 4131 e6bc
00000300: 3e45 d0bc dbd3 ccbd eea1 4a3d e454 b33e
00000310: 9b83 3d3c c878 36bd be48 16bd 3436 213d
00000320: bba9 a0bd 8c85 9ebe 392e 263e 5f2e d13b
00000330: 5aaa 65bd 4c6d d13d 38b2 f43d af6b 013d
00000340: 8609 003e 5253 383d 0942 e43c 25f8 dcbb
00000350: 6bc3 743e 1797 903c 768e 6abe 2f5d 27be
00000360: db99 a33d 8b2b 233e 8a8f b0bd ff63 833d
00000370: 3c13 30bd c81a 0c3d 67f3 4bbd 040d 213c
00000380: 877e 2b3d 1b60 36bd 1dde e83d a227 02bd
00000390: 572b 3f3d 6577 553d 1f15 0c3d 9c74 b0bd
000003a0: 6f4c 61bd 0f0e 383d 081a 8a3d 1238 813d
000003b0: d135 38be 9e62 5d3d 1e30 aa3e cdcc 013c
000003c0: 844d 383e bd8b ae3c 080d e4bd aee9 57bd
000003d0: 7a16 53bd 68f5 853d 187b 243c e1c8 a63d
000003e0: 7931 f73d 9655 0f3d 4cb4 b73d e2b7 b53d
000003f0: a81c 9b3c 0a0b 0fbc 2c3a b43c 7baa 8dba
0.03671816 0.03212458 -0.0054224804 0.045829043 0.08889129 -0.020760868 -0.07066648 -0.10182077
0.013168167 -0.12271478 -0.065042384 0.046614345 0.122185595 0.08789732 -0.049862258 0.03626258
-0.17992464 0.14483993 0.039204895 -0.0006104414 -0.12125873 0.046890993 -0.02996397 -0.09436225
0.07356914 -0.14570142 -0.15946274 -0.03299118 0.044012938 0.011875453 -0.02558413 0.031525422
0.6073423 -0.22739305 0.013355618 0.1254992 0.0120437015 0.009514455 -0.031631287 0.0023495469
0.0019066795 -0.27864915 0.01392388 -0.061207227 0.003977765 -0.041861188 -0.18946125 0.040905066
-0.072792836 0.04405354 -0.083922535 0.255305 -0.016139353 0.0072410703 -0.061728686 -0.09058533
-0.04840912 -0.43284526 0.23764981 -0.047081247 0.17212296 -0.0024955366 -0.19704287 -0.259354
-0.07540538 -0.07498843 -0.08691325 0.07595531 0.17222881 -0.01159533 0.068985075 -0.068340704
-0.042791627 -0.039183673 0.07199399 -0.004411003 -0.12890077 0.048829418 -0.044643562 -0.011219139
0.044955093 -0.027606014 0.12300645 0.10794003 -0.13925245 -0.018489819 0.004074226 -0.005166419
-0.0038608378 0.045367423 -0.08702861 -0.0016017018 0.035725463 -0.04459029 0.0419745 -0.08939054
0.5413458 -0.21292008 -0.04631102 0.07778507 0.21922055 -0.08136167 0.24881558 -0.5430082
0.11353344 0.07869832 0.005800676 0.11001481 0.13461752 0.011756812 0.16113743 0.20080882
-0.012423833 -0.079255596 -0.058803454 0.06153084 -0.089392 0.029735992 -0.009200555 0.00021854565
-0.1640027 0.10026809 -0.27602184 -0.28149217 0.05397258 0.033395573 -0.01811045 -0.09301638
-0.11518806 -0.13169217 -0.14066188 0.23297341 0.0813804 -0.08779882 -0.07554435 -0.0224653
-0.0041349493 0.015696649 0.009633479 -0.017802194 -0.09725661 -0.016340218 0.09447673 0.025969926
0.12017371 0.017742204 0.034349717 -0.10634074 -0.028893953 0.067321084 -0.02392674 -0.015201943
0.06283089 0.08573264 0.07849606 -0.15782517 0.053273343 -0.081762634 -0.10177171 0.11241251
-0.060544677 0.03566648 -0.055618808 0.08026136 -0.10609085 0.044068083 0.07483436 -0.0038241223
0.08867262 0.10332838 0.047308337 0.08682116 -0.13963936 -0.12443891 -0.0055489517 -0.42737138
0.06525237 0.0040365006 0.08608073 -0.0817581 -0.075671725 -0.063919395 0.004463417 -0.011576976
-0.2022759 -0.10240586 0.035508275 -0.11607449 0.005542533 0.08632987 -0.06269222 -0.028099658
-0.025423642 -0.10001346 0.049470834 0.35025704 0.011567022 -0.04454878 -0.036690466 0.039358333
-0.078448735 -0.30961263 0.1622857 0.0063837017 -0.056070663 0.10225925 0.11948055 0.031596836
0.12503633 0.045001335 0.02786352 -0.0067434483 0.23902671 0.01765017 -0.22905907 -0.1634414
0.0798833 0.15934579 -0.08621128 0.06415557 -0.042987093 0.034205228 -0.049792673 0.009829763
0.041868713 -0.044525247 0.1137049 -0.031776078 0.04667219 0.052115817 0.03419983 -0.086159915
-0.055004533 0.044935282 0.06743246 0.06309523 -0.1798928 0.054049127 0.33239836 0.0079223635
0.1799832 0.021306867 -0.11135298 -0.05271309 -0.051535107 0.06540948 0.010039113 0.08143783
0.12069983 0.03499373 0.08969936 0.088729635 0.018934563 -0.008730659 0.022000395 -0.0010808253

bias f4 [256]
00000000: 9c39 2e3c ef89 2c3c 7757 9b3d 8dfd 33bc
00000010: a10c 18bd e949 ccbd eb85 5bbd 5a51 593d
00000020: 2259 113e b199 f0bd 6a87 de3c cac4 85bc
00000030: 3df1 a43d 3e90 a3bd 2d31 f9bc 167c fabc
00000040: af0b 49bc 49c8 4cbd 2a13 993d 5e24 a0bd
00000050: 08b7 e03c 9828 80bd 9a0c a23d 36e8 533e
00000060: b6e9 14be 536a 063e 1c84 553d 1600 acbd
00000070: c51e e1bd bc09 01be 11f8 043e af7c fd3d
00000080: 40a3 37bd 6108 6f3c 3352 673d c86e 8cbc
00000090: 9120 eebd 97ee 91bb 5036 19bd 1753 19be
000000a0: 86ac 60bd d415 673d e31f 523d d030 dabd
000000b0: 7d60 59bd e84a f63c eff3 cd3d 0357 253e
000000c0: 0231 e7bb 79ba a03d 6f53 36bd 8c43 ee3c
000000d0: 0776 0dbe f658 da3d c3d8 f73d fb52 ecbc
000000e0: ed95 3cbd 82c7 303d caf2 4a3e 3e26 153c
000000f0: 9256 4abc 59e4 393d c954 05be e565 863c
00000100: 6b5d e23b 69cc 263d 9086 b23b 7a29 62bd
00000110: c236 a3bd 48ca 68be b0f1 50bd 5d12 b4bc
00000120: 945f a6bd a18b a63d d107 2d3d e481 393d
00000130: 0c6a 9e3c c495 253d 8d1b 6a3d fe54 39bd
00000140: 69a1 20be d935 073d 6cc8 06bc 3cc8 16bd
00000150: 7b84 d8bd c668 bb3d 2adf a23d 9aea 233d
00000160: 9c1f 323e 14f0 87bd 7f69 953d 591b 7cbc
00000170: b929 fb3c 913b d43d 7aac 943d fb10 313d
00000180: d2d5 1bbe 6789 6d3e 14d3 17be 1bb9 533a
00000190: 0a3a 463d b45e 14be a68f 00be 26e1 95bc
000001a0: 8a88 93bd e66c 47bd ac66 a2bd bedf fd3d
000001b0: 4694 083e e4f3 253d 5d2c adbd c21f b53d
000001c0: 1c01 96bc 1ee7 0e3c 6210 72bd 7149 ae3c
000001d0: e5d7 c0bd 5c95 f4bd 5987 14bd dbd2 92bd
000001e0: bd85 d2bc 8bde 243e db47 863d a71b b9bc
000001f0: 78bd e9bb 9e44 4b3c 172b ffbc 2aef b3bb
00000200: b97a a2bd ebaf fc3c 9c76 3d3d 838a a03d
00000210: 00b0 ccbd 11fd 1b3b b712 c53d c7ee b63d
00000220: a0ce e5bd f097 8fbc 823d 5abd 54d7 b8bd
00000230: 678e e63d 3391 4bbb e88f 02bd 6ee7 efbd
00000240: 2d46 0f3d 3707 963c 840a 69bd 416f 3b3e
00000250: ba82 2d3d 1f73 153e aa22 f3bc ffc4 803d
00000260: 6376 d43c 919f c23c 1a14 0bbd fc52 153c
00000270: 1c7c be3d c6cc da3b 7487 eebd 6bc2 d1bd
00000280: 1a54 be3c e773 95bc 297e 6e3c ebbd 96bb
00000290: de74 a53d f957 26be 644f 9e3d fb4e 58bd
000002a0: 7148 47bc a227 3fbd ea2f e2ba 48b2 373d
000002b0: 8a89 cbbc 5908 edbc 9c71 1f3d 102f e63d
000002c0: f249 7c3d cdcb a7bd 8715 ccbd 9030 f8bd
000002d0: 085d 643d 9aa9 c03c 09c7 2f3e 0e8d f2bc
000002e0: daf0 273d af0e a9bd 2668 253e 7b98 08bd
000002f0: ce44 59bd 40de 8bbd 7983 61bd eda9 29bb
00000300: 2f77 c3bc c77d 033e 08de abbd db78 d03d
00000310: 960c e63c 1446 4dbd f5fb 9b3c a20e 2c3d
00000320: 06b6 6a3d 798f 9dbd 7a02 b33d 17be 2dbd
00000330: 96d7 8d3c 33a9 41bd 2951 023d c549 683d
00000340: 48cf 263e e05a b13c 87e2 5fbd a201 a0bd
00000350: a3d1 0abd 4067 ed3d 0dac c0bd 7ce4 d63d
00000360: a64c b33c 094a 2b3e 391e c53c dc0d 1fbd
00000370: a887 413d 9075 7bba 5bd0 8d3d fe7b 043e
00000380: e060 ed3d 6bef 843b 6e46 dd3c 11b7 62bc
00000390: d7cc e53a 7d1d 6aba 042e 8abc e5a3 15be
000003a0: 055d 46bd d923 d83d f627 41bd cfcc be3d
000003b0: c7b2 27bd 235f 993d 2d5d 1abe d4b9 47bc
000003c0: f6b5 f4bc 9d8b c73c 3688 f3bc 41e0 1dbe
000003d0: eb4e a53d e44f 6eba e8e0 253b 1125 2d3d
000003e0: 41cf b9bd e08e 613d 7a7d 953b f414 c33b
000003f0: 3c7a f4bd 3db9 85bc 3758 4e3d f4b4 dc3d
0.010633852 0.010530933 0.07585042 -0.010985744 -0.03712142 -0.09975035 -0.05359451 0.0530561
0.14194158 -0.11748064 0.02716418 -0.016329188 0.08053825 -0.079864964 -0.030418957 -0.030576747
-0.012270852 -0.049995694 0.074743584 -0.078194365 0.027431026 -0.06257743 0.0791256 0.2069405
-0.14542279 0.13126497 0.052127942 -0.08398454 -0.10992197 -0.1260137 0.12985255 0.12377297
-0.04483342 0.0145894 0.056474876 -0.017142668 -0.11627305 -0.004453491 -0.037405312 -0.14973103
-0.05485203 0.0564173 0.05129994 -0.106538415 -0.053070534 0.030065015 0.10056292 0.16146474
-0.0070554027 0.07848067 -0.044513162 0.029084943 -0.13814555 0.10661499 0.12101891 -0.028848162
-0.046041418 0.043159015 0.19819179 0.009103356 -0.0123497415 0.045383785 -0.13020624 0.016406009
0.006908109 0.040722284 0.00544817 -0.055215336 -0.079694286 -0.22733414 -0.05101174 -0.021981413
-0.08123699 0.08132101 0.042243782 0.04528989 0.019337676 0.04042603 0.05715518 -0.04524707
-0.15686573 0.033010338 -0.008226495 -0.036812052 -0.10572144 0.09150843 0.079527214 0.040018655
0.1739487 -0.06637588 0.072955124 -0.01538738 0.030659543 0.10362924 0.0725946 0.043229084
-0.15218285 0.23196946 -0.14826614 0.0008076594 0.048395194 -0.14489251 -0.12554798 -0.018295836
-0.07203777 -0.048687838 -0.07929739 0.12396191 0.13337812 0.040515795 -0.08455727 0.08843948
-0.018311076 0.008722095 -0.059097655 0.021275254 -0.094161786 -0.119425505 -0.03626189 -0.07169124
-0.025698537 0.16100518 0.06556674 -0.022596193 -0.007133182 0.012406496 -0.031148477 -0.005491157
-0.07933564 0.030845603 0.046255693 0.07838919 -0.09994507 0.0023801962 0.0962271 0.08932262
-0.11221051 -0.017528504 -0.053281315 -0.090254456 0.1125763 -0.0031061887 -0.03187552 -0.117140636
0.034979034 0.018313987 -0.056894794 0.18304159 0.042361 0.14594696 -0.029679615 0.06287574
0.025935357 0.023757728 -0.033954717 0.009114023 0.09301016 0.006677243 -0.116469294 -0.102421604
0.023233462 -0.018243743 0.014556446 -0.0046002767 0.08078931 -0.16244496 0.07729986 -0.052809697
-0.0121632675 -0.046668656 -0.0017256711 0.044847757 -0.024845857 -0.028934645 0.038926706 0.11239445
0.061593957 -0.08193169 -0.099650435 -0.121186376 0.055752784 0.023518372 0.1716577 -0.029608276
0.04100118 -0.08254754 0.1615301 -0.03334854 -0.053044133 -0.068295 -0.055057023 -0.0025888637
-0.023860542 0.12840949 -0.083919585 0.10179301 0.028082173 -0.05011566 0.01904104 0.042006142
0.057302497 -0.07693381 0.08740707 -0.042417612 0.017314713 -0.0472805 0.03181568 0.056710977
0.16290009 0.021649778 -0.054659393 -0.078128114 -0.03389133 0.11591959 -0.09407816 0.10492799
0.021887135 0.16727461 0.024062263 -0.038831577 0.047248513 -0.00095924083 0.06924506 0.12937924
0.11590743 0.004056861 0.027011123 -0.013837592 0.001753236 -0.00089307857 -0.016867645 -0.14613302
-0.048428554 0.105537124 -0.04715725 0.09316408 -0.04094198 0.07488849 -0.15074606 -0.012190301
-0.029871922 0.024358565 -0.029728036 -0.15417577 0.08071693 -0.0009090884 0.0025311057 0.042271677
-0.09072734 0.055067897 0.004562077 0.0059534255 -0.11937377 -0.01632368 0.050377097 0.107767016

weight f4 [256, 256]
00000000: 9634 e03b b910 02bd 5ac3 583c f557 f33c
00000010: d440 eebc df87 233b 8c59 19bb c5d6 b3bb
00000020: 6510 8bbd 71ba 2fbd 00fe 08bd 7bfb be3c
00000030: 5ca5 483d c3b5 22bd 3de0 5b3c b3cd 6c3c
00000040: f194 74bc 517f 52bc 109c 8bbd 95d5 29bd
00000050: 6869 963c c61c 283d 7599 683b 735a 15bd
00000060: b8aa 923c 2488 b0bb 266b e3bc 3567 fb3c
00000070: 6dbf 853c 4b5c 073d 1faf 15bd 2c42 2ebd
00000080: 9e6b 6f3d 235f f6bc 9cd3 05bd 10ac cab9
00000090: a298 4c3d 5826 87bb 960f 44bc d3dd 1e3c
000000a0: f47e 86bd e304 d3bc 6c99 dd3c bc2f b7bc
000000b0: 0489 663d b27f 8ebc 6bb1 453b 51b4 703d
000000c0: ff32 da3d eb34 e73c 7ffb 67bc 62e0 e3ba
000000d0: 721c 973c dc75 513c a97c 133d 2d47 983d
000000e0: b429 2c3c e4bf 88bc 20eb 41bd af1d d7bc
000000f0: b687 053d ba3e 90bd 3efe 683c 7a1e 22bd
00000100: 8919 f13c 9aec 8ebc 3afc 7cbb abce e03c
00000110: 49ad 3b3c 18e1 4bba 9cca 0d3c b2ff 243c
00000120: c14a 0fbc a0ce 0ebc 9048 303d 7a4e a23d
00000130: 3e8b 9ebc cedc 163d dd58 633c 1989 17bd
00000140: 0eb7 fbbb 0000 023d a07b 003d f0c9 01bd
00000150: 5f9e 1e3d 455b 71bc 3f52 42bc b314 4f3b
00000160: b7d7 e83c 21ff 40bb d2fe a9bc 645f 36bd
00000170: 1761 2abc f014 9d3a 6343 d33c 5a24 2dbc
00000180: c842 1cbd 0b74 cfbc 508f 13bb f9cd c3bb
00000190: 4346 2ebd d270 a7bc 48f5 d13c 8c16 a5bc
000001a0: def1 8b3c 610a 89ba a2b8 51bd 9c7a 28bd
000001b0: 8079 5c3c 778f 22bd 39ec 9cbd 98e4 12bd
000001c0: 92b9 033e ed0a d63b 6117 af3c c66d 393d
000001d0: 239e cc3c 6d21 cfbb 6b13 4b3d 5f44 e63b
000001e0: ce00 4fbc 25e2 56bc b41d 64bc b287 fd3c
000001f0: c54e 413b 507d 18bd 3e9f 1a3c bf9c f03c
00000200: 82e0 80bb a47e db3c 949a e73c 4d8c 953d
00000210: 123a e93c a8e3 a23c 69b9 0e3b fadc 063d
00000220: 088d 9dbc a922 4d3d 274f 6abc ca49 c13b
00000230: ad00 80bd 79e7 033d 0c89 29bc a7a6 4d3c
00000240: c865 3c3d 4397 56bc db83 7cbd 8288 8d3c
00000250: 08d1 39bd 9ee0 fcbc 28cc a83b 6bc1 5eb9
00000260: 5660 34bd 70b1 65bd 3bad 273d afd5 81bd
00000270: eca7 18bc c47b a03b 7375 bebc bab7 9d3c
00000280: 8a0a dbbb bde6 ef3c c62e 82bc 8e76 ceb8
00000290: f563 ce3c d28e 023d ba4e 38bb 326b 46bd
000002a0: 6e12 d2bc 6888 0fbd 955d 053d 10fb 133d
000002b0: 2e9d 5f3b 37a5 063d 4d8a 2d3d 8296 113d
000002c0: 8b8d 64bc bdd8 3ebc 6071 be3b 0577 883c
000002d0: d5df fc3b b715 cabc 053a 093d 3968 033d
000002e0: e183 523d d32b 9c3b 3849 873b 0f3c eabc
000002f0: 8ed3 f63c 14ad 98bc 556c 9a3c f354 89bc
00000300: 1330 24bc bb27 b839 afbf 07bd e9cd 61bc
00000310: e03f f3bb c72f 4a3c d9c1 703c 97b5 d9bc
00000320: a177 1cbd 3efb 713b f8d2 d63c 7dd2 9ebc
00000330: 32b1 8bbc c04c 4f3d 3da7 b1bc 5e7f f83c
00000340: f8df 4dbd b007 9c3c 58d8 5b3d e8c0 0bbc
00000350: e89e ec3b 6ea6 36bc 6949 10bc 27bd dabc
00000360: 6677 e13c b85c 0f3d 1cb9 8bbc 0b53 bbbd
00000370: be6f 93bc afd3 083d 50ca 273d 5479 94bc
00000380: 1691 813d 09e8 433d 215a 2e3d 082d 813d
00000390: 0593 cc3c 5ae4 d33c c0b6 8abb 37c1 30bc
000003a0: 6829 a9bd fa79 123d 5b75 0ebd b603 f33c
000003b0: 4a42 ab3c b90c bbbb 19fb 5bbd 834b 23bc
000003c0: 0439 12bb c665 12bd 7b43 9fbb 008f 4c3d
000003d0: 3873 ccbb 06d1 eabc c314 c83c 81ba 5bbd
000003e0: 3646 5c3c 4683 a2bb eb63 3c3d 0cf8 093b
000003f0: 367c a2bb ee2e 2bbd 9aba a4bc a445 6b3b
0.006842206 -0.03175423 0.013230169 0.029705027 -0.029083647 0.0024952812 -0.0023399321 -0.005488249
-0.067902364 -0.042902414 -0.03344536 0.023313275 0.048985824 -0.039724123 0.013420162 0.014453339
-0.0149280885 -0.012847737 -0.06816876 -0.041463453 0.018360808 0.041043065 0.0035491858 -0.036463212
0.01790367 -0.005387323 -0.027761053 0.030688861 0.01632663 0.033047 -0.03654396 -0.042543575
0.05845224 -0.030074662 -0.03267251 -0.0003865664 0.04995025 -0.004124444 -0.011966607 0.009696442
-0.06567183 -0.025759166 0.027050696 -0.022361629 0.056283012 -0.017394874 0.0030165564 0.058765713
0.10654258 0.028223475 -0.014159082 -0.0017385597 0.018446181 0.0127844475 0.036007557 0.07435451
0.01050799 -0.016693063 -0.047343373 -0.026259271 0.032600127 -0.07043214 0.014220772 -0.039579846
0.029431121 -0.017446805 -0.0038602487 0.027442297 0.011454889 -0.0007777377 0.008654263 0.010070728
-0.00874585 -0.008716255 0.04303795 0.079251245 -0.019353505 0.03683167 0.013876167 -0.03699598
-0.007681734 0.03173828 0.031367898 -0.031686723 0.038725253 -0.014731233 -0.011860429 0.003159803
0.028423173 -0.0029448944 -0.02075139 -0.044524565 -0.010399125 0.0011984389 0.025788968 -0.010567749
-0.038149625 -0.025323888 -0.002251584 -0.0059754816 -0.042547476 -0.02043954 0.025629655 -0.020152353
0.017083105 -0.0010455364 -0.05120147 -0.041132554 0.013456702 -0.0396876 -0.076622434 -0.035862535
0.12863758 0.006532064 0.021373453 0.045270704 0.02497775 -0.0063211233 0.049579065 0.0070271934
-0.012634469 -0.0131154405 -0.013923097 0.030948494 0.0029496413 -0.037228882 0.00943738 0.029371617
-0.0039330134 0.026793785 0.02827195 0.07302151 0.028470073 0.019883946 0.0021777994 0.032925583
-0.019232288 0.050081883 -0.014301098 0.005898689 -0.06250129 0.03220317 -0.010347616 0.01255194
0.045995504 -0.013097587 -0.061649185 0.017277006 -0.045365363 -0.030868825 0.0051512904 -0.00021243624
-0.044037186 -0.05607742 0.04093669 -0.06339585 -0.009317379 0.0048975665 -0.023249364 0.019252647
-0.006684606 0.02928483 -0.015891444 -9.844928e-05 0.025194148 0.031874485 -0.0028123097 -0.048442073
-0.025643554 -0.035042197 0.03255995 0.036128104 0.0034120786 0.032872405 0.042368222 0.035543926
-0.013949762 -0.011648354 0.005811855 0.016658315 0.0077171125 -0.024668558 0.033502597 0.032081816
0.0513953 0.0047659664 0.0041286014 -0.028593091 0.030130174 -0.018637218 0.018850485 -0.01676414
-0.010021227 0.00035124816 -0.033141788 -0.013782003 -0.007423386 0.012340493 0.014694654 -0.026575847
-0.038200025 0.0036923434 0.026223645 -0.019387478 -0.017052267 0.050610304 -0.02168619 0.03033417
-0.05026242 0.019046634 0.05367312 -0.008529879 0.0072210915 -0.011148078 -0.008806565 -0.026701523
0.027522754 0.035000533 -0.01705604 -0.091466986 -0.017997619 0.033405002 0.040964425 -0.01812426
0.06326501 0.047828708 0.042566422 0.06307417 0.024972448 0.025865722 -0.0042332113 -0.0107882535
-0.08259851 0.035760857 -0.034779888 0.029664855 0.020905633 -0.005708304 -0.053706262 -0.009966734
-0.0022311816 -0.03574159 -0.004860339 0.049941063 -0.006239321 -0.028664123 0.024423962 -0.05364466
0.013444474 -0.0049594967 0.045993727 0.0021052388 -0.0049586548 -0.041792803 -0.02010851 0.0035899663

bias f4 [256]
00000000: 3064 a9bc b773 d43b 3a56 10bd 019b ed3c
00000010: 8e27 4a3d db25 0f3d cc78 07bd de73 28bc
00000020: 2424 85bb 5c3d a33c 92ba 86bc e37d 753b
00000030: 0a0f 163d aa2d 80bc e332 883d cbe0 b73c
00000040: 8a9f 63bd 4ee7 14bb c276 4b3b e8ec 973c
00000050: c957 a23c b2b7 20bd 90e8 013c 14a8 06bc
00000060: fdaa b93b 7912 023d 2f1b 8cbc 271e 43bc
00000070: 1140 28bb 2401 1c3d 92a1 4fbb 8d8f cb3b
00000080: 6bbd babc 4e21 26bd c822 903b f467 e4ba
00000090: eafa e13a e0be 9b3b 563e 133d 958e 923c
000000a0: c262 0a3c a08d 303c 800d 293c 510d 2cbb
000000b0: 0a27 2aba c647 dbbb a267 3d3c 4f29 843b
000000c0: 74d5 d03c ff49 73bc c9b8 f3ba 56ab c6bc
000000d0: 4d5f 2fbc 9095 053c 77a1 42bc 55c7 803c
000000e0: 6a0c 5b3b 031e 04bd 579a 20bd 0c30 553c
000000f0: 1b52 553c e226 55bc 6658 8e3c 4f17 a2bc
00000100: 243c 82bb 6011 983c 4690 333b 62e7 83bc
00000110: 7dbc b3bc e98f 483d ca09 07bd 6ad0 b7bc
00000120: 351d f2bc 0802 94bc 23ab e3bc b252 4a3d
00000130: c111 3abd fbe8 873d 232c 4ebd f94b 10bd
00000140: 1621 22b7 8811 9dba 53ba fa3c a631 813c
00000150: 813a bf3c be4f 97bc 8aec 9abc 575b e2bc
00000160: e40a 78bc ba09 183d cb07 93bc 764c 9d3c
00000170: 680d 633c 5498 853c d2ca 903a 2b97 26bb
00000180: ce90 2c3d 3400 ba3c bb14 57bc a078 6cbc
00000190: c21b 89bb 7f1f 03bd eb8f 9cbc b94b 863c
000001a0: 07cf 813d c50c a63b a780 933b 500f 7ab7
000001b0: c02b 39bc 0a77 09bc 6b2a e93c 7429 1a3d
000001c0: afdc bd3c adab 6cbd 8325 c7bc 72c9 cb3a
000001d0: 8fd2 50bc e10d b0bc e5e8 26b9 e11c 34bd
000001e0: 40ec 6b3b 0088 f5bb 0a4e 0b3d 0f3f 23bc
000001f0: a4ff d43c 0f4d 1bbb 8ffc ef3b b94d c13c
00000200: c74c fa3c 1ce8 04bc 9c63 0dbd 4204 733d
00000210: 5acf 463d 1a31 ec3c a5ed 783c 2d18 313a
00000220: 81d5 49bd d209 17bb 39d7 4abc a2fd ee3b
00000230: 1d25 e5b8 9324 c2bb e5a0 263d 9b87 af3c
00000240: a81a 613b 1f3c 753c 856f 04bd 23e3 8fbc
00000250: 0db0 64bc da35 16bb f70e b43c 119b 013c
00000260: 09df b43c ec5b df3c 41a3 393d 1e3d c13c
00000270: 2a03 b13c 78eb 0abd 072e 00bd 5557 ca3b
00000280: eb15 a13c 8434 503c 4819 c93b cb80 3e3a
00000290: 9d87 e8bc c1c4 5fbc 6dcc 293c 0a4b 49bc
000002a0: 1952 d83a 3f08 4bbc 4a50 a83c 6c80 adbb
000002b0: 8da8 00bc 42bf c6bb 0ca4 3dbd bab5 a43c
000002c0: 9cb4 a73b c235 b7bc f3e5 9ebc 7a67 c0ba
000002d0: 5c8f 1ebd b54b d3bb fb46 0b3c b558 e0bc
000002e0: 33c5 e1bc 393a adbc 6731 2b3d e3f7 d0bb
000002f0: 63e7 aa3a 11b3 853b eda3 f0bc 0086 033b
00000300: 4693 01bd 346b 5f3c e9e8 263a 5bed af3b
00000310: aade 0ebc b13e 9b3c 6b76 e8ba c8b5 b1bc
00000320: 2a93 02bd 0c2c 2abd 8358 30bc fb84 fc3c
00000330: e3d7 25bc 178b 32bd 9d20 11bb 036c 98bc
00000340: 8de5 a13c 140b 86bc f60c 83bb 3246 85bb
00000350: 40c3 af3c 6e66 13bd 18b8 89bb beb8 0d3d
00000360: b56b e9bc af63 3dbc eb87 a03c 4e28 0b3c
00000370: 80bb 04bd 7413 303d 7e52 5abc fd3c 3abd
00000380: da51 16bc 5add acbc 2d9e 78bc b3cf 073c
00000390: 2f32 29bc 3383 3a3d 90cc 463d 1936 28bb
000003a0: 614e 17bd 599d 193c 217f 803d 048b 593c
000003b0: 401d 0f3d aee6 973b b32a c2bc 3ee2 cfbb
000003c0: d38e 60bd 3968 c1b9 6f94 023c c758 19ba
000003d0: 960c 05bc ecbc b23c abfd d9bc 8318 abbc
000003e0: ab76 e33c 5588 babb 5943 f03c 56df 563c
000003f0: f969 8e3c 11ab d13b f3e8 40ba 223a 1d3c
-0.020677656 0.006483521 -0.035238482 0.029004576 0.04935413 0.03494821 -0.033074185 -0.010281531
-0.004063146 0.01992672 -0.016446386 0.0037459068 0.036635436 -0.015646774 0.06650331 0.022446057
-0.05557207 -0.0022720876 0.0031046127 0.018545583 0.01981725 -0.039237686 0.007928982 -0.008218784
0.0056661353 0.0317559 -0.017102806 -0.011909044 -0.0025672952 0.038087025 -0.0031681997 0.006212181
-0.0227954 -0.040559106 0.0043986775 -0.0017426 0.0017240916 0.0047529787 0.03594812 0.017890254
0.008446397 0.0107759535 0.01031816 -0.0026253054 -0.00064908026 -0.0066919057 0.0115603525 0.0040332447
0.025492407 -0.014849185 -0.0018594499 -0.024251621 -0.010703874 0.008153334 -0.0118793165 0.015720049
0.0033424147 -0.032255184 -0.03920969 0.013011944 0.013020064 -0.013009759 0.017376136 -0.019786505
-0.0039744545 0.018562973 0.0027399226 -0.016101543 -0.021940464 0.04896537 -0.03296832 -0.022438247
-0.029554943 -0.018067375 -0.027791565 0.04939527 -0.045427088 0.066362344 -0.05033506 -0.035228703
-9.663656e-06 -0.0011983374 0.030606424 0.015770745 0.023343327 -0.018470641 -0.018911619 -0.027631445
-0.015139315 0.03711865 -0.017948052 0.019201498 0.013858177 0.016307987 0.0011046773 -0.0025419693
0.042130284 0.022705175 -0.013127501 -0.014433056 -0.004184217 -0.03201246 -0.019111594 0.01639353
0.063383155 0.00506744 0.0045014205 -1.4904726e-05 -0.011301935 -0.0083901975 0.02846261 0.03763719
0.02317652 -0.05778091 -0.02430988 0.0015547706 -0.012745514 -0.021490993 -0.00015917754 -0.043972854
0.003599897 -0.007493019 0.03400997 -0.009963765 0.026000805 -0.0023697054 0.0073238085 0.023596631
0.030554188 -0.00811198 -0.034518823 0.059330232 0.04853759 0.028832007 0.015193378 0.00067556166
-0.04927588 -0.0023046625 -0.012380415 0.007293419 -0.00010926484 -0.00592477 0.040680785 0.021426966
0.0034348164 0.014967947 -0.032332916 -0.017564362 -0.013957989 -0.0022920282 0.021979792 0.007910506
0.022079008 0.027265511 0.045321707 0.023588713 0.021607954 -0.033915967 -0.031293895 0.0061749616
0.019663772 0.012707833 0.006137047 0.00072671165 -0.028384978 -0.01365775 0.01036368 -0.012285957
0.0016503959 -0.012392103 0.020546097 -0.00529485 -0.007852686 -0.00606528 -0.046299025 0.020106185
0.005117966 -0.0223645 -0.019396758 -0.0014679276 -0.038710937 -0.006448234 0.00850081 -0.027386049
-0.027559852 -0.021145927 0.04179516 -0.0063772066 0.0013038929 0.0040801843 -0.02937504 0.0020068884
-0.03163459 0.013636399 0.0006367104 0.005368871 -0.008720079 0.018950792 -0.0017735487 -0.021693125
-0.031878628 -0.041545913 -0.01076329 0.030825129 -0.010122272 -0.043589678 -0.0022144683 -0.018606192
0.019762779 -0.016362704 -0.003999348 -0.004067206 0.021455407 -0.035986356 -0.004202854 0.034600012
-0.028493742 -0.011559411 0.01959606 0.008493496 -0.032405376 0.042987302 -0.013325332 -0.04546832
-0.009174788 -0.021101642 -0.015174431 0.008289265 -0.010326906 0.045535278 0.04853493 -0.002566701
-0.036939982 0.0093758935 0.06274248 0.013277773 0.034940004 0.0046356535 -0.023702001 -0.006344109
-0.054823708 -0.0003688948 0.00796996 -0.00058497157 -0.0081206765 0.0218186 -0.026610216 -0.020885712
0.027766546 -0.0056925216 0.029328989 0.013114771 0.017384516 0.0063985665 -0.0007358931 0.0095963795
