output/2023-09-24-20-37-59/trained_model/tetris_epoch2676_score6100.pt (torch, 842187 bytes, 8 tensors)

weight f4 [32, 1, 4, 4]
000000 6b 49 80 3d 3b 95 63 3c e9 5d 5d bc a4 65 82 3b
       0.06264003 0.01389056 -0.013511159 0.0039794017
000010 ef 0d 0b bd 01 f0 7a 3d 0e 73 a2 bc 8c c8 55 3d
       -0.033948835 0.06126404 -0.019830253 0.05219321
000020 db 70 4d be 31 60 00 3e 65 1f 46 3e bd 44 2e bb
       -0.20062582 0.12536694 0.19347914 -0.0026591264
000030 8d 97 90 3d 5b e7 17 3e cf 31 24 3e de fc 18 bd
       0.07060156 0.14834349 0.16034625 -0.037350528
000040 22 f0 cd 3e 95 24 38 bd 75 3e 04 bf 2f 4d 76 be
       0.4022227 -0.044956762 -0.516578 -0.2405288
000050 b1 1b b3 be 62 af d2 3c f8 73 49 be 3a 39 c6 3c
       -0.34982064 0.025718395 -0.19673145 0.02419721
000060 62 ae ea 3d f2 6f d6 be 49 9b c9 3c ee 89 b7 be
       0.11459042 -0.41882282 0.024610179 -0.3584742
000070 46 6b f8 bd 33 88 f8 bb 89 93 01 3e 0a ef 1c bf
       -0.12129836 -0.0075845956 0.12653936 -0.61302245
000080 b3 59 72 3d 3e 3c a2 3a 70 fa 40 bf 57 35 63 be
       0.059167575 0.0012377573 -0.7538214 -0.22188316
000090 a2 11 45 bd 95 32 8c be 81 d3 09 3e a6 7f 9d be
       -0.04811252 -0.2738234 0.13459589 -0.3076145
0000a0 89 76 ca 3d be 53 9e 3e ec f3 82 3d d9 c9 3b ba
       0.0988589 0.30923265 0.06394181 -0.00071635615
0000b0 0e 2f 99 bd 43 7c eb bd 4b 33 db bd a6 69 2f bd
       -0.07479678 -0.114983104 -0.10703143 -0.042825364
0000c0 4b 43 84 be 8d 58 b3 be f4 5a 87 bd 8e 08 25 3c
       -0.2583259 -0.35028496 -0.06609145 0.01007284
0000d0 2a 49 15 3e 20 49 ca bd 97 ae 94 3e 63 f8 ff 3d
       0.14578691 -0.09877229 0.2903945 0.12498548
0000e0 b6 56 2e be e3 6c ff 3d b5 92 d9 be 47 91 a2 3d
       -0.17025265 0.1247194 -0.4249474 0.07937866
0000f0 07 3e 8a be ed 9f c1 be 72 a7 c1 be 8d df 00 3e
       -0.27000448 -0.37817326 -0.37823063 0.12585278
000100 18 9b c7 bd 4a 24 40 bf c4 a1 f9 bc 6e b0 9c bc
       -0.09746379 -0.7505537 -0.030472644 -0.019127097
000110 57 f7 9b 3d 28 de c8 3d 09 7a dd 3d 2a 86 39 3d
       0.07615536 0.09807998 0.10814292 0.045293964
000120 82 d0 90 3e 3f 78 60 bf 06 c8 98 3e 08 9b 84 bc
       0.2828408 -0.8768348 0.29840106 -0.016187206
000130 04 9d 30 bd 58 13 d1 bd bb 67 89 bc 55 f1 28 bc
       -0.04311849 -0.10208768 -0.016773095 -0.010311444
000140 84 8d 97 3c 45 79 88 3d 6f ae 14 be be bd af bd
       0.018500097 0.06663755 -0.14519666 -0.08581112
000150 12 1e 0f 3c 7d e8 89 bc a0 8c 98 3e 11 21 4d 3f
       0.008735197 -0.016834492 0.29794788 0.8012858
000160 ac 45 cc 3c f6 fb 73 3c b4 1f 9c be a6 56 3f bf
       0.024935566 0.014891615 -0.30492938 -0.7474159
000170 31 42 ef bb 5e 6e 11 bd 20 70 e8 bd 4a 7a e4 bc
       -0.007301592 -0.035505645 -0.11349511 -0.027890343
000180 71 32 93 3d 88 19 54 3d 21 02 20 3e 56 4d 98 3e
       0.07187355 0.05178216 0.15625812 0.29746503
000190 51 01 b0 3d 50 69 92 ba 3c 86 4a 3e 6d 11 f5 be
       0.08594001 -0.0011170302 0.19777769 -0.47864857
0001a0 c4 6d aa 3d af ee a7 3d 2f 2a 36 3c 7c 20 24 bf
       0.083217174 0.08199822 0.011118456 -0.6411207
0001b0 3b e7 52 bd 54 36 c4 bb 2d c5 45 3d 38 3e 90 be
       -0.05149005 -0.0059879217 0.048283745 -0.2817247
0001c0 8a 2c 7a 3c ff c7 da 3c df c2 15 3e 54 f2 2c be
       0.015269408 0.026706694 0.14625119 -0.16889316
0001d0 9c 6e 34 3d a1 04 b6 3d 48 9c 37 bf e9 a5 fb be
       0.044050798 0.08887602 -0.7172284 -0.49150017
0001e0 43 30 e1 bc 18 e3 a1 3d 8c 6c d7 be 48 9c 0b be
       -0.027488833 0.07904643 -0.42075002 -0.13633835
0001f0 cf a0 a6 3b 6c 18 5a 3e f0 f0 88 be a6 78 07 bf
       0.005085088 0.21298379 -0.2674632 -0.5291847
000200 82 1e 8f bd 1b 85 4c 3d 82 f0 b8 be 1c 82 22 be
       -0.06988241 0.049931627 -0.36120993 -0.15869945
000210 6b 38 fc 3d 00 b1 52 3e e3 b9 fe 3d 03 a4 6d be
       0.123154484 0.20575333 0.12437799 -0.23207097
000220 f4 62 91 bd 94 28 09 3e 52 8f b0 be 28 05 53 bf
       -0.07098952 0.13394386 -0.34484345 -0.8242974
000230 7b 0f 11 3e d0 08 8d bd 48 2f aa bd 5c bc 94 3d
       0.14166062 -0.068864465 -0.083097994 0.07262489
000240 98 8e 91 bd 47 f3 45 bc 41 4b 7c ba 29 ff 5e 3d
       -0.07107276 -0.012081928 -0.0009624251 0.05444256
000250 70 6b b8 bd 53 97 50 be 38 a6 f9 be a9 75 4c 3c
       -0.09004867 -0.20370226 -0.48759627 0.012479224
000260 58 dd 02 be d2 08 ed 3e aa d7 50 3e 84 fd 86 bd
       -0.12779748 0.46295792 0.2039477 -0.06591323
000270 aa f5 6f 3d a1 2c 6a bf 6a fc af 3d 99 62 05 3d
       0.058583893 -0.9147435 0.08593066 0.032564733
000280 26 df 1b 3d 06 8b 66 bd 6d 11 2a bd 2f 60 cf bd
       0.038054608 -0.056284927 -0.041520525 -0.101257674
000290 85 1e 34 bc 48 84 6e 3d 41 fa 85 be 6e c7 64 3b
       -0.010993605 0.058231622 -0.2616749 0.0034908908
0002a0 f1 b3 51 bd a7 8a 07 3d ce 79 16 3f 8f c6 90 bd
       -0.051196996 0.033091214 0.5877961 -0.07069122
0002b0 ee 9d 3f bb a6 c7 16 bd eb cb 35 bf a5 6e 66 bc
       -0.002923842 -0.036811493 -0.7101428 -0.014064466
0002c0 e8 0c 2e be d8 b0 c1 be 2d 90 92 be 10 6c ff bd
       -0.16997111 -0.37830234 -0.28625622 -0.12471783
0002d0 84 7d 9e bd d4 52 76 be 55 8c 2b bc 42 9a 6e 3e
       -0.07738784 -0.24055034 -0.0104704695 0.23301032
0002e0 c2 fd 64 bd 61 65 d9 3c b6 f9 f0 3d 99 aa 17 bf
       -0.055906065 0.026537599 0.117663786 -0.59244686
0002f0 bc 4e 8c 3d ff 40 db bc c2 a3 f4 3d 77 e5 d0 be
       0.06850955 -0.026764391 0.11945297 -0.40800068
000300 35 ba 22 3e eb 0f d1 bd 31 1d 2c bc 4b b1 fe bd
       0.15891345 -0.10208114 -0.010505007 -0.1243616
000310 49 45 a6 3c 5d e3 01 3f bf af 43 bd 4b f1 87 bc
       0.02029671 0.50737554 -0.047775026 -0.01659455
000320 95 9b 62 3d ec 32 09 bf 1a 44 54 3e 1d 66 14 bd
       0.055324156 -0.53593326 0.20729104 -0.036230195
000330 b3 6c d1 bd 8a 92 0f bf 70 35 34 be 10 a5 5a 3c
       -0.10225811 -0.56082976 -0.1759851 0.013345018
000340 d5 c5 23 bc 1b 30 56 bd f2 e6 d4 bb 98 e0 94 3c
       -0.009995897 -0.05229197 -0.0064972574 0.0181735
000350 bf bf e0 3b f6 f3 15 3e 5b 79 f4 3d b4 9e 67 bb
       0.0068587954 0.14643845 0.11937209 -0.0035342397
000360 4d ab 8d 3d f3 ba 63 3f 62 22 bd bc d9 6b 17 3d
       0.06917439 0.88957137 -0.023087684 0.036968086
000370 c2 99 93 bc d8 50 b3 bf 54 93 a1 3d 0a c0 9f bc
       -0.018017653 -1.4009047 0.07889429 -0.019500751
000380 0c 2c 57 3c 9e a2 f4 3e 6d 95 6a 3d 1c e1 32 3c
       0.01313306 0.47780317 0.05727141 0.010917928
000390 36 72 2c bc 03 92 36 3f 7a b2 35 bc d8 db dc 3b
       -0.010525277 0.71316546 -0.011089915 0.0067400746
0003a0 1b 4a 57 3c 35 f0 a4 bf 8c 68 d7 3b be 25 23 bb
       0.013140227 -1.2885805 0.0065737423 -0.0024894322
0003b0 6b c1 b5 bc c2 1e 55 bd 8c 79 03 bd 93 8a ee bc
       -0.022186955 -0.052031286 -0.032098338 -0.029118812
0003c0 4b 85 8b be be ba 18 bd 73 2d 00 3e 22 12 f7 bd
       -0.27250132 -0.037287466 0.12517338 -0.120640054
0003d0 ef 81 8d bd 5c dc 68 be 84 61 84 bd 3b a5 00 bd
       -0.069095485 -0.2274031 -0.06463912 -0.031407576
0003e0 3c b2 27 3e 75 f6 34 3e 52 c0 f3 3d d1 c7 12 3e
       0.16376585 0.17672141 0.119019166 0.14334036
0003f0 f7 22 c0 bb 8c d9 cd 3d 56 af 46 bc ff af 0b 3e
       -0.005863543 0.100512594 -0.012126764 0.13641356

weight f4 [32, 32, 5, 5]
000000 fe 25 36 3e 89 8a 0c be 4f 89 b1 3d 9c c6 c6 3d
       0.1778793 -0.13724722 0.08668768 0.097058505
000010 9a ac 2d 3e b0 17 4b 3e 89 22 70 be db 1b 09 3d
       0.16960374 0.19833255 -0.23450674 0.03347383
000020 4f 63 20 bd d3 51 88 be 38 5c 51 3d d1 a0 e4 bd
       -0.039157208 -0.26624927 0.051113337 -0.11163486
000030 0a be 1f 3d 2c 54 66 be 41 01 b7 3c 81 9c 50 bd
       0.038999595 -0.22493047 0.022339465 -0.050930504
000040 e2 cd 00 bf f2 14 98 be be 14 d1 bc 4e ea 11 be
       -0.5031415 -0.2970348 -0.025522586 -0.14249536
000050 38 a1 ae 3d c4 ed a9 3d 6e 0d 16 be 75 f8 57 3d
       0.08526844 0.08297303 -0.1465356 0.05272718
000060 c3 6c c4 3d 18 fa 8b 3e 6c 9c 85 be ff b8 ca 3d
       0.09591057 0.27339244 -0.26095903 0.098985665
000070 10 0b 93 3e 48 25 e2 3e 06 c0 2e 3e 69 da ac 3e
       0.28719378 0.44169068 0.17065439 0.33760384
000080 20 bc 4e be cf c7 d8 b8 4c e8 d4 3d 24 2a 01 3e
       -0.20188951 -0.000103369 0.103958696 0.12613732
000090 ea 10 de be 6e fe bd be 43 ef 02 3e 5d 04 a6 be
       -0.4337228 -0.37108177 0.12786584 -0.32425204
0000a0 7e 0a 30 3d 05 36 1a 3e 8b fa 27 bd c5 43 ae bd
       0.042978756 0.1505967 -0.04101042 -0.0850902
0000b0 8b 72 95 be c8 1f 43 be 25 3b 0b 3f b7 dc cc bc
       -0.29188952 -0.19055092 0.5438712 -0.025007589
0000c0 41 03 ae 3d 4f b6 4a 3e c0 c7 6a 3d c6 e8 7c be
       0.084967144 0.19796108 0.057319403 -0.24698171
0000d0 43 9e 09 3e f1 3a 28 3c 58 71 a7 3e ff fa a5 3e
       0.13439278 0.010267959 0.32703662 0.32418057
0000e0 c5 54 18 3e 66 b6 ce be a6 1d 06 bf d4 54 77 be
       0.14876087 -0.40373534 -0.5238899 -0.24153453
0000f0 0c ec 0c bd 59 0f 6a 3e 7c f0 35 bd 03 37 71 be
       -0.0344048 0.22857417 -0.044418797 -0.23556142
000100 af 7f 4a 3d ff 53 48 3e 04 45 e8 be 2b 22 8c 3d
       0.049438175 0.19563292 -0.45365155 0.068424545
000110 1c af 9d 3d d3 12 1c be 8b 26 84 bc ba 44 8b be
       0.07699415 -0.15241556 -0.01613166 -0.27200872
000120 00 08 4a 3d 17 63 be be 4c 68 a0 3e d4 2a b1 be
       0.049324036 -0.37184975 0.31329572 -0.34602988
000130 1a e0 4d be 9f 54 9b 3e 8c fe 35 bf 02 cc 12 3e
       -0.20105019 0.30337998 -0.7109153 0.14335635
000140 5e 38 08 bf 06 41 59 3e 5f 7e 03 3e f1 b1 e8 be
       -0.5321101 0.2121621 0.12841175 -0.4544826
000150 b1 ce 63 be f3 9a 15 bf 2f ae 30 be bd a0 5b be
       -0.22246815 -0.5843956 -0.17253946 -0.21448036
000160 5c e5 c9 3b 49 af 27 bf 3a 8e 9a bf 36 f5 b4 3d
       0.006161375 -0.6550184 -1.2074654 0.08835833
000170 e2 28 03 bf 88 fa cc 3d 83 ce 5b 3e 17 ca b6 bd
       -0.5123426 0.100087225 0.21465497 -0.08925264
000180 87 cc 4c 3e a3 ab 2e be df e5 a1 3e 17 30 bd be
       0.19999896 -0.17057662 0.3162069 -0.36950752
000190 95 f5 dc bb f2 e0 8e 3e a6 03 5c 3d 58 5a 51 3f
       -0.006743143 0.27905995 0.053714417 0.8177848
0001a0 e1 ce 38 bf 96 c9 e5 be c2 b7 ce 3e e3 d5 1e 3c
       -0.7219067 -0.4488036 0.4037457 0.009694549
0001b0 88 c5 a4 3d 9b 62 d8 3c aa d3 eb be 5e 73 cd 3b
       0.080454886 0.026414206 -0.46059924 0.0062698564
0001c0 e4 d3 5c 3e ee 3b 50 be 68 32 21 3f b8 51 8e be
       0.21565205 -0.20335361 0.6296754 -0.2779672
0001d0 ee f6 0e be 4a f6 f0 be c7 2b 74 be 4e 07 c8 be
       -0.13961384 -0.47062904 -0.23844825 -0.39068073
0001e0 e0 17 c1 3d a6 0d 08 3e 9e db 16 3e a6 24 d6 bd
       0.09428382 0.13286456 0.14732215 -0.10456209
0001f0 a2 e3 e3 bd 9d a0 b7 bd 9c 6b d9 3d 7e 5e 02 be
       -0.11127402 -0.089661814 0.10616228 -0.12731358
000200 c3 00 a8 3c bb b4 b2 bd aa 11 38 bd aa d4 14 be
       0.020508176 -0.08725878 -0.04493872 -0.1453425
000210 d2 8f 1d 3e 7e 9b ed 3c 91 38 2e be 82 04 a9 bc
       0.15386894 0.029004809 -0.17013766 -0.020632032
000220 a4 d7 99 bc 09 5d 7e bd 71 58 be bd 7f 36 3c be
       -0.018779583 -0.062100444 -0.092942126 -0.18380164
000230 38 c3 f0 be 0a 37 97 bf 40 8a 1d bf 5e 7a 0b be
       -0.4702394 -1.1813672 -0.6153908 -0.13620898
000240 2e 27 0b bf ec 98 2e bd 1a 8b f8 bd 6c 7b dc bc
       -0.5435666 -0.042626306 -0.121359065 -0.02691432
000250 4e 04 59 be 83 3e df be 29 f1 aa 3e 23 23 a7 3d
       -0.21193048 -0.4360238 0.33387116 0.08160999
000260 b5 28 39 3c 60 a9 ee be 23 67 da be 8a a1 47 3e
       0.011301209 -0.46613598 -0.42656812 0.19495216
000270 25 18 08 3e 45 80 c2 be 2d 55 43 3c bc 0d 85 bf
       0.1329046 -0.37988487 0.011922163 -1.0394816
000280 d4 ef 05 3d 18 99 7c 3e 07 1b 9c be f7 ee 56 3e
       0.03269942 0.24667776 -0.3048937 0.20989595
000290 1e fe 01 3e fc bc b7 be 19 6a 35 be 31 44 b9 be
       0.12694594 -0.3588637 -0.17716254 -0.36184838
0002a0 8b 10 97 3d 6f 2d 8a be c2 b9 92 3c 33 30 ee bc
       0.07376202 -0.26987788 0.017910842 -0.029075718
0002b0 34 05 df 3d 1a d5 89 3e 53 6a 52 3e 7d 99 c1 bd
       0.10889664 0.26920396 0.20548372 -0.09453104
0002c0 0d 50 13 bf cc 8b 15 3f 10 fa 3c be cb f5 6b be
       -0.5754402 0.5841644 -0.18454766 -0.23042981
0002d0 9e 19 fa 3d 78 07 ad bc 9f a1 10 3e 58 b6 8b 3e
       0.12211917 -0.021121725 0.14124154 0.27287555
0002e0 3a 9e 88 bf 66 94 59 3e 9b 59 9d be 91 cb 94 be
       -1.0673287 0.21248016 -0.30732426 -0.2906156
0002f0 42 36 42 3e aa 15 32 bd 84 33 5a 3e ee 19 ae be
       0.1896601 -0.04347769 0.21308714 -0.34004158
000300 3e e2 4f be cd 5e 18 3e 3e 10 cd 3e d5 a2 96 be
       -0.20301148 0.14879914 0.40051454 -0.29421106
000310 35 07 4f be 18 fb 81 bd 4f a7 83 3e a3 f1 00 3e
       -0.20217593 -0.063467205 0.25713584 0.12592177
000320 d0 50 71 3e f2 77 15 be aa be 9d 3e 09 a6 97 3e
       0.23565984 -0.14596537 0.30809528 0.29618862
000330 a7 2f 75 3e aa 4e 3b bf 23 73 2d bc 67 33 0d be
       0.23943959 -0.73166907 -0.010586533 -0.1378914
000340 45 10 b5 bb b2 62 ab bd 44 76 0c bf b1 ea 27 3e
       -0.005525621 -0.08368434 -0.5486796 0.16398121
000350 7f c3 2c be 1f f6 52 3d 54 60 21 bf 28 cc df be
       -0.16871451 0.05150425 -0.6303761 -0.43710446
000360 a9 8a 96 be fd e5 74 be 16 92 85 3d 29 83 89 3c
       -0.29402664 -0.23915859 0.06522004 0.016786175
000370 c4 96 7a be df 3b f1 3d b2 f1 b8 3c d6 70 8f be
       -0.24471575 0.11778998 0.022576187 -0.28015774
000380 41 1e 9b 3e 91 2b 0b 3e 52 58 79 3d 8b 7d a5 be
       0.3029652 0.13590838 0.060875244 -0.32322344
000390 3b 17 d9 bc 49 a6 c4 bd 57 28 ea be 48 f1 96 3d
       -0.026500335 -0.09602029 -0.45733902 0.073702395
0003a0 bd 2c 82 be 55 1a 0a bf 5f 0b 81 be 8d ff 56 bf
       -0.25424758 -0.5394643 -0.25203988 -0.8398369
0003b0 dd 90 07 bd 6a 1c 53 bd a8 fe 2a 3d b8 35 a3 be
       -0.033097137 -0.05154077 0.041746765 -0.31876922
0003c0 7e ba cb bd aa 0b 9e 3e 15 7f b3 be c6 7f a7 3d
       -0.0994768 0.30868274 -0.35057893 0.08178668
0003d0 05 3e 27 bf 0b c5 6a be 4f c9 28 3e 19 7a cc 3d
       -0.6532901 -0.22926728 0.16483043 0.09984226
0003e0 f1 a6 92 bd ca ce ae 3d 0b f3 c4 3e 46 1d 42 bf
       -0.07160748 0.08535536 0.38466677 -0.7582592
0003f0 d8 8e 1c bc a8 3f 3d 3e 60 89 0a bd c4 1e 24 bf
       -0.009555541 0.18481314 -0.033822417 -0.64109445

weight f4 [64, 32, 5, 5]
000000 07 be 3c 3e 16 c3 32 3d 53 67 de bd 40 2b 56 3e
       0.18431865 0.04364308 -0.10859551 0.20914936
000010 36 1b c1 be 91 e1 58 3e 23 57 e1 3d 95 06 06 3e
       -0.37716073 0.21179797 0.11002948 0.13088448
000020 38 fb e7 bd 0a ff 85 3d 65 cc 86 bb 2b ef 56 be
       -0.11327213 0.065427855 -0.004113721 -0.20989673
000030 2a 81 27 be bc 78 aa 3b 95 bc 21 3f 7b 24 0d be
       -0.16357866 0.005202381 0.6317838 -0.13783447
000040 ff 65 c1 3d 45 71 01 3e 36 b6 c6 bd 97 26 ab 3e
       0.09443282 0.12640865 -0.09702723 0.3342788
000050 0e a2 76 bd d0 c0 4c be 46 22 ff bc 90 23 da 3e
       -0.06021314 -0.19995427 -0.031144273 0.42605257
000060 64 a4 70 3d 98 0f 0a 3f b0 b2 c4 be e8 e6 05 be
       0.058750525 0.53930044 -0.38417578 -0.13076365
000070 59 c5 bf be f7 8c 82 3d b5 fb a1 bd a3 f2 9b 3e
       -0.37455252 0.06374543 -0.079093374 0.30458555
000080 56 ab 7a 3e 6c 1f f5 be 68 fe 4f be 1f 2e 55 be
       0.24479422 -0.47875535 -0.20311892 -0.20818375
000090 18 99 2f 3e e1 87 0a 3f f0 3a 68 bd 97 4f 2b be
       0.17148244 0.54113585 -0.056696832 -0.1672958
0000a0 52 a4 ca 3e 6d a5 a0 3e 6c c4 bf be 48 0f ea 3e
       0.3957849 0.3137621 -0.37454545 0.45714784
0000b0 eb 40 35 bd 6a 1f dc bd 61 88 09 3f ea e2 c1 3e
       -0.044251364 -0.10748179 0.5372372 0.37868434
0000c0 67 ee 30 3e 1e 7c 12 3c 9e 44 b2 be b1 1f aa 3c
       0.17278443 0.008940725 -0.34817976 0.020767065
0000d0 c0 3d b6 3e 3e 54 d7 3c 5b e2 0e bd 6f 27 01 3f
       0.35593987 0.026285287 -0.03488384 0.50450796
0000e0 bc e3 d7 bd c3 8a 1a bf 48 bc fa be b0 c0 4b bf
       -0.10541484 -0.60367984 -0.48971772 -0.7959089
0000f0 7c b5 98 3e ee 63 83 3d 9e 44 d0 be fc 8a b0 3e
       0.29825962 0.064155445 -0.4067735 0.34481037
000100 6e 6d ae be bb 8d 01 3e de 79 8a 3d 9f b2 a2 3e
       -0.34067863 0.12651722 0.067615256 0.31776902
000110 00 a0 6c be 0f 31 0c be 3c b6 22 3f 29 fb 2b 3e
       -0.2310791 -0.1369059 0.6355932 0.16795029
000120 ed 06 83 bd 49 51 07 3e e9 d1 6b be 55 b7 67 be
       -0.06397805 0.13214602 -0.23029293 -0.2262853
000130 e2 90 e0 be 1a b4 92 bd 27 4f 6a 3e 1c 59 b3 be
       -0.43860537 -0.07163258 0.22881757 -0.35028923
000140 fb 5f 11 3f ca 2b b9 3e e5 ab 2d 3e 23 b9 7e 3e
       0.5678708 0.3616622 0.16960104 0.24875312
000150 a5 b6 e5 3e df a1 b3 bd 70 62 bf be ba 16 a5 be
       0.4486591 -0.08771109 -0.3737979 -0.32243901
000160 e5 9f b2 be 86 8d 99 bf a5 95 42 bf b2 ad 15 3d
       -0.34887615 -1.1996315 -0.7600959 0.036542602
000170 2a aa be bf 97 cc c1 be e2 af 6a 3e 88 e5 66 3e
       -1.489568 -0.37851402 0.22918656 0.22548497
000180 e3 47 89 3d 03 36 36 be 0d 2e fb 3e 4a 62 0d 3e
       0.067031644 -0.17794041 0.4905857 0.13807026
000190 14 0f b8 be 36 10 d0 3e 58 61 63 3c 81 3b de 3d
       -0.35949004 0.40637368 0.013878189 0.10851193
0001a0 b7 5c 87 3e 99 86 18 3d 4a 61 64 be b9 d1 44 3e
       0.26437923 0.037237737 -0.22302738 0.19220628
0001b0 b6 af 25 3e 54 45 30 3f 4b 2b 69 3e 65 43 76 3c
       0.1618031 0.68855786 0.22770421 0.015030717
0001c0 b1 4f 5b be 59 06 94 bd ee 98 8c be 60 51 4a be
       -0.21417119 -0.07227773 -0.27460426 -0.19757605
0001d0 ae 95 07 3e ef 9d 82 be 6a 8b 2c bf 0f c1 29 bf
       0.13240692 -0.2551112 -0.6740023 -0.6631021
0001e0 a6 c4 bc be d4 14 95 bd 9e dc fd 3d 27 f6 8d 3e
       -0.3686878 -0.07279363 0.12395595 0.27726862
0001f0 e2 9b 68 be 73 b0 af bc e2 a8 12 bf 23 00 54 be
       -0.22715715 -0.021446442 -0.57288945 -0.20703177
000200 06 87 a7 3e 87 32 75 bf 16 54 ec 3e 8b 0e 90 be
       0.32720202 -0.95780224 0.46157902 -0.28136095
000210 b7 bd 3e 3e 41 1b c8 3b 6f fb 25 be 0d 3b 6d 3d
       0.18627058 0.0061067645 -0.16209196 0.057917643
000220 95 03 1d 3e a1 87 bd 3e 5f 6a 78 bd 6c fa 84 be
       0.15333398 0.3701754 -0.06064832 -0.25972307
000230 d9 bd 0f bf 84 98 26 be 92 ba fe 3d 42 fe d7 bd
       -0.5614906 -0.16269118 0.12437929 -0.10546543
000240 3e 19 a3 bc a5 2b ba be 59 91 fe bd 55 21 b0 3d
       -0.019909497 -0.36361423 -0.124300666 0.086001076
000250 9e 36 93 bc c2 9b 25 3e 26 2f 08 3c ca 53 e2 be
       -0.01797038 0.16172698 0.008312022 -0.4420455
000260 54 be 9c 3c f4 88 3a be ac 09 05 bf dc 6d ed 3d
       0.019133724 -0.18216306 -0.51967883 0.1159322
000270 fe 66 d0 3c b0 5e 5c 3e 8e 79 90 bd ca b9 48 3d
       0.025439736 0.21520495 -0.07054435 0.049005307
000280 fe 2c 46 bc 64 b2 5f 3e aa 13 8b 3e 97 40 88 be
       -0.012095688 0.21845394 0.2716344 -0.26611778
000290 82 bd 59 be dc 7e 56 3d d3 66 a5 bd 04 f2 53 bd
       -0.21263698 0.052367076 -0.08076253 -0.051744476
0002a0 4e 70 04 be 21 9c d9 be 0b 4e b6 3e e9 1a 26 3e
       -0.12933466 -0.4250193 0.35606417 0.16221203
0002b0 a5 57 0e 3e 7b ea da bd 5b d6 b2 be c3 6d b1 bd
       0.13900621 -0.10689255 -0.34929165 -0.086635135
0002c0 ce 29 05 bf 9a 13 27 3d a8 f5 2c bd c3 84 48 3e
       -0.52016914 0.040790178 -0.042226464 0.19581895
0002d0 67 11 e6 3e 72 b1 25 3d 53 97 d8 bd 66 32 dc bd
       0.44935152 0.04045243 -0.10575738 -0.107518
0002e0 a2 fa c6 3d e2 9c c5 3e 0f 66 a3 be 65 b2 29 be
       0.09715773 0.38596255 -0.31913802 -0.16571958
0002f0 fe 49 a9 3e 4c 22 d2 3e f1 00 40 be a1 23 eb bd
       0.33064264 0.4104179 -0.18750359 -0.11481405
000300 59 8e bb bd 55 30 63 be b4 97 1a be 79 7d 92 3e
       -0.0915801 -0.22186406 -0.15096933 0.28611353
000310 92 4c 3d be 41 86 56 3e 1d 89 37 bf 54 06 55 be
       -0.1848624 0.20949651 -0.71693593 -0.20803195
000320 9a 88 24 3e b3 ab 8d 3e 37 a9 71 bd 8d da c9 be
       0.16067734 0.2767006 -0.058999266 -0.39424554
000330 8f dc 34 3c dc d7 c3 3e cb c7 77 bf b1 36 3e 3e
       0.011038913 0.38250625 -0.96789235 0.1857555
000340 3f bd 9e be 74 3a 35 3e 66 bd c7 3e ff b5 62 3e
       -0.31003758 0.1769808 0.39011687 0.22139739
000350 ce d6 0d 3d fb 0e 05 be e0 4c d6 be d1 32 e0 3e
       0.03462868 -0.12993996 -0.41855526 0.4378877
000360 df 97 3c 3d 1f f1 00 3e 23 ab da bd 8c ed 12 3f
       0.046043273 0.1259198 -0.10677173 0.5739372
000370 61 15 9d 3e 62 0c 63 bd e1 51 2c be 8e 01 f8 3c
       0.30680373 -0.05543173 -0.1682811 0.030274179
000380 31 a1 df bd b5 43 e9 3e 99 f5 b0 3d bc f5 a6 bd
       -0.10919417 0.4555947 0.08640594 -0.08152339
000390 aa 17 94 be 97 d2 95 3e 14 89 fc 3d af 05 ee 3e
       -0.28924304 0.2926223 0.12330833 0.4648871
0003a0 ee f0 09 3e db 15 f9 bc e3 02 22 3f 78 6a ce 3d
       0.13470814 -0.03040593 0.63285655 0.10078901
0003b0 52 64 35 3e 8a 26 da 3c c9 26 2b 3e 41 3b 3a 3e
       0.1771405 0.026629705 0.16714014 0.18186666
0003c0 10 11 f4 3e da 82 1a 3e 2d e5 1c be bf 01 ca 3e
       0.47669268 0.15088978 -0.15321799 0.39454457
0003d0 99 e0 3d bd c1 f4 07 3e 7b 22 6a be fd b4 36 3e
       -0.04635677 0.1327696 -0.22864716 0.17842479
0003e0 68 99 0c 3f 41 96 b5 be 7c 94 89 3e 83 27 00 3e
       0.5492158 -0.35466197 0.26871097 0.12515073
0003f0 d3 86 b4 3e 77 19 85 bd ba cc d7 3e e9 73 e2 3e
       0.35259113 -0.06498998 0.4214838 0.44229057

weight f4 [256, 256]
000000 b0 c4 f9 3c 58 7c cc 3c f1 eb 8f bb 6b 83 5f 3d
       0.030489296 0.024961635 -0.00439214 0.05456869
000010 a3 0c b6 3d b2 12 aa bc 96 b9 90 bd 68 87 d0 bd
       0.08889129 -0.020760868 -0.07066648 -0.10182077
000020 4c bf 57 3c e3 51 fb bd f1 34 85 bd af ee 3e 3d
       0.013168167 -0.12271478 -0.065042384 0.046614345
000030 5c 72 fb 3d 7d 79 c2 3d e6 20 7e bd 3d 7a 0d 3d
       0.12277672 0.09495828 -0.062043093 0.034540404
000040 9d fd 36 be 5f 31 4a 3e 19 8f 33 3d 7c d2 ec 3b
       -0.17870183 0.19745396 0.04383764 0.00722724
000050 7f 56 f8 bd c5 10 40 3d 00 77 f5 bc ff 40 c1 bd
       -0.12125873 0.046890993 -0.02996397 -0.09436225
000060 6b ab 96 3d c1 32 15 be 33 4a 23 be c2 21 07 bd
       0.07356914 -0.14570142 -0.15946274 -0.03299118
000070 d4 c4 ce 3c fc c9 b5 3c e8 23 23 bd d9 77 b8 3c
       0.02524034 0.02219104 -0.039829165 0.022518085
000080 b7 a6 1d 3f 71 1c 7a be ed 9e f3 bb 15 92 f7 3d
       0.6158251 -0.24424912 -0.007434717 0.1208841
000090 72 a4 f5 ba 1d 3e fd 3b eb 35 bb bc 67 3f 60 bc
       -0.0018741025 0.0077283517 -0.022852859 -0.013686991
0000a0 b9 52 c1 bb 35 3d aa be ef 20 64 3c d1 a4 7e bd
       -0.005899754 -0.33249822 0.013923868 -0.0621689
0000b0 e8 1a 00 3b 2c 55 2b bd 95 74 3b be 2e 10 16 3d
       0.0019547287 -0.041829273 -0.18306191 0.036636524
0000c0 1e e2 9b bd e2 b7 25 3d 26 4f b5 bd 64 14 82 3e
       -0.07611488 0.040458567 -0.08852987 0.25406182
0000d0 ad 36 84 bc 80 46 ed 3b 38 d7 7c bd cd 84 b9 bd
       -0.016139353 0.0072410703 -0.061728686 -0.09058533
0000e0 ad 99 26 bd e5 9d dd be 79 5a 73 3e 44 d8 40 bd
       -0.0406739 -0.43284526 0.23764981 -0.047081247
0000f0 dd 20 fc 3d 8b e5 07 3a 4f 61 33 be fe 63 71 be
       0.12310956 0.0005184046 -0.17517589 -0.235733
000100 23 6e 9a bd 89 93 99 bd 93 ff b1 bd 75 8e 9b 3d
       -0.07540538 -0.07498843 -0.08691325 0.07595531
000110 1c 95 2c 3e 0a e7 01 bd 56 be 91 3c 36 f6 8b bd
       0.16853756 -0.031714477 0.017790955 -0.068340704
000120 18 7a 27 bd 91 82 42 bd 96 71 93 3d 2d 8a 90 bb
       -0.040887922 -0.0474878 0.07199399 -0.004411003
000130 99 f6 07 be 5b 01 48 3d 2b dc 36 bd 41 d9 e2 bc
       -0.13277663 0.048829418 -0.044643562 -0.027691485
000140 d5 22 38 3d 02 26 e2 bc ce ea fb 3d aa 0f dd 3d
       0.044955093 -0.027606014 0.12300645 0.10794003
000150 4c 36 3e be 69 4a bb bc 18 c6 88 3a 4e 9b 18 3c
       -0.185754 -0.02286263 0.0010435013 0.009314371
000160 1c 06 7d bb 31 d3 39 3d 0e 3c b2 bd 32 f0 d1 ba
       -0.0038608378 0.045367423 -0.08702861 -0.0016017018
000170 dd 54 12 3d 4f a4 36 bd 74 ed 2b 3d 63 12 b7 bd
       0.035725463 -0.04459029 0.0419745 -0.08939054
000180 10 a6 08 3f 9f 13 3f be 27 36 11 bd c7 4d 9f 3d
       0.5337839 -0.18659829 -0.035452034 0.07778507
000190 c7 f4 5c 3e 5c ad 9b bd 0f 64 78 3e a5 a9 0b bf
       0.2157775 -0.07601425 0.2425692 -0.5455573
0001a0 38 84 e8 3d 96 2c a1 3d 99 13 be 3b 72 4f e1 3d
       0.11353344 0.07869832 0.005800676 0.11001481
0001b0 2d d9 09 3e a5 9f 40 3c 36 01 25 3e d4 a0 4d 3e
       0.13461752 0.011756812 0.16113743 0.20080882
0001c0 a0 52 bf bc f0 84 c0 bd c7 f9 86 bd dd 1f b9 3d
       -0.023354828 -0.09400356 -0.0659061 0.090392806
0001d0 27 13 b7 bd e5 98 f3 3c ed bd 16 bc 67 29 65 39
       -0.089392 0.029735992 -0.009200555 0.00021854565
0001e0 e0 50 2b be 59 07 70 3d 31 e3 8c be be 1f 90 be
       -0.1673007 0.058600757 -0.27517083 -0.28149217
0001f0 5a 12 5d 3d cc c9 08 3d 5e 5c 94 bc 5f 7f be bd
       0.05397258 0.033395573 -0.01811045 -0.09301638
000200 42 3e eb bd 50 da 06 be ab 09 10 be 95 90 6e 3e
       -0.11486484 -0.13169217 -0.14066188 0.23297341
000210 c4 aa a6 3d de cf b3 bd ff b6 9a bd 26 09 b8 bc
       0.0813804 -0.08779882 -0.07554435 -0.0224653
000220 a6 3f 9d bc 3b e6 d4 3c a3 7c a3 3c e8 d5 91 bc
       -0.019195389 0.025988689 0.019956892 -0.017802194
000230 79 2e c7 bd ec db 85 bc 04 7d c1 3d e2 be d4 3c
       -0.09725661 -0.016340218 0.09447673 0.025969926
000240 4a 43 a4 3d b4 15 29 3c 61 d2 1d 3d e7 b6 a9 bd
       0.08020647 0.010320116 0.03853071 -0.08286839
000250 0d b3 e6 bc 66 e8 85 3d fa d6 df bc a4 ac a8 bc
       -0.02816155 0.06538467 -0.027324189 -0.020590134
000260 7b ad 80 3d 98 94 af 3d 8b c2 a0 3d ec 9c 21 be
       0.06283089 0.08573264 0.07849606 -0.15782517
000270 26 35 5a 3d 2b 73 a7 bd b0 6d d0 bd 88 38 e6 3d
       0.053273343 -0.081762634 -0.10177171 0.11241251
000280 b2 fd 77 bd 04 17 12 3d 8c d0 63 bd 11 60 a4 3d
       -0.060544677 0.03566648 -0.055618808 0.08026136
000290 29 46 d9 bd bc 80 34 3d c2 42 99 3d 20 9e 7a bb
       -0.10609085 0.044068083 0.07483436 -0.0038241223
0002a0 fe 99 b5 3d d4 9d d3 3d 63 c6 41 3d 4b cf b1 3d
       0.08867262 0.10332838 0.047308337 0.08682116
0002b0 cd b0 17 be 90 b9 bc bd fb d3 b5 bb 6c d0 da be
       -0.14813538 -0.09215081 -0.0055489517 -0.42737138
0002c0 09 a3 85 3d 9f 44 84 3b 18 4b b0 3d ca 70 a7 bd
       0.06525237 0.0040365006 0.08608073 -0.0817581
0002d0 63 73 98 bd 17 ec 91 bd 6b 07 60 3c 0e 5a e3 bc
       -0.07443883 -0.07125109 0.013673644 -0.027752902
0002e0 6a 21 4f be 2a ba d1 bd 20 71 11 3d 76 b8 ed bd
       -0.2022759 -0.10240586 0.035508275 -0.11607449
0002f0 23 9e b5 3b b7 cd b0 3d c7 64 80 bd 41 31 e6 bc
       0.005542533 0.08632987 -0.06269222 -0.028099658
000300 74 63 ae bc 91 5b cd bd ee a1 4a 3d e4 54 b3 3e
       -0.021287657 -0.100272305 0.049470834 0.35025704
000310 d8 ff c2 3b f8 34 40 bd bc ad 3e bd f8 bd fc 3c
       0.005950909 -0.046925515 -0.046552405 0.030852303
000320 da f9 ba bd 24 4a 9d be 73 d1 26 3e 89 62 31 bc
       -0.09129687 -0.30720627 0.16290836 -0.010826715
000330 35 43 20 bd b3 62 e6 3d c5 f4 12 3e af 6b 01 3d
       -0.039126594 0.11249294 0.14351185 0.031596836
000340 1f 70 eb 3d 4a 10 01 3d 67 08 eb 3c f5 65 63 bc
       0.11495995 0.031509675 0.02869053 -0.013879289
000350 f1 46 68 3e 98 08 aa 3c 40 7d 78 be ea 84 25 be
       0.22683312 0.020756051 -0.24266529 -0.16163984
000360 34 f0 99 3d a4 12 16 3e 24 69 ad bd ec 75 80 3d
       0.07516518 0.14655548 -0.084673196 0.06272492
000370 8f b2 4e bd f4 41 dc 3c 49 99 65 bd d3 d4 85 3c
       -0.050463255 0.026886918 -0.056054387 0.016336834
000380 0e b4 e6 3c d6 d7 52 bd fa 5b fe 3d e2 a2 00 bd
       0.028162029 -0.05147537 0.12419887 -0.031405337
000390 57 2b 3f 3d 65 77 55 3d 1f 15 0c 3d 9c 74 b0 bd
       0.04667219 0.052115817 0.03419983 -0.086159915
0003a0 6f 4c 61 bd 0f 0e 38 3d 08 1a 8a 3d 12 38 81 3d
       -0.055004533 0.044935282 0.06743246 0.06309523
0003b0 ed b1 67 be db 8e 4b 3d b2 7c a8 3e d8 2d 6a 3c
       -0.22626467 0.049696784 0.32907635 0.014293157
0003c0 84 4d 38 3e bd 8b ae 3c 08 0d e4 bd ae e9 57 bd
       0.1799832 0.021306867 -0.11135298 -0.05271309
0003d0 62 6a 84 bd 64 2e 5c 3d dc e8 29 3c 6e ab ae 3d
       -0.064656034 0.05375518 0.010370459 0.08528791
0003e0 79 31 f7 3d 96 55 0f 3d 4c b4 b7 3d e2 b7 b5 3d
       0.12069983 0.03499373 0.08969936 0.088729635
0003f0 8d 24 9b 3c 55 30 12 bc 7a 28 72 3c ff 5a 22 bc
       0.018938327 -0.008922656 0.014780158 -0.0099093905

bias f4 [256]
000000 ec fa 55 3b 25 e5 f8 3b a0 90 a4 3d fc 63 8e bc
       0.0032650782 0.0075956755 0.080353975 -0.01738166
000010 dd 4d 17 bd b2 e0 c5 bd d3 07 6c bd b7 aa 69 3d
       -0.03693949 -0.09661998 -0.05762465 0.057047572
000020 04 d5 13 3e cc c7 ee bd aa fa d2 3c c1 7c 79 bc
       0.14436728 -0.11659202 0.025754292 -0.015227498
000030 c4 3f a5 3d 44 b1 a7 bd 74 be bc bc e6 95 13 bd
       0.08068803 -0.081881076 -0.023040034 -0.036031626
000040 b8 c1 4d bc f6 d8 46 bd 37 dd a5 3d 1c c3 97 bd
       -0.012558393 -0.048546754 0.08098834 -0.07410261
000050 0f 7c bf 3c c4 a0 84 bd d8 37 b2 3d 67 a3 53 3e
       0.023374585 -0.06475976 0.087020576 0.20667802
000060 87 11 13 be 23 cc 06 3e bf 28 63 3d 4a 47 aa bd
       -0.14362155 0.1316381 0.05545878 -0.083143786
000070 ea 14 df bd 7f 28 fc bd 27 22 0a 3e d0 16 00 3e
       -0.10892661 -0.123124115 0.1348959 0.12508702
000080 b8 44 2f bd d2 57 67 3c d8 f5 75 3d 46 be c5 bc
       -0.042790145 0.014120059 0.060048908 -0.024138581
000090 9a f9 01 be 3e d1 d2 bb 3d 34 1d bd 52 37 16 be
       -0.12692872 -0.006433635 -0.038379896 -0.1466954
0000a0 50 10 75 bd a9 a0 69 3d 0b 49 5f 3d 4a 6a e3 bd
       -0.05983001 0.057037983 0.05451302 -0.111042574
0000b0 3f e5 67 bd 09 64 e3 3c e4 c3 da 3d e0 e8 25 3e
       -0.05661511 0.027757661 0.106818944 0.16202116
0000c0 b2 f4 27 bc 7c aa a7 3d b3 b2 2c bd c1 c1 02 3d
       -0.010251211 0.08186814 -0.04216261 0.03192306
0000d0 2c 84 0c be 5f a7 eb 3d cf 6d 01 3e 12 53 e7 bc
       -0.13722295 0.11506533 0.12639545 -0.028237853
0000e0 09 a6 3d bd 81 da 2f 3d be 33 4e 3e bc 49 7d 3c
       -0.04630092 0.04293299 0.20136926 0.015459474
0000f0 87 6d fd bb 63 2c 54 3d 39 0f 08 be a1 c0 93 3c
       -0.007734004 0.051800143 -0.13287057 0.018036189
000100 2c b9 a8 3b a2 f1 1a 3d 40 7c 84 39 a4 4b 69 bd
       0.0051490273 0.037828095 0.00025269575 -0.056956902
000110 03 09 a7 bd 95 11 69 be ca 65 5e bd 40 51 ce bc
       -0.08156016 -0.22760613 -0.054296292 -0.025185227
000120 8a a6 a7 bd 6c 3e b2 3d cf 15 27 3d 54 ec 32 3d
       -0.08186062 0.08703312 0.040792283 0.04368241
000130 3f ac cb 3c f6 9c 1d 3d f9 05 75 3d a4 75 2c bd
       0.024862407 0.038479768 0.05982015 -0.04210438
000140 42 fb 21 be 5a cc 12 3d ba f9 cf bb 07 91 19 bd
       -0.15818503 0.035839416 -0.0063469084 -0.037491824
000150 35 8a e0 bd 7b 5d c7 3d 83 7c b0 3d a2 14 19 3d
       -0.10963861 0.09734627 0.08617499 0.037373193
000160 72 25 37 3e 85 86 8a bd 8a f5 92 3d 11 a4 6a bc
       0.17885378 -0.06763939 0.07175739 -0.014321343
000170 a9 ee 11 3d de 45 dc 3d 74 12 92 3d 58 b7 2c 3d
       0.035627995 0.107555136 0.07132426 0.042167038
000180 d3 87 1b be 63 3c 6d 3e 09 7b 1a be 37 71 3d 3a
       -0.15188532 0.23167567 -0.15085997 0.0007226648
000190 dd 87 4b 3d e6 f4 14 be 08 a6 03 be 0f 20 92 bc
       0.049690116 -0.14546546 -0.12856305 -0.017837552
0001a0 d1 aa 9d bd 45 c7 36 bd 6d a9 a2 bd 1b 43 02 3e
       -0.07698596 -0.044623632 -0.07942472 0.12720911
0001b0 e3 11 09 3e 04 34 13 3d 3b 48 a5 bd cf 40 b0 3d
       0.1338573 0.035938278 -0.080704175 0.08606111
0001c0 b9 d6 8d bc a6 0d 2d 3c 4b 6b 70 bd 6b 70 db 3c
       -0.017314302 0.010562336 -0.058696073 0.026787004
0001d0 f6 fc c2 bd 2c 51 01 be 37 bb 0f bd a5 13 88 bd
       -0.09520905 -0.12628621 -0.03509065 -0.06644372
0001e0 4b 94 cd bc 8d 66 25 3e cb 6d 8d 3d 25 c3 cf bc
       -0.025095126 0.16152401 0.06905707 -0.025361607
0001f0 2a 46 2b bc 0e 81 94 3c c7 90 fc bc 09 74 b0 bb
       -0.01045374 0.018127944 -0.030830754 -0.005384926
000200 3e 9b ab bd c3 78 09 3d 5b fc 51 3d 74 4c a7 3d
       -0.083792195 0.033562433 0.051266056 0.08168879
000210 11 a6 da bd 92 00 db b9 d4 da c5 3d 83 7f bc 3d
       -0.10676206 -0.0004177136 0.09660879 0.092040084
000220 cf f1 e8 bd 0d f3 5f bc 1d 31 55 bd 8e 22 c0 bd
       -0.11374246 -0.013668788 -0.05204879 -0.09381591
000230 d8 65 ee 3d 01 57 cc bb fe 9b 13 bd f8 22 f2 bd
       0.11640519 -0.0062359576 -0.036037438 -0.11823076
000240 4f 1c 06 3d bc b4 63 3c b8 f7 5f bd 3e 7b 39 3e
       0.03274184 0.013898071 -0.054679602 0.1811342
000250 42 b7 2f 3d a8 89 18 3e 1e 48 bd bc d8 76 83 3d
       0.042899378 0.14896262 -0.023105677 0.06419152
000260 1b 08 a0 3c 53 58 e0 3c df 25 05 bd 38 32 29 3c
       0.019535115 0.027385866 -0.03250682 0.0103269145
000270 2a 24 c8 3d c8 58 8c b9 46 5d eb bd 70 e2 cf bd
       0.09772523 -0.00026769028 -0.114924 -0.101506114
000280 90 4a f1 3c cb 82 96 bc a6 5e 58 3c b3 dd 4b bb
       0.0294545 -0.018372914 0.01320616 -0.0031107485
000290 41 01 a9 3d b4 ba 2b be 64 c6 a3 3d 8b 12 57 bd
       0.08252192 -0.1677044 0.079968244 -0.05250792
0002a0 f9 d1 6c bc 8b 45 2f bd 88 71 04 3b 89 b4 3c 3d
       -0.014454358 -0.04279093 0.0020209271 0.04607061
0002b0 cd 6f db bc 60 5f 00 bd 0f 56 37 3d 56 a0 e7 3d
       -0.02678671 -0.031340957 0.044759806 0.113098785
0002c0 d8 de 83 3d b9 3e a9 bd ca 9c c9 bd 91 4d 02 be
       0.064389884 -0.082639165 -0.09844358 -0.12724902
0002d0 74 9a 5f 3d bc cf b0 3c 15 fe 32 3e 32 0a fc bc
       0.054590657 0.02158343 0.17479737 -0.03076658
0002e0 7c 7b 33 3d 0a 83 b3 bd 71 cc 27 3e cc e7 25 bd
       0.043818936 -0.08765228 0.16386582 -0.04050426
0002f0 bb bb 52 bd 67 17 8b bd 0e ce 6c bd aa 8e 06 bb
       -0.051448565 -0.06791573 -0.057813697 -0.0020531812
000300 34 7c f2 bc 53 77 03 3e cb f7 ad bd 3c 47 d9 3d
       -0.02960024 0.12838487 -0.084945284 0.1060929
000310 58 87 02 3d df f2 50 bd 0a 4a 66 3c ab d9 16 3d
       0.031867355 -0.05101287 0.014055738 0.036828678
000320 b2 85 82 3d 4d 1d a6 bd 5d c6 b8 3d 41 98 29 bd
       0.063731566 -0.081110574 0.0902221 -0.041404966
000330 00 4c 96 3c 43 40 51 bd c9 07 f8 3c 4b 39 79 3d
       0.018346786 -0.051086675 0.03027715 0.060845654
000340 e5 36 28 3e a0 63 9f 3c a2 6d 80 bd 0a 08 ac bd
       0.1642719 0.019456685 -0.06270911 -0.08399971
000350 d9 ca fd bc cc 01 f1 3d 11 9e ca bd 78 23 d8 3d
       -0.030980514 0.11767921 -0.0989343 0.1055364
000360 0b a1 db 3c ca a4 27 3e 4a 7b e9 3c 5a 78 1a bd
       0.02681019 0.16371456 0.028501172 -0.037712432
000370 34 e9 52 3d c0 f1 9f bb a8 27 9d 3d 38 41 06 3e
       0.05149193 -0.004881114 0.076735795 0.13110816
000380 d1 0b ee 3d f9 e8 d5 3b 31 02 d8 3c 99 c4 19 bc
       0.116233476 0.0065280166 0.026368232 -0.009385251
000390 ed bc 87 3a 42 e4 43 bb 06 af 83 bc 24 5f 16 be
       0.0010355987 -0.002989069 -0.016074669 -0.14684731
0003a0 f4 43 41 bd a8 7f d4 3d 80 0a 35 bd 9a 09 bb 3d
       -0.047183946 0.10375911 -0.044199467 0.09132691
0003b0 d0 09 11 bd cb 9b a3 3d a3 ee 1d be 01 c1 30 bc
       -0.03540975 0.079886995 -0.15423064 -0.010788203
0003c0 bb 9d 00 bd 73 81 eb 3c 13 31 eb bc ca 6d 1e be
       -0.031400423 0.02874825 -0.028709924 -0.15471569
0003d0 47 6f 98 3d 76 0d ab 3a 92 27 a7 3a 2f dd 42 3d
       0.074430995 0.0013050276 0.0012752882 0.04757422
0003e0 06 11 c4 bd 74 ce 56 3d 45 ef aa 3b 1e 0a 26 3c
       -0.095735595 0.052442983 0.0052165114 0.010134248
0003f0 3e fa f4 bd 77 8c 81 bc d4 34 43 3d 2f 5d e5 3d
       -0.119617924 -0.01581405 0.047657803 0.11199414

weight f4 [256, 256]
000000 58 b9 ff 3b 91 c1 60 bc 1f 90 1c 3b 4e 68 96 3b
       0.007804077 -0.013718025 0.0023889614 0.004590071
000010 4f dc e7 bc 6c 64 c3 3c 5c 7b 8b bc c9 39 e6 3c
       -0.028303294 0.023851596 -0.017026596 0.028103726
000020 2a fa 87 bd 2a 46 ea bc 55 fe 1a bd 83 7a 3b 3d
       -0.06639512 -0.02859791 -0.037840206 0.045771133
000030 e5 7a 4d 3d 16 9b fe bc 77 c7 0d 3d 92 4c 8c ba
       0.05016603 -0.03107981 0.034614053 -0.0010703972
000040 1c 5c f3 bc b7 3f 10 3b ef 50 cd bd 5c 35 4d bc
       -0.029707007 0.0022010633 -0.100252025 -0.012524929
000050 64 65 7b ba 25 98 2c 3d 0e 54 9f bc da 8f 40 bd
       -0.00095899985 0.042137284 -0.01944926 -0.047012188
000060 0d 63 ca 3b e8 81 05 ba 21 8d 26 bd 8f 26 e1 3c
       0.0061763586 -0.0005092905 -0.040661935 0.027484206
000070 7b 86 52 3d c1 f0 96 3d ea fb e3 bc b7 56 52 bd
       0.05139778 0.07370139 -0.027830083 -0.05135223
000080 30 03 7e 3d 33 95 98 bd a2 09 8d bc 7c 54 0c 3d
       0.06201476 -0.074503325 -0.017216507 0.034260258
000090 7e 66 45 3d a0 09 25 bd 69 53 a0 bc 42 90 cc 3b
       0.048193447 -0.040292382 -0.019571023 0.006242783
0000a0 90 bd 91 bd 79 80 49 bd ac 7f 87 3b 4c 55 8a bc
       -0.07116234 -0.049194787 0.0041350927 -0.016886376
0000b0 7f ba 4d 3d 66 ac 60 bc 64 e4 b8 3c 84 07 88 3d
       0.050226685 -0.013712978 0.022569843 0.066420585
0000c0 2d f4 db 3d f0 41 dc 3c 4c 72 23 3d 55 c0 fb 3a
       0.10739932 0.02688691 0.039903924 0.00192071
0000d0 ad 88 ed 3c c0 b4 88 3c f7 2b c6 3c ff ac c6 3c
       0.028995836 0.01668775 0.024190886 0.024252413
0000e0 24 d6 8b ba 71 62 d6 ba 41 8b 12 bd 68 b7 39 b9
       -0.0010668677 -0.0016356242 -0.035777334 -0.00017711299
0000f0 8b a9 a9 3c 98 0c 1e bd ed e5 91 3c 29 d6 47 bd
       0.020710727 -0.03858623 0.017809832 -0.048788223
000100 12 bf 69 3c d9 4f 95 bc 5a 3e 1b bc 10 47 1a 3d
       0.014266746 -0.01822655 -0.009475315 0.037665427
000110 6a 3c 7e bb d7 e3 f0 3b 72 07 5a bc ba 73 ad 3c
       -0.0038793334 0.0073513794 -0.013307439 0.021173347
000120 cd a3 11 bd 81 86 b9 3b 32 61 07 3d 4a 59 9a 3d
       -0.035556603 0.005661786 0.033051677 0.07536562
000130 b1 eb fd bc 42 52 9f 3c 94 b9 3b 3c e1 7f 8f bc
       -0.030996175 0.019448403 0.0114578195 -0.017517032
000140 66 fd 0a bc dc 42 b5 3b b8 12 83 3d bc 6b 5e 3a
       -0.008483266 0.005531652 0.06400055 0.00084846816
000150 ab 3b d6 3a b3 be 0c bc c6 6a 36 bb 3b 77 b2 bc
       0.0016344687 -0.008590388 -0.0027834638 -0.02178537
000160 23 ec 48 3d 15 ac f2 3b e1 c7 53 bd 28 be 20 bd
       0.049053323 0.0074057677 -0.05170429 -0.039243847
000170 ae a0 5b bb cc 29 de bb 45 65 02 3d 8e f2 d8 3b
       -0.003351252 -0.006779885 0.03183486 0.0066207116
000180 2f 90 f7 bc 6d 56 bc bc 3f c0 e9 bb 4d cd c1 bc
       -0.03022012 -0.02299043 -0.007133513 -0.023657465
000190 bb 53 9c bc 2a c0 a9 bc 6e 3b 08 3d 88 48 81 bc
       -0.019082895 -0.020721514 0.0332598 -0.015781656
0001a0 8e 19 9a 3c 04 15 69 ba 87 c7 0b bd c1 80 00 bd
       0.018811014 -0.0008891376 -0.03412583 -0.03137279
0001b0 cc f1 43 3c fe b8 49 bd 8a ea 96 bd 9c d1 d1 bc
       0.011959504 -0.049248688 -0.073689535 -0.025612645
0001c0 8a 49 07 3e bd 92 b4 3b 1d 2c ef 3c 96 6f 7f 3d
       0.13211647 0.0055106566 0.02919584 0.062362276
0001d0 61 d4 7c 3b 08 26 97 bc b7 30 5e 3d 39 1b 53 3c
       0.0038578736 -0.018450752 0.054245677 0.012884908
0001e0 d0 5f 66 bc 41 b8 87 bb e8 0b a5 bc 98 21 22 bc
       -0.014060929 -0.004141838 -0.020147279 -0.009895705
0001f0 f6 a5 11 3c f7 77 75 3b 79 44 96 3c 0e 86 7d 3c
       0.008889666 0.0037455538 0.018343197 0.015473856
000200 db 66 a5 bb 10 30 1b 3d f8 1a 96 3c fb 66 b1 3d
       -0.0050476617 0.037887633 0.018323407 0.0866222
000210 72 d8 be 3c f9 be 2a 3d c2 b1 51 3c de 12 bb 3c
       0.023296569 0.041686032 0.012798728 0.022836145
000220 fc c9 a7 bc 31 3f 1e 3d 5a 53 d1 3c 3c 6e ed 39
       -0.020482056 0.038634483 0.02555244 0.00045286294
000230 98 c5 1f bd 34 f2 d4 3c 8c 6d eb bb 67 72 91 3c
       -0.0390068 0.025994398 -0.00718469 0.017754747
000240 97 97 69 3d 27 ed 79 bc e8 68 6a bd 4e 82 be 3b
       0.057029333 -0.015254295 -0.057228953 0.0058138734
000250 c0 72 44 bd a6 58 82 3b 9f 5b 0f bc 7c 8e 66 bc
       -0.047960997 0.003977853 -0.0087498715 -0.014072057
000260 4c b7 ca bc 1d 4c ed bc 87 49 2c 3d 81 39 46 bd
       -0.024745606 -0.028966958 0.04206231 -0.048394684
000270 7a 79 b7 3b 9a a0 65 bc 59 39 4b bd 51 12 ab 3c
       0.005599198 -0.014015341 -0.049615238 0.020882757
000280 47 69 22 bb 92 94 38 3d 65 a5 a5 bc b3 b5 14 bd
       -0.0024781988 0.045063563 -0.020220468 -0.036306094
000290 43 39 87 3c d8 e2 09 3c d7 60 82 bb 1b 92 ef bc
       0.016506797 0.0084159 -0.0039788294 -0.029244473
0002a0 c9 5a 6a bd 8e 2c 2d bd 35 22 3e 3d fd d2 12 3d
       -0.057215486 -0.04227882 0.04641934 0.035845745
0002b0 6f 62 ec 3c e6 24 92 3c 27 2d 5b 3d 2d 33 0c 3c
       0.02885553 0.01783986 0.053509858 0.008557123
0002c0 8c b7 be bb 94 98 60 bc c4 4a 98 bc 03 e4 a4 3b
       -0.0058202203 -0.013708252 -0.018590339 0.005032064
0002d0 fa 74 d5 3c 24 3a e1 bc 7b 33 df 3c 55 29 96 3c
       0.026056755 -0.027493544 0.027246227 0.018330256
0002e0 c3 88 9f 3c 41 39 20 3a 64 00 d8 3c 5e cf 03 bd
       0.019474393 0.0006112047 0.026367374 -0.032180183
0002f0 de af 5d 3b 2f 41 20 ba e0 f1 fc 3c f8 42 14 bd
       0.003382675 -0.0006113229 0.030877054 -0.03619668
000300 ab 27 ac bc 81 49 04 bd 14 37 7c bc 48 d5 fa bb
       -0.021015009 -0.03229666 -0.015393991 -0.0076548196
000310 3c 54 92 b9 77 91 97 bc 43 00 16 3d 96 2d c6 bc
       -0.0002791005 -0.01850198 0.036621343 -0.024191659
000320 34 98 18 ba 8c 1e b4 bc c1 24 4c 3d 51 45 ac bc
       -0.000582102 -0.021987222 0.04983974 -0.021029146
000330 02 fd a5 3b f2 72 29 3d 67 d1 4a bc 10 f9 cb 3c
       0.0050655613 0.041369386 -0.012379027 0.024899036
000340 b8 1c 2c bd 93 15 f1 3c 73 f9 5d 3d 30 2f a3 bb
       -0.042019576 0.029429233 0.05419297 -0.0049799904
000350 e8 33 41 3d c2 f5 3d 3c b7 c5 ba bc 0b 9c aa bc
       0.047168642 0.011594238 -0.022799356 -0.02082636
000360 4f cd 77 3c e8 43 0d 3d e0 18 cd 3c e5 00 b2 bd
       0.015124633 0.03448859 0.025036275 -0.08691577
000370 9e de 79 3c 32 f8 a5 3b 66 16 88 3c 16 ec af 3b
       0.01525083 0.0050649876 0.016612243 0.00536872
000380 24 d8 8b 3d cb b7 c4 3c 9d 80 06 3d 7e 62 94 3d
       0.06828335 0.02401342 0.0328375 0.072453484
000390 b4 6e 8b bc ad e8 14 3d 95 29 ad b9 4a 79 f2 b9
       -0.01702056 0.03635471 -0.00033028112 -0.00046248204
0003a0 be 70 93 bd 00 21 06 3d fd 2b 54 bd 68 80 81 3c
       -0.07199238 0.032746315 -0.051799763 0.0158083
0003b0 8a dd f1 3c 93 06 84 3c f9 6b 1a bd 2f 6e 60 bc
       0.029524583 0.016116416 -0.037700627 -0.013698145
0003c0 ee 6d ce bc 3c ce 06 bd 1a db f7 ba 20 2f 46 3d
       -0.025198903 -0.032911524 -0.0018909902 0.048384786
0003d0 92 01 3c bc 01 07 b9 bc 48 4e e2 3b 22 cb 29 bd
       -0.011474984 -0.022586348 0.0069063045 -0.04145349
0003e0 80 89 d4 39 a0 71 a6 bc 63 4e cf 3c a7 4c f2 bc
       0.00040538236 -0.020317852 0.025305932 -0.029577566
0003f0 5b 60 ab 3c 35 9c 41 bd 66 ac 87 3b 5e 99 be 3c
       0.02091997 -0.04726811 0.0041404245 0.02326649

bias f4 [256]
000000 ac 2b a3 bc 80 ba 7a 3c aa 47 07 bd b5 63 f2 3c
       -0.019918285 0.015303254 -0.03302733 0.02958856
000010 50 70 57 3d 0b 74 10 3d ec 15 8d bc 28 d9 2d bc
       0.052597344 0.035266917 -0.017222367 -0.010610856
000020 5d 95 08 bc 50 69 c0 3c b8 71 f8 bb 99 4e 27 3c
       -0.008336392 0.023487717 -0.0075819157 0.01021161
000030 94 50 12 3d c2 3b 60 bc c9 42 82 3d e2 93 c8 3c
       0.035721377 -0.013686122 0.063603945 0.024484579
000040 9d b5 46 bd bb 14 0b bb ed 5d 6d ba ae ae a9 3c
       -0.048513044 -0.0021222073 -0.00090548286 0.020713177
000050 d2 df c5 3c 46 02 0a bd 92 5e 5c 3b 8b 34 dd bb
       0.024154577 -0.033693574 0.0033625704 -0.0067506484
000060 69 9f d2 3b 29 14 02 3d 67 7b 58 bc e6 c8 a6 bc
       0.0064276946 0.031757507 -0.013213015 -0.020359468
000070 7d 9f 6b 3b d9 45 2b 3d 50 08 6a 3a 6a 5e 0a 3b
       0.0035953217 0.04181466 0.000892763 0.0021113404
000080 65 4c b5 bc 2a 49 22 bd 7a 32 2a 3c bc b8 63 bc
       -0.022131154 -0.039620556 0.010388011 -0.013899025
000090 92 38 2b 3c 80 4a 87 3b b8 5f 1e 3d 9b 7d c5 3c
       0.010450499 0.004128754 0.038665503 0.024107745
0000a0 3a 58 52 3c 21 ad 84 3c ad 11 dd 3b 92 fb 1c 3b
       0.012838418 0.016195836 0.006746492 0.0023953659
0000b0 4e 82 11 bb 70 64 36 bc 42 1d 45 3c 5e e3 02 bb
       -0.0022202912 -0.011132345 0.012030901 -0.0019971947
0000c0 37 b9 b3 3c e8 a7 f6 bb 53 72 f0 ba d0 f1 d3 bc
       0.021938903 -0.00752734 -0.0018344618 -0.025872141
0000d0 e1 70 6c bc 76 fa e2 3b 25 4b 3d bc 5d 88 a7 3c
       -0.014431209 0.00692683 -0.01155356 0.020450765
0000e0 ee 86 15 bb 76 eb 18 bd 03 cd 06 bd 17 cd 34 3c
       -0.002281602 -0.037333928 -0.03291036 0.011035225
0000f0 b9 a8 38 3c 9d 4d c3 bc 0f 85 96 3c da 68 bc bc
       0.011270695 -0.02384072 0.018373994 -0.022999216
000100 1e 83 ce bb 76 cc b9 3c a8 d1 74 3a 51 e1 80 bc
       -0.0063022515 0.022680502 0.00093391025 -0.01573244
000110 55 03 ff bc e5 1e 5c 3d e5 6e f3 bc fa a8 b0 bc
       -0.031129519 0.0537404 -0.029715965 -0.02156495
000120 bc e3 f5 bc 5e 64 0a bc f5 9c d2 bc 75 96 33 3d
       -0.030015819 -0.008446781 -0.025709609 0.04384466
000130 60 9d 37 bd a3 4c 87 3d 7e f6 57 bd e8 82 db bc
       -0.04482782 0.06606414 -0.052725308 -0.02679582
000140 09 21 b2 bb ee ab 40 bc af 4b 06 3d df 2d ce 3c
       -0.005436067 -0.011759741 0.03278702 0.025168357
000150 17 bd d5 3c 46 19 5a bc e5 c5 85 bc 68 78 0a bd
       0.026091142 -0.01331169 -0.016329715 -0.033806235
000160 b0 db 62 bc ff 96 01 3d 68 ef b2 bc fa 9f df 3c
       -0.013846323 0.03163814 -0.021842673 0.027297962
000170 0a 1a 85 3b ad 25 55 3c 87 25 6d 3b 68 0e 3d bc
       0.004061942 0.013009471 0.0036185698 -0.011539079
000180 3a 86 24 3d 08 eb bc 3c af eb 8d bc 94 47 56 bc
       0.04016707 0.02306129 -0.017324297 -0.013078589
000190 7c 49 16 bc bd fc f7 bc f3 fb 27 bc de 44 d9 3b
       -0.0091727935 -0.030271882 -0.0102529405 0.006630524
0001a0 8a 83 70 3d cd dc d0 3b e6 4d 0f 3c d4 87 e3 ba
       0.058719195 0.0063739778 0.0087466 -0.0017359206
0001b0 f4 18 5b bc d2 c5 09 bc c3 9d cb 3c 73 c5 13 3d
       -0.0133726485 -0.00840898 0.0248555 0.036076974
0001c0 c1 f9 66 3c 94 1b 78 bd cb bf c1 bc 11 34 06 3c
       0.014097632 -0.060573176 -0.023651024 0.008191125
0001d0 1d 6d 17 bc bb af cd bc f8 27 5a 3a 6c d2 42 bd
       -0.009242323 -0.025108209 0.0008321996 -0.047563955
0001e0 ae e7 de 3b b9 51 0a bb 9f 52 ef 3c aa 10 3c bc
       0.0068025207 -0.002110584 0.029214201 -0.011478582
0001f0 f4 e3 06 3d 8d 04 bb bb 6b af 6b 3c 31 ea b6 3c
       0.032932237 -0.0057073296 0.014385085 0.022328468
000200 16 36 dc 3c 88 25 16 bc 54 71 09 bd 06 5c 6a 3d
       0.026881259 -0.009164222 -0.033555344 0.057216667
000210 34 4e 35 3d e1 66 f3 3c a9 64 f1 3b a0 d2 cd 39
       0.044264033 0.029712142 0.007366736 0.00039257575
000220 97 e1 51 bd eb b7 b1 3b 82 0d 41 bc 94 c1 22 3c
       -0.05124053 0.005423536 -0.011783006 0.009933848
000230 83 88 50 3b 6e 1b 19 bc f5 7d 1e 3d 9b 3f f3 3c
       0.0031819649 -0.009344919 0.03869434 0.029693415
000240 69 fa bb bb d9 6b a1 3c 73 46 ff bc 41 31 a9 bc
       -0.0057366383 0.019704746 -0.031161522 -0.020653369
000250 7d 5a 3c bc a5 2d 97 3b 0c 78 c9 3c 8c 24 5b 3c
       -0.011496183 0.0046135955 0.024593376 0.013375413
000260 ac 1c 97 3c bb ad 17 3d c3 ba 20 3d 08 22 af 3c
       0.018446289 0.037030917 0.03924061 0.021378532
000270 da 00 0f 3c 8a 81 0d bd ff fe c3 bc b8 73 99 3b
       0.00872823 -0.034547366 -0.023925303 0.004682984
000280 d9 85 b6 3c 79 85 1f 3c da 41 f8 3a da 79 13 bc
       0.02228062 0.009736412 0.0018940524 -0.00900122
000290 c7 03 07 bd 91 83 46 bc bf 69 1d 3c f5 3c 9d bc
       -0.032962587 -0.012116329 0.009607731 -0.019194106
0002a0 84 db 0a 39 fe 51 95 bc c4 e2 be 3c 32 43 63 bc
       0.00013242482 -0.018227573 0.02330149 -0.013871001
0002b0 16 67 dd bb 99 87 a8 bb a1 b8 45 bd e6 48 d3 3c
       -0.0067566736 -0.0051431176 -0.04827178 0.025791597
0002c0 83 a6 af 3b d7 c2 8b bc e6 a9 ba bc 6d 18 41 ba
       0.005360426 -0.01706068 -0.022786092 -0.00073660054
0002d0 c4 d6 0a bd 7c f6 ac bb 9c cc 3c 3c 0d fc a6 bc
       -0.033896223 -0.0052784067 0.011523392 -0.020383859
0002e0 d5 51 0b bd 0e 5d 70 bc b9 dc 2d 3d 60 d6 b7 bb
       -0.034013588 -0.0146706235 0.042446826 -0.0056102723
0002f0 ef d6 86 bb db d0 f8 3b e2 56 06 bd fe 4f 02 bb
       -0.0041149775 0.007593257 -0.0327977 -0.0019884105
000300 ae eb c1 bc f6 20 98 3c 1e b7 a9 ba f0 c9 4c 3c
       -0.023671951 0.018570404 -0.001294825 0.0124993175
000310 55 e9 6d bc 03 01 d4 3c af b3 b6 39 1c 68 a5 bc
       -0.014520963 0.025879389 0.0003484762 -0.020191245
000320 22 a1 e8 bc cf d4 33 bd 57 e6 eb bb 94 22 08 3d
       -0.028397147 -0.043904122 -0.0071990895 0.0332361
000330 52 7d 27 bb 3a f4 2e bd af 93 2b 3a 94 1d 9c bc
       -0.0025556874 -0.04271338 0.0006545139 -0.019057073
000340 ef 6e e3 3c b2 d5 83 bc 2c 66 39 bc dd 05 de bb
       0.027762858 -0.016093109 -0.011315864 -0.0067756013
000350 09 1e cc 3c b5 f9 e7 bc b1 8c 5d 3b a9 83 f5 3c
       0.024916666 -0.028317312 0.0033805782 0.029970007
000360 70 2f 1d bd 0d 69 3a bc f2 8f ab 3c bb 69 91 3a
       -0.038375318 -0.011377585 0.020942662 0.0011094132
000370 e9 2d 0c bd ad 3d 48 3d 96 76 a0 bc bc 36 24 bd
       -0.03422347 0.048886944 -0.019587796 -0.04009126
000380 d3 e5 82 bc e5 01 60 bc 9b 2c 74 bc 01 ba 32 3c
       -0.01597873 -0.013672327 -0.014903213 0.010908605
000390 56 19 05 bc b8 bd 50 3d c3 e4 5f 3d a7 0f 91 3b
       -0.008123716 0.05096218 0.054661524 0.0044269147
0003a0 53 45 15 bd 3f 63 2c 3c a1 71 7e 3d 3a 95 4b 3c
       -0.036443066 0.010521709 0.062120084 0.012425715
0003b0 b8 24 19 3d 35 3c 0f bb e7 94 ec bc dc 06 71 39
       0.037388533 -0.0021855955 -0.028879596 0.00022986106
0003c0 5f 15 5b bd 47 a5 ce bb 81 24 07 bb 6c a7 18 3c
       -0.053487178 -0.0063063237 -0.0020621123 0.00931726
0003d0 88 e3 1c bc ad f3 49 3c 68 31 00 bd 78 dd ba bc
       -0.009575732 0.012326163 -0.031297117 -0.022810683
0003e0 77 26 dc 3c bc d0 4c bb 5c ab 16 3d c5 6a d2 3b
       0.02687381 -0.0031252345 0.036784515 0.0064214193
0003f0 d1 22 23 3c 77 0c 07 bb f5 53 43 ba 86 a9 7a 3c
       0.009957031 -0.0020606795 -0.000745117 0.015299207
