output/2023-09-24-20-37-59/trained_model/tetris_epoch2257_score3300.pt (torch, 842187 bytes, 8 tensors)

weight f4 [32, 1, 4, 4]
0.06969928 0.009877006 -0.015646221 0.010869844 -0.024515811 0.06109737 -0.0075566755 0.05256363
-0.2003264 0.12488584 0.19675632 0.0010095648 0.07371912 0.15872861 0.16169031 -0.023033518
0.4272828 -0.029302184 -0.51526654 -0.26671988 -0.3419646 0.03759186 -0.14777626 -0.017132604
0.10040294 -0.38683245 0.05768119 -0.35053125 -0.15880919 -0.0004986439 0.11734469 -0.6089882
0.024407547 -0.041012354 -0.7538214 -0.15217301 -0.023972582 -0.26898554 0.15595745 -0.2837454
0.080984905 0.30694893 0.07002308 -0.022189613 -0.083071396 -0.11262747 -0.078337 -0.07057108
-0.28103513 -0.33832675 -0.09838362 0.009097683 0.119135216 -0.095070355 0.24695495 0.12753077
-0.21148187 0.0911701 -0.51147217 0.088181056 -0.25303125 -0.42656052 -0.42463547 0.11305016
-0.06736341 -0.8054264 -0.06274998 -0.03150479 0.07567689 0.072917834 0.06749134 0.050461583
0.2668779 -0.87367666 0.3077481 -0.01990044 -0.052030083 -0.10788783 -0.02065533 -0.011064124
0.010536232 0.047207836 -0.14961746 -0.08635551 0.0054081203 -0.031546243 0.30161142 0.79469687
-0.0031158053 0.025722023 -0.26854962 -0.76832634 -0.009210294 -0.03421699 -0.09126534 -0.04966164
0.056639258 0.041346364 0.15281181 0.27085117 0.102839254 -0.016322497 0.19034737 -0.47241676
0.08370057 0.07280267 0.014539463 -0.6417649 -0.067482926 0.022073135 0.076497056 -0.265299
0.0007291489 -0.0064878836 0.1800608 -0.22412552 0.077560164 0.09540758 -0.7172284 -0.46198186
-0.0069348686 0.057939366 -0.4522681 -0.08497264 -0.00238198 0.1869685 -0.236548 -0.49796048
-0.09943705 0.08513868 -0.3718642 -0.16882345 0.15501139 0.1956145 0.07766164 -0.2333005
-0.057030343 0.1338433 -0.3787051 -0.8242974 0.14963922 -0.06803008 -0.073664665 0.059417628
-0.09901536 -0.0034646324 0.019828157 0.034569964 -0.120708846 -0.19437824 -0.48630995 -0.027123844
-0.094538346 0.45453405 0.20211825 -0.09230283 0.060834024 -0.9004321 0.08082819 0.04882017
0.025299912 -0.048158597 -0.06246169 -0.12858452 -0.019398632 0.043568075 -0.2518955 -0.02770776
-0.046168398 0.011561577 0.5774339 -0.071002565 -0.0039018882 -0.08006701 -0.6888217 -0.023027133
-0.1651942 -0.3782213 -0.24621612 -0.07800449 -0.035386626 -0.25525793 0.00067347183 0.21869756
-0.06641351 0.013762691 0.10109114 -0.59244686 0.062392127 -0.020083146 0.108590454 -0.39580333
0.13814901 -0.07208455 -0.013651606 -0.12509535 0.018538363 0.50036126 -0.015523612 -0.032951377
0.023823045 -0.5273452 0.19163348 -0.036734726 -0.097433835 -0.66454834 -0.19787435 0.017159715
-0.0050214734 -0.043583304 0.0051477402 0.025705246 -0.0012593189 0.13955702 0.13058889 0.017638111
0.071587734 0.8739375 -0.009512038 0.021313448 -0.016946172 -1.4009047 0.08300038 -0.003271294
0.012936919 0.4622713 0.06893228 0.02791645 -0.016029948 0.6954703 -0.0047554 0.0055430103
-0.015464852 -1.2813746 0.005665632 0.0067464868 -0.01541813 -0.047664266 -0.0213856 -0.012824903
-0.29774177 -0.05720187 0.13076422 -0.10202468 -0.05655415 -0.23537022 -0.07488583 -0.034902144
0.15899742 0.16883138 0.11305753 0.13771164 0.005118893 0.10480986 -0.010964272 0.13931917
00000000: 7fbe 8e3d 2ad3 213c 812c 80bc 6e17 323c
00000010: 62d5 c8bc 3c41 7a3d fd9d f7bb f64c 573d
00000020: 5d22 4dbe 26c4 ff3d 7d7a 493e 6053 843a
00000030: 0dfa 963d c189 223e 2592 253e cab0 bcbc
00000040: d0c4 da3e 220b f0bc 82e8 03bf 828f 88be
00000050: fc15 afbe ecf9 193d a952 17be ad59 8cbc
00000060: 0ea0 cd3d e70e c6be 1d43 6c3d d578 b3be
00000070: e09e 22be 6db7 02ba 6a52 f03d a7e6 1bbf
00000080: 56f2 c73c 92fc 27bd 70fa 40bf 3ed3 1bbe
00000090: 2662 c4bc 79b8 89be 4fb3 1f3e 1447 91be
000000a0: 6adb a53d 6928 9d3e 4368 8f3d fec6 b5bc
000000b0: 5621 aabd 3ba9 e6bd 266f a0bd 9287 90bd
000000c0: d6e3 8fbe 2a39 adbe 5a7d c9bd 730e 153c
000000d0: 2afd f33d 3fb4 c2bd c2e1 7c3e 6d97 023e
000000e0: b48e 58be 64b7 ba3d d7ef 02bf 4598 b43d
000000f0: 508d 81be 2466 dabe d269 d9be d886 e73d
00000100: d4f5 89bd 6d30 4ebf 1083 80bd 2b0b 01bd
00000110: 7cfc 9a3d f255 953d e638 8a3d ceb0 4e3d
00000120: 38a4 883e 46a9 5fbf 2991 9d3e 3f06 a3bc
00000130: 7f1d 55bd 4bf4 dcbd 5e35 a9bc 4d46 35bc
00000140: 29a0 2c3c 015d 413d 5235 19be 28db b0bd
00000150: 9a36 b13b a236 01bd d06c 9a3e 4171 4b3f
00000160: 8a32 4cbb feb6 d23c 567f 89be 09b1 44bf
00000170: c6e6 16bc 1d27 0cbd 53e9 babd 016a 4bbd
00000180: 91fe 673d ce5a 293d b37a 1c3e 01ad 8a3e
00000190: 639d d23d c2b6 85bc 6cea 423e 9ce0 f1be
000001a0: 346b ab3d 9119 953d ee36 6e3c b44a 24bf
000001b0: 7d34 8abd b8d2 b43c 7daa 9c3d 45d5 87be
000001c0: 5b24 3f3a 5098 d4bb dc61 383e 2981 65be
000001d0: ddd7 9e3d 0d65 c33d 489c 37bf e388 ecbe
000001e0: e53d e3bb d451 6d3d af8f e7be 2306 aebd
000001f0: fe1a 1cbb ac74 3f3e a439 72be adf4 febe
00000200: a7a5 cbbd 305d ae3d fc64 bebe 0ee0 2cbe
00000210: 4ebb 1e3e 2b4f 483e 110d 9f3d 54e6 6ebe
00000220: a698 69bd 380e 093e a3e5 c1be 2805 53bf
00000230: 063b 193e 5b53 8bbd 80dd 96bd e65f 733d
00000240: 91c8 cabd e30e 63bb a96e a23c 3c99 0d3d
00000250: 3336 f7bd 170b 47be 9efd f8be d332 debc
00000260: 529d c1bd b0b8 e83e 16f8 4e3e 4409 bdbd
00000270: 192d 793d b882 66bf 4089 a53d a9f7 473d
00000280: c341 cf3c f341 45bd d4d7 7fbd a9ab 03be
00000290: e1e9 9ebc 7074 323d 72f8 80be 62fb e2bc
000002a0: 131b 3dbd c56c 3d3c b5d2 133f cb69 91bd
000002b0: d2b6 7fbb 2cfa a3bd 9e56 30bf 66a3 bcbc
000002c0: ab28 29be 39a6 c1be 1420 7cbe d1c0 9fbd
000002d0: 91f1 10bd 2bb1 82be ee8b 303a 41f2 5f3e
000002e0: ce03 88bd e97c 613c df08 cf3d 99aa 17bf
000002f0: e38e 7f3d 6985 a4bc ac64 de3d bca6 cabe
00000300: ef76 0d3e 11a1 93bd fcaa 5fbc ff18 00be
00000310: c4dd 973c ad17 003f bf56 7ebc 06f8 06bd
00000320: 8c28 c33c 1800 07bf 913b 443e 2777 16bd
00000330: 648b c7bd d71f 2abf 939f 4abe 8892 8c3c
00000340: 2c8b a4bb 6884 32bd 60ae a83b cf93 d23c
00000350: bb0f a5ba 09e8 0e3e 18b9 053e cd7d 903c
00000360: 979c 923d 5eba 5f3f 61d8 1bbc 8a99 ae3c
00000370: b3d2 8abc d850 b3bf 1afc a93d 3563 56bb
00000380: 5ff5 533c d3ae ec3e 5e2c 8d3d 0ab1 e43c
00000390: 3d51 83bc 570a 323f 30d3 9bbb 24a2 b53b
000003a0: 4a60 7dbc 1504 a4bf c4a6 b93b a211 dd3b
000003b0: 539c 7cbc 9b3b 43bd db30 afbc 8b1f 52bc
000003c0: 9c71 98be 824c 6abd 0ee7 053e 51f2 d0bd
000003d0: 53a5 67bd e404 71be be5d 99bd 8df5 0ebd
000003e0: 38d0 223e 22e2 2c3e b58a e73d 4804 0d3e
000003f0: 63bc a73b 8da6 d63d 7da3 33bc afa9 0e3e

weight f4 [32, 32, 5, 5]
0.160416 -0.13513869 0.067772485 0.069933705 0.1245162 0.19629967 -0.19758575 0.023073912
-0.05813485 -0.2917737 0.03014941 -0.04912528 0.03139743 -0.18001743 0.028013332 -0.028121186
-0.45075086 -0.25838235 -0.037209082 -0.19016543 0.08260175 0.06547328 -0.117722295 0.0239439
0.09520754 0.36355177 -0.30287692 0.037982922 0.29863435 0.37982783 0.18426906 0.3121926
-0.23496275 0.08086894 0.050641187 0.11658591 -0.36797148 -0.37208498 0.2140953 -0.26743853
0.0954969 0.121280305 0.056928325 -0.12676926 -0.25559375 -0.24002959 0.5530206 0.060290627
0.07500285 0.26778263 -0.012867583 -0.19756858 0.068659976 -0.015956512 0.39767015 0.36864042
0.23265935 -0.3931796 -0.61588925 -0.15765852 -0.115490094 0.2581336 -0.15701395 -0.16923954
0.025373647 0.20233716 -0.42880335 0.07768263 0.08528828 -0.1805107 -0.001873664 -0.27121717
0.100563414 -0.33309826 0.3228468 -0.2762032 -0.18866213 0.28406826 -0.63946694 0.06561622
-0.54647815 0.28562912 0.11261395 -0.5163279 -0.1674347 -0.47801027 -0.06626714 -0.19965366
-0.02063886 -0.59729046 -1.1195594 0.060130678 -0.592963 0.06865424 0.22323348 -0.09041937
0.27391168 -0.26871356 0.27486247 -0.2895104 0.047925875 0.14586413 0.09424999 0.8612343
-0.81116503 -0.32695538 0.39449087 0.028977253 0.07158621 -0.013906099 -0.43861422 -0.08152904
0.20695123 -0.119258344 0.68937033 -0.2011831 -0.14683849 -0.4210364 -0.17047143 -0.5603795
0.08329711 0.10682972 0.17890337 -0.11675038 -0.14047466 -0.06033151 -0.0043843295 -0.10824984
-0.020514496 -0.085171476 0.06705693 -0.1966011 0.08333893 0.064151146 -0.14748439 0.006251999
-0.025337745 -0.03022063 -0.1306287 -0.16762373 -0.42541206 -1.336192 -0.7186722 -0.1344416
-0.58748484 0.017698754 -0.098013945 -0.023095505 -0.15604042 -0.39766455 0.25601053 0.048125375
-0.027449837 -0.44498724 -0.38089514 0.1358465 0.10772649 -0.3649036 0.011175926 -0.9779934
0.0035866923 0.2546991 -0.30493474 0.19725287 0.17869283 -0.38376743 -0.13142893 -0.31480655
0.098330654 -0.20099045 0.039946247 0.0035573293 0.14513879 0.30038136 0.16469443 -0.071840525
-0.5380097 0.5567244 -0.23404084 -0.17970335 0.07090275 0.013055599 0.16718464 0.28755605
-1.0394713 -0.03129647 -0.23666634 -0.23556069 0.20152315 -0.04501519 0.18672761 -0.32163975
-0.30905572 0.1738638 0.30284584 -0.2208778 -0.18035407 -0.086222306 0.22810541 0.18983434
0.25116578 -0.09166682 0.2627067 0.24564932 0.24429867 -0.66347694 0.015740216 -0.17848124
0.024584923 -0.032673415 -0.62881976 0.13969465 -0.099925265 0.01868562 -0.573691 -0.5545907
-0.267837 -0.27616405 0.09723131 -0.018224284 -0.194078 0.10347418 -0.0041116467 -0.22060587
0.2395781 0.19703884 0.07689654 -0.35802847 -0.07991978 -0.1730126 -0.46308178 -0.049684174
-0.14879955 -0.49069327 -0.27476043 -0.9450683 0.05213181 -0.117276765 0.09659698 -0.23405118
-0.22273868 0.29463246 -0.31541866 0.14280623 -0.614597 -0.20548569 0.15699534 0.07278821
-0.007608412 0.081617944 0.48806986 -0.6968626 0.08245788 0.32266483 -0.056029882 -0.61770827
00000000: 1844 243e cc61 0abe 4dcc 8a3d 6739 8f3d
00000010: 5902 ff3d c802 493e eb53 4abe 8005 bd3c
00000020: cf1e 6ebd 5d63 95be e5fb f63c 9737 49bd
00000030: 979a 003d 7d56 38be 377c e53c 675e e6bc
00000040: d1c8 e6be b14a 84be 8d68 18bd baba 42be
00000050: 1b2b a93d db16 863d 6318 f1bd ff25 c43c
00000060: 2cfc c23d 7523 ba3e af12 9bbe fb93 1b3d
00000070: 9ae6 983e cb78 c23e 07b1 3c3e b5d7 9f3e
00000080: 139a 70be 9d9e a53d 226d 4f3d 98c4 ee3d
00000090: c266 bcbe ec81 bebe cc3b 5b3e b4ed 88be
000000a0: e193 c33d cf61 f83d ad2d 693d cdcf 01be
000000b0: 2fdd 82be 51ca 75be c292 0d3f 4ef3 763d
000000c0: 189b 993d ce1a 893e 8ed2 52bc 6b4f 4abe
000000d0: 9a9d 8c3d 3bb7 82bc 6c9b cb3e 70be bc3e
000000e0: 413e 6e3e d64e c9be ebaa 1dbf 3c71 21be
000000f0: 1286 ecbd 162a 843e 44c8 20be 214d 2dbe
00000100: 65dc cf3c 7931 4f3e 1d8c dbbe 1218 9f3d
00000110: 9fab ae3d ccd7 38be bb95 f5ba fadc 8abe
00000120: 31f4 cd3d db8b aabe 2d4c a53e 816a 8dbe
00000130: a530 41be 6571 913e 1bb4 23bf cc61 863d
00000140: fee5 0bbf fb3d 923e 25a2 e63d 112e 04bf
00000150: 0174 2bbe c3bd f4be 11b7 87bd 0272 4cbe
00000160: d412 a9bc 07e8 18bf b94d 8fbf 964b 763d
00000170: 6ccc 17bf 989a 8c3d 5197 643e ca2d b9bd
00000180: 273e 8c3e d394 89be c6ba 8c3e b53a 94be
00000190: ec4d 443d 685d 153e 2406 c13d da79 5c3f
000001a0: 83a8 4fbf b266 a7be b5fa c93e b461 ed3c
000001b0: ca9b 923d 68d6 63bc 0b92 e0be b3f8 a6bd
000001c0: 06eb 533e b83d f4bd 937a 303f f102 4ebe
000001d0: d45c 16be 1592 d7be 1090 2ebe 0875 0fbf
000001e0: ad97 aa3d 8ac9 da3d 7232 373e d31a efbd
000001f0: 97d8 0fbe 2c1e 77bd 6caa 8fbb 18b2 ddbd
00000200: 040e a8bc 626e aebd 2555 893d cc51 49be
00000210: 9aad aa3d ad61 833d 2606 17be 92dd cc3b
00000220: 1a91 cfbc 4191 f7bc 88c3 05be 8ea5 2bbe
00000230: 9ccf d9be 5708 abbf e7fa 37bf 0fab 09be
00000240: 6865 16bf fafc 903c 89bb c8bd c932 bdbc
00000250: 0fc9 1fbe b09a cbbe d013 833e 1d1f 453d
00000260: 7bde e0bc 5ed5 e3be b004 c3be 581b 0b3e
00000270: b59f dc3d a5d4 babe 3b1b 373c c75d 7abf
00000280: b60e 6b3b ec67 823e 6820 9cbe a8fc 493e
00000290: 41fb 363e 2a7d c4be 4e95 06be 532e a1be
000002a0: 9561 c93d 71d0 4dbe ad9e 233d 1522 693b
000002b0: 439f 143e 96cb 993e a8a5 283e 2021 93bd
000002c0: 01bb 09bf 7e85 0e3f 67a8 6fbe 2804 38be
000002d0: 7635 913d 27e7 553c 7332 2b3e 8c3a 933e
000002e0: 650d 85bf ba30 00bd a958 72be d236 71be
000002f0: 165c 4e3e d961 38bd 8635 3f3e f7ad a4be
00000300: 8d3c 9ebe 5a09 323e 9c0e 9b3e ca2d 62be
00000310: bdae 38be 5295 b0bd 7794 693e ef63 423e
00000320: cd98 803e d0bb bbbd 7e81 863e 7f8b 7b3e
00000330: 6e29 7a3e a0d9 29bf a0f1 803c c9c3 36be
00000340: 5266 c93c 8fd4 05bd 55fa 20bf 1d0c 0f3e
00000350: 9ea5 ccbd 9612 993c 6add 12bf a8f9 0dbf
00000360: ee21 89be 6065 8dbe 3621 c73d 184b 95bc
00000370: 62bc 46be 45ea d33d feba 86bb 81e6 61be
00000380: f653 753e 8dc4 493e ef7b 9d3d 824f b7be
00000390: fbac a3bd 372a 31be 0e19 edbe a281 4bbd
000003a0: e95e 18be 263c fbbe 66ad 8cbe ffef 71bf
000003b0: 2a88 553d cd2e f0bd a3d4 c53d 1dab 6fbe
000003c0: 9c15 64be 11da 963e 8e7e a1be cc3b 123e
000003d0: 3b56 1dbf d76a 52be 63c3 203e fc11 953d
000003e0: fc4f f9bb 4f27 a73d 4be4 f93e 9665 32bf
000003f0: addf a83d 5334 a53e 977f 65bd 2122 1ebf

weight f4 [64, 32, 5, 5]
0.15071332 0.010679168 -0.10301854 0.18385209 -0.39127892 0.20268455 0.111850575 0.14733668
-0.09332837 0.099514596 0.017658668 -0.19988573 -0.14701447 0.026958533 0.639848 -0.12668996
0.07667493 0.11218202 -0.12176548 0.35385486 -0.070136175 -0.24918155 -0.024521282 0.42749864
0.016817044 0.540628 -0.31223768 -0.119859815 -0.32555407 0.09106877 -0.0772663 0.32587448
0.27106732 -0.46272987 -0.2751738 -0.17662506 0.18964577 0.5688411 -0.05068188 -0.2079752
0.4562494 0.27909747 -0.35720867 0.47327238 0.07754454 -0.119899355 0.5721216 0.39467
0.16426495 0.015869632 -0.33396804 -0.07516289 0.41183707 0.09217509 0.01932704 0.46131995
-0.19873631 -0.56289065 -0.5340321 -0.74998295 0.28542817 0.034071144 -0.41599858 0.3617972
-0.325801 0.18777305 0.15390095 0.2914812 -0.22218485 -0.094201095 0.6620123 0.128318
-0.02658467 0.15407126 -0.18324196 -0.23871097 -0.43619418 -0.14755502 0.26263708 -0.29587826
0.59759897 0.34780955 0.029290581 0.25911954 0.42130417 -0.05729895 -0.2909642 -0.26537943
-0.466271 -1.14579 -0.6624393 -0.035371292 -1.4971141 -0.30506766 0.28786668 0.20405497
0.072804846 -0.14535914 0.42219347 0.08298781 -0.29986832 0.3761983 0.035702623 0.06577057
0.29618943 0.03744627 -0.20832925 0.16530472 0.15165068 0.62101483 0.22290777 0.013015358
-0.24104382 0.004070949 -0.28240693 -0.16158575 0.2131151 -0.2891121 -0.6576065 -0.66938233
-0.33355388 -0.08007437 0.09108705 0.28115964 -0.25860307 0.012400599 -0.58677536 -0.25537407
0.33164543 -0.9882979 0.48978284 -0.27367562 0.16115627 0.0038998097 -0.15817565 0.1250722
0.18502536 0.33255404 -0.054779828 -0.2511511 -0.39244172 -0.20373212 0.14771956 -0.098276414
-0.014227497 -0.36275056 -0.10755852 0.11276018 -0.013685398 0.17422102 -0.010373414 -0.46387118
0.029280715 -0.2079196 -0.5032146 0.10684869 0.03951691 0.22564642 -0.06550843 0.056290694
-0.024481747 0.23255876 0.25903434 -0.23461995 -0.26605132 0.05620125 -0.07534205 -0.05616568
-0.10887709 -0.35821486 0.34853843 0.15769264 0.14564155 -0.13446997 -0.24637203 -0.11068963
-0.5160865 0.041733764 0.03300535 0.1715413 0.42465934 -0.0022059279 -0.05502338 -0.039177824
0.05348063 0.3057583 -0.27777383 -0.22322753 0.33318165 0.3211551 -0.1920584 -0.06958644
-0.09056037 -0.2400132 -0.16600394 0.25158072 -0.18378082 0.2137343 -0.7555599 -0.30782625
0.22343026 0.28335875 -0.064837426 -0.32235387 -0.0752376 0.319718 -0.974557 0.1841209
-0.33809698 0.089973316 0.33406386 0.19770584 0.02341611 -0.14089829 -0.48098522 0.4526752
0.14031671 0.050919935 -0.12424488 0.5650875 0.32878006 0.0018890859 -0.17884998 0.08265037
-0.08562363 0.45736364 0.16635917 -0.11936221 -0.2752004 0.2876701 0.11955958 0.41717657
0.17200811 -0.016100885 0.6301596 0.02825811 0.11171202 -0.030976335 0.206725 0.2010018
0.45888495 0.11861389 -0.17421408 0.45639178 -0.04438463 0.022201028 -0.1699582 0.21857716
0.5668129 -0.3273652 0.19095834 0.12192876 0.3444814 -0.09271671 0.3050276 0.43719068
00000000: 9854 1a3e adf7 2e3c 62fb d2bd b943 3c3e
00000010: b655 c8be 8a8c 4f3e ea11 e53d 6ddf 163e
00000020: f222 bfbd 4fce cb3d e9a8 903c d8ae 4cbe
00000030: f68a 16be 24d8 dc3c 14cd 233f 03bb 01be
00000040: bf07 9d3d b0bf e53d 2e60 f9bd 772c b53e
00000050: 8ea3 8fbd 7329 7fbe dbe0 c8bc 1ae1 da3e
00000060: e6c3 893c 9966 0a3f 9edd 9fbe 1079 f5bd
00000070: 06af a6be 4382 ba3d cb3d 9ebd 05d9 a63e
00000080: 56c9 8a3e eeea ecbe 95e3 8cbe 33dd 34be
00000090: 8032 423e 929f 113f ce97 4fbd 73f7 54be
000000a0: 8599 e93e dde5 8e3e 0ee4 b6be c250 f23e
000000b0: accf 9e3d cb8d f5bd 9076 123f 3012 ca3e
000000c0: 1235 283e 0801 823c dcfd aabe 00ef 99bd
000000d0: 4fdc d23e 4bc6 bc3d be53 9e3c 2132 ec3e
000000e0: 8881 4bbe 9a19 10bf 54b6 08bf e2fe 3fbf
000000f0: a423 923e 2f8e 0b3d c4fd d4be 7c3d b93e
00000100: 64cf a6be 9447 403e 3698 1d3e 063d 953e
00000110: 6d84 63be 81ec c0bd a379 293f cb65 033e
00000120: 18c8 d9bc dbc4 1d3e c8a3 3bbe a670 74be
00000130: d854 dfbe aa18 17be 5e78 863e 5b7d 97be
00000140: 3ffc 183f 1814 b23e cdf2 ef3c 51ab 843e
00000150: 2eb5 d73e 4eb2 6abd 42f9 94be d0df 87be
00000160: 13bb eebe 3fa9 92bf 9f95 29bf 7de1 10bd
00000170: 6fa1 bfbf d431 9cbe 4363 933e c9f3 503e
00000180: b51a 953d 07d9 14be be29 d83e 83f5 a93d
00000190: 5788 99be 109d c03e ea3c 123d b8b2 863d
000001a0: 24a6 973e 4361 193d 4354 55be a445 293e
000001b0: 514a 1b3e d4fa 1e3f ef41 643e 5e3e 553c
000001c0: 31d4 76be 9865 853b a497 90be bc76 25be
000001d0: d83a 5a3e 8006 94be e658 28bf a45c 2bbf
000001e0: 93c7 aabe 08fe a3bd d98b ba3d 28f4 8f3e
000001f0: 9f67 84be e22b 4b3c e936 16bf 64c0 82be
00000200: 6ecd a93e 1701 7dbf d1c4 fa3e 361f 8cbe
00000210: 2606 253e f393 7f3b ccf8 21be ed12 003e
00000220: 4a77 3d3e 8644 aa3e d060 60bd e196 80be
00000230: 1fee c8be 279f 50be cc43 173e 2545 c9bd
00000240: 731a 69bc 71ba b9be a447 dcbd cfee e63d
00000250: b838 60bc ff66 323e 40f5 29bc 8680 edbe
00000260: 1cde ef3c e0e8 54be acd2 00bf 7cd3 da3d
00000270: 7cdc 213d db0f 673e 4929 86bd 1291 663d
00000280: f28d c8bc e223 6e3e 26a0 843e 3640 70be
00000290: e137 88be 4833 663d ef4c 9abd fc0d 66bd
000002a0: f4fa debd f067 b7be a173 b23e 2e7a 213e
000002b0: 0f23 153e 7fb2 09be f348 7cbe 3fb1 e2bd
000002c0: 3f1e 04bf 06f1 2a3d 9e30 073d 86a8 2f3e
000002d0: f36c d93e 5491 10bb 3260 61bd ed78 20bd
000002e0: 810e 5b3d 5a8c 9c3e 5f38 8ebe c295 64be
000002f0: c996 aa3e 716e a43e f5aa 44be 5683 8ebd
00000300: b777 b9bd 05c6 75be f0fc 29be 30cf 803e
00000310: 0a31 3cbe 2add 5a3e 606c 41bf 679b 9dbe
00000320: e7ca 643e 6614 913e 7cc9 84bd 910b a5be
00000330: 2c16 9abd 14b2 a33e 917c 79bf 308a 3c3e
00000340: 0c1b adbe ee43 b83d 6b0a ab3e 6673 4a3e
00000350: 24d3 bf3c a447 10be b243 f6be 0bc5 e73e
00000360: 2faf 0f3e 6c91 503d 1a74 febd 93a9 103f
00000370: dc55 a83e 349b f73a 7324 37be 9944 a93d
00000380: 715b afbd 912b ea3e 0f5a 2a3e 2d74 f4bd
00000390: 11e7 8cbe 7f49 933e a7db f43d 2b98 d53e
000003a0: e522 303e 01e6 83bc 2452 213f 8d7d e73c
000003b0: 46c9 e43d 15c2 fdbc b8af 533e 6ad3 4d3e
000003c0: f8f2 ea3e d7eb f23d 2d65 32be 2fac e93e
000003d0: a8cc 35bd eede b53c 8609 2ebe b1d2 5f3e
000003e0: a61a 113f 699c a7be 958a 433e c9b5 f93d
000003f0: de5f b03e 42e2 bdbd 942c 9c3e 75d7 df3e

weight f4 [256, 256]
0.035657186 0.027979417 0.0012121059 0.0785767 0.08889129 -0.020760868 -0.07066648 -0.10182077
0.013168167 -0.12271478 -0.065042384 0.046614345 0.13098335 0.14868051 -0.045089137 0.034519233
-0.18338767 0.20922507 0.0802484 0.00069780345 -0.12125873 0.046890993 -0.02996397 -0.09436225
0.07356914 -0.14570142 -0.15946274 -0.03299118 0.005398897 0.03853532 -0.019551732 0.013484081
0.569334 -0.24313469 -0.046725176 0.12993617 0.004476344 0.005761243 -0.0064889523 -0.00022572828
-0.005899754 -0.33210033 0.003551299 -0.0874839 0.012310042 -0.05089571 -0.21851416 0.036269423
-0.07232085 0.03720766 -0.098743305 0.25406182 -0.016139353 0.0072410703 -0.061728686 -0.09058533
-0.041235317 -0.43284526 0.23764981 -0.047081247 0.116543196 0.018928261 -0.13935563 -0.235733
-0.07540538 -0.07498843 -0.08691325 0.07595531 0.16459 -0.023753813 0.014199757 -0.068340704
-0.090429455 -0.036568142 0.07199399 -0.004411003 -0.13868424 0.048829418 -0.044643562 0.017152058
0.044955093 -0.027606014 0.12300645 0.10794003 -0.18575431 -0.033489548 0.028516272 0.015271724
-0.0038608378 0.045367423 -0.08702861 -0.0016017018 0.035725463 -0.04459029 0.0419745 -0.08939054
0.54457784 -0.14212689 -0.023256147 0.07813018 0.23186055 -0.07362974 0.2456975 -0.5455573
0.11353344 0.07869832 0.005800676 0.11001481 0.13461752 0.011756812 0.16113743 0.20080882
-0.020633547 -0.08793838 -0.058362853 0.107761316 -0.089392 0.029735992 -0.009200555 0.00021854565
-0.15933558 0.03863307 -0.27517083 -0.28149217 0.05397258 0.033395573 -0.01811045 -0.09301638
-0.12807983 -0.124150835 -0.14066188 0.23297341 0.0813804 -0.08779882 -0.07554435 -0.0224653
-0.02089119 0.03138253 0.021173974 -0.017743241 -0.09725661 -0.016340218 0.09447673 0.025969926
0.08452803 0.019893622 0.069171265 -0.12038812 -0.033809394 0.062004678 -0.026320957 -0.01866122
0.06283089 0.08573264 0.07849606 -0.15782517 0.053273343 -0.081762634 -0.10177171 0.11241251
-0.060544677 0.03566648 -0.055618808 0.08026136 -0.10609085 0.044068083 0.07483436 -0.0038241223
0.08867262 0.10332838 0.047308337 0.08682116 -0.15817304 -0.09215081 -0.0055489517 -0.42737138
0.06525237 0.0040365006 0.08608073 -0.0817581 -0.07013704 -0.06941352 0.01332599 -0.038528435
-0.2022759 -0.10240586 0.035508275 -0.11607449 0.005542533 0.08632987 -0.06269222 -0.028099658
-0.0021123223 -0.0946187 0.049470834 0.35025704 0.0044791996 -0.035112932 -0.04395938 0.0325703
-0.09667523 -0.29797676 0.16259946 -0.015849398 0.0070347777 0.17757246 0.14262044 0.031596836
0.13023873 0.04552758 0.038456403 -0.017950024 0.22267374 0.05206533 -0.23605022 -0.16745473
0.093105786 0.1390083 -0.085489914 0.05776716 -0.043901265 0.036594607 -0.05372666 0.012665298
0.09088608 -0.03753309 0.14518996 -0.011885938 0.04667219 0.052115817 0.03419983 -0.086159915
-0.055004533 0.044935282 0.06743246 0.06309523 -0.25075117 0.04403443 0.32627732 0.0017532507
0.1799832 0.021306867 -0.11135298 -0.05271309 -0.051496115 0.058799867 0.010174377 0.07062713
0.12069983 0.03499373 0.08969936 0.088729635 0.012659911 -0.010984562 0.023845116 5.4582546e-05
00000000: 450d 123d 1735 e53c 86df 9e3a d2ec a03d
00000010: a30c b63d b212 aabc 96b9 90bd 6887 d0bd
00000020: 4cbf 573c e351 fbbd f134 85bd afee 3e3d
00000030: 8020 063e b43f 183e 63af 38bd 0a64 0d3d
00000040: fac9 3bbe 193f 563e 4659 a43d ccec 363a
00000050: 7f56 f8bd c510 403d 0077 f5bc ff40 c1bd
00000060: 6bab 963d c132 15be 334a 23be c221 07bd
00000070: 3be9 b03b 36d7 1d3d f42a a0bc 56ec 5c3c
00000080: dfbf 113f 4df8 78be e662 3fbd fd0d 053e
00000090: 4cae 923b cfc8 bc3b 47a1 d4bb 79b1 6cb9
000000a0: b952 c1bb 0e09 aabe e9bc 683b c22a b3bd
000000b0: 0fb0 493c 0578 50bd 2dc2 5fbe 3f8f 143d
000000c0: f41c 94bd 0f67 183d ee39 cabd 6414 823e
000000d0: ad36 84bc 8046 ed3b 38d7 7cbd cd84 b9bd
000000e0: 5de6 28bd e59d ddbe 795a 733e 44d8 40bd
000000f0: 33ae ee3d 710f 9b3c 3eb3 0ebe fe63 71be
00000100: 236e 9abd 8993 99bd 93ff b1bd 758e 9b3d
00000110: 488a 283e 5b97 c2bc 19a6 683c 36f6 8bbd
00000120: 1433 b9bd 7ac8 15bd 9671 933d 2d8a 90bb
00000130: 3e03 0ebe 5b01 483d 2bdc 36bd 7982 8c3c
00000140: d522 383d 0226 e2bc ceea fb3d aa0f dd3d
00000150: 6136 3ebe 562c 09bd f59a e93c 4136 7a3c
00000160: 1c06 7dbb 31d3 393d 0e3c b2bd 32f0 d1ba
00000170: dd54 123d 4fa4 36bd 74ed 2b3d 6312 b7bd
00000180: 7469 0b3f b689 11be ad83 bebc b702 a03d
00000190: da6c 6d3e 30cb 96bd 2098 7b3e a5a9 0bbf
000001a0: 3884 e83d 962c a13d 9913 be3b 724f e13d
000001b0: 2dd9 093e a59f 403c 3601 253e d4a0 4d3e
000001c0: af07 a9bc 0a19 b4bd e30d 6fbd f7b1 dc3d
000001d0: 2713 b7bd e598 f33c edbd 16bc 6729 6539
000001e0: de28 23be b63d 1e3d 31e3 8cbe be1f 90be
000001f0: 5a12 5d3d ccc9 083d 5e5c 94bc 5f7f bebd
00000200: 5c27 03be cb42 febd ab09 10be 9590 6e3e
00000210: c4aa a63d decf b3bd ffb6 9abd 2609 b8bc
00000220: 0024 abbc f88a 003d 0b75 ad3c 465a 91bc
00000230: 792e c7bd ecdb 85bc 047d c13d e2be d43c
00000240: 081d ad3d f3f7 a23c aaa9 8d3d 0c8e f6bd
00000250: b87b 0abd 9ef8 7d3d 0c9f d7bc 6adf 98bc
00000260: 7bad 803d 9894 af3d 8bc2 a03d ec9c 21be
00000270: 2635 5a3d 2b73 a7bd b06d d0bd 8838 e63d
00000280: b2fd 77bd 0417 123d 8cd0 63bd 1160 a43d
00000290: 2946 d9bd bc80 343d c242 993d 209e 7abb
000002a0: fe99 b53d d49d d33d 63c6 413d 4bcf b13d
000002b0: 1df8 21be 90b9 bcbd fbd3 b5bb 6cd0 dabe
000002c0: 09a3 853d 9f44 843b 184b b03d ca70 a7bd
000002d0: 02a4 8fbd ad28 8ebd 4155 5a3c fecf 1dbd
000002e0: 6a21 4fbe 2aba d1bd 2071 113d 76b8 edbd
000002f0: 239e b53b b7cd b03d c764 80bd 4131 e6bc
00000300: e36e 0abb 73c7 c1bd eea1 4a3d e454 b33e
00000310: 40c6 923b 94d2 0fbd c00e 34bd 6f68 053d
00000320: aafd c5bd 6990 98be 7980 263e 99d6 81bc
00000330: fe83 e63b 8ed5 353e 180b 123e af6b 013d
00000340: 4d5d 053e 217b 3a3d 7684 1d3d ee0b 93bc
00000350: 9604 643e 7542 553d 26b7 71be 4179 2bbe
00000360: 3fae be3d 3158 0e3e 5615 afbd 429d 6c3d
00000370: d0d1 33bd 3ae4 153d 7c10 5cbd 1c82 4f3c
00000380: 7b22 ba3d 4cbc 19bd adac 143e 3dbd 42bc
00000390: 572b 3f3d 6577 553d 1f15 0c3d 9c74 b0bd
000003a0: 6f4c 61bd 0f0e 383d 081a 8a3d 1238 813d
000003b0: 7562 80be 725d 343d d20d a73e 55cd e53a
000003c0: 844d 383e bd8b ae3c 080d e4bd aee9 57bd
000003d0: 97ed 52bd 21d8 703d 6eb2 263c f5a4 903d
000003e0: 7931 f73d 9655 0f3d 4cb4 b73d e2b7 b53d
000003f0: 846b 4f3c 98f8 33bc d556 c33c 90ef 6438

bias f4 [256]
0.0067518065 0.012321926 0.07885268 -0.014865813 -0.037236817 -0.09767157 -0.059631016 0.055312973
0.14090638 -0.1195538 0.024307888 -0.018902352 0.08408609 -0.080257185 -0.029241234 -0.038298506
-0.013354993 -0.04895262 0.07659625 -0.07297612 0.027448306 -0.06222681 0.08430502 0.20259838
-0.14380097 0.12868716 0.052375544 -0.08232499 -0.11233688 -0.12116399 0.13468844 0.122595735
-0.040475942 0.010880151 0.059859797 -0.021305919 -0.12242603 -0.0018716165 -0.041719466 -0.1480296
-0.060800873 0.05911601 0.049784675 -0.1090599 -0.053957105 0.02976248 0.10474545 0.15975761
-0.007935169 0.07991627 -0.045691773 0.029388476 -0.13736531 0.112459406 0.124289535 -0.032662068
-0.040970836 0.045179173 0.19835347 0.011884575 -0.012035582 0.051763956 -0.13110295 0.013982437
0.003307062 0.044113036 1.9143357e-05 -0.05532491 -0.07902071 -0.2259587 -0.0508653 -0.02129991
-0.07948546 0.085671 0.038602397 0.039068025 0.022305917 0.038199116 0.057927426 -0.04151265
-0.15621758 0.03481278 -0.007752711 -0.03514868 -0.10721315 0.09478501 0.084523894 0.037987158
0.18100068 -0.066129245 0.07494369 -0.011176028 0.03547801 0.10665832 0.071609505 0.043825187
-0.15130223 0.22899203 -0.14831412 -0.00017101114 0.050185658 -0.14197771 -0.12586781 -0.014561715
-0.07609911 -0.04745881 -0.07663516 0.12665504 0.13203526 0.042651724 -0.07516572 0.09064106
-0.014346995 0.008973055 -0.05987789 0.02752336 -0.100612566 -0.123600245 -0.031149684 -0.06523567
-0.024267957 0.15951447 0.06359488 -0.024089517 -0.005513179 0.019031228 -0.03014716 -0.008588409
-0.08451609 0.032684315 0.04910783 0.079319626 -0.10640616 0.0025051509 0.09720424 0.09096297
-0.11075442 -0.017426623 -0.057190843 -0.09227358 0.114607885 -0.005227006 -0.031231359 -0.11622607
0.032474544 0.01662023 -0.049780566 0.17920282 0.04190742 0.14882544 -0.02329502 0.05858448
0.025041766 0.030253664 -0.028856304 0.005023261 0.093410656 0.0009201535 -0.12018806 -0.1051449
0.02426477 -0.016574709 0.009768332 -0.009772438 0.08380478 -0.16579776 0.07946801 -0.047805216
-0.016184699 -0.046525855 -0.0010392527 0.045837086 -0.02241809 -0.031750888 0.04305362 0.112599865
0.06643511 -0.08819986 -0.099452 -0.1272853 0.05657398 0.017885009 0.17471221 -0.031385995
0.04316341 -0.08422237 0.16243686 -0.03365158 -0.052772366 -0.06871983 -0.05580033 -0.0032853452
-0.023038175 0.12702107 -0.084003516 0.10540489 0.03395205 -0.051189333 0.016151853 0.040569983
0.06335493 -0.0785159 0.091124296 -0.04560646 0.021707365 -0.05431939 0.030621124 0.05861365
0.16006558 0.02396351 -0.059383377 -0.07811516 -0.031318553 0.11661509 -0.097402 0.10718988
0.02419949 0.16839968 0.02756987 -0.034817964 0.052359432 -0.0069002355 0.07559902 0.12967852
0.1201225 0.00373452 0.029751752 -0.010853815 -0.0022399037 -0.0006118826 -0.012923823 -0.14346336
-0.045380667 0.1061098 -0.05208149 0.09251191 -0.043228548 0.07880101 -0.1515432 -0.013061677
-0.025931174 0.027020117 -0.025788818 -0.15507165 0.07667311 0.00026986602 0.0034253423 0.04430612
-0.09438713 0.053294614 0.0092437845 0.0036563028 -0.11996697 -0.018438814 0.04673362 0.108040094
00000000: 423e dd3b e7e1 493c 847d a13d bd8f 73bc
00000010: a285 18bd 0808 c8bd a73f 74bd db8f 623d
00000020: c349 103e 9fd8 f4bd 5621 c73c 1bd9 9abc
00000030: 5435 ac3d e15d a4bd 508b efbc e5de 1cbd
00000040: e7ce 5abc 8b82 48bd 7fde 9c3d 8174 95bd
00000050: 45db e03c 8ae1 7ebd 1ca8 ac3d f375 4f3e
00000060: 9040 13be 91c6 033e bd87 563d 019a a8bd
00000070: e110 e6bd d324 f8bd c4eb 093e 7913 fb3d
00000080: 1aca 25bd a942 323c 8c2f 753d c089 aebc
00000090: 80ba fabd 0751 f5ba 08e2 2abd 1295 17be
000000a0: 560a 79bd a123 723d 04eb 4b3d cc5a dfbd
000000b0: 2002 5dbd 72d0 f33c c884 d63d 8097 233e
000000c0: 8302 02bc 24ab a33d 4c27 3bbd 1ac0 f03c
000000d0: 7ea9 0cbe 1e51 e63d 838b fe3d a9c8 05bd
000000e0: 09d1 27bd cc0d 393d 2c1d 4b3e 85b7 423c
000000f0: e430 45bc 7106 543d da3f 06be 9716 653c
00000100: 4bbb 583b dfaf 343d 0c96 a037 5f9c 62bd
00000110: 9cd5 a1bd b861 67be 2258 50bd 267d aebc
00000120: 46c9 a2bd 4774 af3d 8c1d 1e3d cb05 203d
00000130: e6ba b63c ad76 1c3d 4f45 6d3d 2b09 2abd
00000140: 80f7 1fbe d897 0e3d 740a febb 10f8 0fbd
00000150: 9192 dbbd a51e c23d dd1a ad3d 6c98 1b3d
00000160: 3e58 393e c56e 87bd 147c 993d a91b 37bc
00000170: 6451 113d ad6f da3d 01a8 923d 0a82 333d
00000180: f9ee 1abe e37c 6a3e a8df 17be 7451 33b9
00000190: 7a8f 4d3d 9b62 11be 7ee3 00be 4294 6ebc
000001a0: dad9 9bbd 2b64 42bd e5f2 9cbd dcb1 013e
000001b0: 4034 073e 93b3 2e3d 7cf0 99bd 05a2 b93d
000001c0: a90f 6bbc b803 133c 8542 75bd ab78 e13c
000001d0: f60d cebd 2022 fdbd 9f2d ffbc 479a 85bd
000001e0: 98cd c6bc c357 233e 083e 823d 6157 c5bc
000001f0: e6a7 b4bb 61e7 9b3c 2df7 f6bc 66b6 0cbc
00000200: c616 adbd fddf 053d 4b25 493d 5472 a23d
00000210: 79eb d9bd 752d 243b 0413 c73d cb4a ba3d
00000220: 37d3 e2bd 47c2 8ebc f240 6abd eef9 bcbd
00000230: 8ab7 ea3d 4e47 abbb e8d8 ffbc ef07 eebd
00000240: 0704 053d 2627 883c b5e6 4bbd f280 373e
00000250: 1da7 2b3d b265 183e 33d5 bebc 48f6 6f3d
00000260: 6424 cd3c 88d6 f73c 0e64 ecbc 2b9a a43b
00000270: 164e bf3d 7536 713a 2825 f6bd 3656 d7bd
00000280: e9c6 c63c afc7 87bc 5b0b 203c 931c 20bc
00000290: d7a1 ab3d e3c6 29be 20c0 a23d 67cf 43bd
000002a0: c695 84bc e591 3ebd 8937 88ba abbf 3b3d
000002b0: 24a6 b7bc 380d 02bd fe58 303d c29a e63d
000002c0: 220f 883d 21a2 b4bd 7dad cbbd 1457 02be
000002d0: 1eba 673d 9583 923c c2e7 323e 9a8e 00bd
000002e0: 1ecc 303d c77c acbd d955 263e 3dd6 09bd
000002f0: d627 58bd fbbc 8cbd e38e 64bd f24e 57bb
00000300: 8eba bcbc d011 023e 090a acbd 85de d73d
00000310: 4e11 0b3d e8ab 51bd e450 843c b62c 263d
00000320: 3bc0 813d f2cc a0bd 609f ba3d d7cd 3abd
00000330: a5d3 b13c 027e 5ebd 27d9 fa3c de14 703d
00000340: 3be8 233e 1f4f c43c fc3b 73bd d7fa 9fbd
00000350: e247 00bd e4d3 ee3d b37a c7bd 5e86 db3d
00000360: 023e c63c f770 2c3e 35da e13c 489d 0ebd
00000370: d876 563d 5f1b e2bb a9d3 9a3d 72ca 043e
00000380: c902 f63d d9be 743b f2b9 f33c 33d4 31bc
00000390: 59cb 12bb bf66 20ba 71be 53bc 0fe8 12be
000003a0: 14e1 39bd 1850 d93d 6753 55bd e276 bd3d
000003b0: 6b10 31bd 6d62 a13d 242e 1bbe a500 56bc
000003c0: 9d6d d4bc 4b59 dd3c 1243 d3bc 1acb 1ebe
000003d0: cb06 9d3d ce7c 8d39 b57b 603b 567a 353d
000003e0: 0a4e c1bd 744b 5a3d 3e73 173c 959e 6f3b
000003f0: 3eb1 f5bd ff0c 97bc c16b 3f3d 2044 dd3d

weight f4 [256, 256]
-0.008961659 -0.022174595 0.003647233 0.036935538 -0.032274675 -0.016656855 0.021502871 0.022267696
-0.03326473 -0.053242218 -0.027865289 0.008088835 0.027064007 -0.018466014 0.011560966 0.0008232822
-0.033529766 0.0043017613 -0.105930075 -0.03308294 0.030837655 0.045098633 0.0088888025 -0.054020677
0.028706709 -0.008512799 -0.02990395 0.03391555 0.024094187 0.071177624 -0.03076723 -0.053818308
0.06169181 -0.041416075 -0.027629081 -0.020419018 0.05983466 0.0035230652 -0.037262186 0.05182214
-0.044348482 -0.021906108 0.023179894 -0.013271207 0.044432245 0.025368704 0.007260249 0.072786994
0.09955414 0.047022045 0.0007479632 -0.015375223 -0.018661954 0.01807403 0.032279417 0.048374575
0.009525847 0.004931947 -0.02816337 -0.035571437 -0.003602222 -0.04240033 -0.008167294 -0.06919158
0.018680168 -0.008126548 -0.015304136 0.04123519 0.020891175 0.014506642 -0.023305545 0.01249199
-0.011040638 -0.0052840025 0.03844709 0.07957333 0.0039585736 0.0210223 0.023243291 0.008242808
0.010811006 0.026588583 0.026230462 -0.067717955 0.011478912 0.028006613 -0.033356573 -0.017311836
0.020566478 0.03578618 -0.02915443 -0.040740814 0.008083702 -0.0023886848 0.015046749 0.012115988
-0.035016526 -0.02456403 0.003046691 -0.040473785 -0.042756446 -0.013727546 0.014011598 -0.015895922
-0.016241591 0.005382929 -0.010693914 -0.03166897 -0.012869021 -0.057698008 -0.08046335 -0.006973758
0.1293618 0.009937246 -0.004586286 0.044283733 0.0037435165 -0.003308774 0.05083442 0.035073806
-0.021408608 -0.026706276 -0.014444681 -0.0057168617 0.020098232 -0.02643027 0.015714606 -0.01119539
-0.00038307716 0.007827582 0.016676394 0.061301734 0.0025700598 0.0070076054 -0.014890825 0.023426002
-0.0014688324 0.037693188 -0.013171323 -0.010211818 -0.051518377 0.0594936 0.021437017 0.007838796
0.01722863 -0.02830612 -0.059141774 -0.019968081 -0.034334052 -0.016078826 -0.0015115194 -0.0065601296
-0.06980967 -0.031929392 0.035251074 -0.03794569 -0.019029444 0.019856876 -0.006041937 0.010652004
-0.0021334514 0.010847555 -0.018746264 -0.028271155 0.05156626 -0.01792616 0.008748543 -0.049999464
-0.063230604 -0.03491425 0.051443916 0.027182879 0.020142086 0.048317287 0.044254873 0.04911925
0.009412356 -0.025237696 0.017893631 0.01764512 0.01582495 -0.021885049 0.040348053 0.005076028
0.04141163 0.034499116 0.011872679 -0.01902512 0.011572548 -0.024674363 0.018755909 -0.040206317
-0.009094753 -0.00447785 -0.05634431 -0.0064126807 -0.013789197 0.002056865 0.0305418 0.00015117164
0.004993044 0.004955511 0.040729284 -0.043292467 -0.0100522665 0.042560983 -0.012572848 0.027624948
-0.052116204 0.018338695 0.063718095 -0.008151736 0.03492774 0.0032668326 0.017491603 -0.025283946
0.017908176 0.012623002 -0.026171314 -0.089098014 -0.027520655 0.04339771 0.022367317 0.012127854
0.056970213 0.020810485 0.049548976 0.09364748 0.0035616835 0.04071785 -0.0026173226 -0.019881474
-0.034598332 0.027058395 -0.029129956 0.027053628 0.00573872 0.008383864 -0.030355642 -0.017601315
-0.007796937 0.004290627 -0.0052390303 0.060682494 0.0223058 -0.04236619 0.02749986 -0.062047992
-0.02016265 -0.024645638 0.04497048 -0.020197898 -0.025954429 -0.022902556 0.010660317 0.0040832986
00000000: ecd3 12bc 7fa7 b5bc 6a06 6f3b b849 173d
00000010: 7332 04bd f573 88bc ca26 b03c be6a b63c
00000020: 9940 08bd 8314 5abd bf45 e4bc 0887 043c
00000030: 56b5 dd3c 0a46 97bc 356a 3d3c 88d1 573a
00000040: 8256 09bd caf5 8c3b def1 d8bd fa81 07bd
00000050: 409f fc3c 58b9 383d 57a2 113c c944 5dbd
00000060: 552a eb3c 4479 0bbc 21f9 f4bc 08eb 0a3d
00000070: 2c61 c53c 93c5 913d 8f0b fcbc 9670 5cbd
00000080: 8db0 7c3d e7a3 29bd 6256 e2bc c945 a7bc
00000090: 3015 753d 3ae3 663b 3ca0 18bd 7443 543d
000000a0: c1a6 35bd 7074 b3bc c3e3 bd3c 7a6f 59bc
000000b0: 96fe 353d 07d2 cf3c 62e7 ed3b 5911 953d
000000c0: 0ae3 cb3d 309a 403d f612 443a 5ce8 7bbc
000000d0: f4e0 98bc fd0f 943c 6c37 043d 6b24 463d
000000e0: 4c12 1c3c 2c9c a13b deb6 e6bc 5bb3 11bd
000000f0: 4213 6cbb f8ab 2dbd 1dd0 05bc 51b4 8dbd
00000100: 2707 993c 3625 05bc 33be 7abc 3be6 283d
00000110: f823 ab3c 44ad 6d3c 45eb bebc 34ab 4c3c
00000120: cbe3 34bc 6d25 adbb b27a 1d3d 58f7 a23d
00000130: ecb6 813b f536 ac3c b768 be3c d80c 073c
00000140: a520 313c 4dd0 d93c 44e1 d63c b6af 8abd
00000150: 0c12 3c3c 206e e53c e7a0 08bd 8dd1 8dbc
00000160: 087b a83c 8894 123d 45d5 eebc d7df 26bd
00000170: 8171 043c 7b8b 1cbb a486 763c 2382 463c
00000180: 7d6d 0fbd 813a c9bc feaa 473b d7c7 25bd
00000190: 6221 2fbd 80e9 60bc e790 653c 2a38 82bc
000001a0: 160d 85bc 4863 b03b 8735 2fbc 52b7 01bd
000001b0: 96d8 52bc bf54 6cbd f8c9 a4bd 1f84 e4bb
000001c0: 6b77 043e d5cf 223c 8e48 96bb dc62 353d
000001d0: c955 753b 04d8 58bb c137 503d 8da9 0f3d
000001e0: 1b61 afbc 1fc7 dabc 62a9 6cbc 8354 bbbb
000001f0: 0ca5 a43c 4b84 d8bc ebbb 803c de6c 37bc
00000200: bfd7 c8b9 423f 003c ef9c 883c 8717 7b3d
00000210: 736e 283b 0ea0 e53b a6f8 73bc e3e7 bf3c
00000220: d685 c0ba 2c64 1a3d 88cc 57bc 784f 27bc
00000230: ef04 53bd 90af 733d af9c af3c 4b6e 003c
00000240: 0e23 8d3c 3ce2 e7bc a53e 72bd 1a94 a3bc
00000250: dda1 0cbd beb7 83bc 2d1e c6ba 5bf6 d6bb
00000260: 5ff8 8ebd 65c8 02bd 6e63 103d f16c 1bbd
00000270: a3e3 9bbc e3aa a23c 71fb c5bb be85 2e3c
00000280: 60d1 0bbb f1b9 313c c491 99bc e998 e7bc
00000290: 2537 533d e2d9 92bc 0d56 0f3c 3dcc 4cbd
000002a0: 0c7f 81bd 3f02 0fbd dbb6 523d a1ae de3c
000002b0: 0401 a53c 59e8 453d 9944 353d 4431 493d
000002c0: 4836 1a3c 49bf cebc aa95 923c 808c 903c
000002d0: 53a3 813c 4648 b3bc 0044 253d cf54 a63b
000002e0: 3e9f 293d f24e 0d3d a085 423c 92da 9bbc
000002f0: c99a 3d3c e421 cabc fea5 993c 61af 24bd
00000300: 2902 15bc eeba 92bb 4bc9 66bd 7721 d2bb
00000310: 16ec 61bc 78cc 063b cc32 fa3c d483 1e39
00000320: b09c a33b d761 a23b c0d3 263d 7153 31bd
00000330: 43b2 24bc 6d54 2e3d 59fe 4dbc b74d e23c
00000340: cd77 55bd 083b 963c a27e 823d dc8e 05bc
00000350: 6410 0f3d 5b18 563b 8d4a 8f3c 4720 cfbc
00000360: 2bb4 923c b5d0 4e3c 3965 d6bc 0579 b6bd
00000370: ff72 e1bc ccc1 313d aa3b b73c e8b3 463c
00000380: 9959 693d c07a aa3c def3 4a3d 40ca bf3d
00000390: 226b 693b c3c7 263d 6387 2bbb 79de a2bc
000003a0: fbb6 0dbd 91a9 dd3c f2a1 eebc 929f dd3c
000003b0: df0b bc3b 795c 093c 65ac f8bc a230 90bc
000003c0: 737d ffbb 6398 8c3b 2cac abbb 358e 783d
000003d0: a7ba b63c 2c88 2dbd 6347 e13c 0926 7ebd
000003e0: 242c a5bc a6e5 c9bc f732 383d 1076 a5bc
000003f0: 629e d4bc 249e bbbc 9ca8 2e3c 31cd 853b

bias f4 [256]
-0.03035421 0.01722487 -0.024247896 0.036663614 0.058538735 0.040490698 -0.019759106 -0.0066885175
-0.0065884725 0.019964058 -0.004795811 0.017748656 0.037086967 -0.010178997 0.062917225 0.023359954
-0.050695404 0.002791081 -0.0035946455 0.015498406 0.031179145 -0.035328414 -0.005274312 -0.0038920245
0.0026258056 0.036355134 -0.013444585 -0.024149148 0.002980081 0.04295236 -0.0013673911 -0.0034525716
-0.0124149155 -0.037225977 0.0067499722 -0.01967937 0.009035026 0.0012130835 0.04457366 0.02661279
0.020362793 0.025081487 -0.0005925752 0.011216298 -0.007327243 -0.0143157905 0.007708713 0.0009799388
0.034363814 -0.012071764 -0.0016018553 -0.021979313 -0.012582264 -0.0027112064 -0.009808466 0.01932599
-0.0037806977 -0.028694091 -0.03451448 0.003276161 0.0032837722 -0.015541047 0.021205364 -0.015946759
-0.010900059 0.024904625 0.013247326 -0.010192306 -0.03850134 0.06091151 -0.034388628 -0.023190109
-0.03472399 -0.0097212335 -0.024784895 0.048257362 -0.04575585 0.07414708 -0.055848554 -0.02596239
-0.015978524 -0.012540567 0.035088424 0.023976605 0.022655802 -0.01802493 -0.011158203 -0.036320683
-0.022938287 0.03215093 -0.010850372 0.025915507 -0.007100079 0.009403334 0.00039383364 -0.0150244525
0.044465158 0.02102102 -0.015690388 -0.009623881 -0.013125021 -0.027310735 -0.009997757 -0.0064092795
0.05851518 0.009905361 0.0036960484 -0.0045263804 -0.017590676 -0.010770653 0.027106807 0.03696478
0.016762823 -0.057865996 -0.030657487 0.009840849 -0.015839033 -0.029568883 -0.0054287883 -0.050331686
0.0042414363 0.0004472708 0.038750853 -0.01485345 0.0340192 -0.0035163993 0.017313978 0.028565267
0.031620987 -0.012234698 -0.04245418 0.058538336 0.041204654 0.0410071 0.0039988654 -0.0050329315
-0.04535058 -0.0061222515 -0.0134843625 0.010228413 0.0010534638 -0.0013744497 0.04385454 0.036830813
0.002232538 0.0287528 -0.031744733 -0.019972883 -0.021768495 -0.0021787349 0.02103191 0.025042722
0.02669077 0.038548876 0.042519424 0.013706293 0.0134935 -0.04051519 -0.014237507 0.012042047
0.014278176 0.0076101315 0.0063776406 -0.017594306 -0.04595033 -0.00806881 0.018774442 -0.012838011
0.005129048 -0.022528527 0.02470168 -0.01796724 -0.0038429408 -0.0079447245 -0.041650716 0.03479972
0.007842013 -0.024104482 -0.028121268 -7.311488e-05 -0.029150026 -0.010498966 0.008721342 -0.02917508
-0.04495685 -0.0151512455 0.04807921 -0.016569188 -0.0097034965 0.0043224 -0.035343736 0.0009272001
-0.02986901 0.027561374 -0.0027008725 0.02743972 -0.020830926 0.030169541 0.0068844743 -0.011121308
-0.024805358 -0.042889178 -0.0054085255 0.026930716 -0.0014127061 -0.042788845 0.0029470527 -0.019806108
0.026114114 -0.018259984 -0.021211125 -0.0021449854 0.019485012 -0.031209875 -0.002622413 0.0373414
-0.052867897 -0.0135872755 0.023283402 -0.0064995615 -0.03677036 0.05159162 -0.010522104 -0.035643976
-0.017225275 -0.011605733 -0.017074153 0.0118336 -0.0030164546 0.056266908 0.057137717 -0.0015099167
-0.035146873 0.015800606 0.06852798 0.015999781 0.033887193 -0.004525194 -0.03412315 -0.0006233399
-0.05616302 -0.0009718443 -0.0034275337 0.013885487 -0.009365884 0.008410712 -0.028211989 -0.027097734
0.02869071 -0.0063386466 0.03949672 0.006709574 0.013666434 -0.0053254603 -0.0025757733 0.02519082
00000000: 64a9 f8bc 2c1b 8d3c 86a3 c6bc 962c 163d
00000010: 50c6 6f3d 93d9 253d d9dd a1bc 5a2b dbbb
00000020: 1de4 d7bb aa8b a33c 2e26 9dbb a165 913c
00000030: 81e8 173d cfc5 26bc bfda 803d 605d bf3c
00000040: fca5 4fbd 92ea 363b 2594 6bbb 07ed 7d3c
00000050: 686b ff3c 87b4 10bd 23d4 acbb 5611 7fbb
00000060: b515 2c3b 1fe9 143d ad46 5cbc 6fd4 c5bc
00000070: 764d 433b d0ee 2f3d 083a b3ba 8a44 62bb
00000080: ee67 4bbc 447a 18bd df2e dd3b a136 a1bc
00000090: a507 143c 5400 9f3a df92 363d 1103 da3c
000000a0: dfcf a63c b177 cd3c 0c57 1bba 90c4 373c
000000b0: 5f19 f0bb c78c 6abc 5f99 fc3b 4a71 803a
000000c0: 12c1 0c3d a6c8 45bc 58f5 d1ba f60d b4bc
000000d0: d725 4ebc 7fae 31bb b0b3 20bc 8a51 9e3c
000000e0: 95c5 77bb df0f ebbc 0e5f 0dbd dcb4 563b
000000f0: 8e34 573b e09f 7ebc dfb6 ad3c c7a2 82bc
00000100: 2996 32bc c904 cc3c 500b 593c a1fd 26bc
00000110: 95b3 1dbd 597e 793d 17db 0cbd 2ff9 bdbc
00000120: be3a 0ebd cf45 1fbc b109 cbbc 83a9 453d
00000130: 7c6a 3bbd 6dda 973d 74c1 64bd 14af d4bc
00000140: 65e5 82bc f376 4dbc e1b8 0f3d 966a c43c
00000150: a998 b93c 05a9 93bc e5d0 36bc ffc4 14bd
00000160: 13e9 bbbc b2b0 033d c2c5 31bc c24c d43c
00000170: c8a7 e8bb 7110 1a3c 757b ce39 1f29 76bc
00000180: 1921 363d 4634 ac3c 2189 80bc 7cad 1dbc
00000190: 540a 57bc c3ba dfbc a2cd 23bc ef04 d2bb
000001a0: 9dad 6f3d 184a 223c 6739 723b 0852 94bb
000001b0: 521a 90bc 6577 30bc 180f de3c 6268 173d
000001c0: 3052 893c e504 6dbd 6925 fbbc 833b 213c
000001d0: dcc0 81bc 713a f2bc fae3 b1bb 9928 4ebd
000001e0: bffb 8a3b ac7f ea39 37b9 1e3d e25b 73bc
000001f0: b757 0b3d 6473 66bb 0bd6 8d3c b501 ea3c
00000200: 0285 013d 0b74 48bc 6fe4 2dbd e5c5 6f3d
00000210: 36c6 283d 10f7 273d ea08 833b 4aeb a4bb
00000220: 88c1 39bd 2b9d c8bb 84ed 5cbc 1395 273c
00000230: 6114 8a3a e126 b4ba d1a0 333d e8db 163d
00000240: c64f 123b fe8a eb3c c406 02bd 2c9e a3bc
00000250: d853 b2bc 1bc9 0ebb 1d4b ac3c 6526 cd3c
00000260: 9aa6 da3c 6de5 1d3d d928 2e3d 5c90 603c
00000270: d713 5d3c 42f3 25bd 6f44 69bc 024c 453c
00000280: 03ef 693c 695e f93b 87fb d03b ef21 90bc
00000290: 6a36 3cbd 0b33 04bc dccc 993c 8556 52bc
000002a0: 9311 a83b bf8d b8bc 2d5b ca3c 0930 93bc
000002b0: d9d9 7bbb 972a 02bc f199 2abd 278a 0e3d
000002c0: c97b 003c c376 c5bc 935e e6bc 4155 99b8
000002d0: 09cc eebc db03 2cbc f6e3 0e3c 9400 efbc
000002e0: ad24 38bd ee3c 78bc b5ee 443d 1bbc 87bc
000002f0: 6afb 1ebc eba2 8d3b 98c4 10bd 580f 733a
00000300: dbaf f4bc 64c8 e13c 1f01 31bb 44c9 e03c
00000310: 9ea5 aabc 1d26 f73c 2897 e13b 2636 36bc
00000320: 9b34 cbbc 90ac 2fbd 003a b1bb ce9d dc3c
00000330: 8d2a b9ba 5b43 2fbd 5723 413b 6b40 a2bc
00000340: 44ed d53c f695 95bc f4c2 adbc e292 0cbb
00000350: 089f 9f3c daab ffbc cadc 2bbb 4cf3 183d
00000360: 028c 58bd 2a9d 5ebc d5bc be3c 46fa d4bb
00000370: 849c 16bd bc51 533d e764 2cbc 6bff 11bd
00000380: 051c 8dbc f925 3ebc 18df 8bbc b7e1 413c
00000390: b6af 45bb 2178 663d 3d09 6a3d 66e8 c5ba
000003a0: 2bf6 0fbd 4670 813c 6658 8c3d f911 833c
000003b0: 4ccd 0a3d 1448 94bb b7c4 0bbd a267 23ba
000003c0: 320b 66bd 5ec3 7eba 79a0 60bb f47f 633c
000003d0: 5d73 19bc 15cd 093c d41c e7bc 11fc ddbc
000003e0: c808 eb3c 6cb4 cfbb 50c7 213d fcdb db3b
000003f0: 2ee9 5f3c 3381 aebb 4ece 28bb fb5c ce3c
