output/2023-09-24-20-37-59/trained_model/tetris_epoch537_score1300.pt (torch, 842187 bytes, 8 tensors)

weight f4 [32, 1, 4, 4]
000000 c7 c0 ec 3c 4f 2c f7 3c 64 9e a2 bc 33 e3 34 bb
       0.028900517 0.030172495 -0.019850917 -0.0027601242
000010 2c 9f b2 3b 9e 3c 9e 3d 1c f1 1a bb 85 65 4b 3d
       0.0054511037 0.077264056 -0.0023642248 0.049657363
000020 92 9c 60 be ed 99 02 3e aa 60 48 3e 42 a0 30 bc
       -0.21934727 0.1275403 0.19568124 -0.010780396
000030 4b 6c b0 3d 1c 98 2a 3e cf f9 30 3e 93 fe d7 bc
       0.08614405 0.16659588 0.17282794 -0.026366508
000040 b7 d9 d2 3e 5d 46 79 bb 13 f5 01 bf 76 42 75 be
       0.41181728 -0.0038036325 -0.5076458 -0.23951134
000050 4d 03 da be 73 91 3e 3d 66 b7 c9 bd 39 dd 16 be
       -0.42580643 0.04652543 -0.098494336 -0.14732827
000060 05 00 5f 3d 53 64 6c be 2c 2e 31 3d 20 3d b7 be
       0.054443378 -0.23085146 0.043256924 -0.35788822
000070 f6 ac 7b be 80 ce d2 b9 af f1 af 3d ea a3 19 bf
       -0.24577698 -0.00040208176 0.08591019 -0.6001574
000080 7b cb d0 3c a5 6e 66 3b 70 fa 40 bf 53 97 0e be
       0.025487652 0.0035161164 -0.7538214 -0.13924913
000090 d8 c1 c4 3b 3d 3d 86 be 62 fc 2a 3e e4 96 7e be
       0.0060045533 -0.26218596 0.16697839 -0.24862248
0000a0 ca 03 b6 3d 79 a3 9a 3e cf 21 1a 3d 1a a0 92 3c
       0.088874415 0.30202845 0.0376299 0.017898608
0000b0 8a 8a d8 bd a5 76 fa bd 3f 46 c1 bd ce 43 b3 bd
       -0.10573299 -0.12229661 -0.094372265 -0.08753167
0000c0 8c 51 8a be 0b 4a 42 be aa cd ad bd 7d d2 07 bd
       -0.2701534 -0.18973558 -0.08486493 -0.03315972
0000d0 f9 a1 12 3e 2d ed 13 be 8a 6b 58 3e e7 ad df 3d
       0.143196 -0.14445944 0.21134773 0.10921841
0000e0 87 65 7d be 1c 2d b7 3d c3 64 02 bf 8f 0f cf 3d
       -0.24745761 0.08944151 -0.50935 0.101103894
0000f0 a2 30 41 be 79 ba 0a bf 8e a1 ff be 5a a6 ac 3d
       -0.18866208 -0.54190785 -0.49927944 0.084301665
000100 b8 13 84 bd a2 eb 49 bf ec 6e 3d bd e4 81 25 bc
       -0.064490736 -0.7887517 -0.04624836 -0.010101769
000110 10 25 da 3d e0 ab 7f 3d 45 38 95 3d c1 5b 81 3d
       0.106516 0.062419772 0.07286123 0.06316329
000120 8d 0c 71 3e ef f9 60 bf 05 ed 98 3e 67 bb c3 bc
       0.23539944 -0.8788137 0.29868332 -0.023893071
000130 c8 a1 ca bd a0 20 c4 bd 1b 58 b8 bc 8f d1 01 bc
       -0.098941386 -0.09576535 -0.02250295 -0.007923498
000140 b8 7b ac 3c 8d f7 fc bb 37 41 bc bd c7 f2 72 bd
       0.021055087 -0.00771994 -0.09192126 -0.05931356
000150 ca 5f f3 3b ed 5a 02 3c be f0 95 3e 92 b0 40 3f
       0.0074271904 0.007956249 0.29285234 0.75269425
000160 d5 9e 02 bc a9 7f d2 3c bb 84 a2 be a0 d1 45 bf
       -0.007972439 0.025695639 -0.3174189 -0.7727299
000170 f8 2e e5 bc 52 0e a4 bc 8b 68 4d bd 2a b2 f4 bc
       -0.027976498 -0.02002636 -0.050148528 -0.029870111
000180 cf 47 79 3d 2c 9e 56 3d fa ab 20 3e 03 ec 8e 3e
       0.060859498 0.05239694 0.15690604 0.27914438
000190 63 11 08 3e bc 91 dc bc 68 2b 46 3e aa d1 e5 be
       0.13287883 -0.02692496 0.19352496 -0.44886523
0001a0 1a ca 8c 3d 22 e2 69 3d fc f2 94 3c 1f 59 31 bf
       0.06874485 0.057100423 0.01818227 -0.69276613
0001b0 89 4e 17 bd 95 ba 62 3c 1b d5 85 3d 80 5d 8a be
       -0.03694013 0.01383843 0.06534787 -0.2702446
0001c0 8a 83 af 3c ee ed 1e bb 0c de 44 3e 43 7d 93 be
       0.021425027 -0.0024250704 0.19225329 -0.28806505
0001d0 e3 d4 b0 3d 9b d2 a5 3d 1c 22 31 bf a1 ba 1c bf
       0.08634355 0.080968104 -0.6919267 -0.61222273
0001e0 70 9b 51 bc 88 9f 8a 3d d7 94 e8 be 14 a8 7e bd
       -0.012793407 0.067687094 -0.45426056 -0.06217201
0001f0 88 68 34 bd a8 78 4b 3e 42 55 9c be b8 1c d7 be
       -0.044045 0.19870245 -0.30533797 -0.42014098
000200 fa b4 f9 bd 6c d8 e9 3d 7b 59 b2 be 45 93 1b be
       -0.12192722 0.11418232 -0.34833893 -0.15192898
000210 76 01 14 3e 70 e6 c3 3d e4 d0 19 3e 74 12 8e be
       0.14453682 0.09565437 0.15021092 -0.27748454
000220 17 14 74 3c 85 d5 bb 3d 07 4e a4 be 61 67 22 bf
       0.014897368 0.09171585 -0.3209078 -0.63438994
000230 a7 a1 0c 3e dd 60 86 bd 55 73 12 bd 69 15 1a 3d
       0.1373354 -0.06561444 -0.03575452 0.037618075
000240 a8 96 3f be 31 4b 99 bd 46 7f a0 3c c5 ee 51 bc
       -0.18709815 -0.07485045 0.019591939 -0.012813275
000250 7d 77 08 be 41 57 22 be 12 8a df be c5 e0 7f bd
       -0.13326831 -0.15853597 -0.43660027 -0.062470216
000260 ce 82 88 bd d9 4c f0 3e 2a f6 47 3e 88 b2 51 bd
       -0.06665574 0.4693363 0.19527498 -0.05119565
000270 a1 b4 6a 3d 2e 1f 5c bf a1 a8 94 3d 73 51 db 3c
       0.057301167 -0.85985076 0.07258726 0.026772236
000280 e4 56 ff 3c e9 a8 b9 bd 98 ad b9 bd 38 fb 20 be
       0.031169362 -0.0906542 -0.090663135 -0.15720832
000290 52 ac 7c bd 8b 29 80 bb b1 6e 45 be 25 f2 ce 3b
       -0.061687775 -0.0039112023 -0.19280507 0.006315487
0002a0 76 26 3d bd 44 c4 59 3d 00 c9 10 3f e3 71 79 bc
       -0.046179257 0.05316569 0.565567 -0.015224907
0002b0 b5 f7 e0 bc e6 d1 98 bd 9e 56 30 bf 49 11 68 bd
       -0.027461866 -0.0746191 -0.6888217 -0.05665711
0002c0 57 14 28 be d0 1a 93 be a5 33 96 be 78 88 56 bd
       -0.16414009 -0.28731394 -0.29336277 -0.05237624
0002d0 b5 d1 85 bd 87 fb 15 be df 3b 91 3c 2f b8 21 3e
       -0.06534139 -0.14646731 0.017728744 0.15792917
0002e0 de b2 95 bd a4 d6 5a 3c 79 fc df 3d be 74 0e bf
       -0.07309507 0.013356838 0.10936827 -0.55646884
0002f0 29 8a b4 3d 33 59 0a 3d c2 61 2e 3d 8c 96 ba be
       0.088154145 0.033776473 0.042573698 -0.36442983
000300 4d b3 fa 3d 1d ef a8 bd 82 14 2b 3d 61 fe 79 bd
       0.1224123 -0.08248732 0.041767605 -0.06103361
000310 c5 86 16 3d 1e 6e f9 3e 2d 0c f5 3c d2 79 1b bd
       0.03674962 0.48716825 0.029913032 -0.037957974
000320 20 d6 9e bd 83 0c 02 bf d3 8d 2d 3e ce 80 60 bd
       -0.07755685 -0.5080034 0.16948633 -0.054810338
000330 ce 28 5d bd 12 54 1f bf 23 21 53 be 0e 85 d2 3c
       -0.053993993 -0.62237656 -0.2061811 0.025698211
000340 7d 9c 9a 3a 6d 4d 83 bd 50 e8 2f 3c 24 e8 42 3d
       0.0011795905 -0.06411252 0.01073654 0.047584668
000350 0c 11 45 bc 81 eb 27 3e f1 7d 1f 3e 76 e2 1f 3c
       -0.01202799 0.16398431 0.15575387 0.009758582
000360 6d 7e 0e 3d 32 3a 5a 3f 19 91 85 bc 06 2e 25 3d
       0.034788538 0.8524505 -0.01630454 0.040327094
000370 50 50 f7 ba 69 a0 b2 bf 81 e1 aa 3d 0e d6 f0 bc
       -0.001886854 -1.3955203 0.08343793 -0.029398944
000380 39 fd cd 3c ce 42 df 3e 1c ed ee 3c fc e1 fd bc
       0.02514516 0.43605655 0.029165797 -0.030991547
000390 e6 7f a0 bc fa b4 34 3f 84 6e c0 3b a2 2f 84 bc
       -0.019592237 0.7058865 0.0058725495 -0.016135994
0003a0 61 38 0e bc f2 19 a2 bf d6 bf b0 3a b4 f1 ae 3a
       -0.008680434 -1.2664168 0.0013484906 0.001334718
0003b0 ac ed 7f bc dd 8b 59 bc c5 aa 2e bd 03 77 c4 3a
       -0.01562063 -0.013277975 -0.042643327 0.0014989082
0003c0 eb 9f 88 be 57 0f 3b bd f5 78 05 3e f0 e0 ba bd
       -0.26684508 -0.045668926 0.13034423 -0.09124935
0003d0 f4 98 cb bc e0 7a 53 be 5f 4b 96 bd 05 9e 89 bc
       -0.024853207 -0.20652342 -0.07338595 -0.016798982
0003e0 42 44 1e 3e 4f 36 30 3e 95 45 ef 3d 5b 47 09 3e
       0.15455726 0.17208217 0.116831936 0.13406126
0003f0 66 c3 8f 3a 3f 25 c4 3d 4b e2 3d bc 45 43 0a 3e
       0.0010968267 0.09577417 -0.011589597 0.13502224

weight f4 [32, 32, 5, 5]
000000 29 11 04 3e 14 67 0c be 99 69 e0 3d 6a 7d b0 3d
       0.12897171 -0.13711196 0.10957641 0.08617671
000010 1c 49 18 3d 16 23 21 3e 5e 40 54 be 4d 65 3d bd
       0.037179098 0.1573604 -0.20727679 -0.046239186
000020 5b 22 2d be 03 6d bd be e0 b0 b0 ba 85 4a b9 bd
       -0.16907637 -0.36997232 -0.0013480447 -0.090474166
000030 6f c9 f2 bd 98 2a 0c be 1c 85 80 bd 19 e9 fc bd
       -0.11854827 -0.13688123 -0.062753886 -0.12349147
000040 8b fd e5 be 5e 24 90 be 1c 23 fe bb c7 51 c8 be
       -0.4492 -0.28152746 -0.00775565 -0.3912489
000050 60 7c 0e 3d e5 e9 84 3d a3 00 ec bd 4d 0e 0d 3d
       0.034786582 0.06489924 -0.11523559 0.034437466
000060 7c 23 b2 3d cc 64 93 3e b8 22 b3 be 01 d2 2a 3e
       0.08698174 0.2878784 -0.34987426 0.16681673
000070 d0 6b c7 3e c6 34 d0 3e 49 62 8b 3d a0 d4 9a 3e
       0.38949442 0.40665263 0.06805856 0.30240345
000080 94 a3 52 be 27 e0 ee bd 72 cb 70 3d a0 be 98 3d
       -0.20570213 -0.116638474 0.05878777 0.07458234
000090 6d 56 b2 be 7c f5 ce be ce 92 52 3e da a5 a1 be
       -0.34831563 -0.40421665 0.20563814 -0.31571847
0000a0 4f ea cb 3d 86 5e 4a 3e c8 1b 9f 3b c1 49 71 be
       0.099568 0.1976262 0.0048556067 -0.23563291
0000b0 12 4b 92 be 07 15 23 be 59 22 eb 3e d5 a1 12 3e
       -0.285729 -0.1592599 0.45924643 0.14319547
0000c0 ab 84 f9 3c 78 4a bc 3e d9 80 84 bd fd 04 62 be
       0.030458769 0.36775565 -0.06469888 -0.22072215
0000d0 64 d7 d0 3d 3f c5 3d 3e 29 10 6b 3e ac 94 b5 3e
       0.101973325 0.18532275 0.22955383 0.3546499
0000e0 07 34 8b 3e a7 d0 d1 be 9f f6 f6 be 7e 71 fd bd
       0.2718813 -0.40979502 -0.48235032 -0.123751625
0000f0 b5 6f c4 bd 3a 0e 85 3e 2d ae 42 be 67 e5 1b be
       -0.09591619 0.25987417 -0.19011755 -0.15224229
000100 62 62 a6 3d 59 08 75 3e 22 0d c3 be 13 a9 0f 3e
       0.08124234 0.23928966 -0.38095957 0.1402934
000110 81 d6 63 3d 61 14 39 be a9 a3 c4 3d 05 8b 42 be
       0.05562449 -0.1807418 0.09601528 -0.18998344
000120 ec 8b 41 3d 75 99 aa be d0 ec a5 3e c6 0f ef 3b
       0.04725258 -0.33320203 0.32407236 0.0072955815
000130 d4 e8 34 be 69 2e a0 3e 8c 4e f8 be b0 6b df 3d
       -0.17666942 0.31285408 -0.48497427 0.10909212
000140 24 3b 05 bf 84 d5 72 3e 34 6e 46 3e 24 0c 0f bf
       -0.52043366 0.23714262 0.19377977 -0.558779
000150 48 ba a5 bd 7e 97 ca be 38 9f 00 bd be e7 bb bd
       -0.08092171 -0.39568704 -0.031401843 -0.09175061
000160 e3 8e c0 3d d8 29 e4 be 55 85 99 bf a9 80 94 bc
       0.094022535 -0.44563174 -1.1993815 -0.018127756
000170 82 a8 0e bf 1f 40 0e be 1d 77 b3 3e 3f b8 75 bc
       -0.5572587 -0.13891648 0.35051814 -0.014997541
000180 bb 5c 6e 3e 76 0a 4c be 24 60 a2 3e 27 78 39 be
       0.23277561 -0.19925866 0.31713974 -0.1811224
000190 f6 b8 8d 3c e9 a0 af 3c 78 dd b6 3d b2 15 3b 3f
       0.01730011 0.021439033 0.089289606 0.7307998
0001a0 e6 ba 41 bf a9 1d a1 be 2a b9 ac 3e 59 16 2c bc
       -0.7567581 -0.3146794 0.3373502 -0.010503375
0001b0 81 b9 55 be 87 e3 03 be 78 dc a3 be 93 41 4c bb
       -0.20871545 -0.12879764 -0.32004142 -0.0031167015
0001c0 d5 80 67 3e 5e 34 7b bd 45 3f eb 3e be c8 1b be
       0.2260774 -0.061329238 0.45946708 -0.15213296
0001d0 18 1c 1c bd 58 af ee be a6 b7 2e be 77 0e 00 bf
       -0.03811273 -0.46618152 -0.17062244 -0.5002207
0001e0 3a 79 11 3e 35 97 78 3d 42 f1 12 3e 24 91 d2 bd
       0.142064 0.060691077 0.14349845 -0.102815896
0001f0 03 19 b8 3c 68 56 65 bd ec 3f 56 bd 3b 37 d6 3c
       0.022472864 -0.055990607 -0.052307054 0.026149383
000200 7a 01 ca bd 9e 49 1a be cd d0 23 3e ab eb f2 bd
       -0.09863563 -0.15067145 0.1599762 -0.11861356
000210 c0 46 11 3e 46 97 56 ba 38 b0 92 be 8f 33 ec bd
       0.14187145 -0.00081859936 -0.2865007 -0.115332715
000220 61 40 88 bc 7e e8 29 bd 5a f9 52 bd aa 7c 52 bd
       -0.01663226 -0.041481487 -0.05150733 -0.05138842
000230 6a 97 ae be 27 b6 b9 bf 70 0d 21 bf 26 13 8f be
       -0.34099895 -1.4508713 -0.6291113 -0.27944297
000240 9f 0d 17 bf 41 a5 29 3d 7c 84 75 be a0 b8 80 bd
       -0.5900516 0.041417364 -0.2397632 -0.062852144
000250 4d 94 73 be 30 8e d3 be 6b b1 a9 3e 9e 26 65 bc
       -0.23787041 -0.41319418 0.33143172 -0.013986258
000260 ee 76 9d bc 95 9b 80 be 35 1a 0e bf 3b db e4 3d
       -0.01922175 -0.251187 -0.5550874 0.111746274
000270 6d f7 b1 3d e4 e6 a4 be 4e da 7b 3b c9 d9 74 bf
       0.08689771 -0.32207406 0.003842968 -0.95644814
000280 47 9a 11 3d 26 0e 7c 3e 95 f5 9c be 95 50 b6 3d
       0.03554752 0.24614772 -0.30656114 0.089020886
000290 f1 29 67 3e b2 8a 97 be 53 7b 0e be 99 66 c7 be
       0.22574593 -0.29598004 -0.13914232 -0.38945463
0002a0 37 50 7e 3d 03 a5 58 be 82 9d d7 3c 16 39 c2 3d
       0.062088218 -0.21156697 0.026320223 0.094835445
0002b0 07 c9 6d 3c 51 e4 b0 3e 0b 39 a9 3d 6d 4b 42 bb
       0.014513261 0.34549192 0.08262833 -0.0029647008
0002c0 82 75 14 bf 9f e1 e9 3e 75 b2 fc bd 23 7d e3 bd
       -0.579918 0.45679948 -0.123387255 -0.11107852
0002d0 8d a6 df 3d df 09 cf 3d 03 ac d3 3c 36 0e c4 3e
       0.10920439 0.10109305 0.025838858 0.38292092
0002e0 75 c4 62 bf cd 42 69 3c 59 01 83 be 3f 54 82 be
       -0.8858102 0.014237118 -0.25586966 -0.254549
0002f0 b8 82 6b 3e 9f 9c 05 be 93 8c bf 3d e9 a1 91 be
       0.22999084 -0.13048027 0.09352984 -0.2844384
000300 43 28 b0 be a9 d0 6c 3e 80 bc 3a 3e 6e 7b 53 be
       -0.34405717 0.23126473 0.1823597 -0.20652553
000310 7a 69 33 be 65 2f f8 bd 38 07 65 3e 3e bc 73 3d
       -0.17520705 -0.12118415 0.22366035 0.059505694
000320 20 c4 c4 3e 5f 16 10 be f3 dc 27 bb 73 82 8f 3e
       0.38430882 -0.14071034 -0.0025613874 0.28029212
000330 5d fa 20 3e fa 5a 27 bf 13 c6 d5 3d cc 3e 76 be
       0.15720506 -0.65373194 0.1043817 -0.24047393
000340 1e e6 20 3e 28 a9 b6 3c 85 d2 03 bf dd ec 0e 3e
       0.15712783 0.022297457 -0.514931 0.13957544
000350 34 31 97 3d 9e e4 8d 3d f3 f8 f4 be 6f 85 eb be
       0.073824316 0.06928371 -0.47846183 -0.4600024
000360 b6 e9 af be 07 44 13 be 66 01 ba 3d 7a 8d df bb
       -0.34357995 -0.14381419 0.09082298 -0.0068222852
000370 61 13 44 be 61 69 32 3e 0d 7b b5 bc 64 44 9c be
       -0.19148017 0.17423011 -0.022153402 -0.30520928
000380 f8 84 7b 3e 49 b3 40 3e 77 ed c0 3d 69 1b b6 be
       0.24562442 0.18818392 0.09420293 -0.35567787
000390 c9 5a bd 3c d9 b4 27 be 94 32 ec be a7 9d 82 be
       0.023114579 -0.16377582 -0.46132338 -0.25510904
0003a0 0b ed 50 bd e8 d3 69 be fe 90 b6 be 91 c4 1a bf
       -0.05100731 -0.22834742 -0.35657495 -0.60456187
0003b0 14 4f 94 3d 31 9e a2 bd b5 d2 36 3e e1 36 66 bc
       0.072416455 -0.07940329 0.17853816 -0.01405117
0003c0 3f 3a 4e be 0b 55 a0 3e f0 5b 82 be 47 55 8b 3c
       -0.20139407 0.31314883 -0.25460768 0.017008437
0003d0 9e a6 1e bf e2 6c 2f be 90 9d 5f 3e f2 7a 7b 3d
       -0.6197299 -0.17131379 0.21837449 0.061396547
0003e0 28 67 d8 3d 0c 93 3d 3e c8 ad ff 3e d7 b4 26 bf
       0.105665505 0.18513125 0.49937272 -0.6511969
0003f0 49 4b 5b be d4 c9 c9 3e 57 20 a5 3d 19 59 e1 be
       -0.21415438 0.39411795 0.08062809 -0.4401329

weight f4 [64, 32, 5, 5]
000000 46 d0 ad 3c 3d d2 83 3d c6 ee 43 bd 1c 0e 54 3e
       0.021217477 0.06436584 -0.047835134 0.20708507
000010 13 0a b2 be 2e 1d 7e 3e 2f 5d 28 3d 93 6b 1a 3e
       -0.3477331 0.24815819 0.04110449 0.15080099
000020 aa e3 f2 bc 8b 83 9d 3d 18 bf 78 bc 41 b6 20 be
       -0.029649574 0.076911055 -0.015182279 -0.15694524
000030 80 a5 20 be 22 45 50 3d b5 16 1b 3f b7 1b 06 be
       -0.15688133 0.05084718 0.60581523 -0.1309651
000040 83 61 c4 3c e4 15 6a 3d fe 8b 15 be d1 8e 9f 3e
       0.023972278 0.057149783 -0.14604184 0.31163648
000050 b0 07 e4 bd 08 25 9e be a6 5a 8a bd 4a 03 bc 3e
       -0.11134279 -0.30887628 -0.06755571 0.3672126
000060 ee fb bf 3d 9d 1b c2 3e 34 9d cd be 60 9d 10 3d
       0.09374224 0.37911692 -0.40159 0.035306334
000070 c0 5e cd bd 85 4e 32 3d b6 bd 67 3d a8 c1 ac 3e
       -0.10027838 0.043531913 0.056577407 0.33741498
000080 d9 84 a1 3e e2 b8 01 bf 64 04 52 be 25 6e 10 be
       0.31546667 -0.50672734 -0.20509487 -0.14104517
000090 c9 e6 53 3d 32 57 25 3f 41 9c 91 bd cd 51 54 be
       0.051733766 0.64586174 -0.07109881 -0.2073433
0000a0 2f f8 c2 3e 58 b9 a0 3e 9f af f7 be fa ec f7 3e
       0.38079974 0.31391406 -0.48376176 0.48422986
0000b0 e3 a8 1c bc 27 3f de bd 1d 68 28 3f 54 f9 a3 3e
       -0.00956175 -0.10851889 0.65783864 0.3202616
0000c0 7c 05 92 3d 87 f0 82 3b c9 1f 84 be cd 6a c5 bb
       0.07129952 0.0039959583 -0.258055 -0.0060246945
0000d0 ed 80 f3 3e c7 e9 34 3e e0 51 8d bc 4e 86 a5 3e
       0.475593 0.17667304 -0.017250955 0.3232903
0000e0 ab e1 46 be c4 55 f4 be 6e a6 2c bf 90 49 04 bf
       -0.19422023 -0.47721684 -0.6744145 -0.5167475
0000f0 2a 4b 3c 3e d1 c4 f3 3c 85 f5 9d be e4 4c 59 3e
       0.18388048 0.029756935 -0.3085138 0.21220738
000100 71 18 8e be 81 fe 49 3e c4 12 4d 3e 65 a8 87 3e
       -0.27753022 0.19725992 0.2002669 0.26495662
000110 5a 43 22 be 22 9d cc bd 4c f0 13 3f 23 b3 a9 3d
       -0.15846005 -0.09990908 0.5778854 0.08286121
000120 c7 9b a2 3b 4d e1 01 3e d7 58 be bd d2 67 c2 be
       0.0049624178 0.12683602 -0.092942886 -0.37969834
000130 2c e6 d2 be 1b 28 ed bd 3c 4e 98 3e fe e4 85 be
       -0.41191232 -0.11579915 0.29747188 -0.2615127
000140 47 4c ff 3e 28 d8 91 3e 9a 02 b5 bc 90 ab bb 3e
       0.49862882 0.28485227 -0.022095967 0.3665433
000150 aa a6 94 3e 8e 0c 3e 3c 18 8f 77 be da 4c 4d be
       0.29033405 0.011599673 -0.2417568 -0.20048848
000160 c1 90 ac be d9 9b 4a bf 54 36 cc be 8f ee 51 bd
       -0.33704188 -0.79144055 -0.398852 -0.051252898
000170 c3 2c 92 bf ec 07 b1 3b ef 58 35 3e 0a 59 4e 3e
       -1.141991 0.0054025557 0.17709707 0.20151153
000180 b5 8e 80 3d 6c dd 8e 3c 07 ec f8 3e 6e 41 17 bd
       0.06277219 0.017439567 0.48617575 -0.036927633
000190 02 de 9d bd 53 cd 8f 3e f7 58 71 3e 98 3a a5 3d
       -0.0770836 0.28086337 0.23569094 0.080678165
0001a0 d1 a5 19 3e b0 7e 97 3d bd 8a 02 be 4e a2 d2 3a
       0.1500466 0.073972106 -0.12748237 0.0016070099
0001b0 b4 4d 0d 3e 3a ef 31 3f 41 24 b0 3e 7c 7c 75 bc
       0.13799173 0.69505656 0.3440266 -0.014983293
0001c0 80 7b 17 be eb 91 a6 3d 27 cf 19 be ca 94 99 bd
       -0.14793205 0.081333004 -0.15020429 -0.074990824
0001d0 9c bd 7d bd 52 62 df bb e0 6c 21 bf fe 36 16 bf
       -0.061948404 -0.0068171406 -0.63056755 -0.5867766
0001e0 5f 68 8c be d8 e4 c1 3c d7 eb 9a 3d 2b bd c0 3e
       -0.2742338 0.023668692 0.07564514 0.37644324
0001f0 96 33 62 be cd cd 57 3d 8c d0 ed be 96 c2 85 be
       -0.22089991 0.0526865 -0.4644817 -0.2612502
000200 08 18 83 3e 0b 76 67 bf 25 eb dc 3e 9f c5 c6 be
       0.25604272 -0.90414494 0.4314815 -0.38822648
000210 44 90 0e 3e b4 e2 c2 3c cd 97 22 be 64 52 52 3d
       0.1392222 0.023789741 -0.1587822 0.051348105
000220 88 34 48 3e 7b f5 31 3e 2f 6b 42 ba 23 dc 6e be
       0.19551289 0.173788 -0.00074164843 -0.23326163
000230 79 89 0c bf bb c3 57 be 6b ce a7 3d bb 2a af bd
       -0.54897267 -0.21070759 0.08193668 -0.08553072
000240 dd c2 7e bc dc a3 b2 be 2a b8 1a be 88 57 4a 3e
       -0.015549389 -0.3489064 -0.15109316 0.19759953
000250 1c 7e 36 bd 39 68 16 3e f1 89 2a 3d 11 c7 d6 be
       -0.04455386 0.14688195 0.041635457 -0.4194875
000260 a4 e6 0c 3d 46 9b c4 bc 25 34 b6 be 08 84 a3 3d
       0.034399644 -0.023999821 -0.35586658 0.07984167
000270 a2 d3 8a 3d 94 73 83 3e 9a 91 7e bd b7 5c 68 3d
       0.06778647 0.25674117 -0.062150575 0.056729045
000280 53 e5 88 bd 87 76 6e 3e 13 5f 52 3e 14 99 58 be
       -0.06684365 0.23287402 0.2054408 -0.21152145
000290 4d 28 7c be 56 47 52 3d c7 dc f5 bc 5c 9a 94 bd
       -0.24624749 0.051337563 -0.030012501 -0.07256004
0002a0 76 79 fe bd 96 47 c3 be a7 50 b8 3e 50 27 28 3e
       -0.124255106 -0.38140553 0.35999033 0.16421247
0002b0 11 95 30 3e 84 76 de bd 3b 9d 84 be d0 17 cc bd
       0.17244364 -0.10862449 -0.25901207 -0.099654794
0002c0 b2 a8 b3 be 52 cd 1a 3d 62 a9 a3 bd 52 7a c4 3d
       -0.35089642 0.037793465 -0.079912916 0.09593643
0002d0 bb a7 aa 3e b1 d4 d9 3c 2f 7b a8 3d 85 1d 2c 3d
       0.33331093 0.026590677 0.082266204 0.04202034
0002e0 3f aa bf bd 10 42 2d 3e bc 77 d5 bc 00 d8 30 be
       -0.09358644 0.16919732 -0.02605807 -0.17269897
0002f0 b3 e8 58 3e 48 a0 ea 3e 19 4c b3 bd d7 6f 0e be
       0.21182518 0.4582541 -0.08754749 -0.13909851
000300 9c ff a7 bd 03 11 3b be fc 7c 29 be db 60 96 3e
       -0.082030505 -0.18268208 -0.16551584 0.2937077
000310 86 5c 17 be 16 d6 0f 3e a5 00 4f bf ee 10 71 be
       -0.14781389 0.14046511 -0.8086036 -0.23541614
000320 f1 3c 02 3e 78 73 ce 3e ef 96 1a be 8c 8c d1 be
       0.1271856 0.4032247 -0.15096639 -0.4092754
000330 38 88 f6 3c ee 04 e4 3e 85 36 58 bf 76 82 85 3b
       0.030094251 0.4453501 -0.8445819 0.00407439
000340 ae 2f be be 3c 6d 8d 3e 1f bc 95 3e 09 6c 9f 3e
       -0.37145752 0.27622402 0.29245088 0.31137112
000350 65 4c 83 bc 31 8c ac 3b af e0 00 bf 1c c6 b5 3e
       -0.016027639 0.0052657356 -0.5034284 0.35502708
000360 59 c6 2b bd 0b 9d ab 3d b5 e3 31 be ed 2e ea 3e
       -0.041937206 0.08379563 -0.1737202 0.45738927
000370 0c 81 b7 3e 00 d6 bd 3d 78 46 14 be 4c c3 bb 3d
       0.35840642 0.09269333 -0.14480007 0.09168109
000380 ba cc 28 bc 30 fb e1 3e 8e e5 2b 3e 51 05 b8 bd
       -0.010302717 0.44136953 0.16786787 -0.08985389
000390 38 f6 c4 bd f5 8f d3 3e c3 0c 4e 3c 74 37 c1 3e
       -0.09617275 0.41320768 0.012576285 0.3773762
0003a0 51 d0 7e 3e 80 8d 8b 3c b3 6b e5 3e 7d 3e 94 3d
       0.24884154 0.017035246 0.4480873 0.07238481
0003b0 28 f3 99 bc 0c 32 b8 3d a3 15 40 3e ab ea 46 3d
       -0.018792704 0.08993921 0.18758254 0.04856364
0003c0 40 d1 bc 3e e4 57 25 3e 67 32 cd be 60 eb c2 3e
       0.36878395 0.16146809 -0.40077516 0.38070202
0003d0 f0 27 82 bc a2 61 1b be bc d3 1f be 4b 62 87 3e
       -0.015888184 -0.15173963 -0.15608114 0.2644218
0003e0 c4 39 a3 3e 26 f7 68 be 52 2c 28 3e d1 2d 88 3e
       0.3188001 -0.2275053 0.16423157 0.26597455
0003f0 3c 35 92 3e 9a b4 85 be 42 8a a6 3e 7b f5 09 3f
       0.2855624 -0.2611435 0.32527357 0.538902

weight f4 [256, 256]
000000 e2 d7 58 3d 58 fd c7 3c 3e d8 a0 3c f0 9c 04 3e
       0.052940257 0.024412796 0.019634362 0.12950492
000010 a3 0c b6 3d b2 12 aa bc 96 b9 90 bd 68 87 d0 bd
       0.08889129 -0.020760868 -0.07066648 -0.10182077
000020 4c bf 57 3c e3 51 fb bd f1 34 85 bd af ee 3e 3d
       0.013168167 -0.12271478 -0.065042384 0.046614345
000030 cb 2b de 3d 79 41 33 3e ce ce 7b bd 84 cd 2b 3d
       0.108481966 0.17505445 -0.06147652 0.04194404
000040 fb 83 46 be 5c d4 60 3e 0e bd 9b 3d 9a d2 5b bd
       -0.19386284 0.21956009 0.07604419 -0.053667642
000050 7f 56 f8 bd c5 10 40 3d 00 77 f5 bc ff 40 c1 bd
       -0.12125873 0.046890993 -0.02996397 -0.09436225
000060 6b ab 96 3d c1 32 15 be 33 4a 23 be c2 21 07 bd
       0.07356914 -0.14570142 -0.15946274 -0.03299118
000070 b2 3d 3c bc 04 b6 87 3a 5e b0 e0 bc df aa 2a 3c
       -0.011489319 0.0010353928 -0.027427848 0.010416715
000080 d7 be f7 3e 09 c1 cb bd 14 e4 0a 3b b0 b8 3f 3d
       0.48387787 -0.09948928 0.0021193074 0.04680699
000090 ab bc f0 3c 62 6d 9a bc 0e 5f 6d 3c 27 01 da 3b
       0.029386839 -0.018850986 0.014487995 0.0066529694
0000a0 b9 52 c1 bb ab 4f ab be ac e1 ff 3b fb 79 87 bd
       -0.005899754 -0.3345922 0.0078088846 -0.06615063
0000b0 e4 e6 d7 3c 97 b2 a4 bc 2f 7c f1 bd f1 30 30 3d
       0.026355214 -0.02010469 -0.11791264 0.043015424
0000c0 2b 59 9a bd 3c 2b 25 3d 15 0d 73 bd 86 b9 6b 3e
       -0.07536539 0.040324435 -0.059338648 0.2301999
0000d0 ad 36 84 bc 80 46 ed 3b 38 d7 7c bd cd 84 b9 bd
       -0.016139353 0.0072410703 -0.061728686 -0.09058533
0000e0 d1 1e 2a bd e5 9d dd be 79 5a 73 3e 44 d8 40 bd
       -0.041533295 -0.43284526 0.23764981 -0.047081247
0000f0 22 5c 15 3e 2e 0a 25 3e e3 4c 96 bd fe 63 71 be
       0.14585927 0.16117164 -0.07338884 -0.235733
000100 23 6e 9a bd 89 93 99 bd 93 ff b1 bd 75 8e 9b 3d
       -0.07540538 -0.07498843 -0.08691325 0.07595531
000110 d0 35 22 3e 00 73 3c ba 3e 11 f2 3c 36 f6 8b bd
       0.1584084 -0.0007188767 0.029549237 -0.068340704
000120 a2 ec 96 bd 7c 62 87 bd 96 71 93 3d 2d 8a 90 bb
       -0.07369353 -0.06610581 0.07199399 -0.004411003
000130 d9 79 0c be 00 97 3e 3d 2b dc 36 bd 6b 3b 4a 3d
       -0.13718356 0.046530724 -0.044643562 0.04937307
000140 d5 22 38 3d 02 26 e2 bc ce ea fb 3d aa 0f dd 3d
       0.044955093 -0.027606014 0.12300645 0.10794003
000150 60 d4 3f be e3 e0 7b bd bf 15 e9 3c fe bc a4 3b
       -0.18733358 -0.061493766 0.028452752 0.0050274124
000160 1c 06 7d bb 31 d3 39 3d 0e 3c b2 bd 32 f0 d1 ba
       -0.0038608378 0.045367423 -0.08702861 -0.0016017018
000170 dd 54 12 3d 4f a4 36 bd 74 ed 2b 3d 63 12 b7 bd
       0.035725463 -0.04459029 0.0419745 -0.08939054
000180 13 18 f1 3e fe c0 4a ba ac a5 69 bb ea 0d 09 3b
       0.4708868 -0.00077344466 -0.0035651727 0.0020912834
000190 78 54 86 3e bb a7 df bd cc 2c 5c 3e fe b5 0e bf
       0.2623632 -0.10920664 0.21501464 -0.5574645
0001a0 38 84 e8 3d 96 2c a1 3d 99 13 be 3b 72 4f e1 3d
       0.11353344 0.07869832 0.005800676 0.11001481
0001b0 2d d9 09 3e a5 9f 40 3c 36 01 25 3e d4 a0 4d 3e
       0.13461752 0.011756812 0.16113743 0.20080882
0001c0 57 ef 24 bd d4 01 8d bd ad c3 42 bd 95 85 0a 3e
       -0.040267315 -0.06885114 -0.047549892 0.1352752
0001d0 27 13 b7 bd e5 98 f3 3c ed bd 16 bc 67 29 65 39
       -0.089392 0.029735992 -0.009200555 0.00021854565
0001e0 2b 5d 4e be 89 87 6e 3d 31 e3 8c be be 1f 90 be
       -0.20152728 0.058234725 -0.27517083 -0.28149217
0001f0 5a 12 5d 3d cc c9 08 3d 5e 5c 94 bc 5f 7f be bd
       0.05397258 0.033395573 -0.01811045 -0.09301638
000200 59 16 fa bd b1 ce 52 be ab 09 10 be 95 90 6e 3e
       -0.12211294 -0.20586659 -0.14066188 0.23297341
000210 c4 aa a6 3d de cf b3 bd ff b6 9a bd 26 09 b8 bc
       0.0813804 -0.08779882 -0.07554435 -0.0224653
000220 e1 08 a2 bc 62 11 5c 3d 4c ed 30 3c 18 7d 90 3c
       -0.019779624 0.053727515 0.0107987635 0.017637774
000230 79 2e c7 bd ec db 85 bc 04 7d c1 3d e2 be d4 3c
       -0.09725661 -0.016340218 0.09447673 0.025969926
000240 5f 55 13 3d 5e 0c 84 3d 11 1b a8 3d a4 10 a0 bd
       0.035970088 0.06447671 0.082082875 -0.07815674
000250 ee c7 15 bd 92 a3 82 3d 1d 1b ea bc 77 ec e1 bc
       -0.03656762 0.06378855 -0.028577382 -0.027578576
000260 7b ad 80 3d 98 94 af 3d 8b c2 a0 3d ec 9c 21 be
       0.06283089 0.08573264 0.07849606 -0.15782517
000270 26 35 5a 3d 2b 73 a7 bd b0 6d d0 bd 88 38 e6 3d
       0.053273343 -0.081762634 -0.10177171 0.11241251
000280 b2 fd 77 bd 04 17 12 3d 8c d0 63 bd 11 60 a4 3d
       -0.060544677 0.03566648 -0.055618808 0.08026136
000290 29 46 d9 bd bc 80 34 3d c2 42 99 3d 20 9e 7a bb
       -0.10609085 0.044068083 0.07483436 -0.0038241223
0002a0 fe 99 b5 3d d4 9d d3 3d 63 c6 41 3d 4b cf b1 3d
       0.08867262 0.10332838 0.047308337 0.08682116
0002b0 c2 46 01 be 85 e5 bb bd fb d3 b5 bb 10 cd da be
       -0.12624648 -0.09174637 -0.0055489517 -0.42734575
0002c0 09 a3 85 3d 9f 44 84 3b 18 4b b0 3d ca 70 a7 bd
       0.06525237 0.0040365006 0.08608073 -0.0817581
0002d0 52 68 bc bd bd b9 90 bd 44 13 0a bb a7 f4 18 3b
       -0.09199585 -0.07066677 -0.0021068612 0.0023339184
0002e0 6a 21 4f be 2a ba d1 bd 20 71 11 3d 76 b8 ed bd
       -0.2022759 -0.10240586 0.035508275 -0.11607449
0002f0 23 9e b5 3b b7 cd b0 3d c7 64 80 bd 41 31 e6 bc
       0.005542533 0.08632987 -0.06269222 -0.028099658
000300 46 f1 48 3b 29 da 13 be ee a1 4a 3d e4 54 b3 3e
       0.0030661388 -0.1443869 0.049470834 0.35025704
000310 4c 62 03 3b 36 82 a6 bc 8b c3 45 bd 04 a5 a9 3c
       0.0020047603 -0.020325761 -0.048282187 0.020708568
000320 c6 ce 71 bd 16 e0 2b be bc 07 2a 3e 32 cf ce bc
       -0.059035085 -0.16784701 0.16604513 -0.025245283
000330 84 f2 55 3c 80 44 22 3e 51 b0 21 3e af 6b 01 3d
       0.0130583085 0.15846443 0.15789916 0.031596836
000340 9b f9 f8 3d 55 06 04 3d dc 77 06 3c 67 ad 8e bc
       0.121569835 0.0322326 0.008207288 -0.017416669
000350 78 c8 92 3e 6e 28 3a 3c be d1 77 be df f6 10 be
       0.2866857 0.011362178 -0.24201104 -0.14156674
000360 4a 8e a4 3d bc 5f 11 3e 1e ee 16 be b0 b7 ff 3b
       0.08034952 0.14196676 -0.14739272 0.0078038797
000370 02 b5 d2 bc 09 ef 20 3d 6d 9e 3c bd a9 c9 b0 3c
       -0.025721077 0.03929046 -0.046049524 0.021580534
000380 88 0f a8 3c 68 1a 21 3c fd 05 27 3e 04 bc 31 bd
       0.020515218 0.009832956 0.16310878 -0.043392196
000390 57 2b 3f 3d 65 77 55 3d 1f 15 0c 3d 9c 74 b0 bd
       0.04667219 0.052115817 0.03419983 -0.086159915
0003a0 6f 4c 61 bd 0f 0e 38 3d 08 1a 8a 3d 12 38 81 3d
       -0.055004533 0.044935282 0.06743246 0.06309523
0003b0 88 c0 94 be 61 34 d3 ba 44 0d ad 3e 63 19 49 3c
       -0.2905314 -0.0016113633 0.33799183 0.012274119
0003c0 84 4d 38 3e bd 8b ae 3c 08 0d e4 bd ae e9 57 bd
       0.1799832 0.021306867 -0.11135298 -0.05271309
0003d0 c4 9b 9d bd fd ba 48 3d 81 ab 28 3d 0c 26 a4 3d
       -0.076957256 0.04900645 0.041179184 0.08015069
0003e0 79 31 f7 3d 96 55 0f 3d 4c b4 b7 3d e2 b7 b5 3d
       0.12069983 0.03499373 0.08969936 0.088729635
0003f0 2f d8 bc 3c ef d6 b7 bb 19 4a ee 3c 47 83 93 3b
       0.023052303 -0.005610339 0.029088067 0.0045017335

bias f4 [256]
000000 35 9d 47 3c 61 45 26 3c 49 1b 8f 3d cb ba 72 bc
       0.012183477 0.010148377 0.06987626 -0.014815043
000010 10 ac 0a bd f6 ff c9 bd cc e4 4f bd 0e e9 7e 3d
       -0.033855498 -0.09863274 -0.050755307 0.062233977
000020 42 32 0f 3e 71 03 eb bd f8 9c d9 3c 79 d4 a5 bc
       0.13984016 -0.11475266 0.026564106 -0.020242916
000030 97 46 aa 3d a7 86 9d bd f1 d9 eb bc 1d 91 08 bd
       0.08314245 -0.076916985 -0.028790446 -0.033341516
000040 9a c4 41 bc f8 7a 3d bd 62 b0 8d 3d 2f be 8e bd
       -0.011826659 -0.04625985 0.06918408 -0.069698684
000050 41 90 c1 3c 01 fd 85 bd 54 b6 9e 3d f7 d3 3f 3e
       0.023628356 -0.06542397 0.0774962 0.18733202
000060 b5 3c 0e be a7 6f e8 3d 78 ec 37 3d c3 70 97 bd
       -0.13890345 0.11349421 0.04490325 -0.073945545
000070 f0 1b e4 bd 73 c3 fc bd 9a 35 fc 3d 17 a6 d8 3d
       -0.11138141 -0.123419665 0.12314911 0.10578554
000080 75 02 c5 bc 30 e5 cd 3b f3 47 80 3d 34 db 16 bc
       -0.024049023 0.006283425 0.06263723 -0.009207536
000090 44 39 fc bd 89 46 b7 bb 90 51 22 bd 96 a6 1b be
       -0.1231561 -0.0055931252 -0.039628565 -0.15200266
0000a0 9c 30 6b bd 4d d2 44 3d 37 60 20 3d b8 8d c3 bd
       -0.057419404 0.04805212 0.039154258 -0.09548515
0000b0 59 e7 37 bd 83 7b f9 3c 5e 4d d8 3d 59 56 14 3e
       -0.044898365 0.030454403 0.105616316 0.14486064
0000c0 20 4d 2b 3b 0d 8c 87 3d fd 7d 2a bd 97 40 98 3c
       0.00261385 0.066185094 -0.041624058 0.018585486
0000d0 4b 6f 05 be ea 8a dc 3d ae 91 ed 3d 6d 2c 06 bd
       -0.13030736 0.10768683 0.11600052 -0.03275721
0000e0 17 fb a6 bc c5 66 2e 3d 15 62 42 3e aa 09 64 3c
       -0.0203834 0.042578477 0.18982728 0.01391832
0000f0 3c 6d 75 bc dc 1d 48 3d 30 4a fa bd 6e 85 63 3c
       -0.014979657 0.0488566 -0.122211814 0.013886793
000100 c3 d3 16 3a 32 98 27 3d 71 1d b0 3a 5a 2d 45 bd
       0.0005753601 0.04091663 0.0013436509 -0.048138954
000110 ce ff a9 bd fe e1 54 be ce 2e 5f bd 03 22 b4 bc
       -0.08300744 -0.20789334 -0.054487996 -0.021988874
000120 e6 1d a6 bd 26 f9 ab 3d c5 c7 03 3d 04 24 af 3c
       -0.081111714 0.08397131 0.032172937 0.021379478
000130 08 be 5a 3c df ef 14 3d 6c d5 3f 3d de 06 35 bd
       0.013350971 0.03636157 0.046834394 -0.044196002
000140 b3 d5 11 be 1d e7 0d 3d 31 85 87 bb 5d 61 e7 bc
       -0.14241676 0.034644235 -0.0041357507 -0.028244669
000150 e1 6e d8 bd 64 81 b6 3d 73 f8 9f 3d 63 ce 1b 3d
       -0.105680235 0.08911398 0.0781106 0.038038623
000160 d3 7b 31 3e 89 ca 60 bd 1a db 96 3d f5 e3 a6 3b
       0.17332391 -0.054880653 0.07366009 0.0050930926
000170 63 48 23 3d 95 16 d6 3d e5 b9 a9 3d 3c 3f 43 3d
       0.039863955 0.10453526 0.0828741 0.047667727
000180 76 2e 10 be 71 5e 5b 3e 22 7e 09 be a0 f8 43 3b
       -0.14080223 0.21422745 -0.13427022 0.002990283
000190 47 91 64 3d 95 24 ff bd fe 6c ef bd 75 0e f9 3a
       0.05580261 -0.12458149 -0.116907105 0.0019001501
0001a0 8d 5e 96 bd f0 5b 3a bd 05 99 89 bd 6f c7 f0 3d
       -0.07342253 -0.045497835 -0.06718639 0.11756789
0001b0 00 75 09 3e 85 68 47 3d 59 8f 64 bd 9b 18 bc 3d
       0.13423538 0.048683662 -0.05580077 0.091843806
0001c0 61 11 13 3b 33 bc 2b 3c 5d 3f 69 bd 12 1b a8 3c
       0.0022440779 0.010481882 -0.056945194 0.02052072
0001d0 20 f2 bc bd 14 a0 02 be c8 90 5f bc 87 68 96 bd
       -0.09225869 -0.12756377 -0.013645358 -0.07344156
0001e0 d4 9f b1 bc 12 e8 12 3e 00 82 6d 3d 31 34 ab bc
       -0.021682657 0.1434634 0.057985306 -0.02089891
0001f0 1c 3c 62 bc 63 4b b8 3c ac 72 dd bc 1f b9 ba bb
       -0.0138082765 0.022496885 -0.027032219 -0.0056983377
000200 ab 32 9c bd 72 ce db 3c c8 fb 49 3d 25 5a 92 3d
       -0.07626852 0.02683184 0.049312383 0.071461
000210 90 f5 d0 bd 71 34 c0 3b d0 4d c3 3d 8f 94 a0 3d
       -0.10203087 0.0058656265 0.09536326 0.07840835
000220 26 45 c3 bd cc 3b a3 bc 28 b0 55 bd cb 85 ad bd
       -0.095346734 -0.019925974 -0.05216995 -0.084727846
000230 4d de d0 3d 72 f7 ea bb fb a7 0b bd dd 56 d8 bd
       0.101986505 -0.007170611 -0.034095746 -0.10563443
000240 00 50 34 3d 50 11 8f 3c d8 31 04 bd a8 59 36 3e
       0.044021606 0.01746431 -0.032274097 0.17807639
000250 2c 37 12 3d 96 b3 0f 3e b7 90 00 bd 55 68 78 3d
       0.035697147 0.1403335 -0.03138801 0.060646374
000260 72 15 0a 3d 65 6c 09 3d 52 c7 51 bc b0 f4 09 3b
       0.033711858 0.03355064 -0.012803869 0.0021050386
000270 c7 b5 bd 3d fa f9 2f 3c 91 f2 fb bd 76 f9 cf bd
       0.09263187 0.010740751 -0.12302125 -0.10155003
000280 c6 2e c8 3c ea e8 d5 bc 12 d5 d6 bb 5d 31 2e bc
       0.024436366 -0.026112039 -0.0065561617 -0.010631886
000290 9c 57 9e 3d 0d 44 26 be 03 79 92 3d 32 54 48 bd
       0.07731554 -0.16236897 0.071519874 -0.04890842
0002a0 12 46 58 bc 90 c1 42 bd 7e 00 48 bb 3d 9c 43 3d
       -0.0132003 -0.047547877 -0.0030517871 0.047756422
0002b0 c7 48 a7 bc db e0 13 bd d5 8f 00 3d 9e 26 d5 3d
       -0.020420445 -0.03610311 0.03138717 0.10407756
0002c0 f7 fd 68 3d 69 8d a8 bd 1f c7 ca bd 06 c5 fa bd
       0.056882825 -0.08230097 -0.099012606 -0.122446105
0002d0 44 60 68 3d 46 92 ca 3a d9 b4 29 3e ae 2d f1 bc
       0.05673243 0.001545497 0.16572894 -0.029440727
0002e0 31 1c 27 3d 39 fa ac bd ad 1d 1b 3e 2d 26 11 bd
       0.04079837 -0.08446164 0.15148039 -0.035436798
0002f0 31 c0 75 bd a2 67 7d bd f8 e3 21 bd 52 af 0b bb
       -0.05999774 -0.06186641 -0.03952405 -0.0021314216
000300 92 a3 b1 bc 8c 8a fe 3d ac a6 b2 bd 52 df c4 3d
       -0.021684442 0.124287695 -0.087231964 0.096129075
000310 14 e4 dc 3c e5 f1 54 bd 27 2d 96 3c 8a 40 2b 3d
       0.026964225 -0.0519885 0.018332077 0.041809596
000320 9b 1a 6d 3d 9d 51 a9 bd 0c d6 b8 3d 27 17 13 bd
       0.0578867 -0.082675196 0.09025201 -0.03591075
000330 df 37 af 3c 45 31 4a bd f1 32 02 3d 3d 01 42 3d
       0.021388946 -0.049363393 0.031786863 0.047364462
000340 26 b4 16 3e f3 fb b1 3c 15 03 56 bd a1 f1 a1 bd
       0.14717159 0.021726584 -0.052249033 -0.07907415
000350 b5 d5 f0 bc c0 09 df 3d c7 48 bb bd 99 3e cf 3d
       -0.029398778 0.108905315 -0.091447406 0.101193614
000360 2b 61 d7 3c b3 06 28 3e 15 91 08 3d 1d a4 a2 bc
       0.02629145 0.16408806 0.033341486 -0.019853646
000370 89 65 33 3d fc d8 15 bc fe 28 8a 3d 60 85 e8 3d
       0.043798003 -0.009145971 0.067461 0.11353564
000380 87 4f f3 3d 20 94 a9 bb 79 ee be 3c ea 25 a8 bc
       0.11880403 -0.0051751286 0.023307072 -0.020525891
000390 f3 e7 91 bb bc b7 aa b8 a9 64 54 3b 2a c2 06 be
       -0.0044526993 -8.140455e-05 0.003240863 -0.13160005
0003a0 a9 a4 48 bd 97 4a d3 3d e4 99 45 bd 90 0c b4 3d
       -0.048985157 0.10316961 -0.048242465 0.087914586
0003b0 5f 67 48 bd 0e 7c 9e 3d b9 8a 12 be e7 6f 63 bc
       -0.048926707 0.07738505 -0.14310731 -0.01388166
0003c0 a4 37 dc bc 72 70 6c 3c 86 d9 19 bc a6 c0 16 be
       -0.026882 0.014431106 -0.009390241 -0.14721927
0003d0 f7 90 9e 3d ea 3b a1 3b 6f e0 4d ba 7f f6 3d 3d
       0.077424936 0.0049204724 -0.00078535726 0.046377655
0003e0 2d 75 a7 bd 80 31 3e 3d 14 b8 3c 3b 7c 46 06 bc
       -0.081766464 0.046433926 0.0028796243 -0.008195516
0003f0 68 3a f2 bd 68 12 84 bc 4a 6b 73 3d 06 65 da 3d
       -0.11827546 -0.016122058 0.05942849 0.106638

weight f4 [256, 256]
000000 e6 90 1f bc f6 60 30 bc cb 07 3b 3c 2c 76 24 3d
       -0.009739136 -0.010765305 0.011415432 0.04015176
000010 96 60 0c bd 2d 04 2f bd 79 3e 40 3b fd 1f 4c 3d
       -0.0342718 -0.04272859 0.0029334112 0.049835194
000020 4f 5a 0c bd 45 e2 4f bd 3d 66 9a bb bc 0e f9 3c
       -0.034265812 -0.050752897 -0.004711895 0.030402534
000030 ba 7c 5b 3c 71 10 5d bd f1 19 04 3d 2d e0 77 bc
       0.013396436 -0.053970758 0.032251302 -0.015129131
000040 92 ed 8a bc a7 52 a8 3b 31 3d 00 bd 0e 51 c4 bc
       -0.016958985 0.005136806 -0.031308357 -0.023964431
000050 c3 07 88 bc 8d 5e a9 3c 15 f3 56 bc 89 16 54 bd
       -0.016605264 0.020674968 -0.013119479 -0.051779304
000060 cd 5d cd 3c 64 40 ed 3b 17 bf 95 bc 0e e7 59 3d
       0.025069142 0.007240342 -0.018279595 0.053198867
000070 28 95 1b 3d 9a 2a cb 3d 8d 8f 9d bc 0f 75 14 bd
       0.037984043 0.09920235 -0.01923349 -0.03624445
000080 68 42 83 3d d4 3e 14 bd 89 6d 3d 3c 3e 4e 95 3b
       0.0640915 -0.03619273 0.01156176 0.0045564463
000090 5a bc ef 3c 04 cc 06 bc 59 21 eb bc 97 a8 31 3d
       0.029264618 -0.008227352 -0.028702425 0.04337367
0000a0 13 d8 a1 bd 9a d7 19 bc 3f 8b 0c 3c 24 5f 0f bc
       -0.07902541 -0.009389782 0.008578121 -0.008750711
0000b0 87 66 2e 3d a3 d4 1d bc e1 3b c4 3c 02 0b a0 3d
       0.042578246 -0.009633216 0.023954334 0.078145996
0000c0 37 55 28 3d de c4 c9 3c c0 49 08 3d 22 db 39 3b
       0.041096892 0.024630006 0.03327346 0.0028359373
0000d0 c6 54 87 bc 9d 4b 81 3c 41 12 c2 3c f6 64 2e 3d
       -0.016519915 0.015783126 0.023690345 0.042576753
0000e0 b7 15 0b 3d 7d 83 c4 bb 96 f1 dd bc 80 b0 83 3b
       0.033956256 -0.00599712 -0.027092736 0.004018843
0000f0 0f e6 dd 3c 19 29 1d bd 96 dc eb bb b4 54 a5 bc
       0.02708724 -0.038369272 -0.0071979268 -0.020181991
000100 37 d7 14 3c 0e 40 46 bd e0 ec 38 3c f2 5f 09 3d
       0.009084514 -0.04840093 0.011286944 0.033538766
000110 40 70 75 bc 52 98 94 3c f5 bd d4 bc 0c 00 05 3d
       -0.014980376 0.018139038 -0.025969485 0.032470748
000120 79 fa 10 bd bd 23 1b bd 0e d4 ea 3c 46 bf a0 3d
       -0.03539512 -0.03787588 0.028665569 0.078489825
000130 a6 11 6d 3b 8d 82 07 bd b2 7f ce 3c c4 96 ce 3b
       0.003617385 -0.033083487 0.025207374 0.0063045938
000140 98 d3 c9 bc f1 02 02 3d c9 78 29 3d 56 47 b0 bd
       -0.024637029 0.031741086 0.041374955 -0.08607356
000150 64 b8 40 3c 2f 53 ab 3c ee b8 15 3b 5a 99 04 3c
       0.011762712 0.020913688 0.0022845822 0.0080932025
000160 79 3b 81 3d 38 13 a6 3c fb 11 89 bc c5 d3 1f bd
       0.06310172 0.020272836 -0.016732207 -0.03902032
000170 aa ec a5 3c a2 0d 6d bc 62 e0 1a 3d 39 66 59 3c
       0.020254452 -0.014468582 0.037811644 0.013269001
000180 14 4a 20 bd 73 26 31 bc 24 1a 5c bc ed e6 79 bd
       -0.039133146 -0.01081239 -0.013433967 -0.061011244
000190 02 de 0a bd ff ca 63 bd 47 1f 02 3c a7 17 5f bc
       -0.03390313 -0.055613514 0.007942027 -0.013616479
0001a0 a4 82 a3 bc 80 d6 9c 3a 46 a4 fe bb 77 1d a6 bc
       -0.019959755 0.0011965781 -0.0077710478 -0.020277722
0001b0 c3 bc 69 bd 12 2e 31 bd 3e 61 b0 bd e8 c1 06 bd
       -0.057064783 -0.043256827 -0.086122975 -0.032899767
0001c0 b0 2f 08 3e 96 7a 23 3c 27 0f 09 3d 05 ea 80 3d
       0.13299441 0.009977957 0.033461716 0.06294636
0001d0 63 35 3c 3c 70 00 b3 bc 3f 05 59 3d e5 dc 05 3c
       0.011487338 -0.021850795 0.05298352 0.008170341
0001e0 5e 96 c3 3b d9 c9 05 bd 4b ba 6e bc c8 82 a3 bc
       0.005968853 -0.0326632 -0.014570783 -0.019959822
0001f0 a9 44 59 3c 1b 71 ad bc 17 92 83 bc b7 48 76 bc
       0.013260999 -0.021172097 -0.016060872 -0.015031985
000200 85 01 64 3c ec 8e 0f 3c 28 ec 09 3d 8d a6 a8 3d
       0.013916378 0.008762103 0.03367248 0.08234892
000210 0f 2c 00 bd 4d 6b 10 3d a3 d7 c1 bc 17 68 0c 3d
       -0.031292018 0.03525858 -0.023662394 0.034278955
000220 4e b0 a3 bc e8 bb 5c bc 8e 18 07 bd 85 ba ae 3a
       -0.01998153 -0.013472535 -0.0329824 0.0013330734
000230 b5 52 63 bc d6 e1 9c 3c 84 b9 fa bb cc 0c ab bc
       -0.013874699 0.019150656 -0.0076515097 -0.020880125
000240 48 a1 46 3d fa eb 29 bd 92 f2 81 bd 9e 87 fa bc
       0.048493654 -0.04148481 -0.06345095 -0.030582245
000250 00 bb 11 bd 3d 7b b3 bc 94 d0 e1 b9 8f 1c d9 3c
       -0.035578728 -0.02190935 -0.00043070747 0.026502876
000260 78 0a 54 bc ef 21 ab bc 81 06 16 3d e3 47 33 bd
       -0.012941949 -0.020890204 0.036627296 -0.04376973
000270 71 14 5f bc 25 28 07 3c 9a 8e 67 bc 6e e2 00 3d
       -0.013615713 0.008249317 -0.01413312 0.03146594
000280 5f 80 31 3d 0a 78 79 3c 6f 56 a0 bc 9a f3 4b bc
       0.043335315 0.015226373 -0.019572465 -0.012448216
000290 8e 2c 34 3d 94 99 03 bc 41 c2 f1 bc 47 0e aa bd
       0.043987803 -0.008032221 -0.029511573 -0.083035044
0002a0 a8 45 82 bc 49 0a 29 bd 63 5c 3c 3d 1c c6 60 3d
       -0.015902355 -0.041269574 0.045986544 0.05487643
0002b0 5b 13 ad 3c fd 2d 08 3d 55 8f dd 3b 63 de ad 3b
       0.021127393 0.033246983 0.0067614713 0.0053060516
0002c0 26 04 08 bd 74 a9 ee bb 56 e0 15 3d b2 fc 04 3d
       -0.03320708 -0.007283384 0.036590897 0.03246755
0002d0 b0 69 fb ba e6 f6 d9 bc b8 1f 0c 3c 99 df 90 3b
       -0.0019181278 -0.026606988 0.008552484 0.004421186
0002e0 e1 17 81 3d 0a 9b df 3c 5a d4 81 bc 30 ee 82 3c
       0.06303383 0.027295608 -0.015848327 0.015982717
0002f0 22 7f 03 3c 0e b8 85 bc 81 64 ea 3b b9 17 05 bd
       0.008025916 -0.016323116 0.0071530943 -0.032493327
000300 b0 25 2d 3c c5 d2 94 bb 75 89 5a bd 12 f3 2a 3a
       0.010568067 -0.0045417272 -0.053353745 0.00065212057
000310 2b 96 8f 3c e7 b1 9d bc 68 a5 85 3c 6e 5d 65 bc
       0.01752766 -0.01924987 0.016314223 -0.013999326
000320 83 c7 1b bd 2a 19 4c 3c 2e 20 26 3d a3 8b ac bc
       -0.038032066 0.012457171 0.040558033 -0.021062678
000330 a2 8a de bc 52 39 0b 3d ad 36 de bc 7e c1 eb 3c
       -0.027165715 0.03399021 -0.02712568 0.028778788
000340 4e 1a 69 bd 9f ed 8e 3c 42 ad 52 3d ec 1f 4e bc
       -0.05690985 0.017447291 0.051434763 -0.012580853
000350 5b fa 95 3c 3e d0 57 bc d3 06 4b bc 60 d5 50 bc
       0.018307855 -0.013172207 -0.012391764 -0.012746185
000360 4e 8f 83 3d 25 af 77 bc 5b 17 8f bc 5e 25 b0 bd
       0.064238176 -0.015117441 -0.017467191 -0.08600877
000370 a8 6b ab bb 2a eb 4d 3d 8a 82 87 3c 75 2e 10 3c
       -0.0052313395 0.050273098 0.016541738 0.008800139
000380 7b 48 ac 3d fb d4 fb 3b 66 52 0a 3c 30 6d 42 3d
       0.08412262 0.0076853014 0.008442497 0.04746741
000390 5b 1a 84 3b 37 e6 69 3d 3e f0 e1 ba 8d 2b 47 bd
       0.004031462 0.057104316 -0.0017237735 -0.048625518
0003a0 cb 10 63 bd 28 19 02 3d c9 24 8f bc 5c 24 9e 3c
       -0.055435937 0.031762272 -0.017473595 0.019304447
0003b0 45 99 aa bb 76 7c b2 3c 0d 4a 49 bd 18 e8 b0 bb
       -0.0052062594 0.021787863 -0.049142886 -0.0053987615
0003c0 76 91 e8 bc 60 b4 26 3d 27 fd a9 bb 64 1a 3d 3c
       -0.028389674 0.040699363 -0.005187649 0.011541937
0003d0 21 b6 68 3c 42 52 9b bb ab a8 8c 3c f5 ea 45 bd
       0.014203579 -0.0047400305 0.01717027 -0.048319776
0003e0 d2 99 0d bd e3 c6 80 bd 05 91 0c 3d 7e dd a9 3b
       -0.034570523 -0.06287935 0.03431799 0.0051838746
0003f0 4f ce a4 bc cf 35 04 bd 05 32 03 3c e0 92 a0 bb
       -0.020117907 -0.03227788 0.008007531 -0.0049003214

bias f4 [256]
000000 ab c7 d9 bc 7a 05 a3 3b b5 f8 9b bc da 45 2f 3d
       -0.026584467 0.004975018 -0.019039491 0.042791225
000010 62 a7 49 3d 75 65 26 3d cd 86 34 bc 63 b7 b5 ba
       0.049231894 0.0406241 -0.011018467 -0.0013863858
000020 e3 d2 ef 3b e2 73 88 3c cd 87 c1 ba c6 54 bb 3b
       0.007318841 0.01665682 -0.0014765203 0.005716893
000030 de 7d 26 3d 33 ab de 3b 03 95 8a 3d 2a 0f cf 3c
       0.04064738 0.006795311 0.06766703 0.025275785
000040 40 21 42 bd 2c 0e 3b 3c 41 78 a4 3b dd 58 9d 3b
       -0.04739499 0.011416953 0.005019218 0.004801853
000050 14 92 c6 3c 02 31 51 bd 91 78 97 bb ba 3c e1 39
       0.024239577 -0.051072128 -0.004622527 0.0004296059
000060 fe 7f a9 bb eb e0 0b 3d 7e be b5 ba ca e2 0f bd
       -0.0051727286 0.034150045 -0.0013865975 -0.035128392
000070 e0 9b a8 3b 68 a4 29 3d ea 83 9c ba bb e6 4a bb
       0.005145535 0.041416556 -0.0011941169 -0.003096028
000080 17 04 43 3b 73 9b 00 bd b4 83 1f ba 40 55 0f bd
       0.0029757076 -0.031398248 -0.0006084994 -0.03499341
000090 f3 de 10 3c f9 93 4a bb 46 3d 4d 3d 0e c9 00 3d
       0.008842218 -0.0030910952 0.050107263 0.03144174
0000a0 45 5b a3 3c f8 e6 fa 3c 7d 87 31 bb 42 e9 d0 3b
       0.019940982 0.030627713 -0.0027088814 0.0063754627
0000b0 bd 31 e3 bc 30 51 a8 bb ba 5a d3 3a 77 5c 2b 3c
       -0.027733678 -0.0051366314 0.0016125061 0.010459057
0000c0 ec ed 11 3d 02 be 44 bc c6 a1 e2 3b 52 72 50 bc
       0.03562729 -0.012008192 0.0069162576 -0.012722569
0000d0 63 70 9d bc ba cd 08 3c a9 5d 20 bc dd 97 70 3c
       -0.01921863 0.00834983 -0.009787955 0.0146846445
0000e0 9f 52 2e 3a 9e b6 ae bc 33 10 29 bd 24 63 5f bb
       0.0006649885 -0.021327313 -0.041275214 -0.0034086192
0000f0 68 f4 85 3c 22 d2 13 bc a9 fc 0f 3d 8d 67 f7 bb
       0.016351894 -0.009022268 0.035153065 -0.007550186
000100 e6 d6 34 bc 27 f0 26 3d 4d e2 41 3c 97 23 de bc
       -0.011037564 0.04075637 0.0118337395 -0.02711658
000110 94 c0 08 bd a2 54 92 3d 15 ad e6 bc 5f 50 f4 bb
       -0.03338678 0.07145049 -0.028158704 -0.00745587
000120 34 d5 18 bd 4e f5 8b bb 97 b9 03 bd 83 7c 27 3d
       -0.0373127 -0.004271186 -0.032159414 0.040890228
000130 39 6c 51 bd 26 1d a9 3d 06 17 67 bd 7b d2 ad bc
       -0.0511286 0.08257513 -0.05641844 -0.021218529
000140 cc f2 d1 bc f4 66 12 bc c6 3e 1e 3d 95 6f ae 3c
       -0.02562847 -0.008935679 0.038634084 0.02129344
000150 e1 cc e0 3c 61 d1 ac bb fb f2 f1 bb d5 07 52 bd
       0.027441444 -0.0052739833 -0.007383702 -0.051277
000160 d0 a4 d7 bc ce 76 f7 3c 29 f3 b3 bb 9b c4 81 3c
       -0.026323706 0.030208018 -0.0054916334 0.01584082
000170 51 5c 05 bd 1c f3 8a 3c ec da 1b ba 73 98 32 bc
       -0.032558743 0.016961627 -0.00059454027 -0.010900605
000180 df 1e 7a 3d 72 99 d7 3c 9b f0 2b bb 60 8c 8e bc
       0.061064597 0.026318286 -0.0026235941 -0.01740092
000190 39 9b 29 bc 43 06 00 bd 35 e1 85 bc b0 16 7b bc
       -0.010351949 -0.03125597 -0.016342739 -0.015325233
0001a0 61 5b 7c 3d 16 a1 d1 3b ae d8 a8 ba 6a 02 86 3c
       0.061610583 0.006397377 -0.0012881958 0.016358573
0001b0 2e 19 e1 bc bd 8d d1 bc 94 e4 d2 3c 01 08 07 3d
       -0.027477827 -0.025580281 0.02574376 0.032966617
0001c0 a6 1e f2 3c fc a4 83 bd f6 ba 0d bd 9f 40 67 3c
       0.02955563 -0.06427953 -0.034602128 0.014114528
0001d0 53 6d 70 bc 58 f5 99 bc 0b 6b d1 3a 96 ad 84 bd
       -0.014674502 -0.018793747 0.0015977336 -0.064784214
0001e0 d5 45 5d 3c e9 b4 2f 3c 91 75 08 3d 18 a9 e2 bb
       0.013505419 0.010724285 0.033315245 -0.00691713
0001f0 66 8f 0f 3d 05 24 d9 bb 28 64 a9 3c 33 1d 1d 3d
       0.035048865 -0.0066266083 0.020677641 0.038357925
000200 1b 33 e0 3c b0 ef c9 bc 95 9e 59 bd 28 18 8c 3d
       0.027368119 -0.024650425 -0.05312975 0.06840545
000210 ed f5 2d 3d 4f a0 11 3d 05 29 eb 3b 1f cd 0c bc
       0.04247086 0.035553273 0.007176521 -0.008593827
000220 52 5a 4f bd a6 45 b4 bc 30 3e 4a bc a3 3d 9f 3b
       -0.050623246 -0.022005867 -0.012343928 0.0048596426
000230 24 79 5d 3b 27 58 26 bc 2f 44 3f 3d 82 e8 23 3d
       0.003379413 -0.010152853 0.046695884 0.04001666
000240 d3 96 0e 3c 22 03 92 3c 53 82 ba bc 7e 69 ed bc
       0.0087029515 0.01782376 -0.022767222 -0.028980967
000250 f1 3e af bc 4f 33 90 b9 ef 77 98 3c ce 8b f7 3c
       -0.021392317 -0.00027504048 0.018611876 0.030218031
000260 d2 85 b2 3c 7b b7 33 3d 84 f3 65 3d ee 87 c9 3b
       0.021792326 0.043876152 0.056140438 0.0061502373
000270 a2 ff 61 3b d0 de f0 bc ec c8 54 bc ce 74 63 3c
       0.0034484644 -0.02940312 -0.012987357 0.013882829
000280 a2 ff cc 3c bd 31 84 3c 88 23 9c 3b f7 2f 9d bc
       0.025024239 0.016136998 0.004764978 -0.01918791
000290 b4 18 14 bd 12 8f 3d bc 83 bb 4f 3c 03 a3 37 bc
       -0.03615637 -0.011569755 0.012678984 -0.011208299
0002a0 21 6d f0 3b 48 07 d0 bc bd 86 7a 3c 67 ba 72 bc
       0.007337228 -0.025394097 0.015290913 -0.01481495
0002b0 c1 d0 44 3c 4b c7 53 bc 9b a3 6b bd bd d8 17 3d
       0.012012661 -0.012925933 -0.057529073 0.037071932
0002c0 3b 44 bb 3c dc 4c f0 bc 97 d8 ca bc 3d ea d4 3a
       0.022859683 -0.029333524 -0.024761481 0.0016244125
0002d0 8b c8 26 bc c1 38 b8 bc d5 a3 64 3b fb 9b 05 bd
       -0.010179649 -0.022488 0.003488769 -0.032619458
0002e0 33 73 7b bd be 1d 88 bb 23 c7 5e 3d f8 8e 0d bd
       -0.06138916 -0.004153936 0.05438913 -0.034560174
0002f0 08 af e8 bb 77 69 cf 39 75 4f 14 bd 84 16 c2 3b
       -0.0071009435 0.00039560694 -0.03620859 0.005923094
000300 ea c2 1b bd 74 f8 1b 3d d7 91 b8 3b 93 58 14 3d
       -0.03802768 0.03807874 0.00563262 0.036217283
000310 2b 45 db bc 04 94 01 3d 29 5f da 3c 01 ae ac bc
       -0.02676638 0.0316353 0.026656704 -0.021079065
000320 84 71 92 bc ca 8f 70 bd 42 29 95 3c ba 70 c0 3c
       -0.017876394 -0.058730878 0.01820815 0.023491252
000330 b5 d1 01 bc bc 89 5b bd 7e 27 3d 3a 6e 3b 9d bc
       -0.007923533 -0.05359815 0.00072156626 -0.019193377
000340 ac 72 a8 3c 88 b9 05 bd e9 a9 3b bc 01 5f 93 bb
       0.020562492 -0.03264764 -0.011454084 -0.0044974093
000350 fd 7d 2d 3c 3c e7 1d bd 76 dd b4 bc 57 a7 2c 3d
       0.01058912 -0.0385506 -0.022078257 0.042151775
000360 2b 4a 30 bd b1 20 e6 bc 3f 39 8e 3c ba f4 fe bb
       -0.043039482 -0.02809176 0.017361281 -0.0077806385
000370 fd 43 b2 bc 8a 4e 4a 3d 81 7b 70 bc c0 a6 9a bc
       -0.021760935 0.049391307 -0.014677883 -0.01887834
000380 d2 56 c9 bc a1 5c a3 bc 74 fd 00 bd e0 54 db 3c
       -0.024577532 -0.01994163 -0.03149171 0.02677387
000390 13 f3 38 3b 27 de 53 3d 5d cd 3e 3d 41 95 02 bc
       0.0028221055 0.051725533 0.04658257 -0.007970155
0003a0 51 67 19 bd 18 6e a4 3c 7c bc 94 3d db a6 5e 3c
       -0.037452046 0.020072028 0.07262513 0.013589586
0003b0 44 5b 23 3d a9 79 26 bc f2 46 f9 bc bd 42 e1 3b
       0.03988196 -0.010160842 -0.030429337 0.006874411
0003c0 19 6a 83 bd 1d 6c ab bb 48 fb c3 3a d2 14 3e 3c
       -0.06416721 -0.005231394 0.0014952207 0.011601644
0003d0 1c c0 cb ba 5e f4 35 3c 45 92 bf bc ab e4 80 bc
       -0.0015544924 0.011105625 -0.023385176 -0.015734037
0003e0 d6 a0 2d 3d 22 ab 7a 3b 15 be f0 3c 08 b0 af 3c
       0.042389713 0.0038248976 0.029387513 0.021446243
0003f0 68 2e e1 3b be ba d3 bb fa 78 a3 bc 18 63 03 3d
       0.006871987 -0.0064614704 -0.019955147 0.032076925
