output/2023-09-24-20-37-59/trained_model/tetris_epoch3049_score11500.pt (torch, 842187 bytes, 8 tensors)

weight f4 [32, 1, 4, 4]
00000000: 65d7 873d adf5 8d3c a579 91bc 20d4 e93b
00000010: bb25 f6bc c76a 763d 6765 f7bb 34d3 4e3d
00000020: d029 42be 819a 093e 7be9 443e bb67 313b
00000030: 7670 a03d d7a6 153e 41f5 263e 3b57 20bd
00000040: 8134 d03e 1373 cfbc 71c9 13bf 70e8 84be
00000050: bdd4 b3be b7d2 743d e75e 4fbe b52e 94bb
00000060: 94bf ee3d 0d23 c4be 250c ea3a 19b3 b6be
00000070: 5181 0cbe 60f1 593c 3749 d33d 7704 1ebf
00000080: 01ed 843d 20c7 5d3d 8845 41bf 3fe7 3abe
00000090: e5eb 7ebd b536 8cbe 28e1 113e 4db1 93be
000000a0: 8643 ad3d fa39 983e eb89 803d e463 4dbd
000000b0: 62da bebd 3a3e 08be 7972 f2bd badc b9bd
000000c0: 6a97 59be 2efb d2be ce3e 32bd 4cf0 9c3c
000000d0: f677 153e a0af e6bd 52f9 7d3e 1303 d43d
000000e0: d063 22be 540a c43d e241 eebe 41a7 8a3d
000000f0: fe70 53be 908f b5be ecf1 d9be 05a5 113e
00000100: 4ef6 eebd bace 2ebf 743c 17bd fcaf 00bd
00000110: a433 963d 6f4e d43d 7697 003e 3e0f 693d
00000120: 0cee 8a3e 4612 68bf 0e84 9f3e 59df b2bc
00000130: 7711 42bd 41d7 b0bd 4759 7cbb 2b68 6abc
00000140: 95b5 d23b c1d3 883d 12f1 17be 72b0 72bd
00000150: fb80 843c c09e ebbc 41ad a23e 23d7 503f
00000160: 300a b63c 3da0 1f3c 080d 98be 33ed 3dbf
00000170: f24a 70bc 44d5 22bd 4ddb ffbd 3cca 1cbd
00000180: af2b 5d3d 7282 e73c c1aa 103e 596b 943e
00000190: d6c0 913d 78eb a1bb 8337 673e 1e01 fbbe
000001a0: 502a cb3d d91f 9e3d c57a 3d3c 65e8 1dbf
000001b0: 4540 5cbd 89c3 e6ba 68ec 703d d11e 89be
000001c0: e7c0 923c 7243 9fbb f62f 233e acec 5abe
000001d0: dca0 8f3d 957d ae3d 489c 37bf aab9 f5be
000001e0: 559d c1bc 498b a93d c8bb abbe 968c 41be
000001f0: f13e 6cbc 600e 4c3e af44 9ebe 1d7c 10bf
00000200: da71 debd ae13 413d 1dd0 adbe 5509 24be
00000210: fcc9 0a3e 762c 563e 7881 1c3e 8055 7fbe
00000220: 7e5a 4ebd 94f6 0a3e 175e b0be 2805 53bf
00000230: cb7f fd3d 4c36 91bd fb7c a9bd caa1 0e3d
00000240: 1620 b9bd 5f94 763c 6d95 1d3c 2de7 743d
00000250: 13a1 d7bd 9221 38be fe36 eabe e725 aa3c
00000260: d286 eebd ee43 f03e 1618 583e 886e 2abd
00000270: fb62 823d f129 78bf 16de b93d ebb7 da3c
00000280: 7638 103d 3603 96bd 482b 5ebd 8266 85bd
00000290: b349 a9bc f052 7c3d 7cdb 8abe 7006 fabb
000002a0: 0a7e 74bd ae6f d23c e38b 173f 2faf 8ebd
000002b0: 0633 4abc 0754 01bd 4723 36bf 6068 f8bb
000002c0: 1ab9 5dbe 4c8f adbe 1501 a5be 5605 febd
000002d0: c3f2 76bd d26c 8cbe 99c6 513b 83a1 673e
000002e0: 9f67 56bd ed7d 373d ddf9 093e 6493 19bf
000002f0: 030a 373d 6d6a 1bbd 3111 ca3d 5de9 e3be
00000300: 9787 0c3e 1814 bdbd f460 70bc 8426 d2bd
00000310: 690a 0b3b 8b23 033f 65f7 6ebd 7cd6 01bd
00000320: 456c 4e3d 2dc7 0dbf c8dc 693e 75d9 b5bc
00000330: e4fb ecbd c91b 06bf 4085 2abe f4a3 4b3c
00000340: df44 a8bc 4443 49bd 9765 8dbc 6214 863c
00000350: f997 bd3b 4afd 253e 5ac3 e73d 22b8 d43a
00000360: b893 853d a308 663f 7ad0 a7bc 6bea 393d
00000370: 3643 36bc e4ce b3bf f23d a73d 4131 72bc
00000380: 3a3c b83c ea5b ff3e e99a 3c3d 3796 773b
00000390: 22e0 83bb 8cd9 3f3f 5e3e 97bc fef3 84ba
000003a0: 6650 113c 7ff3 a4bf 1146 af3b b2cf c3bb
000003b0: cef4 0fbd b540 2dbd 5ec2 15bd 25ee fcbc
000003c0: af35 84be b41a 56bd 4ce5 f13d abb1 f2bd
000003d0: 4b4d 99bd 8cfa 72be 34ee 63bd 67f2 00bd
000003e0: c86b 1e3e 4229 2d3e 8081 ec3d 14cc 113e
000003f0: ca33 aebb 21e2 c23d 06cf 8cbc 0b06 103e
0.0663288 0.017329061 -0.0177582 0.007135883 -0.030047288 0.060160425 -0.00754993 0.050494388
-0.18961263 0.13437845 0.1922969 0.0027069885 0.0783395 0.14614426 0.16304494 -0.03914569
0.40665057 -0.025323426 -0.5772925 -0.25958586 -0.35123244 0.059771266 -0.20251046 -0.0045221695
0.116576344 -0.38307992 0.0017856403 -0.35683516 -0.13721205 0.013302177 0.10316699 -0.6172556
0.064905174 0.05414498 -0.7549672 -0.18252276 -0.062236685 -0.27385488 0.14246047 -0.28846207
0.08460145 0.29731733 0.06276306 -0.05014409 -0.09318997 -0.13304988 -0.1183824 -0.090753034
-0.21249166 -0.4120726 -0.043516926 0.019157551 0.14596543 -0.112639666 0.2480214 0.10352149
-0.15858388 0.095722824 -0.4653464 0.067701824 -0.20648572 -0.35461092 -0.42567384 0.14223106
-0.11668073 -0.6828419 -0.036922887 -0.03141783 0.073340684 0.103665225 0.12557778 0.0568993
0.2713474 -0.90652883 0.31155437 -0.021835016 -0.047379937 -0.086348064 -0.0038505362 -0.014307062
0.0064303377 0.06681014 -0.14838055 -0.059250303 0.016174784 -0.028762221 0.31772807 0.8157827
0.022221655 0.009742794 -0.29697442 -0.7419006 -0.014666306 -0.039754167 -0.12493 -0.038278803
0.053996738 0.028260443 0.14127637 0.2898815 0.07116859 -0.0049414 0.2257977 -0.4902429
0.0992018 0.07720918 0.011564915 -0.6168273 -0.05377223 -0.0017605881 0.058819205 -0.26781324
0.017914249 -0.004860335 0.15936264 -0.21379346 0.07013103 0.085200466 -0.7172284 -0.47993213
-0.023634592 0.0827852 -0.33541703 -0.18901286 -0.014419303 0.19927359 -0.30911776 -0.5643938
-0.10861559 0.04713791 -0.3394784 -0.16019185 0.13553613 0.20915398 0.15283763 -0.2493496
-0.05037927 0.13570625 -0.34446785 -0.8242974 0.1237789 -0.070904344 -0.08275791 0.034822263
-0.09039323 0.015050023 0.009618145 0.05979078 -0.10528769 -0.17981556 -0.4574508 0.020770026
-0.11646809 0.46926826 0.21102938 -0.041609317 0.06366535 -0.96939 0.09075563 0.026699027
0.035210095 -0.07324831 -0.054240495 -0.065136924 -0.020665025 0.061602533 -0.27120578 -0.007630162
-0.059690513 0.025688019 0.59197825 -0.06967007 -0.0123412665 -0.031574275 -0.7114758 -0.007580802
-0.21652642 -0.3389839 -0.32227388 -0.124033615 -0.06029011 -0.27426773 0.0032009243 0.22620206
-0.052344915 0.044797827 0.13474222 -0.59990525 0.044687282 -0.037943292 0.0986656 -0.4451398
0.13723598 -0.09232348 -0.014671553 -0.102612525 0.0021215922 0.5122611 -0.058341403 -0.03169869
0.050396223 -0.55382043 0.22838128 -0.022198418 -0.11571482 -0.52386147 -0.16652393 0.012429226
-0.020540653 -0.049136415 -0.017260356 0.016367141 0.005785939 0.16209903 0.11316557 0.0016229192
0.06522316 0.8985693 -0.020485152 0.045389574 -0.011124423 -1.4047513 0.08166112 -0.014782251
0.022489656 0.49874812 0.04604617 0.0037778744 -0.0040245214 0.74941325 -0.018462356 -0.0010143516
0.008869266 -1.2886809 0.0053489287 -0.005975687 -0.035145573 -0.042298038 -0.036562316 -0.030875275
-0.25822207 -0.05227156 0.11811313 -0.11850294 -0.074854456 -0.23728389 -0.05564709 -0.031481173
0.15470803 0.1691027 0.11548138 0.14238006 -0.0053162323 0.09515787 -0.01718856 0.14064805

weight f4 [32, 32, 5, 5]
00000000: e3d6 453e be7d 3dbe c0b2 983d 805c c53d
00000010: b1ab 0e3e abfa 323e 6519 80be 55e9 a63c
00000020: ee52 80bd d79e 88be 9e44 513d ec97 d6bd
00000030: 2c77 833c 5a57 8cbe 3762 d43c 342f 8bbd
00000040: dd57 08bf cc36 a6be 9aa0 34bc 87d4 63be
00000050: 3de2 6c3d a2cf a83d 367b 24be a463 733d
00000060: f54e cb3d 4cf3 5d3e 028c 69be c6e2 3b3e
00000070: 8b2a 833e 451a c03e 64d3 543e 130d d73e
00000080: 878a 2fbe b3e3 8cbd 239f 963d 1023 2a3e
00000090: 3d4f eabe 16b7 c7be 3248 1f3e 418e aabe
000000a0: 4969 e6bc ad90 003e 7e3c 6cbd 072b 113c
000000b0: 3315 b3be efed 47be bfc4 043f 5c4b 80bc
000000c0: 12d8 4a3e afbf 543e 8d94 9c3d 7ac7 7abe
000000d0: 1c4e 293e 13a4 393d cb4d 6a3e 6633 b63e
000000e0: ede5 0e3e 10b5 91be e09a 08bf df47 8cbe
000000f0: 4010 d5bc 6e3c 183e d3f6 4fbc da9c 54be
00000100: 4466 2b3d ecd4 763e fa49 dbbe 04cf e73d
00000110: 309a cf3d 1078 4ebe 2dd7 edbb 34d4 7abe
00000120: e37d 823c 5ca7 babe 2258 9f3e 3f4f b1be
00000130: dc43 b6be 53a4 803e df86 39bf f973 623e
00000140: 4b02 f8be 4fca 2c3e 8f35 bd3d bb7b e4be
00000150: bb0d 70be f681 22bf 5051 55be 4799 50be
00000160: 9914 cc3c a573 23bf 6b3c a8bf 1027 413e
00000170: e2f4 edbe eba2 be3d 74f3 3f3e 9ef4 b5bd
00000180: 6b00 443e d766 f1bd 67af bd3e 35d5 8abe
00000190: b80d adbd 4258 af3e ee5a 933d 0149 483f
000001a0: 3af6 34bf 8e15 0ebf 6223 d53e 8aae a73c
000001b0: 329b d93d d051 153d fe45 eabe a882 933d
000001c0: 7772 483e 7cbf 5dbe 3de8 233f 8074 a3be
000001d0: 3f0f fdbd a70f f8be 3961 69be a72f a3be
000001e0: 9e20 f73d 1111 2a3e ab66 233e 37bf 04be
000001f0: 168a b4bd 9729 d7bd f137 253e 9433 16be
00000200: 68f3 3f3d 3584 0abd 4af2 12bd df0a 02be
00000210: 01d4 313e 29e2 443d a30d 35be 6c94 ddbc
00000220: 2ed6 4cbd 8ed9 6cbd 6742 7dbd 6b24 61be
00000230: 6305 ffbe 811e 8abf 9800 03bf ea42 09be
00000240: 7986 09bf cee9 893c 3569 c6bd cfc3 c5bc
00000250: e881 7abe 2bb2 eabe a232 d83e ef55 f03d
00000260: ac33 acbb fd0e eebe 58e9 dcbe 84a7 6b3e
00000270: 9df2 243e eccc c7be 2366 e33c 9441 86bf
00000280: c302 023d ecaa 813e 1c8b 97be b7c7 643e
00000290: 44f6 d03d be75 b8be d64d 62be a1d6 9fbe
000002a0: 6be4 4c3d 8ca3 a3be aac0 783b 3553 163d
000002b0: 1720 ce3d 5c45 893e d0e7 363e 8df3 0fbe
000002c0: 8aa7 09bf f4a4 043f cc84 5fbe b41e 81be
000002d0: 92ad 103e b414 2e3c cfe1 dd3d 6322 5c3e
000002e0: 3f51 8abf f5d1 843e 2f0c b6be 87bb 93be
000002f0: 24ad 233e 93c8 e4b9 ebda 8f3e 3e69 96be
00000300: 9c2e f9bd 3889 db3d 50a4 e63e 4592 a7be
00000310: cbe8 6fbe 4d39 8fbd 21be 843e 5d9b 133e
00000320: 8d65 703e 2eaf 05be 460a 773e 3b7f 923e
00000330: 3fd9 8b3e 350c 3fbf 4af8 95bc c9d1 19be
00000340: d3b7 0e3d 04fe c0bd 4be3 0dbf 691a 463e
00000350: d7fd 2dbe 314b 983d 6935 24bf 02b3 f5be
00000360: d13c a5be 73b8 67be 58cd 683d 2436 ce3d
00000370: 9c3a 7dbe 41ab 943d c767 c33b c660 a4be
00000380: e3e3 ae3e f3af da3d 1b89 973d c14c 81be
00000390: 1e0c 07bd 885a fbbb 23c2 dbbe 4d41 393d
000003a0: a23e 4fbe 83c3 14bf 2280 4abe 680a 59bf
000003b0: 3e4d fbbd 030d a6bd a43d 8c3c 272d a7be
000003c0: ab82 a7bd db84 983e 4da3 ccbe e758 7e3d
000003d0: 064b 25bf a96c 5bbe 27b5 333e 36bf 013e
000003e0: ba50 9bbd 4ac1 1f3e ab8d c33e 643a 49bf
000003f0: 8ade 1bbd 5a62 523e a1a3 93bc d416 1fbf
0.19320254 -0.18504998 0.07455969 0.096367836 0.13932683 0.17478435 -0.25019374 0.020374933
-0.062658176 -0.26683685 0.05109083 -0.104781955 0.016048037 -0.27410394 0.025925739 -0.06796113
-0.5325907 -0.32463682 -0.0110246185 -0.22249041 0.057832945 0.08242728 -0.16062626 0.059421197
0.09927169 0.21674842 -0.22807315 0.18348226 0.25618395 0.37520042 0.20783764 0.42002162
-0.17142688 -0.06879368 0.07354572 0.16614938 -0.4576358 -0.3900687 0.15554884 -0.33311656
-0.028126376 0.1255519 -0.057674877 0.008860356 -0.3497711 -0.19524358 0.5186271 -0.015660934
0.19808987 0.20776246 0.07645521 -0.24490157 0.16533703 0.04532249 0.22881238 0.3558609
0.13954897 -0.28458452 -0.5336132 -0.27398583 -0.026008725 0.14866802 -0.012693125 -0.20762959
0.041845575 0.24104661 -0.42829877 0.11318782 0.10136831 -0.20162988 -0.007258317 -0.24495012
0.015929168 -0.3645581 0.31121927 -0.34630772 -0.35598648 0.2512537 -0.7247142 0.22114553
-0.4843925 0.1687405 0.09238731 -0.4462565 -0.23442738 -0.63479555 -0.208318 -0.2037097
0.024912165 -0.63848335 -1.3143438 0.18862557 -0.46475893 0.09308418 0.18745214 -0.08884548
0.19140784 -0.11787193 0.37047884 -0.2711579 -0.08449882 0.34247023 0.07195078 0.78236395
-0.7068821 -0.5550164 0.41628557 0.020468969 0.10625304 0.036454976 -0.45756525 0.07202655
0.19574915 -0.21655077 0.6402624 -0.3192482 -0.123564236 -0.48449442 -0.22790994 -0.31872293
0.12066768 0.16608073 0.15957133 -0.12963568 -0.088154 -0.105059795 0.16134621 -0.14668113
0.04686299 -0.03381749 -0.035875596 -0.1269946 0.1736603 0.048067246 -0.17680983 -0.027048312
-0.050008945 -0.057824664 -0.061830904 -0.21986549 -0.49808797 -1.0790559 -0.5117278 -0.13404432
-0.53720814 0.01683512 -0.096880354 -0.02414122 -0.24463618 -0.45839056 0.4222613 0.117351405
-0.005255183 -0.4649581 -0.43146777 0.23013121 0.16108175 -0.3902353 0.027758664 -1.0488763
0.031740915 0.25325716 -0.2959832 0.2234181 0.102032214 -0.3602733 -0.22100005 -0.31218436
0.050022524 -0.31960714 0.0037956634 0.036700446 0.100647144 0.2681073 0.17861867 -0.14057751
-0.5377127 0.518142 -0.21828002 -0.25218737 0.14128712 0.010625053 0.10834085 0.21497492
-1.0806044 0.25941435 -0.3555617 -0.2885401 0.15984017 -0.00043636988 0.2809671 -0.29377168
-0.12167093 0.10719532 0.45047235 -0.32728782 -0.23428647 -0.06993351 0.25926307 0.14414735
0.23476239 -0.13055107 0.24125013 0.28612694 0.27314183 -0.74628 -0.01830687 -0.15021433
0.034843277 -0.0942345 -0.55424947 0.19346012 -0.16991363 0.074362166 -0.64144 -0.47988135
-0.32272962 -0.22628956 0.056836456 0.1006892 -0.24729389 0.072592266 0.005963299 -0.32105082
0.3415824 0.10678091 0.07399198 -0.2525387 -0.03297054 -0.0076707043 -0.42921552 0.04522829
-0.20238736 -0.5811083 -0.19775441 -0.84781504 -0.12270592 -0.081079505 0.017119236 -0.32651636
-0.0817922 0.2978886 -0.3996834 0.062096503 -0.645676 -0.2142817 0.17549573 0.12670597
-0.07583757 0.15601078 0.38194022 -0.7860472 -0.038054027 0.2054533 -0.01802236 -0.6214421

weight f4 [64, 32, 5, 5]
00000000: fa28 273e 2e7b 553d 0b09 eebd eca0 393e
00000010: 6bd6 c0be 1778 5f3e c363 143e 8dc8 f23d
00000020: d2a8 d6bd fcf9 3c3d 40ba eabc a7bd 6abe
00000030: 5ba0 20be 556e 943b 25c8 1f3f 4c34 eebd
00000040: 68ce aa3d 92b8 1b3e cd78 91bd 67ba a33e
00000050: e202 8ebd 23ee 4cbe 847e 4bbd 571e de3e
00000060: 491e a23d 7fd3 ec3e 5cf7 c5be 3b47 e9bd
00000070: ab12 9abe bc3f fd3d f7bd bbbd 22c1 af3e
00000080: a955 623e e824 fdbe 9c42 8ebe 9ece 93be
00000090: 0241 0d3e 72ca 023f 6ecb 42bd 3ac6 6bbe
000000a0: 22d4 de3e ca78 a63e fc80 a9be a6ad e13e
000000b0: 4250 09be faba dbbd 0207 f83e 4bed dc3e
000000c0: 1e7f 513e a29e 04bd 34db d2be d84f 9c3d
000000d0: 3a94 c93e 22b8 823c 2e47 4dbd 0bad 183f
000000e0: 1a9e 94bd 2850 25bf b0fd ebbe 9c60 48bf
000000f0: 534d a53e 94c5 103d 3fcc bfbe b49d 983e
00000100: 927e 94be 1c95 853d 36d7 1a3c b5d9 c73e
00000110: 99a4 48be 322a 3cbe 0f72 233f 86ba 653e
00000120: 7e18 a6bd 69c3 fc3d 972a 59be 421c 7bbe
00000130: 734e e8be 2807 923c 2584 873e 0fe9 b0be
00000140: 8996 163f 1a89 c53e 29fd e73d 0bc2 913e
00000150: 6224 da3e 5945 acbd a092 b2be 9c58 babe
00000160: e441 8cbe 36b2 8fbf fc6c 48bf 420c c33d
00000170: 8548 bbbf 74d0 c1be b43a 1a3e 96bf 6c3e
00000180: a21c 503d 54dc 38be 202d 033f 24b0 913d
00000190: c78d c7be 8592 973e 3f98 b43b 7aa2 5a3d
000001a0: 9322 923e 8989 1b3d 21ef 4bbe edec 783e
000001b0: b0cc 103e 1e5e 2c3f 05e0 793e ae47 b33d
000001c0: c5f3 62be 90da 91bd acf0 94be 7203 5fbe
000001d0: d633 a13d edf9 9abe 6bcb 39bf 367e 23bf
000001e0: ca0e c3be 8202 d3bd 41ff b73c a012 a83e
000001f0: 5334 4abe 83a4 34be 1781 14bf 03df 4abe
00000200: 3d7d ae3e a82d 7abf be5f e83e b4b3 7bbe
00000210: 6248 433e 4c8d 6438 1ec9 1dbe 697e b33d
00000220: 8e25 153e c309 a13e 4c85 94bd a8cb 80be
00000230: 627e 1ebf df60 6dbe 412b b93d 3c9e ebbd
00000240: 9b86 80bc 13a2 d0be b0bf 3cbd 763c e93d
00000250: 8267 c7bc e0e2 143e 11e4 d93b 3d83 ddbe
00000260: 8fa0 06bc f842 83be d7ee 09bf 1401 ef3d
00000270: 061e f33c 83e6 3e3e a11e 58bd 1f04 273d
00000280: e6be 4bbc bf58 583e 0ebb 913e 34b5 8fbe
00000290: 172e 48be 3a11 433d b274 99bd c650 73bd
000002a0: bae0 13be 13d3 ebbe f48a b53e 1baf 253e
000002b0: c6bc 013e 31f2 9dbd 1788 d6be 2e5d acbd
000002c0: 70e1 13bf 7ce9 a4bd 8710 c9bc faac 8f3e
000002d0: 67b0 d43e be4d 153c d63f 40bd ba3b 88bd
000002e0: e870 563e bca8 cb3e 3314 cabe c113 3dbe
000002f0: 9027 b73e 55e3 d43e a310 58be 0d27 1dbe
00000300: 390f ccbc 27fa 32be dd75 bcbd eba7 bb3e
00000310: f838 06be 25cc a43d c9e5 36bf 83dc 33be
00000320: 6ae5 1a3e a2e8 813e 4e4a c1bc 7e8e cfbe
00000330: c2e2 ddbc 3b26 bf3e 0119 7abf 3e52 153e
00000340: d0b3 95be 99c1 303e 4679 e33e beb4 2e3e
00000350: 8bca 853c 7997 4fbe 652e eebe 73e1 e03e
00000360: db2b 71bd 807b 2f3e 22d4 a1bd c5b2 0b3f
00000370: fb05 a53e b354 3cbd 75aa 1ebe 6544 c33d
00000380: d681 cdbd e319 ed3e 2595 953d d9a5 50be
00000390: a731 98be 3f3c ad3e 5613 6c3d 446f e83e
000003a0: 97bb 2d3e 7bb2 63bb d33a 243f 1aeb b13d
000003b0: a451 8f3e c3fc 673d dda8 d03d 2094 193e
000003c0: 0492 d53e fbe0 2f3e b148 52be a25f ac3e
000003d0: 49a0 fe3c fcbf 203e 0ddf 56be b959 343e
000003e0: c96f fa3e 3a98 cdbe aa19 a73e 5a11 593d
000003f0: 7558 c43e 0b60 9dbc 9503 f03e e875 e33e
0.16324225 0.052119426 -0.116228186 0.18127793 -0.37663588 0.21823154 0.14491181 0.11854658
-0.10481419 0.04613684 -0.028653264 -0.22923909 -0.15686171 0.004529754 0.6241477 -0.116310686
0.0834015 0.15207127 -0.07103119 0.3197815 -0.069341436 -0.20012717 -0.0496812 0.43382522
0.07915933 0.4625511 -0.38665283 -0.11390539 -0.30092368 0.12365672 -0.09167092 0.34327036
0.2210299 -0.4944222 -0.27785194 -0.28868574 0.1379433 0.5109016 -0.047557287 -0.23024836
0.4352122 0.3251403 -0.3310622 0.44077796 -0.13409522 -0.10729022 0.48442847 0.4314979
0.20458648 -0.032377847 -0.41182864 0.076324165 0.393709 0.015956942 -0.05011671 0.5963904
-0.07256718 -0.64575434 -0.46091986 -0.78272414 0.32285556 0.035344675 -0.37460515 0.29807818
-0.29002815 0.06522581 0.009450724 0.39033285 -0.19594039 -0.18375471 0.63845915 0.22434434
-0.0811014 0.12341959 -0.21207653 -0.24522498 -0.45372352 0.017825678 0.26468006 -0.3455281
0.5882345 0.38581163 0.11327583 0.28468356 0.42605883 -0.084116645 -0.3487749 -0.3639573
-0.2739402 -1.1226261 -0.78291297 0.09523822 -1.4631506 -0.3785435 0.15061456 0.23119959
0.050808556 -0.18052799 0.5124073 0.07113674 -0.38975355 0.29603973 0.005511313 0.053377606
0.28542003 0.03797296 -0.19915439 0.2430913 0.14140582 0.6733111 0.24401863 0.08753906
-0.22163303 -0.071217656 -0.29089868 -0.21778658 0.07871215 -0.30268803 -0.72576016 -0.6386446
-0.3809722 -0.10303213 0.022460582 0.3282671 -0.19746523 -0.17640881 -0.58009475 -0.19811635
0.34079924 -0.97725916 0.45385545 -0.2458027 0.1907058 5.449103e-05 -0.15408751 0.08764345
0.14565107 0.3145276 -0.07251987 -0.25155377 -0.61911595 -0.23181485 0.09041453 -0.1150479
-0.015689185 -0.40748653 -0.046081245 0.11388485 -0.024341349 0.14539671 0.006649502 -0.4326419
-0.008216991 -0.2563703 -0.53880066 0.116701275 0.029677402 0.1864262 -0.052763585 0.040775415
-0.01243565 0.21127604 0.28463024 -0.28067935 -0.19548832 0.04762385 -0.07492961 -0.059403203
-0.14441195 -0.46059474 0.35457575 0.16180079 0.12669668 -0.0771221 -0.41900703 -0.0841621
-0.57765865 -0.08052346 -0.024544014 0.28061658 0.41540834 0.009112773 -0.04693588 -0.06652017
0.20941508 0.39777172 -0.39468536 -0.18464567 0.3577237 0.4157969 -0.21100096 -0.15346928
-0.024909602 -0.17478238 -0.09202168 0.3665155 -0.1310767 0.0804675 -0.71444374 -0.17564587
0.15126577 0.25372797 -0.023595002 -0.405384 -0.027085666 0.37333855 -0.976944 0.14582154
-0.2923875 0.17261352 0.44428462 0.17061135 0.016331932 -0.20272626 -0.4651977 0.43922004
-0.058879714 0.17136955 -0.07901789 0.54569656 0.32231125 -0.045979213 -0.15494712 0.095345296
-0.1003453 0.46308812 0.07303838 -0.20375766 -0.29725382 0.33835027 0.057635628 0.4539739
0.16966091 -0.0034743834 0.6415226 0.0868742 0.27991974 0.056637537 0.10188458 0.14997911
0.41712964 0.17175667 -0.20535542 0.33666712 0.03108229 0.15698236 -0.20983525 0.17612351
0.4891341 -0.40155202 0.32636768 0.052995063 0.38348737 -0.019210836 0.46877733 0.44425893

weight f4 [256, 256]
00000000: 0069 203d df5b 0b3d 4d04 a9bb 9c3d 2f3d
00000010: a30c b63d b212 aabc 96b9 90bd 6887 d0bd
00000020: 4cbf 573c e351 fbbd f134 85bd afee 3e3d
00000030: e7ed f43d 21b6 b13d 46cc 54bd 2673 113d
00000040: 3380 3abe 6e4d 073e e3ee 393d 7b10 b03b
00000050: 7f56 f8bd c510 403d 0077 f5bc ff40 c1bd
00000060: 6bab 963d c132 15be 334a 23be c221 07bd
00000070: 9b39 403d 86f5 8e3c 0db6 f7bc 0d8c e03c
00000080: 02b8 1a3f dee4 65be a2e5 623c be3e fd3d
00000090: e7e4 233c b37f b53b 5580 f3bc 3868 eebb
000000a0: 7ed6 03ba 0c05 91be fc20 643c ca76 80bd
000000b0: ac90 403b 8429 1dbd c5f2 46be 62b0 213d
000000c0: eacc 93bd e289 343d 85bd abbd 512d 823e
000000d0: ad36 84bc 8046 ed3b 38d7 7cbd cd84 b9bd
000000e0: a448 46bd e59d ddbe 795a 733e 44d8 40bd
000000f0: c85a 303e bdc2 28bc 7864 3abe 41c6 84be
00000100: 236e 9abd 8993 99bd 93ff b1bd 758e 9b3d
00000110: 2016 2f3e 5e34 cabb fdda 6a3d 36f6 8bbd
00000120: 00f0 27bd 1f6f 5abd 9671 933d 2d8a 90bb
00000130: 51fe 03be 5b01 483d 2bdc 36bd 5cff 5dbc
00000140: d522 383d 0226 e2bc ceea fb3d aa0f dd3d
00000150: c99b 13be bfa3 a1bc fd20 423b 38ea e6ba
00000160: 1c06 7dbb 31d3 393d 0e3c b2bd 32f0 d1ba
00000170: dd54 123d 4fa4 36bd 74ed 2b3d 6312 b7bd
00000180: 9472 093f b12f 43be 7f4d 3ebd c74d 9f3d
00000190: 4595 603e 843e b6bd 83c9 7e3e 9602 0bbf
000001a0: 3884 e83d 962c a13d 9913 be3b 724f e13d
000001b0: 2dd9 093e a59f 403c 3601 253e d4a0 4d3e
000001c0: 8e13 b5bc 2680 aabd c269 77bd 836f 913d
000001d0: 2713 b7bd e598 f33c edbd 16bc 6729 6539
000001e0: aa3b 2cbe 9d2d be3d b917 8cbe be1f 90be
000001f0: 5a12 5d3d ccc9 083d 5e5c 94bc 5f7f bebd
00000200: b8e7 ebbd 50da 06be ab09 10be 9590 6e3e
00000210: c4aa a63d decf b3bd ffb6 9abd 2609 b8bc
00000220: b1d9 14bc acc7 4f3c 8e56 bb3b e8d5 91bc
00000230: 792e c7bd ecdb 85bc 047d c13d e2be d43c
00000240: b2ae dc3d 1400 9c3c 7e38 163d 036a e4bd
00000250: 5c2f bbbc ccd8 903d 08ab b5bc 31b8 82bc
00000260: 7bad 803d 9894 af3d 8bc2 a03d ec9c 21be
00000270: 2635 5a3d 2b73 a7bd b06d d0bd 8838 e63d
00000280: b2fd 77bd 0417 123d 8cd0 63bd 1160 a43d
00000290: 2946 d9bd bc80 343d c242 993d 209e 7abb
000002a0: fe99 b53d d49d d33d 63c6 413d 4bcf b13d
000002b0: dc1c 0ebe 5442 e6bd fbd3 b5bb 6cd0 dabe
000002c0: 09a3 853d 9f44 843b 184b b03d ca70 a7bd
000002d0: acea 92bd b704 83bd d3b5 b63b 5630 40bc
000002e0: 6a21 4fbe 2aba d1bd 2071 113d 76b8 edbd
000002f0: 239e b53b b7cd b03d c764 80bd 4131 e6bc
00000300: 3e45 d0bc d0d3 ccbd eea1 4a3d e454 b33e
00000310: b582 543c cd02 47bd 8e37 26bd cda5 133d
00000320: 97ab 9bbd 0fa0 9fbe cbf0 273e 608d 9f3b
00000330: 1427 47bd bb20 c53d f72a fb3d af6b 013d
00000340: 2171 f63d 89e2 213d 3296 d83c 40eb 12bc
00000350: 5a3e 763e b89e 5c3c 7a9b 6abe c347 28be
00000360: d57e 993d 9713 243e 8a8f b0bd c1d6 823d
00000370: 6e74 39bd dc37 003d f341 53bd ef4c 203c
00000380: 9ef0 503d 3df9 11bd a1b2 ee3d 82ca 04bd
00000390: 572b 3f3d 6577 553d 1f15 0c3d 9c74 b0bd
000003a0: 6f4c 61bd 0f0e 383d 081a 8a3d 1238 813d
000003b0: a432 46be 48c3 613d c4fb a93e 67c3 273c
000003c0: 844d 383e bd8b ae3c 080d e4bd aee9 57bd
000003d0: fce2 76bd 9db1 843d 2501 0e3c 313a b03d
000003e0: 7931 f73d 9655 0f3d 4cb4 b73d e2b7 b53d
000003f0: 4566 c43c bd0c 9fbb 03d3 b93c 3593 2bbb
0.039162636 0.034023162 -0.0051579834 0.042783365 0.08889129 -0.020760868 -0.07066648 -0.10182077
0.013168167 -0.12271478 -0.065042384 0.046614345 0.11959439 0.086773165 -0.051952623 0.035510205
-0.18212967 0.13213131 0.045393836 0.0053730584 -0.12125873 0.046890993 -0.02996397 -0.09436225
0.07356914 -0.14570142 -0.15946274 -0.03299118 0.046929937 0.01745106 -0.030238176 0.027410531
0.60437024 -0.22450587 0.013848694 0.12365483 0.010003305 0.0055389046 -0.02972428 -0.0072756074
-0.0005029215 -0.28324163 0.01392388 -0.06272657 0.0029383106 -0.03836967 -0.19428547 0.039474852
-0.07216819 0.044076808 -0.08385757 0.254252 -0.016139353 0.0072410703 -0.061728686 -0.09058533
-0.04840912 -0.43284526 0.23764981 -0.047081247 0.1722213 -0.0103003355 -0.18202388 -0.25932506
-0.07540538 -0.07498843 -0.08691325 0.07595531 0.17098284 -0.0061707934 0.05733775 -0.068340704
-0.041000366 -0.05332863 0.07199399 -0.004411003 -0.12889983 0.048829418 -0.044643562 -0.013549652
0.044955093 -0.027606014 0.12300645 0.10794003 -0.14414896 -0.0197314 0.0029621713 -0.001761741
-0.0038608378 0.045367423 -0.08702861 -0.0016017018 0.035725463 -0.04459029 0.0419745 -0.08939054
0.5369046 -0.19061162 -0.046460625 0.07778507 0.21931942 -0.08898643 0.24881558 -0.5430082
0.11353344 0.07869832 0.005800676 0.11001481 0.13461752 0.011756812 0.16113743 0.20080882
-0.022104051 -0.083252236 -0.060403593 0.07101347 -0.089392 0.029735992 -0.009200555 0.00021854565
-0.16819635 0.09286044 -0.2736185 -0.28149217 0.05397258 0.033395573 -0.01811045 -0.09301638
-0.11518806 -0.13169217 -0.14066188 0.23297341 0.0813804 -0.08779882 -0.07554435 -0.0224653
-0.009085105 0.012681883 0.005717105 -0.017802194 -0.09725661 -0.016340218 0.09447673 0.025969926
0.10775508 0.019043006 0.03667497 -0.11153033 -0.022849731 0.07072601 -0.02217628 -0.01595697
0.06283089 0.08573264 0.07849606 -0.15782517 0.053273343 -0.081762634 -0.10177171 0.11241251
-0.060544677 0.03566648 -0.055618808 0.08026136 -0.10609085 0.044068083 0.07483436 -0.0038241223
0.08867262 0.10332838 0.047308337 0.08682116 -0.13878196 -0.1124312 -0.0055489517 -0.42737138
0.06525237 0.0040365006 0.08608073 -0.0817581 -0.07173666 -0.06397384 0.0055758744 -0.011730274
-0.2022759 -0.10240586 0.035508275 -0.11607449 0.005542533 0.08632987 -0.06269222 -0.028099658
-0.025423642 -0.100013375 0.049470834 0.35025704 0.012970616 -0.048586655 -0.040580325 0.03604679
-0.076010875 -0.31176803 0.16400449 0.004869148 -0.048621252 0.096253835 0.12264054 0.031596836
0.120332964 0.03952268 0.026438806 -0.008967221 0.24047223 0.013465576 -0.22910872 -0.16433625
0.074948944 0.16023098 -0.08621128 0.06388617 -0.04527705 0.03130327 -0.051576566 0.009783967
0.05101072 -0.035638083 0.116551645 -0.03241969 0.04667219 0.052115817 0.03419983 -0.086159915
-0.055004533 0.044935282 0.06743246 0.06309523 -0.19355255 0.055117875 0.33199894 0.010239459
0.1799832 0.021306867 -0.11135298 -0.05271309 -0.060275063 0.064791895 0.008667265 0.08604849
0.12069983 0.03499373 0.08969936 0.088729635 0.023974547 -0.0048538134 0.022683626 -0.0026180272

bias f4 [256]
00000000: b6fe 143c 4e45 003c f5da 9e3d 10e4 eebb
00000010: b1cc 1fbd 7919 ccbd 7cf8 5fbd 302e 5d3d
00000020: 6e50 123e fdd6 efbd f508 f03c 7a88 81bc
00000030: 5162 a73d adf4 a6bd 9e50 f5bc cfbe 08bd
00000040: b7cd 72bc fd35 54bd 9c14 9f3d d5e4 99bd
00000050: 90f1 ed3c 288a 7fbd d4ae a83d 0f8b 543e
00000060: 8d52 16be 14ee 063e 6734 5d3d 6942 acbd
00000070: d4b0 e2bd 9582 01be b40f 073e 2895 ff3d
00000080: aebf 3bbd f157 7e3c 3e6c 603d adbf a1bc
00000090: e0a3 f2bd c7bc 95bb 398c 1bbd 3876 19be
000000a0: dfc9 78bd 130e 6e3d 340b 5b3d 30c8 ddbd
000000b0: 46de 5fbd 08f2 f53c d336 ce3d 20cc 263e
000000c0: 145f 15bc fd85 a63d 35d1 34bd 2b96 023d
000000d0: 902a 0ebe a446 dd3d 47b8 fe3d ff05 f6bc
000000e0: 69e3 3dbd 8a11 3e3d 2878 4c3e 709d 2b3c
000000f0: de44 3cbc 3293 3a3d fbe8 07be 2a98 863c
00000100: a33a 593b 61ef 283d 2816 8a3b 2bee 64bd
00000110: a8f9 a3bd ee0c 6abe 5834 57bd a624 b7bc
00000120: fb8f aabd b015 a53d aff7 2c3d 756c 3d3d
00000130: 9a8c bf3c 509f 1f3d 605b 703d 0e8c 3abd
00000140: 10b1 20be cf09 033d 104c 2bbc 265d 19bd
00000150: 95bb dcbd c688 be3d 575d a83d fd16 203d
00000160: 9f18 323e 8545 8bbd 0715 943d 482d 86bc
00000170: 4245 f73c 0a64 d33d f4f7 913d 1de4 263d
00000180: d4e7 1cbe 04b0 6e3e cdec 18be ee9f a3ba
00000190: 2079 463d ad06 15be 19a7 02be 4465 9ebc
000001a0: f628 97bd 4e6b 4abd be13 a3bd 9a18 fe3d
000001b0: fc50 093e 5abc 323d 0c48 afbd 2325 b93d
000001c0: 08ad 9ebc 43f7 173c d04f 76bd 9744 b93c
000001d0: d153 c7bd b718 f4bd bb69 18bd 4790 95bd
000001e0: 16ae c1bc 5204 263e 72f9 863d e4df bcbc
000001f0: 3f1a b6bb 8516 6e3c e694 06bd bc98 a0bb
00000200: c42d a6bd fcfd 003d 3875 483d 65aa a13d
00000210: 4db4 cfbd facb 413a ef3c c93d 5e83 ba3d
00000220: f4f2 e6bd 8bbe 7cbc f9d7 5bbd 2b0c bbbd
00000230: d678 e93d 5785 83bb c3bf 0ebd 7558 f0bd
00000240: f3ca 0d3d 4db4 8a3c ffca 6cbd 84b4 3b3e
00000250: 1f69 313d c545 163e 48b7 d1bc 38a9 7e3d
00000260: 3ef6 cf3c 0cf2 d33c dbcf 0fbd b8ec 213c
00000270: 8d97 c13d 3d41 6c3b 01d8 f1bd 562a d4bd
00000280: 27f1 cd3c 0c76 9cbc d7eb 7f3c 5721 3cbb
00000290: 233c a43d 1234 28be 87b0 9e3d 301a 57bd
000002a0: 450e 5dbc 3e63 3fbd ee59 7fba 8408 383d
000002b0: 8eb9 ccbc a090 ecbc dfdf 1e3d c0af e83d
000002c0: 6763 7e3d d8c3 a5bd 397e ccbd 8e0e fabd
000002d0: 88d4 623d 1900 c93c 6777 303e bef3 ebbc
000002e0: bf15 373d b703 afbd 602a 263e dd7c ffbc
000002f0: 09e1 50bd 8b99 8ebd 617f 67bd a935 c2ba
00000300: 27d1 c2bc dbf5 023e 6f70 afbd 849d d43d
00000310: 0e4e e43c 8415 4cbd 21ff 9e3c 4118 253d
00000320: a476 6c3d 9f92 9cbd e12f b83d 6fc9 30bd
00000330: 9ee0 743c 1d86 3ebd 3aeb 083d 9f44 6f3d
00000340: f2d6 273e e615 b03c ea9c 68bd 6bf5 9dbd
00000350: 7d40 0ebd 6f76 f13d 1e79 c4bd 6941 d73d
00000360: 3b24 bf3c 8903 2b3e 02ad d23c ee92 22bd
00000370: 2f96 4d3d 4421 59bb 459d 8e3d 8d9d 053e
00000380: 6b8c f23d 5ca3 cc3b 1ce2 ec3c 72b5 48bc
00000390: 2bb9 023b 30ff 35ba 0c7f 92bc 4605 17be
000003a0: 6691 4fbd 834b d83d 287f 43bd af58 be3d
000003b0: ddf7 20bd ad9f 9a3d 4b0b 1cbe 33f1 32bc
000003c0: d2a0 fbbc 9741 d53c 9721 fcbc 3ddd 1dbe
000003d0: f941 a43d f0da c8ba d905 e13a 90b0 253d
000003e0: d5ca bdbd 47af 5f3d 3973 923b 5096 e53b
000003f0: b116 f9bd 290e 9bbc ae80 4e3d 31b8 e13d
0.009093931 0.0078290235 0.077566065 -0.0072903708 -0.03901357 -0.09965796 -0.054680333 0.053999126
0.14288494 -0.11710928 0.029301146 -0.015812147 0.08173049 -0.08152137 -0.029945668 -0.033385094
-0.014819554 -0.0518093 0.07767603 -0.07514349 0.02904585 -0.062387615 0.08236471 0.20756172
-0.14679928 0.13176757 0.054005053 -0.08411104 -0.110688835 -0.1264747 0.13189584 0.12479621
-0.045837097 0.015523897 0.054790728 -0.019744718 -0.11847663 -0.004569623 -0.037975524 -0.14986503
-0.060739394 0.05811889 0.05347748 -0.10829198 -0.054655336 0.030022636 0.10069051 0.16288805
-0.009116907 0.08131025 -0.044144828 0.031881493 -0.13883424 0.10804489 0.12437492 -0.030032156
-0.046359453 0.046403445 0.19967711 0.010474548 -0.011491029 0.045550533 -0.13272469 0.01642998
0.0033146522 0.041243915 0.004214067 -0.055891197 -0.080066025 -0.22856495 -0.052540153 -0.022356343
-0.08328243 0.08060777 0.042228397 0.04624601 0.023382474 0.03897029 0.058680892 -0.045543723
-0.15692544 0.031991776 -0.010455146 -0.03744235 -0.10777966 0.09303431 0.08220928 0.039084423
0.17392205 -0.06800369 0.07230573 -0.016379014 0.030184392 0.10321815 0.071273714 0.04074489
-0.1532281 0.23309332 -0.14934082 -0.0012483576 0.048455358 -0.14553328 -0.12759055 -0.019335397
-0.073808596 -0.04941874 -0.0796275 0.12407036 0.134098 0.043636657 -0.08558664 0.090402864
-0.019369617 0.00927526 -0.06013471 0.022615714 -0.097327836 -0.119187765 -0.037210207 -0.07302909
-0.023642581 0.16212586 0.06590547 -0.023055978 -0.005557328 0.014531736 -0.032856844 -0.00490102
-0.08114198 0.03149222 0.048939914 0.07893828 -0.101418115 0.00073927606 0.09826075 0.091070876
-0.112768084 -0.015426288 -0.053672764 -0.0913318 0.11400001 -0.004013698 -0.034850847 -0.11735622
0.034617376 0.016931677 -0.05781078 0.1833058 0.043313142 0.14675052 -0.02560009 0.0621731
0.025385972 0.025872253 -0.035110336 0.009883098 0.09452734 0.0036049627 -0.118087776 -0.103596374
0.025139404 -0.019099258 0.015620193 -0.0028706396 0.08019283 -0.16426113 0.07748514 -0.05251521
-0.013492172 -0.046725504 -0.00097408786 0.044929996 -0.024990823 -0.028877556 0.03878772 0.11361647
0.062106516 -0.08093995 -0.099850126 -0.12209807 0.055378467 0.02453618 0.17233048 -0.028802749
0.044698473 -0.085456304 0.16227102 -0.03118747 -0.05099586 -0.0696288 -0.056517962 -0.0014817017
-0.023781372 0.12789099 -0.08566367 0.10381606 0.02786925 -0.049825206 0.019408764 0.040306333
0.057730332 -0.07645153 0.08993507 -0.043160852 0.014946131 -0.04651462 0.033427455 0.05841505
0.16390589 0.021494817 -0.05679027 -0.077128254 -0.03472947 0.117901675 -0.09593414 0.10510523
0.023332706 0.16700567 0.025717262 -0.039690904 0.050192054 -0.00331314 0.069635905 0.13048382
0.11843189 0.00624506 0.028916411 -0.012250291 0.0019946794 -0.0006942628 -0.017882846 -0.14748105
-0.050675772 0.10561278 -0.047728688 0.09294259 -0.03929888 0.07549987 -0.15238683 -0.010921764
-0.030716334 0.026032252 -0.030777736 -0.15416427 0.08020396 -0.0015324038 0.001716788 0.040451586
-0.09267203 0.054610517 0.004469302 0.007006444 -0.12162531 -0.01892765 0.050415687 0.1102146

weight f4 [256, 256]
00000000: 1afb 413c 0689 acbc b665 113c a3a8 bd3c
00000010: 9af2 debc d94f 293c e7c1 15bb 51e6 cfbb
00000020: 664e 94bd 7771 3ebd b706 01bd 7ce7 b53c
00000030: 84ee 443d ff12 27bd a2c8 7d3c 6edf 623c
00000040: 95bc 10bc 768f 04bc 8ab9 92bd f22e 2cbd
00000050: d8f2 4f3c 9b97 163d fa67 60bb 15b3 29bd
00000060: a6e8 b13c ff21 f7bb cd16 06bd b027 f23c
00000070: 42f8 a43c c743 093d 9a04 2bbd 3a32 44bd
00000080: 60db 773d e06f 0cbd 12ed e2bc f790 093c
00000090: 1ecd 593d 67d3 febb 7c91 18bc 7438 74bb
000000a0: 182c 84bd 4c66 01bd f292 4e3c 6ec2 35bc
000000b0: 121b 7c3d d0b6 c6bc dd56 063c 44a9 573d
000000c0: 3265 e93d 0b72 9b3c 303d acbb 8ea7 9dbb
000000d0: 284b be3c d1cd 103c 2ee0 f93c 4e81 943d
000000e0: 7531 993c e22c aabc b7b5 5fbd f256 b7bc
000000f0: 912f 023d 5c86 9dbd 0d97 a63c b56d ecbc
00000100: ea99 0d3d f60a a1bc 6b30 5c3a d23c 073d
00000110: 7431 163c a47e c43b 5f49 243c 2a67 4b3c
00000120: e924 33bc dbfa 31ba 955b 363d ef9a a03d
00000130: c513 d9bc 0930 0c3d 875b 793b dd32 1cbd
00000140: dfae 123a 7705 133d 3b4d 233d 1788 ecbc
00000150: d0a3 333d 043c c1bc caf8 98bc 8ea7 e63b
00000160: d2b8 0a3d a5a1 183c 9ade 9ebc 835d 32bd
00000170: 3e7b d2bb e25e a4ba d6d0 ee3c 16a7 6abb
00000180: a3b8 2fbd 1c48 02bd a24a f43b f7be 01ba
00000190: bb93 dabc 0aa0 66bc 7fba fa3c 8d99 9ebc
000001a0: f842 a23c 8ec4 8ebb bf88 26bd a9b1 40bd
000001b0: 931b 603b a4d4 23bd b017 98bd 896a 0bbd
000001c0: 1570 043e ccc1 2d3c 88c1 bc3c a8a0 253d
000001d0: 9075 e83c 2c66 17bc c631 4f3d d953 c03b
000001e0: c2af 19bc 81c5 d0bc 093c a8bc dced f93c
000001f0: 62d8 c839 182e 11bd a649 8f3b 3725 e23c
00000200: 6b6f b53a cd75 a63c 679f cc3c f435 813d
00000210: 0101 ef3c deb3 f03c e432 053c 45ad cc3c
00000220: 617f 3fbc 5cf8 4c3d e5f2 9bbb 95f6 1c3b
00000230: af11 8ebd 5ea8 b63c 85a9 77bc 3708 9f3c
00000240: fdf6 413d 7be3 1fbc 3b09 78bd 2e80 403c
00000250: 5ee3 6abd 436c 19bd f7dd 2bbc 5917 9c3b
00000260: 1812 0cbd 130a 67bd 8082 2e3d b731 87bd
00000270: c17d c0bb 8c85 1a3c 2343 02bd e54d 2c3c
00000280: 8b8f b2bb cbf4 113d 6e0f 88bc 7c17 ca38
00000290: 53bf b93c 854b 1c3d c638 3ebc 67ad 58bd
000002a0: a340 bdbc 8fba efbc 7162 f83c dd4f 203d
000002b0: f547 193c 1a89 cb3c 8416 163d ddd6 e73c
000002c0: d8aa 6dbc 9ad6 17bc 83d6 2e3b edc1 903c
000002d0: e371 9a3b 3a2b d3bc 456c d13c ecdd c03c
000002e0: 8116 303d 241f 2a3c 7eba b2ba bf5f ebbc
000002f0: 700c 823c 93b6 6cbc 2e4e e53c 2787 99bc
00000300: b56c 31bc 76d3 31bb f007 d8bc 65d1 a9bc
00000310: a5c9 c0bb 5d69 5b3c 0340 083c e540 9ebc
00000320: 6404 08bd 14ef 81bb 6b93 933c 2107 1ebc
00000330: 86a1 cabb b200 3c3d c426 b2bc 75b3 b93c
00000340: 8013 69bd 6c1a c93c b83a 733d 1c8e 82bc
00000350: 92f7 593c 0166 a7bc c5d3 89bb fc9f b5bc
00000360: f5f3 d03c 7de5 0e3d f267 85bc a223 b9bd
00000370: 0a82 9fbc 76b5 ed3c 15d7 1a3d b68c e1bc
00000380: 8715 733d f395 303d 7323 1e3d 7b0a 713d
00000390: d638 c13c 9c66 bb3c c6d9 54bb ee9b bebb
000003a0: 238b b7bd fb54 093d 5791 10bd 05eb 173d
000003b0: d298 9b3c 8cda 9abb 291a 41bd 3e4f 6abc
000003c0: fc78 d0bb c92a 25bd afbb 83bb 4a23 413d
000003d0: 6255 85bc 7fcb bdbc 877f 923c f142 61bd
000003e0: 144b 983c 8eb0 b8bb e13e 453d 7a03 87ba
000003f0: 0384 a4ba 2602 42bd c787 adbc 74df 72ba
0.011839652 -0.021061432 0.008874347 0.023151701 -0.02721529 0.010333979 -0.002285117 -0.0063445945
-0.07241516 -0.046494927 -0.031500544 0.022205107 0.04807903 -0.0407896 0.015489729 0.013847215
-0.008834024 -0.008090844 -0.07164295 -0.042036958 0.012692176 0.036765676 -0.0034241662 -0.04143055
0.02171738 -0.0075418944 -0.03273659 0.02955994 0.02013791 0.033511903 -0.041752435 -0.047899462
0.060511947 -0.03428638 -0.027700935 0.008396379 0.05317413 -0.007776666 -0.00931203 -0.0037265094
-0.06453723 -0.0315917 0.012608277 -0.011093719 0.061549254 -0.024257094 0.008199421 0.05265166
0.113962546 0.018975278 -0.0052563176 -0.004811234 0.023229197 0.008838133 0.030502405 0.072512254
0.01870034 -0.020773355 -0.054616656 -0.022380326 0.031783644 -0.07691643 0.020335699 -0.028860906
0.034570612 -0.019658547 0.0008399549 0.033016987 0.009167064 0.005996542 0.010027259 0.012414733
-0.010934093 -0.00067893945 0.044520933 0.07842051 -0.026498685 0.034225497 0.003804894 -0.038134445
0.0005595516 0.035893884 0.039868575 -0.028873486 0.043857396 -0.023588188 -0.01867332 0.007039017
0.033867665 0.009315883 -0.019393254 -0.04354621 -0.006423383 -0.0012540484 0.029152315 -0.0035805157
-0.042900693 -0.03180705 0.007455186 -0.00049494155 -0.026681772 -0.014076242 0.030606506 -0.019360328
0.019807324 -0.0043569272 -0.040657755 -0.04704443 0.0034196123 -0.03999771 -0.07426393 -0.034037147
0.12933381 0.010605287 0.023041502 0.040436417 0.02837637 -0.009240668 0.050584577 0.0058693704
-0.009380283 -0.025484802 -0.02053644 0.030508928 0.0003830819 -0.03544435 0.0043727932 0.027605636
0.0013842409 0.020319844 0.024978353 0.06309119 0.029175283 0.029382642 0.008129809 0.024984965
-0.011688084 0.05004154 -0.00475918 0.0023950685 -0.06936967 0.02229708 -0.0151161 0.019413097
0.047354687 -0.009758825 -0.060555678 0.01174931 -0.05734574 -0.037456762 -0.010489932 0.0047635254
-0.034196943 -0.056406092 0.042604923 -0.06601279 -0.005874366 0.009431254 -0.031802308 0.010516618
-0.0054492406 0.035633843 -0.01660892 9.636485e-05 0.022674238 0.03815796 -0.0116102155 -0.052899744
-0.02310211 -0.029263763 0.030320378 0.039138664 0.009355535 0.024845649 0.036642566 0.028300697
-0.014506064 -0.009267474 0.0026678152 0.017670596 0.0047132834 -0.025777448 0.025564322 0.02354332
0.04299021 0.010383401 -0.0013635901 -0.028732179 0.015875071 -0.014447826 0.02799138 -0.018741203
-0.01082914 -0.0027134097 -0.026370972 -0.02072973 -0.005883413 0.01339182 0.008316043 -0.019318053
-0.033207312 -0.003965268 0.01801463 -0.009645254 -0.006183806 0.0458991 -0.021747 0.02266858
-0.056903362 0.024548732 0.05938217 -0.015936904 0.013303654 -0.020434381 -0.004206153 -0.022171013
0.025506953 0.034886826 -0.016284917 -0.090399995 -0.019471187 0.029017191 0.037802774 -0.027532917
0.059346702 0.043111753 0.038608026 0.058847886 0.023586672 0.022876076 -0.0032478436 -0.005816928
-0.08962085 0.03352831 -0.035294857 0.037089366 0.018993769 -0.00472576 -0.04714409 -0.014301119
-0.0063620787 -0.040324006 -0.0040201764 0.047152795 -0.016276065 -0.023168324 0.017883075 -0.05499548
0.018590488 -0.0056362813 0.04815567 -0.0010300719 -0.001255155 -0.04736533 -0.021182908 -0.00092648645

bias f4 [256]
00000000: 0ed8 adbc 895c bf3b 1418 14bd 243d f33c
00000010: bc81 473d 52db 0e3d 691f 0bbd dea8 23bc
00000020: 9956 85bb 3596 9f3c 73e5 8abc a5ed b23b
00000030: fd5d 193d cf9b 87bc 1f13 8c3d b850 b43c
00000040: 48bc 6bbd 9963 b0b9 6131 d63a d4d5 963c
00000050: 7f08 af3c cf34 1abd d6b6 ee3b d1fd 06bc
00000060: 7d3a cc3b 86aa 043d 2943 88bc a64d 51bc
00000070: 6391 11bb 8125 193d b9b7 0bbb 3ce6 d53b
00000080: 1ad9 babc 4581 28bd 2f7f 673b 8a01 c2ba
00000090: 70c1 273b bbcc ee3b 30e4 0d3d 67fd 9a3c
000000a0: a817 f63b 7d86 333c ed44 213c caee 27bb
000000b0: ecbc b3ba a31b 00bc b776 563c fac3 893b
000000c0: 7c29 d83c ce44 7fbc 7f2c c1ba b82c cfbc
000000d0: e48f 29bc baf4 fc3b 236b 22bc 5f8b 943c
000000e0: d53c 323b 55e2 fcbc 71f9 20bd 0a32 393c
000000f0: 89cc 593c 442e 50bc 5843 8e3c 9480 abbc
00000100: ee55 1dbb f56a 913c ac32 813b dbd0 88bc
00000110: b28e adbc 6cb3 453d 92db 06bd 82b6 c0bc
00000120: 7904 f3bc 9d2f 8cbc 40b3 dfbc 45fe 4b3d
00000130: af15 39bd ed8a 853d dbb2 51bd e9ce 0fbd
00000140: bf06 b0b9 7a69 353a 5405 ee3c 2620 7c3c
00000150: fcfc ac3c d688 9abc e941 a8bc 7079 e2bc
00000160: db29 79bc dbca 153d d08f 87bc b0a2 a13c
00000170: 2038 663c fc6e 833c e52a aeb9 8813 35bb
00000180: d400 2a3d 821e c43c a35e 65bc ceaa 73bc
00000190: 09cd 9dbb 5a7c 00bd 6eac 93bc 4527 873c
000001a0: 4c2e 813d aac4 af3b 9bdb 843b af29 d4b9
000001b0: 2d50 28bc 43be eebb e7c2 f53c c7d8 263d
000001c0: 317f b83c f3d8 6bbd 4199 c0bc 97d2 db3a
000001d0: 6eb5 81bc cf17 a1bc 9b05 18b9 f4b2 36bd
000001e0: 9b06 6f3b 70df ebbb 9c2d 0c3d 582c 37bc
000001f0: 4e66 d53c 28aa 24bb 2a81 ea3b e012 bb3c
00000200: 3daf fc3c b60d e4bb 31b2 06bd 9dbd 6c3d
00000210: 0a19 463d 4494 ee3c fec8 923c 30cb bc3a
00000220: 14e9 4dbd bb13 4dbb aa07 56bc fa5a 213c
00000230: c974 d7ba 43eb f2bb 020b 273d 4542 bc3c
00000240: de38 4c3b 8db1 7b3c 13bf 06bd 1d98 8bbc
00000250: 56c3 74bc eb7e f7ba dd10 bc3c 37de 403c
00000260: c09d b33c e107 df3c 85ba 353d 5f28 ca3c
00000270: 6865 ae3c d78d 0dbd b55d 00bd cc34 e63b
00000280: 8539 a23c fa28 3d3c f3c5 e33b fe71 c1b9
00000290: 1faf eebc 66ae 58bc a62d 443c 35bb 41bc
000002a0: 2695 c439 9281 61bc 183e b23c d11a bbbb
000002b0: a7e5 10bc b2a9 03bc e900 40bd d8af 993c
000002c0: 4518 843b 4770 bdbc 9831 aabc 53fd 22bb
000002d0: e2a6 20bd fb7d 02bc a233 1d3c f743 debc
000002e0: 9218 d1bc b1a8 adbc f4f6 313d 73fc 92bb
000002f0: 3d31 cbba ee34 9d3b 535f f7bc fd32 aa3a
00000300: d988 f8bc 1f66 573c 957f 043b 85e9 bf3b
00000310: ddc9 15bc 1c7b 8f3c 2373 56bb eac2 a6bc
00000320: 8484 05bd 397f 2bbd 5328 30bc 5da3 003d
00000330: b00e 1bbc d514 36bd 2b4d 3abb 66d4 a5bc
00000340: 6d97 a53c dfa1 79bc dec2 57bb e3cd 7ebb
00000350: 8411 a73c 096f 0fbd 15ce 93bb 4079 0f3d
00000360: d875 f1bc b90a 2bbc 7132 9e3c 2d24 033c
00000370: 3b95 03bd d463 343d c05b 6cbc 0932 37bd
00000380: b9f2 eebb 870d b7bc a131 66bc 3e57 bf3b
00000390: e654 36bc 54b8 343d da29 4c3d fe5c 9cbb
000003a0: 3f1f 16bd 2053 203c df2a 7b3d 8188 573c
000003b0: 0aef 083d 6e5b ca3b fdec c2bc 27f8 a9bb
000003c0: d081 5bbd 6523 0c3b bae9 063c f143 d239
000003d0: 2595 0abc 5a78 c13c 2079 dabc bb13 bcbc
000003e0: b53d df3c d4ec f4bb 654d fe3c a813 4c3c
000003f0: 79ab 8d3c 35ed b23b daea 03bb 11c4 2e3c
-0.021221187 0.0058398885 -0.036155775 0.02969224 0.04870771 0.03487713 -0.033965502 -0.009988992
-0.004069161 0.019480804 -0.016955113 0.0054604583 0.03744315 -0.016553788 0.068395846 0.022011146
-0.057552606 -0.00033643542 0.001634162 0.018412508 0.021366356 -0.03764802 0.0072849793 -0.0082392255
0.0062325583 0.032389186 -0.016633587 -0.0127748605 -0.0022211901 0.037389282 -0.0021319224 0.00652769
-0.0228086 -0.041138906 0.003532361 -0.0014801484 0.0025597475 0.0072875894 0.034641445 0.01891966
0.0075101443 0.0109573575 0.009843093 -0.0025624507 -0.0013712919 -0.007819089 0.013089827 0.0042042704
0.026386969 -0.015580369 -0.0014737992 -0.025289878 -0.010349248 0.0077196034 -0.009913239 0.018132864
0.0027196903 -0.030869642 -0.039300386 0.011303434 0.013293394 -0.012706343 0.017366096 -0.020935334
-0.0024007517 0.017751196 0.003942808 -0.016701153 -0.021186206 0.048266813 -0.032924242 -0.023524527
-0.029665219 -0.017112548 -0.027307153 0.049803037 -0.045186695 0.065206386 -0.05119596 -0.035109434
-0.00033574362 0.0006920319 0.029055275 0.015388524 0.021116726 -0.018864077 -0.02053924 -0.027645797
-0.015207733 0.03657041 -0.016548067 0.019730896 0.014051467 0.016044132 -0.00033219825 -0.002763005
0.041504696 0.023940329 -0.013999614 -0.014872266 -0.004815702 -0.03136859 -0.018026557 0.016498217
0.063076586 0.0053640204 0.0040544993 -0.00040466848 -0.010273022 -0.0072858646 0.030000163 0.04073408
0.022521587 -0.057579946 -0.023510577 0.0016771135 -0.015833583 -0.019664673 -0.00014497938 -0.044604257
0.0036472443 -0.0071982667 0.034223184 -0.011180006 0.02604976 -0.0025125835 0.007156511 0.022836149
0.030845279 -0.0069596423 -0.03288478 0.057798017 0.048363723 0.029123433 0.017918106 0.0014403816
-0.05027111 -0.0031292278 -0.013063351 0.009848351 -0.0016438003 -0.0074132993 0.040781982 0.022980819
0.0031161825 0.015362156 -0.032897066 -0.017040307 -0.01493915 -0.0018882429 0.02295726 0.01177173
0.021925807 0.027225437 0.044367332 0.024677454 0.021288589 -0.034559097 -0.031339366 0.007025337
0.019802818 0.011545414 0.0069510876 -0.0003689676 -0.029136239 -0.013225174 0.011973774 -0.011824419
0.00037495157 -0.013763802 0.021758124 -0.005709984 -0.008843816 -0.008036064 -0.046875868 0.018760607
0.0040312135 -0.023124827 -0.020775601 -0.0024870231 -0.03922165 -0.007964606 0.00959483 -0.027132018
-0.025524411 -0.021198602 0.043448403 -0.0044856607 -0.0015502345 0.0047975695 -0.030196821 0.0012985166
-0.030338692 0.013146906 0.0020217646 0.005856695 -0.009142366 0.017514758 -0.0032722435 -0.020356614
-0.03259708 -0.041869376 -0.010751802 0.031405795 -0.009463951 -0.04445346 -0.0028427343 -0.020242881
0.020213807 -0.015236347 -0.0032922546 -0.0038880042 0.020394094 -0.035018 -0.004510651 0.035027742
-0.029475138 -0.010439568 0.019311162 0.00800423 -0.03212474 0.044040516 -0.014426172 -0.04472545
-0.0072921184 -0.022345318 -0.014049918 0.0058392575 -0.01112864 0.0441211 0.0498446 -0.0047718277
-0.036650892 0.009785444 0.061320182 0.013155104 0.03343109 0.00617545 -0.023794645 -0.005187053
-0.053590596 0.0021383401 0.008234436 0.00040104942 -0.00845841 0.023616958 -0.026669085 -0.022958627
0.027251104 -0.007474521 0.031042764 0.012455858 0.017293679 0.005460406 -0.0020128996 0.010666863
