output/2023-09-24-20-37-59/trained_model/tetris_epoch1625_score2400.pt (torch, 842187 bytes, 8 tensors)

weight f4 [32, 1, 4, 4]
00000000: f4a8 493d 1711 f53b 9fb5 93bc 32e3 353b
00000010: 31db 16bc 7e5b 963d a904 32bb 3ad1 6b3d
00000020: b1a3 59be 0d7d ff3d c22c 4a3e 651d 21bb
00000030: 1094 8e3d 47de 283e b69c 203e dc7a cebc
00000040: 008c d93e 30b1 a13c 3228 0cbf 6dea 85be
00000050: 82ac b8be f059 963d caba d3bd 1c36 bebd
00000060: 869b 853d 674a abbe ca71 333d d462 bbbe
00000070: b979 6bbe ea08 b1ba d7f3 c73d 16d5 1bbf
00000080: d5da b43c b887 80bd 70fa 40bf be46 13be
00000090: bc89 303c 251f 95be 98ad 213e 2648 75be
000000a0: a96f b43d 175a a03e 7b7d 5f3d 14a4 123b
000000b0: 2320 bfbd 0ac9 d0bd f7dd a4bd 8003 b6bd
000000c0: 1042 9abe 7b3e 8ebe c08b d2bd 6f90 7abc
000000d0: 27c1 e23d f7f2 03be 29cf 463e de5d fa3d
000000e0: de05 70be 6349 a63d acbf 05bf d41a d73d
000000f0: 4ac1 4dbe a511 e4be 6f2b 02bf ddda a83d
00000100: 08bc 54bd b8fd 4bbf e62a 4ebd a30b adbc
00000110: 27ee ba3d 7530 993d 1f21 8a3d 467d 783d
00000120: 8c3a 753e eff9 60bf 1c52 983e d2bc d2bc
00000130: 8d6e 80bd 464d dabd c309 8cbc 3207 25bc
00000140: d890 05bc 8478 a33c 36f3 d1bd 09d4 bebd
00000150: d463 75bb 458e 85bc d167 923e 07a7 463f
00000160: a1cd 153c 5e8a 203d 1160 90be 3bce 46bf
00000170: d9c1 debc 6b65 99bc c32c a0bd 2d71 33bd
00000180: b330 5e3d 9ddc 623d b168 1d3e 4c5b 8b3e
00000190: 21d4 e03d 4c1f a9bc 73cc 413e bd4c eebe
000001a0: b1d0 d43d a868 883d e715 d33c 6836 23bf
000001b0: b25d 92bd c262 913c 2c32 873d c6d9 87be
000001c0: 6ad2 2dbc a0e2 223a 69d7 7d3e b15e 7dbe
000001d0: c904 b93d 7e1e a63d 489c 37bf 6267 09bf
000001e0: 0a82 81bb 20ee b43d 2a13 dfbe 5cff dfbd
000001f0: e70e d7bc da38 453e 958f 88be 08ce f0be
00000200: 1e3d e2bd 2485 ce3d 39ea b5be 5435 2abe
00000210: 03fe 213e c53a 283e 4520 f53d 8fd7 57be
00000220: ebad 92bc 5ee7 023e f4ec acbe ce29 4dbf
00000230: 0aa1 183e d008 96bd 8683 86bd 66d1 ad3d
00000240: 44a6 08be 539b 9f3a 68cc 283d 51ba 2a3b
00000250: 6b7d d3bd f67e 43be f7ed f3be db35 a83b
00000260: d777 93bd 0780 eb3e 804c 1d3e 3cb8 bebd
00000270: 3969 8c3d 9aa2 65bf 5e30 be3d a3c4 253d
00000280: a8c4 cb3c 1654 61bd 87a6 95bd 950b dfbd
00000290: 158a 17bd 6615 ee3c d001 54be 4c05 cbbc
000002a0: aadd 5dbd 0950 ca3c 0898 123f 3caf 37bd
000002b0: e438 b2bb 5ee4 6dbd 9e56 30bf b909 1fbd
000002c0: 3677 29be 241b bcbe 6959 98be 6ee9 fbbc
000002d0: a03d 3abc 7d88 75be c12a c03c 77a2 5c3e
000002e0: 0980 5fbd 46d9 0a3d c20e d83d 240b 15bf
000002f0: 3284 d73d 7724 723c 52b3 bc3d d8ff cdbe
00000300: c1df fb3d 170a 94bd 90c1 263c ad5f f7bd
00000310: 302b d73c 8a03 003f d211 cb3c 2660 c7bc
00000320: 8708 69bc 0a77 05bf d85e 393e 3740 7ebd
00000330: 44f0 9cbd d6fb 1cbf 9e1f 3ebe f07f 9a3c
00000340: ceab 39b9 3220 2ebd c671 983b da34 413d
00000350: 277b babc 77dc 0b3e a51e 0e3e 5656 ff3c
00000360: a69a 693d 92c0 5d3f 0985 ddbc 3b77 c53c
00000370: 4896 3ebc 3465 b1bf 0445 ac3d 6c66 42bb
00000380: 4319 9b3c 2483 e33e a445 313d 358e e1bb
00000390: 5b10 dcbc 7486 313f e79c 55bb b169 bbbb
000003a0: c61b 6e3b f219 a2bf ce59 46bc 9ddb 7f3b
000003b0: a8ef 31bc 9edb 2fbd f9d3 01bd 84f0 96bc
000003c0: e4ad 8fbe 6429 53bd 85d1 093e 3095 e6bd
000003d0: 959d 32bd 8b89 5abe aaaa 9abd 6caa 03bd
000003e0: 2cde 1e3e 0750 2f3e 491e fe3d b23d 043e
000003f0: 6df6 f13b 2023 ca3d 0a65 8bbc abfd 073e
0.049233392 0.007478844 -0.01803094 0.0027753827 -0.009207533 0.073416695 -0.0027163422 0.05757258
-0.2125385 0.124750234 0.19743636 -0.002458417 0.069618344 0.16491042 0.1568478 -0.025205068
0.42489624 0.01973781 -0.54748833 -0.26155415 -0.36069113 0.07341373 -0.103383616 -0.09287664
0.06523804 -0.33455202 0.04380969 -0.36598837 -0.22995652 -0.0013506685 0.09763306 -0.6087202
0.022077003 -0.06275886 -0.7538214 -0.14382455 0.010775026 -0.29125324 0.15788877 -0.23953304
0.0881036 0.31318733 0.054563027 0.002237563 -0.093323015 -0.10194595 -0.08050149 -0.08887386
-0.30128527 -0.27782044 -0.102805614 -0.015293225 0.11071997 -0.12885652 0.19414963 0.12224935
-0.23439738 0.08119466 -0.52245593 0.10503164 -0.20093265 -0.44544712 -0.50847524 0.0824487
-0.051937133 -0.7968402 -0.05033388 -0.021123713 0.09127455 0.074799456 0.067445986 0.060666345
0.23948115 -0.8788137 0.29750144 -0.025724802 -0.06271086 -0.1065927 -0.017094499 -0.010072516
-0.008152209 0.019954927 -0.10251467 -0.09317786 -0.0037443535 -0.016303191 0.2859483 0.77598614
0.009143264 0.039194457 -0.28198293 -0.7765843 -0.027192043 -0.018725118 -0.078210376 -0.043809105
0.054245662 0.055386174 0.15371968 0.2721809 0.109779604 -0.020644806 0.18925647 -0.46542922
0.10391367 0.066605866 0.02576728 -0.6375489 -0.07146777 0.017747287 0.066013664 -0.26533335
-0.010609249 0.00062135793 0.24789204 -0.24743153 0.09034116 0.08111285 -0.7172284 -0.53673375
-0.0039522694 0.08834481 -0.4356931 -0.10937378 -0.026252223 0.19259968 -0.26672044 -0.4703219
-0.110468134 0.10083988 -0.3553026 -0.16621906 0.15819554 0.16428669 0.119690455 -0.21078323
-0.017905196 0.12783572 -0.3377453 -0.80141914 0.14905182 -0.073258996 -0.06568055 0.08487205
-0.13344675 0.0012177028 0.041210562 0.0026050995 -0.10326656 -0.190914 -0.4764249 0.005133373
-0.07200592 0.45996115 0.15361214 -0.09312484 0.06856007 -0.89701235 0.09286569 0.04047073
0.024874046 -0.05501183 -0.07307153 -0.10890881 -0.03699692 0.029062938 -0.20703816 -0.0247828
-0.054166473 0.024696367 0.5726323 -0.04484485 -0.005438911 -0.058079116 -0.6888217 -0.03882763
-0.16549382 -0.36739457 -0.29755715 -0.030750956 -0.011367232 -0.23977847 0.023457887 0.2154635
-0.054565463 0.033898614 0.1054969 -0.58220124 0.10523261 0.014779202 0.0921389 -0.40234256
0.12298537 -0.07228487 0.010177985 -0.120787956 0.02626571 0.500054 0.02478877 -0.02433784
-0.0142232245 -0.52134764 0.18102586 -0.06207296 -0.076630145 -0.6132177 -0.18566748 0.018859833
-0.00017706977 -0.042511173 0.0046522347 0.047169544 -0.022763802 0.1365832 0.13878877 0.031169098
0.05703225 0.86621964 -0.027040975 0.024104705 -0.0116325095 -1.385901 0.08411601 -0.00296631
0.018932944 0.4443599 0.043279305 -0.0068834075 -0.026863268 0.69345784 -0.0032594742 -0.0057193865
0.0036332472 -1.2664168 -0.012106372 0.0039040812 -0.010860361 -0.042934053 -0.031696294 -0.018425234
-0.28062356 -0.051553145 0.13458832 -0.11258924 -0.043607313 -0.21341531 -0.07552083 -0.03214495
0.1551444 0.17120372 0.1240812 0.1291416 0.0073841126 0.09869981 -0.017015953 0.1328036

weight f4 [32, 32, 5, 5]
00000000: f59a 2b3e 49c4 16be 2fc8 8e3d aba5 933d
00000010: 8794 e03c 9e87 3d3e 2533 4ebe 0020 ab34
00000020: ff8c 1abe 73ed bbbe 290a bf3c 6967 49bd
00000030: 31ca 1dbd 98ea 1ebe 1cfa babd 3fec 08bd
00000040: 1047 dfbe 6a44 96be 7dc4 4dbd 06c4 99be
00000050: 52a8 5f3d ee02 6e3d 41a4 f3bd 7cf8 2d3d
00000060: aae0 b33d 3ee6 903e efeb aabe 06b5 133e
00000070: 2c62 943e a6a5 b83e d85d 433e 1fe1 ae3e
00000080: 9602 94be 2f87 1cbc 86b4 16bd c372 a83d
00000090: 0392 a8be 53b0 d4be a5c4 873e 182e b1be
000000a0: 3b60 853d b29b 103e c7da 903c dd46 1abe
000000b0: 5d75 aebe fafc 4bbe 7e53 fe3e d2e9 ea3d
000000c0: 1f32 8f3d 9ca8 ae3e 51f5 45be 83dd 35be
000000d0: 0f8c b43b 9835 eb3d 5626 af3e f488 a93e
000000e0: 104f a03e 7c0e d9be f211 04bf b4f9 d4bd
000000f0: a13c 90bd a975 8d3e eec3 46be 763b 06be
00000100: cf79 97bc 94e4 2f3e 2831 ccbe c47d 1c3e
00000110: 1b40 2d3e 5074 79be 462f aa3d a32f 6bbe
00000120: 79bc c33d 610f b7be 045b be3e 7dac 49be
00000130: 6b1f f5bd 0dd0 8d3e c83a 18bf 8c2b a93d
00000140: ea90 fbbe 0db4 8a3e 0e1d 123e aded 02bf
00000150: 6715 4ebe 25e8 ddbe c416 37bd 5698 4cbe
00000160: 91c0 b63d ebc4 1ebf 6307 90bf a207 db3b
00000170: 33c5 1ebf 8c83 35bd 5a65 483e 7c42 babd
00000180: 15cf a43e dae7 74be 8b85 9c3e 596a 9cbe
00000190: 814f 693d 27ae cbbd bfa0 4c3d cae1 4b3f
000001a0: f336 39bf b6ac 90be fba2 b33e e276 813d
000001b0: 1866 0b3c 10b5 f0bd 2aa4 a7be f155 3e3d
000001c0: f8a3 713e 34ee c0bd 27da 053f d237 4dbe
000001d0: 05ee 90bd e97e d7be cb26 31be 3efd e5be
000001e0: e9cd da3d 8b79 123e 1327 573e cd16 abbd
000001f0: 8940 e8bd b619 cfbd 10f2 0b3c 03ee 393c
00000200: f984 84bc ab7e dfbd 0856 733d 7e10 55be
00000210: d028 023e be31 0b3d 99e5 55be 005a 573d
00000220: aeff 953c 11fc 5fba e47d acbc 5d92 13be
00000230: d079 e7be 8a19 bebf 4167 2abf dacc 11be
00000240: 058d 11bf 517f b539 53a2 2abe ef3e aabd
00000250: 4237 1cbe 833d b0be 7c33 913e dacd c93d
00000260: d889 83bd 9c71 b5be b457 dfbe 4dde 233e
00000270: f197 8a3d 574f d1be b2ef ea3c 09b5 82bf
00000280: 0f65 0a3d eccf 8f3e d305 94be 2266 243e
00000290: 261f 823e 7f36 a0be 00be 18be 4cc6 b3be
000002a0: fde8 f63d fa16 96be ec9b 9b3c 1aad 2d3d
000002b0: 6175 c33d ed22 8a3e 8470 053e fc78 20bd
000002c0: 78fa f1be 002a 0b3f 22a3 1bbe 2354 cbbd
000002d0: f7b9 993d c75a ff3d a54b 093e 4689 c53e
000002e0: cd7b 86bf 81dd 383c 9826 7ebe 04a4 8abe
000002f0: dd50 553e 1b76 88bd d4f9 013e 1f1f 97be
00000300: b88a c4be a865 343e 67d0 913e 5534 23be
00000310: 6726 4abe 2f3c cdbd 1185 913e a014 3d3e
00000320: 3ee3 9e3e b1b1 d9bd 57e6 563e 1b1c 813e
00000330: 7b0f 923e 48ac 1fbf d3a1 413d eb23 5cbe
00000340: 8760 2f3e 3fd2 54bd d4ed 15bf de3d 203e
00000350: 8787 ddbd 6462 3c3d 7e36 11bf 9e0c 04bf
00000360: 68d0 96be 58ce 73be fcce c63d a896 12bd
00000370: 12aa 3fbe f64a 1c3e 3018 103c 01c5 61be
00000380: 7d3f 793e 8bc6 813e e21d ee3d 72ff 9dbe
00000390: a7c3 a0bd ef4a 97be 42d7 c0be af20 65be
000003a0: 4ef2 d2ba c0a4 d1be 3173 c5be e068 5abf
000003b0: b231 b43d a448 01be 20c0 0d3e 2e2a 0ebe
000003c0: 98ee 75be b6c6 9a3e f967 91be ee05 653d
000003d0: 0e94 33bf 808d 41be 765b 213e bd7e b93d
000003e0: ea91 3d3d 3fc9 013e 7d79 f53e 7cd6 2abf
000003f0: b351 6cbd 8298 b03e 2a48 69bd 320e 19bf
0.1675833 -0.14723314 0.06971776 0.07209333 0.027414573 0.18508765 -0.20136698 3.1874515e-07
-0.15092848 -0.36704597 0.023320274 -0.049170885 -0.038522903 -0.15519178 -0.09129736 -0.033428427
-0.43608904 -0.2934907 -0.050236214 -0.30032367 0.054603882 0.058108263 -0.11896563 0.0424733
0.08783086 0.2830066 -0.33383128 0.14424524 0.2898115 0.3606388 0.19078767 0.3415613
-0.28908223 -0.009553715 -0.036793254 0.08225014 -0.32923898 -0.41540775 0.26517215 -0.3460548
0.06512495 0.14121893 0.017682446 -0.15066095 -0.34073916 -0.19920722 0.49673074 0.11470379
0.06991982 0.34113014 -0.19331862 -0.17760281 0.0055098603 0.114848316 0.34208935 0.331123
0.3131032 -0.42393863 -0.5158988 -0.103991896 -0.07042814 0.2762883 -0.19410679 -0.1310862
-0.0184907 0.1717704 -0.39881253 0.15282351 0.16918986 -0.24360776 0.08309798 -0.2296739
0.09557433 -0.3575392 0.37178814 -0.19694705 -0.11968883 0.27697793 -0.59464693 0.08260259
-0.49133998 0.27090493 0.14268896 -0.51143914 -0.20125352 -0.43341175 -0.044699445 -0.19979987
0.08923448 -0.6201922 -1.1252254 0.0066842595 -0.6201965 -0.044314906 0.19569913 -0.09094712
0.3218924 -0.2391657 0.30570635 -0.30549887 0.056960586 -0.09945326 0.049957987 0.796414
-0.7234947 -0.28256768 0.35085282 0.06321503 0.008508228 -0.11753285 -0.32742435 0.04646868
0.23597705 -0.09420434 0.52286 -0.20040825 -0.070766486 -0.42089012 -0.17299955 -0.4491977
0.106838055 0.14304177 0.21011 -0.08353958 -0.11340434 -0.10112326 0.008541599 0.01134825
-0.016176688 -0.10912832 0.059408218 -0.20807073 0.12710881 0.033982985 -0.20888366 0.052576065
0.018310394 -0.0008544336 -0.021056123 -0.14411302 -0.45210123 -1.4851544 -0.665638 -0.14238301
-0.56855804 0.00034617868 -0.16663484 -0.08312785 -0.15255454 -0.3442193 0.28359592 0.09853716
-0.06422776 -0.3543824 -0.436216 0.1600277 0.06767262 -0.40880844 0.028678749 -1.0211498
0.033787783 0.2808832 -0.28910694 0.16054586 0.2541439 -0.31291577 -0.14916229 -0.35112226
0.12056158 -0.29314405 0.018995248 0.04240141 0.095438726 0.2697977 0.13031203 -0.03917788
-0.47261405 0.5436096 -0.15198949 -0.09928157 0.07506173 0.12468486 0.13407762 0.38581294
-1.0506531 0.011283279 -0.2481941 -0.2707826 0.20831628 -0.06663152 0.12692958 -0.2951593
-0.38387084 0.17616904 0.2847931 -0.15937932 -0.19741212 -0.10021245 0.28421834 0.18464899
0.31032747 -0.10629595 0.20986305 0.25216755 0.28527436 -0.62372255 0.04727347 -0.21498077
0.17126666 -0.05195832 -0.5856602 0.156486 -0.108168654 0.04599227 -0.56723773 -0.5158175
-0.29455876 -0.23809183 0.09707448 -0.03578821 -0.1871722 0.1526297 0.008794829 -0.22047807
0.24340625 0.2534679 0.116267934 -0.30858952 -0.07849818 -0.29549357 -0.3766423 -0.22375749
-0.0016093941 -0.40946007 -0.38564447 -0.85316277 0.08798541 -0.12625366 0.13842821 -0.13883278
-0.24016798 0.3022973 -0.28399637 0.055913858 -0.7014779 -0.18901634 0.15757546 0.090573765
0.046281733 0.12674426 0.4794425 -0.6673353 -0.057695102 0.34491354 -0.056953587 -0.59787285

weight f4 [64, 32, 5, 5]
00000000: 31f7 5c3d 98b3 58bc da68 e3bd 6d7c 233e
00000010: 4377 dabe e724 6a3e 444c d73d 15d9 223e
00000020: b016 91bd 8828 ac3d 7858 90bc 8030 3bbe
00000030: 035f 13be b2ee 043b ba6a 1a3f 3c5b 08be
00000040: 6235 873d e080 eb3d 6df7 16be 1c7a a83e
00000050: 9d17 2dbd db7e 78be f0f1 9cbb 0f8c f43e
00000060: 1105 5c3d 646b ee3e 9a50 cebe e65f 54bd
00000070: 59f0 90be eadc e13d b983 27bd a3eb a03e
00000080: 6b70 af3e 564c e1be bb05 9bbe 733e 25be
00000090: b5fc 523e 61cc 2b3f bd00 d9bd 5bef 32be
000000a0: 1420 e53e 5b69 a33e 8d2b b4be 068d 033f
000000b0: 62cc 783d 97f4 a7bd e41d 1b3f d288 b33e
000000c0: adc7 003e 44ae 403c 97fe 95be 98a5 5ebd
000000d0: c7b2 f13e a02e 083e 3157 a1ba 5023 e03e
000000e0: 5b34 3abe ea26 08bf 9ef1 05bf d506 34bf
000000f0: 7cfb 7d3e bbc7 403d 0000 cbbe d26e a53e
00000100: cb0c 9bbe b905 2d3e 1d09 273e 42c4 973e
00000110: 64a6 48be c881 e4bd ff92 233f 3db8 fc3d
00000120: 1127 f6bc c356 3b3e 6046 20be d0a0 abbe
00000130: 8c9f dfbe 472d bbbd 4c98 993e 4be3 92be
00000140: d060 0e3f d13f 963e f9a5 e23c 9ac6 b23e
00000150: 660a f93e 5708 06bd 7863 87be b41d 9bbe
00000160: 2f0f e9be e9c0 87bf c33f 0bbf cac9 f5bc
00000170: 3f5b b8bf 890b eabd 5afb 9d3e c882 433e
00000180: 0844 e13b 87d4 08be 7300 f33e 5952 663c
00000190: 7127 66be 96a2 cd3e ce8b a23d 830e c53d
000001a0: 3d46 1e3e fd9b ac3d bc90 48be 974a e63d
000001b0: 7e1e 0a3e 024e 143f ca39 643e 18bc 1bbd
000001c0: 7f8e 4abe eede ac3d 1d79 67be a4c5 1dbe
000001d0: 5f24 2c3e babb dcbd bc82 25bf 369f 10bf
000001e0: 0dc0 b1be 90bc b8ba 078b 6f3d 2437 c83e
000001f0: 7ea2 96be a47a ba3c de13 0fbf 36ad 9abe
00000200: d747 633e 9572 6fbf 67ee d93e e007 a8be
00000210: 678f 143e 9679 06bc a7e0 18be 3bfe ac3c
00000220: 9c49 4b3e 8595 913e e772 edbc 16a4 6fbe
00000230: 329f bebe 63c5 8bbe 852f d33d c96b 9abd
00000240: adf5 88bc 2587 d5be 81d4 63bd 5980 073e
00000250: 2431 4dbc 4185 283e d2c0 4bbd 0738 fcbe
00000260: 5e92 523c dcd0 d6bd c173 d9be 0fd9 b53d
00000270: 7dfd 3d3d 5624 813e 3e7b 7ebd d159 9c3d
00000280: c371 07bd 3c6c 6e3e 2213 813e bd3c 64be
00000290: dc12 8abe b24a 663d 510e 42bd f20b 51bd
000002a0: f44c 07be 9978 acbe f388 b53e 519d 2d3e
000002b0: abfd 563e 10cc dcbd ba77 47be d5b3 43be
000002c0: 2f33 d6be 1981 aa3d 63a0 02be eb1b 2c3e
000002d0: fd2d c63e ae05 8a3c f10b 3e3c 806e b1bd
000002e0: 7507 b3bc 866f 993e 5565 1dbe 02bd 72be
000002f0: ccea 8e3e 9b50 ce3e 77c9 cabd 4133 c3bc
00000300: 3392 b6bd 7dfb 45be 1211 15be 7c6e 913e
00000310: c830 30be 909d 943e 6133 4fbf 9aae 75be
00000320: 6552 7c3e 116c 953e 344b 31bd a47e c3be
00000330: 7aa3 6cbd b4fb b83e 6d50 6cbf 9733 183e
00000340: daf6 c4be 3e57 153e ca1c 9c3e 2e23 803e
00000350: 48f3 0d3d 6258 4fbe c868 ffbe 116a e43e
00000360: 1958 c03d 52de 2a3c c17e dbbd 3929 023f
00000370: 940e ca3e a7ee 8d3d 9f10 ddbd ff6e 063e
00000380: 8944 3abd d991 f33e 9421 123e e449 e1bd
00000390: 2d29 6ebe 3a64 b43e b649 833d ecc7 dc3e
000003a0: 14cb 573e ff40 efba 1f6b 173f 33c9 f23c
000003b0: 76b5 6a3d d688 d63b 9642 523e 0d32 0e3e
000003c0: 936a cf3e 3dee 0a3e a394 86be 8330 e03e
000003d0: 7e3b a93c f5b8 663c 2dfc 17be 2aa7 7b3e
000003e0: bbad 033f 4551 90be 522c 283e 733c 0b3e
000003f0: 633f a73e 8953 59be f957 9c3e b092 183f
0.053946678 -0.013226412 -0.11103983 0.15965433 -0.42669114 0.2286564 0.105125934 0.15903123
-0.070844054 0.08406168 -0.01762031 -0.1828022 -0.14391713 0.0020283875 0.603191 -0.13316053
0.06601979 0.1149919 -0.14742823 0.32905662 -0.042258848 -0.24267142 -0.0047895834 0.47763106
0.05371577 0.46566308 -0.4029587 -0.05184927 -0.2830837 0.11028464 -0.040897105 0.31429777
0.34265456 -0.44003552 -0.3027781 -0.16137104 0.20604213 0.6710873 -0.10595844 -0.1747412
0.44751036 0.31916317 -0.35189477 0.5138706 0.06074179 -0.08200949 0.60592484 0.35065323
0.1257617 0.011760298 -0.292958 -0.05435714 0.4720671 0.13299036 -0.001230931 0.4377694
-0.18184035 -0.5318438 -0.52321804 -0.70322925 0.24802965 0.047065478 -0.39648438 0.32311112
-0.30283198 0.16896714 0.1631207 0.2964192 -0.19594723 -0.11157566 0.63896173 0.12339828
-0.030047925 0.18294816 -0.15651846 -0.33521128 -0.43676412 -0.09139495 0.29999006 -0.28689036
0.55616474 0.29345563 0.027667033 0.34917146 0.48640746 -0.032722797 -0.26443076 -0.302961
-0.45519397 -1.0605747 -0.5439417 -0.030003447 -1.4402846 -0.114279814 0.3085583 0.19092858
0.006874565 -0.13362323 0.4746128 0.014057719 -0.22475983 0.40163106 0.07936822 0.096219085
0.15456481 0.0842819 -0.19586462 0.11244696 0.13488194 0.5793153 0.2228767 -0.038021177
-0.1978092 0.08440958 -0.22604795 -0.15407425 0.1681075 -0.107779935 -0.6465261 -0.56492937
-0.34716836 -0.0014094282 0.058482196 0.3910457 -0.29420847 0.022763558 -0.5588969 -0.30210274
0.22195373 -0.93534213 0.425647 -0.32818508 0.14507829 -0.008207699 -0.14929448 0.02111732
0.19852298 0.28434387 -0.028985454 -0.23402438 -0.3723083 -0.27299032 0.10311798 -0.0754009
-0.01671871 -0.4170467 -0.05562258 0.13232554 -0.012523923 0.16457082 -0.049744435 -0.49261495
0.0128522795 -0.104890555 -0.42471126 0.08879291 0.046384323 0.25223035 -0.06212925 0.076343186
-0.033067476 0.23283476 0.2520991 -0.22288795 -0.26967514 0.05622358 -0.047376934 -0.051036783
-0.13212949 -0.3368576 0.35456046 0.16954543 0.20995204 -0.10781109 -0.19479266 -0.19111569
-0.41835925 0.08325405 -0.12756495 0.16807525 0.3870696 0.016848411 0.011599527 -0.08663654
-0.021854142 0.29967898 -0.15370686 -0.23704913 0.2791351 0.40295872 -0.099017076 -0.02382815
-0.08914604 -0.19334216 -0.14557293 0.28404605 -0.17206109 0.2902646 -0.80937773 -0.23992386
0.24640806 0.2918401 -0.04328461 -0.38182557 -0.05777309 0.36129534 -0.9231022 0.1486343
-0.38469583 0.14584062 0.30490714 0.2502684 0.03465584 -0.20248559 -0.4988463 0.44612172
0.09391803 0.010428982 -0.10717536 0.5084415 0.39464247 0.06930285 -0.10794186 0.13128279
-0.045475516 0.4757221 0.14270622 -0.11000422 -0.23257895 0.35232717 0.064105436 0.43121278
0.21073562 -0.0018253623 0.5914783 0.029636955 0.05730196 0.006547074 0.20533213 0.1388628
0.40510997 0.13567443 -0.26285276 0.43787012 0.02065825 0.014082183 -0.14842291 0.24575487
0.51436967 -0.28187004 0.16423157 0.13597278 0.32665548 -0.21223272 0.30535868 0.5959883

weight f4 [256, 256]
00000000: ef68 603d 5bef bc3c dbfb a8bb 1264 c83d
00000010: a30c b63d b212 aabc 96b9 90bd 6887 d0bd
00000020: 4cbf 573c e351 fbbd f134 85bd afee 3e3d
00000030: 74a2 dc3d 5927 193e 4406 1dbd 3004 113d
00000040: 96d1 39be b98f 593e 2dd4 c13d ecd9 773b
00000050: 7f56 f8bd c510 403d 0077 f5bc ff40 c1bd
00000060: 6bab 963d c132 15be 334a 23be c221 07bd
00000070: f64b 5b3a 22cf 713d 57f9 08bd 99c4 183c
00000080: a929 133f 6339 54be 8170 9bbc 5a11 b43d
00000090: 77e7 113b e7fc e5bb 3011 bfbb 0d7f 3b3c
000000a0: b952 c1bb 140b aabe ace1 ff3b 71a6 89bd
000000b0: ddb9 a03c 74b4 4dbd 5b18 ffbd 8a96 203d
000000c0: 4c4a 93bd 2632 1b3d 148d c5bd 4368 813e
000000d0: ad36 84bc 8046 ed3b 38d7 7cbd cd84 b9bd
000000e0: 5de6 28bd e59d ddbe 795a 733e 44d8 40bd
000000f0: c047 c23d 5692 dc3c a919 f0bd fe63 71be
00000100: 236e 9abd 8993 99bd 93ff b1bd 758e 9b3d
00000110: 6f9c 103e 9207 abbb 7e2a cf3c 36f6 8bbd
00000120: fc30 8fbd b62c 98bd 9671 933d 2d8a 90bb
00000130: a9b3 0bbe 168d 483d 2bdc 36bd 2c60 753c
00000140: d522 383d 0226 e2bc ceea fb3d aa0f dd3d
00000150: 4bff 34be 6633 85bd 0b1e 173d a162 713b
00000160: 1c06 7dbb 31d3 393d 0e3c b2bd 32f0 d1ba
00000170: dd54 123d 4fa4 36bd 74ed 2b3d 6312 b7bd
00000180: cdcd 013f 63cb 13bd 1cd7 42bc d189 e73c
00000190: 6a64 713e f6df 93bd 2f90 543e 8cf3 0bbf
000001a0: 3884 e83d 962c a13d 9913 be3b 724f e13d
000001b0: 2dd9 093e a59f 403c 3601 253e d4a0 4d3e
000001c0: 5314 1abd e5fd 98bd 4b3f 49bd 946f c63d
000001d0: 2713 b7bd e598 f33c edbd 16bc 6729 6539
000001e0: 2b5d 4ebe 01f0 6e3d 31e3 8cbe be1f 90be
000001f0: 5a12 5d3d ccc9 083d 5e5c 94bc 5f7f bebd
00000200: e634 30be a69b 06be ab09 10be 9590 6e3e
00000210: c4aa a63d decf b3bd ffb6 9abd 2609 b8bc
00000220: 7337 99bc 90c1 2f3d 84bb 02b9 20eb b6b9
00000230: 792e c7bd ecdb 85bc 047d c13d e2be d43c
00000240: 3644 fb3c 646b 053d 8c2f a53d af98 b9bd
00000250: b137 0fbd d404 823d 10bd e4bc e0bc a0bc
00000260: 7bad 803d 9894 af3d 8bc2 a03d ec9c 21be
00000270: 2635 5a3d 2b73 a7bd b06d d0bd 8838 e63d
00000280: b2fd 77bd 0417 123d 8cd0 63bd 1160 a43d
00000290: 2946 d9bd bc80 343d c242 993d 209e 7abb
000002a0: fe99 b53d d49d d33d 63c6 413d 4bcf b13d
000002b0: 2f1a 12be 90b9 bcbd fbd3 b5bb 6cd0 dabe
000002c0: 09a3 853d 9f44 843b 184b b03d ca70 a7bd
000002d0: fb34 93bd 4b7c a3bd 03e0 01bc 537e 3ebc
000002e0: 6a21 4fbe 2aba d1bd 2071 113d 76b8 edbd
000002f0: 239e b53b b7cd b03d c764 80bd 4131 e6bc
00000300: 99d2 e63b 1b5e b9bd eea1 4a3d e454 b33e
00000310: 103c 97ba 9c5a 17bd fb07 46bd 9e8b 063d
00000320: 0920 91bd 8d6d 8fbe ab48 153e 6a36 073c
00000330: c874 c53c aaad 1a3e e39d 063e af6b 013d
00000340: 03cb ed3d 830a 1b3d 2896 f33c c8e7 90bc
00000350: c28d 6d3e 423a 333d 01bd 80be 7367 06be
00000360: d876 bf3d 5d60 093e 6efa c8bd a9ce a13c
00000370: d1eb 09bd 40e8 3c3d 03c8 43bd ff19 453c
00000380: 7a95 bd3d 32a9 d93c e975 1a3e 2dbe 08bd
00000390: 572b 3f3d 6577 553d 1f15 0c3d 9c74 b0bd
000003a0: 6f4c 61bd 0f0e 383d 081a 8a3d 1238 813d
000003b0: 18c5 8ebe c44b 5e3d f917 b43e aaa3 c73c
000003c0: 844d 383e bd8b ae3c 080d e4bd aee9 57bd
000003d0: 34cb 81bd 2e14 673d 0689 103d 893e a23d
000003e0: 7931 f73d 9655 0f3d 4cb4 b73d e2b7 b53d
000003f0: c37a 873c e306 3dbc 0f36 dd3c 9311 d43a
0.054787572 0.023063352 -0.0051569766 0.09784712 0.08889129 -0.020760868 -0.07066648 -0.10182077
0.013168167 -0.12271478 -0.065042384 0.046614345 0.10773173 0.14956416 -0.038336053 0.035404384
-0.18146357 0.21246232 0.094642974 0.00378191 -0.12125873 0.046890993 -0.02996397 -0.09436225
0.07356914 -0.14570142 -0.15946274 -0.03299118 0.0008365506 0.059035428 -0.033440914 0.009324216
0.57485443 -0.20725016 -0.018974544 0.08792372 0.0022263208 -0.0070186737 -0.0058309063 0.0114438655
-0.005899754 -0.33211577 0.0078088846 -0.06721199 0.019619877 -0.05022092 -0.12455817 0.039206065
-0.071919054 0.037889622 -0.09646049 0.25274858 -0.016139353 0.0072410703 -0.061728686 -0.09058533
-0.041235317 -0.43284526 0.23764981 -0.047081247 0.094863415 0.026925247 -0.11723644 -0.235733
-0.07540538 -0.07498843 -0.08691325 0.07595531 0.14122175 -0.0052194083 0.025288817 -0.068340704
-0.06991765 -0.07430403 0.07199399 -0.004411003 -0.13642754 0.048962675 -0.044643562 0.014976542
0.044955093 -0.027606014 0.12300645 0.10794003 -0.17675512 -0.06503944 0.036893886 0.003683247
-0.0038608378 0.045367423 -0.08702861 -0.0016017018 0.035725463 -0.04459029 0.0419745 -0.08939054
0.5070465 -0.036082637 -0.011892106 0.028263958 0.23573461 -0.072204515 0.20758127 -0.546685
0.11353344 0.07869832 0.005800676 0.11001481 0.13461752 0.011756812 0.16113743 0.20080882
-0.03761704 -0.074703015 -0.049132627 0.096892506 -0.089392 0.029735992 -0.009200555 0.00021854565
-0.20152728 0.058334354 -0.27517083 -0.28149217 0.05397258 0.033395573 -0.01811045 -0.09301638
-0.17207679 -0.13145313 -0.14066188 0.23297341 0.0813804 -0.08779882 -0.07554435 -0.0224653
-0.018703198 0.042909205 -0.00012467621 -0.00034888927 -0.09725661 -0.016340218 0.09447673 0.025969926
0.030672174 0.03257312 0.080657095 -0.09062325 -0.03496522 0.06348577 -0.027922183 -0.019621313
0.06283089 0.08573264 0.07849606 -0.15782517 0.053273343 -0.081762634 -0.10177171 0.11241251
-0.060544677 0.03566648 -0.055618808 0.08026136 -0.10609085 0.044068083 0.07483436 -0.0038241223
0.08867262 0.10332838 0.047308337 0.08682116 -0.14267801 -0.09215081 -0.0055489517 -0.42737138
0.06525237 0.0040365006 0.08608073 -0.0817581 -0.071878396 -0.079826914 -0.007926944 -0.011626798
-0.2022759 -0.10240586 0.035508275 -0.11607449 0.005542533 0.08632987 -0.06269222 -0.028099658
0.007044148 -0.09051152 0.049470834 0.35025704 -0.0011538286 -0.036951646 -0.048347455 0.032847993
-0.07086188 -0.28013268 0.14578502 0.008252719 0.024103537 0.1510531 0.13146167 0.031596836
0.11610987 0.03785182 0.029734686 -0.017688647 0.23198608 0.04375673 -0.251442 -0.131254
0.093488395 0.13415666 -0.09813391 0.019751864 -0.033672158 0.04611993 -0.047798168 0.012030124
0.09257026 0.026569936 0.15084042 -0.03338449 0.04667219 0.052115817 0.03419983 -0.086159915
-0.055004533 0.044935282 0.06743246 0.06309523 -0.27884746 0.054271474 0.3517454 0.024370033
0.1799832 0.021306867 -0.11135298 -0.05271309 -0.06337586 0.05641573 0.035286926 0.07922084
0.12069983 0.03499373 0.08969936 0.088729635 0.01653803 -0.011537286 0.027003316 0.0016179554

bias f4 [256]
00000000: f8ef 393c 5e8b 2b3c dfde 9a3d 7199 74bc
00000010: 0dfc 14bd 6076 c5bd 2ce5 67bd 35b4 703d
00000020: 530c 0d3e e2fe ecbd a344 9f3c 42cc 93bc
00000030: 33d9 a53d b8ea a5bd b921 fcbc 318b ffbc
00000040: b9d7 39bc be72 5abd 384e 993d f49d 8ebd
00000050: 0c46 c93c 40d6 75bd 31b8 a93d 4439 473e
00000060: 491d 10be 710e f53d 961f 493d a07c abbd
00000070: cddc debd 4764 fabd 678f 053e 5c8f f03d
00000080: 7d05 0fbd 5a55 093c 711c 833d e3e7 81bc
00000090: 3620 f8bd 1f17 96bb 5e83 25bd d50b 19be
000000a0: 1c9e 6dbd ae58 633d d734 403d 24b4 d4bd
000000b0: bba9 40bd 9503 e43c e49c d93d 2f5a 1f3e
000000c0: ed2f 04bc f8cd 9a3d 67a7 2dbd 49ee b73c
000000d0: 67fd 0bbe 438d dd3d 39ed f43d 481c 02bd
000000e0: d71a 08bd 3375 283d c29a 4a3e fe3d 843c
000000f0: 2364 91bc 7f06 4d3d 5cc1 01be fbf8 393c
00000100: d940 393b 8ff6 253d a168 323b 52bb 56bd
00000110: 95d1 b0bd 5470 62be 64fc 3fbd 154b a1bc
00000120: 6fcf a2bd 0d8f a03d e6df 153d 4fbc 073d
00000130: a34c a23c ad1f 163d b5f2 5d3d e225 2dbd
00000140: c3c0 19be f7a4 083d 9e19 9abb e468 fcbc
00000150: 08b0 d4bd 16b8 bf3d 2f03 a33d b3ac 2e3d
00000160: 0d9c 353e b743 75bd 32db 933d f01a c3bb
00000170: 943f 173d 7beb dc3d e403 9c3d db30 1d3d
00000180: 505b 14be 6ab8 643e ad44 12be 420d e2ba
00000190: a34a 663d 5a00 0abe 85d0 f9bd 56f3 14bc
000001a0: 6aae 92bd a075 42bd d1a8 97bd e9e6 fd3d
000001b0: 0f72 063e 0d0d 323d b7f1 8cbd a517 b43d
000001c0: 1710 0fbc 60fe 2f3c 8865 7abd b218 d73c
000001d0: eeef c2bd e0aa f4bd f7d4 ccbc c1f4 88bd
000001e0: 58f5 95bc 69f0 1f3e 135f 7f3d b2ff d1bc
000001f0: 2e55 95bb 6574 bc3c ef20 ecbc 4bb7 47bc
00000200: 1033 acbd c9e5 ee3c 3453 4d3d 004f a33d
00000210: 84b4 cdbd ba30 f0b8 082e c83d deaa af3d
00000220: ef1a d4bd 5130 b7bc 82a2 4dbd 8213 b5bd
00000230: 80b0 e53d c904 14bb 7979 0dbd 5e17 debd
00000240: 4d1b 2a3d 8754 b03c 17c3 32bd cdc7 363e
00000250: 6990 2c3d f661 183e 012c dcbc 510a 7c3d
00000260: 0af6 ee3c ebaf 053d b1c4 bbbc 6597 9dba
00000270: d376 bf3d a793 c53b 5a67 00be 5d03 c7bd
00000280: 1e6a be3c bc8c a5bc 72ba 8e3b f88b 99bb
00000290: bacf a43d 6d95 2abe d929 983d da0c 44bd
000002a0: 0c8d 6cbc d926 4dbd d145 87ba 5276 333d
000002b0: edb2 a5bc ea11 1ebd e411 1f3d 059c df3d
000002c0: 308a 783d 5c0c aebd 1fd8 c8bd 7576 fabd
000002d0: c3d8 6d3d de94 453c f926 313e f670 f3bc
000002e0: aa54 2d3d ba81 a9bd 5b41 243e dae7 0ebd
000002f0: b2e4 60bd 26c5 8abd a52e 4bbd 16c2 573a
00000300: 8682 e1bc 386e fa3d b523 a2bd 66fd d13d
00000310: 6e73 003d 5fe3 61bd 7374 543c 7fee 233d
00000320: 16cc 773d 1dc1 a8bd fbb3 bb3d c341 2ebd
00000330: 0bc6 c63c a64d 4dbd 7a08 0c3d 27b3 6b3d
00000340: 931c 1f3e 4b32 df3c df23 61bd 677a a0bd
00000350: 2f22 04bd 458b ef3d 1961 cabd 5621 d93d
00000360: 10cc 983c 90a0 2a3e 91fb f23c f190 f6bc
00000370: 6324 4b3d 275c 83bb 1133 8f3d e53f fb3d
00000380: ffcf fe3d 6668 07ba 76e3 f73c ad8d 5fbc
00000390: 02cf 00bb ecbc 103a 6e7a f1bb 3427 0cbe
000003a0: 4e9a 41bd ae38 d03d 3f80 45bd 5da4 c33d
000003b0: 58d6 27bd 7be2 9d3d 4340 16be bc3a 39bc
000003c0: c316 d6bc b200 a73c 909f a3bc c574 18be
000003d0: ed82 9e3d 3edf a03b b8ad 183b c22c 463d
000003e0: c27c b7bd eaf9 4e3d 7b10 dc3b e2fc af3a
000003f0: fbea fdbd f8e7 7abc a64f 4e3d 9083 d93d
0.011348717 0.010470239 0.075620405 -0.014929161 -0.036373187 -0.09641719 -0.05661504 0.05876561
0.13774233 -0.115720525 0.019441908 -0.018041734 0.08098068 -0.0810141 -0.030777799 -0.031194301
-0.011342936 -0.053332083 0.07485622 -0.06963721 0.024569534 -0.060018778 0.08287085 0.19455439
-0.14073671 0.11965645 0.04910239 -0.0837338 -0.10881958 -0.12226158 0.13042985 0.11746094
-0.034917343 0.008382166 0.06401909 -0.015857643 -0.12115519 -0.004580393 -0.040408485 -0.1494592
-0.058012113 0.055504493 0.046925392 -0.103859216 -0.047036868 0.02783374 0.10625628 0.15561746
-0.008068067 0.07558817 -0.042395975 0.02245249 -0.13670884 0.10817959 0.11959309 -0.031765252
-0.03322872 0.041127395 0.19785598 0.016142841 -0.017747944 0.050055023 -0.12671417 0.0113508655
0.0028267412 0.04051834 0.0027223008 -0.052424736 -0.086337246 -0.22113162 -0.046871558 -0.019689122
-0.07949721 0.07839785 0.03659048 0.03313857 0.019811934 0.036651302 0.05418654 -0.042272456
-0.15014939 0.033360448 -0.004702761 -0.030811734 -0.10385138 0.093612835 0.079595916 0.042645168
0.1773531 -0.05987903 0.072195426 -0.005954139 0.036925867 0.10787102 0.076179296 0.03837667
-0.14487958 0.22335973 -0.1428401 -0.0017246383 0.056223523 -0.13476697 -0.12197975 -0.009091219
-0.07162173 -0.047475457 -0.07405246 0.12397558 0.13129447 0.043469477 -0.06882041 0.08793572
-0.008731863 0.0107418 -0.061131984 0.026256893 -0.09518419 -0.11946654 -0.025003893 -0.06687308
-0.018305466 0.15619053 0.06234653 -0.02563462 -0.0045572734 0.02300472 -0.028824298 -0.012189697
-0.08408177 0.029162304 0.050128177 0.079740524 -0.10044196 -0.00011453168 0.09774405 0.08577512
-0.103567 -0.022361906 -0.050203808 -0.088416114 0.11215305 -0.002258586 -0.034539673 -0.10844301
0.041529942 0.02152468 -0.043643083 0.17849655 0.042129908 0.14881119 -0.026876451 0.061533276
0.029170055 0.03263847 -0.022920938 -0.0012023269 0.09348836 0.0060295644 -0.12539425 -0.09717438
0.02324396 -0.020208709 0.004355722 -0.004685875 0.08047433 -0.16658564 0.07429857 -0.04786382
-0.014437925 -0.050085876 -0.001032049 0.04381401 -0.02022692 -0.038591303 0.03883542 0.1091843
0.06067866 -0.08498451 -0.09806847 -0.12229625 0.05806805 0.0120594185 0.17300023 -0.02971695
0.04231707 -0.082766965 0.16040556 -0.03488908 -0.0549056 -0.06775884 -0.04960503 0.000823052
-0.027528059 0.12228054 -0.07916967 0.1025341 0.031360082 -0.05514848 0.012967217 0.04002237
0.060497366 -0.082399584 0.09165188 -0.042543184 0.024264356 -0.05012288 0.03418777 0.0575439
0.15538244 0.027245661 -0.05496585 -0.078358464 -0.032259163 0.116964854 -0.09881801 0.106020615
0.018651992 0.16662812 0.029660972 -0.03009841 0.049595248 -0.004008788 0.06992162 0.12268046
0.12442016 -0.0005165398 0.030259829 -0.013644618 -0.0019654636 0.00055213156 -0.007369331 -0.1368683
-0.047266297 0.10167061 -0.048218008 0.09552834 -0.0409759 0.07709213 -0.14672951 -0.011305507
-0.0261339 0.020386074 -0.019973546 -0.14888294 0.07739816 0.004909425 0.0023296904 0.048382528
-0.089593425 0.050531305 0.006715832 0.0013426805 -0.123983346 -0.015314095 0.050368927 0.10620797

weight f4 [256, 256]
00000000: 2bb0 833c 604d 11bc afb5 823c cd7a 703c
00000010: 34d5 c3bb bc19 89bc a2ce b93b d29a 98ba
00000020: 9f30 fbbc 0a05 65bd 0af1 31bc 432f 853c
00000030: 1eaa 6e3d 270a 36bd 8a7c 163c a167 843c
00000040: a50d 52bb b7ef 993c b459 98bd 3a54 4cbd
00000050: 3812 b13a dc13 2c3d 8821 0a3c 01d4 debc
00000060: 8722 7e3c 5377 3e3d ea6a 9bbc 4458 153d
00000070: 6e32 063d f320 923d ef1a 69bc 747e 7ebc
00000080: 6358 793d dccc 63bd 837a 4ebc 6876 a73b
00000090: 5130 883d f13d 8bbc d3b0 92bb d571 903c
000000a0: 5e58 61bd d4bb 88bc 92e9 9ebb ea84 0e3b
000000b0: aa6b 0c3d da85 a63c cee7 db3c 4bd9 a83d
000000c0: 922e ae3d 0fe0 1d3d 9758 3b3c ef69 82bc
000000d0: c363 37bc bc25 7e3c d843 f73c 23a6 093d
000000e0: bc3e 4bbc f44c 86bc b31c c2bc f1a8 f7bc
000000f0: 5065 863c 01ab 38bd ac87 6d3c f0d1 f1bc
00000100: 8153 b53c 1208 e8bc 7c2e 82bd 687a 3d3d
00000110: abc5 46bb fd1f 7e3b fe39 87bc 9bd8 213c
00000120: b22e 23bd c612 6ebb 97ba 153d 344e a23d
00000130: ed85 cabc b5c7 b23c 7ebc 303d e306 ec3c
00000140: ae8b 75bb c28e bd3c 3b66 d83c e968 9ebd
00000150: cefd bb3b 91bb bc3c dbaf 0fbd 94eb 89bc
00000160: 7749 7b3d 97ea ab3c 9f21 bdbc 4eb7 24bd
00000170: 6a46 203c 18f9 d4bc d86a 143c 1afd e13c
00000180: 9772 4cbd d997 e9bb c471 bcbb beb9 96bc
00000190: 51eb 3fbd 6397 83bd edb0 613b 0905 7cbc
000001a0: 77d9 883c 2e84 833c b349 abbc 73e3 0dbc
000001b0: 623e 7bbd d996 7dbd b95b afbd db7b 0bbc
000001c0: 7dd2 053e 6a9d f83c 7c6d 3f3d 07f6 713d
000001d0: 8fad 8f3c 80ef b836 1350 4f3d cdfe 533c
000001e0: 2f7d bbbc dc9c 1fbd 2d08 0dbd 0f79 f1bb
000001f0: bfe0 33bd 3121 5ebd 00aa 07b5 c237 6ebc
00000200: 2bf1 81bc 457c ab3c f16a f63a 2430 953d
00000210: 358a 653c b17e 383d 3a9b 74bc 8a4b 903c
00000220: 837e 89bb 8680 093c 025d e9bc afdc acbc
00000230: 9496 e2bc e5d6 3a3d 3271 8e3b eee9 b83a
00000240: ac26 443a dda3 4cbd bb48 7ebd b7c2 43bd
00000250: 160d 1dbd b346 1ebd 601e c2bc fb5b 0f3d
00000260: 6654 7dbd 780a 68bd bd52 103d eb63 d7bc
00000270: 7caa 88bc 4716 b53c 6036 9ebc 3ff2 b9bb
00000280: b807 56bc 2231 a33c 9547 9dbc 4bf3 9dbc
00000290: 2217 293d 785c 10bc 1b0f a4ba 14d4 9fbd
000002a0: b13e 4cbd e801 75bc e084 583d 22fb 943c
000002b0: 301f 84bb df7f f63c 50c5 fd3c 153a 583d
000002c0: 5826 dc3b 0387 02bc caa5 433b a826 023c
000002d0: 2842 93bb ba8a ccbc c02a a03c 90de 52bc
000002e0: 9f29 e83c a81e 693d e64f d5bb 6333 aebc
000002f0: 277c d8bb b399 95bc e663 5f3b bcb1 f4bc
00000300: 0618 e03c 8621 913c 322a 36bd 1580 f8bb
00000310: 87b1 c53c 3973 8bba de9f 853d b1f9 dd3a
00000320: 0fbb 3abb da4c 9a3c c93f f83c 8923 afbc
00000330: 97e2 5e3c 9342 d83c 35f1 94bc 7ca2 9a3c
00000340: f84d e8bc 9a3d 203b 3f98 8d3d f952 00bd
00000350: 59f8 543c 80d0 12bd d579 7fba 00d3 94bc
00000360: 7414 083d a9b9 fe3c 1ebd 3dbb f071 b6bd
00000370: 3a77 06bd 47be 833d c393 1f3d eec4 b43c
00000380: a806 953c c9a5 803c 0bac 233d 3293 c23d
00000390: 9727 563c a8a8 613d b44f 36bb 7679 10bd
000003a0: 5ea5 a6bd 8969 9d3c e07b ebbc a719 ce3c
000003b0: 5789 f0bc fbcf 3abc e60d 35bd ecac 97bc
000003c0: b3e8 b93b 7c64 603c 3ec3 c7bb 8aa7 f93c
000003d0: 4c30 cd3b a20b 9cbc 6de8 013c c070 3fbd
000003e0: 3cf9 8dbc 23ab 20bd 7437 393d cfaa 8dbc
000003f0: 6f93 a6bc 708f 76bc f688 27bb 3147 56bc
0.016075214 -0.008868545 0.015955774 0.0146777155 -0.0059763435 -0.016735904 0.0056703845 -0.001164282
-0.030662833 -0.05591301 -0.010860691 0.016257888 0.058267705 -0.044443276 0.009184966 0.016162695
-0.003205159 0.018791063 -0.074389845 -0.049885012 0.0013509458 0.042011127 0.008430846 -0.0272007
0.015511162 0.046500515 -0.018971879 0.03646113 0.032762937 0.07135191 -0.014227613 -0.015533078
0.060875308 -0.05561529 -0.012602451 0.0051105507 0.066498406 -0.01699731 -0.0044766455 0.017632404
-0.055015914 -0.016691126 -0.004849621 0.0021746703 0.034282364 0.020327497 0.026843932 0.0824457
0.08504976 0.038543757 0.011434696 -0.015919654 -0.011193219 0.015511926 0.030183718 0.033605706
-0.012405094 -0.016394116 -0.023695325 -0.030231925 0.016405731 -0.045084957 0.014497679 -0.029519051
0.022134544 -0.02832416 -0.063565224 0.046259314 -0.0030330222 0.003877639 -0.016507145 0.009878303
-0.039839454 -0.0036327108 0.0365549 0.07925072 -0.024722064 0.021823743 0.04314851 0.028811878
-0.0037467289 0.023139361 0.026415935 -0.07734854 0.005737043 0.023038657 -0.03507982 -0.016835965
0.06134936 0.020985885 -0.02308732 -0.040213875 0.009782413 -0.025997683 0.009058677 0.027586509
-0.04991397 -0.0071286974 -0.0057508666 -0.018399116 -0.046855275 -0.06425359 0.0034437731 -0.01538206
0.016705258 0.01605424 -0.020909166 -0.008660185 -0.06133879 -0.061911438 -0.085624166 -0.008513416
0.13068576 0.030348498 0.04673527 0.05907252 0.017538814 5.511509e-06 0.050613474 0.012939167
-0.02288684 -0.038967952 -0.034431625 -0.0073691676 -0.043915506 -0.054230873 -5.05388e-07 -0.014539661
-0.015862068 0.02093328 0.0018800182 0.07284573 0.014010002 0.045042697 -0.014929587 0.017614145
-0.0041959896 0.008392459 -0.028486732 -0.021101324 -0.027659692 0.045615096 0.00434699 0.0014107802
0.0007482569 -0.04996096 -0.06208108 -0.047793116 -0.038342558 -0.038641643 -0.023696125 0.03499983
-0.061848067 -0.05665061 0.035235155 -0.026292762 -0.016682856 0.02210535 -0.019313037 -0.00567463
-0.013063364 0.01992089 -0.019199172 -0.01928105 0.041281827 -0.008811109 -0.0012516709 -0.078041226
-0.049864475 -0.014954068 0.052861094 0.018186156 -0.004032038 0.03009027 0.030977875 0.052789766
0.006718438 -0.00796676 0.0029853457 0.007943787 -0.0044939704 -0.024968494 0.019551635 -0.012870446
0.028340159 0.056914 -0.006509769 -0.021264737 -0.006606597 -0.018261766 0.0034086644 -0.029869907
0.027355205 0.01771618 -0.044473834 -0.007583628 0.024132503 -0.0010639197 0.06524633 0.0016935376
-0.0028492843 0.018835474 0.030303853 -0.02137925 0.013603828 0.026398933 -0.018181423 0.018876307
-0.02835749 0.002445078 0.06913804 -0.03132913 0.012998664 -0.035843372 -0.00097456324 -0.018167019
0.03322263 0.031094389 -0.0028951834 -0.089084506 -0.032828547 0.06432777 0.038959276 0.02206656
0.01819165 0.015704053 0.039958995 0.095007315 0.013070962 0.055092484 -0.0027818503 -0.035272084
-0.0813701 0.019215362 -0.028745592 0.025158716 -0.029362364 -0.0114021255 -0.044202708 -0.018515073
0.005673492 0.013695832 -0.0060962727 0.030475397 0.006261861 -0.019048516 0.00792895 -0.046738386
-0.017330758 -0.03922571 0.0452189 -0.017293362 -0.020333974 -0.015048847 -0.0025563813 -0.013078497

bias f4 [256]
00000000: 297f fcbc 2acf 5b3c 5b91 73bc bd3d 1e3d
00000010: bf47 5c3d 4dd6 073d dd1a 7abc 06c6 883b
00000020: 8d40 5e3b 522d 823c d491 21bc 818b 573c
00000030: a10f 143d 2363 88bb 5db4 7c3d 22e9 a73c
00000040: 763c 2cbd 90a3 c63a f651 b3b7 8617 613c
00000050: 1741 f73c ddb8 2bbd f4fc 94bb 7070 a0ba
00000060: a407 ce39 0270 eb3c 720b 4ebc c77b e8bc
00000070: 65ea 2c3b fe84 323d 4634 29bb c1ef aaba
00000080: 9182 26bc 721b 08bd 8134 2f3b 944c 90bc
00000090: da06 5039 4723 b0ba a596 643d 59b0 e73c
000000a0: 4ae5 563c 03da c73c f3b6 ecbb cd1b 033c
000000b0: 30c5 86bc e78d fbbb 3fea 383a 602b b03b
000000c0: c626 043d 1282 8abc 9da8 f239 6e6c 8bbc
000000d0: e252 2abc 014f 1b3b 0e8a 36bc 2fdf 553c
000000e0: e022 f9bb 62bf c5bc c489 04bd fbf2 c03b
000000f0: 3352 483c 6b91 73bc 85b4 a23c 7a7f a0bc
00000100: 1f04 1dbc 2551 f63c 7397 3c3c ef26 3fbc
00000110: 5204 1ebd b1b9 703d ce7e f2bc a500 85bc
00000120: c273 00bd 39f8 6fbc 8af7 e6bc 01e9 2d3d
00000130: 6b59 1ebd 890e 9a3d d730 61bd a1fc abbc
00000140: 21a8 4cbc 0ac1 fbba 6e43 1e3d bfc9 c13c
00000150: 3aa5 ab3c 3047 a4bc 0ff8 18bc 0709 2abd
00000160: 0063 b1bc ffa2 f73c 75c0 0bbc 285d 933c
00000170: d60e 7bbc 9e6b 713c 60e7 c5bb a2d4 42bc
00000180: 88d3 493d e144 793c af0a b9bb 9fd5 e4bb
00000190: 0a0b 64bc b244 05bd 80f3 28bc 7bfd 1abc
000001a0: 7c36 5e3d f970 033c 5791 cb3b e89e 4e3b
000001b0: 71b7 b2bc 9bb4 78bc 9a6e c13c 3e3b e73c
000001c0: b868 7c3c e747 64bd 8810 fdbc 6c28 023c
000001d0: 105e 38bc 260f 9dbc 27a3 01bb 7424 6abd
000001e0: f609 133a 1b0d 3d3b 1f7e 183d ff86 e5bb
000001f0: 4765 083d f5b4 74bb 2535 873c 915b 0d3d
00000200: 0a7e e93c 8b80 83bc 3527 44bd 439a 4d3d
00000210: de46 0b3d 3a1e 0c3d 717e 993b 9c17 f2bb
00000220: 4dff 33bd 5fbd 85bc 1bbd 91bc 355f 2e3c
00000230: 5377 b03a 2b30 513b c415 413d b9af f33c
00000240: 29ef 1c3b 6e82 a83c 49fa b3bc 303c aabc
00000250: 47d7 93bc a6bb 47bb 1fdb e63c 65d0 c43c
00000260: 9cd7 b03c 2e50 183d 142a 463d 3d6a 0e3c
00000270: f496 0c3c 0217 edbc afea 39bc cf67 5a3c
00000280: 8d55 873c 9d9a 5e3c e3cf 653b 4f30 85bc
00000290: 8e44 1cbd f965 57bc 1e03 593c 2ad8 33bc
000002a0: 14b3 e23b ed25 b0bc a081 ae3c 4f3b 89bc
000002b0: 9ea8 b93a 6da4 47bc cac0 35bd 259a 193d
000002c0: cca4 4b3c 4a30 c7bc 136d a5bc c761 b9bb
000002d0: faa6 afbc bde3 93bc ab4a 5a3b 9a16 e3bc
000002e0: 4a32 59bd df7b 0fbc c606 443d a71f aabc
000002f0: 472c 9cbb e671 a43a ee64 f7bc 2a07 c03b
00000300: 5a13 08bd d085 0a3d 1de8 37ba dd28 dc3c
00000310: 8026 e7bc e341 183d d4cd f53b 2073 a6bc
00000320: 8687 97bc 691f 29bd a97b c23b db98 b83c
00000330: 06e4 98ba 9f79 4cbd fb9c 613b 5aee 81bc
00000340: 0cdd cf3c dd69 b7bc f5cc 62bc bc29 90b9
00000350: 5414 863c b8c5 15bd 9767 72bc 122f 083d
00000360: a346 32bd 31e6 91bc 2d69 883c db2e b0bb
00000370: 9d53 07bd e54a 363d fac3 98bb d358 f5bc
00000380: 8e90 c9bc 193e 21bc 15c4 adbc 1202 823c
00000390: 5e83 973b 62e7 623d 8a0e 5d3d 72b6 81ba
000003a0: 229f 05bd 14b0 803c 944d 8d3d 3abd 883c
000003b0: 9110 193d 389e adbb 3118 e6bc 635a ca3b
000003c0: dd02 66bd 7ee4 d83a b675 42bb 1537 1f3c
000003d0: 764b a9bb 7a1e 8b3b 1614 d8bc 0c61 98bc
000003e0: 6ea0 113d 281d c2bb 839a 0a3d 1226 773c
000003f0: e374 073c d25a 0539 81e4 67bb a330 cb3c
-0.030822353 0.013416091 -0.014866198 0.038633097 0.05377936 0.033163358 -0.015265194 0.004173997
0.0033912987 0.015890751 -0.009861428 0.013155819 0.036147717 -0.0041622086 0.061695445 0.020496909
-0.042049848 0.0015154947 -2.1376629e-05 0.013738519 0.030182404 -0.041924346 -0.004546756 -0.001224054
0.00039297075 0.028739933 -0.012575971 -0.028379334 0.0026384827 0.043583862 -0.002581851 -0.0013041423
-0.010162965 -0.0332293 0.0026734176 -0.01761464 0.00019838978 -0.0013438248 0.05580773 0.028282331
0.01311619 0.024395948 -0.0072239577 0.008002234 -0.016451448 -0.007676828 0.00070539484 0.0053762645
0.03226354 -0.016907725 0.00046283464 -0.017019477 -0.010395737 0.0023698213 -0.011141313 0.013053699
-0.0076030344 -0.02413911 -0.032357946 0.0058883405 0.012226629 -0.014866213 0.019861469 -0.019592036
-0.009583502 0.03006799 0.011510718 -0.011666997 -0.03857834 0.05877084 -0.02960148 -0.016235659
-0.031360395 -0.014646583 -0.028194208 0.042458538 -0.038659494 0.075223036 -0.054978218 -0.020994486
-0.012491257 -0.001920731 0.038638525 0.02365577 0.02095281 -0.020053476 -0.0093364855 -0.041512515
-0.021653652 0.03022909 -0.008529772 0.017988756 -0.015323361 0.014735131 -0.006039545 -0.011891516
0.049273998 0.015214176 -0.0056470255 -0.0069834734 -0.013918648 -0.032536216 -0.010311961 -0.0094598485
0.05425118 0.00802254 0.006212394 0.003152782 -0.021815987 -0.015179778 0.02361231 0.028226491
0.015405826 -0.055732634 -0.030891672 0.007944208 -0.011252895 -0.019172262 -0.0019781084 -0.05716367
0.0005609089 0.0028846923 0.037229653 -0.007004618 0.03329971 -0.0037339304 0.016504833 0.034511153
0.028502483 -0.016052505 -0.047888953 0.050195944 0.03400313 0.034208514 0.0046842624 -0.0073880684
-0.043944646 -0.01632565 -0.017790368 0.010642816 0.0013463296 0.003191958 0.047139898 0.029746877
0.0023946261 0.020570006 -0.021969931 -0.020780653 -0.018046988 -0.0030476837 0.028180657 0.024025152
0.021587186 0.03718584 0.048379973 0.008692321 0.008580912 -0.028941635 -0.011347457 0.013330414
0.016520286 0.013586667 0.0035066537 -0.016258387 -0.038151316 -0.013146871 0.013245372 -0.0109768305
0.0069183204 -0.02150246 0.021302044 -0.016751913 0.0014164632 -0.012185198 -0.04437331 0.03750052
0.012429427 -0.024315018 -0.020193612 -0.005657408 -0.021441925 -0.01805293 0.0033308666 -0.027720738
-0.053026475 -0.0087575605 0.047858022 -0.020767046 -0.0047660205 0.0012546151 -0.030199494 0.005860229
-0.03322158 0.03381902 -0.00070154836 0.026874954 -0.0282166 0.03717221 0.0075013433 -0.020318568
-0.01849724 -0.04128972 0.0059351516 0.022533825 -0.0011664636 -0.049920674 0.0034425843 -0.015860725
0.025373958 -0.022389347 -0.013842811 -0.00027496915 0.016367115 -0.036565512 -0.014795206 0.033248015
-0.043524396 -0.01780996 0.016651714 -0.0053766794 -0.033038724 0.04450502 -0.004662034 -0.029949581
-0.024605062 -0.009841465 -0.021211663 0.015870128 0.0046238145 0.055396445 0.053968944 -0.0009896292
-0.032622464 0.01570896 0.068995625 0.016691793 0.037369315 -0.005298402 -0.028087707 0.0061753257
-0.056155074 0.0016547588 -0.0029672212 0.009717722 -0.0051664663 0.0042455764 -0.026376765 -0.018600963
0.03555339 -0.005923886 0.03383876 0.01508476 0.008267614 0.00012717702 -0.0035384002 0.024803465
