output/2023-09-24-20-37-59/trained_model/tetris_epoch509_score1100.pt (torch, 842187 bytes, 8 tensors)

weight f4 [32, 1, 4, 4]
0.027818631 0.02902137 -0.019822588 -0.0025762992 0.0055571813 0.07651003 -0.0014833394 0.049840752
-0.21967955 0.12668389 0.1961905 -0.010982237 0.08520263 0.16623546 0.17388502 -0.025861805
0.41108295 -0.003061235 -0.5066226 -0.2361152 -0.41862926 0.04441224 -0.103353105 -0.15098155
0.051066607 -0.22704951 0.043125123 -0.36111805 -0.24933992 -0.0006758249 0.08945694 -0.6001574
0.028925013 0.0081334505 -0.7538214 -0.13135093 0.0078055584 -0.2595215 0.16942672 -0.24640456
0.08897498 0.3025958 0.039852504 0.019442327 -0.10809231 -0.12114116 -0.09643597 -0.09318336
-0.2741618 -0.19052584 -0.08533099 -0.034686297 0.14008598 -0.1490018 0.21186216 0.106929295
-0.24508007 0.089180075 -0.50833637 0.09682041 -0.18690445 -0.5372022 -0.49909496 0.080222234
-0.061501626 -0.7897139 -0.04300445 -0.010216645 0.10770673 0.06048465 0.07171088 0.06471841
0.23953338 -0.8788137 0.29910508 -0.025655052 -0.09694961 -0.09195891 -0.021818038 -0.005961639
0.02089737 -0.015535727 -0.09079611 -0.05585079 0.006423085 0.01579695 0.29811594 0.7568326
-0.008723857 0.028314479 -0.31145898 -0.76643485 -0.018912392 -0.017489458 -0.04615434 -0.024986511
0.056867257 0.050930656 0.15451954 0.28022787 0.13352291 -0.02731668 0.19334216 -0.4492067
0.0658091 0.054575168 0.019781087 -0.69181085 -0.03540423 0.012432719 0.064406395 -0.2659672
0.020104028 -0.0026097542 0.18971516 -0.2875847 0.08268856 0.07701388 -0.6919267 -0.61222273
-0.0147685995 0.068884246 -0.45810434 -0.05751744 -0.046151593 0.19665931 -0.315879 -0.42339522
-0.12161952 0.11339106 -0.35040134 -0.13853988 0.13980477 0.09215175 0.1449939 -0.27553174
0.010175296 0.089199364 -0.32428002 -0.63003856 0.13579613 -0.06566268 -0.040350232 0.033194173
-0.18856938 -0.0732174 0.024320846 -0.015070283 -0.13198507 -0.15769532 -0.4307323 -0.066194884
-0.06782966 0.47193265 0.19256142 -0.057051715 0.05372096 -0.85985076 0.06702017 0.029095013
0.030220263 -0.09215182 -0.092133716 -0.15900443 -0.06587517 -0.004003804 -0.19403464 0.004218715
-0.048774254 0.052508984 0.5629519 -0.017891102 -0.032639872 -0.07850339 -0.6888217 -0.05801668
-0.16642362 -0.28197393 -0.29335597 -0.05678692 -0.0675233 -0.14215754 0.018165119 0.1572653
-0.0731348 0.013967915 0.10837634 -0.55646884 0.087092586 0.032786682 0.038778506 -0.35113713
0.123266354 -0.080128 0.044068914 -0.057420928 0.042386517 0.48741752 0.03173781 -0.034675013
-0.07021775 -0.50756884 0.1744838 -0.05041585 -0.04209197 -0.6130782 -0.19819832 0.033393256
-0.0010328566 -0.06883565 0.019029686 0.049676333 -0.016665544 0.16461861 0.15934752 0.0116866985
0.030343812 0.85198575 -0.012408833 0.037394825 -0.0047215167 -1.3955203 0.08086709 -0.030947011
0.028830314 0.4388217 0.031341318 -0.030872086 -0.01577846 0.7066456 0.007652047 -0.011482204
-0.0006355414 -1.2664168 0.0016692778 -0.0023861234 -0.007884446 -0.012914389 -0.039951563 0.0049481494
-0.27049667 -0.04619198 0.13142137 -0.08794009 -0.025785588 -0.20691495 -0.070358135 -0.014641465
0.15284202 0.16983947 0.11747648 0.13550442 -0.00096492405 0.09561624 -0.011356285 0.13583504
00000000: e6e3 e33c 39be ed3c fb62 a2bc 21d7 28bb
00000010: 0419 b63b 4ab1 9c3d 9c6c c2ba d125 4c3d
00000020: adf3 60be 6cb9 013e 2ae6 483e d7ee 33bc
00000030: b77e ae3d a139 2a3e ea0e 323e 23dc d3bc
00000040: 7779 d23e 009f 48bb 05b2 01bf 2fc8 71be
00000050: 9356 d6be 9ce9 353d cbaa d3bd e89a 1abe
00000060: 382b 513d ab7f 68be f8a3 303d 77e4 b8be
00000070: f752 7fbe d729 31ba 3335 b73d eaa3 19bf
00000080: 26f4 ec3c 2a42 053c 70fa 40bf dc80 06be
00000090: c5c5 ff3b 01e0 84be 337e 2d3e 7a51 7cbe
000000a0: 8438 b63d d6ed 9a3e 613c 233d 8445 9f3c
000000b0: 805f ddbd db18 f8bd 3980 c5bd ebd6 bebd
000000c0: ef5e 8cbe 3519 43be 04c2 aebd 3813 0ebd
000000d0: b372 0f3e ee93 18be 65f2 583e bffd da3d
000000e0: 45f6 7abe 0ba4 b63d 5522 02bf c749 c63d
000000f0: e163 3fbe 1586 09bf 6089 ffbe 8e4b a43d
00000100: 21e9 7bbd b12a 4abf 6f25 30bd b763 27bc
00000110: 5995 dc3d c1be 773d 27dd 923d 168b 843d
00000120: 3d48 753e eff9 60bf 4d24 993e 8b2a d2bc
00000130: 848d c6bd f454 bcbd bebb b2bc da59 c3bb
00000140: f630 ab3c 9089 7ebc 50f3 b9bd ccc3 64bd
00000150: be78 d23b 9b68 813c a7a2 983e c8bf 413f
00000160: 82ee 0ebc c4f3 e73c 8d77 9fbe 1335 44bf
00000170: 29ee 9abc 0d46 8fbc 550c 3dbd 83b0 ccbc
00000180: a4ed 683d aa9c 503d 5f3a 1e3e 077a 8f3e
00000190: 3bba 083e 3bc7 dfbc 7dfb 453e 6cfe e5be
000001a0: ecc6 863d 368a 5f3d f20b a23c 841a 31bf
000001b0: 0704 11bd 9ab2 4b3c 80e7 833d da2c 88be
000001c0: 34b1 a43c 6908 2bbb b144 423e 4d3e 93be
000001d0: 9f58 a93d 74b9 9d3d 1c22 31bf a1ba 1cbf
000001e0: fff7 71bc 2f13 8d3d a78c eabe 6897 6bbd
000001f0: 7409 3dbd 0f61 493e e4ba a1be 42c7 d8be
00000200: a813 f9bd 9239 e83d ce67 b3be 66dd 0dbe
00000210: fb28 0f3e 0fba bc3d 4879 143e 7f12 8dbe
00000220: 49b6 263c 28ae b63d 0808 a6be 354a 21bf
00000230: 240e 0b3e 287a 86bd 4946 25bd 9df6 073d
00000240: 5518 41be 01f3 95bd 833c c73c 59e9 76bc
00000250: 1827 07be e27a 21be f288 dcbe 2f91 87bd
00000260: 47ea 8abd 28a1 f13e d22e 453e 0faf 69bd
00000270: 820a 5c3d 2e1f 5cbf df41 893d aa58 ee3c
00000280: 7c90 f73c 18ba bcbd 9ab0 bcbd 0fd2 22be
00000290: 90e9 86bd 5832 83bb 04b1 46be 253d 8a3b
000002a0: 83c7 47bd a913 573d 9e1d 103f 5c90 92bc
000002b0: 63b1 05bd 63c6 a0bd 9e56 30bf e6a2 6dbd
000002c0: f46a 2abe e35e 90be c132 96be 6799 68bd
000002d0: a849 8abd bf91 11be 04cf 943c 280a 213e
000002e0: b3c7 95bd afd9 643c 6af4 dd3d be74 0ebf
000002f0: 995d b23d 544b 063d 36d6 1e3d 3fc8 b3be
00000300: 1273 fc3d 261a a4bd 9b81 343d 3532 6bbd
00000310: 7c9d 2d3d ca8e f93e 81ff 013d 6307 0ebd
00000320: 53ce 8fbd 08f0 01bf e2ab 323e da80 4ebd
00000330: a168 2cbd b1f2 1cbf 80f4 4abe 5ec7 083d
00000340: eb60 87ba b5f9 8cbd 25e4 9b3c 6979 4b3d
00000350: 2e86 88bc c891 283e ff2b 233e 9179 3f3c
00000360: 9693 f83c bd1b 5a3f 6b4e 4bbc 512b 193d
00000370: f4b6 9abb 69a0 b2bf a59d a53d 9684 fdbc
00000380: 8d2d ec3c 3dad e03e c15f 003d 75e7 fcbc
00000390: d441 81bc bae6 343f 06be fa3b db1f 3cbc
000003a0: 769a 26ba f219 a2bf abcb da3a 8260 1cbb
000003b0: c32d 01bc e096 53bc 40a4 23bd 1624 a23b
000003c0: 8a7e 8abe cd33 3dbd 5393 063e ef19 b4bd
000003d0: 4c3c d3bc 83e1 53be ed17 90bd c1e2 6fbc
000003e0: 9e82 1c3e 66ea 2d3e 8297 f03d acc1 0a3e
000003f0: f5f2 7cba 72d2 c33d b60f 3abc 5718 0b3e

weight f4 [32, 32, 5, 5]
0.13124679 -0.13942371 0.10962172 0.07718814 0.034995116 0.15927908 -0.20717289 -0.05177356
-0.17380731 -0.37303606 -7.783921e-06 -0.09454284 -0.11689607 -0.13601798 -0.06826336 -0.118779756
-0.43805763 -0.2783411 -0.005533657 -0.39595026 0.03665199 0.064706214 -0.11549718 0.03337712
0.084233314 0.2886451 -0.34801337 0.1681623 0.38807017 0.4087297 0.06927191 0.30423632
-0.20561011 -0.117530204 0.06043552 0.08289244 -0.34898436 -0.39808586 0.20366909 -0.31424725
0.11097049 0.20631538 0.008650586 -0.23342209 -0.2884332 -0.16240622 0.45461115 0.13817015
0.03210028 0.36814168 -0.055309013 -0.22043176 0.10519248 0.18634376 0.22387722 0.35948998
0.27539957 -0.40469554 -0.4791536 -0.12719081 -0.09903713 0.26028576 -0.19364436 -0.14871438
0.07665949 0.23705985 -0.38407594 0.13912176 0.05154787 -0.18453929 0.098383985 -0.18938142
0.046295423 -0.33285996 0.31433707 -0.0028762578 -0.17328435 0.31257266 -0.48497427 0.11232144
-0.5361466 0.2347556 0.19193733 -0.558779 -0.079847984 -0.39707118 -0.027254025 -0.08730127
0.09267376 -0.43486986 -1.2010462 -0.022793967 -0.55312264 -0.14448617 0.34726435 -0.021171348
0.2264043 -0.1954775 0.3130835 -0.18478698 0.009825623 0.04051922 0.0937043 0.72536653
-0.75423175 -0.31605268 0.34394225 -0.008202494 -0.21822976 -0.1321752 -0.31933403 -0.0018568205
0.22847116 -0.06835225 0.46045268 -0.1570881 -0.03503831 -0.46363145 -0.16978467 -0.50263613
0.15104142 0.06005119 0.14588906 -0.10853292 0.023523195 -0.05161211 -0.053820707 0.022088118
-0.1020491 -0.14580919 0.16385497 -0.11626278 0.13870241 0.00035684503 -0.28378797 -0.12664951
-0.01885776 -0.04555597 -0.04967771 -0.057672117 -0.34487972 -1.4669932 -0.62837404 -0.27989465
-0.58930916 0.044208042 -0.23941606 -0.06109292 -0.24987307 -0.41801083 0.33267668 -0.014083572
-0.015683217 -0.25284788 -0.56179124 0.11026548 0.08995954 -0.3154733 0.0009333672 -0.95571095
0.03411857 0.24441674 -0.30419636 0.0850366 0.22162652 -0.2870693 -0.1302088 -0.3831227
0.05887929 -0.21525556 0.031349093 0.09923683 0.01522019 0.34790847 0.07468377 3.1311778e-05
-0.5810735 0.4518432 -0.12169933 -0.11335087 0.12241656 0.10489416 0.028874448 0.38442478
-0.88545734 0.007903431 -0.24969447 -0.2534988 0.23494652 -0.1343964 0.08788215 -0.28525078
-0.33874696 0.23917972 0.17500441 -0.20830658 -0.1789453 -0.11863911 0.22014965 0.05126092
0.39252478 -0.13599946 0.006516257 0.28349367 0.14229603 -0.6567495 0.10704812 -0.22874227
0.15610586 0.015549402 -0.5170628 0.14142469 0.08005268 0.0730939 -0.47214216 -0.4583577
-0.3277479 -0.13030963 0.10034833 -0.005925265 -0.19512485 0.17827915 -0.0249188 -0.3048916
0.24791774 0.19160493 0.09661331 -0.355625 0.02543686 -0.16162136 -0.46579185 -0.25423297
-0.0553874 -0.23026036 -0.3667653 -0.6051175 0.07438516 -0.073918015 0.17060773 -0.0142447185
-0.1978984 0.32068878 -0.25185874 0.014193618 -0.6215452 -0.17172565 0.21933453 0.057068706
0.10312546 0.1826894 0.50443625 -0.64315534 -0.22019346 0.3904167 0.081463695 -0.4401329
00000000: 8f65 063e 17c5 0ebe 5a81 e03d d114 9e3d
00000010: 0a57 0f3d 0e1a 233e 2125 54be 8310 54bd
00000020: 8bfa 31be 95fe bebe b097 02b7 ad9f c1bd
00000030: 3567 efbd 4c48 0bbe a9cd 8bbd cd42 f3bd
00000040: 1749 e0be ba82 8ebe ae53 b5bb feb9 cabe
00000050: 6620 163d b184 843d c989 ecbd 72b6 083d
00000060: 8482 ac3d 4ac9 933e cf2e b2be bd32 2c3e
00000070: 22b1 c63e 0545 d13e 6ede 8d3d ddc4 9b3e
00000080: 758b 52be adb3 f0bd 3c8b 773d 83c3 a93d
00000090: 14ae b2be e9d1 cbbe a18e 503e 04e5 a0be
000000a0: 7f44 e33d 5744 533e 30bb 0d3c 3306 6fbe
000000b0: 84ad 93be d14d 26be cbc2 e83e 7a7c 0d3e
000000c0: 957b 033d 117d bc3e b48b 62bd ddb8 61be
000000d0: 286f d73d e6d0 3e3e 1240 653e 120f b83e
000000e0: 2c01 8d3e 4134 cfbe 9f53 f5be 4f3e 02be
000000f0: fbd3 cabd 2d44 853e b54a 46be 9548 18be
00000100: a7ff 9c3d d1bf 723e 9aa5 c4be ef75 0e3e
00000110: dc23 533d def7 3cbe 8b7d c93d 34ed 41be
00000120: 45a0 3d3d 9f6c aabe caf0 a03e 997f 3cbb
00000130: 7471 31be 8609 a03e 8c4e f8be c808 e63d
00000140: e740 09bf c663 703e 388b 443e 240c 0fbf
00000150: 5787 a3bd ea4c cbbe d543 dfbc 02cb b2bd
00000160: becb bd3d 43a7 debe e2bb 99bf 6aba babc
00000170: 7299 0dbf 2ff4 13be a2cc b13e 896f adbc
00000180: 87d6 673e 412b 48be 7b4c a03e cc38 3dbe
00000190: a6fb 203c 7bf7 253d 0ae8 bf3d 9fb1 393f
000001a0: 5515 41bf a8d1 a1be 3319 b03e c163 06bc
000001b0: 9f77 5fbe f058 07be c07f a3be 8f60 f3ba
000001c0: 58f4 693e 44fc 8bbd 74c0 eb3e b4db 20be
000001d0: 5584 0fbd 1a61 edbe 08dc 2dbe c3ac 00bf
000001e0: 9aaa 1a3e 3df8 753d f163 153e 8246 debd
000001f0: b7b3 c03c 3867 53bd 1a73 5cbd 24f2 b43c
00000200: 1eff d0bd 014f 15be 99c9 273e 2e1b eebd
00000210: 0108 0e3e ee16 bb39 a84c 91be 69b0 01be
00000220: 977b 9abc e698 3abd db7a 4bbd 9939 6cbd
00000230: 1394 b0be 6fc6 bbbf 1fdd 20bf 5a4e 8fbe
00000240: f7dc 16bf 7e13 353d 7c29 75be 923c 7abd
00000250: bade 7fbe 8405 d6be 9954 aa3e c8be 66bc
00000260: 177a 80bc 4775 81be 8dd1 0fbf ded2 e13d
00000270: b53c b83d b785 a1be 36ad 743a 79a9 74bf
00000280: eabf 0b3d 6248 7a3e a0bf 9bbe ab27 ae3d
00000290: 10f2 623e bffa 92be 7555 05be a928 c4be
000002a0: 692b 713d f46b 5cbe e867 003d ae3c cb3d
000002b0: 1b5e 793c 0f21 b23e cef3 983d c454 0338
000002c0: 3cc1 14bf fe57 e73e 803d f9bd 8024 e8bd
000002d0: 89b5 fa3d c0d2 d63d 1b8a ec3c 53d3 c43e
000002e0: 55ad 62bf 647d 013c e8af 7fbe 98ca 81be
000002f0: d295 703e 369f 09be 8ffb b33d 640c 92be
00000300: 3e70 adbe 87eb 743e 5b34 333e 524e 55be
00000310: 703d 37be 10f9 f2bd e96e 613e f8f6 513d
00000320: 02f9 c83e 7143 0bbe 5386 d53b 1526 913e
00000330: 0db6 113e bc20 28bf 0b3c db3d 6a3b 6abe
00000340: 37da 1f3e ebc2 7e3c 3a5e 04bf a2d1 103e
00000350: a9f2 a33d 41b2 953d 9ebc f1be dcad eabe
00000360: 93ce a7be e36f 05be 6d83 cd3d ba28 c2bb
00000370: cfce 47be cf8e 363e 8322 ccbc c01a 9cbe
00000380: 26de 7d3e 1534 443e 33dd c53d 7b14 b6be
00000390: f660 d03c 1280 25be 457c eebe d32a 82be
000003a0: e6dd 62bd 5fc9 6bbe a9c8 bbbe fbe8 1abf
000003b0: 3f57 983d 5462 97bd cbb3 2e3e ae62 69bc
000003c0: e1a5 4abe 5231 a43e a1f3 80be 598c 683c
000003d0: 961d 1fbf d9d8 2fbe 3b99 603e e0c0 693d
000003e0: 7133 d33d ee12 3b3e bc22 013f d4a5 24bf
000003f0: 657a 61be b3e4 c73e 70d6 a63d 1959 e1be

weight f4 [64, 32, 5, 5]
0.010085082 0.06782006 -0.043337632 0.21559417 -0.32239756 0.25489137 0.03882582 0.14908694
-0.02757325 0.076651655 -0.019518401 -0.15920517 -0.15592594 0.04924837 0.60386705 -0.13511252
0.023106612 0.056731377 -0.1488255 0.3108448 -0.1080879 -0.3095247 -0.068495825 0.3655467
0.09328027 0.36935142 -0.39502814 0.049892846 -0.09601172 0.035354145 0.06440343 0.33538556
0.31104076 -0.5145504 -0.19582403 -0.13808607 0.04218443 0.6393441 -0.06868802 -0.2079583
0.36491558 0.31375402 -0.48221385 0.4788314 -0.0071782907 -0.109860085 0.65660125 0.3247216
0.07395518 -0.0017336762 -0.28117472 -0.0046294737 0.4729951 0.19304603 -0.009462237 0.32555965
-0.18024592 -0.48118305 -0.6805205 -0.503917 0.19123249 0.010227918 -0.30772322 0.22058102
-0.27392462 0.20507015 0.19872184 0.25588137 -0.16469005 -0.09744828 0.57907945 0.080084845
0.004990471 0.11728739 -0.08851971 -0.37855053 -0.39140713 -0.11688689 0.29046193 -0.2623249
0.50099236 0.28716564 -0.02578959 0.3668375 0.2888775 0.008633947 -0.23674977 -0.2013543
-0.33206734 -0.79653484 -0.40271863 -0.042054813 -1.1400884 0.0045795175 0.19424361 0.19451472
0.06595861 0.02047403 0.4842707 -0.032937273 -0.064760245 0.2727468 0.23834422 0.05190815
0.15586644 0.06419267 -0.1143157 -0.005917673 0.12796731 0.7034724 0.342243 -0.0063774004
-0.14841984 0.078595564 -0.1525754 -0.06427132 -0.067884944 -0.003100056 -0.640602 -0.5834451
-0.27239108 0.018021174 0.09456959 0.3796389 -0.21898423 0.03173992 -0.47229025 -0.26916727
0.26919362 -0.88649106 0.43910763 -0.38861063 0.13837053 0.030284379 -0.15631633 0.05080803
0.19966523 0.16794914 -0.0049721985 -0.23302497 -0.5524111 -0.21135429 0.07392852 -0.0890949
-0.016770335 -0.35133064 -0.14617151 0.19542441 -0.047712456 0.14574435 0.03787268 -0.4242369
0.043436307 -0.0019639586 -0.34197763 0.07690603 0.068828024 0.26010954 -0.061146203 0.058082826
-0.07060024 0.23242867 0.20660707 -0.21636513 -0.24093582 0.04981934 -0.031612325 -0.07412603
-0.12895162 -0.37254068 0.35797253 0.16516516 0.17375523 -0.114090785 -0.2579161 -0.07825921
-0.33903223 0.043301094 -0.083551444 0.07927179 0.33776677 0.02546731 0.0871604 0.03880801
-0.0991051 0.17067327 -0.024517518 -0.17819928 0.2118115 0.47019237 -0.08598367 -0.14026204
-0.08171664 -0.17416906 -0.16266595 0.28825858 -0.16406274 0.13052881 -0.80836564 -0.23885661
0.1271856 0.38899693 -0.18709143 -0.4083331 0.047319487 0.46123907 -0.83187246 -0.0012232729
-0.36978382 0.27030966 0.2735697 0.3050999 -0.017125756 0.010339449 -0.5023665 0.35215023
-0.051190104 0.08601008 -0.17636664 0.45084482 0.3695241 0.10114361 -0.14746685 0.07658103
-0.014509965 0.4165541 0.16915022 -0.07059522 -0.09088558 0.41514233 0.025313888 0.36374557
0.24877825 0.007383534 0.44766596 0.074486695 -0.015606333 0.09301808 0.18918988 0.04438436
0.38005242 0.1627243 -0.4144705 0.37867823 -0.010103655 -0.15277305 -0.15445296 0.26109505
0.32409286 -0.22893699 0.16423157 0.25849688 0.26953685 -0.2591437 0.35512164 0.5495674
00000000: e63b 253c 3ee5 8a3d cd82 31bd b8c4 5c3e
00000010: 4b11 a5be 1f81 823e d307 1f3d 3faa 183e
00000020: 4ce1 e1bc 8bfb 9c3d 0ee5 9fbc ae06 23be
00000030: 0dab 1fbe a9b8 493d 0897 1a3f f05a 0abe
00000040: 144a bd3c 295f 683d b665 18be 0d27 9f3e
00000050: 305d ddbd 057a 9ebe 8a47 8cbd f028 bb3e
00000060: ba09 bf3d a11b bd3e 2141 cabe 715c 4c3d
00000070: cba1 c4bd 82cf 103d f2e5 833d a8b7 ab3e
00000080: bc40 9f3e 93b9 03bf 1886 48be 6f66 0dbe
00000090: 95c9 2c3d 0eac 233f 4eac 8cbd 05f3 54be
000000a0: 37d6 ba3e 5ea4 a03e bce4 f6be 6429 f53e
000000b0: de37 ebbb 53fe e0bd 0517 283f e941 a63e
000000c0: d075 973d 853c e3ba 22f6 8fbe d7b2 97bb
000000d0: 6a2c f23e dcad 453e 8007 1bbc c1af a63e
000000e0: 6392 38be a05d f6be 9736 2ebf b400 01bf
000000f0: 73d2 433e ff92 273c e68d 9dbe fedf 613e
00000100: d93f 8cbe e9fd 513e bd7d 4b3e e202 833e
00000110: 82a4 28be f792 c7bd 8d3e 143f 8603 a43d
00000120: 1b87 a33b 5f34 f03d d249 b5bd 60d1 c1be
00000130: 8466 c8be 6562 efbd 6db7 943e 734f 86be
00000140: 0941 003f 6007 933e b144 d3bc 20d2 bb3e
00000150: c0e7 933e 6675 0d3c 886e 72be d22f 4ebe
00000160: bb04 aabe b5e9 4bbf 2331 cebe ab41 2cbd
00000170: 6bee 91bf c70f 963b cce7 463e de2e 473e
00000180: 4f15 873d 27b9 a73c 54f2 f73e 3ce9 06bd
00000190: 05a1 84bd 78a5 8b3e 8210 743e a49d 543d
000001a0: 749b 1f3e 7277 833d 5a1e eabd 0ae9 c1bb
000001b0: dd09 033e c416 343f 793a af3e 83f9 d0bb
000001c0: 5ffb 17be b6f6 a03d ba3c 1cbe afa0 83bd
000001d0: 4307 8bbd 4f2a 4bbb 7efe 23bf a85c 15bf
000001e0: d876 8bbe 24a1 933c b4ad c13d 0860 c23e
000001f0: 673d 60be b801 023d 07d0 f1be 4bd0 89be
00000200: bfd3 893e 14f1 62bf b7d2 e03e f9f7 c6be
00000210: 01b1 0d3e f216 f83c 6311 20be 151c 503d
00000220: 0b75 4c3e dcfa 2b3e d3ed a2bb 199e 6ebe
00000230: d06a 0dbf 426d 58be d667 973d 6377 b6bd
00000240: f161 89bc 9ce1 b3be fcad 15be 561d 483e
00000250: 236e 43bd 023e 153e 6220 1b3d 9435 d9be
00000260: 45ea 313d c2b5 00bb b117 afbe e980 9d3d
00000270: b5f5 8c3d 142d 853e 7174 7abd 42e8 6d3d
00000280: dc96 90bd c801 6e3e ce90 533e d28e 5dbe
00000290: e1b7 76be 5d0f 4c3d ed7b 01bd 63cf 97bd
000002a0: e50b 04be a7bd bebe 2d48 b73e 0e21 293e
000002b0: e4ec 313e 6ea8 e9bd 940d 84be 5d46 a0bd
000002c0: a295 adbe 7d5c 313d 051d abbd 4059 a23d
000002d0: c4ef ac3e d2a0 d03c 2781 b23d 26f5 1e3d
000002e0: 9df7 cabd f9c4 2e3e f6d8 c8bc df79 36be
000002f0: 1de5 583e 0ebd f03e 3518 b0bd daa0 0fbe
00000300: 0e5b a7bd 6059 32be e791 26be a196 933e
00000310: 1000 28be 58a9 053e 0df1 4ebf d496 74be
00000320: f13c 023e 9b2a c73e e594 3fbe 0911 d1be
00000330: 14d2 413d 8727 ec3e 98f5 54bf 3a56 a0ba
00000340: 4e54 bdbe 0766 8a3e 5411 8c3e 0e36 9c3e
00000350: 504b 8cbc cb66 293c 179b 00bf 094d b43e
00000360: b7ac 51bd 0e26 b03d 7599 34be 22d5 e63e
00000370: 4332 bd3e 6224 cf3d 8d01 17be 84d6 9c3d
00000380: 34bb 6dbc 9446 d53e b735 2d3e 3a94 90bd
00000390: 3822 babd 898d d43e 125f cf3c dc3c ba3e
000003a0: babf 7e3e 93f1 f13b 7934 e53e 7b8c 983d
000003b0: b4b1 7fbc 4380 be3d feba 413e 60cc 353d
000003c0: 3b96 c23e 33a1 263e 7a35 d4be 1de2 c13e
000003d0: cd89 25bc 8a70 1cbe eb28 1ebe 40ae 853e
000003e0: 80ef a53e 756e 6abe 522c 283e b459 843e
000003f0: bc00 8a3e 7cae 84be 81d2 b53e 73b0 0c3f

weight f4 [256, 256]
0.05358505 0.020140655 0.01934643 0.13276932 0.08889129 -0.020760868 -0.07066648 -0.10182077
0.013168167 -0.12271478 -0.065042384 0.046614345 0.10845614 0.18026748 -0.063990235 0.04221844
-0.19100994 0.21687596 0.08000748 -0.051812757 -0.12125873 0.046890993 -0.02996397 -0.09436225
0.07356914 -0.14570142 -0.15946274 -0.03299118 -0.008762518 0.0050885403 -0.031231472 0.010602885
0.48027152 -0.08971597 -0.00025937642 0.04852548 0.028592348 -0.018857472 0.012663184 0.0069809635
-0.005899754 -0.3345922 0.0078088846 -0.063570514 0.027952183 -0.017346667 -0.11701228 0.04715136
-0.06974321 0.0479336 -0.06143925 0.22993776 -0.016139353 0.0072410703 -0.061728686 -0.09058533
-0.041533295 -0.43284526 0.23764981 -0.047081247 0.14163953 0.18026017 -0.0879787 -0.235733
-0.07540538 -0.07498843 -0.08691325 0.07595531 0.156915 0.00083728926 0.031186745 -0.068340704
-0.07369353 -0.06610581 0.07199399 -0.004411003 -0.1377144 0.046784557 -0.044643562 0.054663647
0.044955093 -0.027606014 0.12300645 0.10794003 -0.1847395 -0.062515214 0.02632332 0.008259591
-0.0038608378 0.045367423 -0.08702861 -0.0016017018 0.035725463 -0.04459029 0.0419745 -0.08939054
0.46563914 0.008139539 -0.009303442 0.0019735005 0.2597735 -0.1097879 0.21501464 -0.5574645
0.11353344 0.07869832 0.005800676 0.11001481 0.13461752 0.011756812 0.16113743 0.20080882
-0.03887682 -0.067061804 -0.047115006 0.13880527 -0.089392 0.029735992 -0.009200555 0.00021854565
-0.20152728 0.058234725 -0.27517083 -0.28149217 0.05397258 0.033395573 -0.01811045 -0.09301638
-0.123444535 -0.20440757 -0.14066188 0.23297341 0.0813804 -0.08779882 -0.07554435 -0.0224653
-0.020951983 0.048989557 0.009288121 0.021695409 -0.09725661 -0.016340218 0.09447673 0.025969926
0.03357297 0.06708338 0.08185062 -0.07206117 -0.03643287 0.063537024 -0.028489238 -0.02734831
0.06283089 0.08573264 0.07849606 -0.15782517 0.053273343 -0.081762634 -0.10177171 0.11241251
-0.060544677 0.03566648 -0.055618808 0.08026136 -0.10609085 0.044068083 0.07483436 -0.0038241223
0.08867262 0.10332838 0.047308337 0.08682116 -0.12501729 -0.09085685 -0.0055489517 -0.42734575
0.06525237 0.0040365006 0.08608073 -0.0817581 -0.09056362 -0.072970025 0.0007269486 -0.0016458352
-0.2022759 -0.10240586 0.035508275 -0.11607449 0.005542533 0.08632987 -0.06269222 -0.028099658
0.0030079917 -0.1432106 0.049470834 0.35025704 0.0012071168 -0.020113282 -0.048490338 0.02051217
-0.053141337 -0.1626613 0.16751742 -0.02466791 0.0097709 0.15399969 0.16784167 0.031596836
0.12275508 0.03074192 0.008960041 -0.0176885 0.2921589 0.010604632 -0.24317084 -0.14156729
0.07373338 0.14816967 -0.14688371 0.0032805756 -0.023526538 0.038240373 -0.04584448 0.021083955
0.019821873 0.014570175 0.16770042 -0.043168895 0.04667219 0.052115817 0.03419983 -0.086159915
-0.055004533 0.044935282 0.06743246 0.06309523 -0.29380396 -0.006959331 0.33408314 0.016178513
0.1799832 0.021306867 -0.11135298 -0.05271309 -0.07702979 0.049453314 0.04259447 0.07891907
0.12069983 0.03499373 0.08969936 0.088729635 0.022629565 -0.0057556154 0.02923848 0.004783773
00000000: ff7b 5b3d 04fe a43c 687c 9e3c aef4 073e
00000010: a30c b63d b212 aabc 96b9 90bd 6887 d0bd
00000020: 4cbf 573c e351 fbbd f134 85bd afee 3e3d
00000030: 411e de3d 0a98 383e 500d 83bd 3eed 2c3d
00000040: 1c98 43be bb14 5e3e f6da a33d 9d39 54bd
00000050: 7f56 f8bd c510 403d 0077 f5bc ff40 c1bd
00000060: 6bab 963d c132 15be 334a 23be c221 07bd
00000070: aa90 0fbc c5bd a63b 25d9 ffbc b9b7 2d3c
00000080: 26e6 f53e 02bd b7bd eafc 87b9 a7c2 463d
00000090: 803a ea3c fc7a 9abc 3e79 4f3c 91c0 e43b
000000a0: b952 c1bb ab4f abbe ace1 ff3b 4231 82bd
000000b0: fafb e43c 991a 8ebc 22a4 efbd c921 413d
000000c0: 87d5 8ebd 0656 443d b9a7 7bbd ce74 6b3e
000000d0: ad36 84bc 8046 ed3b 38d7 7cbd cd84 b9bd
000000e0: d11e 2abd e59d ddbe 795a 733e 44d8 40bd
000000f0: f409 113e 1f96 383e 2d2e b4bd fe63 71be
00000100: 236e 9abd 8993 99bd 93ff b1bd 758e 9b3d
00000110: 53ae 203e 887d 5b3a 587b ff3c 36f6 8bbd
00000120: a2ec 96bd 7c62 87bd 9671 933d 2d8a 90bb
00000130: 0105 0dbe 2aa1 3f3d 2bdc 36bd fde6 5f3d
00000140: d522 383d 0226 e2bc ceea fb3d aa0f dd3d
00000150: 5a2c 3dbe fa07 80bd 01a4 d73c 3c53 073c
00000160: 1c06 7dbb 31d3 393d 0e3c b2bd 32f0 d1ba
00000170: dd54 123d 4fa4 36bd 74ed 2b3d 6312 b7bd
00000180: 4168 ee3e b35b 053c 776d 18bc d855 013b
00000190: 0801 853e 7ad8 e0bd cc2c 5c3e feb5 0ebf
000001a0: 3884 e83d 962c a13d 9913 be3b 724f e13d
000001b0: 2dd9 093e a59f 403c 3601 253e d4a0 4d3e
000001c0: 4d3d 1fbd b357 89bd aafb 40bd f822 0e3e
000001d0: 2713 b7bd e598 f33c edbd 16bc 6729 6539
000001e0: 2b5d 4ebe 8987 6e3d 31e3 8cbe be1f 90be
000001f0: 5a12 5d3d ccc9 083d 5e5c 94bc 5f7f bebd
00000200: 7dd0 fcbd 3850 51be ab09 10be 9590 6e3e
00000210: c4aa a63d decf b3bd ffb6 9abd 2609 b8bc
00000220: 7ea3 abbc 46a9 483d 342d 183c 92ba b13c
00000230: 792e c7bd ecdb 85bc 047d c13d e2be d43c
00000240: d083 093d 0363 893d 4ca1 a73d cf94 93bd
00000250: a23a 15bd b31f 823d 4362 e9bc 9009 e0bc
00000260: 7bad 803d 9894 af3d 8bc2 a03d ec9c 21be
00000270: 2635 5a3d 2b73 a7bd b06d d0bd 8838 e63d
00000280: b2fd 77bd 0417 123d 8cd0 63bd 1160 a43d
00000290: 2946 d9bd bc80 343d c242 993d 209e 7abb
000002a0: fe99 b53d d49d d33d 63c6 413d 4bcf b13d
000002b0: 8804 00be 2813 babd fbd3 b5bb 10cd dabe
000002c0: 09a3 853d 9f44 843b 184b b03d ca70 a7bd
000002d0: 6b79 b9bd 4f71 95bd b290 3e3a 11b9 d7ba
000002e0: 6a21 4fbe 2aba d1bd 2071 113d 76b8 edbd
000002f0: 239e b53b b7cd b03d c764 80bd 4131 e6bc
00000300: ba21 453b cda5 12be eea1 4a3d e454 b33e
00000310: 1e38 9e3a 9cc4 a4bc ce9d 46bd 2309 a83c
00000320: bbaa 59bd af90 26be b089 2b3e 5b14 cabc
00000330: 2016 203c 18b2 1d3e b0de 2b3e af6b 013d
00000340: 0467 fb3d 7bd6 fb3c 23cd 123c 79e7 90bc
00000350: da95 953e 0dbf 2d3c c701 79be 04f7 10be
00000360: 8701 973d cab9 173e af68 16be edfe 563b
00000370: baba c0bc f0a1 1c3d 6cc7 3bbd 42b8 ac3c
00000380: 7b61 a23c beb7 6e3c a9b9 2b3e ded1 30bd
00000390: 572b 3f3d 6577 553d 1f15 0c3d 9c74 b0bd
000003a0: 6f4c 61bd 0f0e 383d 081a 8a3d 1238 813d
000003b0: 796d 96be 1a0b e4bb f20c ab3e cd88 843c
000003c0: 844d 383e bd8b ae3c 080d e4bd aee9 57bd
000003d0: cbc1 9dbd 8f8f 4a3d 8a77 2e3d 52a0 a13d
000003e0: 7931 f73d 9655 0f3d 4cb4 b73d e2b7 b53d
000003f0: a361 b93c 9a99 bcbb 8985 ef3c 32c1 9c3b

bias f4 [256]
0.012860699 0.011125548 0.07167499 -0.014374302 -0.03343122 -0.098961696 -0.05071254 0.059914593
0.13976151 -0.114526786 0.024671122 -0.019926582 0.08501059 -0.08011524 -0.029452275 -0.031955454
-0.011168522 -0.047209125 0.068738334 -0.06992001 0.024752034 -0.06441116 0.078131944 0.18630338
-0.13738565 0.115703195 0.047515083 -0.07581572 -0.11776812 -0.12340869 0.12279075 0.10626628
-0.023690505 0.004655296 0.06534164 -0.012622023 -0.12307697 -0.0029364969 -0.03963138 -0.15061401
-0.059639398 0.04700175 0.037325565 -0.09638581 -0.04514045 0.03039297 0.10863781 0.14479795
0.003501426 0.067138724 -0.03924065 0.017291738 -0.13129851 0.10617968 0.114901245 -0.030639252
-0.01889745 0.041302912 0.18928786 0.017083755 -0.015864372 0.04832222 -0.12204138 0.014076676
0.0011917689 0.042243455 -0.00021184649 -0.050142482 -0.08268607 -0.20736912 -0.05461479 -0.020845138
-0.07943816 0.08283222 0.036364123 0.02105354 0.013815409 0.034771923 0.04732947 -0.04473635
-0.14308542 0.033764936 -0.0062886453 -0.026637781 -0.10530758 0.08734814 0.07703537 0.03673158
0.1721082 -0.05709755 0.07693092 0.005603654 0.039033715 0.10210543 0.07894499 0.046253845
-0.14007206 0.21307065 -0.13330601 0.0021036845 0.056208275 -0.124665625 -0.11661915 0.002239685
-0.07372066 -0.046901155 -0.067225225 0.117674775 0.13447887 0.047409743 -0.055975236 0.094177894
0.0026934203 0.012295341 -0.059698537 0.019864317 -0.09343801 -0.12562302 -0.013137014 -0.07520222
-0.021821251 0.14286394 0.054573324 -0.020536505 -0.011536417 0.025131034 -0.027836688 -0.005385095
-0.07647348 0.02754554 0.048917428 0.07125072 -0.10504271 0.008129457 0.09660091 0.07801658
-0.09811143 -0.021344522 -0.054978084 -0.08322328 0.10135925 -0.0058163437 -0.038065318 -0.10537952
0.043953873 0.02029328 -0.03187865 0.17853756 0.034939904 0.13938713 -0.031283427 0.060507916
0.033758186 0.03282043 -0.012860159 -0.001463013 0.094581544 0.0099257985 -0.12174426 -0.1049517
0.025132522 -0.02287163 -0.006988307 -0.0074299234 0.078211494 -0.16215862 0.07490699 -0.048678514
-0.012694301 -0.049614955 -0.005495873 0.04835936 -0.01836481 -0.034980673 0.03274147 0.10363032
0.05743353 -0.08497093 -0.09624816 -0.12042792 0.05815271 0.0011181317 0.16420886 -0.032842528
0.038825125 -0.08394015 0.15063561 -0.034193322 -0.05999832 -0.061601773 -0.038565543 -0.0016641907
-0.020539258 0.122601874 -0.084809616 0.09590598 0.027777027 -0.051731896 0.019205542 0.044926662
0.056336384 -0.08492946 0.08949754 -0.035366863 0.025390923 -0.04985445 0.031618886 0.046961755
0.1463482 0.020564713 -0.051446334 -0.07686268 -0.029378688 0.10906564 -0.091308326 0.10241162
0.025372101 0.16519418 0.03324973 -0.019350203 0.044882577 -0.0066714846 0.067569435 0.114196286
0.11737852 -0.0015859548 0.025052655 -0.02128255 -0.0038615302 0.0016478061 0.0037207217 -0.13146587
-0.04733192 0.10190056 -0.047349706 0.08881731 -0.048069403 0.07507423 -0.14183436 -0.014110157
-0.028405882 0.01321426 -0.008902235 -0.14603351 0.073134884 0.0032253065 -0.0031727771 0.043733064
-0.08145793 0.04721434 0.0041026254 -0.00583818 -0.120606944 -0.016544774 0.056173585 0.10536969
00000000: aeb5 523c ee47 363c 56ca 923d 3182 6bbc
00000010: 2def 08bd 6eac cabd f4b7 4fbd 0169 753d
00000020: a41d 0f3e 058d eabd 181b ca3c 123d a3bc
00000030: 081a ae3d 7513 a4bd e645 f1bc b9e3 02bd
00000040: 2dfc 36bc 5b5e 41bd afc6 8c3d 3932 8fbd
00000050: c7c4 ca3c 00ea 83bd a403 a03d 50c6 3e3e
00000060: d3ae 0cbe ccf5 ec3d 2d9f 423d 4645 9bbd
00000070: 6930 f1bd b2bd fcbd b779 fb3d 23a2 d93d
00000080: 9712 c2bc 748b 983b d6d1 853d 9acc 4ebc
00000090: c70f fcbd 3e72 40bb 8454 22bd 8f3a 1abe
000000a0: 7148 74bd e884 403d b1e2 183d ec65 c5bd
000000b0: 31e5 38bd aefa f83c 807d de3d ea45 143e
000000c0: 2e78 653b 0780 893d ceba 20bd 67a7 8d3c
000000d0: 1e73 06be bb74 d93d 5851 eb3d 2bff fabc
000000e0: d3ce 9abc 3e2d 293d add4 413e 3bf3 8b3c
000000f0: 00f6 81bc 85ed 453d d5f0 f9bd dca1 663c
00000100: 2135 9c3a 7907 2d3d 1c23 5eb9 3462 4dbd
00000110: 5057 a9bd 9258 54be c2b3 5fbd 6cc3 aabc
00000120: 79b0 a2bd f0a3 a93d 8cf2 143d 7978 ac3c
00000130: 065a 623c 016d 0e3d 8cdc 413d 773d 37bd
00000140: fc84 12be 1a4d 0a3d fb10 cebb 7a37 dabc
00000150: 80ab d7bd 95e3 b23d b8c4 9d3d da73 163d
00000160: 223d 303e 1fdf 69bd f58d 9d3d db9e b73b
00000170: d1e1 1f3d a71c d13d e9ad a13d ac74 3d3d
00000180: 0d6f 0fbe 312f 5a3e 5f81 08be f8dd 093b
00000190: a63a 663d b150 ffbd 05d6 eebd aec7 123b
000001a0: dbfa 96bd 6d1b 40bd 61ad 89bd 79ff f03d
000001b0: d4b4 093e b830 423d 4a46 65bd 57e0 c03d
000001c0: 1884 303b 6672 493c 7486 74bd 7eba a23c
000001d0: 6d5c bfbd 52a3 00be a13c 57bc 9f03 9abd
000001e0: 7bc2 b2bc ed4a 123e 4788 5f3d 2c3c a8bc
000001f0: 3d03 3dbc 99df cd3c c409 e4bc 7375 b0bb
00000200: 219e 9cbd 2fa7 e13c a45d 483d e6eb 913d
00000210: a220 d7bd 6a31 053c b3d6 c53d 28c7 9f3d
00000220: a5ee c8bd b5da aebc b330 61bd f870 aabd
00000230: 7095 cf3d 0797 bebb 61ea 1bbd 38d1 d7bd
00000240: fa08 343d 183e a63c 3093 02bd 8dd2 363e
00000250: 251d 0f3d 80bb 0e3e 0d23 00bd 26d7 773d
00000260: 0646 0a3d b76e 063d 6bb3 52bc 92c2 bfba
00000270: f8b3 c13d d19f 223c 0e55 f9bd ebf0 d6bd
00000280: b8e2 cd3c 495d bbbc 2bfe e4bb b776 f3bb
00000290: 592d a03d e90c 26be d668 993d 1f63 47bd
000002a0: c2fb 4fbc 0d39 4bbd b916 b4bb 7714 463d
000002b0: cc71 96bc e547 0fbd eb1b 063d 223c d43d
000002c0: 6c3f 6b3d 3d05 aebd c11d c5bd eaa2 f6bd
000002d0: 8931 6e3d 468e 923a 5e26 283e e385 06bd
000002e0: 1807 1f3d d0e8 abbd 3940 1a3e 4c0e 0cbd
000002f0: ccc0 75bd 2452 7cbd e7f6 1dbd f920 daba
00000300: f241 a8bc b116 fb3d aab0 adbd 5b6a c43d
00000310: a68c e33c d3e4 53bd f154 9d3c 0505 383d
00000320: fbc0 663d 7fef adbd 7c4a b73d d8dc 10bd
00000330: a000 d03c 2e34 4cbd ce82 013d f85a 403d
00000340: 4ddc 153e 5477 a83c 64b9 52bd 2e6a 9dbd
00000350: 93ab f0bc ce5d df3d dcff babd 2fbd d13d
00000360: 27d9 cf3c aa28 293e de30 083d 5184 9ebc
00000370: cbd6 373d 789c dabb d861 8a3d bedf e93d
00000380: 2664 f03d d0df cfba 3a3b cd3c be58 aebc
00000390: ba11 7dbb 33fb d73a 5ad7 733b fd9e 06be
000003a0: 1edf 41bd 3eb1 d03d c4f1 41bd dae5 b53d
000003b0: 6ce4 44bd 85c0 993d 073d 11be 4a2e 67bc
000003c0: 74b3 e8bc a080 583c aeda 11bc cf89 15be
000003d0: bec7 953d aa5f 533b 5eee 4fbb 7121 333d
000003e0: 6ad3 a6bd d363 413d 516f 863b 344e bfbb
000003f0: c600 f7bd e888 87bc 4616 663d 10cc d73d

weight f4 [256, 256]
-0.0068238806 -0.010816862 0.0123305265 0.0383321 -0.033774145 -0.040740926 0.004121545 0.04735531
-0.03379414 -0.046879753 -0.0069304868 0.033511363 0.012711653 -0.05377487 0.03416112 -0.0154517125
-0.015503543 0.0058174143 -0.033418883 -0.023920504 -0.018275708 0.022011312 -0.012474415 -0.05642837
0.026800761 0.004872731 -0.019744322 0.053628568 0.038218737 0.10193172 -0.020065272 -0.037899677
0.06316005 -0.037596893 0.012291386 0.004255751 0.031821538 -0.007977142 -0.027992837 0.04530104
-0.08155394 -0.008715183 0.007780624 -0.009836071 0.044273425 -0.010071444 0.025620978 0.078012064
0.039387476 0.022751777 0.035032272 0.0024477474 -0.01394757 0.014679264 0.024789935 0.042955358
0.03781145 -0.006613407 -0.027105533 0.0043090107 0.02668362 -0.039959997 -0.0051044016 -0.019873848
0.009632149 -0.04850861 0.0107848765 0.03335314 -0.014965857 0.018128527 -0.02583714 0.032045327
-0.034974273 -0.037519816 0.030350775 0.07951144 0.006707058 -0.033809707 0.025556505 0.008879472
-0.02338376 0.030383704 0.039674725 -0.08223657 0.01565291 0.018816493 0.0019291523 0.005553585
0.05928777 0.019968282 -0.017255887 -0.040163577 0.022522675 -0.015814627 0.03350078 0.012361095
-0.033052217 -0.014245384 -0.013844271 -0.060054168 -0.03495783 -0.053809494 0.008230198 -0.014696787
-0.020185558 0.0020215441 -0.01071831 -0.021843309 -0.05739469 -0.044682436 -0.08690999 -0.03489117
0.13197684 0.00905937 0.03185159 0.0648713 0.011965173 -0.020983802 0.051827956 0.009040568
0.00697412 -0.03276863 -0.015508065 -0.019274406 0.014651058 -0.01976041 -0.016635682 -0.01517766
0.010703178 0.008729222 0.033528503 0.08330615 -0.03183351 0.035755135 -0.02283164 0.032798704
-0.021299498 -0.014209201 -0.03177196 0.0033019877 -0.012628628 0.01759388 -0.0074907914 -0.01890744
0.049909048 -0.040315337 -0.0646576 -0.029945526 -0.034864232 -0.02177485 0.0009959675 0.025251199
-0.014204499 -0.023123741 0.035658486 -0.04470969 -0.0133142425 0.007783023 -0.013335734 0.032814443
0.041357726 0.01591338 -0.01830265 -0.0125647755 0.04312774 -0.005959773 -0.028486993 -0.08150589
-0.017187005 -0.042749994 0.047556173 0.056113444 0.022327555 0.034671247 0.009318622 0.0058581647
-0.032960434 -0.006504221 0.036060084 0.03203493 -0.004082715 -0.02576594 0.006467744 0.0032527673
0.061188243 0.028363297 -0.016458696 0.014487308 0.0084476555 -0.014474519 0.008331528 -0.032143544
0.010877394 -0.0079808105 -0.05160811 -0.00056382734 0.018343866 -0.02000397 0.016335225 -0.012364992
-0.036802888 0.011734563 0.040488694 -0.021240463 -0.025558855 0.033977058 -0.02776372 0.02873814
-0.056874264 0.016232593 0.052289862 -0.011934734 0.017617077 -0.014310577 -0.013794463 -0.011901189
0.06327552 -0.015083677 -0.017458288 -0.08707907 -0.0035958437 0.051473685 0.017589921 0.006942924
0.08026021 0.00884202 0.009133311 0.043228682 0.0023067112 0.056879528 -0.002891325 -0.045307133
-0.054484725 0.026498899 -0.014827853 0.020217378 -0.002536848 0.020928266 -0.0485831 -0.009039484
-0.029448884 0.0385049 -0.006256937 0.01678358 0.012560064 -0.0059759677 0.0151713 -0.047624815
-0.033480022 -0.0601032 0.036424212 0.008293078 -0.020171287 -0.033822637 0.0053270627 -0.004592982
00000000: dc9a dfbb 3539 31bc fa05 4a3c 1f02 1d3d
00000010: c256 0abd f5df 26bd 060e 873b a4f7 413d
00000020: b96b 0abd fc04 40bd 2319 e3bb 3643 093d
00000030: 8944 503c 0a43 5cbd 88ec 0b3d 2e29 7dbc
00000040: 9302 7ebc 02a0 be3b 3de2 08bd eff4 c3bc
00000050: f0b6 95bc 1151 b43c 7d61 4cbc 6f21 67bd
00000060: 458d db3c 6eab 9f3b d8be a1bc a1a9 5b3d
00000070: 408b 1c3d 94c1 d03d ed5f a4bc b13c 1bbd
00000080: 0e5a 813d 33ff 19bd cf61 493c d473 8b3b
00000090: 4d57 023d 8fb2 02bc 3c51 e5bc 958d 393d
000000a0: c105 a7bd 20ca 0ebc 9bf4 fe3b 7927 21bc
000000b0: 0d58 353d b302 25bc 16e3 d13c cac4 9f3d
000000c0: c354 213d ef61 ba3c 007e 0f3d 636a 203b
000000d0: 5984 64bc 4c81 703c 4314 cb3c f5f1 2f3d
000000e0: 2ee0 1a3d 47b5 d8bb 6c0c debc 9a32 8d3b
000000f0: 9b97 da3c 18ad 23bd d342 a7bb 7bce a2bc
00000100: 29d0 1d3c f7b0 46bd 0db3 303c 4d9d 083d
00000110: 5b33 75bc 4782 943c 69a8 d3bc f641 033d
00000120: 2f41 0fbd 61ae 19bd 30a2 f83c e5d6 a23d
00000130: e1c6 db3b 0c7c 0abd e05b d13c 347b 113c
00000140: 4d8f bfbc 3fe7 f83c f781 223d a66b a8bd
00000150: 883a 803c 0c25 9a3c 9cdb fc3a d9fa b53b
00000160: bcd7 723d 8694 a33c 385c 8dbc 9082 24bd
00000170: 7981 b83c ad8d 81bc 1d38 093d 3186 4a3c
00000180: c361 07bd 7965 69bc 15d3 62bc 5cfb 75bd
00000190: f12f 0fbd 5867 5cbd f4d7 063c cbca 70bc
000001a0: 2f5c a5bc e27b 043b da9b 2fbc bdf0 b2bc
000001b0: b216 6bbd ee04 37bd ddfd b1bd 0bea 0ebd
000001c0: f024 073e c06d 143c d076 023d 3edb 843d
000001d0: 9309 443c 39e6 abbc 8d49 543d e41e 143c
000001e0: 2987 e43b 6638 06bd 8a15 7ebc 5ce5 9dbc
000001f0: fe0a 703c 95e0 a1bc 8e47 88bc b8ab 78bc
00000200: 625c 2f3c 0305 0f3c 2f55 093d 6a9c aa3d
00000210: db63 02bd fa73 123d 6b09 bbbc ef57 063d
00000220: 497c aebc b5cd 68bc 5123 02bd 2966 583b
00000230: 4ee8 4ebc 0a21 903c 5075 f5bb c7e3 9abc
00000240: 6e6d 4c3d b221 25bd 346b 84bd 5250 f5bc
00000250: cccd 0ebd 2c61 b2bc 208b 823a 9adb ce3c
00000260: fdb9 68bc 006e bdbc a20e 123d 8221 37bd
00000270: fb23 5abc bb08 ff3b 1f7e 5abc 7068 063d
00000280: b866 293d c75c 823c 70ef 95bc 7ddc 4dbc
00000290: b7a6 303d 334a c3bb 8e5d e9bc 8fec a6bd
000002a0: c3cb 8cbc 9e1a 2fbd 43ca 423d 36d7 653d
000002b0: 47e8 b63c 7003 0e3d 22ad 183c d9f5 bf3b
000002c0: 8501 07bd 5c21 d5bb bdb3 133d 0f37 033d
000002d0: 4cc8 85bb 1813 d3bc 5eef d33b 612c 553b
000002e0: 86a0 7a3d 255a e83c 63d4 86bc 2d5c 6d3c
000002f0: 0968 0a3c 8826 6dbc f680 083c f3a8 03bd
00000300: 1937 323c f2c1 02bc 0763 53bd d0cd 13ba
00000310: e045 963c 5edf a3bc 73d1 853c 8996 4abc
00000320: a0be 16bd 5342 403c 79d7 253d 7b00 aebc
00000330: ce60 d1bc 872b 0b3d be70 e3bc 3f6c eb3c
00000340: fdf4 68bd 37fa 843c e52d 563d e789 43bc
00000350: b051 903c e976 6abc 2c02 62bc 34fd 42bc
00000360: 9996 813d 8721 77bc af04 8fbc 8356 b2bd
00000370: 3fa8 6bbb 12d6 523d bd18 903c 7881 e33b
00000380: 775f a43d 1fde 103c e2a3 153c 8f10 313d
00000390: 312c 173b 82fa 683d 627c 3dbb f993 39bd
000003a0: 602b 5fbd 3814 d93c 86f0 72bc ea9e a53c
000003b0: 3f41 26bb c171 ab3c 13ff 46bd 581a 14bc
000003c0: c93e f1bc 50b7 1d3d fe06 cdbb b87d 893c
000003d0: bac8 4d3c 0dd2 c3bb 0b91 783c 3d12 43bd
000003e0: 5922 09bd c62e 76bd 8e31 153d b1df 073c
000003f0: 413e a5bc 9b89 0abd a48e ae3b ba80 96bb

bias f4 [256]
-0.026145397 0.0043142913 -0.018147027 0.041678578 0.049105305 0.040773086 -0.012290575 -0.005660338
0.006474185 0.018545542 -0.0007366318 0.009399683 0.040257953 0.0072158184 0.06739763 0.024277337
-0.04618097 0.013024314 0.008468434 0.008826368 0.023692962 -0.05001945 -0.0052515375 0.00065494666
-0.00794402 0.0354221 -0.0008441502 -0.03397501 0.006255226 0.03669885 -0.00058223255 -0.004005524
0.0037354694 -0.029073473 -0.0029769398 -0.034595646 0.009577992 -0.0014074468 0.046932276 0.032448035
0.020637212 0.03138834 -0.0016635406 0.0073816967 -0.026867403 -0.0039231167 0.0044355206 0.008960474
0.03379614 -0.010478002 0.008058833 -0.01395722 -0.018820187 0.007887824 -0.008923851 0.01398931
0.00011519344 -0.020657247 -0.04059683 -0.0036565922 0.015065991 -0.010763479 0.034952212 -0.007224105
-0.010939602 0.041264407 0.009346976 -0.027348483 -0.03417629 0.07116885 -0.02712741 -0.010207941
-0.0357901 -0.0028728468 -0.030940892 0.037710425 -0.050425462 0.07887697 -0.0537409 -0.020244189
-0.026267672 -0.010626109 0.03652767 0.01987307 0.026668161 -0.0060058017 -0.00733608 -0.049463265
-0.026183562 0.029242337 -0.006490083 0.015961232 -0.028537879 0.018166743 0.0031857428 -0.008197154
0.062981986 0.02580345 -0.0056350688 -0.016911838 -0.009157842 -0.029844057 -0.016204339 -0.0114285415
0.062235065 0.007986066 -0.0003086043 0.015810637 -0.028836925 -0.026058894 0.026458396 0.03330679
0.029178554 -0.06385199 -0.031430986 0.014897773 -0.016288357 -0.019719066 0.0014478563 -0.06132826
0.012071517 0.011113272 0.031447887 -0.0036789645 0.034352966 -0.003962189 0.01987046 0.03685159
0.026450526 -0.025093991 -0.05107561 0.06663623 0.04105856 0.033753753 0.007774843 -0.0074762898
-0.048969787 -0.020133248 -0.012072137 0.0072625927 0.0026553816 -0.010658868 0.047736738 0.039071817
0.0073377783 0.020054862 -0.022179637 -0.029410288 -0.021131378 0.0024116319 0.01960523 0.028683256
0.023791078 0.046031218 0.053550765 0.007133101 0.0039538806 -0.02991998 -0.012759329 0.012774431
0.023821825 0.015350267 0.004356075 -0.0185754 -0.035685252 -0.014185159 0.013334885 -0.012902757
0.009975012 -0.021848088 0.01648145 -0.013310335 0.012451987 -0.014372787 -0.057799056 0.034559995
0.02332929 -0.031282384 -0.023677565 0.002634061 -0.009832392 -0.024045363 0.0018566515 -0.031109456
-0.058681685 -0.0030111738 0.052625936 -0.035578996 -0.0067997365 -0.0002968283 -0.036562108 0.0028201987
-0.03479484 0.037890736 0.0056662513 0.0331828 -0.026137108 0.032158814 0.027330458 -0.019795744
-0.017248688 -0.057640173 0.01705189 0.021201178 -0.0074943933 -0.0526826 0.0008894318 -0.021860812
0.019438753 -0.033133265 -0.01096618 -0.004297905 0.0074743894 -0.038876377 -0.020251693 0.039264955
-0.042578224 -0.028573066 0.014496414 -0.007873999 -0.019735418 0.05088754 -0.015625505 -0.018732771
-0.021403167 -0.022429666 -0.031979028 0.024979757 0.0024430836 0.05045681 0.046581574 -0.0067581055
-0.036571916 0.01932205 0.0713813 0.014979088 0.04262748 -0.010750652 -0.028802754 0.006399065
-0.06540283 -0.0063358173 0.002687004 0.009522213 0.0004144072 0.012099996 -0.020571403 -0.016918015
0.040807277 0.0039172424 0.02720592 0.020684456 0.010011962 -0.006904735 -0.019590719 0.029429656
00000000: df2e d6bc e65e 8d3b 13a9 94bc 28b7 2a3d
00000010: a522 493d ae01 273d 685e 49bc 5b7a b9bb
00000020: 6625 d43b d2ec 973c 861a 41ba 2101 1a3c
00000030: 86e5 243d ac72 ec3b c507 8a3d 44e1 c63c
00000040: 4228 3dbd ef63 553c 30bf 0a3c 789c 103c
00000050: be17 c23c 32e1 4cbd 1715 acbb bab0 2b3a
00000060: a327 02bc c416 113d f649 5dba 6129 0bbd
00000070: a4f8 cc3b 8951 163d f7a0 18ba c540 83bb
00000080: c7ce 743b 7e2b eebc c318 43bb 2ab4 0dbd
00000090: 03ed 1c3c 147a b8ba 0f3c 403d 3be8 043d
000000a0: 5f0f a93c 0f91 003d 290b daba 29e2 f13b
000000b0: 0719 dcbc 7d8d 80bb d857 913b f4ce 123c
000000c0: d26d 0a3d edab 2bbc 3209 043c d3ac 64bc
000000d0: cb2c 9abc ef3b 013c 5835 12bc 6b33 653c
000000e0: 0294 f138 6339 a9bc dd48 26bd 70a3 6fbb
000000f0: 59d7 763c 4e59 30bc 0d2a 0f3d 2fb8 ecbb
00000100: 043c 33bc de04 293d 0f24 193c ed09 e0bc
00000110: 70fc 0bbd f9c0 913d 4d3a debc 353f 27bc
00000120: a498 12bd 5f46 3cbb c177 fdbc 3f76 1a3d
00000130: ee8a 4ebd 408a a13d 6b1f 5cbd 24d7 a5bc
00000140: 4d2f d7bc 2219 2ebc 0a9e 153d d9cc a23c
00000150: 3077 da3c 51cc c4bb 8063 f0bb fe99 4abd
00000160: e97e d6bc a08d ef3c c3aa d4bb 21c1 823c
00000170: 45c8 e9bc 6cd2 943c e5c7 503b 5b4d 06bc
00000180: b3fc 803d c261 d33c 62a6 b8bb b28a 8abc
00000190: c60a 16bc 867b f4bc f6be 84bc c73e 3bbc
000001a0: 32ea 7e3d fdd7 023c 2bcc a1b9 4f85 813c
000001b0: 6a3b ecbc 7679 d5bc 47bf d83c b36c 083d
000001c0: dd07 ef3c d5c4 82bd c7bd 00bd ca15 743c
000001d0: 296f 85bc e189 a1bc ffc5 bd3a 5733 7bbd
000001e0: 9dc7 453c 7114 363c 80cf 003d c81a 71bb
000001f0: b2b5 0c3d 40d5 81bb 60c7 a23c b1f1 163d
00000200: c6ae d83c ea91 cdbc a934 51bd 9378 883d
00000210: 052d 283d 6041 0a3d 1cc4 fe3b aafb f4bb
00000220: 8b94 48bd 7bee a4bc 36ca 45bc 0bfb ed3b
00000230: e905 2e3b 88a2 2ebc 9987 433d c509 203d
00000240: bf71 f03b 184a a43c 12b2 b5bc d8ed f0bc
00000250: b61b adbc 780c 1e3b 269b a03c 26f9 ea3c
00000260: 82e5 c23c 3b8b 3c3d 0c58 5b3d cabc e93b
00000270: 8e8f 813b bf1a f5bc 810c 51bc d94b 513c
00000280: fd25 c33c b07f 7b3c 68bd 8e3b 702b 98bc
00000290: b32a 12bd de68 68bc 907a 5a3c 1666 53bc
000002a0: 3c6e 233c c3fa b2bc 1b04 873c 9713 5abc
000002b0: 6b03 4c3c d77b 6bbc b4be 6cbd c88e 0d3d
000002c0: 111d bf3c f521 00bd 74f7 c1bc 36a0 2c3b
000002d0: 0b18 21bc c8fa c4bc e35a f33a 42d9 febc
000002e0: 355c 70bd 1d57 45bb 4b8e 573d 48bb 11bd
000002f0: 53d0 debb 9f9f 9bb9 26c2 15bd 15d3 383b
00000300: 0985 0ebd 5133 1b3d f6ab b93b b0ea 073d
00000310: 7d1d d6bc f6b8 033d 20e4 df3c af2a a2bc
00000320: 1f4d 8dbc 1a18 6cbd 68b0 8b3c 18ae ad3c
00000330: 8793 f5bb b6c9 57bd c228 693a 7215 b3bc
00000340: 053e 9f3c bfb6 07bd 7eab 33bc 71d5 8cbb
00000350: b9eb f43b d63c 1fbd e1e6 a5bc 4ad4 203d
00000360: 8166 2ebd 1012 eabc 5e82 6d3c f201 01bc
00000370: 2cac a1bc 746f 503d 0f01 80bc 7875 99bc
00000380: b255 afbc 6bbe b7bc 71fc 02bd 59a2 cc3c
00000390: 241c 203b cdab 4e3d 52cc 3e3d 1973 ddbb
000003a0: 6fcc 15bd 4749 9e3c 5c30 923d d96a 753c
000003b0: 279a 2e3d 8123 30bc c1f3 ebbc 3faf d13b
000003c0: ebf1 85bd b09c cfbb 7218 303b 0e03 1c3c
000003d0: cb44 d939 103f 463c 5c85 a8bc a697 8abc
000003e0: 8825 273d 365c 803b f3de de3c 7372 a93c
000003f0: 3609 243c 1e41 e2bb b77c a0bc 7616 f13c
