output/2023-09-24-20-37-59/trained_model/tetris_epoch2516_score4600.pt (torch, 842187 bytes, 8 tensors)

weight f4 [32, 1, 4, 4]
0.058891922 0.0075335526 -0.01727302 0.0039315457 -0.030876977 0.05902442 -0.012557703 0.051594418
-0.20087318 0.12398684 0.19582763 -0.0005074038 0.07309219 0.15348116 0.15842058 -0.03295883
0.41402438 -0.01681891 -0.5189451 -0.26137742 -0.33955228 0.05118013 -0.16965845 0.04233001
0.10620698 -0.41381463 0.031694986 -0.35335195 -0.1540824 0.0047496846 0.12018136 -0.6055782
0.023843162 -0.035498865 -0.7538214 -0.20334306 -0.044909943 -0.26271653 0.14583553 -0.29978466
0.08551618 0.3047794 0.05962767 -0.0023390707 -0.08606828 -0.11983772 -0.10203569 -0.060400072
-0.27849886 -0.33142167 -0.109115034 -0.003963754 0.12924895 -0.09902296 0.27852154 0.12359644
-0.19794735 0.10314302 -0.43985853 0.09432613 -0.28509977 -0.34547153 -0.40487745 0.11803863
-0.07082342 -0.80948824 -0.031135414 -0.0031273565 0.06264494 0.07304004 0.084516495 0.044925146
0.27436197 -0.87367666 0.2993253 -0.012230822 -0.051168647 -0.10470555 -0.025307644 -0.0049198284
0.0108970525 0.06882726 -0.13883205 -0.0846873 -0.0017968663 -0.021980878 0.30202964 0.79025996
0.0274426 0.023631712 -0.29095057 -0.7636899 -0.00014810669 -0.02999986 -0.09370071 -0.036139622
0.054192316 0.039918736 0.16147558 0.2750571 0.09107957 -0.0065332707 0.19879253 -0.48058927
0.091972254 0.080759495 0.015145246 -0.6479906 -0.061133485 0.009788314 0.06991699 -0.27372363
0.000749454 0.012934386 0.15073875 -0.16684546 0.06070154 0.09706221 -0.7172284 -0.4985548
-0.016078804 0.062022164 -0.44033805 -0.10633448 0.007465423 0.20440823 -0.27921388 -0.5005822
-0.069012985 0.072613984 -0.3698167 -0.17180808 0.15279782 0.18322681 0.09520285 -0.21855284
-0.060757384 0.12326407 -0.37130526 -0.8242974 0.1321149 -0.08151937 -0.08396429 0.07351653
-0.07882002 -0.007858273 0.009156868 0.0517701 -0.09214533 -0.2046541 -0.4573012 -0.010964307
-0.12443646 0.47172627 0.19660175 -0.0825168 0.05359826 -0.9004321 0.08917765 0.03883594
0.036478505 -0.04667247 -0.056174587 -0.120209806 -0.012052879 0.04584471 -0.25789782 -0.020651937
-0.058284387 0.023004998 0.58907557 -0.06693444 -0.0075555667 -0.06753987 -0.6888217 -0.029708097
-0.14515845 -0.37830234 -0.28258306 -0.1094045 -0.063584045 -0.25660813 -0.012178071 0.23907542
-0.056097493 0.03263931 0.106620975 -0.59244686 0.069868885 -0.028457055 0.119391896 -0.40199006
0.14541847 -0.079781964 -0.0050788857 -0.12140446 0.015291991 0.50058395 -0.029429609 -0.03321919
0.025648966 -0.5343302 0.19168667 -0.03905063 -0.082327664 -0.5761644 -0.19335172 0.013782305
-0.007656674 -0.042811375 0.002316328 0.01768276 0.0053392174 0.14882727 0.13440536 0.00883576
0.06826684 0.88167846 -0.01911434 0.032507494 -0.011618965 -1.4009047 0.08330735 -0.0084070675
0.008041479 0.47405624 0.058805734 0.0110147 -0.012042572 0.7097805 -0.0023386967 0.0044926424
-0.0014866673 -1.3023307 0.0019187389 -0.0011190536 -0.021989409 -0.032289583 -0.031598236 -0.022390299
-0.28071684 -0.0435485 0.120883994 -0.12580603 -0.06118352 -0.23282868 -0.073364876 -0.039710563
0.1601378 0.1743524 0.11508045 0.13637792 0.00028353836 0.10370425 -0.009035217 0.13868701
00000000: a838 713d 05dc f63b 2680 8dbc 32d4 803b
00000010: b7f1 fcbc 97c3 713d d3be 4dbc ab54 533d
00000020: b3b1 4dbe d0ec fd3d 0a87 483e 4b03 05ba
00000030: 5cb1 953d 2a2a 1d3e 0139 223e d7ff 06bd
00000040: 01fb d33e d0c7 89bc 96d9 04bf 43d3 85be
00000050: ccd9 adbe 42a2 513d f2ba 2dbe 3c62 2d3d
00000060: 0c83 d93d 83df d3be 9ad2 013d 8cea b4be
00000070: c7c7 1dbe 3ea3 9b3b a521 f63d 2c07 1bbf
00000080: bc52 c33c 4267 11bd 70fa 40bf 2a39 50be
00000090: 7df3 37bd c882 86be e955 153e 607d 99be
000000a0: 1b23 af3d 0c0c 9c3e 253c 743d 184b 19bb
000000b0: 9144 b0bd 7b6d f5bd 16f8 d0bd 1166 77bd
000000c0: 6797 8ebe 1ab0 a9be b477 dfbd 61e2 81bb
000000d0: d659 043e 8dcc cabd 609a 8e3e 2120 fd3d
000000e0: b6b2 4abe a63c d33d 2335 e1be 0f2e c13d
000000f0: 99f8 91be a5e1 b0be 194c cfbe 3dbe f13d
00000100: df0b 91bd 9f3a 4fbf b20f ffbc 56f4 4cbb
00000110: fe4b 803d 0496 953d fc16 ad3d 6e03 383d
00000120: 2c79 8c3e 46a9 5fbf 2a41 993e c963 48bc
00000130: 3796 51bd dd6f d6bd fa51 cfbc 8336 a1bb
00000140: 8d89 323c 4ef5 8c3d fd29 0ebe 8970 adbd
00000150: d484 ebba 3e11 b4bc a1a3 9a3e 7a4e 4a3f
00000160: 4ecf e03c 4b97 c13c 79f7 94be 2e81 43bf
00000170: 164d 1bb9 44c2 f5bc 28e6 bfbd 2407 14bd
00000180: c3f8 5d3d d481 233d db59 253e 49d4 8c3e
00000190: ed87 ba3d 0c15 d6bb 4590 4b3e cc0f f6be
000001a0: f35b bc3d 3c65 a53d c423 783c b6e2 25bf
000001b0: 1b67 7abd 2a5f 203c a430 8f3d 8125 8cbe
000001c0: 0277 443a bfea 533c 425b 1a3e 89d9 2abe
000001d0: 2ea2 783d 8dc8 c63d 489c 37bf 9342 ffbe
000001e0: b2b7 83bc f40a 7e3d fd73 e1be e4c5 d9bd
000001f0: 82a0 f43b 6450 513e 1ff5 8ebe 2826 00bf
00000200: ae56 8dbd a4b6 943d 9d58 bdbe 75ee 2fbe
00000210: 0877 1c3e cf9f 3b3e b6f9 c23d 51cc 5fbe
00000220: bcdc 78bd df71 fc3d b91b bebe 2805 53bf
00000230: 2149 073e a1f3 a6bd 78f5 abbd d68f 963d
00000240: 646c a1bd fcbf 00bc b006 163c e20c 543d
00000250: b1b6 bcbd d890 51be 6223 eabe a3a3 33bc
00000260: 8bd8 febd 1b86 f13e f851 493e 91fe a8bd
00000270: d989 5b3d b882 66bf c6a2 b63d 6f12 1f3d
00000280: 7c6a 153d a22b 3fbd 5317 66bd 8f30 f6bd
00000290: 7079 45bc aac7 3b3d 2f0b 84be 402e a9bc
000002a0: 9cbb 6ebd fa74 bc3c a8cd 163f ec14 89bd
000002b0: b094 f7bb 5852 8abd 9e56 30bf 655e f3bc
000002c0: 6ba4 14be d8b0 c1be baae 90be 770f e0bd
000002d0: 5a38 82bd 2462 83be 8886 47bc 30d0 743e
000002e0: 7cc6 65bd ccb0 053d 195c da3d 99aa 17bf
000002f0: 6b17 8f3d c51e e9bc bd83 f43d a4d1 cdbe
00000300: 94e8 143e ba64 a3bd c86c a6bb e7a2 f8bd
00000310: 428b 7a3c 4526 003f 5d16 f1bc d810 08bd
00000320: c81d d23c ddc9 08bf 8349 443e 8ef3 1fbd
00000330: 689b a8bd 837f 13bf fefd 45be 2dcf 613c
00000340: d6e4 fabb fb5a 2fbd 89cd 173b 6fdb 903c
00000350: 9af4 ae3b 2d66 183e 8fa1 093e ddc3 103c
00000360: 7ccf 8b3d aeb5 613f ad95 9cbc 9426 053d
00000370: 795d 3ebc d850 b3bf 0b9d aa3d ccbd 09bc
00000380: 68c0 033c 80b7 f23e 48de 703d 0077 343c
00000390: 354e 45bc 2db4 353f d244 19bb 0437 933b
000003a0: 47dc c2ba c6b2 a6bf 327e fb3a 35ad 92ba
000003b0: 2223 b4bc 1542 04bd 276d 01bd dc6b b7bc
000003c0: 1eba 8fbe e95f 32bd 0792 f73d 4cd3 00be
000003d0: 929b 7abd a46a 6ebe 5340 96bd 8ba7 22bd
000003e0: 2afb 233e 6f89 323e 4daf eb3d a7a6 0b3e
000003f0: e0a7 9439 e562 d43d 7208 14bc f803 0e3e

weight f4 [32, 32, 5, 5]
0.15902983 -0.13570322 0.095449485 0.08606349 0.1518503 0.21399695 -0.21951817 0.041348174
-0.029108502 -0.27444685 0.03339834 -0.087585814 0.051055647 -0.20114087 0.024015354 -0.043948464
-0.47975457 -0.25847116 -0.01906022 -0.16424546 0.076739006 0.07186382 -0.13126244 0.048466075
0.08824464 0.33799687 -0.30929422 0.081918046 0.30658224 0.40957132 0.15918818 0.31205013
-0.25762478 0.033854526 0.07118266 0.11770618 -0.406819 -0.3837375 0.15244588 -0.31423455
0.04186289 0.13185304 -0.0010966416 -0.10781485 -0.24895488 -0.20262693 0.5425173 0.015052044
0.05565935 0.19838889 0.0049155876 -0.22301365 0.10671389 -0.00944907 0.35375234 0.35547462
0.18553676 -0.46972507 -0.570846 -0.20507897 -0.098130666 0.24140696 -0.062485155 -0.18118776
0.039795354 0.20616233 -0.4735704 0.0827812 0.083561786 -0.14844336 -0.010026844 -0.2763457
0.05834347 -0.32995716 0.31232733 -0.32381383 -0.2011347 0.2911215 -0.64852077 0.11703258
-0.5392155 0.26994988 0.10560265 -0.52090365 -0.16653937 -0.5274092 -0.06935928 -0.22622249
-0.029301705 -0.6262548 -1.1182712 0.11405649 -0.55788714 0.09612473 0.21749379 -0.085664496
0.24038601 -0.22125894 0.2696657 -0.3618845 0.022690943 0.21953715 0.06906784 0.80407417
-0.7914962 -0.3847122 0.43994647 0.021236802 0.080466256 0.009178177 -0.46279943 -0.026252767
0.2273623 -0.17084523 0.70514935 -0.23392257 -0.15968642 -0.432512 -0.19408727 -0.38784647
0.031682875 0.09808903 0.1451997 -0.14131244 -0.13784686 -0.060360186 0.028389828 -0.12495493
0.002038484 -0.0895395 0.012892869 -0.17277463 0.11473569 0.06402081 -0.15132955 0.010473219
-0.012398281 -0.012751467 -0.0946666 -0.16370045 -0.35966912 -1.188519 -0.718029 -0.1212617
-0.5457646 -0.007115804 -0.11134254 -0.013522066 -0.17276026 -0.4048509 0.31102672 0.026660506
-0.007729569 -0.45252562 -0.413471 0.17904891 0.13714738 -0.3647731 0.01908142 -1.0263036
0.050670397 0.25056252 -0.29534808 0.21145067 0.14630036 -0.3829326 -0.15150735 -0.35922307
0.09786489 -0.22697712 0.04556679 -0.04423802 0.11987638 0.29878852 0.18231246 -0.09376452
-0.57283175 0.5823211 -0.2088911 -0.19806823 0.09362721 0.009965649 0.14924566 0.27815917
-1.0565523 0.09453074 -0.23611769 -0.23632674 0.2100849 -0.061943434 0.18752563 -0.33430836
-0.20718224 0.15997794 0.33807757 -0.24224488 -0.20041656 -0.073933505 0.24742801 0.15540239
0.26404497 -0.13269717 0.29675573 0.27459252 0.2593925 -0.7018787 0.027530855 -0.15409577
-0.002478881 -0.0504707 -0.582204 0.15960063 -0.12293914 0.063262455 -0.6206037 -0.45616528
-0.29705504 -0.2576117 0.09600855 0.00850235 -0.23221897 0.11603777 0.007249046 -0.23926729
0.27735353 0.17298706 0.105918266 -0.36295554 -0.047136325 -0.128758 -0.4996503 0.041889273
-0.21846932 -0.5441443 -0.1970187 -0.925661 0.008019344 -0.029435443 0.05016072 -0.27311543
-0.15528673 0.28963882 -0.32740682 0.12694961 -0.61545056 -0.19568133 0.17405468 0.07984579
-0.035500757 0.0711226 0.42585975 -0.74898136 0.072360374 0.25079286 -0.04310784 -0.62667835
00000000: b7d8 223e c9f5 0abe 057b c33d 0e42 b03d
00000010: a57e 1b3e 0422 5b3e 5fc9 60be b45c 293d
00000020: f474 eebc 4c84 8cbe b3cc 083d 3160 b3bd
00000030: ba1f 513d dff7 4dbe d9bb c43c 4e03 34bd
00000040: 64a2 f5be 5556 84be 2e24 9cbc f62f 28be
00000050: 5729 9d3d 572d 933d a969 06be 5d84 463d
00000060: 9bb9 b43d ed0d ad3e d05b 9ebe a6c4 a73d
00000070: 59f8 9c3e 55b3 d13e 3a02 233e 09c5 9f3e
00000080: 65e7 83be 0bab 0a3d 37c8 913d f00f f13d
00000090: 944a d0be 3e79 c4be c61a 1c3e 5ae3 a0be
000000a0: 6c78 2b3d 7c04 073e 30bd 8fba 08ce dcbd
000000b0: 07ee 7ebe 6f7d 4fbe 6ae2 0a3f d99c 763c
000000c0: 0ffb 633d 7526 4b3e f012 a13b b15d 64be
000000d0: d08c da3d 46d0 1abc 071f b53e c500 b63e
000000e0: 59fd 3d3e ce7f f0be f722 12bf 3900 52be
000000f0: bbf8 c8bd 6333 773e 6ff0 7fbd 4989 39be
00000100: 7400 233d 381c 533e d277 f2be 3189 a93d
00000110: 7122 ab3d 8901 18be a247 24bc 2f7d 8dbe
00000120: 90f9 6e3d 25f0 a8be 5ee9 9f3e edca a5be
00000130: 41f6 4dbe e10d 953e 7505 26bf c7ae ef3d
00000140: 070a 0abf df36 8a3e 3446 d83d f159 05bf
00000150: 4c89 2abe 4a04 07bf 3d0c 8ebd dea6 67be
00000160: 210a f0bc 3c52 20bf 8323 8fbf 7396 e93d
00000170: b1d1 0ebf 0bdd c43d b1b6 5e3e de70 afbd
00000180: c027 763e b491 62be 9f11 8a3e ed48 b9be
00000190: 5be2 b93c 59ce 603e 7173 8d3d ced7 4d3f
000001a0: 7f9f 4abf fff8 c4be aa40 e13e cdf8 ad3c
000001b0: 7ecb a43d 1160 163c 0cf4 ecbe 0b10 d7bc
000001c0: aad1 683e 0df2 2ebe ab84 343f 6689 6fbe
000001d0: d684 23be 3672 ddbe d0be 46be d093 c6be
000001e0: e7c5 013d e7e2 c83d 3baf 143e 35b4 10be
000001f0: ba27 0dbe 3e3c 77bd c991 e83c 5fe8 ffbd
00000200: 1698 053b 7c60 b7bd 9d3c 533c d5eb 30be
00000210: 8cfa ea3d 581d 833d 22f6 1abe dd97 2b3c
00000220: 2922 4bbc 87eb 50bc 90e0 c1bd 17a1 27be
00000230: 8d26 b8be 6421 98bf c0d0 37bf 0e58 f8bd
00000240: 3bb7 0bbf b12b e9bb 8f07 e4bd a88b 5dbc
00000250: 11e8 30be 9e48 cfbe e53e 9f3e 2267 da3c
00000260: 5348 fdbb 70b1 e7be 79b2 d3be 9958 373e
00000270: 5d70 0c3e 8ac3 babe a350 9c3c eb5d 83bf
00000280: c38b 4f3d bb49 803e dd37 97be 8686 583e
00000290: c3cf 153e be0f c4be be24 1bbe 16ec b7be
000002a0: 636d c83d b16c 68be 3ea4 3a3d ed32 35bd
000002b0: bf81 f53d cffa 983e 1eb0 3a3e 9d07 c0bd
000002c0: 1aa5 12bf ff12 153f 8ce7 55be 66d2 4abe
000002d0: 9fbf bf3d f646 233c dbd3 183e e16a 8e3e
000002e0: 1b3d 87bf 5599 c13d d6c8 71be a3ff 71be
000002f0: 7f20 573e 66b8 7dbd b806 403e 772a abbe
00000300: 9527 54be 42d1 233e 8118 ad3e 0b0f 78be
00000310: 003a 4dbe 736a 97bd c55d 7d3e ce21 1f3e
00000320: e730 873e c4e1 07be 5ef0 973e 6497 8c3e
00000330: 18cf 843e 53ae 33bf 6388 e13c 48cb 1dbe
00000340: b974 22bb 5dba 4ebd 520b 15bf 596e 233e
00000350: 84c7 fbbd bf8f 813d e2df 1ebf 7f8e e9be
00000360: 9917 98be aee5 83be 21a0 c43d 714d 0b3c
00000370: cfca 6dbe 36a5 ed3d 6889 ed3b 7c02 75be
00000380: 4801 8e3e 8523 313e adeb d83d 4fd5 b9be
00000390: 0512 41bd 23d9 03be 2ad2 ffbe 1694 2b3d
000003a0: 6cb6 5fbe 0a4d 0bbf 45bf 49be 1ff8 6cbf
000003b0: 9163 033c 9922 f1bc 5475 4d3d c9d5 8bbe
000003c0: 7c03 1fbe 8a4b 943e dea1 a7be 14ff 013e
000003d0: 2b8e 1dbf b060 48be 643b 323e 3186 a33d
000003e0: 3e69 11bd baa8 913d 4a0a da3e 3ebd 3fbf
000003f0: ad31 943d ec67 803e d991 30bd fe6d 20bf

weight f4 [64, 32, 5, 5]
0.16468483 0.055029474 -0.09150615 0.18579221 -0.40717533 0.21668772 0.13134454 0.14270253
-0.11612084 0.1035722 -0.011747146 -0.21404746 -0.16511542 -0.003047889 0.62958246 -0.12395954
0.08910686 0.11027772 -0.10913293 0.3476347 -0.053611748 -0.21313661 -0.018569104 0.42920777
0.049858246 0.5492212 -0.351806 -0.12756692 -0.33488646 0.041880023 -0.07463531 0.32071579
0.27125442 -0.46022874 -0.23519307 -0.19928831 0.1592669 0.5539483 -0.079473525 -0.18893059
0.3950836 0.29178098 -0.37614653 0.46165588 0.025976978 -0.12868914 0.5623332 0.40014705
0.16773498 0.014667751 -0.34236997 -0.07860807 0.35702115 0.024018705 -0.045682836 0.5081626
-0.14953606 -0.5648863 -0.54299957 -0.80598754 0.27442938 0.057433326 -0.42039254 0.37336066
-0.3496064 0.1665092 0.0933982 0.29957852 -0.25140664 -0.11693243 0.64598423 0.15385078
-0.050419733 0.13808088 -0.21981476 -0.24708067 -0.4431652 -0.09560953 0.25334588 -0.36127368
0.61605 0.36019573 0.099872865 0.24327496 0.41653913 -0.07380673 -0.32444963 -0.29248786
-0.39527795 -1.1681876 -0.6752466 -0.04063883 -1.4806057 -0.3483725 0.26151013 0.20732081
0.10086342 -0.15443693 0.46198922 0.10365572 -0.36272097 0.3730291 0.023123462 0.13172762
0.2642712 0.03194227 -0.18763413 0.20722312 0.12221132 0.6693886 0.23999901 -0.010822523
-0.2643835 -0.038853258 -0.27313042 -0.1910127 0.14936939 -0.26202896 -0.6771786 -0.65755355
-0.3746063 -0.08914561 0.1099902 0.29218164 -0.2574585 0.015261906 -0.57605064 -0.19929852
0.2979858 -0.97520566 0.50455713 -0.26935887 0.16966856 -0.0087334 -0.15613541 0.074158534
0.16660173 0.3472579 -0.057214327 -0.25645068 -0.47938135 -0.17359595 0.11951792 -0.110494025
-0.020553887 -0.3896054 -0.09644625 0.10433069 -0.014804158 0.17037016 0.008590235 -0.45684984
-0.0057658795 -0.19863637 -0.50766605 0.11956295 0.03456644 0.2185662 -0.064680465 0.06781783
-0.018591085 0.22687012 0.25841603 -0.25576362 -0.25081193 0.04894751 -0.08392217 -0.057687268
-0.13048749 -0.42486316 0.35614637 0.16225824 0.13814496 -0.128267 -0.29336756 -0.13357121
-0.5055177 0.069094636 -0.004030633 0.16445906 0.4287234 0.031820204 -0.07215434 -0.05460463
0.039489575 0.36941296 -0.3128234 -0.19587214 0.30563828 0.3406484 -0.19772454 -0.12504953
-0.09929594 -0.23221263 -0.17353469 0.27634117 -0.19328478 0.2261516 -0.7856939 -0.25999317
0.17420703 0.2885769 -0.018586513 -0.36447158 -0.11279902 0.3900673 -0.9935735 0.18924347
-0.34895018 0.11795072 0.3517649 0.21720873 0.026975797 -0.11817051 -0.44707215 0.4477879
0.12469486 0.09018989 -0.12108066 0.5796289 0.30809712 -0.034020092 -0.16978544 0.055519976
-0.11298926 0.46403763 0.09889783 -0.1227618 -0.2868789 0.29879728 0.12096855 0.43473992
0.14930968 0.006008198 0.61038834 0.07154871 0.1682132 0.00865406 0.19674978 0.1950036
0.48816752 0.099988714 -0.16734724 0.40141007 -0.061491963 0.07362164 -0.20529106 0.16629948
0.5529367 -0.29754224 0.21325482 0.12054361 0.36442724 -0.07567389 0.30971742 0.3949975
00000000: 24a3 283e 9666 613d 9467 bbbd 5040 3e3e
00000010: 4979 d0be 63e3 5d3e 2f7f 063e 9d20 123e
00000020: c3d0 edbd a91d d43d 1a77 40bc 422f 5bbe
00000030: 0414 29be 18bf 47bb 512c 213f 80de fdbd
00000040: a87d b63d 49d9 e13d 1681 dfbd 2dfd b13e
00000050: fe97 5bbd 7c40 5abe 3c1e 98bc 1fc1 db3e
00000060: 2938 4c3d c399 0c3f eb1f b4be e7a0 02be
00000070: 3d76 abbe 638a 2b3d 66da 98bd dc34 a43e
00000080: dce1 8a3e 1aa3 ebbe 74d6 70be 3c12 4cbe
00000090: dd16 233e 8ecf 0d3f 04c3 a2bd 0577 41be
000000a0: 6648 ca3e 5164 953e 4796 c0be 295e ec3e
000000b0: accd d43c 16c7 03be 12f5 0f3f 13e0 cc3e
000000c0: b8c2 2b3e 0251 703c 1e4b afbe 45fd a0bd
000000d0: 7acb b63e e0c2 c43c ed1d 3bbd f216 023f
000000e0: fb1f 19be 639c 10bf 0502 0bbf 3355 4ebf
000000f0: 0282 8c3e 353f 6b3d b13d d7be 2129 bf3e
00000100: 9cff b2be 6381 2a3e 8e47 bf3d 5b62 993e
00000110: 5fb8 80be 457a efbd 395f 253f 0f8b 1d3e
00000120: ec84 4ebd 1365 0d3e 1f17 61be b702 7dbe
00000130: 8de6 e2be eece c3bd 8db6 813e ddf8 b8be
00000140: 74b5 1d3f 936b b83e 258a cc3d 121d 793e
00000150: 9e44 d53e fc27 97bd 431e a6be f8c0 95be
00000160: df61 cabe 2c87 95bf f6dc 2cbf e774 26bd
00000170: 7d84 bdbf e15d b2be a8e4 853e e84b 543e
00000180: 7b91 ce3d b724 1ebe da89 ec3e 7349 d43d
00000190: 90b6 b9be acfd be3e 6a6d bd3c 9be3 063e
000001a0: 8e4e 873e e6d5 023d 2923 40be 4c32 543e
000001b0: ee49 fa3d 0d5d 2b3f 4dc2 753e f450 31bc
000001c0: 465d 87be 9824 1fbd c0d7 8bbe d598 43be
000001d0: 4af4 183e a928 86be 945b 2dbf 6e55 28bf
000001e0: 66cc bfbe f991 b6bd 8b42 e13d d598 953e
000001f0: 9ad1 83be 130d 7a3c 0e78 13bf e914 4cbe
00000200: 9891 983e 14a7 79bf a82a 013f 68e9 89be
00000210: 98bd 2d3e 8916 0fbc f6e1 1fbe 6ee0 973d
00000220: a599 2a3e cacb b13e 9259 6abd 814d 83be
00000230: 7971 f5be 23c3 31be d0c5 f43d b14a e2bd
00000240: a060 a8bc 5c7a c7be 9d85 c5bd 54ab d53d
00000250: 248d 72bc 8475 2e3e 0fbe 0c3c 39e8 e9be
00000260: b4ef bcbb 5567 4bbe 67f6 01bf 6cdd f43d
00000270: 8a95 0d3d d1cf 5f3e 3177 84bd 13e4 8a3d
00000280: 554c 98bc a450 683e 1b4f 843e 73f3 82be
00000290: 6c6a 80be 2f7d 483d 63df abbd 7c49 6cbd
000002a0: 839e 05be aa87 d9be d158 b63e 0627 263e
000002b0: df75 0d3e 6d58 03be 4634 96be e4c6 08be
000002c0: 9c69 01bf 7d81 8d3d 6613 84bb f567 283e
000002d0: a281 db3e e755 023d a8c5 93bd 1ba9 5fbd
000002e0: d2bf 213d b223 bd3e 642a a0be b592 48be
000002f0: 9f7c 9c3e 7869 ae3e 4d78 4abe fc0c 00be
00000300: ab5b cbbd 26c9 6dbe 14b3 31be 977c 8d3e
00000310: 72ec 45be 4994 673e 3c23 49bf d31d 85be
00000320: 5463 323e 5ac0 933e be42 98bc 059c babe
00000330: 2c03 e7bd e7b6 c73e d55a 7ebf 0ac9 413e
00000340: 99a9 b2be 2690 f13d 871a b43e f76b 5e3e
00000350: 59fc dc3c 6103 f2bd a4e6 e4be 7544 e53e
00000360: 0560 ff3d 7ab5 b83d 23f9 f7bd 8f62 143f
00000370: e8be 9d3e a758 0bbd 3cdc 2dbe ea68 633d
00000380: ea66 e7bd 5796 ed3e f28a ca3d 8a6a fbbd
00000390: cbe1 92be f5fb 983e 5cbe f73d 3b96 de3e
000003a0: a3e4 183e 6be0 c43b 6942 1c3f 2188 923d
000003b0: 1540 2c3e c2c9 0d3c c678 493e 06af 473e
000003c0: 18f1 f93e e2c6 cc3d 135d 2bbe 9f85 cd3e
000003d0: ffde 7bbd f1c6 963d d237 52be 694a 2a3e
000003e0: 428d 0d3f 7557 98be 795f 5a3e 91df f63d
000003f0: 3596 ba3e eafa 9abd 4893 9e3e 1d3d ca3e

weight f4 [256, 256]
0.043926075 0.023222033 0.0035850478 0.051516924 0.08889129 -0.020760868 -0.07066648 -0.10182077
0.013168167 -0.12271478 -0.065042384 0.046614345 0.14151262 0.12523082 -0.047056496 0.03399309
-0.18272942 0.20529372 0.08841827 -0.0032763258 -0.12125873 0.046890993 -0.02996397 -0.09436225
0.07356914 -0.14570142 -0.15946274 -0.03299118 0.04460146 0.027472561 -0.021636052 0.016033068
0.5711559 -0.2599078 -0.02445801 0.11879568 -0.0002044904 0.019753993 -0.017348709 -0.006431185
-0.005899754 -0.33210033 -0.0077860113 -0.075194225 0.027524244 -0.05782682 -0.19357316 0.034271326
-0.07358822 0.042262018 -0.09338341 0.25406182 -0.016139353 0.0072410703 -0.061728686 -0.09058533
-0.041235317 -0.43284526 0.23764981 -0.047081247 0.13561462 0.023279365 -0.13101692 -0.235733
-0.07540538 -0.07498843 -0.08691325 0.07595531 0.17523816 -0.029078871 0.022971772 -0.068340704
-0.06444277 -0.044479504 0.07199399 -0.004411003 -0.13328254 0.048829418 -0.044643562 -0.022732764
0.044955093 -0.027606014 0.12300645 0.10794003 -0.1709147 -0.023574984 0.028750377 0.011290148
-0.0038608378 0.045367423 -0.08702861 -0.0016017018 0.035725463 -0.04459029 0.0419745 -0.08939054
0.5404471 -0.17205103 -0.024329685 0.07778507 0.21665284 -0.060042143 0.2456674 -0.5455573
0.11353344 0.07869832 0.005800676 0.11001481 0.13461752 0.011756812 0.16113743 0.20080882
-0.008217798 -0.09335682 -0.06473316 0.11012478 -0.089392 0.029735992 -0.009200555 0.00021854565
-0.15994681 0.04460798 -0.27517083 -0.28149217 0.05397258 0.033395573 -0.01811045 -0.09301638
-0.112297714 -0.14045933 -0.14066188 0.23297341 0.0813804 -0.08779882 -0.07554435 -0.0224653
-0.0033949176 0.023951445 0.0025984568 -0.017802194 -0.09725661 -0.016340218 0.09447673 0.025969926
0.071076475 0.048399217 0.05800576 -0.08692419 -0.038247157 0.058533963 -0.026327023 -0.022770604
0.06283089 0.08573264 0.07849606 -0.15782517 0.053273343 -0.081762634 -0.10177171 0.11241251
-0.060544677 0.03566648 -0.055618808 0.08026136 -0.10609085 0.044068083 0.07483436 -0.0038241223
0.08867262 0.10332838 0.047308337 0.08682116 -0.16188818 -0.09215081 -0.0055489517 -0.42737138
0.06525237 0.0040365006 0.08608073 -0.0817581 -0.06568354 -0.06822432 0.0153910825 -0.043998767
-0.2022759 -0.10240586 0.035508275 -0.11607449 0.005542533 0.08632987 -0.06269222 -0.028099658
-0.015073561 -0.10140267 0.049470834 0.35025704 0.006063938 -0.032297883 -0.050094377 0.024710922
-0.06936539 -0.3151647 0.15786345 -0.012875315 -0.029990032 0.13262297 0.14220639 0.031596836
0.12935233 0.036155052 0.024947187 -0.01390884 0.23345356 0.013354207 -0.24566469 -0.1646869
0.08896056 0.12301577 -0.085099734 0.057938468 -0.025563048 0.0329926 -0.05682801 0.008768687
0.058866277 -0.03285374 0.13919182 -0.028924335 0.04667219 0.052115817 0.03419983 -0.086159915
-0.055004533 0.044935282 0.06743246 0.06309523 -0.22794917 0.048407026 0.3252224 0.0049058893
0.1799832 0.021306867 -0.11135298 -0.05271309 -0.049666 0.050897814 0.011579327 0.085082486
0.12069983 0.03499373 0.08969936 0.088729635 0.009579603 -0.015697572 0.021465318 -0.0016936242
00000000: d4eb 333d 223c be3c 1ff3 6a3b 6903 533d
00000010: a30c b63d b212 aabc 96b9 90bd 6887 d0bd
00000020: 4cbf 573c e351 fbbd f134 85bd afee 3e3d
00000030: afe8 103e 823c 003e 50be 40bd 573c 0b3d
00000040: 6c1d 3bbe 8438 523e a314 b53d a0b7 56bb
00000050: 7f56 f8bd c510 403d 0077 f5bc ff40 c1bd
00000060: 6bab 963d c132 15be 334a 23be c221 07bd
00000070: 05b0 363d 230e e13c 173e b1bc c857 833c
00000080: 4637 123f a312 85be 2a5c c8bc 264b f33d
00000090: 796c 56b9 20d3 a13c e11e 8ebc b1bc d2bb
000000a0: b952 c1bb 0e09 aabe cc21 ffbb 6eff 99bd
000000b0: 867a e13c d1db 6cbd 0b38 46be 1760 0c3d
000000c0: 6cb5 96bd f01a 2d3d cd3f bfbd 6414 823e
000000d0: ad36 84bc 8046 ed3b 38d7 7cbd cd84 b9bd
000000e0: 5de6 28bd e59d ddbe 795a 733e 44d8 40bd
000000f0: 8fde 0a3e 5eb4 be3c 4d29 06be fe63 71be
00000100: 236e 9abd 8993 99bd 93ff b1bd 758e 9b3d
00000110: a271 333e d036 eebc 4c2f bc3c 36f6 8bbd
00000120: 92fa 83bd 2430 36bd 9671 933d 2d8a 90bb
00000130: 387b 08be 5b01 483d 2bdc 36bd 103a babc
00000140: d522 383d 0226 e2bc ceea fb3d aa0f dd3d
00000150: 4304 2fbe 5320 c1bc e985 eb3c 50fa 383c
00000160: 1c06 7dbb 31d3 393d 0e3c b2bd 32f0 d1ba
00000170: dd54 123d 4fa4 36bd 74ed 2b3d 6312 b7bd
00000180: be5a 0a3f 252e 30be 0c4f c7bc c74d 9f3d
00000190: 3eda 5d3e c0ee 75bd 3c90 7b3e a5a9 0bbf
000001a0: 3884 e83d 962c a13d 9913 be3b 724f e13d
000001b0: 2dd9 093e a59f 403c 3601 253e d4a0 4d3e
000001c0: f1a3 06bc dc31 bfbd d292 84bd 1a89 e13d
000001d0: 2713 b7bd e598 f33c edbd 16bc 6729 6539
000001e0: 19c9 23be dbb6 363d 31e3 8cbe be1f 90be
000001f0: 5a12 5d3d ccc9 083d 5e5c 94bc 5f7f bebd
00000200: 58fc e5bd 92d4 0fbe ab09 10be 9590 6e3e
00000210: c4aa a63d decf b3bd ffb6 9abd 2609 b8bc
00000220: 447d 5ebb d235 c43c df4a 2a3b e8d5 91bc
00000230: 792e c7bd ecdb 85bc 047d c13d e2be d43c
00000240: 8b90 913d 423e 463d 7397 6d3d 4f05 b2bd
00000250: 0da9 1cbd 4fc1 6f3d c5ab d7bc 6b89 babc
00000260: 7bad 803d 9894 af3d 8bc2 a03d ec9c 21be
00000270: 2635 5a3d 2b73 a7bd b06d d0bd 8838 e63d
00000280: b2fd 77bd 0417 123d 8cd0 63bd 1160 a43d
00000290: 2946 d9bd bc80 343d c242 993d 209e 7abb
000002a0: fe99 b53d d49d d33d 63c6 413d 4bcf b13d
000002b0: 04c6 25be 90b9 bcbd fbd3 b5bb 6cd0 dabe
000002c0: 09a3 853d 9f44 843b 184b b03d ca70 a7bd
000002d0: 1885 86bd 31b9 8bbd e12a 7c3c 0d38 34bd
000002e0: 6a21 4fbe 2aba d1bd 2071 113d 76b8 edbd
000002f0: 239e b53b b7cd b03d c764 80bd 4131 e6bc
00000300: 19f7 76bc 34ac cfbd eea1 4a3d e454 b33e
00000310: 00b4 c63b c94a 04bd c32f 4dbd 8f6e ca3c
00000320: 710f 8ebd 445d a1be f5a6 213e fcf2 52bc
00000330: a8ad f5bc 51ce 073e 8d9e 113e af6b 013d
00000340: f074 043e 5217 143d 0b5e cc3c e7e1 63bc
00000350: 730e 6f3e 9bcb 5a3c 868f 7bbe afa3 28be
00000360: f430 b63d b1ef fb3d c548 aebd e350 6d3d
00000370: 9969 d1bc 4023 073d 7dc4 68bd 8aaa 0f3c
00000380: c41d 713d a591 06bd 4d88 0e3e baf2 ecbc
00000390: 572b 3f3d 6577 553d 1f15 0c3d 9c74 b0bd
000003a0: 6f4c 61bd 0f0e 383d 081a 8a3d 1238 813d
000003b0: 826b 69be 7246 463d 8d83 a63e 95c1 a03b
000003c0: 844d 383e bd8b ae3c 080d e4bd aee9 57bd
000003d0: 936e 4bbd 3a7a 503d 38b7 3d3c ba3f ae3d
000003e0: 7931 f73d 9655 0f3d 4cb4 b73d e2b7 b53d
000003f0: c4f3 1c3c 3298 80bc 09d8 af3c 99fc ddba

bias f4 [256]
0.0026026466 0.014833819 0.07913203 -0.01274355 -0.03617811 -0.097451724 -0.060941674 0.052877933
0.1419293 -0.12106498 0.02629988 -0.016810097 0.08286599 -0.08508942 -0.03041777 -0.039653044
-0.013620095 -0.05140899 0.08143683 -0.07763203 0.02347794 -0.06191601 0.08255021 0.20629713
-0.13989039 0.13277835 0.05512177 -0.084131815 -0.11298414 -0.12664117 0.1360176 0.12486474
-0.0431864 0.01384053 0.058463562 -0.023915244 -0.12512434 -0.0006171251 -0.04092077 -0.14867955
-0.06259138 0.05927255 0.051267765 -0.10961267 -0.05708335 0.027855676 0.1065089 0.1620425
-0.0065859645 0.080875464 -0.047299054 0.02944991 -0.13879755 0.11198969 0.127 -0.02692816
-0.04497223 0.04162087 0.20003237 0.009716873 -0.010837263 0.051389907 -0.13442439 0.017426187
0.0069651413 0.039609123 -0.0018421345 -0.05675299 -0.08356987 -0.22792947 -0.05010641 -0.024370981
-0.07972476 0.08571235 0.039608713 0.043102413 0.021562958 0.037377212 0.05970765 -0.040631372
-0.15919252 0.040432494 -0.00886526 -0.04150512 -0.10768028 0.09892545 0.08446323 0.04022194
0.183421 -0.06857549 0.07674784 -0.014305729 0.035923295 0.108485855 0.07094491 0.04263495
-0.15420704 0.23164041 -0.14953703 0.0014524601 0.053128812 -0.14453308 -0.12707655 -0.017118882
-0.07582659 -0.046986453 -0.078713566 0.12879042 0.13257042 0.043019023 -0.07968148 0.08519996
-0.017248245 0.009547362 -0.059637085 0.027252555 -0.10129011 -0.121605165 -0.035042558 -0.06704461
-0.028223302 0.16175361 0.06399028 -0.021101005 -0.009741416 0.013334322 -0.032817084 -0.011593608
-0.08573203 0.033751816 0.049485896 0.07973016 -0.11001168 0.0018157919 0.10010718 0.092165254
-0.11289169 -0.014779169 -0.05942806 -0.0910438 0.114878714 -0.004294227 -0.033314966 -0.11827214
0.03189785 0.012590852 -0.054181773 0.18057413 0.042977426 0.14741054 -0.023552299 0.061465565
0.023944123 0.028453354 -0.032262214 0.006613273 0.094471276 0.00081566686 -0.11479599 -0.10802591
0.027411079 -0.017224694 0.0132944845 -0.006137188 0.08688566 -0.1654113 0.080499895 -0.050092913
-0.0137647325 -0.043087196 -0.0018343015 0.047648847 -0.02303875 -0.029665152 0.046059262 0.11492557
0.06440139 -0.0916566 -0.09576507 -0.12807076 0.052281234 0.021190032 0.17475095 -0.035083443
0.043822482 -0.08409146 0.16465864 -0.032885514 -0.050573375 -0.06922244 -0.0567074 -0.00075086026
-0.020050324 0.13014545 -0.082776785 0.10590414 0.035643518 -0.05144572 0.019027587 0.040634405
0.061980546 -0.07726442 0.08994697 -0.04752176 0.021369645 -0.05556197 0.026134895 0.06163221
0.16334501 0.024101574 -0.059693944 -0.08006479 -0.033058893 0.116929024 -0.09651671 0.10998757
0.028276933 0.17078316 0.023663472 -0.037954684 0.04734211 -0.001451892 0.07908995 0.1320833
0.117964864 0.0060656127 0.026356269 -0.008959601 0.0015154632 -0.0019422477 -0.015910016 -0.1462643
-0.046436712 0.10840654 -0.049324185 0.0930941 -0.044716258 0.07957522 -0.15462081 -0.012933052
-0.023057466 0.029811151 -0.0287919 -0.15731484 0.073327646 0.0013988665 0.005513217 0.043867424
-0.09550624 0.053212307 0.009028679 0.0073675583 -0.12552176 -0.017355168 0.043080904 0.108982995
00000000: 2a91 2a3b 8c09 733c f90f a23d 53ca 50bc
00000010: 7f2f 14bd c594 c7bd fa9d 79bd 8896 583d
00000020: ea55 113e ebf0 f7bd d972 d73c 54b5 89bc
00000030: a5b5 a93d 5d43 aebd b02e f9bc 3b6b 22bd
00000040: d226 5fbc 3c92 52bd 5ac8 a63d 8bfd 9ebd
00000050: cf54 c03c a49b 7dbd 1610 a93d 8e3f 533e
00000060: 6d3f 0fbe 0cf7 073e 5dc7 613d 4d4d acbd
00000070: 3b64 e7bd 39ae 01be 3348 0b3e 16b9 ff3d
00000080: 39e4 30bd 64c3 623c 7d77 6f3d e7e9 c3bc
00000090: 9820 00be 90c6 21ba 8a9c 27bd 743f 18be
000000a0: e92f 80bd c6c7 723d 26fe 513d 9c7c e0bd
000000b0: 3bd0 69bd 9631 e43c 5721 da3d 78ee 253e
000000c0: 13cf d7bb 09a2 a53d a7bc 41bd f040 f13c
000000d0: f220 0ebe da5a e53d 4a0c 023e 7298 dcbc
000000e0: cd34 38bd a57a 2a3d 49d5 4c3e 8533 1f3c
000000f0: c78e 31bc 397e 523d 8ca6 09be 5dc1 8e3c
00000100: d73b e43b 2d3d 223d c773 f1ba d375 68bd
00000110: ae26 abbd 5866 69be 613c 4dbd a7a5 c7bc
00000120: bc46 a3bd f589 af3d bf3c 223d 288c 303d
00000130: cda4 b03c d918 193d 0290 743d 156d 26bd
00000140: 5d03 23be 8b9c 253d 983f 11bc 4601 2abd
00000150: 7b87 dcbd 6d99 ca3d 0ffb ac3d c3bf 243d
00000160: b7d2 3b3e 4e71 8cbd f92d 9d3d 9462 6abc
00000170: 4e24 133d d52d de3d 914b 913d fca1 2e3d
00000180: 73e8 1dbe 2533 6d3e 3c20 19be 7960 be3a
00000190: 999d 593d 7b00 14be 5b20 02be e63c 8cbc
000001a0: f94a 9bbd de74 40bd 9434 a1bd a3e1 033e
000001b0: 8ac0 073e b734 303d 0b30 a3bd 517d ae3d
000001c0: 314c 8dbc 8a6c 1c3c 0446 74bd c040 df3c
000001d0: 3071 cfbd 210c f9bd c988 0fbd af4e 89bd
000001e0: 8e34 e7bc bda2 253e 560d 833d 04dc acbc
000001f0: 769a 1fbc 3378 5a3c 356b 06bd 1ef3 3dbc
00000200: 4694 afbd 583f 0a3d b9b1 4a3d 9149 a33d
00000210: ce4d e1bd deff ed3a fe04 cd3d 23c1 bc3d
00000220: c233 e7bd 5424 72bc d66a 73bd 2c75 babd
00000230: 8845 eb3d 96b6 8cbb 4675 08bd aa38 f2bd
00000240: 52a7 023d dc49 4e3c b5ed 5dbd 6de8 383e
00000250: 1909 303d caf2 163e c0f0 c0bc 51c3 7b3d
00000260: 7726 c43c 0217 e93c 6225 04bd 28b4 d83b
00000270: 287a c13d 7ad2 553a 291a ebbd b03c ddbd
00000280: 338d e03c cd1a 8dbc 1cd1 593c 771a c9bb
00000290: 1cf1 b13d 9461 29be 21dd a43d 3a2e 4dbd
000002a0: 7985 61bc 337c 30bd f26c f0ba 702b 433d
000002b0: c3bb bcbc 5504 f3bc a3a8 3c3d 195e eb3d
000002c0: e0e4 833d 75b6 bbbd 7a20 c4bd fb24 03be
000002d0: d924 563d b896 ad3c eaf1 323e a8b3 0fbd
000002e0: 347f 333d 2538 acbd 469c 283e f6b2 06bd
000002f0: 0726 4fbd 7fc4 8dbd 0546 68bd 61d5 44ba
00000300: 9440 a4bc d944 053e e086 a9bd 45e4 d83d
00000310: f0fe 113d bfb8 52bd bedf 9b3c 4370 263d
00000320: 50df 7d3d cf3c 9ebd 1e36 b83d 2da6 42bd
00000330: 650f af3c f394 63bd d918 d63c 0e72 7c3d
00000340: ea43 273e aa70 c53c a381 74bd 02f9 a3bd
00000350: c368 07bd 7c78 ef3d 8eaa c5bd 2a41 e13d
00000360: 07a5 e73c c8e1 2e3e e6d9 c13c 5f76 1bbd
00000370: cde9 413d 694d beba e9f9 a13d d840 073e
00000380: 9097 f13d 0cc2 c63b 1ae9 d73c 4acb 12bc
00000390: 82a2 c63a 0593 feba b955 82bc 4fc6 15be
000003a0: 6c34 3ebd 3f04 de3d 2808 4abd 1fa8 be3d
000003b0: 6528 37bd 55f8 a23d eb54 1ebe 27e5 53bc
000003c0: 03e3 bcbc 8436 f43c fedc ebbc 2417 21be
000003d0: ce2c 963d 2c5a b73a 37a8 b43b 54ae 333d
000003e0: c798 c3bd 26f5 593d 06ed 133c 8f6b f13b
000003f0: c788 00be 6d2c 8ebc 9a75 303d 7a32 df3d

weight f4 [256, 256]
-0.012244736 -0.0044221366 0.018988645 0.032482803 -0.01839245 0.022438077 -0.018001 -0.0058023436
-0.04418494 -0.051745497 -0.036779985 0.017733641 0.03990935 -0.019558696 0.022108685 -0.009238052
-0.013946392 0.01441678 -0.08205332 -0.023415318 0.015629444 0.032937083 0.0069960174 -0.04318908
0.031922396 0.011939236 -0.020649344 0.027087495 0.034952994 0.05879161 -0.022637587 -0.041789737
0.05901798 -0.058005273 -0.022994483 -0.007543614 0.042455435 -0.011333815 -0.03618691 0.014244772
-0.06559428 -0.024279507 0.008104702 -0.022739856 0.02974845 -0.026324116 0.041235536 0.06995061
0.09930476 0.034684326 0.023412652 -0.010056634 0.024426794 0.017065175 0.048659373 0.04726985
-0.0026635171 -0.02770231 -0.035917513 -0.008171244 -0.0055514164 -0.046265136 -0.009637208 -0.0471508
0.025600668 -0.024140935 -0.014738014 0.021358278 -0.0045690676 0.0066969274 -0.011962669 0.026542949
-0.029391557 0.020101046 0.04956058 0.07913971 -0.019307198 0.013082744 0.021889355 -0.0164416
-0.014321379 0.013656915 0.03573619 -0.036472138 0.01790965 0.003531469 -0.016905848 -0.007888434
0.036894266 0.010731865 -0.04281025 -0.043038018 0.012272138 -0.020517154 -0.0028215745 -0.01639878
-0.037951633 -0.025103655 -0.0011791375 -0.02759725 -0.025952943 -0.029594708 0.0016092365 -0.018777527
0.0029724669 0.02084841 -0.028974894 -0.023278695 0.0029684925 -0.055093057 -0.07910014 -0.02360454
0.12837808 0.0009712184 0.012011365 0.055181213 0.0053275446 -0.01058571 0.050828125 0.020389726
-0.027748598 -0.0077218707 -0.02576054 -0.023972118 -0.0029108305 -0.009688649 -0.001707011 -0.00083902664
-0.0104356585 0.029594917 0.011613087 0.07409018 0.004589982 0.036445774 0.027485106 0.04562147
-0.016037516 0.051316425 0.002753608 -0.007431997 -0.04405802 0.035203673 0.0069437195 0.00024288773
0.04467816 -0.033738915 -0.060444508 -0.0022527273 -0.020625824 -0.023746042 -0.010425151 -0.008980602
-0.066326804 -0.032380234 0.03635143 -0.058650345 0.0027152174 -0.0070891124 -0.029489538 0.0010827457
-0.00982203 0.03956915 -0.016884005 -0.028291399 0.04624226 0.020063045 0.0043604006 -0.044166382
-0.06680192 -0.032491755 0.05867637 0.028435763 0.005605234 0.027574401 0.05273444 0.03203297
0.0030559995 -0.0066477614 0.017582394 -0.0067865495 0.0039475653 -0.023197448 0.034766812 -0.0074527883
0.034228057 0.0030493024 0.016363537 -0.036940448 -0.00075893896 -0.01633109 0.012474659 -0.012202632
0.009363061 -0.00042735322 -0.020737326 -0.0057926835 0.018634975 -0.004202358 0.028213652 -0.0034034187
0.0027177657 -0.0122417305 0.04284705 -0.023165062 0.01704992 0.038053777 -0.033118065 0.032552592
-0.034541704 0.04772302 0.058725473 -0.022908058 0.05436189 0.008102117 -0.0056734863 -0.013352728
0.015425906 0.04846087 -0.0069281887 -0.09050719 -0.013555256 0.034761112 0.0340565 0.012123675
0.04973385 0.047936372 0.04679474 0.095128946 0.025638167 0.0066428846 -0.003479268 -0.0050618243
-0.065166235 0.04148888 -0.024983354 0.026013685 0.020325424 0.01599001 -0.04891925 -0.008022787
-0.018420354 -0.019523634 -0.004855388 0.03721539 -0.014705752 -0.02959418 -0.0063867336 -0.0508672
-0.020676043 -0.05097179 0.037985627 -0.009429845 -0.0063735633 -0.060014084 -0.00029041962 0.022809574
00000000: 259e 48bc 92e7 90bb 138e 9b3c b00c 053d
00000010: c3ab 96bc 0fd0 b73c d576 93bc 9621 bebb
00000020: 45fb 34bd 16f3 53bd 9ca6 16bd 2446 913c
00000030: fd77 233d 8f39 a0bc 461d b53c 335b 17bc
00000040: 687f 64bc 5c34 6c3c 920b a8bd 7bd1 bfbc
00000050: 5209 803c 09e9 063d d93e e53b 08e7 30bd
00000060: 0fc1 023d c99c 433c d028 a9bc 98e6 dd3c
00000070: df2a 0f3d 79cf 703d 7672 b9bc b72b 2bbd
00000080: d6bc 713d f096 6dbd ed5e bcbc 6c30 f7bb
00000090: c0e5 2d3d 77b1 39bc ba38 14bd e762 693c
000000a0: 4b56 86bd d1e5 c6bc 96c9 043c ef48 babc
000000b0: 05b3 f33c aca5 d7bc 98e6 283d 4442 8f3d
000000c0: 4b60 cb3d 2711 0e3d e4cb bf3c 95c4 24bc
000000d0: b31a c83c 44cc 8b3c 0d4f 473d 089e 413d
000000e0: 678e 2ebb f4ef e2bc 3e1e 13bd aee0 05bc
000000f0: a8e8 b5bb 8380 3dbd 61e5 1dbc 3221 41bd
00000100: 7eb8 d13c 36c3 c5bc b677 71bc 8ef7 ae3c
00000110: 1eb8 95bb e671 db3b 12ff 43bc 9970 d93c
00000120: 90c6 f0bc f3aa a43c 0900 4b3d 0014 a23d
00000130: 212a 9ebc 0159 563c 4e51 b33c 89b0 86bc
00000140: 38a4 6abc 41c1 5f3c 1c60 123d cf63 15bd
00000150: 42b7 923c 3870 673b 227e 8abc 7e3e 01bc
00000160: 711e 173d b4d4 2f3c cd59 2fbd a248 30bd
00000170: 1411 493c 9713 a8bc 2aea 38bb bc56 86bc
00000180: 2c73 1bbd 2ea6 cdbc 4a8d 9aba a113 e2bc
00000190: 449b d4bc 9a70 f2bc 04ed d23a 54d3 99bc
000001a0: b8cd 423b 49ca aa3c c25c edbc f6b2 bebc
000001b0: 0a8b 423b 42a9 61bd 41ff a1bd 4f5e c1bc
000001c0: 8b75 033e 5d99 7e3a 51cb 443c b205 623d
000001d0: af92 ae3b b06f 2dbc 2731 503d 5b08 a73c
000001e0: 0751 e3bc bf07 fdbb c507 d3bc 2d61 c4bc
000001f0: a2c3 3ebb 24bd 1ebc c9bd dfba 20f2 5bba
00000200: 53fa 2abc 0a71 f23c d144 3e3c 98bc 973d
00000210: 8f67 963b 2a48 153d 7228 e13c 94dd 3a3d
00000220: 1c61 83bc 2c31 523d e075 343b 1c88 f3bb
00000230: 2f76 34bd ba31 103d 2488 e33b aeaf 7e39
00000240: 7200 373d d131 0abd a994 77bd 7ea2 13bb
00000250: 7df7 a8bc 0f87 c2bc 41ce 2abc 6023 13bc
00000260: 59d6 87bd 23a1 04bd 3de5 143d 583b 70bd
00000270: caf1 313b c94b e8bb 0b94 f1bc ebea 8d3a
00000280: 94ec 20bc 4313 223d 5350 8abc 5dc3 e7bc
00000290: 8668 3d3d 415b a43c b1e1 8e3b cfe7 34bd
000002a0: 72cf 88bd 1316 05bd a256 703d 1ef2 e83c
000002b0: 1cac b73b b6e3 e13c 1100 583d 0135 033d
000002c0: 2a47 483b 77d5 d9bb f408 903c b461 debb
000002d0: 945a 813b 9308 bebc a567 0e3d 8536 f4bb
000002e0: b832 0c3d ced6 473b d30c 863c de4e 17bd
000002f0: 88f3 46ba c7c8 85bc 8362 4c3c 8ced 47bc
00000300: 8667 193c 610e e0b9 53e1 a9bc 8dd0 bdbb
00000310: 60a8 983c efb3 89bb 5120 e73c e40b 5fbb
00000320: 8b1c 323b 8a91 48bc 6380 2f3d a8c4 bdbc
00000330: 46ac 8b3c 47de 1b3d cfa6 07bd de55 053d
00000340: 9a7b 0dbd 3779 433d 1f8a 703d aea9 bbbc
00000350: 93aa 5e3d bebe 043c a7e8 b9bb 67c5 5abc
00000360: f0bc 7c3c e87e 463d dc05 e3bb d55b b9bd
00000370: dd16 5ebc ab61 0e3d d47e 0b3d 61a2 463c
00000380: b9b5 4b3d ee58 443d d7ab 3f3d f7d2 c23d
00000390: 2207 d23c 8eac d93b 6e04 64bb a9dd a5bb
000003a0: e075 85bd 3ef0 293d e4a9 ccbc a71a d53c
000003b0: 8181 a63c 7bfd 823c 8d5f 48bd 0272 03bc
000003c0: 48e6 96bc 07f0 9fbc f219 9fbb 2a6f 183d
000003d0: 65f0 70bc 7e6f f2bc ce47 d1bb 205a 50bd
000003e0: ce60 a9bc ccc7 50bd d196 1b3d a37f 1abc
000003f0: 53d9 d0bb 54d1 75bd 7643 98b9 25db ba3c

bias f4 [256]
-0.02234933 0.014400095 -0.029451994 0.03080926 0.057170235 0.037848435 -0.018599903 -0.0028970263
-0.005742874 0.015205809 -0.0115820225 0.012069816 0.039716244 -0.013432943 0.063524805 0.023268614
-0.04942683 -7.0871334e-05 0.00069417164 0.01733584 0.026354933 -0.036668856 0.0017326489 -0.010456686
0.0021156184 0.033908576 -0.011449773 -0.015772082 0.006185227 0.040888153 0.00039306525 0.0015414244
-0.015326482 -0.03516408 0.008959379 -0.015078209 0.010990581 -0.0007392622 0.043351885 0.024289073
0.014927238 0.01805858 0.0056834635 0.006530844 -0.0065864967 -0.012157464 0.011438566 -0.0025238153
0.029966477 -0.010256783 -0.006571405 -0.023068933 -0.01133951 0.002583825 -0.012584105 0.022332456
-0.00022022524 -0.02939818 -0.0346837 0.009528929 0.011527407 -0.019733319 0.020476218 -0.020998195
-0.0008140397 0.025129773 0.008279516 -0.014902123 -0.031680066 0.05542076 -0.03003301 -0.022200782
-0.034363378 -0.009027372 -0.025970703 0.04366898 -0.04469736 0.06895277 -0.051266756 -0.027028784
-0.00874797 -0.011387163 0.037181266 0.022400083 0.029799154 -0.013133005 -0.018504169 -0.031738088
-0.021216067 0.029827142 -0.017223662 0.021750223 0.0020833656 0.012731437 0.00094795733 -0.010425614
0.03979247 0.02760604 -0.016925622 -0.014541744 -0.008539897 -0.030027049 -0.01014612 0.004647737
0.05792748 0.01363088 0.008879959 -0.00018080723 -0.016901711 -0.007692924 0.025170034 0.035959058
0.022027649 -0.05947272 -0.02523231 0.0096160285 -0.01066948 -0.023930766 -0.0017308921 -0.051599562
0.0062399562 -0.0027995214 0.032253236 -0.010301183 0.028405564 -0.00460053 0.018855235 0.022633094
0.027572442 -0.011146294 -0.033099934 0.052579418 0.044997804 0.034804653 0.006768433 -0.00015458198
-0.0480855 0.0024161027 -0.012227679 0.0055349246 0.0032601424 -0.0069505605 0.042262413 0.029594732
-0.00015371098 0.02352018 -0.03195351 -0.025139177 -0.014788691 0.0034551371 0.020773178 0.015679399
0.022224627 0.032839634 0.039986383 0.01932277 0.011210479 -0.037134428 -0.021696854 0.010002117
0.014973656 0.008432678 0.0023820458 -0.011747389 -0.03795323 -0.0117070535 0.009071625 -0.018773438
0.0048924573 -0.018972447 0.020471137 -0.011884932 -0.006968298 -0.0073867473 -0.043019563 0.030865174
0.004747284 -0.018463884 -0.020321542 0.00453002 -0.032259244 -0.010603402 0.0096269455 -0.026561378
-0.03464212 -0.009875406 0.042550255 -0.009680164 -0.0044538956 0.005730698 -0.029792652 0.003375042
-0.028750036 0.021318559 -0.0012679478 0.021021625 -0.014261815 0.028102249 0.0020849782 -0.013465391
-0.02550014 -0.04698718 -0.0075741094 0.028171606 -0.006297992 -0.04184687 -0.0024659955 -0.022558967
0.019514417 -0.015234099 -0.0145293325 0.0031465234 0.023850061 -0.032654278 -0.0035670616 0.03081365
-0.041959163 -0.010561025 0.021834264 -0.00092676975 -0.033445686 0.049350962 -0.015932426 -0.039042685
-0.016554143 -0.013469442 -0.014045322 0.011095656 -0.008341982 0.051384512 0.04899603 0.000745957
-0.036480147 0.0125645725 0.06404411 0.018191466 0.033166263 -0.0011030801 -0.03027335 -0.0011663495
-0.052768882 -0.00028053243 0.0012316459 0.0010964918 -0.007033747 0.012008299 -0.028693397 -0.020376794
0.02972495 -0.0069701066 0.035917964 0.010509965 0.018306943 0.0011111043 -0.00053039397 0.016410949
00000000: f115 b7bc 60ee 6b3c 4f45 f1bc b463 fc3c
00000010: 562b 6a3d f606 1b3d d35e 98bc 09dc 3dbb
00000020: b82e bcbb c921 793c 86c2 3dbc 7ac0 453c
00000030: 80ad 223d d915 5cbc 4b19 823d d29d be3c
00000040: ca73 4abd c2a0 94b8 12f9 353a e403 8e3c
00000050: 4de6 d73c 1532 16bd 0d1a e33a 8552 2bbc
00000060: 30a6 0a3b b8e3 0a3d d497 3bbc 7434 81bc
00000070: 72ad ca3b 567a 273d 5314 ce39 9f09 ca3a
00000080: ed1b 7bbc 3608 10bd 5cca 123c 980a 77bc
00000090: d611 343c 0ccb 41ba bf91 313d e1f9 c63c
000000a0: 6091 743c 96ef 933c 593c ba3b b100 d63b
000000b0: 8ad3 d7bb 1a30 47bc d368 3b3c 9866 25bb
000000c0: 427c f53c 110c 28bc f154 d7bb 0ffb bcbc
000000d0: 5ac9 39bc 6455 293b 902d 4ebc 8ef2 b63c
000000e0: 43ec 66b9 74d4 f0bc 7f10 0ebd 3a1f 1c3c
000000f0: 73dd 3c3c c5a7 a1bc bebd a73c 6804 acbc
00000100: 4865 55ba f4dc cd3c cfa6 073c 0928 74bc
00000110: f5c2 01bd e100 633d c907 f6bc 6ade b5bc
00000120: 9dc0 0cbd 8be7 13bc 83c0 d4bc 3fde 323d
00000130: 9414 37bd 1c37 8d3d 17fd 51bd 786b ddbc
00000140: a553 0fbc 3991 3abc 624b 183d 6180 b73c
00000150: 5b1d f43c d12b 57bc 0e96 97bc ccff 01bd
00000160: 51cd adbc 0d58 f43c a318 8dbc 862d b23c
00000170: 1389 083b 8497 503c 5780 783a 32d0 2abc
00000180: 6efd 223d 1026 e23c 9aa7 8abc 7f40 6ebc
00000190: edea 0bbc 49fb f5bc e93b 26bc 0b4c 983b
000001a0: 5e45 6d3d 0e54 5f3c 3f7d 113c 1297 3db9
000001b0: 7575 8abc ec14 fcbb 6331 ce3c ce49 133d
000001c0: 5473 b43c ab99 73bd fdb3 cebc 8c8c 1d3c
000001d0: 0bcf 2ebc 740a c4bc 1adf e2ba 105a 53bd
000001e0: 8c78 cc3b 2d78 37bb f81b 043d 4bc6 28bc
000001f0: c9b2 e83c 0bc0 96bb 4b76 9a3c 0a69 b93c
00000200: 9adf e13c f29e 36bc cc93 07bd 845d 573d
00000210: 9e4f 383d 538f 0e3d bbc9 dd3b 4917 22b9
00000220: 4df5 44bd 7a57 1e3b 9a56 48bc 505e b53b
00000230: 1da8 553b 87c1 e3bb 5a1b 2d3d a770 f23c
00000240: 7a2d 21b9 64ad c03c afe1 02bd adf0 cdbc
00000250: 444c 72bc 956f 623b 832c aa3c 1572 803c
00000260: 6c10 b63c da82 063d c3c8 233d c94a 9e3c
00000270: 28ac 373c 451a 18bd 9abd b1bc ebdf 233c
00000280: 1154 753c 3729 0a3c 191c 1c3b 1f78 40bc
00000290: d974 1bbd f1ce 3fbc 27a1 143c c1ca 99bc
000002a0: e850 a03b 1b6c 9bbc 16b3 a73c 05b9 42bc
000002b0: 5256 e4bb 870c f2bb 4835 30bd f6d8 fc3c
000002c0: 1b8f 9b3b 9241 97bc 5d79 a6bc 9070 943b
000002d0: 4522 04bd e4b9 2dbc 56ba 1d3c 3f97 d9bc
000002e0: e5e4 0dbd 74cc 21bc 2d49 2e3d 8d99 1ebc
000002f0: fcf1 91bb 94c8 bb3b b80f f4bc cf2f 5d3b
00000300: 3285 ebbc 42a4 ae3c 4531 a6ba 8b35 ac3c
00000310: 63aa 69bc b036 e63c 21a4 083b f19d 5cbc
00000320: abe5 d0bc a175 40bd 3c30 f8bb 24c8 e63c
00000330: 635f cebb a067 2bbd 8a9c 21bb 95cd b8bc
00000340: b3dc 9f3c 7198 79bc 700c 6ebc e735 4e3b
00000350: 3461 c33c 7ec0 05bd 5dc5 69bb e86c fc3c
00000360: 5fdd 2bbd 2608 2dbc c5dd b23c 77f2 72ba
00000370: 58fe 08bd 3c24 4a3d b884 82bc 39eb 1fbd
00000380: 8e9c 87bc efae 5cbc 5a1e 66bc 8eca 353c
00000390: cfac 08bc 9178 523d 10b0 483d 548c 433a
000003a0: 356c 15bd a3db 4d3c 8f29 833d 4506 953c
000003b0: 59d9 073d 3a95 90ba d1ff f7bc 32e0 98ba
000003c0: 2f24 58bd 6d14 93b9 2e6f a13a 29b8 8f3a
000003d0: 597b e6bb 75be 443c 6a0e ebbc 3ced a6bc
000003e0: bd81 f33c 7e65 e4bb b71e 133d fd31 2c3c
000003f0: 71f8 953c 79a2 913a 230a 0bba 4170 863c
