output/2023-09-24-20-37-59/trained_model/tetris_epoch3064_score12900.pt (torch, 842187 bytes, 8 tensors)

weight f4 [32, 1, 4, 4]
0.066228844 0.016312724 -0.018874003 0.006169639 -0.0327982 0.05970738 -0.008815765 0.048729792
-0.19058481 0.13444489 0.19169933 0.0018751475 0.07704522 0.14573635 0.16125852 -0.04114335
0.40100446 -0.028236834 -0.5773684 -0.2620934 -0.35670164 0.056310724 -0.20375614 -0.00073799025
0.11162435 -0.38413647 -0.0024463534 -0.3557798 -0.1409742 0.016541211 0.10228791 -0.6218732
0.06908596 0.055887453 -0.7549678 -0.1765465 -0.061269384 -0.27230754 0.14414643 -0.2829747
0.088661894 0.30110586 0.06867539 -0.049186863 -0.0904844 -0.12906778 -0.11427216 -0.087121
-0.20246102 -0.4151822 -0.035952963 0.0253457 0.15480997 -0.10803804 0.25398347 0.113309555
-0.14763384 0.104062356 -0.4638425 0.07254941 -0.20234932 -0.34655595 -0.4275753 0.14520296
-0.11761558 -0.680429 -0.037740055 -0.032756325 0.06933982 0.102932066 0.12574497 0.057522714
0.27033854 -0.90657914 0.31143546 -0.022906434 -0.0488625 -0.08638989 -0.0030415948 -0.015146635
0.0050813016 0.062978804 -0.14784761 -0.059698045 0.012820219 -0.032431234 0.3156513 0.8172663
0.020297432 0.008012915 -0.30092183 -0.73971736 -0.015949024 -0.041170675 -0.12162349 -0.036598913
0.051615097 0.026534704 0.1378513 0.28802973 0.06907147 -0.0064045517 0.22232457 -0.49475437
0.098107345 0.077753715 0.008343767 -0.6209177 -0.05128808 0.0016418726 0.059570447 -0.26873538
0.017036447 -0.004379993 0.1590325 -0.22223625 0.07199754 0.08242857 -0.7172284 -0.47993213
-0.026302109 0.07987926 -0.3327799 -0.19118224 -0.020219253 0.19588307 -0.3076293 -0.5656729
-0.109768234 0.050677262 -0.34045178 -0.1679741 0.13296239 0.21014561 0.15904357 -0.25666603
-0.04885726 0.13575454 -0.33865708 -0.8242974 0.12456463 -0.07101643 -0.083404824 0.028491942
-0.09236648 0.01706425 0.013464382 0.06487574 -0.104762115 -0.17617358 -0.45068297 0.0254284
-0.10796331 0.47283232 0.21703081 -0.037624005 0.065322466 -0.96942353 0.090949625 0.027203944
0.03185955 -0.07332937 -0.057340946 -0.06577839 -0.025864283 0.061140694 -0.2741283 -0.007686259
-0.06397949 0.024739858 0.59250474 -0.07040261 -0.009072623 -0.02912357 -0.7114758 -0.006463951
-0.21464437 -0.33566928 -0.3236952 -0.123725705 -0.06332425 -0.2776082 -0.0035490524 0.22601709
-0.055479053 0.038222197 0.12825912 -0.59990525 0.043681707 -0.038555168 0.09224092 -0.44779164
0.137222 -0.09154753 -0.016320407 -0.10126352 -0.0021504713 0.5129426 -0.05882128 -0.028505497
0.049621914 -0.5543267 0.23216309 -0.01790649 -0.11182281 -0.51772225 -0.16293105 0.016071185
-0.020609992 -0.050801028 -0.016206836 0.015089457 0.0017436821 0.16181739 0.11060436 0.0030017702
0.06548857 0.8997473 -0.017496863 0.046125572 -0.010436421 -1.4047513 0.08194268 -0.015185256
0.014766605 0.49659747 0.043990143 0.0020187597 -0.013941713 0.74736094 -0.02009239 -0.0013684633
-0.0019930135 -1.290383 0.004278852 -0.0061417297 -0.03865244 -0.039617863 -0.03698979 -0.030605637
-0.2600416 -0.051992416 0.1193278 -0.11711121 -0.07521934 -0.23679799 -0.0547002 -0.03050117
0.1563403 0.17060992 0.11731976 0.14282005 -0.004207176 0.09619683 -0.016904123 0.14035523
00000000: fda2 873d 43a2 853c a79d 9abc af2a ca3b
00000010: 6857 06bd ba8f 743d 0070 10bc e498 473d
00000020: aa28 43be ecab 093e d44c 443e 82c7 f53a
00000030: e2c9 9d3d e93b 153e f420 253e ee85 28bd
00000040: 7550 cd3e ef50 e7bc 6ace 13bf 1b31 86be
00000050: 99a1 b6be 13a6 663d 73a5 50be b075 41ba
00000060: 4f9b e43d 89ad c4be 0053 20bb c528 b6be
00000070: 8a5b 10be 6f81 873c 537c d13d 1533 1fbf
00000080: f17c 8d3d 3eea 643d 9245 41bf 9bc8 34be
00000090: 9bf5 7abd e56b 8bbe 1f9b 133e 0fe2 90be
000000a0: 5e94 b53d 8c2a 9a3e afa5 8c3d 2a78 49bd
000000b0: e34f b9bd 582a 04be 8607 eabd 7f6c b2bd
000000c0: f151 4fbe c392 d4be 6a43 13bd c9a1 cf3c
000000d0: 8186 1e3e 0c43 ddbd 1f0a 823e d70e e83d
000000e0: 532d 17be a51e d53d c47c edbe c994 943d
000000f0: a934 4fbe c86f b1be 26eb dabe 16b0 143e
00000100: 70e0 f0bd 9830 2ebf 5195 1abd 7f2b 06bd
00000110: 0902 8e3d 0cce d23d 4ac3 003e f09c 6b3d
00000120: d069 8a3e 9215 68bf 7874 9f3e 46a6 bbbc
00000130: 0b24 48bd 2fed b0bd 7e55 47bb 9729 78bc
00000140: 0c81 a63b 08fb 803d 5d65 17be f085 74bd
00000150: e50b 523c 9dd6 04bd 0c9d a13e 5d38 513f
00000160: cd46 a63c 9a48 033c 6d12 9abe 1e5e 3dbf
00000170: 87a7 82bc 95a2 28bd bc15 f9bd bee8 15bd
00000180: 5a6a 533d 4f5f d93c e428 0d3e a278 933e
00000190: 5875 8d3d 46dd d1bb 0da9 633e 7250 fdbe
000001a0: 81ec c83d 573d 9f3d 4cb4 083c 76f4 1ebf
000001b0: 7313 52bd 1a34 d73a 2400 743d af97 89be
000001c0: 0590 8b3c 0b86 8fbb 6ad9 223e e691 63be
000001d0: 7273 933d 4fd0 a83d 489c 37bf aab9 f5be
000001e0: 8577 d7bc bd97 a33d 2162 aabe 47c5 43be
000001f0: d9a2 a5bc 9295 483e 9681 9dbe f0cf 10bf
00000200: 2bce e0bd f692 4f3d b24f aebe 6701 2cbe
00000210: 4b27 083e 6930 573e 51dc 223e bb69 83be
00000220: 8d1e 48bd 3d03 0b3e 7664 adbe 2805 53bf
00000230: be1b ff3d 1071 91bd 26d0 aabd ef67 e93c
00000240: a32a bdbd 53ca 8b3c b699 5c3c 92dd 843d
00000250: 858d d6bd d966 34be ebbf e6be 384f d03c
00000260: de1b ddbd 1417 f23e 533d 5e3e a11b 1abd
00000270: c9c7 853d 242c 78bf cc43 ba3d ceda de3c
00000280: 297f 023d b52d 96bd 57de 6abd d2b6 86bd
00000290: 55e1 d3bc aa6e 7a3d 8b5a 8cbe 04dd fbbb
000002a0: ae07 83bd 3eab ca3c 64ae 173f 3e2f 90bd
000002b0: 57a5 14bc 8e94 eebc 4723 36bf 8dcf d3bb
000002c0: bccb 5bbe d8dc abbe 61bb a5be e763 fdbd
000002d0: 25b0 81bd a922 8ebe 3897 68bb 0671 673e
000002e0: 013e 63bd e18e 1c3d 5c56 033e 6493 19bf
000002f0: 97eb 323d 06ec 1dbd cfe8 bc3d f244 e5be
00000300: ed83 0c3e 457d bbbd 60b2 85bc 4063 cfbd
00000310: ecee 0cbb 3550 033f 95ee 70bd 5c84 e9bc
00000320: 5940 4b3d 5be8 0dbf 29bc 6d3e a2b0 92bc
00000330: 5b03 e5bd 7289 04bf 66d7 26be b8a7 833c
00000340: 49d6 a8bc bd14 50bd 33c4 84bc c539 773c
00000350: 438c e43a 75b3 253e 8a84 e23d 59b9 443b
00000360: df1e 863d d755 663f 9555 8fbc 2bee 3c3d
00000370: 86fd 2abc e4ce b3bf 90d1 a73d 94cb 78bc
00000380: a1ef 713c 0642 fe3e 022f 343d 2b4d 043b
00000390: c86b 64bc 0c53 3f3f cc98 a4bc 025e b3ba
000003a0: 389d 02bb 452b a5bf 9d35 8c3b 9040 c9bb
000003b0: 0552 1ebd 5746 22bd 9b82 17bd acb8 fabc
000003c0: 2c24 85be 00f6 54bd 2262 f43d 01d8 efbd
000003d0: 990c 9abd 2c7b 72be 510d 60bd 97dd f9bc
000003e0: ac17 203e 5eb4 2e3e 5845 f03d 6b3f 123e
000003f0: 5adc 89bb d802 c53d 847a 8abc 48b9 0f3e

weight f4 [32, 32, 5, 5]
0.19254906 -0.18970767 0.07527507 0.095741265 0.13803728 0.17316069 -0.24954031 0.018241195
-0.06380376 -0.26568943 0.052298777 -0.10466132 0.019608935 -0.27492622 0.029355306 -0.068921134
-0.5292137 -0.32563478 -0.012287138 -0.22661024 0.052167263 0.081242226 -0.1615694 0.057808973
0.09581068 0.21508345 -0.22631495 0.1865603 0.25700033 0.37006512 0.21073537 0.41616964
-0.16751716 -0.07205706 0.07312218 0.17196167 -0.4595008 -0.3915627 0.1594102 -0.33390945
-0.028197983 0.12877357 -0.058006335 0.0076540345 -0.35136318 -0.19603036 0.5203138 -0.010626154
0.20766549 0.20829275 0.084558494 -0.24548364 0.1650407 0.04631832 0.22809808 0.3557707
0.13897207 -0.2840113 -0.5356248 -0.27345693 -0.025302056 0.14361319 -0.011302407 -0.20646891
0.04206766 0.24171723 -0.42872122 0.107516386 0.10719074 -0.20248292 -0.0068137846 -0.24151959
0.014199334 -0.36570454 0.3081864 -0.3447825 -0.35616782 0.25081578 -0.72474974 0.22115394
-0.48445022 0.17235743 0.09508815 -0.4462565 -0.23834467 -0.63585126 -0.1977122 -0.20722729
0.023469934 -0.6367638 -1.3144357 0.18990317 -0.4629698 0.09707607 0.1910469 -0.090826266
0.18939991 -0.11585645 0.36579642 -0.26210603 -0.086606935 0.35079193 0.0748045 0.7821091
-0.7043629 -0.5563103 0.41984928 0.021324929 0.10717741 0.03951957 -0.45970887 0.072057955
0.18977824 -0.2175949 0.63469934 -0.3197825 -0.12201911 -0.4825268 -0.22244734 -0.31305972
0.13015375 0.16566885 0.16364256 -0.115376145 -0.087898254 -0.10727531 0.16385299 -0.14503087
0.046949536 -0.03215829 -0.037443455 -0.1265615 0.17639808 0.039666362 -0.173917 -0.025215026
-0.052102543 -0.05701226 -0.061103642 -0.21643741 -0.49799368 -1.0777774 -0.5145394 -0.12860803
-0.53784424 0.019719766 -0.09406624 -0.026626116 -0.24689789 -0.4564579 0.43175596 0.1152127
-0.009519983 -0.461667 -0.43127263 0.23097835 0.16158992 -0.3892469 0.025587581 -1.0453024
0.03217228 0.25124153 -0.2959054 0.22177097 0.10654666 -0.35941157 -0.21717687 -0.31083435
0.048994876 -0.320896 -0.0005252416 0.041183334 0.10407026 0.27089548 0.17609687 -0.14101054
-0.5373836 0.5148021 -0.21675274 -0.25296098 0.14167792 0.00851993 0.10865251 0.2162295
-1.0809216 0.25514776 -0.35371593 -0.28700072 0.15967745 -0.004925148 0.27463377 -0.28694913
-0.12373328 0.10623361 0.45530722 -0.327654 -0.23717669 -0.07539168 0.26513544 0.14242476
0.2323472 -0.12631571 0.23551555 0.28856397 0.27655905 -0.7479379 -0.015933905 -0.15078191
0.039815128 -0.09033713 -0.56499946 0.19208725 -0.16911075 0.07376854 -0.6481719 -0.4873185
-0.3206372 -0.22385813 0.058092684 0.09614856 -0.24631849 0.07103605 0.0019257234 -0.3256135
0.3449929 0.10281315 0.07669901 -0.24854288 -0.029890196 -0.0043554395 -0.42889902 0.050474405
-0.20157608 -0.5832563 -0.19666274 -0.8429606 -0.12260586 -0.08531992 0.015893925 -0.3259331
-0.08213174 0.29917726 -0.39889535 0.06451046 -0.6495912 -0.20956716 0.18178754 0.12963825
-0.076257005 0.1572032 0.38836735 -0.7856988 -0.045361977 0.20824777 -0.018825855 -0.62010515
00000000: 952b 453e ba42 42be d129 9a3d ff13 c43d
00000010: a559 0d3e 0951 313e 7f87 7fbe 8f6e 953c
00000020: 8cab 82bd 7208 88be 3e37 563d ad58 d6bd
00000030: eba2 a03c 21c3 8cbe 8a7a f03c 8626 8dbd
00000040: 8d7a 07bf 9ab9 a6be fe4f 49bc 840c 68be
00000050: 57ad 553d 5362 a63d 7372 25be 1ac9 6c3d
00000060: 6438 c43d d63e 5c3e 1bbf 67be aa09 3f3e
00000070: 8c95 833e 2d79 bd3e 03cb 573e 3014 d53e
00000080: 9e89 2bbe a792 93bd 15c1 953d b816 303e
00000090: b043 ebbe e87a c8be 6d3c 233e 2ef6 aabe
000000a0: 75ff e6bc 38dd 033e 0d98 6dbd b2ce fa3b
000000b0: e0e5 b3be 2fbc 48be 4933 053f 5219 2ebc
000000c0: 43a6 543e b24a 553e 012d ad3d 1060 7bbe
000000d0: 6e00 293e 47b8 3d3d 8b92 693e 9427 b63e
000000e0: b24e 0e3e ee69 91be b51e 09bf 8c02 8cbe
000000f0: 4246 cfbc 560f 133e bb2d 39bc 966c 53be
00000100: 234f 2c3d b984 773e 5981 dbbe 8d31 dc3d
00000110: d286 db3d af57 4fbe 2b46 dfbb e950 77be
00000120: 53a4 683c a03d bbbe 9cca 9d3e 5587 b0be
00000130: a15b b6be ed6a 803e 3389 39bf 2e76 623e
00000140: dc09 f8be 777e 303e 93bd c23d bb7b e4be
00000150: a010 74be 26c7 22bf 1175 4abe 6433 54be
00000160: 0544 c03c f402 23bf 6e3f a8bf fa75 423e
00000170: 610a edbe d2cf c63d cca1 433e 1f03 babd
00000180: 0df2 413e 2546 edbd ab49 bb3e c332 86be
00000190: fa5e b1bd 009b b33e 1a33 993d 4d38 483f
000001a0: 2151 34bf 5a6a 0ebf 7cf6 d63e 9eb1 ae3c
000001b0: d47f db3d 46df 213d f65e ebbe 1f93 933d
000001c0: 3a55 423e 33d1 5ebe a87b 223f 88ba a3be
000001d0: 28e5 f9bd c10d f7be 3cc9 63be 5d49 a0be
000001e0: 0647 053e 18a5 293e ea91 273e 544a ecbd
000001f0: 0004 b4bd 28b3 dbbd 14c9 273e f982 14be
00000200: 284e 403d 69b8 03bd 4f5e 19bd 5699 01be
00000210: b3a1 343e 3279 223d 4c17 32be be8f cebc
00000220: 7a69 55bd b085 69bd d047 7abd c5a1 5dbe
00000230: 07f9 febe 9cf4 89bf dbb8 03bf d3b1 03be
00000240: 29b0 09bf 598b a13c cda5 c0bd 031f dabc
00000250: cdd2 7cbe dab4 e9be 1e0f dd3e a3f4 eb3d
00000260: b4f9 1bbc 9e5f ecbe c4cf dcbe 9785 6c3e
00000270: d477 253e 5f4b c7be 0c9d d13c 78cc 85bf
00000280: 15c7 033d bba2 803e ea80 97be ee17 633e
00000290: 2335 da3d cb04 b8be 9d63 5ebe ae25 9fbe
000002a0: daae 483d 7b4c a4be 5eb0 09ba dbaf 283d
000002b0: ca22 d53d d0b2 8a3e bd52 343e 1165 10be
000002c0: f991 09bf 12ca 033f 6ef4 5dbe 1a84 81be
000002d0: 0414 113e 2d97 0b3c 3585 de3d 446b 5d3e
000002e0: a45b 8abf baa2 823e 411a b5be c2f1 92be
000002f0: 7c82 233e 2363 a1bb cc9c 8c3e ffea 92be
00000300: e067 fdbd 0291 d93d 071e e93e 44c2 a7be
00000310: 72de 72be f466 9abd d5bf 873e ccd7 113e
00000320: 6dec 6d3e e858 01be fd2a 713e a8be 933e
00000330: 2699 8d3e dc78 3fbf d287 82bc 9366 1abe
00000340: 3015 233d ac02 b9bd cea3 10bf 85b2 443e
00000350: 5e2b 2dbe f613 973d 98ee 25bf cf81 f9be
00000360: 8f2a a4be 113b 65be 98f2 6d3d 89e9 c43d
00000370: ea3a 7cbe 597b 913d 8e68 fc3a d0b6 a6be
00000380: e9a2 b03e b38f d23d 5f14 9d3d 0682 7ebe
00000390: 49dc f4bc 13b8 8ebb a798 dbbe 40be 4e3d
000003a0: f669 4ebe 4950 15bf f561 49be 44cc 57bf
000003b0: c818 fbbd 36bc aebd fa33 823c b4e0 a6be
000003c0: b034 a8bd c32d 993e 033c ccbe 0f1e 843d
000003d0: 9c4b 26bf c698 56be 8326 3a3e e4bf 043e
000003e0: a22c 9cbd e0f9 203e 16d8 c63e 8e23 49bf
000003f0: 7bcd 39bd e73e 553e ae38 9abc 36bf 1ebf

weight f4 [64, 32, 5, 5]
0.16837876 0.058283336 -0.11696923 0.18964519 -0.36982688 0.21683224 0.13854681 0.115202874
-0.10894172 0.040763263 -0.028710524 -0.22786132 -0.15092897 0.001737065 0.62705487 -0.1179727
0.08157451 0.15448062 -0.0713436 0.31888428 -0.07007402 -0.20045343 -0.05100469 0.42987925
0.082522914 0.46101916 -0.387968 -0.11555318 -0.29200962 0.12111416 -0.0902696 0.3474495
0.22468157 -0.49790892 -0.27812654 -0.29179403 0.1269954 0.50715095 -0.044457972 -0.22406308
0.4409497 0.3339484 -0.3242534 0.444872 -0.13001221 -0.11188111 0.47680885 0.43631694
0.21000147 -0.031913925 -0.4122235 0.08626669 0.39660066 0.014196684 -0.04701549 0.58775425
-0.070749655 -0.651489 -0.46126464 -0.7850762 0.31828728 0.034078993 -0.37184563 0.29876652
-0.2894203 0.064883694 0.010133675 0.3956152 -0.19371732 -0.18571581 0.63471216 0.22165164
-0.08118846 0.123747095 -0.2131562 -0.24604192 -0.4573544 0.016715901 0.2660126 -0.34562284
0.58969694 0.38208756 0.11023569 0.28662512 0.4216724 -0.0788239 -0.34653574 -0.36702964
-0.26816967 -1.1232595 -0.78275734 0.09696619 -1.4574722 -0.3811386 0.14611393 0.23542556
0.052921776 -0.1764834 0.5089528 0.07696715 -0.39080855 0.29795888 0.004251987 0.05358768
0.28769082 0.040671878 -0.19407062 0.2370303 0.14105766 0.67418796 0.24516791 0.089390524
-0.21731804 -0.07038847 -0.29182485 -0.22065283 0.09264249 -0.30367807 -0.7409046 -0.6366855
-0.38658652 -0.10650017 0.017308753 0.33111832 -0.19768688 -0.17779455 -0.5769649 -0.2005333
0.34546003 -0.9700586 0.45414916 -0.24907623 0.18935393 -0.00053465023 -0.15661374 0.0907512
0.14996296 0.31547186 -0.07519047 -0.2517325 -0.6168231 -0.22909029 0.09028019 -0.11478519
-0.014565121 -0.41175792 -0.04431318 0.11608441 -0.017978715 0.14791109 0.012986105 -0.42781696
-0.0035823828 -0.25715503 -0.5399816 0.11623644 0.02713857 0.18485522 -0.05447117 0.03908854
-0.012955256 0.21012397 0.28700265 -0.28387383 -0.19552335 0.048836656 -0.07348427 -0.056003217
-0.14341277 -0.4575104 0.35468653 0.16369148 0.12634765 -0.07108262 -0.4216626 -0.07224401
-0.5826743 -0.08739834 -0.025700947 0.28059894 0.41758728 0.0058806445 -0.040317196 -0.06153675
0.21770877 0.40429637 -0.39430678 -0.19205472 0.36073288 0.42283997 -0.2141172 -0.14183195
-0.011361259 -0.16508652 -0.08774555 0.37638855 -0.12989393 0.07419376 -0.71407866 -0.1822994
0.1512648 0.26645762 -0.015536481 -0.40708688 -0.012870205 0.36966982 -0.98359805 0.14773384
-0.28398985 0.17087595 0.44789284 0.16449755 0.017029136 -0.19971041 -0.47362125 0.43900433
-0.05449035 0.16931647 -0.07896776 0.5525781 0.324765 -0.047182985 -0.14975557 0.10788417
-0.096271224 0.4682826 0.07003314 -0.20385326 -0.30021417 0.3369604 0.06560402 0.45756572
0.17626701 -0.00403312 0.6370329 0.08921998 0.2849624 0.051494855 0.101139516 0.15227863
0.41724077 0.16871089 -0.19942088 0.3356308 0.030032946 0.15806755 -0.21122783 0.17957011
0.48371455 -0.3997569 0.31512013 0.051688787 0.38488403 -0.02025452 0.48469844 0.44274938
00000000: 7b6b 2c3e 82ba 6e3d 908d efbd 5932 423e
00000010: f359 bdbe 4509 5e3e 37df 0d3e 7cef eb3d
00000020: d61c dfbd 61f7 263d 5532 ebbc 7a54 69be
00000030: 208d 1abe 3bae e33a ab86 203f ac9b f1bd
00000040: 8910 a73d 2b30 1e3e 981c 92bd cd44 a33e
00000050: f882 8fbd aa43 4dbe 4bea 50bd 2219 dc3e
00000060: c601 a93d b40a ec3e bea3 c6be 25a7 ecbd
00000070: 4982 95be b30a f83d 45df b8bd e7e4 b13e
00000080: ed12 663e ebed febe 9a66 8ebe 0766 95be
00000090: 150b 023e a5d4 013f 9019 36bd cb70 65be
000000a0: 29c4 e13e 49fb aa3e 8b04 a6be 43c6 e33e
000000b0: ec21 05be ec21 e5bd 4a20 f43e ef64 df3e
000000c0: a00a 573e 2db8 02bd f50e d3be 97ac b03d
000000d0: 3e0f cb3e 3599 683c 5093 40bd 1077 163f
000000e0: 32e5 90bd fcc7 26bf e12a ecbe c1fa 48bf
000000f0: 8df6 a23e 6a96 0b3d 8d62 bebe edf7 983e
00000100: e62e 94be bee1 843d b707 263c 138e ca3e
00000110: d55d 46be 492c 3ebe 7f7c 223f a6f8 623e
00000120: 2346 a6bd 1e6f fd3d 9e45 5abe 6af2 7bbe
00000130: 5b2a eabe c9ef 883c ce32 883e 7af5 b0be
00000140: 61f6 163f fba0 c33e 40c3 e13d 87c0 923e
00000150: 72e5 d73e 6d6e a1bd 226d b1be 4feb bbbe
00000160: 894d 89be f8c6 8fbf c962 48bf 3696 c63d
00000170: 738e babf 9924 c3be e49e 153e 6613 713e
00000180: 81c4 583d 10b8 34be bb4a 023f f4a0 9d3d
00000190: 0f18 c8be 118e 983e 4154 8b3b c17e 5b3d
000001a0: 364c 933e 8e97 263d 73ba 46be 12b8 723e
000001b0: 6b71 103e 9597 2c3f 4c0d 7b3e 6112 b73d
000001c0: 9f88 5ebe d527 90bd 116a 95be d1f2 61be
000001d0: 59bb bd3d b17b 9bbe edab 3dbf d2fd 22bf
000001e0: abee c5be c31c dabd 16cb 8d3c 5788 a93e
000001f0: 6e6e 4abe c60f 36be f9b3 13bf 9a58 4dbe
00000200: 23e0 b03e c355 78bf 3d86 e83e d70d 7fbe
00000210: ffe5 413e c527 0cba 5a5f 20be c4db b93d
00000220: e48f 193e 8785 a13e 76fd 99bd 15e3 80be
00000230: 1ee8 1dbf a596 6abe d2e4 b83d 7f14 ebbd
00000240: 8ca2 6ebc efd1 d2be bd81 35bd aabd ed3d
00000250: 1948 93bc 0176 173e acc3 543c d30a dbbe
00000260: 69c6 6abb d3a9 83be 3c3c 0abf 5f0d ee3d
00000270: b551 de3c b04a 3d3e 291d 5fbd 4e1b 203d
00000280: 4842 54bc bd2a 573e 03f2 923e e957 91be
00000290: 4637 48be f208 483d ec7e 96bd a163 65bd
000002a0: ccda 12be ce3e eabe 7999 b53e bd9e 273e
000002b0: 4761 013e c493 91bd 29e4 d7be abf4 93bd
000002c0: 252a 15bf e7fd b2bd cb8a d2bc aaaa 8f3e
000002d0: 00ce d53e 6cb2 c03b a523 25bd f60d 7cbd
000002e0: 0cef 5e3e efff ce3e 94e2 c9be fea9 44be
000002f0: fbb1 b83e 7b7e d83e 8a41 5bbe 653c 11be
00000300: 9324 3abc 710c 29be f0b3 b3bd 00b6 c03e
00000310: ea02 05be e6f2 973d dccd 36bf b2ac 3abe
00000320: 29e5 1a3e 226d 883e b98c 7ebc b16d d0be
00000330: 8ddd 52bc 5d45 bd3e 15cd 7bbf 8a47 173e
00000340: 1e67 91be 1bfa 2e3e 3652 e53e 0c72 283e
00000350: b080 8b3c e380 4cbe 7c7e f2be 2dc5 e03e
00000360: 4631 5fbd 4c61 2d3e d9b9 a1bd c275 0d3f
00000370: 9947 a63e f242 41bd 8659 19be 60f2 dc3d
00000380: d929 c5bd bdc2 ef3e 896d 8f3d e9be 50be
00000390: acb5 99be 1386 ac3e 675b 863d 0e46 ea3e
000003a0: 577f 343e 4328 84bb 9714 233f f7b8 b63d
000003b0: 97e6 913e 45ec 523d 3c22 cf3d eeee 1b3e
000003c0: 95a0 d53e 8cc2 2c3e fd34 4cbe cdd7 ab3e
000003d0: a707 f63c 76dc 213e 1c4c 58be 3ae1 373e
000003e0: 6fa9 f73e f0ac ccbe 6d57 a13e 9fb7 533d
000003f0: 850f c53e cfec a5bc 652a f83e 0cb0 e23e

weight f4 [256, 256]
0.037932698 0.03306363 -0.005283778 0.043427024 0.08889129 -0.020760868 -0.07066648 -0.10182077
0.013168167 -0.12271478 -0.065042384 0.046614345 0.11654174 0.088691115 -0.052036427 0.035524886
-0.18040901 0.14455467 0.048298765 0.0033679022 -0.12125873 0.046890993 -0.02996397 -0.09436225
0.07356914 -0.14570142 -0.15946274 -0.03299118 0.047679886 0.016621862 -0.030419456 0.029082911
0.60219455 -0.2234127 0.01242754 0.12250489 0.009781653 0.0059969993 -0.03151196 -0.005157148
0.00010899431 -0.28148982 0.01392388 -0.061337322 0.00342523 -0.03698678 -0.19238365 0.040517554
-0.07196648 0.04405898 -0.08385757 0.25410676 -0.016139353 0.0072410703 -0.061728686 -0.09058533
-0.04840912 -0.43284526 0.23764981 -0.047081247 0.17506632 -0.009813093 -0.18771577 -0.25934806
-0.07540538 -0.07498843 -0.08691325 0.07595531 0.17174281 -0.0068888664 0.067922294 -0.068340704
-0.041019484 -0.048736203 0.07199399 -0.004411003 -0.12890062 0.048829418 -0.044643562 -0.01358719
0.044955093 -0.027606014 0.12300645 0.10794003 -0.14201336 -0.017211404 0.0020060835 -0.0039957166
-0.0038608378 0.045367423 -0.08702861 -0.0016017018 0.035725463 -0.04459029 0.0419745 -0.08939054
0.54007566 -0.19562398 -0.046661172 0.07778507 0.21953109 -0.089381665 0.24881558 -0.5430082
0.11353344 0.07869832 0.005800676 0.11001481 0.13461752 0.011756812 0.16113743 0.20080882
-0.021085875 -0.082828574 -0.05767484 0.06908686 -0.089392 0.029735992 -0.009200555 0.00021854565
-0.16772832 0.09984615 -0.27361363 -0.28149217 0.05397258 0.033395573 -0.01811045 -0.09301638
-0.11518806 -0.13169217 -0.14066188 0.23297341 0.0813804 -0.08779882 -0.07554435 -0.0224653
-0.008842432 0.011160327 0.0066325516 -0.017802194 -0.09725661 -0.016340218 0.09447673 0.025969926
0.104383454 0.020149786 0.035697933 -0.111787885 -0.024037782 0.07022323 -0.022497188 -0.016174605
0.06283089 0.08573264 0.07849606 -0.15782517 0.053273343 -0.081762634 -0.10177171 0.11241251
-0.060544677 0.03566648 -0.055618808 0.08026136 -0.10609085 0.044068083 0.07483436 -0.0038241223
0.08867262 0.10332838 0.047308337 0.08682116 -0.1387669 -0.11273515 -0.0055489517 -0.42737138
0.06525237 0.0040365006 0.08608073 -0.0817581 -0.07292444 -0.06429502 0.0057136347 -0.012481925
-0.2022759 -0.10240586 0.035508275 -0.11607449 0.005542533 0.08632987 -0.06269222 -0.028099658
-0.025423642 -0.10001346 0.049470834 0.35025704 0.011686619 -0.046237145 -0.041067813 0.03741701
-0.07576163 -0.31565502 0.16352014 0.005709222 -0.049493745 0.09682093 0.12461901 0.031596836
0.121064834 0.040422283 0.027465466 -0.007903553 0.24023503 0.015955687 -0.22910887 -0.16357248
0.075298265 0.16051182 -0.08621128 0.064140424 -0.043607157 0.030716492 -0.050992824 0.010043289
0.043367885 -0.03610189 0.11149368 -0.027675206 0.04667219 0.052115817 0.03419983 -0.086159915
-0.055004533 0.044935282 0.06743246 0.06309523 -0.19446892 0.054169644 0.33223364 0.011421218
0.1799832 0.021306867 -0.11135298 -0.05271309 -0.059724387 0.06468002 0.010456202 0.08599899
0.12069983 0.03499373 0.08969936 0.088729635 0.022789786 -0.005798916 0.022876961 -0.0028840231
00000000: 515f 1b3d bb6d 073d 8b23 adbb 89e0 313d
00000010: a30c b63d b212 aabc 96b9 90bd 6887 d0bd
00000020: 4cbf 573c e351 fbbd f134 85bd afee 3e3d
00000030: 70ad ee3d b0a3 b53d 2624 55bd 8b82 113d
00000040: 24bd 38be 2406 143e edd4 453d 06b8 5c3b
00000050: 7f56 f8bd c510 403d 0077 f5bc ff40 c1bd
00000060: 6bab 963d c132 15be 334a 23be c221 07bd
00000070: fc4b 433d 922a 883c 3932 f9bc 493f ee3c
00000080: 6c29 1a3f 4dc6 64be e19c 4b3c d8e3 fa3d
00000090: 3a43 203c 7a82 c43b af12 01bd 4bfd a8bb
000000a0: e093 e438 6f1f 90be fc20 643c d83c 7bbd
000000b0: d379 603b 737f 17bd 3800 45be bcf5 253d
000000c0: 2963 93bd 3077 343d 85bd abbd 481a 823e
000000d0: ad36 84bc 8046 ed3b 38d7 7cbd cd84 b9bd
000000e0: a448 46bd e59d ddbe 795a 733e 44d8 40bd
000000f0: 9644 333e 18c7 20bc 9038 40be 45c9 84be
00000100: 236e 9abd 8993 99bd 93ff b1bd 758e 9b3d
00000110: 59dd 2f3e 00bc e1bb d81a 8b3d 36f6 8bbd
00000120: 0c04 28bd 9d9f 47bd 9671 933d 2d8a 90bb
00000130: 86fe 03be 5b01 483d 2bdc 36bd ce9c 5ebc
00000140: d522 383d 0226 e2bc ceea fb3d aa0f dd3d
00000150: f36b 11be eefe 8cbc 7f78 033b 80ee 82bb
00000160: 1c06 7dbb 31d3 393d 0e3c b2bd 32f0 d1ba
00000170: dd54 123d 4fa4 36bd 74ed 2b3d 6312 b7bd
00000180: 6642 0a3f a751 48be c91f 3fbd c74d 9f3d
00000190: c2cc 603e bc0d b7bd 83c9 7e3e 9602 0bbf
000001a0: 3884 e83d 962c a13d 9913 be3b 724f e13d
000001b0: 2dd9 093e a59f 403c 3601 253e d4a0 4d3e
000001c0: 49bc acbc 07a2 a9bd 743c 6cbd 697d 8d3d
000001d0: 2713 b7bd e598 f33c edbd 16bc 6729 6539
000001e0: f9c0 2bbe 237c cc3d 1617 8cbe be1f 90be
000001f0: 5a12 5d3d ccc9 083d 5e5c 94bc 5f7f bebd
00000200: b8e7 ebbd 50da 06be ab09 10be 9590 6e3e
00000210: c4aa a63d decf b3bd ffb6 9abd 2609 b8bc
00000220: d9df 10bc ced9 363c e055 d93b e8d5 91bc
00000230: 792e c7bd ecdb 85bc 047d c13d e2be d43c
00000240: fec6 d53d 2a11 a53c ff37 123d 0cf1 e4bd
00000250: e2ea c4bc 32d1 8f3d 064c b8bc 9b80 84bc
00000260: 7bad 803d 9894 af3d 8bc2 a03d ec9c 21be
00000270: 2635 5a3d 2b73 a7bd b06d d0bd 8838 e63d
00000280: b2fd 77bd 0417 123d 8cd0 63bd 1160 a43d
00000290: 2946 d9bd bc80 343d c242 993d 209e 7abb
000002a0: fe99 b53d d49d d33d 63c6 413d 4bcf b13d
000002b0: e918 0ebe b0e1 e6bd fbd3 b5bb 6cd0 dabe
000002c0: 09a3 853d 9f44 843b 184b b03d ca70 a7bd
000002d0: 6959 95bd 1cad 83bd 7139 bb3b fd80 4cbc
000002e0: 6a21 4fbe 2aba d1bd 2071 113d 76b8 edbd
000002f0: 239e b53b b7cd b03d c764 80bd 4131 e6bc
00000300: 3e45 d0bc dbd3 ccbd eea1 4a3d e454 b33e
00000310: 3c79 3f3c 2963 3dbd b936 28bd 9442 193d
00000320: ea28 9bbd 899d a1be d371 273e 6d14 bb3b
00000330: f4b9 4abd 0d4a c63d 4038 ff3d af6b 013d
00000340: d7f0 f73d d691 253d 42ff e03c e77d 01bc
00000350: 2c00 763e 80b5 823c 849b 6abe 8b7f 27be
00000360: fa35 9a3d 365d 243e 8a8f b0bd 0e5c 833d
00000370: 6b9d 32bd 27a1 fb3c dadd 50bd 9b8c 243c
00000380: 86a2 313d 93df 13bd cc56 e43d 1db7 e2bc
00000390: 572b 3f3d 6577 553d 1f15 0c3d 9c74 b0bd
000003a0: 6f4c 61bd 0f0e 383d 081a 8a3d 1238 813d
000003b0: dc22 47be fde0 5d3d 871a aa3e 0f20 3b3c
000003c0: 844d 383e bd8b ae3c 080d e4bd aee9 57bd
000003d0: 8fa1 74bd f576 843d 7d50 2b3c 3d20 b03d
000003e0: 7931 f73d 9655 0f3d 4cb4 b73d e2b7 b53d
000003f0: a5b1 ba3c d504 bebb 7768 bb3c e101 3dbb

bias f4 [256]
0.009350986 0.009656073 0.077483326 -0.008556991 -0.03911992 -0.099532746 -0.05521837 0.054698657
0.14241412 -0.11831484 0.02918628 -0.015513372 0.081352 -0.081719264 -0.02976871 -0.03246847
-0.013112893 -0.05043172 0.07768967 -0.076882936 0.028736915 -0.063312575 0.08030522 0.2074623
-0.14584029 0.13177653 0.053280134 -0.08481172 -0.11198607 -0.12549761 0.131271 0.12439489
-0.04541284 0.015263831 0.056773182 -0.018743353 -0.119237304 -0.0050777504 -0.0386996 -0.15061562
-0.059378516 0.058364835 0.052961078 -0.107582696 -0.054319505 0.028638091 0.0996396 0.16251008
-0.008218097 0.08021247 -0.04419184 0.03137588 -0.13796796 0.10771763 0.1236153 -0.030155525
-0.046651956 0.045500986 0.19963513 0.010344342 -0.010974595 0.04605464 -0.1323312 0.016817128
0.005390925 0.04135858 0.0061210776 -0.05630828 -0.0801845 -0.22816537 -0.052185763 -0.02278695
-0.08347746 0.08177152 0.04332329 0.046040967 0.02234506 0.03972156 0.058131076 -0.045426283
-0.15726745 0.031704206 -0.0099540325 -0.03619575 -0.10694234 0.09150928 0.08212788 0.040288296
0.1734981 -0.0678191 0.0720095 -0.016054126 0.032131657 0.1044423 0.070875905 0.04158275
-0.15287311 0.23275024 -0.14902689 -0.00064433663 0.048774656 -0.14550377 -0.12778242 -0.019091353
-0.07435733 -0.04960007 -0.079602025 0.12450266 0.13408907 0.043240204 -0.085116655 0.09071744
-0.019013861 0.007142099 -0.061026663 0.022587627 -0.096245944 -0.12023167 -0.036990523 -0.0722135
-0.02405894 0.16206905 0.066685386 -0.023177508 -0.005323406 0.014534719 -0.033045713 -0.0038801504
-0.080290176 0.031519827 0.047315214 0.07888441 -0.10128347 0.002871138 0.09882421 0.09052844
-0.11278087 -0.016284747 -0.053989638 -0.0921802 0.1133885 -0.0047416417 -0.033031628 -0.118426606
0.03499761 0.0177947 -0.057582587 0.18346117 0.043371856 0.14665948 -0.028280266 0.061526917
0.02598566 0.025189372 -0.03466551 0.0090637375 0.09470304 0.004898539 -0.119761415 -0.103649825
0.02422257 -0.01660832 0.015240414 -0.0035863174 0.08106896 -0.16405419 0.07782866 -0.05292807
-0.013340893 -0.04833299 -0.00012822902 0.044040058 -0.025392873 -0.029070355 0.039010786 0.11356964
0.06201152 -0.08072966 -0.10071413 -0.1234102 0.056323163 0.024223804 0.17261308 -0.030325728
0.042928994 -0.08583194 0.16213138 -0.03154722 -0.053658094 -0.069649614 -0.055961497 -0.0013091218
-0.02358364 0.12915929 -0.08591106 0.10291298 0.028159898 -0.049507696 0.020028096 0.041980844
0.05792947 -0.0780757 0.08868893 -0.0428639 0.015722195 -0.04748192 0.032939713 0.058544867
0.16341572 0.021795824 -0.056861646 -0.078398764 -0.032719024 0.11761693 -0.096036814 0.105742425
0.022127684 0.16785695 0.024321882 -0.03954045 0.049887687 -0.0021198066 0.07058656 0.13003914
0.117872894 0.006306648 0.028424744 -0.01302658 0.0018827403 -0.0024290555 -0.01757475 -0.14711745
-0.050810143 0.10542654 -0.04883629 0.09352558 -0.03884466 0.07605082 -0.15272152 -0.011017031
-0.030402064 0.02469328 -0.03037409 -0.15612563 0.08123444 -0.0019751247 0.001717958 0.041576453
-0.09235766 0.05471302 0.0043475926 0.0065407148 -0.12125412 -0.018983193 0.050363988 0.109683394
00000000: e134 193c 8134 1e3c 94af 9e3d 9f32 0cbc
00000010: 363c 20bd d3d7 cbbd a82c 62bd b30b 603d
00000020: 02d5 113e 0d4f f2bd 1118 ef3c cc2b 7ebc
00000030: e19b a63d 6e5c a7bd 82dd f3bc a9fd 04bd
00000040: 76d7 56bc 7e91 4ebd c31b 9f3d cd74 9dbd
00000050: ae69 eb3c 06aa 81bd 1077 a43d ff70 543e
00000060: 2857 15be 6df0 063e 453c 5a3d c4b1 adbd
00000070: f458 e5bd 7282 00be e86b 063e c0c2 fe3d
00000080: d002 3abd 2615 7a3c ff8a 683d a98b 99bc
00000090: b032 f4bd 4263 a6bb 7983 1ebd fb3a 1abe
000000a0: e336 73bd f70f 6f3d b7ed 583d 5154 dcbd
000000b0: 217e 5ebd 6e9a ea3c d90f cc3d 0b69 263e
000000c0: 32a5 06bc 6f46 a43d 8102 35bd ff83 003d
000000d0: 7947 0dbe 109b dc3d 052a fd3d b808 f7bc
000000e0: 1f16 3fbd 3e5f 3a3d 276d 4c3e 517b 293c
000000f0: cace 33bc caa3 3c3d d581 07be 13c4 893c
00000100: 5ba6 b03b 9d67 293d 5293 c83b 83a3 66bd
00000110: c537 a4bd 2fa4 69be bdc0 55bd b3ab babc
00000120: 3bf6 aabd d477 a73d c373 313d 7495 3c3d
00000130: fd0c b73c 13b3 223d da1a 6e3d e910 3abd
00000140: b80a 21be 45dc 013d 3d16 23bc ff41 14bd
00000150: 9604 dbbd 3869 bb3d a932 a83d 5705 253d
00000160: 7ca9 313e bee4 8abd b779 933d f183 83bc
00000170: 7c9c 033d d8e5 d53d 6327 913d ac52 2a3d
00000180: c58a 1cbe 1456 6e3e 819a 18be b3e8 28ba
00000190: efc7 473d f1fe 14be 65d9 02be 7865 9cbc
000001a0: a848 98bd 7129 4bbd 6306 a3bd 40fb fe3d
000001b0: a54e 093e a41c 313d a451 aebd 11ca b93d
000001c0: f5c2 9bbc 4508 ea3b 18f7 79bd b009 b93c
000001d0: 981c c5bd 063c f6bd 6083 17bd ace4 93bd
000001e0: 4117 c5bc 6ef5 253e 5992 883d c2de bdbc
000001f0: f76f aebb 0823 6e3c f15a 07bd 1f4a 7ebb
00000200: 2d6f a4bd ef1a 013d 99cd 413d 268e a13d
00000210: b56d cfbd b429 3c3b 5964 ca3d fa66 b93d
00000220: a8f9 e6bd 9767 85bc 3d24 5dbd f9c8 bcbd
00000230: 3b38 e83d c65f 9bbb 2c4c 07bd a689 f2bd
00000240: a759 0f3d 31c6 913c b8db 6bbd 3fdd 3b3e
00000250: b0a6 313d e72d 163e 04ac e7bc a603 7c3d
00000260: e1df d43c f159 ce3c 6cfd 0dbd 1280 143c
00000270: abf3 c13d ec83 a03b 7945 f5bd 5c46 d4bd
00000280: 696e c63c 2c0e 88bc eeb2 793c 6c08 6bbb
00000290: 7c07 a63d d2fd 27be a264 9f3d 1bcb 58bd
000002a0: c393 5abc d0f8 45bd 3775 06b9 5963 343d
000002b0: b704 d0bc f424 eebc c6c9 1f3d 3397 e83d
000002c0: cbff 7d3d 9855 a5bd 3643 cebd 7dbe fcbd
000002d0: 1eb3 663d 0071 c63c 7cc1 303e a96d f8bc
000002e0: 50d6 2f3d a8c8 afbd c505 263e a837 01bd
000002f0: 97c8 5bbd 75a4 8ebd e237 65bd d796 abba
00000300: 7a32 c1bc 5542 043e 23f2 afbd 0ac4 d23d
00000310: 96af e63c 95c8 4abd f611 a43c 1bf4 2b3d
00000320: 7447 6d3d 27e6 9fbd 8ba2 b53d 0f92 2fbd
00000330: d5cb 803c 677c 42bd cbeb 063d becc 6f3d
00000340: 7356 273e 288d b23c c2e7 68bd 888f a0bd
00000350: 6204 06bd 25e1 f03d f3ae c4bd 7c8f d83d
00000360: 1e45 b53c b1e2 2b3e af3e c73c 2bf5 21bd
00000370: 0857 4c3d 74ec 0abb b08f 903d fb28 053e
00000380: 5867 f13d ffa7 ce3b 02db e83c 706d 55bc
00000390: 48c6 f63a ca30 1fbb ecf8 8fbc f5a5 16be
000003a0: 4c1e 50bd dfe9 d73d 9008 48bd 578a bf3d
000003b0: 941b 1fbd 88c0 9b3d 0863 1cbe c780 34bc
000003c0: c00d f9bc 9049 ca3c 15d3 f8bc 66df 1fbe
000003d0: 3e5e a63d 1871 01bb 1b2d e13a 124c 2a3d
000003e0: 0326 bdbd c21a 603d 4076 8e3b 7e53 d63b
000003f0: 1454 f8bd a482 9bbc 784a 4e3d b0a1 e03d

weight f4 [256, 256]
0.009486972 -0.025885176 0.01093062 0.027328577 -0.026629938 0.010232963 -0.0020602224 -0.0067294636
-0.072739065 -0.045697153 -0.0330194 0.022646742 0.047753733 -0.039702766 0.015825937 0.014194755
-0.011855953 -0.008471374 -0.07190302 -0.042969096 0.0136245005 0.037635103 -0.0006830557 -0.03849072
0.019765222 -0.0044541247 -0.027830455 0.029253948 0.019385079 0.033317 -0.040199813 -0.045709245
0.059653442 -0.033047423 -0.031813096 0.0052759685 0.05198921 -0.007853525 -0.011470559 -0.00159921
-0.06558958 -0.031880204 0.01720623 -0.015232016 0.05955127 -0.022420589 0.0054020747 0.05588062
0.11084183 0.022891875 -0.0058802166 -0.0025969418 0.02304489 0.008654836 0.033406787 0.071616106
0.014495304 -0.017388793 -0.05044973 -0.021939024 0.034150932 -0.07584832 0.018063094 -0.031727985
0.031839896 -0.017765725 -0.0007115438 0.030590288 0.009807016 0.0026615253 0.008742829 0.01256069
-0.010032815 -0.0020834378 0.044426598 0.07879396 -0.022254987 0.03490295 0.007193934 -0.036830854
-0.0018441811 0.032728493 0.03730499 -0.027218817 0.04073163 -0.022084272 -0.015425395 0.004361236
0.030037891 0.0045793434 -0.020675737 -0.044029012 -0.0102624195 -0.0022159256 0.025516674 -0.005399506
-0.043068547 -0.028762154 0.0034341835 -0.0025570076 -0.03265585 -0.018454885 0.029002296 -0.01970298
0.016855968 -0.003035587 -0.045302797 -0.04404459 0.005464141 -0.03897636 -0.075328454 -0.03562567
0.1290037 0.010632226 0.02125918 0.040430047 0.025505535 -0.0091276495 0.05015978 0.007093999
-0.008641619 -0.020690104 -0.018896312 0.030874398 0.0007771194 -0.035126295 0.0054137358 0.02793931
0.0007881188 0.023968987 0.02624468 0.06607554 0.02991236 0.027192421 0.005096052 0.028019119
-0.015542496 0.05090668 -0.0068810144 0.0028237419 -0.067140654 0.025054112 -0.011802273 0.014727717
0.043724507 -0.007912027 -0.061191596 0.014522104 -0.054209325 -0.0348477 -0.0037384278 0.0034792111
-0.039302144 -0.055965364 0.041900232 -0.06526708 -0.006805794 0.0065547978 -0.031535164 0.013422392
-0.007113119 0.03496592 -0.016150009 -0.00063844427 0.024473172 0.036531646 -0.0069910963 -0.05262789
-0.025575066 -0.029806042 0.032885198 0.038459852 0.008443556 0.026887793 0.03919043 0.032848798
-0.011875692 -0.010231846 0.004041684 0.016916357 0.0071781813 -0.025276052 0.027649198 0.024278719
0.04614238 0.0076239137 0.0007681116 -0.028899476 0.021131974 -0.015437628 0.02380169 -0.01838306
-0.010341252 -0.0030393447 -0.026044218 -0.017412908 -0.007229021 0.012322419 0.012053569 -0.021627277
-0.033213485 -0.0018286948 0.0193555 -0.011614577 -0.008424272 0.047450356 -0.021570811 0.0257898
-0.053423468 0.02330833 0.057831295 -0.009559979 0.01304622 -0.016842019 -0.0063021486 -0.02463802
0.02597167 0.035258062 -0.018284317 -0.0908134 -0.018518686 0.029110525 0.038022205 -0.023738105
0.06243568 0.04597439 0.041578136 0.059933033 0.024281528 0.022352071 -0.0037099568 -0.008591738
-0.086801946 0.034327194 -0.035193145 0.033276428 0.021150561 -0.0047500185 -0.050241537 -0.012003853
-0.0060963347 -0.03957968 -0.0043705944 0.04614141 -0.0132379765 -0.026685826 0.01913776 -0.05414448
0.016832856 -0.004883388 0.048349638 -0.0009058635 -0.0036631988 -0.046398755 -0.02408785 0.0018512415
00000000: 3f6f 1b3c 260d d4bc 5816 333c 2ee0 df3c
00000010: 0727 dabc 28a8 273c cc04 07bb d582 dcbb
00000020: 38f8 94bd f02c 3bbd 5a3f 07bd a985 b93c
00000030: 6b99 433d 5e9f 22bd 65a5 813c 1e91 683c
00000040: 793f 42bc 85cb 0abc e441 93bd 5d00 30bd
00000050: 4c39 5f3c 4427 1a3d 180f 33ba 72a8 1dbd
00000060: adea a13c e8f3 91bb b2fc e3bc faa5 ef3c
00000070: 75cd 9e3c 6877 083d 8fa8 24bd 9e39 3bbd
00000080: 2b57 743d bc5c 07bd 734e 02bd 08e2 ac3b
00000090: a3f2 543d 12ac 00bc 03ef 3bbc 959c d1ba
000000a0: d453 86bd d194 02bd 14f4 8c3c b58f 79bc
000000b0: 08ec 733d 62ab b7bc e303 b13b 14e3 643d
000000c0: 0b01 e33d be87 bb3c d5ae c0bb 7431 2abb
000000d0: a3c8 bc3c 03cd 0d3c 8ed5 083d 77ab 923d
000000e0: b67d 6d3c f172 8ebc 60a4 4ebd 78b9 b3bc
000000f0: d9e1 0b3d 5d56 9bbd 0ef9 933c 34f5 01bd
00000100: 8d6a 023d 6d89 91bc e586 3aba 7c98 fa3c
00000110: 9bad 203c fc6c 2e3b 153e 0f3c 5acb 4d3c
00000120: ad60 24bc 498a 08bb aaf8 353d ba5e a13d
00000130: 1750 b6bc 65f6 0e3d 18bb eb3b f3db 16bd
00000140: 73b8 f1ba 500e 063d 1ecd 183d fff9 debc
00000150: 36d6 263d 13ea b4bc ccba 7cbc b3e8 8e3b
00000160: 0612 f63c 510e 963b 2a60 a9bc c457 34bd
00000170: b523 28bc 1039 11bb 5808 d13c 57ee b0bb
00000180: a568 30bd 9c9e ebbc 0a10 613b 7893 27bb
00000190: 24c2 05bd b32e 97bc 3996 ed3c 2568 a1bc
000001a0: 8715 8a3c b3f0 46bb 6d8f 39bd 1a68 34bd
000001b0: 890c b33b ada5 1fbd ce45 9abd 39ec 11bd
000001c0: 8c19 043e ca32 2e3c bb27 ae3c fa99 253d
000001d0: fcf0 d03c 238c 15bc 5774 4d3d c774 e83b
000001e0: 9495 0dbc 4b7e a9bc 70cc 9abc 4eec fc3c
000001f0: 9ab7 4b3a 97e0 0fbd b565 b13b fbe0 e43c
00000200: c299 4e3a 9c5a c43c 15ff d63c 9d52 873d
00000210: c40a f53c a4c2 de3c c8fc a63b 5a88 e53c
00000220: f4a5 7ebc 8683 503d 227a e1bb 870e 393b
00000230: 0a81 89bd 483e cd3c 525e 41bc 864c 713c
00000240: 7818 333d 72a1 01bc 0aa4 7abd 1eee 6d3c
00000250: 990a 5ebd 76bc 0ebd 6900 75bb 7a03 643b
00000260: 49fb 20bd f03b 65bd 949f 2b3d bfaa 85bd
00000270: 2303 dfbb a1c9 d63b 042b 01bd 98e9 5b3c
00000280: 2b15 e9bb 6d38 0f3d 064d 84bc 455d 27ba
00000290: f67b c83c 35a2 153d 9115 e5bb 5890 57bd
000002a0: cd82 d1bc cd2b f4bc a1b2 063d 1488 1d3d
000002b0: d756 0a3c ca43 dc3c 2586 203d 768c 063d
000002c0: 4392 42bc 79a3 27bc 1a70 843b 2c94 8a3c
000002d0: f336 eb3b b90f cfbc 9280 e23c 2ae4 c63c
000002e0: cbff 3c3d 06d2 f93b 195b 493a 98be ecbc
000002f0: f61c ad3c 1bee 7cbc c3fb c23c 1298 96bc
00000300: 5b6e 29bc be2f 47bb af5a d5bc 84a5 8ebc
00000310: 6ce1 ecbb f9e3 493c 557c 453c b02b b1bc
00000320: dd0a 08bd d1b0 efba 6d8f 9e3c 114b 3ebc
00000330: f505 0abc 4e5b 423d 45b5 b0bc 2145 d33c
00000340: 91d2 5abd 1cf1 be3c 82e0 6c3d 75a1 1cbc
00000350: d0bf 553c 46f8 89bc 4182 cebb acd5 c9bc
00000360: 8ac2 d43c c26a 103d fec8 95bc 60fc b9bd
00000370: 80b4 97bc 3279 ee3c 2cbd 1b3d 6a76 c2bc
00000380: 8ebc 7f3d a44f 3c3d d64d 2a3d 577c 753d
00000390: 0eea c63c b11b b73c bf22 73bb 5cc4 0cbc
000003a0: 38c5 b1bd ac9a 0c3d b026 10bd dd4c 083d
000003b0: f143 ad3c 0ba6 9bbb 12ca 4dbd cfab 44bc
000003c0: c3c3 c7bb 4d1e 22bd 3437 8fbb c6fe 3c3d
000003d0: 19e4 58bc 3c9c dabc cbc6 9c3c 9ac6 5dbd
000003e0: 0fe5 893c d404 a0bb 450a 463d 7877 6dba
000003f0: 4712 70bb 9f0c 3ebd e253 c5bc 5ba5 f23a

bias f4 [256]
-0.021256762 0.007198239 -0.036384955 0.030497063 0.047375042 0.033212632 -0.03444487 -0.010921475
-0.004388343 0.020211533 -0.016865162 0.0037860814 0.036457505 -0.01628121 0.066801816 0.021081038
-0.05637047 -0.0014050805 0.0015485487 0.017510489 0.021104772 -0.038237084 0.0063806428 -0.009504847
0.006485224 0.03281684 -0.019152565 -0.012195604 -0.0030010636 0.036452472 -0.0031452961 0.0050352504
-0.022717053 -0.040987283 0.0039335187 -0.0025753172 0.0038132502 0.006481576 0.035195615 0.018147236
0.0069663785 0.010697616 0.009641792 -0.0033513003 -0.0017125084 -0.007210758 0.013961097 0.004335552
0.024877658 -0.014900467 -0.0018331541 -0.024951894 -0.010877866 0.009439923 -0.009323774 0.016078334
0.0036338142 -0.03224808 -0.039162166 0.014431457 0.013515005 -0.013827519 0.01784127 -0.019303665
-0.0026376678 0.017377088 0.0026432688 -0.016300015 -0.022200666 0.048815675 -0.032442402 -0.022134105
-0.02917724 -0.016995639 -0.027270285 0.049608447 -0.045076035 0.06676341 -0.051822152 -0.03562337
-1.9193536e-05 -0.00057601277 0.02864238 0.017988693 0.0220436 -0.0184241 -0.019711135 -0.027243491
-0.015292829 0.03689595 -0.016066395 0.019242942 0.012316772 0.015412592 -5.386102e-05 -4.759508e-05
0.042295594 0.022961654 -0.014466056 -0.01467772 -0.002660763 -0.032696996 -0.019882532 0.017160252
0.06369475 0.005809225 0.0047996747 -0.0006387111 -0.01030987 -0.0076516382 0.028604845 0.038612925
0.022139765 -0.057133865 -0.023956275 0.0014346233 -0.011837084 -0.019844979 1.743441e-05 -0.043958545
0.003604912 -0.0062480243 0.034133483 -0.009826863 0.025375534 -0.0036520506 0.0072878688 0.022255726
0.03047385 -0.008167678 -0.03215121 0.05875829 0.049254693 0.02859247 0.016345369 0.0012669245
-0.049712807 -0.0039849966 -0.014781929 0.008369195 0.00023645964 -0.006341311 0.040850244 0.022498427
0.0025726652 0.0150748715 -0.03271575 -0.017714038 -0.015336871 -0.00056319765 0.022705672 0.010262334
0.023316348 0.028072147 0.045921054 0.024973607 0.020835722 -0.03317965 -0.031931303 0.0065435595
0.020025205 0.011959103 0.0065296204 0.000618441 -0.027435109 -0.011661043 0.010118008 -0.012050814
0.0017111971 -0.011723302 0.021017388 -0.005323947 -0.008530211 -0.0059449985 -0.04702014 0.019471265
0.0043885824 -0.021275075 -0.018852927 -0.001253972 -0.039116886 -0.007483467 0.009418165 -0.028284568
-0.027727837 -0.020947978 0.04158489 -0.004798588 -0.00084766024 0.006489413 -0.030461827 0.0016288648
-0.030369727 0.012907482 -0.0007260678 0.006355185 -0.010086576 0.017978508 -0.0011015618 -0.023151815
-0.03317592 -0.041972727 -0.010935992 0.03047867 -0.009640048 -0.04427972 -0.0018859038 -0.017560493
0.01942175 -0.015613511 -0.0031014604 -0.0049194023 0.020490667 -0.0365465 -0.004321693 0.034185503
-0.02816504 -0.010812441 0.02043877 0.007564247 -0.031815216 0.04350803 -0.013060284 -0.04490912
-0.008731929 -0.022548217 -0.014426124 0.0075367778 -0.011064299 0.043285374 0.04859514 -0.004239236
-0.03674938 0.0085572405 0.06267442 0.012256223 0.03367684 0.003929487 -0.023178738 -0.0056688585
-0.05443372 0.0009825545 0.008988782 0.00041876404 -0.008688878 0.0233364 -0.026232522 -0.021933082
0.02784063 -0.007631196 0.0306861 0.01228805 0.0161344 0.0071185566 -0.0013799687 0.0094499355
00000000: a922 aebc 35df eb3b 6408 15bd fad4 f93c
00000010: 550c 423d f809 083d 1016 0dbd fcef 32bc
00000020: 17cc 8fbb a892 a53c cf28 8abc e81f 783b
00000030: 7754 153d 2c60 85bc 64cf 883d 24b2 ac3c
00000040: b9e4 66bd ae2a b8ba acf8 ca3a 2872 8f3c
00000050: eae3 ac3c 7d9e 1cbd b614 d13b 38ba 1bbc
00000060: 0082 d43b f36a 063d d7e5 9cbc 12d0 47bc
00000070: 7ead 44bb 304f 153d 5021 4ebb befe a43b
00000080: 1d19 babc 48e2 27bd bfe4 803b a7c6 28bb
00000090: b9e7 793b 6663 d43b 4729 103d 83a9 943c
000000a0: 3846 e43b 0e45 2f3c 9bf8 1d3c 7da1 5bbb
000000b0: 3f76 e0ba 3948 ecbb 16bd 643c 3f11 8e3b
000000c0: 3bcc cb3c 1721 74bc 7246 f0ba ea67 ccbc
000000d0: 1439 32bc e8a9 1a3c bec2 18bc b6b6 833c
000000e0: 4925 6e3b 9016 04bd 8268 20bd eb71 6c3c
000000f0: 0a6e 5d3c d18c 62bc db27 923c b822 9ebc
00000100: b9dc 2cbb 655a 8e3c b13a 2d3b 9c87 85bc
00000110: 2cde b5bc f2f2 473d 53e2 04bd 9552 b5bc
00000120: 1b05 efbc 703a 8bbc ef65 dfbc 3a32 4b3d
00000130: a6a1 38bd 41bb 883d 7743 54bd d0e9 11bd
00000140: ce01 a1b7 90ff 16ba 6da3 ea3c 065d 933c
00000150: c894 b43c 23ee 96bc 3f79 a1bc be2d dfbc
00000160: c68e 7abc 3520 173d ac9d 83bc 60a3 9d3c
00000170: 49cc 493c 1985 7c3c d4e8 61b8 d4a0 47b8
00000180: 253e 2d3d 141a bc3c 0903 6dbc d27a 70bc
00000190: 3260 2ebb 49ed 05bd b1e0 a2bc a893 8c3c
000001a0: 6572 823d 505b be3b 9746 9d3b 2d6f 27ba
000001b0: bbea 28bc 98ba fabb b554 ea3c 9628 1e3d
000001c0: 745e b53c 3305 6abd f33f c4bc f809 bc3a
000001d0: 54f0 41bc f091 a2bc 1c40 9237 e00d 34bd
000001e0: 6340 6c3b 3abc ccbb 8dcf 0b3d da00 21bc
000001f0: 5ae0 cf3c 3e57 6fbb 13cf ee3b a451 b63c
00000200: 4ca4 f93c b9d1 05bc fdb0 03bd 88ac 703d
00000210: 4abf 493d c13a ea3c b9e6 853c ef0e a63a
00000220: a89f 4bbd 9394 82bb e72f 72bc f31e 093c
00000230: 27f2 7739 c6ca cfbb 9652 273d 9f4e b83c
00000240: 299a 283b 98fc 763c f300 06bd 081d 91bc
00000250: 8047 7bbc 8ea3 13ba 3f01 ba3c 5923 283c
00000260: ed01 bf3c 8ff7 e53c b717 3c3d 7395 cc3c
00000270: adaf aa3c 62e7 07bd 66ca 02bd 5b6b d63b
00000280: e60b a43c 1df0 433c 6df6 d53b df1e 223a
00000290: 98bf e0bc f60d 3fbc 00c6 253c c770 45bc
000002a0: 3f4a e03a 1813 40bc a82c ac3c 8174 aebb
000002b0: 4cc2 0bbc 43ce c2bb 3198 40bd 3482 9f3c
000002c0: 19ce 8f3b 1149 aebc 7471 9abc 515c a4ba
000002d0: 0739 20bd df37 f5bb a64e 1a3c 0ab5 e7bc
000002e0: 7d25 e3bc 189b abbc eb54 2a3d 793d 9dbb
000002f0: 8435 5eba 24a5 d43b 158b f9bc a27f d53a
00000300: efc9 f8bc e779 533c 9655 3eba 283f d03b
00000310: 2b42 25bc aa47 933c 4862 90ba e0a8 bdbc
00000320: 79e3 07bd 98eb 2bbd e02c 33bc 67ae f93c
00000330: 4bf1 1dbc a75e 35bd 6e30 f7ba 06db 8fbc
00000340: 5d1a 9f3c d0cf 7fbc df41 4bbb f032 a1bb
00000350: 0bdc a73c c8b1 15bd fd9c 8dbb 1906 0c3d
00000360: 5fba e6bc aa26 31bc 356f a73c 81dd f73b
00000370: ac50 02bd 7a35 323d cdfa 55bc a0f2 37bd
00000380: 5d10 0fbc 0ab7 b8bc 8d5b 6cbc 13f7 f63b
00000390: 0947 35bc 014c 313d b30b 473d 4ae9 8abb
000003a0: 8586 16bd ab33 0c3c 725b 803d 53ce 483c
000003b0: baf0 093d edc2 803b 56e1 bdbc d5c1 b9bb
000003c0: e4f5 5ebd 0fc9 803a af45 133c 8f8d db39
000003d0: cc5b 0ebc fa2b bf3c 96e5 d6bc 02ad b3bc
000003e0: 0812 e43c 1d0f fabb 6a61 fb3c d153 493c
000003f0: 4a2c 843c c842 e93b 11e0 b4ba e7d3 1a3c
