outputs/2023-09-24-20-37-59/trained_model/tetris_epoch2849_score8900.pt (torch, 842187 bytes, 8 tensors)

weight f4 [32, 1, 4, 4]
000000 de 0c 7e 3d 3a 23 98 3c 16 d3 3e bc 5f 36 00 3c
       0.06202399 0.018571485 -0.0116470065 0.007825463
000010 b0 76 16 bd a3 a5 71 3d b7 18 85 bc 49 39 46 3d
       -0.036734283 0.058995854 -0.016247137 0.048394475
000020 30 1d 44 be ca 8f 05 3e 97 69 48 3e fc 93 4f 39
       -0.19151759 0.13043132 0.1957153 0.00019796187
000030 cd f4 98 3d 57 6c 12 3e 71 e1 23 3e 5a 03 19 bd
       0.07468567 0.14299141 0.16003968 -0.037356712
000040 b9 c3 c9 3e 56 c7 ce bc 78 f8 09 bf 53 41 81 be
       0.39407137 -0.025241535 -0.5389476 -0.2524515
000050 80 70 bb be b1 b0 58 3d c1 16 48 be 6c a3 95 3c
       -0.36609268 0.05290288 -0.1953993 0.018266402
000060 0b 77 df 3d 9f 32 cc be f1 25 38 3c e4 aa b8 be
       0.109113775 -0.3988237 0.011239515 -0.3606788
000070 f9 01 07 be 4a d6 7b bb 67 bc da 3d 77 04 1e bf
       -0.13184346 -0.0038427287 0.10680466 -0.6172556
000080 26 f5 69 3d 8e 9a 21 3d 70 fa 40 bf d0 6c 3e be
       0.057118557 0.039454035 -0.7538214 -0.18596196
000090 fa ef 80 bd ad a8 8c be c2 14 1a 3e 44 fc 8e be
       -0.06295772 -0.2747244 0.15046981 -0.27926838
0000a0 13 33 af 3d da 39 9d 3e 66 40 87 3d e3 c5 cd bc
       0.085546635 0.307082 0.0660408 -0.025118774
0000b0 ec 49 a5 bd 04 6e 00 be f7 07 fa bd 45 cf a8 bd
       -0.0807074 -0.12541968 -0.122085504 -0.082426585
0000c0 a4 9d 78 be e5 50 c1 be f9 fd 76 bd 2d f2 14 3c
       -0.24278885 -0.3775703 -0.0603008 0.009090942
0000d0 9e e4 1e 3e 5b 00 d3 bd b8 09 84 3e a8 e6 f5 3d
       0.15516898 -0.10302802 0.25788665 0.12006885
0000e0 1a ae 2b be d7 70 e9 3d d9 3b e2 be ab dd 8b 3d
       -0.16765633 0.113984756 -0.44186285 0.06829389
0000f0 ed 70 6b be b8 18 a9 be 66 3e d1 be 70 01 fd 3d
       -0.22992297 -0.3302667 -0.4086792 0.1235379
000100 19 1d db bd 91 ea 43 bf 07 c8 61 bc 8a 08 df bc
       -0.10698909 -0.76529795 -0.0137806 -0.027225751
000110 ca 56 99 3d cf 91 bc 3d bb d3 fc 3d 30 23 56 3d
       0.07487257 0.09207498 0.12345072 0.05227965
000120 c5 dc 8d 3e 30 dc 69 bf c9 91 9a 3e d7 7b 8a bc
       0.27707496 -0.91351604 0.3018935 -0.016904755
000130 eb 8b 2c bd 50 2e ce bd eb 32 30 bc 95 55 3c bc
       -0.042125624 -0.10067427 -0.010754327 -0.011495014
000140 59 92 03 3c b2 7a 97 3d d6 71 1e be c3 e4 65 bd
       0.0080304975 0.07396449 -0.15473112 -0.056126367
000150 44 e1 21 3c b8 ed bf bc 1f d0 9d 3e 40 20 4f 3f
       0.009880368 -0.023428783 0.30822846 0.80908585
000160 9a 3a d3 3c 52 b8 13 3c 19 a8 96 be b3 a0 3e bf
       0.02578478 0.009016113 -0.29425123 -0.7446396
000170 28 a8 d5 bb c4 e7 16 bd 78 fa e5 bd 09 a2 fd bc
       -0.00652029 -0.036842123 -0.11229414 -0.030961053
000180 5b 4d 6a 3d e4 fd 31 3d c8 a4 12 3e 40 40 95 3e
       0.05720268 0.04345502 0.14320672 0.2915058
000190 63 d9 a8 3d 0c 8e 91 ba d9 f7 51 3e f4 83 fa be
       0.08244588 -0.0011104955 0.20504703 -0.48928797
0001a0 85 c1 b1 3d f6 89 98 3d 85 93 14 3b bd fa 22 bf
       0.08679489 0.07448189 0.0022670936 -0.63663846
0001b0 4a a9 37 bd 74 ce 9e bb b0 05 4c 3d 31 48 8c be
       -0.04483918 -0.0048463885 0.04981011 -0.27398828
0001c0 bc 9a 80 3c 21 c6 ca 3c 86 8c 33 3e ad b1 42 be
       0.015698783 0.024752678 0.17534074 -0.1901309
0001d0 ff 83 58 3d 3e 1d ab 3d 48 9c 37 bf f8 8d f7 be
       0.052860256 0.08355187 -0.7172284 -0.483505
0001e0 5f 7b 1c bd e5 1d a2 3d be 2e ae be 2d 7f 1d be
       -0.038203593 0.07915858 -0.34020036 -0.15380545
0001f0 30 93 2d bc aa 92 52 3e bc 63 96 be 35 ff 0f bf
       -0.010594174 0.2056376 -0.29372966 -0.5624879
000200 46 14 bf bd f5 26 24 3d 41 ac ab be 59 58 1d be
       -0.09330039 0.040076215 -0.33529857 -0.15365733
000210 82 12 0a 3e 93 cd 4e 3e 5c 0c 0a 3e 35 4a 85 be
       0.13483623 0.20195608 0.13481277 -0.26033178
000220 60 91 4e bd 7d 68 0e 3e bb fd aa be 28 05 53 bf
       -0.05043161 0.13907047 -0.33396706 -0.8242974
000230 aa 98 02 3e 76 d9 8c bd 01 76 a7 bd c0 49 68 3d
       0.12753549 -0.06877415 -0.08176804 0.05671096
000240 7d 3f 9e bd c0 81 66 3c a2 54 8e 3c 8b f8 48 3d
       -0.07726953 0.014069021 0.01737434 0.049065154
000250 85 46 dc bd 31 e4 41 be ab 65 f4 be d6 35 9c 3b
       -0.10755638 -0.18934704 -0.47733817 0.00476716
000260 34 ac 05 be 63 f3 f0 3e 8b ad 58 3e be 30 65 bd
       -0.13053972 0.4706069 0.21159951 -0.055954687
000270 13 84 6f 3d 8d 53 72 bf e3 67 b7 3d 8b fc e8 3c
       0.058475565 -0.9465874 0.08955362 0.028440734
000280 20 73 10 3d ab 4b 93 bd b2 ec 1f bd a6 a8 b2 bd
       0.03526604 -0.07192167 -0.03904409 -0.087235734
000290 34 32 b2 bc b8 86 83 3d 5e 8d 86 be 80 bb 19 bc
       -0.021752454 0.0642218 -0.2627973 -0.009383082
0002a0 f7 a1 88 bd ae cd e4 3c 78 8e 16 3f 3b b7 93 bd
       -0.06671517 0.027930107 0.5881114 -0.07212683
0002b0 8b ac 05 bc a7 09 16 bd ad ca 35 bf 55 86 1b bc
       -0.008158813 -0.0366303 -0.71012384 -0.0094924765
0002c0 05 c1 5c be 24 79 c3 be a0 90 97 be 5f a5 de bd
       -0.21558006 -0.3817836 -0.29602528 -0.10871386
0002d0 2f 6c a8 bd 47 91 84 be 97 cd 03 bb bb 77 71 3e
       -0.082237594 -0.25892088 -0.0020111555 0.2358083
0002e0 87 f4 53 bd 82 b3 57 3d a5 55 11 3e a2 92 19 bf
       -0.05174687 0.052661426 0.14192827 -0.5998937
0002f0 44 3c 7d 3d fe 17 02 bd 18 db cd 3d 9c 20 d4 be
       0.061825052 -0.031761162 0.100515544 -0.4143113
000300 fc 3c 12 3e c1 c0 b3 bd 14 9d 9e bb fa c8 ee bd
       0.14281076 -0.08776999 -0.0048405025 -0.11659427
000310 37 31 ab 3c bc fa 01 3f 36 d0 2c bd 41 cb b3 bc
       0.02089749 0.50773215 -0.042190753 -0.021947505
000320 59 3b 35 3d 17 17 0b bf 91 ab 67 3e b9 42 16 bd
       0.04424605 -0.5433211 0.22624041 -0.036684725
000330 96 96 d8 bd a8 09 0d bf 22 5d 28 be b9 ca b2 3c
       -0.10575597 -0.5509286 -0.16441777 0.021825181
000340 4d cd 0b bc 8e 95 4d bd 44 f4 15 bb 1e 98 0f 3c
       -0.008532834 -0.050191455 -0.002288119 0.008764295
000350 f0 99 7d 3c 3a aa 1e 3e 8f 91 fe 3d 46 5a d6 ba
       0.015478596 0.15494624 0.12430107 -0.0016353808
000360 6d 1d a1 3d b3 24 65 3f ca c4 a0 bc 0a 51 2c 3d
       0.07866941 0.89509124 -0.019625086 0.042069472
000370 ae c8 2c bc d8 50 b3 bf 4a 6a ac 3d ba 33 7c bc
       -0.010545893 -1.4009047 0.084187105 -0.015393192
000380 82 ca 6c 3c 70 7e f9 3e 02 17 4f 3d 0b 6f 80 3b
       0.0144525785 0.48729277 0.05055905 0.0039194874
000390 f3 49 2c 3b ff 79 3a 3f 53 ed 34 bc 21 2f a3 b8
       0.0026289194 0.728424 -0.011042911 -7.781224e-05
0003a0 ec af e0 3b 42 74 a5 bf 85 32 92 3b fe 59 9b bb
       0.006856909 -1.2926104 0.004461589 -0.0047409525
0003b0 d7 9d b7 bc a1 55 33 bd 7c f2 e7 bc 2a df 02 bd
       -0.022414131 -0.043782834 -0.028313868 -0.031951107
0003c0 c3 e9 85 be af 47 16 bd 09 5e f7 3d 96 e3 f3 bd
       -0.2615491 -0.036689457 0.12078483 -0.11908643
0003d0 9f 99 a3 bd 2d 82 6d be 07 df 82 bd 6c 5e f0 bc
       -0.07988285 -0.2319419 -0.06390195 -0.029341899
0003e0 7c 68 20 3e f0 5e 2e 3e a8 fb f4 3d 85 a2 16 3e
       0.15664858 0.17028403 0.11962062 0.14710434
0003f0 de 4e c2 bb 3c 3f c8 3d 12 0f 51 bc 92 5a 10 3e
       -0.005929812 0.09777686 -0.012759941 0.1409705

weight f4 [32, 32, 5, 5]
000000 22 2c 3e 3e 6c 00 1c be d7 ac ad 3d ee c6 f5 3d
       0.18571523 -0.15234536 0.08480232 0.120008335
000010 0f 9d 2a 3e e3 6a 3d 3e 39 e6 78 be 1e 5c eb 3c
       0.16661476 0.18497805 -0.24306573 0.028730448
000020 99 28 0e bd d1 e0 83 be 1e 70 2f 3d 94 f3 c8 bd
       -0.034706686 -0.2575746 0.042831533 -0.09812084
000030 44 8c c2 3c b6 8d 82 be 75 e1 b4 3c 56 69 87 bd
       0.023748524 -0.25498742 0.022080163 -0.06611888
000040 41 53 03 bf da c4 9c be b4 88 0e bd 61 b8 2c be
       -0.5129891 -0.30618936 -0.03479834 -0.1686721
000050 a6 12 94 3d 80 c7 a2 3d db 38 29 be 38 8e 75 3d
       0.072301194 0.07948208 -0.16525595 0.059950083
000060 7e 8a c9 3d bd 35 82 3e 42 f4 7f be ed 2c 07 3e
       0.098408684 0.25431624 -0.2499552 0.13200732
000070 82 b9 8f 3e 98 f5 dc 3e 8c 7a 39 3e f3 54 d8 3e
       0.2807122 0.43156123 0.18113154 0.4225231
000080 74 1b 4b be 73 c5 3b bd 50 10 9b 3d 21 12 11 3e
       -0.19834691 -0.0458426 0.07571471 0.14167072
000090 c1 78 e2 be 4f d2 c0 be 22 be 0b 3e 0c f6 a9 be
       -0.44232753 -0.37660453 0.13646749 -0.3319553
0000a0 11 16 02 bc 56 93 20 3e da a5 39 bd b8 41 52 bd
       -0.007939831 0.15681204 -0.045324184 -0.051332206
0000b0 08 3c a2 be 3c ee 42 be dc 70 08 3f 66 00 77 bd
       -0.31686425 -0.19036192 0.5329721 -0.060303114
0000c0 05 75 12 3e 37 06 47 3e cb c5 37 3d 74 d0 81 be
       0.14302452 0.19435965 0.044866364 -0.2535435
0000d0 e4 77 19 3e 95 f5 31 3d 33 21 8e 3e 21 34 af 3e
       0.14987141 0.043447096 0.27759704 0.3421946
0000e0 c4 cd ef 3d 1f b7 b1 be 50 ca 04 bf 70 36 6f be
       0.117091686 -0.34710023 -0.51871204 -0.2336061
0000f0 15 02 b8 bc 68 63 5d 3e f4 ed 10 bd 16 34 6f be
       -0.02246193 0.21619952 -0.03538318 -0.23359713
000100 65 dc 1a 3d 8e 55 53 3e 0e b0 e4 be ba 8a 3c 3d
       0.03780784 0.20638105 -0.4466557 0.046030737
000110 46 a8 ce 3d ae 79 1f be 5d 95 96 bc 73 6a 84 be
       0.10090689 -0.15573761 -0.018381769 -0.25862464
000120 a1 d1 8b 3c 82 fe bc be e4 05 ac 3e 15 b4 b3 be
       0.017067732 -0.36912924 0.33598244 -0.3509833
000130 cd 30 88 be 2e 27 99 3e a3 3b 37 bf 32 df 0f 3e
       -0.26599732 0.29912704 -0.71575373 0.14049986
000140 17 fb fe be 8c f8 38 3e f9 a2 bf 3d ef 43 e5 be
       -0.4980094 0.18063563 0.093572564 -0.44778392
000150 87 b8 68 be 24 f8 15 bf 9d 06 61 be 44 f4 62 be
       -0.22726642 -0.5858176 -0.21975179 -0.22163492
000160 96 aa 40 bc 53 0a 28 bf 75 cd a5 bf 0e db dc 3d
       -0.011759421 -0.65640754 -1.2953326 0.10783969
000170 a1 24 03 bf 3e 4a f4 3d de d0 48 3e e1 56 e6 bd
       -0.51227766 0.11928223 0.19610927 -0.112470396
000180 7c 99 3b 3e cc b2 06 be f1 b8 b0 3e 0a d4 9b be
       0.18320268 -0.13154143 0.345161 -0.3043521
000190 5e f5 3d bd 46 3f 9d 3e 8e a2 89 3d 15 51 4b 3f
       -0.04637658 0.30712336 0.06720458 0.79420596
0001a0 73 17 39 bf 65 e1 ff be d2 17 cd 3e 37 98 c4 3c
       -0.72301406 -0.4997665 0.40057236 0.023998363
0001b0 58 28 be 3d a1 5a 9a 3c 68 96 f5 be a3 49 6d 3c
       0.09285039 0.018842043 -0.47966313 0.014482888
0001c0 4e b2 5b 3e 17 57 68 be 27 a2 14 3f 95 eb 96 be
       0.21454737 -0.22689472 0.58059925 -0.2947661
0001d0 65 0e 0a be 87 f5 e4 be f6 ed 8a be 70 d9 ca be
       -0.13482054 -0.44718572 -0.27134675 -0.39619017
0001e0 1d da ee 3d fb f7 23 3e 35 13 25 3e eb 98 e5 bd
       0.116626956 0.16012566 0.16120608 -0.112108074
0001f0 74 b1 d2 bd 50 bc da bd 3d 9c 0b 3e 36 8c fc bd
       -0.10287753 -0.10680449 0.13633819 -0.123314306
000200 37 d7 ba 3c 72 08 38 bd bf b7 71 bd d4 89 1f be
       0.0228077 -0.04492993 -0.059013125 -0.15579921
000210 69 60 3a 3e 8b 6b af bb a2 14 53 be 4c 57 be bc
       0.1820084 -0.0053533963 -0.2061334 -0.023234986
000220 49 31 31 bd 86 34 f0 bc dc 4d 78 bd e5 ed 43 be
       -0.043259893 -0.02932192 -0.060621127 -0.19133718
000230 36 d3 fd be e5 65 8f bf 21 3c 0d bf ab 68 11 be
       -0.49575204 -1.1202971 -0.55169874 -0.14200084
000240 4a cc 09 bf 97 d6 e7 bc 0d 94 f8 bd 61 a4 e8 bc
       -0.53827345 -0.028300567 -0.121376134 -0.028398694
000250 ab 9f 5d be e0 c2 ec be a6 5a bf 3e be bf e0 3d
       -0.2164294 -0.46242428 0.37373847 0.10974072
000260 2e 95 14 3c 52 8b ea be 83 8e dc be 7a cd 5c 3e
       0.00906877 -0.45809418 -0.43077478 0.21562758
000270 db 00 0f 3e f5 a2 cb be 05 f9 05 3d d1 84 86 bf
       0.1396517 -0.39772764 0.032708187 -1.0509282
000280 f6 ed 0f 3d 90 21 7f 3e 23 a3 9a be 0d 9d 6f 3e
       0.035139047 0.24915147 -0.30202588 0.23399754
000290 e6 90 e8 3d 1e 5a bf be f4 84 43 be 9a f6 aa be
       0.11355762 -0.3737344 -0.19093686 -0.33391267
0002a0 22 49 77 3d 9d a3 94 be 24 0a 88 3a 0f 7b 5e bb
       0.06037248 -0.29031077 0.0010378999 -0.003394786
0002b0 c4 35 b2 3d 84 66 86 3e e6 fe 4c 3e 50 25 07 be
       0.08701661 0.26250088 0.20019111 -0.13197827
0002c0 39 02 0f bf 51 c2 0c 3f e2 ac 56 be 0e 5c 71 be
       -0.55862767 0.54984003 -0.20964387 -0.23570272
0002d0 e9 30 10 3e 44 62 c5 bc 03 27 01 3e d6 72 80 3e
       0.14081158 -0.024094708 0.12612538 0.25087613
0002e0 de 16 89 bf 31 23 78 3e 79 4a b5 be 2c be 93 be
       -1.0710104 0.24232174 -0.3540838 -0.28856027
0002f0 32 b4 35 3e 3d c1 51 bd 60 01 7a 3e bc c5 b0 be
       0.1774452 -0.051209677 0.24414587 -0.3452586
000300 3b 3d 15 be 40 53 09 3e 29 55 e1 3e 88 fb 9a be
       -0.14574139 0.13410664 0.44010285 -0.30270028
000310 e4 cf 63 be 7a 24 69 bd 9d c0 8e 3e 03 bf e3 3d
       -0.22247273 -0.056919552 0.27881327 0.11120417
000320 21 88 81 3e 61 24 09 be 20 90 87 3e 91 8e 91 3e
       0.2529917 -0.13392784 0.26477146 0.28429082
000330 77 e1 86 3e 7e 06 37 bf 43 8d c2 bc a5 6f 12 be
       0.2634389 -0.7149428 -0.023749 -0.14300402
000340 bc 28 08 3c 29 a5 c5 bd 21 0a 0b bf 23 06 4a 3e
       0.008310493 -0.096506424 -0.5431233 0.19728903
000350 d4 e4 39 be a0 cd 6a 3d a5 b9 21 bf 8b 93 ef be
       -0.18153697 0.057325006 -0.63173896 -0.46792254
000360 37 ba a6 be ca 2e 5c be c4 86 8b 3d a8 94 23 3d
       -0.32563946 -0.21502224 0.06812814 0.03993669
000370 80 b8 85 be 0f 3e c0 3d 38 5e 25 3c 09 11 9f be
       -0.26117325 0.09386837 0.010093264 -0.31067684
000380 90 91 a7 3e c8 4f 2a 3e a1 5b 80 3d 35 7c 88 be
       0.32728243 0.16631997 0.06267477 -0.26657262
000390 73 6b ca bc e2 74 53 bd 1b e9 dc be 67 b4 8d 3d
       -0.024709439 -0.05162514 -0.43146595 0.06919175
0003a0 63 fe 69 be 0d 52 0c bf 2e e6 7b be 8f d8 59 bf
       -0.22850947 -0.548127 -0.24599525 -0.8509607
0003b0 69 e1 7f bd cb 4f 07 bd 6e 52 b8 3c 4e 37 ae be
       -0.062470827 -0.03303508 0.022500243 -0.3402657
0003c0 c9 2d df bd 6a 05 ae 3e c3 26 b7 be 94 f4 29 3d
       -0.10897405 0.33988506 -0.3577176 0.041493014
0003d0 1f 1c 2a bf b3 b8 70 be 1b f3 34 3e cf e3 e6 3d
       -0.6644916 -0.23507957 0.17670862 0.1127392
0003e0 09 cb b0 bd ae 69 01 3e 40 1e c1 3e fd a9 42 bf
       -0.08632476 0.1263797 0.3771839 -0.7604063
0003f0 3e 1e dd bc 61 ad 34 3e cd 26 32 bd aa 29 24 bf
       -0.02699196 0.17644264 -0.043494035 -0.64126074

weight f4 [64, 32, 5, 5]
000000 7f f7 3b 3e 50 8e 6b 3d 6a 73 dd bd 36 05 46 3e
       0.18356131 0.057508767 -0.10813029 0.19337925
000010 76 7f c8 be b8 b2 61 3e 91 a4 09 3e 0f 39 04 3e
       -0.39159745 0.22040832 0.13441683 0.12912391
000020 39 89 cf bd af 18 62 3d 01 4e 4b bc 15 fe 5c be
       -0.10133595 0.05519932 -0.012408734 -0.215813
000030 26 9b 30 be a8 61 84 bb 2d 7c 20 3f 8f 01 08 be
       -0.17246684 -0.004039962 0.6268948 -0.13281845
000040 f8 86 b9 3d fd 3e 12 3e 35 a9 ac bd 32 66 b0 3e
       0.09058946 0.1428184 -0.08430711 0.3445297
000050 7b 5f 7e bd 3f b5 50 be c5 57 21 bd 3d 35 dc 3e
       -0.062102776 -0.2038164 -0.039390344 0.43009368
000060 e5 19 88 3d fa 76 06 3f 04 b4 c3 be 48 3f cf bd
       0.06645564 0.52525294 -0.3822328 -0.10119492
000070 ad 53 a7 be ac bb db 3d b3 a1 a9 bd 96 21 9a 3e
       -0.32681027 0.10729155 -0.08282795 0.3010375
000080 ab 7f 5d 3e b4 54 f5 be ad 67 6c be a5 80 6f be
       0.21630733 -0.47916186 -0.23086424 -0.23388918
000090 61 3b 33 3e bc e2 05 3f 30 52 1d bd 58 55 4f be
       0.1750312 0.52299094 -0.03840846 -0.202474
0000a0 c3 a6 d8 3e b4 3a a3 3e 33 2f b9 be 32 5f d8 3e
       0.4231473 0.31880724 -0.36168823 0.42260128
0000b0 35 4e d1 bd 01 d0 bc bd 82 36 03 3f 9d eb dc 3e
       -0.10219995 -0.09219361 0.5125505 0.4314851
0000c0 1e 72 3f 3e 13 be 9f bc 5b 20 bc be 4b 32 d8 3c
       0.18695876 -0.019499814 -0.36743435 0.026391169
0000d0 21 a0 c1 3e 56 9e ae 3c 47 dd 1c bd e5 02 0c 3f
       0.3781748 0.021315735 -0.038296964 0.54691917
0000e0 1e 7f a8 bd 89 be 16 bf ce 2b f9 be 94 78 42 bf
       -0.08227371 -0.58884484 -0.48666233 -0.7596524
0000f0 87 b7 99 3e e3 1b a6 3d f3 07 cf be 60 83 a8 3e
       0.30022833 0.08110788 -0.40435752 0.3291273
000100 81 0b a5 be 84 34 d8 3d 52 ef 20 3d 82 70 b6 3e
       -0.3223534 0.105568916 0.039290734 0.35632712
000110 72 a0 64 be e5 6f 0a be 42 b5 26 3f bc 00 45 3e
       -0.2232683 -0.13519247 0.6512033 0.19238561
000120 2a dd 90 bd 25 92 f0 3d db 39 62 be ab d9 66 be
       -0.07073434 0.11746625 -0.22092383 -0.22543971
000130 ac 6f d4 be 4f b8 f7 3c e5 d7 80 3e 23 2b b1 be
       -0.4149145 0.030239252 0.25164714 -0.34603223
000140 bc b7 0f 3f 90 a6 ab 3e e4 14 1f 3e 72 9b 86 3e
       0.5613973 0.33525515 0.15535313 0.2629047
000150 a6 99 e3 3e c0 c8 bf bd e3 1c b9 be 05 80 ae be
       0.44453162 -0.09364462 -0.3615485 -0.34082046
000160 4a d6 af be 00 99 91 bf 0a 26 46 bf 07 c9 48 3d
       -0.34343177 -1.1374817 -0.77401793 0.04901984
000170 c8 af be bf 7c 3c c7 be a0 0f 48 3e ac ab 67 3e
       -1.4897394 -0.38913333 0.1953721 0.22624081
000180 d1 f0 83 3d a0 dd 39 be 88 aa fe 3e 93 4b 7d 3d
       0.064424165 -0.1815095 0.4973948 0.06183965
000190 fe a8 c3 be 1a 1b bd 3e 92 f5 af 3c 41 57 e5 3d
       -0.38214868 0.3693474 0.021479402 0.11198283
0001a0 e3 81 8e 3e ca 08 0d 3d 34 88 49 be c8 a8 6f 3e
       0.2783347 0.03443221 -0.19680864 0.23404229
0001b0 88 c6 22 3e 24 80 2d 3f 02 e4 80 3e a2 2c 11 3d
       0.15896046 0.6777365 0.25173956 0.035442956
0001c0 f1 9b 4b be 52 d2 a9 bd d6 a1 8f be 41 2e 5c be
       -0.19883706 -0.082920685 -0.2805316 -0.2150202
0001d0 7a 8b ba 3d 6c 6d 87 be 68 7f 2f bf 66 cd 27 bf
       0.09108634 -0.2645067 -0.6855378 -0.6554779
0001e0 97 5b b3 be a3 e3 c3 bd 2e 9a 5b 3d db a5 9d 3e
       -0.35030815 -0.09564903 0.053613834 0.307906
0001f0 51 27 5d be ef 3c 5d bd 4e dc 0d bf b4 28 22 be
       -0.2159703 -0.05401319 -0.55414283 -0.1583584
000200 65 58 aa 3e 2a ee 78 bf b8 66 e5 3e 91 6e 80 be
       0.33270565 -0.9723841 0.4480493 -0.25084355
000210 e5 9d 4d 3e 44 78 ca ba c3 47 1c be cf ee 94 3d
       0.20079763 -0.0015447219 -0.1526175 0.072721116
000220 8d a7 19 3e 7c ac b3 3e 9b e5 8f bd a3 8d 84 be
       0.15005322 0.35092533 -0.07026216 -0.2588931
000230 ee c6 1e bf 67 34 42 be 59 bd e5 3d 8b 8e e2 bd
       -0.6202229 -0.18965302 0.11217756 -0.11062344
000240 c2 97 8e bc 27 62 cc be 95 4e ca bd df 75 9f 3d
       -0.017406348 -0.39918634 -0.098782696 0.07786154
000250 bf 5f bb bc f5 1a 1b 3e ed ad b2 3c 8e 20 dd be
       -0.022872804 0.15147002 0.02181145 -0.431889
000260 94 88 74 39 4a 85 51 be f6 31 07 bf df 3c 00 3e
       0.00023320533 -0.20461002 -0.5281061 0.1252322
000270 0b 00 ff 3c 6f 62 54 3e 7c b6 64 bd da d5 03 3d
       0.03112795 0.20740674 -0.055838093 0.032186367
000280 82 61 25 bc e7 7c 5a 3e 9f 5a 8d 3e 9c a7 89 be
       -0.010094048 0.21336709 0.276082 -0.26885688
000290 27 c1 4e be 1b 6b 61 3d a7 21 a1 bd 2f 7d 4f bd
       -0.2019087 0.055033784 -0.07867747 -0.050656494
0002a0 1a df 0e be d1 3c da be 9f f1 b6 3e 1e 4c 28 3e
       -0.13952294 -0.42624524 0.35731217 0.16435286
0002b0 b5 e8 04 3e de 50 c7 bd 23 30 c1 be 15 ca dc bd
       0.12979396 -0.09732221 -0.37732038 -0.107807316
0002c0 3c 9b 0f bf 77 12 9d 3c ec c0 04 bd ea 8d 67 3e
       -0.56096244 0.019173844 -0.032410547 0.2261273
0002d0 1f bc e0 3e 2e 8d 15 3d 1d 38 da bd df 86 70 bd
       0.43893525 0.036511593 -0.10655234 -0.058722373
0002e0 fa f0 0b 3e 07 c4 c6 3e ad ff ae be a7 77 17 be
       0.13666144 0.38821432 -0.3417944 -0.14791737
0002f0 d9 45 ba 3e 6f d1 df 3e e2 17 48 be 0d 87 f1 bd
       0.36381415 0.43714473 -0.1954036 -0.11793337
000300 21 3e a8 bd a3 23 4a be bc 95 1c be ff 9b a9 3e
       -0.08214975 -0.19740157 -0.15291494 0.33126828
000310 bf c8 2d be 62 91 27 3e 5b c7 3b bf 9c ba 38 be
       -0.1697111 0.16364053 -0.7335107 -0.18039936
000320 12 b1 1b 3e f1 f3 82 3e 34 80 98 bc b6 68 d1 be
       0.15204266 0.25576738 -0.01861582 -0.409002
000330 39 51 70 bc 80 a5 ca 3e 94 57 72 bf 3f ac 35 3e
       -0.0146678025 0.3957939 -0.94664884 0.17741488
000340 0a d3 a8 be 58 30 3d 3e e6 78 dd 3e 93 61 3b 3e
       -0.3297351 0.18475473 0.432563 0.1829894
000350 e9 ba 4f 3d f6 0a 1d be ce b2 e5 be 07 8b dc 3e
       0.05071536 -0.15336213 -0.4486298 0.4307482
000360 12 28 8f 3c bc 6c fb 3d ab 01 9c bd 1c 69 08 3f
       0.017475162 0.12276599 -0.07617506 0.53285384
000370 07 f3 9f 3e 91 ab 3d bd f2 94 36 be 40 6a 27 3d
       0.31240103 -0.046306197 -0.17830256 0.040872812
000380 1c 74 c0 bd 39 f0 f2 3e 1b 07 91 3d 71 e5 f3 bd
       -0.09397146 0.474489 0.070814334 -0.11908997
000390 60 1a 96 be 29 c5 b2 3e 4d f5 c5 3d d8 4e e6 3e
       -0.29316998 0.34916046 0.09665928 0.44982028
0003a0 f9 e3 3b 3e ae ec 2f bd 0d 01 26 3f 5e 8d 9b 3d
       0.18348683 -0.042950325 0.64845353 0.07595323
0003b0 26 a5 78 3e 68 cb 5b 3d 4f 4d 0c 3e de 68 26 3e
       0.24281749 0.05366078 0.13701366 0.16250941
0003c0 64 ee e5 3e f9 a4 39 3e aa 16 32 be dc b3 bc 3e
       0.4490844 0.18129338 -0.17391458 0.36855972
0003d0 41 5e 6a 3b 14 84 17 3e f3 3a 72 be 0f 61 33 3e
       0.0035761746 0.14796478 -0.236553 0.17517494
0003e0 68 25 09 3f 09 b2 cc be 87 5b a2 3e cf 16 1b 3e
       0.535727 -0.3997958 0.31710455 0.1514542
0003f0 a6 fe c7 3e 9d c4 76 bc d3 8e da 3e 93 4d df 3e
       0.3906147 -0.015061525 0.4268709 0.43613872

weight f4 [256, 256]
000000 f2 b7 16 3d af 4c ee 3c f5 61 b3 bb 97 df 07 3d
       0.036796518 0.0290893 -0.005474324 0.033172216
000010 a3 0c b6 3d b2 12 aa bc 96 b9 90 bd 68 87 d0 bd
       0.08889129 -0.020760868 -0.07066648 -0.10182077
000020 4c bf 57 3c e3 51 fb bd f1 34 85 bd af ee 3e 3d
       0.013168167 -0.12271478 -0.065042384 0.046614345
000030 63 ef fa 3d 51 1a b7 3d ae 1f 5e bd a5 44 17 3d
       0.12252691 0.08940566 -0.05422943 0.0369307
000040 af a0 33 be de 1e 26 3e 9d a2 34 3d 1a 72 3e 3c
       -0.17541765 0.16222712 0.044100393 0.011623884
000050 7f 56 f8 bd c5 10 40 3d 00 77 f5 bc ff 40 c1 bd
       -0.12125873 0.046890993 -0.02996397 -0.09436225
000060 6b ab 96 3d c1 32 15 be 33 4a 23 be c2 21 07 bd
       0.07356914 -0.14570142 -0.15946274 -0.03299118
000070 ca 37 e5 3c 7f 98 a9 3c 13 36 02 bd a5 39 cd 3c
       0.027980704 0.020702599 -0.03178985 0.025051901
000080 53 59 1f 3f d7 6b 69 be f0 21 8a 3c 94 a9 f8 3d
       0.6224567 -0.22795044 0.016861886 0.121417195
000090 ec b5 aa 3b 6c b0 59 3c af b4 f5 bc 51 58 05 bc
       0.005209675 0.013286691 -0.029993383 -0.008138732
0000a0 27 5e be bb 88 bc a8 be fc 20 64 3c ab 3b 91 bd
       -0.0058095637 -0.32956338 0.01392388 -0.07091459
0000b0 35 98 b4 3b 79 80 16 bd c6 57 3f be 20 b2 17 3d
       0.0055113086 -0.036743615 -0.18685827 0.037035108
0000c0 d7 63 92 bd 57 5a 34 3d 79 be aa bd 64 14 82 3e
       -0.07147949 0.044031467 -0.08337111 0.25406182
0000d0 ad 36 84 bc 80 46 ed 3b 38 d7 7c bd cd 84 b9 bd
       -0.016139353 0.0072410703 -0.061728686 -0.09058533
0000e0 a4 48 46 bd e5 9d dd be 79 5a 73 3e 44 d8 40 bd
       -0.04840912 -0.43284526 0.23764981 -0.047081247
0000f0 c1 d4 0f 3e 4d 38 34 3b ec 5b 29 be 36 9e 84 be
       0.14046003 0.0027499378 -0.16538972 -0.25901955
000100 23 6e 9a bd 89 93 99 bd 93 ff b1 bd 75 8e 9b 3d
       -0.07540538 -0.07498843 -0.08691325 0.07595531
000110 e9 29 2a 3e 24 e3 33 bc 42 87 f3 3c 36 f6 8b bd
       0.1661755 -0.0109794475 0.029727582 -0.068340704
000120 1a f9 0a bd d6 e7 42 bd 96 71 93 3d 2d 8a 90 bb
       -0.033928968 -0.047584377 0.07199399 -0.004411003
000130 3d 34 08 be 5b 01 48 3d 2b dc 36 bd c7 42 41 bc
       -0.13301177 0.048829418 -0.044643562 -0.011795706
000140 d5 22 38 3d 02 26 e2 bc ce ea fb 3d aa 0f dd 3d
       0.044955093 -0.027606014 0.12300645 0.10794003
000150 90 a9 26 be 1d 35 e6 bc 20 49 88 3a 64 03 3c 3b
       -0.1627562 -0.028101498 0.001039777 0.0028688544
000160 1c 06 7d bb 31 d3 39 3d 0e 3c b2 bd 32 f0 d1 ba
       -0.0038608378 0.045367423 -0.08702861 -0.0016017018
000170 dd 54 12 3d 4f a4 36 bd 74 ed 2b 3d 63 12 b7 bd
       0.035725463 -0.04459029 0.0419745 -0.08939054
000180 29 d1 06 3f f1 7c 43 be 99 88 1b bd c7 4d 9f 3d
       0.52662903 -0.1909063 -0.037972067 0.07778507
000190 02 d5 5f 3e 2b ee a6 bd d2 fa 7d 3e 48 06 0b bf
       0.218586 -0.08150896 0.24802712 -0.5430646
0001a0 38 84 e8 3d 96 2c a1 3d 99 13 be 3b 72 4f e1 3d
       0.11353344 0.07869832 0.005800676 0.11001481
0001b0 2d d9 09 3e a5 9f 40 3c 36 01 25 3e d4 a0 4d 3e
       0.13461752 0.011756812 0.16113743 0.20080882
0001c0 45 f3 e5 bc 1c e1 a1 bd d6 a9 94 bd f7 37 a1 3d
       -0.028070102 -0.07904264 -0.07258956 0.078720026
0001d0 27 13 b7 bd e5 98 f3 3c ed bd 16 bc 67 29 65 39
       -0.089392 0.029735992 -0.009200555 0.00021854565
0001e0 dd 93 2c be dd a2 93 3d 31 e3 8c be be 1f 90 be
       -0.1685328 0.07208798 -0.27517083 -0.28149217
0001f0 5a 12 5d 3d cc c9 08 3d 5e 5c 94 bc 5f 7f be bd
       0.05397258 0.033395573 -0.01811045 -0.09301638
000200 6b e6 eb bd 50 da 06 be ab 09 10 be 95 90 6e 3e
       -0.11518558 -0.13169217 -0.14066188 0.23297341
000210 c4 aa a6 3d de cf b3 bd ff b6 9a bd 26 09 b8 bc
       0.0813804 -0.08779882 -0.07554435 -0.0224653
000220 5f 8a ea bb cc 5f 8e 3c 47 55 ed 3b e8 d5 91 bc
       -0.0071576084 0.017379664 0.007242832 -0.017802194
000230 79 2e c7 bd ec db 85 bc 04 7d c1 3d e2 be d4 3c
       -0.09725661 -0.016340218 0.09447673 0.025969926
000240 74 75 bf 3d 13 26 6a 3c d0 08 2b 3d 27 47 b4 bd
       0.09348574 0.014291304 0.04175645 -0.08802634
000250 88 ba b0 bc 1e 30 96 3d 41 82 aa bc 2a d1 66 bc
       -0.02157332 0.073333964 -0.020814063 -0.014087955
000260 7b ad 80 3d 98 94 af 3d 8b c2 a0 3d ec 9c 21 be
       0.06283089 0.08573264 0.07849606 -0.15782517
000270 26 35 5a 3d 2b 73 a7 bd b0 6d d0 bd 88 38 e6 3d
       0.053273343 -0.081762634 -0.10177171 0.11241251
000280 b2 fd 77 bd 04 17 12 3d 8c d0 63 bd 11 60 a4 3d
       -0.060544677 0.03566648 -0.055618808 0.08026136
000290 29 46 d9 bd bc 80 34 3d c2 42 99 3d 20 9e 7a bb
       -0.10609085 0.044068083 0.07483436 -0.0038241223
0002a0 fe 99 b5 3d d4 9d d3 3d 63 c6 41 3d 4b cf b1 3d
       0.08867262 0.10332838 0.047308337 0.08682116
0002b0 99 11 13 be 9d e3 c2 bd fb d3 b5 bb 6c d0 da be
       -0.14362182 -0.0951607 -0.0055489517 -0.42737138
0002c0 09 a3 85 3d 9f 44 84 3b 18 4b b0 3d ca 70 a7 bd
       0.06525237 0.0040365006 0.08608073 -0.0817581
0002d0 21 5b 95 bd 24 66 7a bd 6a 68 52 3c 3a b7 0e bb
       -0.07292772 -0.061132565 0.012842277 -0.0021776692
0002e0 6a 21 4f be 2a ba d1 bd 20 71 11 3d 76 b8 ed bd
       -0.2022759 -0.10240586 0.035508275 -0.11607449
0002f0 23 9e b5 3b b7 cd b0 3d c7 64 80 bd 41 31 e6 bc
       0.005542533 0.08632987 -0.06269222 -0.028099658
000300 f8 51 d6 bc 9d 58 c8 bd ee a1 4a 3d e4 54 b3 3e
       -0.026162133 -0.09782527 0.049470834 0.35025704
000310 36 6e 39 3c cb 25 35 bd ee 1e 25 bd 24 90 f8 3c
       0.01131778 -0.044225495 -0.0403127 0.03034217
000320 4f 2f 87 bd 98 c0 95 be fb ee 27 3e d4 5c 86 3b
       -0.0660082 -0.292485 0.16399758 0.0041004214
000330 51 74 26 bd d2 0d c2 3d 03 4e 03 3e af 6b 01 3d
       -0.04063827 0.09475292 0.12822728 0.031596836
000340 e7 51 03 3e 2e 92 24 3d 68 63 c9 3c 17 71 19 bc
       0.12824212 0.04017847 0.024583533 -0.009365342
000350 70 8d 73 3e de 69 80 3b 91 51 7a be 87 1b 2b be
       0.23784423 0.0039188704 -0.24445178 -0.1670972
000360 c6 79 9c 3d 18 24 24 3e 3e 85 b0 bd df 03 81 3d
       0.07640414 0.16029394 -0.08619164 0.062995665
000370 34 d3 43 bd cb f1 00 3d b3 f0 59 bd f6 6e f6 3b
       -0.04780884 0.03148059 -0.053208064 0.007520552
000380 8a 5b 60 3d 70 95 37 bd cf 23 f2 3d bc 00 26 bd
       0.0547748 -0.04482025 0.11823236 -0.040528044
000390 57 2b 3f 3d 65 77 55 3d 1f 15 0c 3d 9c 74 b0 bd
       0.04667219 0.052115817 0.03419983 -0.086159915
0003a0 6f 4c 61 bd 0f 0e 38 3d 08 1a 8a 3d 12 38 81 3d
       -0.055004533 0.044935282 0.06743246 0.06309523
0003b0 57 ab 4c be 29 3f 68 3d e1 76 a8 3e 0c de 6b 3b
       -0.19987236 0.05670086 0.32903197 0.0035990505
0003c0 84 4d 38 3e bd 8b ae 3c 08 0d e4 bd ae e9 57 bd
       0.1799832 0.021306867 -0.11135298 -0.05271309
0003d0 07 fd 82 bd 2e 89 83 3d 7c 96 cd 3a f8 3b ad 3d
       -0.063959174 0.06422649 0.0015685107 0.08458704
0003e0 79 31 f7 3d 96 55 0f 3d 4c b4 b7 3d e2 b7 b5 3d
       0.12069983 0.03499373 0.08969936 0.088729635
0003f0 61 0e dc 3c 16 5c 86 39 a5 fd bc 3c 08 4c 01 bb
       0.026862325 0.0002562708 0.023070166 -0.0019729156

bias f4 [256]
000000 21 e1 0c 3c 4f 7b 3f 3c 32 eb a0 3d f6 ab 2e bc
       0.008598597 0.011687114 0.0785736 -0.010661116
000010 30 c8 25 bd dd 28 c7 bd d6 45 59 bd f2 50 5d 3d
       -0.040474117 -0.09724591 -0.053045116 0.054032274
000020 46 b4 11 3e 27 5c ee bd 6d 16 e3 3c f7 27 9d bc
       0.14228925 -0.116386704 0.027720654 -0.019184096
000030 cd 02 a2 3d 30 35 a2 bd 4d 9f cc bc ed ce fa bc
       0.079106905 -0.07920301 -0.024978304 -0.030616248
000040 87 98 21 bc 15 f1 44 bd 46 66 9d 3d 36 6c 99 bd
       -0.0098630255 -0.048081476 0.07685523 -0.07491343
000050 28 78 d0 3c 34 7c 80 bd 17 33 a4 3d d5 90 53 3e
       0.02544792 -0.0627369 0.08017557 0.20660718
000060 5a ab 13 be 1f d2 06 3e 86 bc 5d 3d 32 70 a7 bd
       -0.14420834 0.13166092 0.054134868 -0.081756964
000070 03 d5 df bd 2a 64 f7 bd 1e 21 08 3e d8 7a 00 3e
       -0.10929301 -0.12079652 0.13293883 0.12546861
000080 56 6b 37 bd 23 1e 59 3c 42 a7 6e 3d c8 d9 9c bc
       -0.044780098 0.013251814 0.05826498 -0.019146815
000090 cc b1 f6 bd a6 ef b7 bb 95 1c 24 bd 28 ed 14 be
       -0.12045631 -0.005613285 -0.04006632 -0.14543593
0000a0 63 d3 73 bd 4e af 6a 3d f5 fd 56 3d 5f 30 e0 bd
       -0.059527766 0.05729609 0.052488286 -0.10946726
0000b0 59 bd 59 bd 8c b5 ee 3c ce 2a d4 3d 46 be 26 3e
       -0.05315909 0.029139303 0.10359727 0.16283521
0000c0 70 99 33 bc cc 16 a7 3d 01 69 28 bd a5 9e fb 3c
       -0.010961875 0.08158645 -0.041115765 0.030715296
0000d0 87 e1 0c be 56 22 de 3d 2c 70 fc 3d 4b 6b f6 bc
       -0.13757907 0.10846393 0.123260826 -0.030080458
0000e0 cc a3 3e bd 02 6d 30 3d 67 f5 4c 3e 03 23 4d 3c
       -0.046542928 0.043072708 0.20015489 0.0125205545
0000f0 98 1f 3f bc d9 d7 4b 3d 69 d3 06 be 72 7c 51 3c
       -0.011665247 0.049766395 -0.13166584 0.012786018
000100 50 f5 57 3b dc a7 2a 3d b0 97 85 3b 61 2f 65 bd
       0.0032952614 0.04166399 0.0040769204 -0.055953387
000110 68 4c a1 bd ca ac 69 be 01 43 5b bd 69 8e ae bc
       -0.078759015 -0.2281982 -0.053530697 -0.02130814
000120 6d 44 aa bd c0 95 af 3d 57 92 2e 3d 15 2f 39 3d
       -0.083138324 0.085734844 0.04262003 0.045210917
000130 e2 f7 b2 3c 90 51 1a 3d 5d 71 6e 3d e5 98 33 bd
       0.021846715 0.03767544 0.05821358 -0.043846983
000140 b0 95 21 be ef b5 04 3d a3 5b f3 bb 01 40 19 bd
       -0.15779757 0.032400068 -0.0074266954 -0.037414555
000150 0a ff db bd 0c e9 bc 3d 29 71 aa 3d 41 26 22 3d
       -0.10742004 0.09224138 0.08322365 0.039587263
000160 44 62 35 3e 1c ce 86 bd 9b 81 8d 3d 93 14 80 bc
       0.17713267 -0.06582281 0.06909486 -0.01563481
000170 e8 7f 15 3d da 3c d6 3d 61 6f 93 3d e8 e7 32 3d
       0.036498934 0.10460825 0.07198978 0.043678194
000180 ff e6 1a be 1d 26 6e 3e 66 7a 19 be 88 1c 2f bb
       -0.1512718 0.23256727 -0.14988098 -0.0026719887
000190 13 55 4a 3d 36 82 15 be 45 2f 02 be be 48 96 bc
       0.04939754 -0.14600453 -0.12713344 -0.018345233
0001a0 68 0b 99 bd e6 b5 3e bd 62 89 a4 bd db f5 00 3e
       -0.07472879 -0.04656019 -0.08034016 0.12593786
0001b0 86 28 09 3e e2 8f 1e 3d 7c f3 aa bd cd 96 b4 3d
       0.13394365 0.038711436 -0.08347222 0.088178255
0001c0 14 93 96 bc 82 96 da 3b da b5 7f bd 55 ad ca 3c
       -0.01838068 0.006670774 -0.062429287 0.024740854
0001d0 38 e9 c2 bd d2 c9 fa bd 15 77 15 bd 4f 62 8c bd
       -0.09517139 -0.122455254 -0.03649052 -0.068546884
0001e0 2e b1 af bc 39 34 26 3e fc fd 88 3d 3c f2 c5 bc
       -0.02144679 0.16230859 0.06689069 -0.024163358
0001f0 64 49 92 bb 97 1e 7b 3c 3c 30 05 bd ee ab c3 bb
       -0.0044643153 0.015327117 -0.032516703 -0.0059714234
000200 0d f2 a7 bd 25 c8 03 3d fc 9e 3f 3d 8c 5e a6 3d
       -0.082004644 0.032173295 0.04678248 0.08123502
000210 c5 83 d4 bd fe c0 2a 3b 2e a6 c7 3d b5 9f bb 3d
       -0.103766955 0.0026054974 0.09748493 0.09161321
000220 3e 63 e7 bd 21 96 8b bc df 1e 5b bd d0 b3 b5 bd
       -0.11298226 -0.01703936 -0.053496238 -0.08872187
000230 70 1b ed 3d fa c9 7e bb 7a 8e f5 bc ff be f0 bd
       0.11577499 -0.0038877712 -0.029975165 -0.117551796
000240 20 a1 04 3d 04 75 87 3c 3f 2a 69 bd 89 e5 3a 3e
       0.032380223 0.01653529 -0.056925055 0.18251623
000250 30 f2 33 3d 4b 05 18 3e 29 a0 da bc 4d 92 79 3d
       0.04393214 0.14845769 -0.026687698 0.06093054
000260 92 84 c8 3c c1 c9 cf 3c cd a5 0b bd 11 fd 1b 3c
       0.024477277 0.025364758 -0.034093667 0.009520785
000270 6e 82 bd 3d ba 03 30 3b 27 bd f2 bd bb db ca bd
       0.09253393 0.002685769 -0.11852484 -0.099051915
000280 36 16 cd 3c 44 df 87 bc 36 3d 6e 3c 8c cc 79 bb
       0.025035005 -0.016585954 0.014540961 -0.0038116304
000290 5f 46 ab 3d 5e 65 29 be 1a 72 a0 3d 54 5a 5c bd
       0.083630316 -0.16542575 0.07834263 -0.05379708
0002a0 44 53 45 bc 53 96 3c bd fb f2 04 3b 78 6a 3c 3d
       -0.012043778 -0.046041798 0.002028643 0.045999974
0002b0 c4 c8 ba bc e4 5c 04 bd 30 bc 2a 3d 13 1f e8 3d
       -0.02280081 -0.03231515 0.041683376 0.11334052
0002c0 d0 0d 84 3d 75 3f a9 bd dc a1 d0 bd cf 91 fe bd
       0.06447947 -0.082640566 -0.10187122 -0.124301545
0002d0 fe eb 66 3d bd 3e be 3c 64 40 32 3e db 97 00 bd
       0.056377403 0.023223275 0.17407376 -0.03139482
0002e0 00 28 2c 3d a2 c5 aa bd d2 1f 27 3e b7 bc 04 bd
       0.042030334 -0.08338477 0.16320732 -0.032406535
0002f0 5e 6a 56 bd 8c b6 8e bd 08 2c 6c bd cc 9c 5e bb
       -0.052347533 -0.06968412 -0.05765918 -0.003396797
000300 75 30 b0 bc fa 90 02 3e 8e d7 aa bd fa fe d4 3d
       -0.021507481 0.12750617 -0.08341895 0.104001954
000310 d5 66 f1 3c ec ba 4d bd 09 b9 9b 3c 17 b1 2a 3d
       0.02946798 -0.05022709 0.01900913 0.041672792
000320 77 6b 76 3d e1 15 a6 bd 13 b9 b5 3d 4a 3a 41 bd
       0.06016108 -0.08109642 0.08873191 -0.04717473
000330 83 5b 8d 3c 3a d8 4b bd e0 e5 02 3d e3 2f 70 3d
       0.01725555 -0.049766757 0.031957507 0.05863942
000340 03 22 28 3e e0 27 bf 3c 9f 13 6a bd ca dc a5 bd
       0.16419224 0.023334444 -0.05714762 -0.08098753
000350 13 79 00 bd a2 db ef 3d 5a 84 c4 bd af 31 d7 3d
       -0.031365465 0.117118135 -0.095955566 0.10507523
000360 df 54 b3 3c 44 65 28 3e c9 fe d2 3c 6e 9f 20 bd
       0.021891056 0.1644488 0.025756257 -0.039214544
000370 23 60 53 3d 37 1b 54 bb 1b c9 91 3d a2 5f 05 3e
       0.051605355 -0.0032364854 0.07118436 0.13024762
000380 bf c0 f1 3d 9c e5 8f 3b 16 27 fe 3c f7 75 13 bc
       0.118043415 0.0043913852 0.031024497 -0.009000293
000390 57 ee 57 3a 0d 67 36 ba 84 ed 8b bc 9f 03 17 be
       0.00082371145 -0.0006958105 -0.01708103 -0.14747475
0003a0 28 a3 48 bd d0 1c d8 3d 21 6d 46 bd 21 bc be 3d
       -0.048983723 0.105523705 -0.048443917 0.093132265
0003b0 3f 98 19 bd 3a ff 9b 3d 42 2c 1b be d7 37 5d bc
       -0.03749871 0.0761704 -0.15153602 -0.013502083
0003c0 43 29 ee bc fc c8 e2 3c 97 61 f4 bc 3c 88 1c be
       -0.02907241 0.027683727 -0.02983169 -0.15286344
0003d0 d4 b5 a1 3d 69 24 f8 3a 1b e5 a7 3b f0 80 38 3d
       0.07896009 0.001893175 0.005123747 0.04504484
0003e0 06 50 c1 bd b0 eb 4f 3d 61 eb 80 3b ad c0 0c 3c
       -0.094390914 0.05076188 0.0039343094 0.008590859
0003f0 b7 53 f9 bd dd b6 9d bc d5 d4 3f 3d 43 b5 e2 3d
       -0.121741705 -0.019252235 0.04683383 0.11069729

weight f4 [256, 256]
000000 4a cb 5b 3c 74 e9 fb bc ff 5a 59 3c ef 13 11 3d
       0.013415167 -0.030750968 0.013266324 0.0354194
000010 40 40 c1 bc a0 54 56 3b c8 60 1a bc c6 b0 13 3b
       -0.023590207 0.003270425 -0.0094224885 0.0022535785
000020 3e 17 81 bd 80 60 c1 bc fb 61 2b bd 22 2c 3f 3c
       -0.06303261 -0.023605585 -0.04184149 0.011668237
000030 02 26 4a 3d 30 a2 01 bd 07 57 b4 3c 25 57 0c 3c
       0.049352653 -0.031648815 0.022014154 0.008565699
000040 f4 48 08 bb 1b 68 21 3b 38 20 9f bd 4a 8f eb bc
       -0.0020795437 0.0024628702 -0.07769817 -0.028754849
000050 d5 57 75 3c 46 c5 63 3d 65 e8 6f bb 0f 18 29 bd
       0.014974554 0.055608056 -0.0036607024 -0.04128271
000060 80 4d 51 3c 0e f9 f0 bb 04 3d d1 bc cc e4 02 3d
       0.012774825 -0.0073539084 -0.02554179 0.03195648
000070 18 3b 10 3d 94 8c 49 3d 4b 97 21 bd fb bb 19 bd
       0.035212606 0.04920633 -0.039450925 -0.037532788
000080 3d 03 73 3d eb dc 32 bd d8 40 9c bc 05 97 1f 3c
       0.05932926 -0.043667715 -0.019073889 0.009740596
000090 de d6 33 3d ed 92 75 bb f1 f3 48 bc 09 7a 16 3c
       0.043906085 -0.0037471608 -0.012265191 0.009184369
0000a0 6d 7b 68 bd fb 51 39 bd bc 14 c5 3c 52 f1 85 bc
       -0.056758333 -0.0452442 0.024057738 -0.016350422
0000b0 3c e7 63 3d 49 68 0f bd 96 2b e2 3c 91 d1 8a 3d
       0.055640444 -0.035011563 0.027608674 0.06778253
0000c0 c8 4b b0 3d c7 74 bb 3c cd 4f 63 3c bd 88 d0 b8
       0.08608204 0.022882832 0.013874006 -9.9436824e-05
0000d0 2c 68 e3 3c 43 88 76 3c 1a e0 f3 3c 88 92 82 3d
       0.027759634 0.015047136 0.029769946 0.06375605
0000e0 6e 29 03 3c b2 c8 d3 bc 37 8a ff bc af 5e bc bc
       0.008005483 -0.025852535 -0.031193836 -0.022994367
0000f0 00 b0 96 3c e3 12 71 bd 41 7d 97 3c bb a0 3c bd
       0.01839447 -0.058855902 0.018492343 -0.046051722
000100 fc fa 7a 3c 6f 5b d0 bb 78 cc 8a bb 72 bd b7 3c
       0.015318628 -0.006358556 -0.0042358004 0.022429202
000110 18 2f 5a 3c b3 8a 42 bb f5 7f 15 3c 4b 5a 9d 3c
       0.013316892 -0.0029684722 0.009124746 0.019208094
000120 99 f6 94 bc 4a a5 3c b9 a6 a1 36 3d 67 11 9e 3d
       -0.018183993 -0.00017990652 0.044587754 0.07718163
000130 da 65 d9 bc 8f 97 16 3d 02 47 30 3c a4 53 16 bd
       -0.026537824 0.03676563 0.010759117 -0.03670086
000140 f8 52 90 bc 93 b9 b9 3c ba b2 1f 3d 58 46 a3 bc
       -0.017617688 0.022671496 0.038988806 -0.019931003
000150 fa ed 21 3d 07 6e 85 bc 14 79 5c bb ba dd 60 bc
       0.039533593 -0.016287817 -0.0033641504 -0.013724739
000160 34 b4 0d 3d 86 43 7d 3b b2 e3 ee bc a6 0e 2d bd
       0.034595683 0.0038644983 -0.029161308 -0.042250298
000170 1f fb 92 3b 1e 54 96 bc 1b 85 e1 3c d2 f5 5e bc
       0.0044855024 -0.018350657 0.02752929 -0.013608413
000180 42 0d 01 bd ff e6 bf bc 8d 06 82 bc ab e6 82 bc
       -0.031506784 -0.023425577 -0.015872264 -0.015979132
000190 4c 96 03 bd ec f7 db bc 87 9e f7 3c fe 34 95 bc
       -0.032125756 -0.026851617 0.030226959 -0.018213745
0001a0 9a ef 80 3c 6b c7 a7 3b d6 a5 61 bd 85 d9 32 bd
       0.01573925 0.005120208 -0.055089794 -0.043664474
0001b0 dd 5f 60 3c 7d ed 2b bd 08 fd 9c bd 5c 0e ec bc
       0.013694731 -0.041974533 -0.076654494 -0.02881544
0001c0 d0 91 06 3e ff 3f a9 3a 87 5f 60 3c a4 74 70 3d
       0.1314156 0.0012912749 0.0136946505 0.058704987
0001d0 33 44 b6 3c 6b f2 16 bc c3 27 55 3d 44 7a 2c 3c
       0.022249317 -0.00921307 0.052039873 0.010527197
0001e0 28 a2 8d 3a 47 98 06 bc 62 dd 52 bc a0 ea b1 3c
       0.0010805773 -0.008215017 -0.012870165 0.021718323
0001f0 7b 13 f8 3a ff 5c 0c bd ae 4e a0 bb 02 9f be 3c
       0.0018926704 -0.034268375 -0.004892192 0.02326918
000200 31 33 c5 bb 9e a1 d3 3c f8 23 80 3c a4 64 ae 3d
       -0.0060180654 0.025833901 0.015642151 0.085152894
000210 e0 19 bf 3c c9 d6 01 3c 22 c2 97 3b e7 88 00 3d
       0.023327768 0.007924744 0.0046312967 0.03138056
000220 66 99 00 bd 90 9b 60 3d 9d 2f 22 bc 01 37 a5 3c
       -0.031396292 0.054835856 -0.009899047 0.02016783
000230 9f 88 3e bd 1e 2d 33 3d 78 e8 2a bc 41 a8 95 3c
       -0.04651701 0.0437442 -0.010431401 0.018268706
000240 8d 62 61 3d a4 a2 af bc 17 76 72 bd 98 75 92 3c
       0.055025626 -0.021439858 -0.05919465 0.017878339
000250 53 48 2c bd 2a 78 0c bc da 7e 42 bb cb e5 77 bc
       -0.04206116 -0.008573571 -0.002967766 -0.0151304705
000260 40 e1 31 bd f0 49 80 bd 4c 77 22 3d 6c 38 80 bd
       -0.043427706 -0.062641025 0.03966455 -0.062607616
000270 1f e3 00 bc 38 94 17 bc 6c e1 c6 bc eb 96 80 3c
       -0.00786665 -0.009251647 -0.024277411 0.015696963
000280 61 6b 16 3b 38 bb f2 3c f4 11 92 bc 67 7e 58 ba
       0.0022952186 0.029630288 -0.017830826 -0.00082585815
000290 ad 25 03 3d 77 63 0f 3d 12 7d 68 bb b9 45 48 bd
       0.032018352 0.035006966 -0.0035474938 -0.048894618
0002a0 f3 9c 20 bd 23 c4 19 bd 94 c6 11 3d 84 9c 18 3d
       -0.03921218 -0.037540566 0.03558977 0.03725864
0002b0 e0 e1 01 3c c1 61 0e 3b 9d 95 64 3d f7 c0 bd 3c
       0.007927388 0.0021725746 0.055806745 0.023163302
0002c0 50 c7 ca bc 21 f5 36 bc 9d 31 43 bb 85 b9 11 3c
       -0.024753243 -0.011166842 -0.002978421 0.008894329
0002d0 a4 c5 40 3c 94 6d cf bc 25 32 fa 3c 6f 1d f0 3c
       0.011765871 -0.025320806 0.030541489 0.02931091
0002e0 27 c8 08 3d 7a 0d 48 3c 74 bd 70 3c 00 d6 eb bc
       0.033394005 0.012210244 0.014693607 -0.028788567
0002f0 32 19 94 3c 68 d3 aa bc a2 ed 8c 3c 21 49 37 bc
       0.01807842 -0.02085276 0.017203156 -0.011186869
000300 c3 75 1d 3b 29 74 a3 bb 10 1d d9 bc 43 72 0c bc
       0.002402649 -0.0049882126 -0.026503116 -0.008572164
000310 7f b6 10 3b 1c 5c 9f 3b 92 1f 75 3c 15 4b 99 bc
       0.0022081432 0.004863275 0.01496114 -0.01871256
000320 9e c3 15 bd 75 8b 33 bc 0d 31 fd 3c 0b e9 a7 bc
       -0.03656351 -0.010958542 0.030907178 -0.020496866
000330 3a 31 fe bb 3b 2f 69 3d 4d 2f ac bc ba 67 e0 3c
       -0.007757333 0.056929808 -0.021018649 0.02739321
000340 fc 76 26 bd 00 f5 d9 3c e4 37 60 3d d9 e8 22 bc
       -0.040640816 0.026606083 0.0547408 -0.0099432105
000350 37 8f 5b 3c 5a fc 02 bc d1 9f 2f bc e6 e9 be bc
       0.013400844 -0.007994736 -0.010719256 -0.02330489
000360 20 8b a6 3c 1d 2b 34 3d 71 90 0f bc d0 47 b8 bd
       0.020330012 0.04398643 -0.008762465 -0.08998072
000370 7c 90 38 bc cf 8b 16 3d 8d 99 0b 3d fe 02 e4 bb
       -0.0112649165 0.036754426 0.034081984 -0.0069583645
000380 20 38 79 3d b9 99 3f 3d c3 85 6c 3d a9 8a 82 3d
       0.06084454 0.04677746 0.057744753 0.063741036
000390 2d ff e9 3c 0c 71 c7 3c 80 c9 32 bb 91 6b 6b bc
       0.02856406 0.024345897 -0.0027280748 -0.014368908
0003a0 74 ae af bd f0 cc b4 3c 2c 70 b8 bc b2 c8 1c 3d
       -0.08578196 0.022070378 -0.022514425 0.038277335
0003b0 88 0e b5 3c 59 52 98 3a 22 98 41 bd 5d 58 bd bc
       0.022101656 0.0011621221 -0.047264226 -0.023113424
0003c0 6a c1 87 bb 3b 12 11 bd 42 51 18 bb 2d fc 52 3d
       -0.00414293 -0.035417777 -0.0023241793 0.051510025
0003d0 47 75 68 bc 0b 34 6e bb 74 ac 8c 3c b3 c0 42 bd
       -0.014188117 -0.0036346938 0.017172076 -0.047547054
0003e0 fb 10 ec 3b ea 3a c5 bc 83 dd 52 3d 28 a0 02 3c
       0.0072041727 -0.024075944 0.05148078 0.007972755
0003f0 fd 84 80 bb 25 9d 54 bd 96 4a ab bc 5a 13 02 3c
       -0.0039221034 -0.051907677 -0.020909589 0.007939184

bias f4 [256]
000000 c1 28 6b bc a1 d9 54 3c 51 65 08 bd 1c 22 e6 3c
       -0.014352978 0.01299134 -0.033299748 0.028092436
000010 5a 18 49 3d 0d eb 10 3d 87 dd be bc a0 44 23 bc
       0.04909549 0.035380412 -0.023298992 -0.009965092
000020 b8 56 e1 bb 7c be 9f 3c f8 86 19 bc fa 7d eb 3b
       -0.0068767928 0.01950001 -0.009370558 0.0071866484
000030 9f 3a 1b 3d c9 dd 7a bc a5 ba 84 3d aa f2 bf 3c
       0.037897702 -0.015311667 0.06480912 0.02343114
000040 06 45 46 bd 12 f2 52 3a 2a 49 b9 bb ca 38 8e 3c
       -0.04840567 0.00080469355 -0.005654474 0.017361064
000050 f9 93 ba 3c d2 d8 14 bd 9d 81 aa 39 cb 2e 17 bc
       0.022775637 -0.03633959 0.00032521496 -0.009227465
000060 c6 17 ba 3b d4 bd 06 3d 11 a0 3a bc 83 44 81 bc
       0.0056791035 0.032895878 -0.011390702 -0.01577974
000070 ca 6b 43 bb 36 34 25 3d eb 4b a6 39 19 a8 9a 3a
       -0.0029818886 0.040332995 0.0003171855 0.0011799365
000080 a5 da bb bc 71 5c 23 bd a2 f0 b8 3b 88 02 0e bc
       -0.022931406 -0.03988308 0.00564392 -0.008667596
000090 13 bc b6 3b f2 85 2b 3b 9d d1 19 3d bd 5c a9 3c
       0.0055766194 0.0026172367 0.03755342 0.020674104
0000a0 70 eb 41 3c 62 bd 2c 3c c3 de 07 3c c0 8d 63 bb
       0.011835918 0.010543199 0.008292857 -0.003472194
0000b0 5e 23 b8 ba f5 54 0d bc 23 00 49 3c d4 f8 4a bb
       -0.0014048626 -0.008626212 0.012268099 -0.0030971067
0000c0 75 c9 c4 3c 73 95 4d bc 24 c1 98 bb 5e bc d8 bc
       0.024021843 -0.0125478385 -0.004661696 -0.026457008
0000d0 e6 dd 64 bc ff 79 1e 3c c8 79 81 bc bd 6f 8c 3c
       -0.01396892 0.009672641 -0.01580514 0.017143125
0000e0 96 6b ba 3a a1 37 09 bd 7f a2 1b bd bd de 3d 3c
       0.0014222737 -0.033500317 -0.037996765 0.0115887495
0000f0 ba f1 75 3c dd 04 b9 bc da 95 91 3c cf f5 ae bc
       0.015011245 -0.022585327 0.01777165 -0.021357445
000100 38 eb d4 ba ed 41 9c 3c 6e 00 6f 3b d2 7c 5e bc
       -0.0016244417 0.019074405 0.0036468762 -0.013579564
000110 17 e7 d2 bc 12 35 59 3d 97 95 df bc 2a 40 9e bc
       -0.025744958 0.053029127 -0.02729301 -0.019317705
000120 33 6c f6 bc 13 18 09 bc 4a 0a e2 bc 17 4d 29 3d
       -0.03008089 -0.008367556 -0.027592797 0.041333284
000130 dd 04 45 bd ab ae 85 3d e6 6e 49 bd 17 19 00 bd
       -0.04810034 0.06527456 -0.049178027 -0.031273928
000140 9d 99 39 bb db cb 17 bc 1d 87 01 3d 41 e7 93 3c
       -0.002832032 -0.0092649115 0.031622995 0.018054606
000150 b5 ef c2 3c af df 6d bc 94 06 94 bc de 0b 07 bd
       0.023795942 -0.014518662 -0.018069543 -0.0329703
000160 bf e4 76 bc 5b 0b 14 3d 1c 3f b3 bc 3d 16 ae 3c
       -0.015069186 0.036143642 -0.021880679 0.021250838
000170 af 43 1b 3c 45 fb 86 3c 84 45 87 3b 74 cf 0b bc
       0.009476586 0.016477237 0.00412816 -0.008533347
000180 58 63 1f 3d 02 40 a4 3c 2c 8a 4d bc 95 81 48 bc
       0.0389131 0.020050053 -0.01254515 -0.012237926
000190 a6 f4 e7 bb 09 e2 e1 bc b9 d0 54 bc 00 05 3c 3c
       -0.007078725 -0.027573602 -0.0129892165 0.0114758015
0001a0 16 f8 73 3d a9 40 d1 3b 0c a7 3d 3c e6 0e 58 3b
       0.059562765 0.006385882 0.011575472 0.0032967865
0001b0 2a 2b 71 bc cd 1f ff bb 16 cd e0 3c 17 a9 1a 3d
       -0.014719764 -0.0077857734 0.027441543 0.037758913
0001c0 b2 69 94 3c 3d 19 77 bd 2b 59 cd bc fd a0 17 3b
       0.018116806 -0.060326803 -0.025066933 0.0023136728
0001d0 64 59 33 bc ce f5 ad bc 06 5d 0e 3b 63 85 4a bd
       -0.010946605 -0.021235373 0.0021722927 -0.049443614
0001e0 c2 d4 1b 3b 71 b4 99 bb 42 0c e3 3c 94 57 49 bc
       0.0023777937 -0.0046906997 0.027715806 -0.012288947
0001f0 2b 7b 08 3d 9b 80 b3 ba 2a 47 72 3c e2 5f af 3c
       0.033320587 -0.0013694944 0.014787475 0.021408025
000200 60 d0 f1 3c 57 08 41 bc 66 0e 10 bd 05 b4 68 3d
       0.029518306 -0.0117817735 -0.03516998 0.056812305
000210 03 36 3b 3d 7c 1b f6 3c 1b ef 31 3c d6 a3 7b 3b
       0.045705806 0.030042402 0.01086023 0.0038397214
000220 0e ea 58 bd 0c 26 ac 3b ed c0 07 bc 92 62 22 3c
       -0.052957587 0.005253559 -0.008285743 0.009911196
000230 03 df 87 3b fa 59 fb bb 8b f1 14 3d fd 89 f8 3c
       0.004146458 -0.007670638 0.036363166 0.030339235
000240 c5 89 30 ba 2f 0d 9e 3c 71 c7 ed bc 42 56 a3 bc
       -0.00067343964 0.019293396 -0.029025765 -0.019938592
000250 ad b5 6f bc d0 44 08 3b b0 07 c3 3c 77 d6 0d 3c
       -0.014630717 0.0020792969 0.023807377 0.008657089
000260 c5 a0 bb 3c be 0c 08 3d 27 bb 28 3d ae b1 b0 3c
       0.02290381 0.033215277 0.041194107 0.0215691
000270 8b a9 49 3c 78 20 0a bd bf 44 e7 bc bf 9f b2 3a
       0.012308489 -0.03372237 -0.028231023 0.001362793
000280 d1 cc ad 3c 9c d9 1d 3c b4 42 06 3a 48 1e f1 bb
       0.021215828 0.009634402 0.0005121634 -0.007358346
000290 9e 57 08 bd da d7 58 bc a0 37 c3 3b e1 4a 89 bc
       -0.033286683 -0.013235057 0.0059575588 -0.016759338
0002a0 8b 98 d5 3a 8c 68 95 bc 99 26 d9 3c 0a ab d5 bb
       0.0016296072 -0.018238328 0.026507663 -0.0065206336
0002b0 72 f6 01 bc 22 c5 98 bb b3 20 54 bd 83 ea c2 3c
       -0.007932292 -0.004662172 -0.051788997 0.023793465
0002c0 44 83 97 3b 25 0a 86 bc ac 89 ae bc ef 0f 53 3a
       0.0046238024 -0.01636226 -0.021305881 0.00080513855
0002d0 28 7e 17 bd 5b 46 53 bb 93 fb 42 3c 9a 53 d5 bc
       -0.036985546 -0.003223798 0.0119008 -0.02604084
0002e0 fc f9 d4 bc 36 72 7f bc f2 ad 1c 3d 7f 28 f4 bb
       -0.025998108 -0.015591195 0.038251825 -0.0074511166
0002f0 03 3c ed 3a 28 0d 80 3b cb e8 f8 bc 39 7e e8 3a
       0.001809955 0.0039078183 -0.030384442 0.0017737813
000300 d7 26 02 bd d3 ad 81 3c 86 87 71 b8 17 ba 46 3c
       -0.03177532 0.015829956 -5.7585094e-05 0.012129328
000310 ad ca 50 bc 35 46 b8 3c a1 21 e2 3a f8 37 a2 bc
       -0.012743634 0.022494415 0.0017252454 -0.019802079
000320 4b e7 f8 bc 32 7b 2e bd 77 48 22 bc 7f b3 05 3d
       -0.030383727 -0.042597957 -0.009904972 0.032641884
000330 d3 ad de bb bb d2 31 bd b9 6d bf bb b9 8a 93 bc
       -0.006795624 -0.04341386 -0.0058419374 -0.018010484
000340 3e f0 b9 3c 64 fd 7f bc 6b d9 13 bc f0 04 ba bb
       0.022697564 -0.015624378 -0.009024004 -0.005676858
000350 b1 1b de 3c b2 e6 fb bc 08 ed ff ba 0c 18 03 3d
       0.027112814 -0.030749653 -0.0019525597 0.032005355
000360 84 3c 05 bd e6 f6 31 bc 2e 17 91 3c d7 9d 25 3a
       -0.032528415 -0.010862088 0.017711248 0.00063177705
000370 a8 5a 04 bd 34 6b 4b 3d 21 7f 32 bc 35 ce 2a bd
       -0.03231302 0.049662784 -0.010894568 -0.04170056
000380 fc 71 84 bc e1 a2 75 bc a9 8c 6c bc fe 22 40 3c
       -0.016167633 -0.014992447 -0.014437833 0.011727093
000390 a3 95 4f bc 3c 2c 36 3d 4b 10 54 3d a0 3a 90 3b
       -0.0126699535 0.04447578 0.05177335 0.00440152
0003a0 68 b8 0d bd 8f 75 21 3c 93 62 80 3d 5e 49 62 3c
       -0.03459969 0.009854688 0.062688015 0.013811437
0003b0 a1 78 0d 3d 5f 7f f9 ba cf b6 eb bc 3f bf 5d bb
       0.03453887 -0.0019035152 -0.028773693 -0.0033835915
0003c0 fe b0 5e bd 65 9c 77 bb f0 56 93 3a 29 d1 66 3b
       -0.05436801 -0.0037782427 0.0011241119 0.0035219884
0003d0 56 c6 5d bc 4f 7c 4a 3c c2 9d f3 bc 45 57 a2 bc
       -0.0135360565 0.012358739 -0.02973831 -0.019817004
0003e0 fe cf da 3c 40 e8 b5 bb 06 05 09 3d 4c bd 1f 3c
       0.026710507 -0.005551368 0.033452056 0.009749722
0003f0 56 7b 46 3c 21 70 d3 3a 9e 3a ae bb c2 7d 55 3c
       0.0121143665 0.001613144 -0.0053170463 0.013030471
