outputs/2023-09-24-20-37-59/trained_model/tetris_epoch895_score1500.pt (torch, 842187 bytes, 8 tensors)

weight f4 [32, 1, 4, 4]
0.028848624 0.02567068 -0.019136466 -0.0045421193 -0.0015482911 0.078806505 0.0013428144 0.051274475
-0.21755154 0.12808825 0.19815966 -0.006264933 0.079835854 0.16660975 0.16929437 -0.024196863
0.43202034 0.021399982 -0.5441532 -0.26560837 -0.39021862 0.10025272 -0.103724666 -0.11873661
0.049912963 -0.2518366 0.035740845 -0.35989243 -0.23913752 -0.0008509874 0.08683831 -0.6001574
0.02098361 -0.014679135 -0.7538214 -0.14827691 0.015749237 -0.27363122 0.14959131 -0.25047067
0.09639822 0.31102225 0.038262714 0.018999886 -0.08950432 -0.11243728 -0.08567458 -0.079844795
-0.3024356 -0.23336431 -0.08373164 -0.03670958 0.13861555 -0.1509811 0.20447274 0.10874355
-0.24706341 0.07016791 -0.47999942 0.08761363 -0.18545939 -0.49999246 -0.5045195 0.08915325
-0.060460735 -0.79449207 -0.048944805 -0.025569957 0.085502245 0.06085814 0.07143052 0.0708051
0.24113575 -0.8788137 0.296634 -0.026906272 -0.08998693 -0.09667079 -0.019655243 -0.009055539
0.003244097 0.0057308064 -0.10064163 -0.06915764 0.0028536606 0.00024636133 0.28515887 0.7552912
-0.012458875 0.026017988 -0.30237767 -0.78893197 -0.03568504 -0.020654704 -0.05155549 -0.033585895
0.060595304 0.050455112 0.1591026 0.27983359 0.133431 -0.022433223 0.18782319 -0.45424587
0.07628036 0.06955891 0.016631959 -0.6783922 -0.055676512 0.017080808 0.056524478 -0.27933645
0.009257098 0.0029966799 0.22825655 -0.23866732 0.08086929 0.08541623 -0.6919267 -0.6479213
-0.018017119 0.07283119 -0.4322475 -0.09451465 -0.043338403 0.19446115 -0.2880284 -0.4215308
-0.11441577 0.113301665 -0.3676202 -0.16506535 0.15661779 0.10643428 0.13997297 -0.26606002
0.010311002 0.10030995 -0.32135704 -0.69101226 0.13476035 -0.06928803 -0.043258116 0.036805164
-0.1730879 -0.06741074 -0.00050800235 -0.0023521155 -0.100884065 -0.16939849 -0.49275106 -0.042899624
-0.064172074 0.46716946 0.17382629 -0.059877545 0.066171475 -0.85985076 0.07856349 0.041308623
0.013960506 -0.061487075 -0.10532043 -0.14055763 -0.06277914 -0.003020194 -0.18735662 0.006173235
-0.066589616 0.037139796 0.5652517 -0.023165176 -0.039184984 -0.07221196 -0.6888217 -0.059840478
-0.16773544 -0.32706192 -0.28847012 -0.040813476 -0.023989372 -0.1753631 0.019523188 0.15117702
-0.048026536 0.0097411815 0.11715032 -0.55646884 0.09420848 0.036845345 0.072247 -0.37821072
0.13029349 -0.062397514 0.030889224 -0.07370795 0.034550995 0.49179953 0.022526521 -0.023078715
-0.06990643 -0.512733 0.16940722 -0.05084463 -0.06304406 -0.6283171 -0.2117954 0.030738894
0.012061146 -0.048547685 0.018442908 0.05577005 -0.031873934 0.1513339 0.16113059 0.008534056
0.039393477 0.85485566 -0.024828242 0.034690812 -0.008596042 -1.3990151 0.079351395 -0.018657772
0.022368897 0.4423438 0.028789064 -0.02987442 -0.017322028 0.70025814 0.0045178253 -0.017206995
-0.0024815935 -1.2664168 -0.0018130078 -0.0034018338 -0.01743815 -0.022510383 -0.042626906 -0.0104127815
-0.27334464 -0.049839262 0.12937225 -0.10002892 -0.037189603 -0.19830835 -0.069753274 -0.022223318
0.15379329 0.17311667 0.12424299 0.13365108 0.007927474 0.090706825 -0.015886115 0.13218543
00000000: f353 ec3c 514b d23c 14c4 9cbc 0fd6 94bb
00000010: 07f0 caba 4e65 a13d 6001 b03a 2f05 523d
00000020: d5c5 5ebe 9129 033e 5eea 4a3e 114a cdbb
00000030: fb80 a33d bf9b 2a3e 815b 2d3e 8038 c6bc
00000040: c531 dd3e 044f af3c a04d 0bbf d2fd 87be
00000050: bcca c7be 4c51 cd3d 996d d4bd 2e2c f3bd
00000060: 8971 4c3d baf0 80be fe64 123d d243 b8be
00000070: 77e0 74be cc14 5fba 49d8 b13d eaa3 19bf
00000080: d2e5 ab3c c180 70bc 70fa 40bf e7d5 17be
00000090: 8b04 813c 6419 8cbe 772e 193e b13d 80be
000000a0: 6e6c c53d 4f3e 9f3e 5db9 1c3d a6a5 9b3c
000000b0: 0a4e b7bd 8445 e6bd 2776 afbd ab85 a3bd
000000c0: d7d8 9abe 0ef7 6ebe 7e7b abbd c95c 16bd
000000d0: 3cf1 0d3e ca9a 1abe 4d61 513e f0b4 de3d
000000e0: 31fe 7cbe 31b4 8f3d 7cc2 f5be c66e b33d
000000f0: 11e9 3dbe 03ff ffbe 3128 01bf fb95 b63d
00000100: ada5 77bd d563 4bbf 597a 48bd 1678 d1bc
00000110: cd1b af3d 6346 793d 2a4a 923d 4402 913d
00000120: 4aec 763e eff9 60bf 69e0 973e 8b6a dcbc
00000130: 114b b8bd 56fb c5bd 0804 a1bc af5d 14bc
00000140: eb9a 543b 7dc9 bb3b 331d cebd 85a2 8dbd
00000150: 7b04 3b3b 0f2a 8139 5800 923e c45a 413f
00000160: 4f20 4cbc ad23 d53c 3fd1 9abe 72f7 49bf
00000170: 7a2a 12bd 0e34 a9bc d92b 53bd 5d91 09bd
00000180: c832 783d 05aa 4e3d cbeb 223e 5946 8f3e
00000190: 23a2 083e e1c5 b7bc b954 403e ea92 e8be
000001a0: e138 9c3d e774 8e3d bf3f 883c 1cab 2dbf
000001b0: 0e0d 64bd 0ded 8b3c 3686 673d 3005 8fbe
000001c0: 15ab 173c f263 443b 16bc 693e 3565 74be
000001d0: cc9e a53d b4ee ae3d 1c22 31bf 2cde 25bf
000001e0: a398 93bc 8528 953d 8b4f ddbe e690 c1bd
000001f0: 9c83 31bd d320 473e 7578 93be e3d2 d7be
00000200: d152 eabd b40a e83d b738 bcbe e406 29be
00000210: 6a60 203e 37fa d93d 1355 0f3e 0539 88be
00000220: 7aef 283c 4e6f cd3d e988 a4be 2ee6 30bf
00000230: 9efe 093e e2e6 8dbd 6c2f 31bd 03c1 163d
00000240: f43d 31be a40e 8abd 762b 05ba f325 1abb
00000250: 4e9c cebd cc76 2dbe de49 fcbe 84b7 2fbd
00000260: a66c 83bd d630 ef3e 85ff 313e 2842 75bd
00000270: e984 873d 2e1f 5cbf e5e5 a03d 3b33 293d
00000280: 9bba 643c dfd9 7bbd 3db2 d7bd 57ee 0fbe
00000290: 5a92 80bd 72ee 45bb 6ada 3fbe d948 ca3b
000002a0: 2360 88bd e61f 183d 56b4 103f e5c4 bdbc
000002b0: 6f80 20bd dde3 93bd 9e56 30bf 4a1b 75bd
000002c0: d7c2 2bbe a974 a7be 5bb2 93be 082c 27bd
000002d0: 5c85 c4bc 6292 33be 18ef 9f3c 26ce 1a3e
000002e0: 79b7 44bd 7a99 1f3c 82ec ef3d be74 0ebf
000002f0: 60f0 c03d 25eb 163d 3cf6 933d d6a4 c1be
00000300: a86b 053e 8994 7fbd 660b fd3c 32f4 96bd
00000310: 5885 0d3d 26cd fb3e 8a89 b83c 930f bdbc
00000320: 1a2b 8fbd 7842 03bf 1679 2d3e 7542 50bd
00000330: 3e1d 81bd 64d9 20bf e5e0 58be 22d0 fb3c
00000340: 1d9c 453c f0d9 46bd 9515 973c 236f 643d
00000350: 3e8e 02bd 46f7 1a3e 6bff 243e 6dd2 0b3c
00000360: 0e5b 213d d2d7 5a3f 9964 cbbc f417 0e3d
00000370: 6ad6 0cbc ed12 b3bf fc82 a23d 2fd8 98bc
00000380: fa3e b73c e37a e23e 0bd7 eb3c 33bb f4bc
00000390: ede6 8dbc 1e44 333f 440a 943b aff5 8cbc
000003a0: 3ba2 22bb f219 a2bf 72a2 edba 4df1 5ebb
000003b0: 73da 8ebc b267 b8bc 8d99 2ebd 5f9a 2abc
000003c0: d4f3 8bbe 4124 4cbd 297a 043e f6db ccbd
000003d0: 2054 18bd 5811 4bbe ceda 8ebd ad0d b6bc
000003e0: fd7b 1d3e 7f45 313e 1c73 fe3d d4db 083e
000003f0: 3ce2 013c 80c4 b93d 9923 82bc 9e5b 073e

weight f4 [32, 32, 5, 5]
0.14049914 -0.14479947 0.0837347 0.086083144 0.03691684 0.14918396 -0.24328957 -0.033752833
-0.1515417 -0.355085 0.0120779285 -0.08483127 -0.098259605 -0.12210596 -0.04017985 -0.10591499
-0.45178655 -0.27778533 -0.024441961 -0.35251862 0.033600632 0.059497476 -0.1068569 0.033679064
0.091176905 0.25219503 -0.3702633 0.15595339 0.3503767 0.35394183 0.0843852 0.33466116
-0.26960352 -0.11811465 -0.0084068915 0.08778112 -0.29648268 -0.44082934 0.23769587 -0.33535355
0.12332159 0.19138287 0.02949239 -0.21637698 -0.2946433 -0.19967897 0.44426125 0.1549673
0.02552414 0.38004813 -0.119341895 -0.20084018 0.042998504 0.1477189 0.29052052 0.3460997
0.28986198 -0.42488107 -0.5145984 -0.10889406 -0.034357082 0.2597275 -0.1761658 -0.100495316
0.070221595 0.18513381 -0.3475134 0.157206 0.05546475 -0.2236227 0.083085746 -0.19965419
0.09585209 -0.30205658 0.3528351 -0.03666823 -0.18866506 0.28443244 -0.5044918 0.09091665
-0.54059905 0.28418693 0.18200228 -0.53222615 -0.1048861 -0.4429108 -0.012054018 -0.11934935
0.1408701 -0.5190725 -1.1406965 -0.033273716 -0.61082757 -0.1004462 0.279284 -0.017049005
0.27588207 -0.21077974 0.32507926 -0.22388443 0.01565094 -0.07423022 0.07116948 0.78777003
-0.7527791 -0.34510615 0.3169908 0.032613575 -0.08657234 -0.12321296 -0.32350302 -0.027023962
0.21594074 -0.07668766 0.48084673 -0.16484158 -0.038636226 -0.493424 -0.15218225 -0.49506196
0.14752766 0.09989635 0.16282885 -0.13874295 -0.032343533 -0.11243364 -0.05181385 0.038557798
-0.057677936 -0.14147833 0.11929802 -0.15526907 0.14025526 0.021871334 -0.26299602 -0.077571526
-0.0080272 0.004559907 -0.07752866 -0.047213335 -0.37991044 -1.4296509 -0.6261141 -0.22170733
-0.58335114 0.0022267231 -0.20177063 -0.03860115 -0.22713436 -0.3811845 0.30595502 0.041092623
-0.059517693 -0.26860324 -0.52107835 0.14545591 0.06894564 -0.36075795 0.03958949 -0.9864053
0.06311239 0.23817754 -0.3447951 0.12431529 0.254138 -0.304 -0.13236223 -0.37518072
0.0688874 -0.19424982 0.02142613 0.067472935 0.04899085 0.3267916 0.10899522 -0.014940113
-0.55535936 0.44767573 -0.16620174 -0.07423471 0.092580564 0.07498179 0.029310582 0.3911003
-0.96210223 0.044685215 -0.23892346 -0.24013464 0.23480938 -0.07075361 0.123232484 -0.28221658
-0.38815507 0.18368322 0.20457758 -0.22273165 -0.17706041 -0.114132114 0.24802437 0.10740917
0.36894685 -0.13594323 -0.033693433 0.26174375 0.21356879 -0.6412038 0.07284499 -0.26714212
0.17056409 0.019137483 -0.5274903 0.15408345 0.013414331 0.03390033 -0.50484335 -0.50899786
-0.33168814 -0.18206903 0.10094666 -0.041720655 -0.18262702 0.15451775 0.005799199 -0.28075582
0.25348175 0.15765172 0.075132005 -0.31893218 0.011629405 -0.275516 -0.42719305 -0.24092619
-0.03992185 -0.2899672 -0.34908846 -0.6964155 0.11054324 -0.11828149 0.17685148 -0.048452683
-0.2353186 0.31585717 -0.2513587 0.0115480125 -0.6993354 -0.17314273 0.18670075 0.063989826
0.08612627 0.17003398 0.48836845 -0.72110164 -0.2298477 0.40690953 -0.0015383224 -0.44244638
00000000: 02df 0f3e 5046 14be 197d ab3d 5c4c b03d
00000010: 1d36 173d aec3 183e e720 79be 6940 0abd
00000020: bf2d 1bbe b3cd b5be 81e2 453c 04bc adbd
00000030: 553c c9bd b112 fabd a093 24bd f5e9 d8bd
00000040: 9150 e7be e139 8ebe 823a c8bc 527d b4be
00000050: d1a0 093d a0b3 733d cad7 dabd 0ff3 093d
00000060: f5ba ba3d b51f 813e 2793 bdbe 3fb2 1f3e
00000070: 9364 b33e dd37 b53e 26d2 ac3d b558 ab3e
00000080: 7909 8abe 18e6 f1bd 0fbd 09bc 96c6 b33d
00000090: 94cc 97be 62b4 e1be 8c66 733e 76b3 abbe
000000a0: 0890 fc3d dff9 433e 069a f13c ed91 5dbe
000000b0: 7ddb 96be a578 4cbe 3676 e33e bfaf 1e3e
000000c0: 0018 d13c ab95 c23e 8669 f4bd 0ca9 4dbe
000000d0: 331f 303d a043 173e 1bbf 943e fb33 b13e
000000e0: ca68 943e 038a d9be b9bc 03bf d903 dfbd
000000f0: 03ba 0cbd 01fb 843e cf64 34be 7dd0 cdbd
00000100: 57d0 8f3d b893 3d3e 47ed b1be 9cfa 203e
00000110: 012f 633d 59fd 64be dc28 aa3d 2672 4cbe
00000120: 1a4e c43d 29a7 9abe cda6 b43e 6d31 16bd
00000130: 6a31 41be 21a1 913e 6026 01bf 8232 ba3d
00000140: b364 0abf f380 913e ce5e 3a3e f93f 08bf
00000150: 86ce d6bd 34c5 e2be 377e 45bc 6f6d f4bd
00000160: 4040 103e efe1 04bf 5802 92bf 054a 08bd
00000170: 325f 1cbf bdb6 cdbd 50fe 8e3e 5baa 8bbc
00000180: 6a40 8d3e a5d6 57be ca70 a63e f641 65be
00000190: 6636 803c 0306 98bd 4ec1 913d 4cab 493f
000001a0: 22b6 40bf c1b1 b0be 9e4c a23e d095 053d
000001b0: d74c b1bd 1457 fcbd 30a2 a5be 5b61 ddbc
000001c0: 921f 5d3e 6b0e 9dbd 8b31 f63e 3bcc 28be
000001d0: 0541 1ebd 12a2 fcbe aad5 1bbe c378 fdbe
000001e0: 7e11 173e 7596 cc3d 9bbc 263e a212 0ebe
000001f0: a77a 04bd 9c43 e6bd c23a 54bd c8ee 1d3d
00000200: b33f 6cbd b2df 10be 8552 f43d dbfe 1ebe
00000210: 139f 0f3e 832b b33c 6aa7 86be d2dd 9ebd
00000220: 8484 03bc 466b 953b 59c7 9ebd c562 41bd
00000230: 9f83 c2be cdfe b6bf 0349 20bf 3f07 63be
00000240: 8056 15bf 37ee 113b f69c 4ebe 3d1c 1ebd
00000250: e995 68be 9d2a c3be 23a6 9c3e bd50 283d
00000260: d3c8 73bd 5d86 89be 6465 05bf 65f2 143e
00000270: 5f33 8d3d 44b5 b8be 9728 223d 0f85 7cbf
00000280: 1241 813d d0e4 733e fc88 b0be 0499 fe3d
00000290: 601e 823e e3a5 9bbe f789 07be b017 c0be
000002a0: d614 8d3d 6de9 46be da85 af3c 402f 8a3d
000002b0: a1aa 483d 3b51 a73e e338 df3d 60c7 74bc
000002c0: 082c 0ebf c135 e53e ca30 2abe 5e08 98bd
000002d0: e19a bd3d 0d90 993d bf1c f03c 4c3e c83e
000002e0: 554c 76bf d807 373d 5aa8 74be dbe5 75be
000002f0: df71 703e 45e7 90bd 5061 fc3d b17e 90be
00000300: 43bc c6be 7417 3c3e c97c 513e c413 64be
00000310: 534f 35be 19be e9bd 1afa 7d3e 57f9 db3d
00000320: 9ae6 bc3e b434 0bbe 2002 0abd 4703 863e
00000330: c7b1 5a3e ef25 24bf c12f 953d dac6 88be
00000340: 5aa8 2e3e 36c6 9c3c 9b09 07bf 0dc8 1d3e
00000350: c8c7 5b3c 13db 0a3d 6a3d 01bf af4d 02bf
00000360: 07d3 a9be 4e70 3abe 1fbd ce3d 47e3 2abd
00000370: 9402 3bbe e739 1e3e 3507 be3b 3abf 8fbe
00000380: 5cc8 813e 746f 213e cfde 993d 144b a3be
00000390: 4389 3e3c 6f10 8dbe 0cb9 dabe 5bb5 76be
000003a0: 1885 23bd 9576 94be b9bb b2be 4948 32bf
000003b0: 7f64 e23d 913d f2bd 8e18 353e 5276 46bd
000003c0: 5cf7 70be 08b8 a13e 16b2 80be e033 3d3c
000003d0: a507 33bf 544c 31be 7b2e 3f3e 190d 833d
000003e0: f862 b03d 631d 2e3e 6e0b fa3e 1e9a 38bf
000003f0: 325d 6bbe 7256 d03e 89a1 c9ba 5588 e2be

weight f4 [64, 32, 5, 5]
0.047572624 0.07655561 -0.0531704 0.19158107 -0.39510044 0.27419326 0.062140815 0.16405448
-0.05050698 0.053118963 -0.01272701 -0.1583837 -0.14129138 0.044416282 0.61583513 -0.1497479
0.0372852 0.055942975 -0.15504546 0.30705062 -0.088206865 -0.2802231 -0.019101016 0.43066034
0.08599463 0.44080257 -0.3875752 0.021600405 -0.16228946 0.08383886 0.08692138 0.33801335
0.29183015 -0.49542028 -0.24734135 -0.12044288 0.12840033 0.656285 -0.09384327 -0.18073829
0.42925525 0.30448613 -0.4717937 0.46752557 0.0035616956 -0.107232824 0.6521094 0.3178847
0.09602979 0.0027026916 -0.20454441 -0.043558367 0.4987764 0.17802492 -0.03484172 0.3733092
-0.15628669 -0.49607038 -0.57878417 -0.59247196 0.19884084 0.117145166 -0.35870615 0.23274775
-0.26646692 0.14347497 0.18990208 0.26610807 -0.21099468 -0.11397427 0.527953 0.11895127
-0.0075707026 0.13470593 -0.1072491 -0.36875662 -0.39799142 -0.12946196 0.29627568 -0.2834548
0.52728105 0.28925532 -0.0071556163 0.34849998 0.31539768 0.014887095 -0.2871224 -0.21214922
-0.3657624 -0.81313735 -0.36600316 -0.06809309 -1.195109 -0.03373806 0.23927112 0.23832507
0.051287908 -0.039728444 0.4469521 0.024020154 -0.13682796 0.32214797 0.1904791 0.12049683
0.14371961 0.09046435 -0.13962458 0.02238067 0.17756344 0.6206897 0.3708628 -0.0642398
-0.1546698 0.063620806 -0.14424813 -0.107189104 -0.00058004283 0.027752511 -0.66046333 -0.61048263
-0.2795747 0.025475923 0.04648356 0.39206412 -0.2468415 0.089640625 -0.48642516 -0.27221757
0.24143079 -0.9068509 0.45454207 -0.35301453 0.14729065 0.020950405 -0.15844914 0.0487534
0.2239844 0.24858 -0.028540418 -0.2259452 -0.5050854 -0.2177278 0.077419624 -0.07373355
-0.004752596 -0.35682595 -0.1264481 0.15876901 -0.030360641 0.14796928 0.015652794 -0.4241658
0.029036263 -0.04625422 -0.38976347 0.09096385 0.05973782 0.2637152 -0.074886374 0.036274567
-0.052866258 0.2354163 0.22496137 -0.20538558 -0.26614416 0.049897928 -0.03351419 -0.06549152
-0.13030224 -0.38248718 0.36176592 0.17217535 0.17888556 -0.08953043 -0.21631049 -0.1505579
-0.3672412 0.020501282 -0.13370137 0.1414326 0.34877294 0.024861649 0.056662567 0.022396121
-0.08727743 0.2190714 -0.1013262 -0.19613166 0.19788788 0.43210152 -0.06825162 -0.0726791
-0.074957244 -0.20512934 -0.16275127 0.29867202 -0.09586856 0.25431174 -0.83418375 -0.26168117
0.14632642 0.3536911 -0.051754307 -0.40018997 0.014412771 0.39272675 -0.90879554 0.065785594
-0.41800705 0.25458625 0.3293234 0.2498396 0.03481805 -0.023009334 -0.5154383 0.40823177
0.047838386 0.027615752 -0.15917705 0.4967938 0.35171226 0.11468571 -0.09847547 0.108675964
-0.06602988 0.44769952 0.14936504 -0.056980234 -0.14300063 0.41322482 0.01966958 0.40482792
0.26226738 -0.008994195 0.4787068 0.05873936 0.039623797 0.11346425 0.21884699 0.09927799
0.3726378 0.14202122 -0.32613686 0.40021023 -0.03315902 -0.13068043 -0.09332699 0.27205348
0.33614036 -0.25622624 0.16423157 0.22751062 0.30812928 -0.22632478 0.331096 0.52134633
00000000: 83db 423d 30c9 9c3d 35c9 59bd d42d 443e
00000010: 9b4a cabe 0f63 8c3e 5e87 7e3d e6fd 273e
00000020: 68e0 4ebd 4593 593d f384 50bc 562f 22be
00000030: b0ae 10be d9ed 353d 5fa7 1d3f 8357 19be
00000040: 5eb8 183d 7624 653d 3dc4 1ebe bd35 9d3e
00000050: cda5 b4bd 6779 8fbe bc79 9cbc 837f dc3e
00000060: f41d b03d e0b0 e13e 4270 c6be 55f3 b03c
00000070: 352f 26be b5b3 ab3d d603 b23d 1610 ad3e
00000080: c36a 953e baa7 fdbe 0d47 7dbe c2aa f6bd
00000090: 607b 033e 4b02 283f e630 c0bd 7513 39be
000000a0: 58c7 db3e 9be5 9b3e f28e f1be 835f ef3e
000000b0: 566b 693b e29c dbbd a4f0 263f c9c1 a23e
000000c0: 44ab c43d a41f 313b 1774 51be 426a 32bd
000000d0: 9f5f ff3e 2a4c 363e 31b6 0ebd 6222 bf3e
000000e0: 9e09 20be f0fc fdbe 332b 14bf 3eac 17bf
000000f0: ef9c 4b3e cee9 ef3d 55a8 b7be 6d55 6e3e
00000100: 5a6e 88be 1aeb 123e b175 423e 513f 883e
00000110: fd0e 58be 586b e9bd ee27 073f b99c f33d
00000120: a813 f8bb 5af0 093e 6ba5 dbbd abcd bcbe
00000130: 88c5 cbbe ad91 04be 72b1 973e fd20 91be
00000140: e4fb 063f 4619 943e a979 eabb 976e b23e
00000150: ce7b a13e 01e9 733c b501 93be a53d 59be
00000160: 3645 bbbe c529 50bf c464 bbbe 6474 8bbd
00000170: 55f9 98bf ec30 0abd 7d03 753e 7d0b 743e
00000180: 4513 523d 4bba 22bd e8d6 e43e eac5 c43c
00000190: a11c 0cbe 94f0 a43e f40c 433e 0bc7 f63d
000001a0: 3c2b 133e 6045 b93d bff9 0ebe ab57 b73c
000001b0: 31d3 353e 85e5 1e3f bbe1 bd3e 2890 83bd
000001c0: c361 1ebe a04b 823d c8b5 13be f685 dbbd
000001d0: 040e 18ba 3c59 e33c 2014 29bf 9748 1cbf
000001e0: 6a24 8fbe e2b2 d03c 8c65 3e3d a1bc c83e
000001f0: 05c4 7cbe 8195 b73d b80c f9be 1a60 8bbe
00000200: a239 773e 6127 68bf bdb9 e83e 52be b4be
00000210: 5cd3 163e 2fa0 ab3c 7e40 22be a5b1 473d
00000220: 2b5c 653e c18b 7e3e 98cd e9bc 2e5e 67be
00000230: 474d 01bf 09f4 5ebe 2e8e 9e3d 9e01 97bd
00000240: aabb 9bbb e4b1 b6be 9c7b 01be 5894 223e
00000250: e1b6 f8bc 4285 173e 4a3a 803c 422c d9be
00000260: 75dd ed3c 1175 3dbd 148f c7be 414b ba3d
00000270: a5af 743d ae05 873e 075e 99bd a494 143d
00000280: 4a8a 58bd f810 713e 465c 663e 9950 52be
00000290: 0c44 88be c561 4c3d 2d46 09bd 6b20 86bd
000002a0: f36d 05be 5cd5 c3be 6239 b93e bc4e 303e
000002b0: c72d 373e bb5b b7bd 7f80 5dbe da2b 1abe
000002c0: 0a07 bcbe 4ef2 a73c 03e9 08be b5d3 103e
000002d0: 5e92 b23e a8aa cb3c 0217 683d 1278 b73c
000002e0: 82be b2bd 4154 603e 1c84 cfbd bdd6 48be
000002f0: 1fa3 4a3e 693c dd3e 81c7 8bbd c8d8 94bd
00000300: 2f83 99bd 6d0d 52be 45a8 26be 8aeb 983e
00000310: bc56 c4bd 2635 823e 118d 55bf 13fb 85be
00000320: 98d6 153e 0017 b53e 53fc 53bd b3e5 ccbe
00000330: 8b23 6c3c 7b13 c93e d3a6 68bf 99ba 863d
00000340: 0505 d6be 2159 823e 149d a83e f4d5 7f3e
00000350: 5f9d 0e3d 127e bcbc c4f3 03bf c103 d13e
00000360: 2ff2 433d 6e3a e23c 4fff 22be c25b fe3e
00000370: a113 b43e 57e0 ea3d 82ad c9bd 8191 de3d
00000380: ac3a 87bd df38 e53e 26f3 183e 1b64 69bd
00000390: c26e 12be 3492 d33e 1922 a13c 9b45 cf3e
000003a0: e947 863e 635c 13bc 0f19 f53e af98 703d
000003b0: 904c 223d f25f e83d 6d19 603e 4252 cb3d
000003c0: 62ca be3e 036e 113e 69fb a6be 5be8 cc3e
000003d0: c1d1 07bd 17d1 05be 3922 bfbd 984a 8b3e
000003e0: 971a ac3e 1630 83be 522c 283e 8bf8 683e
000003f0: 1fc3 9d3e afc1 67be 6a85 a93e f476 053f

weight f4 [256, 256]
0.05164594 0.022447554 0.013104794 0.11197852 0.08889129 -0.020760868 -0.07066648 -0.10182077
0.013168167 -0.12271478 -0.065042384 0.046614345 0.10711951 0.17759289 -0.062759995 0.037475985
-0.21721373 0.23086834 0.06987921 -0.044247795 -0.12125873 0.046890993 -0.02996397 -0.09436225
0.07356914 -0.14570142 -0.15946274 -0.03299118 -0.020589102 0.016060669 -0.036213707 0.007252141
0.538514 -0.17122677 -0.01108266 0.06620847 0.01969019 -0.010597219 -0.0025076284 0.010688339
-0.005899754 -0.33452824 0.0078088846 -0.05688479 0.02047387 -0.021471998 -0.12083267 0.036478605
-0.1002148 0.008711991 -0.09616077 0.23153956 -0.016139353 0.0072410703 -0.061728686 -0.09058533
-0.041235317 -0.43284526 0.23764981 -0.047081247 0.13103864 0.11299537 -0.077395074 -0.235733
-0.07540538 -0.07498843 -0.08691325 0.07595531 0.12933011 -0.006820099 0.02810074 -0.068340704
-0.07369353 -0.06610581 0.07199399 -0.004411003 -0.15030675 0.049032588 -0.044643562 0.023429703
0.044955093 -0.027606014 0.12300645 0.10794003 -0.18996581 -0.053948563 0.032359075 0.008160984
-0.0038608378 0.045367423 -0.08702861 -0.0016017018 0.035725463 -0.04459029 0.0419745 -0.08939054
0.46600172 -0.02011694 -0.007151261 0.002795995 0.2635379 -0.09953507 0.21857092 -0.5574645
0.11353344 0.07869832 0.005800676 0.11001481 0.13461752 0.011756812 0.16113743 0.20080882
-0.039984535 -0.06914698 -0.04413665 0.10199119 -0.089392 0.029735992 -0.009200555 0.00021854565
-0.20152728 0.058234725 -0.27517083 -0.28149217 0.05397258 0.033395573 -0.01811045 -0.09301638
-0.11959154 -0.17065416 -0.14066188 0.23297341 0.0813804 -0.08779882 -0.07554435 -0.0224653
-0.023053076 0.053330548 0.0151252765 0.004732193 -0.09725661 -0.016340218 0.09447673 0.025969926
0.036747158 0.0587435 0.08061194 -0.118738286 -0.035864953 0.065603934 -0.02625826 -0.025949005
0.06283089 0.08573264 0.07849606 -0.15782517 0.053273343 -0.081762634 -0.10177171 0.11241251
-0.060544677 0.03566648 -0.055618808 0.08026136 -0.10609085 0.044068083 0.07483436 -0.0038241223
0.08867262 0.10332838 0.047308337 0.08682116 -0.15301403 -0.09644391 -0.0055489517 -0.42734575
0.06525237 0.0040365006 0.08608073 -0.0817581 -0.102398306 -0.0841201 -0.011624546 0.0013179461
-0.2022759 -0.10240586 0.035508275 -0.11607449 0.005542533 0.08632987 -0.06269222 -0.028099658
0.026910614 -0.123807855 0.049470834 0.35025704 -0.000570083 -0.022730676 -0.049897682 0.024905544
-0.043787688 -0.17162165 0.15278524 -0.010632097 0.03336155 0.15999946 0.14762841 0.031596836
0.12177262 0.035000585 0.013465685 -0.021994356 0.27122667 0.018738529 -0.24969465 -0.11040719
0.08617337 0.14000472 -0.12975387 0.02997588 -0.026629053 0.039310228 -0.047811087 0.019005677
0.049885616 0.0149161685 0.12898539 -0.043855555 0.04667219 0.052115817 0.03419983 -0.086159915
-0.055004533 0.044935282 0.06743246 0.06309523 -0.29561597 0.035794687 0.34828544 0.022663817
0.1799832 0.021306867 -0.11135298 -0.05271309 -0.06982378 0.05684813 0.041599575 0.0798587
0.12069983 0.03499373 0.08969936 0.088729635 0.024640104 -0.0067273867 0.028706629 0.0036095313
00000000: b18a 533d efe3 b73c 7db5 563c ff54 e53d
00000010: a30c b63d b212 aabc 96b9 90bd 6887 d0bd
00000020: 4cbf 573c e351 fbbd f134 85bd afee 3e3d
00000030: 7961 db3d e9da 353e 5088 80bd 6b80 193d
00000040: 476d 5ebe c068 6c3e d51c 8f3d 2d3d 35bd
00000050: 7f56 f8bd c510 403d 0077 f5bc ff40 c1bd
00000060: 6bab 963d c132 15be 334a 23be c221 07bd
00000070: 7aaa a8bc aa91 833c d354 14bd 5ea3 ed3b
00000080: 0edc 093f 1256 2fbe 0c94 35bc 4e98 873d
00000090: 524d a13c f59f 2dbc 0657 24bb 251e 2f3c
000000a0: b952 c1bb 4947 abbe ace1 ff3b 0700 69bd
000000b0: d1b8 a73c 0be6 afbc 1e77 f7bd 976a 153d
000000c0: 6b3d cdbd bdbc 0e3c f0ef c4bd b518 6d3e
000000d0: ad36 84bc 8046 ed3b 38d7 7cbd cd84 b9bd
000000e0: 5de6 28bd e59d ddbe 795a 733e 44d8 40bd
000000f0: fe2e 063e 1e6a e73d 4f81 9ebd fe63 71be
00000100: 236e 9abd 8993 99bd 93ff b1bd 758e 9b3d
00000110: 1d6f 043e 237b dfbb 8633 e63c 36f6 8bbd
00000120: a2ec 96bd 7c62 87bd 9671 933d 2d8a 90bb
00000130: 03ea 19be 65d6 483d 2bdc 36bd a6ef bf3c
00000140: d522 383d 0226 e2bc ceea fb3d aa0f dd3d
00000150: 6686 42be 2bf9 5cbd f38a 043d a6b5 053c
00000160: 1c06 7dbb 31d3 393d 0e3c b2bd 32f0 d1ba
00000170: dd54 123d 4fa4 36bd 74ed 2b3d 6312 b7bd
00000180: c797 ee3e 48cc a4bc 2055 eabb 033d 373b
00000190: 71ee 863e 0bd9 cbbd 0ed1 5f3e feb5 0ebf
000001a0: 3884 e83d 962c a13d 9913 be3b 724f e13d
000001b0: 2dd9 093e a59f 403c 3601 253e d4a0 4d3e
000001c0: d3c6 23bd ef9c 8dbd a2c8 34bd c2e0 d03d
000001d0: 2713 b7bd e598 f33c edbd 16bc 6729 6539
000001e0: 2b5d 4ebe 8987 6e3d 31e3 8cbe be1f 90be
000001f0: 5a12 5d3d ccc9 083d 5e5c 94bc 5f7f bebd
00000200: 69ec f4bd f7bf 2ebe ab09 10be 9590 6e3e
00000210: c4aa a63d decf b3bd ffb6 9abd 2609 b8bc
00000220: ced9 bcbc 2271 5a3d 02d0 773c 8310 9b3b
00000230: 792e c7bd ecdb 85bc 047d c13d e2be d43c
00000240: 3084 163d 069d 703d df17 a53d 0f2d f3bd
00000250: 21e7 12bd 5b5b 863d 901b d7bc 0293 d4bc
00000260: 7bad 803d 9894 af3d 8bc2 a03d ec9c 21be
00000270: 2635 5a3d 2b73 a7bd b06d d0bd 8838 e63d
00000280: b2fd 77bd 0417 123d 8cd0 63bd 1160 a43d
00000290: 2946 d9bd bc80 343d c242 993d 209e 7abb
000002a0: fe99 b53d d49d d33d 63c6 413d 4bcf b13d
000002b0: b6af 1cbe 6284 c5bd fbd3 b5bb 10cd dabe
000002c0: 09a3 853d 9f44 843b 184b b03d ca70 a7bd
000002d0: 34b6 d1bd 2947 acbd e174 3ebc efbe ac3a
000002e0: 6a21 4fbe 2aba d1bd 2071 113d 76b8 edbd
000002f0: 239e b53b b7cd b03d c764 80bd 4131 e6bc
00000300: a673 dc3c f98e fdbd eea1 4a3d e454 b33e
00000310: 9f71 15ba af35 babc 8361 4cbd b606 cc3c
00000320: b85a 33bd 96bd 2fbe bc73 1c3e 3f32 2ebc
00000330: 1fa6 083d e6d6 233e e72b 173e af6b 013d
00000340: ec63 f93d c65c 0f3d 2d9f 5c3c 822d b4bc
00000350: 39de 8a3e 8b81 993c f4af 7fbe 2a1d e2bd
00000360: aa7b b03d 665d 0f3e 33de 04be fa8f f53c
00000370: 2c25 dabc c303 213d 8fd5 43bd cbb1 9b3c
00000380: dc54 4c3d f262 743c bf14 043e e2a1 33bd
00000390: 572b 3f3d 6577 553d 1f15 0c3d 9c74 b0bd
000003a0: 6f4c 61bd 0f0e 383d 081a 8a3d 1238 813d
000003b0: fa5a 97be 739d 123d 7852 b23e 78a9 b93c
000003c0: 844d 383e bd8b ae3c 080d e4bd aee9 57bd
000003d0: c5ff 8ebd 96d9 683d 5164 2a3d f58c a33d
000003e0: 7931 f73d 9655 0f3d 4cb4 b73d e2b7 b53d
000003f0: 0bda c93c 6971 dcbb 2a2a eb3c e38d 6c3b

bias f4 [256]
0.011701539 0.008173343 0.0731705 -0.016188929 -0.035235893 -0.098763704 -0.05242151 0.061885245
0.14049903 -0.11440686 0.025082016 -0.020205306 0.08228257 -0.079035684 -0.025689116 -0.030744443
-0.012040831 -0.047647323 0.070231065 -0.07008588 0.023039265 -0.06515924 0.080819406 0.18539841
-0.13928089 0.11294203 0.043643136 -0.07680576 -0.11165907 -0.12192026 0.12575395 0.10722581
-0.025435181 0.0068688947 0.063093945 -0.014993553 -0.122104384 -0.006119482 -0.03899474 -0.14822325
-0.061013322 0.049360625 0.03925503 -0.09750493 -0.04472979 0.03151169 0.10597276 0.14647602
0.00043380892 0.06851747 -0.041688073 0.019996539 -0.13067104 0.108607076 0.11740384 -0.03303335
-0.022677239 0.044294503 0.18987936 0.012048649 -0.013440939 0.050504167 -0.124308474 0.012178232
0.0010591752 0.043969244 -0.00058623176 -0.047458813 -0.083039835 -0.2102079 -0.053988077 -0.0210104
-0.08256395 0.084019974 0.034929957 0.022886623 0.016669435 0.03676579 0.04791232 -0.04096292
-0.14244132 0.03316295 -0.0049801897 -0.026053308 -0.10349344 0.09019652 0.07950044 0.03646272
0.1730035 -0.055936117 0.072810985 0.003590681 0.04166708 0.101826176 0.078090295 0.046816755
-0.13828443 0.21356638 -0.13578358 0.0006219351 0.054389354 -0.12522045 -0.118627526 0.00046123003
-0.07340377 -0.044444013 -0.06670299 0.1186797 0.13216694 0.046217393 -0.057186782 0.0924177
0.0006704945 0.009661346 -0.05769887 0.02150211 -0.09380805 -0.12568218 -0.015267825 -0.07200247
-0.022111436 0.14580332 0.05885097 -0.02341263 -0.010403135 0.02409846 -0.027018532 -0.005651509
-0.079037964 0.026188232 0.048039123 0.07343845 -0.10345803 0.007184021 0.09625982 0.07871357
-0.09653144 -0.021428566 -0.05172845 -0.08632025 0.1041853 -0.00710954 -0.034908827 -0.104356416
0.04450718 0.017416349 -0.033382744 0.17572562 0.036986638 0.1417504 -0.029848514 0.059974562
0.031214586 0.033246633 -0.013815146 0.0016153763 0.09415811 0.007786099 -0.1235338 -0.10043008
0.024544587 -0.023880301 -0.0050494354 -0.009958622 0.078182705 -0.16272832 0.07445418 -0.046922367
-0.014364021 -0.050626725 -0.00092794467 0.047148257 -0.019932037 -0.032090414 0.03489774 0.10442356
0.05842548 -0.08444334 -0.10014755 -0.1218643 0.055668678 0.0029435933 0.16659033 -0.031570718
0.038973253 -0.08353531 0.1526951 -0.034447055 -0.05905129 -0.06306772 -0.040473625 -0.0025071953
-0.02320794 0.12174473 -0.08660278 0.09582009 0.026227877 -0.05359949 0.017016692 0.042788476
0.060397435 -0.08508566 0.09101653 -0.036721293 0.023043739 -0.051132057 0.032321896 0.050331827
0.14769687 0.020966662 -0.053968355 -0.08020266 -0.030873729 0.11138058 -0.093863815 0.10162419
0.023947414 0.16438 0.033783387 -0.020946426 0.04783088 -0.0066824565 0.06928107 0.11413838
0.117309034 -0.001777921 0.024174986 -0.019866299 -0.005780421 -0.002163295 0.0018517458 -0.12934285
-0.0454381 0.10235278 -0.04903566 0.08956618 -0.04506617 0.07652294 -0.14367996 -0.015547636
-0.027913969 0.013852077 -0.01077771 -0.14434381 0.07676033 0.0044995467 -0.000249316 0.04700155
-0.08477349 0.047544446 0.0057242583 -0.004813693 -0.11867109 -0.016099107 0.055701133 0.108358026
00000000: d0b7 3f3c 7ce9 053c 6ada 953d a59e 84bc
00000010: 8353 10bd a044 cabd f0b7 56bd 627b 7d3d
00000020: fade 0f3e 254e eabd cd78 cd3c 9985 a5bc
00000030: c483 a83d 76dd a1bd fb71 d2bc c5db fbbc
00000040: e846 45bc d729 43bd 4ed5 8f3d 3089 8fbd
00000050: d7bc bc3c 3572 85bd a584 a53d 15d9 3d3e
00000060: a69f 0ebe 274e e73d 25c3 323d 574c 9dbd
00000070: 83ad e4bd 54b1 f9bd a5c5 003e 3599 db3d
00000080: 715d d0bc 7714 e13b 6637 813d 85a7 75bc
00000090: dd11 fabd f085 c8bb f3b8 1fbd d6c7 17be
000000a0: 1be9 79bd 5e2e 4a3d e2c9 203d aab0 c7bd
000000b0: 9636 37bd 6712 013d 3f08 d93d cffd 153e
000000c0: d970 e339 e352 8c3d 1dc1 2abd c8cf a33c
000000d0: a1ce 05be 636d de3d 6d71 f03d fa4d 07bd
000000e0: 9ec5 b9bc 276e 353d bc6f 423e b267 453c
000000f0: 6237 5cbc 75dd 4e3d 7195 febd 3587 473c
00000100: 06d4 8a3a 1819 343d 59ad 19ba 2c64 42bd
00000110: ca10 aabd bd40 57be 9a22 5dbd 011e acbc
00000120: 4a17 a9bd aa12 ac3d b712 0f3d ba7c bb3c
00000130: 578e 883c ba97 163d b53f 443d bcc8 27bd
00000140: 23dc 11be e0d5 073d dc30 a3bb bf6d d5bc
00000150: 5ef4 d3bd f4b8 b83d 20d1 a23d ef59 153d
00000160: d427 313e 451d 65bd ed1d 953d a151 6b3b
00000170: 1aab 2a3d 3e8a d03d ceed 9f3d edc2 3f3d
00000180: 6f9a 0dbe 25b1 5a3e da0a 0bbe 5c09 233a
00000190: 5fc7 5e3d ca39 00be fdf2 f2bd 3fd1 f139
000001a0: b754 96bd ed0a 36bd 949b 88bd 580e f33d
000001b0: c556 073e 734e 3d3d b03c 6abd 7e45 bd3d
000001c0: 20c4 2f3a 9f4a 1e3c a655 6cbd 3125 b03c
000001d0: 6f1e c0bd d4b2 00be e625 7abc 0876 93bd
000001e0: 0b23 b5bc 774d 153e b70d 713d d8cb bfbc
000001f0: e971 2abc 226a c53c f855 ddbc 4b30 b9bb
00000200: a8de a1bd b488 d63c acc4 443d e666 963d
00000210: cee1 d3bd f067 eb3b de23 c53d 9534 a13d
00000220: 47b2 c5bd f68a afbc 36e1 53bd acc8 b0bd
00000230: 1a5f d53d 25f7 e8bb 8ffc 0ebd d1b8 d5bd
00000240: 294d 363d bbac 8e3c 58bc 08bd 6bf1 333e
00000250: 4d7f 173d 0427 113e df84 f4bc e3a7 753d
00000260: bbb5 ff3c 9f2d 083d ec58 62bc 09bb d33a
00000270: f8d5 c03d 8822 ff3b 4aff fcbd 49ae cdbd
00000280: bb11 c93c 9fa0 c3bc bc75 a5bb 7d29 23bc
00000290: 411e a03d 41a2 26be 6f7b 983d ab31 40bd
000002a0: 1257 6bbc f85d 4fbd 5041 73ba 881e 413d
000002b0: 8348 a3bc 3d71 03bd eff0 0e3d 05dc d53d
000002c0: 8e4f 6f3d a1f0 acbd 291a cdbd fd93 f9bd
000002d0: d704 643d 4de9 403b a896 2a3e 4c50 01bd
000002e0: 6ba2 1f3d 9014 abbd 1b5c 1c3e 5b18 0dbd
000002f0: c4df 71bd a629 81bd acc7 25bd c24f 24bb
00000300: 941e bebc 4d55 f93d cc5c b1bd 533d c43d
00000310: d8db d63c 248b 5bbd 9766 8b3c f842 2f3d
00000320: 4d63 773d 6441 aebd e066 ba3d 1169 16bd
00000330: 39c6 bc3c d96f 51bd f763 043d bf28 4e3d
00000340: d93d 173e 47c2 ab3c ec0d 5dbd 4b41 a4bd
00000350: e7ea fcbc 801b e43d ac3b c0bd 5820 d03d
00000360: 5e2d c43c 3b53 283e 7360 0a3d d797 abbc
00000370: 50ea 433d 82f8 dabb 3ce3 8d3d 62c1 e93d
00000380: b83f f03d 2109 e9ba 9f0a c63c a6be a2bc
00000390: b069 bdbb 11c6 0dbb 47b6 f23a 7472 04be
000003a0: 4d1d 3abd 569e d13d 9ed9 48bd 796e b73d
000003b0: 4e97 38bd 0fb8 9c3d d720 13be 83bb 7ebc
000003c0: d6ab e4bc d2f3 623c fe94 30bc ddce 13be
000003d0: 8534 9d3d ef70 933b a1b6 82b9 b384 403d
000003e0: b99d adbd f7bd 423d 8f92 bb3b 2fbc 9dbb
000003f0: d409 f3bd 46e2 83bc df26 643d d0ea dd3d

weight f4 [256, 256]
0.00726995 -0.0115237655 0.014843688 0.035821907 -0.035285328 -0.032477483 -0.004350324 0.03835484
-0.039555587 -0.045032293 -0.017874854 0.032174516 0.03601665 -0.05156323 0.017463379 -0.013753106
-0.0115528535 0.0020545877 -0.06270306 -0.022296822 -0.004491093 0.041282747 -0.010050794 -0.0681999
0.03315095 0.008552706 -0.015718604 0.06072596 0.030581854 0.08987499 -0.013723297 -0.03293215
0.06043281 -0.03813049 0.017895205 0.014464754 0.033395227 -0.003743725 -0.030040683 0.02941658
-0.06592021 -0.009234509 -0.004001009 0.0049684825 0.039402578 -0.00056265877 0.029977785 0.06873245
0.056955554 0.0062354244 0.029249478 -0.0105024185 0.0035942588 0.008659724 0.022821266 0.06507264
0.041900087 -0.022659121 -0.035969395 0.00824231 0.012192549 -0.0502354 0.006102039 -0.029028898
0.008997467 -0.039315194 -0.0073883794 0.045114 -0.032758147 0.015107849 -0.0126200775 0.038053848
-0.029292144 -0.033473648 0.03777212 0.07914973 0.006245021 -0.02279364 0.02284556 -0.00651304
-0.022846315 0.03377004 0.029435774 -0.07380131 0.036522537 0.013447279 -0.017462093 0.002648882
0.06248424 0.013643506 -0.01082279 -0.041282848 0.03136484 -0.018631443 0.024025625 0.014530776
-0.028710144 -0.023299562 -0.0021665187 -0.04204812 -0.028492607 -0.055204373 0.01233251 -0.015761435
-0.013197247 0.014198981 -0.020590851 -0.030477565 -0.0545219 -0.060350925 -0.087443806 -0.028612202
0.13126658 0.014686822 0.03509248 0.06812565 0.018617911 -0.01927853 0.05005136 0.02225311
-0.004000774 -0.03307783 -0.03504337 -0.01083146 -0.003425625 -0.03102376 0.004414438 -0.01006725
-0.009075006 0.0004397383 0.02881479 0.08035918 -0.005979452 0.025704183 -0.01003597 0.03725507
-0.026565872 -0.0032166298 -0.026183162 0.01225508 -0.022321261 0.038598277 -0.004842795 -0.013667551
0.040912144 -0.038549226 -0.06493391 -0.03338019 -0.032625556 -0.0283303 -0.004407072 0.023148201
-0.0358663 -0.033063304 0.035158552 -0.048296917 -0.011315037 0.018556518 -0.0115615325 0.022008274
0.008917231 0.021215212 -0.017448947 -0.012698212 0.021215305 -0.0056076488 -0.027180338 -0.060948677
-0.027057199 -0.030214677 0.030944986 0.05609575 0.02412754 0.023438752 0.014368424 0.013018899
-0.021976486 -0.012598571 0.027532673 0.040929735 0.0038944946 -0.025074754 0.012001031 -0.004710041
0.05842942 0.03679316 -0.023796733 -0.0012370201 0.0034179725 -0.01599187 0.0040946184 -0.021464989
0.02366092 -0.011823088 -0.033763237 0.006306809 0.020336317 -0.011400496 0.023633027 -0.022949303
-0.02620881 0.0038052138 0.045705948 -0.03328485 -0.023640227 0.03494185 -0.038627673 0.029774595
-0.06426239 0.0038583484 0.06306724 -0.0023710043 0.005146943 -0.013188122 0.0009345566 -0.015370513
0.06203726 -0.010929234 -0.014836822 -0.08890033 -0.015038752 0.054929163 0.023572203 0.01157169
0.06580993 0.006283438 0.023146434 0.065134935 0.014683948 0.04897737 -0.0037467529 -0.030834971
-0.047014184 0.033051647 -0.010512074 0.027059598 -0.00691399 0.0067610224 -0.045331936 -0.015004801
-0.018320097 0.025463559 -0.007415622 0.030510271 -0.0050633545 0.0036363688 0.00510221 -0.052346993
-0.029466651 -0.04731842 0.042956088 0.01029612 -0.020453634 -0.04478667 0.004838783 -0.014565665
00000000: c338 ee3b 2dce 3cbc f132 733c feb9 123d
00000010: 5987 10bd 1c07 05bd 2a8d 8ebb f719 1d3d
00000020: 0a05 22bd c873 38bd 496e 92bc 6dc9 033d
00000030: 3286 133d f733 53bd 5c0f 8f3c b554 61bc
00000040: 2e48 3dbc 43a6 063b 766a 80bd d3a7 b6bc
00000050: 052a 93bb 1918 293d 16ac 24bc 64ac 8bbd
00000060: 4ac9 073d a620 0c3c 4dc4 80bc c9bb 783d
00000070: cc86 fa3c 6110 b83d aed7 60bc dde3 06bd
00000080: 6588 773d b72e 1cbd f798 923c 93fd 6c3c
00000090: 6fc9 083d 4859 75bb e117 f6bc 0afb f03c
000000a0: 2d01 87bd 574c 17bc e51a 83bb a7ce a23b
000000b0: 9964 213d 647f 13ba f993 f53c 99c3 8c3d
000000c0: 3a4a 693d 8852 cc3b 9a9c ef3c 5612 2cbc
000000d0: a88d 6b3b 84e1 0d3c aaf3 ba3c ce44 853d
000000e0: 6d9f 2b3d 9f9f b9bc a554 13bd c10a 073c
000000f0: 42c3 473c a3c3 4dbd 9df3 c73b 03ce edbc
00000100: 1d6a 133c f808 21bd 381a f2bb 75c9 383d
00000110: 682d 06bd e986 773c 71c4 4ebc 5ade 1b3d
00000120: 14f6 efbc aa1b 09bd f0b6 1a3d 4119 a23d
00000130: 08a3 cc3b bab9 babc 9d26 bb3c 576b d5bb
00000140: 3228 bbbc 7452 0a3d 4b23 f13c 2425 97bd
00000150: a898 153d fa51 5c3c aa0c 8fbc de98 2d3b
00000160: 79ef 7f3d 0389 5f3c 1252 31bc 3418 29bd
00000170: 6b78 003d f8a0 98bc 63d1 c43c 7e12 6e3c
00000180: 8931 ebbc b9de bebc 27fc 0dbb a63a 2cbd
00000190: 5469 e9bc fb1d 62bd 4c0e 4a3c 201e 81bc
000001a0: 4439 58bc d8a2 683c 25ae a8bc 16ac f9bc
000001b0: 5b52 5fbd 8832 77bd bd15 b3bd 2364 eabc
000001c0: bf6a 063e ffa0 703c 22bd 0f3d 7685 8b3d
000001d0: 9784 983c 02ee 9dbc a802 4d3d 274c b63c
000001e0: ed18 83bb 9e7c 07bd a389 0fbd 7076 31bc
000001f0: 7380 60bb 8a25 febc fda6 903b 1bf1 24bc
00000200: 55af 14bc ad8c e639 ff0c ec3c 5b93 a43d
00000210: 47ef c3bb 9491 d23c e96d 24bc c698 183d
00000220: aca0 d9bc 18ce 52bb 127e d6bc 88c9 483c
00000230: 14db b6bc 3a19 1e3d 4fb0 9ebb dded 5fbc
00000240: 7e93 273d cbe5 1dbd 12fc 84bd abb9 08bd
00000250: 60a2 05bd f214 e8bc 3369 90bb 4ca1 bd3c
00000260: 8be8 12bd 636d 07bd 6a02 103d fdd2 45bd
00000270: b462 39bc d703 983c 956c 3dbc b24a b43c
00000280: 9419 123c 86cb ad3c 18f1 8ebc 290c 50bc
00000290: b8cb ad3c 5ec0 b7bb 4da9 debc 52a5 79bd
000002a0: 0fa7 ddbc c584 f7bc 5780 fd3c a8c4 653d
000002b0: 1ea7 c53c a002 c03c 8a69 6b3c 384d 553c
000002c0: 0808 b4bc 3d6a 4ebc 338c e13c f0a5 273d
000002d0: c73a 7f3b 9269 cdbc f99f 443c b056 9abb
000002e0: b053 6f3d 6db4 163d 5ef1 c2bc 8223 a2ba
000002f0: 1000 603b 6201 83bc 262c 863b 58d7 afbc
00000300: 8cd4 c13c a0b5 41bc 524b 0abd 59a9 ce3b
00000310: 5998 a63c 25c9 3abc 0d9a c13c 2d00 bcbc
00000320: dcb3 d6bc e560 793b 2936 3b3d b255 08bd
00000330: 26a9 c1bc 2f1f 0f3d 0d38 1ebd dae9 f33c
00000340: 009c 83bd 58dc 7c3b 6629 813d da62 1bbb
00000350: b0a7 a83b fe12 58bc 08fd 743a 9bd4 7bbc
00000360: c81a 7e3d 8810 33bc 2416 73bc 6011 b6bd
00000370: 1965 76bc 67fd 603d 7e1a c13c 3097 3d3c
00000380: 5bc7 863d 4ce5 cd3b 979d bd3c 7765 853d
00000390: f194 703c 7f9c 483d 158c 75bb 9f99 fcbc
000003a0: f291 40bd 2a61 073d d63a 2cbc 17ac dd3c
000003b0: c08e e2bb 918b dd3b fbad 39bd b2d6 75bc
000003c0: 0714 96bc f498 d03c bffe f2bb adf0 f93c
000003d0: 7fea a5bb 2550 6e3b 7130 a73b cd69 56bd
000003e0: 0c64 f1bc f6d0 41bd b9f2 2f3d 0fb1 283c
000003f0: 618e a7bc 3a72 37bd a78e 9e3b d4a4 6ebc

bias f4 [256]
-0.029459868 0.009688551 -0.01886587 0.039642833 0.051780842 0.04109448 -0.010794313 0.00081617146
0.004354792 0.019248681 -0.004018606 0.011368544 0.042543598 0.005400035 0.06527961 0.020892806
-0.047349762 0.011328988 0.0057125445 0.007663442 0.028643863 -0.046813373 -0.00054816884 0.001968332
-0.0044501973 0.03423546 -0.0013398472 -0.034358516 0.0044408035 0.04293807 5.0374772e-05 -0.003012367
-0.0019681412 -0.03221008 -0.0038621563 -0.033509508 0.0056581544 -0.006995306 0.050022267 0.034056965
0.022634456 0.028839035 -0.0012127389 0.011300356 -0.024844153 -0.004733549 0.0017703356 0.009625033
0.034085225 -0.013522556 0.0033181014 -0.01062608 -0.015249351 0.005686448 -0.011953225 0.016202226
-0.0010482442 -0.02264377 -0.037952736 -0.00091361394 0.01566079 -0.012695826 0.028353855 -0.009971515
-0.013053919 0.040008184 0.013605054 -0.02515532 -0.036488205 0.069677316 -0.027916769 -0.0071219523
-0.03804266 -0.0101229865 -0.03233223 0.041509308 -0.046869233 0.08069643 -0.056325354 -0.023506666
-0.027046133 -0.005621856 0.035741333 0.016874205 0.026397124 -0.008657882 -0.009577633 -0.044815473
-0.027558466 0.027665175 -0.0061339466 0.01575501 -0.029861283 0.010439012 -0.0018905535 -0.011281127
0.056999516 0.019673595 -0.0033935565 -0.012722209 -0.008170114 -0.030970478 -0.014945342 -0.015287245
0.061678417 0.007435054 0.0019122525 0.013991489 -0.0265392 -0.024016004 0.023546567 0.034695443
0.025560124 -0.062003635 -0.032562863 0.013862765 -0.014106444 -0.020487562 0.0035249898 -0.05810068
0.0094779795 0.0072091753 0.0343321 -0.0093892375 0.030072294 -0.007373571 0.020215295 0.038608387
0.026802761 -0.022207404 -0.049636655 0.064983636 0.03593131 0.036933508 0.006876884 -0.006648088
-0.048050467 -0.020570103 -0.013225197 0.0057475865 0.0009966524 -0.0053174216 0.050760247 0.038411323
0.0072815246 0.016075337 -0.022801092 -0.028087622 -0.018077545 -0.0011707976 0.020430632 0.029638471
0.022657553 0.043257482 0.05048553 0.0053219167 0.009474892 -0.03126935 -0.0136827575 0.015576799
0.025842793 0.013568549 0.005625029 -0.01663326 -0.035373192 -0.01244774 0.014101806 -0.009664103
0.0070977886 -0.022543894 0.019151071 -0.015901452 0.010585219 -0.0113979485 -0.05289006 0.037821956
0.021318726 -0.027509479 -0.023984525 0.000763968 -0.011292227 -0.021197055 0.006968032 -0.030928861
-0.06312159 -0.010678955 0.052984025 -0.031548202 -0.00778461 0.0002829042 -0.03550244 0.0026723002
-0.03498507 0.035289675 0.0012985679 0.034789007 -0.029241199 0.034879085 0.022697281 -0.021539912
-0.020268133 -0.053036895 0.016717508 0.022351593 -0.003201704 -0.051779002 -0.00038803133 -0.018561278
0.022348246 -0.031063752 -0.010460162 0.0034954029 0.013140494 -0.038347315 -0.014005306 0.04013447
-0.04354818 -0.026528144 0.015860567 -0.008280333 -0.02258037 0.047397863 -0.013474212 -0.01921645
-0.026364597 -0.014235632 -0.029899396 0.021149943 0.00010705533 0.05294674 0.048020672 -0.004666206
-0.03339408 0.017882006 0.07232417 0.016740086 0.040948097 -0.00793487 -0.03317593 0.007959805
-0.06277522 0.00041776203 -0.0007998343 0.010835956 -0.0025991437 0.010666558 -0.024006693 -0.01971094
0.03747714 0.0011006632 0.0312921 0.020538993 0.009038464 -0.0017534121 -0.014889944 0.031900365
00000000: d255 f1bc babc 1e3c 998c 9abc 8660 223d
00000010: 2618 543d af52 283d a1da 30bc 57f4 553a
00000020: a5b2 8e3b 69af 9d3c 83ae 83bb 2143 3a3c
00000030: 3242 2e3d c7f2 b03b 51b1 853d 6427 ab3c
00000040: d3f1 41bd 389d 393c 4c30 bb3b 9c1d fb3b
00000050: 89a6 ea3c 61bf 3fbd fdb2 0fba 22ff 003b
00000060: f6d2 91bb 7b3a 0c3d d09d afba 84bb 0cbd
00000070: 2984 913b d4df 2f3d 8049 5338 226b 45bb
00000080: eefb 00bb b8ee 03bd 3b1c 7dbb 4441 09bd
00000090: 0a68 b93b e138 e5bb 26e4 4c3d 517f 0b3d
000000a0: e56b b93c d73f ec3c c4f4 9eba 2125 393c
000000b0: f785 cbbc e31b 9bbb 9b0a e83a 50b2 1d3c
000000c0: f39c 0b3d b68d 5dbc 8174 593b 0319 2ebc
000000d0: 6ad8 79bc 6255 ba3b 76d7 43bc 88ba 843c
000000e0: 3d65 89ba 6d7f b9bc 5474 1bbd 987f 6fba
000000f0: 0f4b 803c 2702 50bc 5846 e83c 915f 23bc
00000100: 1be0 55bc 9fdf 233d bbe7 5e3c 8812 cebc
00000110: a874 15bd fbb2 8e3d b5b1 e4bc 445f e9bb
00000120: 9fd2 1bbd e2da 25bc cd6e 04bd aa05 2a3d
00000130: f4f9 3fbd 2b44 a53d 6ab5 66bd 0d91 c0bc
00000140: da8f ddbc 8c37 b8bb 8165 123d c63b 8a3c
00000150: c83e d83c cad9 0dbc 81eb 1cbc 6e90 37bd
00000160: 4bc2 e1bc 14a2 e23c 46ff c8bb a710 813c
00000170: a69f f4bc 6408 2b3c 73cc f7ba 7ad4 38bc
00000180: 5378 693d 852a a13c 6e66 5ebb d070 50bc
00000190: f1db 05bc cdb5 fdbc 4fdd 74bc 5a77 7abc
000001a0: 82a2 7c3d c1a1 f33b 8ca4 fa3a 8f3c 653c
000001b0: bd68 d9bc 36bd c4bc bbe4 c03c cf1c 0e3d
000001c0: 7763 d13c 86f7 7dbd a360 05bd a720 633c
000001d0: b71e 67bc 88d5 a7bc 8403 673b fbfa 6dbd
000001e0: 8749 1b3c f23a ec3b d19f 0c3d 51d5 19bc
000001f0: 2c5a f63c ff9d f1bb 8c9a a53c d423 1e3d
00000200: 7791 db3c 4dec b5bc ce4f 4bbd 2416 853d
00000210: b62c 133d 9747 173d 7c57 e13b 34d8 d9bb
00000220: 91d0 44bd a282 a8bc 7fae 58bc 4056 bc3b
00000230: 1ba2 823a c43d aebb fae9 4f3d 3155 1d3d
00000240: db99 ee3b 6db0 833c 5bc9 babc 0318 e6bc
00000250: 5c17 94bc 7375 99ba 245e a73c 61cc f23c
00000260: 559c b93c c22e 313d eac9 4e3d 7963 ae3b
00000270: 943c 1b3c 4a14 00bd a52d 60bc d535 7f3c
00000280: 44b4 d33c 9f4e 5e3c 2a52 b83b 7942 88bc
00000290: 7be3 10bd 9bf1 4bbc 430b 673c 3056 1ebc
000002a0: 9194 e83b f9ad b8bc b5e2 9c3c c343 82bc
000002b0: a06d 2d3c 76be 3abc 3fa3 58bd 32eb 1a3d
000002c0: 9ca4 ae3c 8f5b e1bc 327b c4bc 0645 483a
000002d0: 0803 39bc 72a5 adbc 1754 e43b 865e fdbc
000002e0: e445 81bd c9f6 2ebc c705 593d b038 01bd
000002f0: 0b16 ffbb c252 9439 026b 11bd c221 2f3b
00000300: 814c 0fbd e88b 103d b534 aa3a eb7e 0e3d
00000310: 3d8b efbc 5fdd 0e3d a6ef b93c 7874 b0bc
00000320: 5b09 a6bc 373d 59bd 28f3 883c b01a b73c
00000330: aed3 51bb 3816 54bd af70 cbb9 d20d 98bc
00000340: ab13 b73c 6979 febc 1961 2bbc 2113 653b
00000350: 3a4b 573c 1312 1dbd 8376 65bc 0b64 243d
00000360: 945f 32bd 8d51 d9bc 05ee 813c 3caa 07bc
00000370: 78fa b8bc 4324 423d f1c2 5cbc d16b 9dbc
00000380: 91fa d7bc 913c 69bc 94ef f4bc a542 ad3c
00000390: e582 e038 aede 583d 53b1 443d f9e6 98bb
000003a0: 3bc8 08bd 497d 923c b21e 943d 8122 893c
000003b0: 31b9 273d 4201 02bc 7ce3 07bd d869 023c
000003c0: 4b90 80bd 1207 db39 f9ab 51ba 4b89 313c
000003d0: 6556 2abb c9c2 2e3c afa9 c4bc d678 a1bc
000003e0: a181 193d 2144 903a 252c 003d 6441 a83c
000003f0: 1116 143c bfd2 e5ba f4f4 73bc f5a9 023d
