outputs/2023-09-24-20-37-59/trained_model/tetris_epoch3153_score16800.pt (torch, 842187 bytes, 8 tensors)

weight f4 [32, 1, 4, 4]
00000000: c1be 943d b9be 2d3c 628c 99bc 4c48 a43b
00000010: 10ac 06bd c9cd 683d 195d 2bbc 7249 4c3d
00000020: 3dcc 41be 9824 0a3e b427 4a3e ce99 dd3b
00000030: 21a7 9b3d f329 193e 6585 283e 869b 09bd
00000040: 5bba c73e ec38 1cbd b5cf 13bf 0f51 93be
00000050: c46b b7be 3de4 1a3d 7725 5bbe e569 433b
00000060: e499 053e 5cc1 cdbe 2036 c9bc 8264 b4be
00000070: cc7c f4bd 833c 963c 35c1 ba3d 988c 20bf
00000080: 252b 9c3d 01c8 473d 9245 41bf 9447 33be
00000090: 6bde 8ebd 48c1 92be 4357 093e e090 94be
000000a0: 35ae 9b3d 1cbe 983e 6309 a23d 1947 55bd
000000b0: 5782 c2bd 2ba8 03be 0104 dfbd 1384 99bd
000000c0: 8e8b 4cbe a7ec dbbe 1332 32bd 3ffd e33c
000000d0: ccd0 0c3e 7568 ddbd 3644 793e 76bc 043e
000000e0: 87b1 1cbe 1c4e ba3d 8b07 fbbe a1dc a33d
000000f0: 8ab8 5cbe cdde a6be 7c9c d3be 1bed 103e
00000100: 5081 fcbd 5b85 27bf ecc3 28bd 5803 1bbd
00000110: d7d8 873d 6883 f33d 96af 0f3e ddaa 6b3d
00000120: c08e 893e 7581 6cbf c293 9f3e 5b86 a4bc
00000130: 76e2 4dbd 459c a2bd ee61 4bbb 514b 48bc
00000140: 8096 21b7 8854 873d 80e7 1cbe 16d3 5ebd
00000150: 15d8 453c ebad dbbc 500e a53e b7d3 513f
00000160: c052 993c ee27 563c 7c17 94be 9242 3dbf
00000170: b1f0 8dbc fb1d 02bd 5288 f3bd 0709 0ebd
00000180: 0199 4c3d 26cb be3c 48dc 0a3e 84b7 913e
00000190: 59a7 843d 269f 9cbb e431 5b3e 20c2 febe
000001a0: ac98 ab3d 39ac 9a3d 7347 e339 2a78 1ebf
000001b0: 29ea 7dbd 0e05 4c3b cf6c 8d3d 9723 90be
000001c0: 1892 6b3c 783c 0e3c 09d3 2e3e 3951 63be
000001d0: d72e a63d 1acd a53d 489c 37bf aab9 f5be
000001e0: a703 c1bc e1f7 bb3d ca59 a8be 397d 3bbe
000001f0: 6397 abbc 7e36 533e dacf 95be 9c34 11bf
00000200: 29d8 eabd e3d9 713d 5c70 b8be 2c69 18be
00000210: 4264 f93d b3b4 503e 6e81 253e 6740 7fbe
00000220: cacf 1fbd 7108 ff3d 775e acbe 2805 53bf
00000230: 69ee e43d 955a 97bd 2c8f 9fbd f2f2 ce3c
00000240: c214 b6bd 5f36 993c e256 223c 53b7 6d3d
00000250: 0a60 d4bd 78d1 38be fc92 e9be c26e 653c
00000260: 6737 c2bd 087c f13e 67af 4e3e 67f8 5fbd
00000270: 9711 793d b52c 78bf f950 c03d 7963 e83c
00000280: 7908 f33c ec74 95bd a09c 7fbd 4558 80bd
00000290: 22c1 d9bc f902 503d 2855 8bbe 3346 d03a
000002a0: 32d8 85bd d241 223c 4ab3 183f 2b13 81bd
000002b0: 013f cebb 5618 51bd c423 36bf ad3a 96bb
000002c0: 3fa8 5bbe 77dc aabe e2f6 a6be 0ad9 febd
000002d0: 8e0e 8dbd b2a0 93be 6b3e 903b e2d5 6e3e
000002e0: 918d 74bd 90ba 1a3d f5db 0d3e 6493 19bf
000002f0: a0e0 453d 7187 2ebd fa10 ae3d 40e4 e5be
00000300: 2fe6 033e 0856 c5bd c1d6 ebbb c1ac d3bd
00000310: 5299 0fbc 5e48 023f 93a6 8ebd b6e9 d4bc
00000320: 0ac7 4b3d ba2b 0ebf c708 6b3e 228a afbc
00000330: 6490 debd 6c6a 01bf d356 2cbe 0574 913c
00000340: 9239 86bc 04b4 37bd 134e b4bc 48ed 413c
00000350: 5401 e53a e6d3 293e f3ad cf3d 28f9 333b
00000360: 6e84 8f3d 8124 663f b136 bbbc 08fc 333d
00000370: ac1d 37bc e4ce b3bf f107 ad3d f127 37bc
00000380: d973 a03c fc4d ff3e 6ac4 333d 3e68 183a
00000390: a7ac 39bc d00a 3f3f 2a12 8dbc 0170 953a
000003a0: f938 463b da11 a6bf b22a 0e3b 65a3 bcbb
000003b0: fd28 dbbc d521 edbc e657 f1bc 045d ccbc
000003c0: 4970 85be be79 7abd f227 f53d 1ced ebbd
000003d0: 3f28 97bd 3f49 75be 0536 75bd 6864 f6bc
000003e0: 527e 203e 6946 2b3e 0129 ef3d b976 123e
000003f0: 2ec6 30bb 8531 c13d 3be0 92bc 86d8 103e
0.07262946 0.010604554 -0.018743698 0.0050135013 -0.032878935 0.056836877 -0.010459208 0.04987473
-0.18925567 0.13490522 0.19741708 0.0067627197 0.07600237 0.14957409 0.16457136 -0.033595584
0.39009365 -0.038140222 -0.5773881 -0.2877278 -0.35824406 0.03781532 -0.2140101 0.0029817757
0.13046986 -0.40186584 -0.024561942 -0.3523293 -0.119378656 0.018339401 0.091188826 -0.6271453
0.07625417 0.048774723 -0.7549678 -0.17507774 -0.069760166 -0.28663087 0.13412194 -0.2901678
0.07601587 0.29832542 0.079119466 -0.052069757 -0.094975166 -0.1285712 -0.108894356 -0.07495894
-0.19975111 -0.4295399 -0.043504786 0.027830718 0.13751525 -0.10810939 0.24342427 0.12962517
-0.15302096 0.090969294 -0.49029192 0.08001066 -0.21554771 -0.32591859 -0.41330326 0.14152949
-0.12329352 -0.6543786 -0.04120247 -0.037844986 0.06633156 0.11890298 0.14031824 0.057535995
0.26866722 -0.92385036 0.31167418 -0.020083597 -0.050264798 -0.07939962 -0.0031033712 -0.012224988
-9.631389e-06 0.0660792 -0.15322685 -0.054400526 0.012075444 -0.026816329 0.32237482 0.81963676
0.018716216 0.013071043 -0.28924167 -0.73929703 -0.017326685 -0.031766873 -0.118912354 -0.034676578
0.049950603 0.023290228 0.13560593 0.28460324 0.064772315 -0.004779714 0.2140575 -0.4975748
0.08378729 0.0755238 0.00043350048 -0.61902106 -0.06199089 0.0031130943 0.06905519 -0.28152153
0.014378093 0.008681409 0.17072691 -0.22198953 0.08114403 0.08095761 -0.7172284 -0.47993213
-0.023561312 0.091781385 -0.32881004 -0.18309487 -0.02094621 0.20626256 -0.2926014 -0.567209
-0.114670105 0.059045684 -0.36023223 -0.1488387 0.12177326 0.20381431 0.16162655 -0.24926911
-0.039016522 0.12452782 -0.3366582 -0.8242974 0.11178286 -0.07390324 -0.0779098 0.02526233
-0.08890678 0.018702684 0.00990841 0.05803616 -0.103698805 -0.18048656 -0.45619953 0.0140034575
-0.094832234 0.4716494 0.20184098 -0.054680254 0.06080779 -0.9694322 0.09390444 0.028367745
0.029667126 -0.07297692 -0.06240523 -0.06266836 -0.02658135 0.050784085 -0.27213407 0.0015890062
-0.065353766 0.009903388 0.59648573 -0.06302484 -0.0062941317 -0.0510486 -0.71148324 -0.0045846314
-0.214509 -0.33371326 -0.32610232 -0.12443741 -0.06887542 -0.28833538 0.004401972 0.23323777
-0.05970532 0.037775576 0.13853438 -0.59990525 0.048309922 -0.042609636 0.08499332 -0.44900703
0.12880777 -0.0963555 -0.0071972315 -0.103356846 -0.008764582 0.50891674 -0.06965365 -0.025990348
0.049750365 -0.5553547 0.22952567 -0.021428172 -0.10867384 -0.5055301 -0.16829996 0.017755518
-0.016384874 -0.04484941 -0.022009885 0.011836357 0.0017471709 0.16584739 0.101406 0.002746174
0.07007681 0.8989945 -0.022853227 0.043941528 -0.011176508 -1.4047513 0.0844878 -0.011178956
0.01958649 0.49864185 0.043888487 0.0005813873 -0.011332667 0.74625874 -0.017220575 0.0011401178
0.003024636 -1.2974198 0.002169293 -0.005756783 -0.026752943 -0.028946796 -0.029460859 -0.024946697
-0.2606223 -0.06115126 0.119705096 -0.115198344 -0.07380723 -0.23953722 -0.05986597 -0.030077174
0.15673187 0.16726078 0.11677743 0.14303102 -0.0026973593 0.09433273 -0.017929187 0.14145097

weight f4 [32, 32, 5, 5]
00000000: 8a58 3c3e 85b6 3abe 61e5 823d 8494 e83d
00000010: 6cda 173e 7c95 393e 099f 77be 859d ea3c
00000020: d774 6cbd 6c6e 85be bc8c 903d b9de b5bd
00000030: 9345 4f3d 68a0 86be 84a9 003d c235 51bd
00000040: bfd7 fcbe cad5 a7be 3c46 03bc 9b4b 71be
00000050: 2137 343d 1960 a23d 32ad 25be 218b 643d
00000060: 106a d53d b68f 473e 3031 5ebe b9f2 3d3e
00000070: e211 8c3e cfcf b33e c11e 5d3e db91 d03e
00000080: 82d6 0bbe df52 3abd cf54 c33d e42e 2d3e
00000090: d0a1 e8be 44bb cbbe 7321 0c3e fd6b a8be
000000a0: 38db cebc 7251 043e 5c28 8bbd b7ba 113c
000000b0: 474d b2be 9990 3fbe 7769 053f 612e 49bc
000000c0: 12cd 623e 0e24 4d3e fb1f d43d 8f9d 75be
000000d0: db13 123e f14b 263d 87c6 593e c0e3 b43e
000000e0: c399 2b3e 197b 8cbe a308 0fbf f493 8fbe
000000f0: 16ed 79bb 4281 013e 8072 08bd 3c98 3fbe
00000100: c20a 3b3d 7818 843e c6f8 d2be 805a d03d
00000110: d9de d93d e896 51be e190 a0bc 8bd8 69be
00000120: ea62 593c a45a bdbe 2f65 9c3e d86b aebe
00000130: efd6 c7be 4c4a 853e 6bd9 38bf 2430 633e
00000140: 78be f9be 7d48 193e 36ab cf3d bb7b e4be
00000150: 30e3 86be 6c1d 22bf 28ae 40be 54dd 64be
00000160: 13e4 553d dd57 23bf 6177 a7bf f95a 313e
00000170: ba14 f4be 54d0 b53d 09a5 303e a077 c8bd
00000180: d514 323e 5c8c b7bd 0929 bf3e 2eda 8cbe
00000190: 786b babd ba63 af3e c208 b33d eebd 4c3f
000001a0: 4d84 31bf 8ea6 f6be 83ac cf3e 2ddd eb3c
000001b0: 935f 203e b1c8 1b3d d23b e5be 0a7e 843d
000001c0: a706 3b3e 76bc 53be 2e2f 273f 1898 a1be
000001d0: c67d ffbd 108f fcbe f627 5bbe 36c4 92be
000001e0: b209 f43d 4c96 093e ee44 1a3e 813d c3bd
000001f0: 6411 a6bd b9f5 e3bd 5293 1d3e 34e4 13be
00000200: de86 493d 58f8 c8bc fbf7 17bd 18e9 edbd
00000210: cf14 503e dd32 093d b8ff 2ebe 1a6a b0bc
00000220: 9306 62bd b8ae 72bd 2d4a 15bd eeb0 48be
00000230: 93ef febe 8101 84bf 69e1 09bf 6cd1 cfbd
00000240: 45a4 05bf aea7 9f3d 6df4 c3bd 15f8 8dbc
00000250: 63ea 6ebe 260f f1be 611c d63e b137 db3d
00000260: 87e1 d2bc e57e e6be 421e ddbe 5681 673e
00000270: 5907 313e 57de c7be cb1b 193d 19f6 84bf
00000280: a798 3f3d 6898 7c3e f181 97be f8a1 713e
00000290: c4b9 fe3d aafc b3be 7263 5ebe 9075 97be
000002a0: f444 7e3d e209 9bbe 7245 963b ba69 703d
000002b0: a0e3 e43d 985c 8e3e 9c19 323e d63d 28be
000002c0: dd44 07bf 0fc3 013f f0fa 63be 3fd7 7ebe
000002d0: 3f9a 163e b9ae 7f3c 5483 cc3d 5b72 4f3e
000002e0: cca2 8abf 71cd 803e a4c2 b0be 2fd4 91be
000002f0: 00c4 2b3e d4e4 9bb8 f460 893e 2f72 83be
00000300: 98b0 12be 8823 ad3d 5f55 f73e 6bce a4be
00000310: 44da 5abe dcc5 a3bd 3e48 8c3e 0438 093e
00000320: d47b 543e af8d f3bd 4103 673e 25a2 933e
00000330: 0a29 8a3e e2e4 35bf 5520 18ba 8e19 2cbe
00000340: cf5c bf3c 6056 a5bd 31f8 14bf f6b9 543e
00000350: c9f6 3fbe 31b7 b23d cc9c 26bf ff7d 01bf
00000360: db9e 9cbe ae92 6abe 565d 803d d134 de3d
00000370: 8332 80be eaa8 833d cbd7 8dbc 5fda acbe
00000380: d957 bf3e 68df f03d 4bef af3d b101 88be
00000390: 3d0d 213c 71a0 fdbb c5c5 c1be 09d2 303d
000003a0: 99e2 37be 4a0f 14bf d440 4bbe 23bd 56bf
000003b0: eede 13be dfdc dcbd 618b 323c ab0e a6be
000003c0: 525b b7bd 31a8 9b3e 3e45 cfbe 99f9 9d3d
000003d0: 8063 25bf e3ff 50be fb77 403e d4a7 043e
000003e0: 854b 5abd be5e 2e3e 0d7f c83e 4000 49bf
000003f0: 3728 74bd 5d56 593e e1e1 43bc 2ca7 1ebf
0.1839315 -0.18233688 0.06391407 0.11356452 0.14829415 0.1812343 -0.24181761 0.028639564
-0.057728615 -0.26060808 0.07058093 -0.088803716 0.05060346 -0.26294255 0.031411663 -0.051076658
-0.4938335 -0.32780296 -0.008012351 -0.23563997 0.043997888 0.079284854 -0.1617935 0.055796746
0.104206204 0.19488415 -0.21698451 0.18549623 0.27357394 0.35119483 0.21593763 0.4073628
-0.13656047 -0.04548919 0.0953766 0.16912419 -0.45435953 -0.3979131 0.13684635 -0.3289489
-0.025251016 0.12921694 -0.06794807 0.008894614 -0.34824583 -0.18707503 0.5211405 -0.012279124
0.2214854 0.20033285 0.10357662 -0.23985885 0.14265387 0.040599767 0.21267138 0.3533001
0.16757874 -0.27437666 -0.55872554 -0.28042567 -0.00381357 0.12646964 -0.03331232 -0.18710417
0.045664556 0.25799918 -0.41205424 0.101735115 0.10638208 -0.20467722 -0.019600334 -0.22836511
0.013268212 -0.36983216 0.30545947 -0.34066653 -0.3903117 0.26033247 -0.72206753 0.22186333
-0.4877813 0.14969058 0.10140078 -0.4462565 -0.26345205 -0.63326144 -0.18816435 -0.22350055
0.05221946 -0.63805944 -1.3083307 0.1731986 -0.47672063 0.08877626 0.17250456 -0.09788442
0.1739076 -0.08962318 0.37335995 -0.27510208 -0.09102529 0.34255773 0.08741905 0.7997731
-0.693425 -0.48173946 0.40561303 0.028791988 0.15661459 0.03803319 -0.44772202 0.064693525
0.18264256 -0.20677361 0.65306365 -0.3156135 -0.12475161 -0.49327898 -0.21401963 -0.28665322
0.11915912 0.1343624 0.15065357 -0.09533215 -0.08108786 -0.11130852 0.1538823 -0.14442521
0.049200885 -0.024532482 -0.037101727 -0.11616725 0.20320438 0.033495773 -0.17089736 -0.021534968
-0.05518205 -0.059248656 -0.036447693 -0.19598743 -0.49792156 -1.0312959 -0.53859574 -0.10147366
-0.5220378 0.07795654 -0.09568105 -0.017330209 -0.23331599 -0.4708187 0.41818526 0.10703982
-0.025742305 -0.45018688 -0.43187147 0.22607931 0.17287959 -0.3903682 0.03738002 -1.0387603
0.04677644 0.24667513 -0.29591325 0.23596942 0.12437776 -0.35153705 -0.21717623 -0.2958188
0.062077478 -0.30280977 0.0045859152 0.05869458 0.111762285 0.27805018 0.17392582 -0.16429839
-0.5283945 0.5068826 -0.22263694 -0.24886797 0.14707278 0.015605622 0.09985986 0.20258467
-1.0830932 0.2515674 -0.345235 -0.28482196 0.16773987 -7.4335985e-05 0.26831782 -0.25673053
-0.14325178 0.08454043 0.4830732 -0.32188734 -0.21372324 -0.07996723 0.27398866 0.13400275
0.20750362 -0.118922584 0.22559835 0.28834644 0.26984435 -0.7105237 -0.00058031577 -0.16806623
0.023359684 -0.08073115 -0.5819121 0.20774063 -0.18746485 0.08726347 -0.65083003 -0.5058288
-0.30589947 -0.22907516 0.062678024 0.10849918 -0.25038537 0.06428702 -0.017314812 -0.33760354
0.3737171 0.11761361 0.085905634 -0.2656379 0.009829816 -0.0077400734 -0.378462 0.043169055
-0.17957534 -0.5783583 -0.19848949 -0.8388235 -0.1444051 -0.10784315 0.010897488 -0.32433066
-0.08952965 0.30401757 -0.40482515 0.077136226 -0.6460495 -0.20410113 0.18795769 0.12954646
-0.053294677 0.17028329 0.39159432 -0.78516006 -0.059608664 0.21224351 -0.011955709 -0.61973834

weight f4 [64, 32, 5, 5]
00000000: 62c5 373e 01a7 7e3d ef35 f0bd 8285 553e
00000010: 544d b6be 0f7f 5f3e 14d6 093e 7fb4 d73d
00000020: 7da0 ddbd 2b51 553d a7af f0bc a2f7 70be
00000030: 5f41 1ebe 38a1 723a 4c7a 203f e55d e3bd
00000040: 31ef b23d b279 183e 3644 a4bd 4bc3 a23e
00000050: bf5b 9cbd 0e39 49be 6248 4fbd 0f80 db3e
00000060: 3720 a83d 3262 df3e 7aef cebe 2e20 ecbd
00000070: 3100 91be 8125 ee3d efd5 a2bd cdf9 b83e
00000080: ce61 663e 8e0f fbbe cf99 94be ae78 95be
00000090: d24c 0b3e 545d f93e 2bac 09bd d0f5 5dbe
000000a0: 9c13 e33e 2466 b13e 8590 a1be 03ce ee3e
000000b0: b12c 0cbe 847d 02be a8ba f13e 7ca3 dd3e
000000c0: fa62 5a3e 497a 20bd 4d0a d8be 6c86 033e
000000d0: 8286 cd3e 2f17 873b 8dc6 0fbd be7d 163f
000000e0: 3ed4 a1bd d9b0 26bf 8475 f7be 2e4d 4cbf
000000f0: 50cd a33e 59bb 763d 176a b1be 26aa 9b3e
00000100: 611a 96be da8c f93c 783b cc3c 9f19 cf3e
00000110: cb50 45be ebcb 39be 0eff 1c3f 7232 5d3e
00000120: 6130 a2bd e553 053e 2870 52be c92d 85be
00000130: ea39 eabe 02ee 973c e30a 893e 86f3 b0be
00000140: 7ddb 163f 02d7 b93e e57e 9e3d f8d9 a13e
00000150: 2a9d d43e ac18 84bd d3b2 b2be 7a5a b5be
00000160: 497b 81be 9bc8 8ebf 82ec 4cbf 3946 d03d
00000170: dc85 b8bf 8154 c1be 3315 113e e24f 703e
00000180: 09a0 813d aefb 2cbe cec3 013f 356e b13d
00000190: 35c7 cdbe a6a0 9a3e 2e9c b73c a39c 7f3d
000001a0: e9ca 8f3e d54b e63c c9ce 47be 013f 773e
000001b0: 586d 023e 5b05 2c3f 0aba 813e 0ba3 b83d
000001c0: 3761 55be 1bc0 a4bd 8f7b 93be fbc1 6fbe
000001d0: 719f b53d 0ef0 9cbe d014 3fbf 4ea8 1ebf
000001e0: bd4a c9be b556 f3bd 3a1d e03b 21b1 ab3e
000001f0: bfc4 46be e1e9 4cbe 1036 10bf 85a5 51be
00000200: 8916 b43e f243 75bf 1ce8 e83e b229 86be
00000210: 7207 373e f214 cc3b 46e7 17be 88ac ba3d
00000220: 0338 153e 62cf a03e 3d15 99bd 9e3c 83be
00000230: 1671 1fbf 6ed8 4abe 29d3 e13d be5d e6bd
00000240: 6b1f acbc 7ce6 dbbe 0efa 81bd 66a5 083e
00000250: 853a 9dbc fb45 1d3e 06af f63c 4441 d7be
00000260: 787a 173c 8d12 84be a8b3 0abf c4f3 eb3d
00000270: 688e d43c bce7 383e 4910 54bd 35a2 1d3d
00000280: 6b8a 83bc ff57 523e 243d 8f3e f63f 97be
00000290: dfd6 3abe c0f7 473d 50ab 94bd 9664 3abd
000002a0: 6f90 04be fa15 e6be 3ac4 b73e 852c 273e
000002b0: fff8 013e 7b28 b7bd 2880 d9be adb3 28bd
000002c0: d895 0fbf d710 debd d1d2 64bd 5ccb 8c3e
000002d0: 746b e03e 2acf c73c 3b34 a8bc b1b6 3cbd
000002e0: c971 623e 0521 da3e fcc3 cbbe 5f3a 44be
000002f0: b7f4 ba3e 2d2e e73e e783 52be 3dc4 06be
00000300: fd90 24bc 9241 13be 84a5 9abd ac17 c43e
00000310: 0ca5 14be 31de b93d ce52 35bf 2be9 2bbe
00000320: 1be5 1a3e 3cbb 913e aaac b73b 5537 debe
00000330: 8af5 0c3d 3eb0 ba3e 2c31 78bf 9a3c 1b3e
00000340: a282 88be e4b7 2c3e 9cfe ef3e cf9c 2a3e
00000350: 2c17 073d b793 55be 7ca2 f5be c672 dd3e
00000360: 71ff 24bd 1b0b 203e d833 cbbd 8702 123f
00000370: 9f3e ab3e 3b9e 91bd ebe9 07be 2577 f23d
00000380: 4689 a9bd 4880 fe3e 7a54 6c3d 1955 51be
00000390: cd5b 9abe 52f2 ab3e b84e 7d3d 774e e13e
000003a0: 0ec3 2c3e 3c91 1abb b6de 233f a821 a83d
000003b0: 9bda 8b3e d5f0 3f3d 7aa2 eb3d 27da 263e
000003c0: bd39 cb3e 0626 1b3e 7801 4bbe 822c ac3e
000003d0: acc9 e33c bba7 263e 4f01 59be 9089 363e
000003e0: 8789 f03e 2657 bebe f1da 973e 3501 3e3d
000003f0: 23f7 c63e e239 a1bc a7fc 063f 93dd de3e
0.1794639 0.062170986 -0.11729037 0.2085171 -0.35605872 0.21825813 0.1346057 0.10532474
-0.10821626 0.05207936 -0.029380633 -0.23531964 -0.15454625 0.0009255591 0.6268661 -0.11101893
0.087370284 0.14890173 -0.08020823 0.31789622 -0.07634687 -0.19650671 -0.05060614 0.42871138
0.082092695 0.43629605 -0.4041708 -0.11529575 -0.2832046 0.11628247 -0.07950961 0.36128083
0.22498247 -0.49035305 -0.29023597 -0.29193634 0.13603523 0.48704016 -0.033611458 -0.21675801
0.44350898 0.3464824 -0.31555572 0.4664155 -0.13688923 -0.12743193 0.4721272 0.4328879
0.21326819 -0.03917912 -0.4219536 0.12844247 0.40141684 0.0041226367 -0.035101462 0.5878562
-0.0790181 -0.651136 -0.48331845 -0.79805267 0.31992579 0.060237262 -0.34651253 0.3040325
-0.29317 0.030462671 0.0249307 0.40449235 -0.19269101 -0.18144195 0.6132668 0.21601275
-0.07919384 0.13020284 -0.20550597 -0.26011494 -0.4574731 0.018546108 0.26766118 -0.34560794
0.5892866 0.3629685 0.07739047 0.3161161 0.41526157 -0.06450018 -0.34902057 -0.3542059
-0.25289372 -1.115497 -0.8004838 0.10169644 -1.4415851 -0.37759784 0.14168243 0.23467973
0.063293524 -0.16892883 0.506894 0.086635984 -0.40191045 0.3020069 0.02241334 0.06240524
0.28084496 0.028112331 -0.19512476 0.24145128 0.12737024 0.6719567 0.2533725 0.09015473
-0.20837866 -0.08044454 -0.28805205 -0.23413841 0.08868302 -0.30651897 -0.7464113 -0.6197556
-0.39314833 -0.118817724 0.0068394216 0.33533576 -0.1941099 -0.20011093 -0.5633249 -0.20473297
0.35173443 -0.958068 0.45489585 -0.26203686 0.17873934 0.006228083 -0.14834318 0.09114939
0.14572148 0.3140822 -0.07474754 -0.25632185 -0.6228193 -0.19809124 0.11026604 -0.11248349
-0.021011075 -0.42949283 -0.06346522 0.13344344 -0.019192943 0.15358727 0.030112755 -0.4204198
0.009245507 -0.25795403 -0.54180384 0.11521104 0.02594681 0.1805715 -0.051773343 0.03848477
-0.016057214 0.2054138 0.27976334 -0.29540986 -0.1824603 0.048820257 -0.07259238 -0.045506082
-0.12945722 -0.44938642 0.35891896 0.16325577 0.1269264 -0.08943268 -0.42480588 -0.041186977
-0.5608802 -0.10843056 -0.055865113 0.274989 0.4383198 0.024390776 -0.020532718 -0.046072666
0.22113718 0.42603317 -0.39797962 -0.19162892 0.36514828 0.45152417 -0.20558129 -0.13160796
-0.0100443335 -0.14380482 -0.07551101 0.3829931 -0.14516085 0.09075583 -0.70829475 -0.16788165
0.1512646 0.2846316 0.0056053 -0.4340159 0.03441385 0.36462587 -0.9695003 0.15159836
-0.26662165 0.16867024 0.4687394 0.1666138 0.032981083 -0.2085713 -0.47975528 0.43251628
-0.04028267 0.15629236 -0.09921998 0.57035106 0.33446214 -0.07110258 -0.13272826 0.11839131
-0.08278136 0.49707246 0.05769775 -0.20442618 -0.30148163 0.33583313 0.06184265 0.44005176
0.16871282 -0.0023585102 0.64011705 0.082095444 0.2731522 0.046860535 0.11505599 0.16294156
0.39692488 0.15151224 -0.19824779 0.33627707 0.027806126 0.16274922 -0.21191905 0.17825913
0.46979925 -0.37175864 0.29659227 0.04638787 0.38860425 -0.019680921 0.52729267 0.43528423

weight f4 [256, 256]
00000000: 0f70 0e3d 7526 f73c 8876 1abc 6a5f 153d
00000010: a30c b63d b212 aabc 96b9 90bd 6887 d0bd
00000020: 4cbf 573c e351 fbbd f134 85bd afee 3e3d
00000030: a604 fe3d 7587 a83d 37ff 45bd 59db 0a3d
00000040: 1b56 3abe 02e0 103e 7f94 0c3d f2b2 c6bb
00000050: 7f56 f8bd c510 403d 0077 f5bc ff40 c1bd
00000060: 6bab 963d c132 15be 334a 23be c221 07bd
00000070: 315a 133d a09e f93b e235 dabc 82d4 fe3c
00000080: 3a51 1a3f 1364 6ebe e69c 853c 8ab2 023e
00000090: a054 123c 7292 153c 8609 04bd 4249 ee3a
000000a0: bc3e b8ba f7c9 9cbe fc20 643c 440e 8abd
000000b0: 0648 9a3b df57 45bd 6c42 41be 334f 1f3d
000000c0: ac5b 95bd 0737 333d 20e5 abbd b3cf 823e
000000d0: ad36 84bc 8046 ed3b 38d7 7cbd cd84 b9bd
000000e0: a448 46bd e59d ddbe 795a 733e 44d8 40bd
000000f0: fdd2 303e 0b06 1bbb 2db7 45be 0cca 84be
00000100: 236e 9abd 8993 99bd 93ff b1bd 758e 9b3d
00000110: 973e 313e b592 68bc fd45 b73d 36f6 8bbd
00000120: 4dc5 25bd 14ff 14bd 9671 933d 2d8a 90bb
00000130: 90fe 03be 5b01 483d 2bdc 36bd e4d8 51bc
00000140: d522 383d 0226 e2bc ceea fb3d aa0f dd3d
00000150: bbdb 0ebe 098d d0bc 43f3 883b bf2e 66bb
00000160: 1c06 7dbb 31d3 393d 0e3c b2bd 32f0 d1ba
00000170: dd54 123d 4fa4 36bd 74ed 2b3d 6312 b7bd
00000180: d64f 0a3f c9b9 5fbe 3e47 3fbd c74d 9f3d
00000190: 4b6d 603e 0ded a5bd 83c9 7e3e 9602 0bbf
000001a0: 3884 e83d 962c a13d 9913 be3b 724f e13d
000001b0: 2dd9 093e a59f 403c 3601 253e d4a0 4d3e
000001c0: 8317 05bc d4f8 a3bd 5dcc 7dbd fba7 743d
000001d0: 2713 b7bd e598 f33c edbd 16bc 6729 6539
000001e0: d0f7 22be 3908 bc3d cafc 8fbe be1f 90be
000001f0: 5a12 5d3d ccc9 083d 5e5c 94bc 5f7f bebd
00000200: b8e7 ebbd 50da 06be ab09 10be 9590 6e3e
00000210: c4aa a63d decf b3bd ffb6 9abd 2609 b8bc
00000220: cc8d 29bb 6abf ac3c d564 353c e8d5 91bc
00000230: 792e c7bd ecdb 85bc 047d c13d e2be d43c
00000240: 1de0 003e 4668 643c 3bac 013d ebf5 e0bd
00000250: c887 f7bc d25d 883d 0865 b8bc 4e99 7dbc
00000260: 7bad 803d 9894 af3d 8bc2 a03d ec9c 21be
00000270: 2635 5a3d 2b73 a7bd b06d d0bd 8838 e63d
00000280: b2fd 77bd 0417 123d 8cd0 63bd 1160 a43d
00000290: 2946 d9bd bc80 343d c242 993d 209e 7abb
000002a0: fe99 b53d d49d d33d 63c6 413d 4bcf b13d
000002b0: f415 0fbe f129 fdbd fbd3 b5bb 6cd0 dabe
000002c0: 09a3 853d 9f44 843b 184b b03d ca70 a7bd
000002d0: 8805 9ebd b3bf 81bd 7de2 b63b bbc0 86bc
000002e0: 6a21 4fbe 2aba d1bd 2071 113d 76b8 edbd
000002f0: 239e b53b b7cd b03d c764 80bd 4131 e6bc
00000300: 3e45 d0bc dbd3 ccbd eea1 4a3d e454 b33e
00000310: d853 4a3c b46a 28bd 3bcd 11bd 596a 173d
00000320: b718 a2bd 8d9a 9ebe f567 263e 0718 ab3b
00000330: 4af0 65bd f8f2 cb3d dda8 d83d af6b 013d
00000340: 85fa 003e 4395 493d 51bf d73c 6f1d ffbb
00000350: d01e 743e cbba 263c 866d 6abe 1ede 2dbe
00000360: fb49 a63d eb65 203e 8a8f b0bd a64f 833d
00000370: b427 2fbd 09c9 093d 2d3a 55bd 8683 e13b
00000380: 1931 343d cda2 31bd 3436 e33d e6a7 08bd
00000390: 572b 3f3d 6577 553d 1f15 0c3d 9c74 b0bd
000003a0: 6f4c 61bd 0f0e 383d 081a 8a3d 1238 813d
000003b0: 5f68 32be 5ce9 563d d8eb a83e de89 50bb
000003c0: 844d 383e bd8b ae3c 080d e4bd aee9 57bd
000003d0: e101 46bd ba92 7b3d 1d00 d43b 95d5 983d
000003e0: 7931 f73d 9655 0f3d 4cb4 b73d e2b7 b53d
000003f0: 3ad1 943c 4cea 16bc 35b6 b83c c7af 3bba
0.034774836 0.030169705 -0.009427674 0.036467947 0.08889129 -0.020760868 -0.07066648 -0.10182077
0.013168167 -0.12271478 -0.065042384 0.046614345 0.1240323 0.082289614 -0.048339095 0.033900592
-0.18196909 0.14147952 0.034321304 -0.0060638124 -0.12125873 0.046890993 -0.02996397 -0.09436225
0.07356914 -0.14570142 -0.15946274 -0.03299118 0.035974685 0.0076177865 -0.026637021 0.031107191
0.6028019 -0.23280363 0.016310167 0.1276342 0.008931309 0.009129154 -0.032235645 0.0018179792
-0.0014056782 -0.30622837 0.01392388 -0.06741002 0.004708293 -0.048179504 -0.18872994 0.03889389
-0.07292876 0.04375365 -0.083933115 0.25549087 -0.016139353 0.0072410703 -0.061728686 -0.09058533
-0.04840912 -0.43284526 0.23764981 -0.047081247 0.17267986 -0.0023654725 -0.19308157 -0.259354
-0.07540538 -0.07498843 -0.08691325 0.07595531 0.17309032 -0.014195134 0.08948896 -0.068340704
-0.040471364 -0.036376074 0.07199399 -0.004411003 -0.12890077 0.048829418 -0.044643562 -0.012808058
0.044955093 -0.027606014 0.12300645 0.10794003 -0.13951008 -0.025457876 0.0041793897 -0.0035123078
-0.0038608378 0.045367423 -0.08702861 -0.0016017018 0.035725463 -0.04459029 0.0419745 -0.08939054
0.5402807 -0.21848215 -0.0466988 0.07778507 0.21916692 -0.081018545 0.24881558 -0.5430082
0.11353344 0.07869832 0.005800676 0.11001481 0.13461752 0.011756812 0.16113743 0.20080882
-0.008123281 -0.080064446 -0.061962474 0.05973051 -0.089392 0.029735992 -0.009200555 0.00021854565
-0.15914845 0.09181256 -0.2812255 -0.28149217 0.05397258 0.033395573 -0.01811045 -0.09301638
-0.11518806 -0.13169217 -0.14066188 0.23297341 0.0813804 -0.08779882 -0.07554435 -0.0224653
-0.002587187 0.021087367 0.0110714035 -0.017802194 -0.09725661 -0.016340218 0.09447673 0.025969926
0.12585492 0.013940876 0.031658392 -0.10984405 -0.030216113 0.0665852 -0.022509113 -0.015478445
0.06283089 0.08573264 0.07849606 -0.15782517 0.053273343 -0.081762634 -0.10177171 0.11241251
-0.060544677 0.03566648 -0.055618808 0.08026136 -0.10609085 0.044068083 0.07483436 -0.0038241223
0.08867262 0.10332838 0.047308337 0.08682116 -0.13973218 -0.12361515 -0.0055489517 -0.42737138
0.06525237 0.0040365006 0.08608073 -0.0817581 -0.07715899 -0.06335392 0.0055811987 -0.016449323
-0.2022759 -0.10240586 0.035508275 -0.11607449 0.005542533 0.08632987 -0.06269222 -0.028099658
-0.025423642 -0.10001346 0.049470834 0.35025704 0.0123490915 -0.041117385 -0.035596114 0.036966655
-0.0791487 -0.30977288 0.16250594 0.00522137 -0.05613736 0.09958452 0.10579083 0.031596836
0.12595566 0.049214613 0.026336344 -0.007785491 0.23839879 0.010176371 -0.22893342 -0.16979262
0.081195794 0.15663879 -0.08621128 0.06411676 -0.042762473 0.033638988 -0.052057434 0.006882134
0.043992136 -0.04336815 0.11094323 -0.033363245 0.04667219 0.052115817 0.03419983 -0.086159915
-0.055004533 0.044935282 0.06743246 0.06309523 -0.17422627 0.052468643 0.32992435 -0.0031820456
0.1799832 0.021306867 -0.11135298 -0.05271309 -0.048341636 0.061419226 0.00646974 0.074626125
0.12069983 0.03499373 0.08969936 0.088729635 0.018166173 -0.009211134 0.02254782 -0.0007159677

bias f4 [256]
00000000: f0c1 1e3c e143 1a3c 7550 9c3d e3ea 30bc
00000010: 9d51 1cbd 5dab ccbd 4855 5dbd 4bfa 583d
00000020: 570b 123e fbdb efbd de59 db3c 1ef5 83bc
00000030: 49ab a63d 424e a5bd 3dbb f6bc 9d1a f9bc
00000040: 29b7 58bc cc29 53bd 4f29 9a3d bc08 9dbd
00000050: 9d4b e43c 60c1 7dbd 9612 a63d 3f1c 543e
00000060: 05c3 15be d8c6 063e ab5a 553d 7c77 abbd
00000070: f8db e0bd 8964 01be c183 053e d00c fe3d
00000080: 28bc 37bd 7e38 793c 6f2c 643d a0df 93bc
00000090: bfcc eebd da50 87bb 160b 16bd c9ec 18be
000000a0: ccb3 67bd b35b 6a3d 14fd 523d 4dce dbbd
000000b0: 7250 59bd 5edc fa3c df37 ce3d 5250 253e
000000c0: 9c43 ebbb f44d a23d 0cfb 38bd e45a f13c
000000d0: 09e5 0dbe 80ce db3d a086 f93d 6c5a ebbc
000000e0: ad3c 3cbd 557f 323d aae1 4a3e 52ac 133c
000000f0: 95db 4abc de94 3a3d fa56 05be 0f45 893c
00000100: 88f9 c23b 4ff0 263d 69c6 913b 9e6f 61bd
00000110: 3c5c a4bd 7de2 68be 9609 52bd c3e9 b0bc
00000120: 0b4a a6bd 12ef a53d 38d2 2d3d 32d7 393d
00000130: 758b a73c 65ad 293d 91ae 6b3d 05a3 3abd
00000140: c71c 21be 8c54 083d 0ae2 16bc bc36 1abd
00000150: 6bea d9bd d73a bc3d 75ff a33d 7e06 223d
00000160: 76e5 323e 8f5d 88bd e3ea 943d 4b02 7dbc
00000170: b59b f63c 949f d43d 1cc9 943d 9dff 2c3d
00000180: 63fb 1bbe 5f91 6d3e 4801 18be 90f9 5037
00000190: a64c 453d 7365 14be 9f22 01be 1699 95bc
000001a0: 8b50 92bd 8196 48bd 6976 a3bd 4272 fd3d
000001b0: d809 093e 86d9 273d 2541 aebd 3121 b53d
000001c0: 6b65 95bc 9d3c 043c 6c8b 74bd 6ee9 b33c
000001d0: ee9f c2bd 7059 f3bd 83b4 14bd aa6f 94bd
000001e0: 2177 cdbc 5ff1 243e b61a 843d 0233 b0bc
000001f0: 938e d0bb 6433 4e3c cc2f f8bc 9416 a9bb
00000200: a9b6 a3bd 3d83 fe3c d4ac 3f3d 7a0e a23d
00000210: 859c ccbd 99cd e03a 0707 c73d ecd6 b73d
00000220: c261 e6bd 5e74 8dbc 1ae1 59bd 9c56 b9bd
00000230: 701a e73d 43e6 2dbb f5c7 06bd 95c9 eebd
00000240: 2827 0f3d d596 953c faff 68bd e31a 3c3e
00000250: d78d 303d f59e 153e bfbd dcbc 9cfd 7e3d
00000260: db87 d33c 20f1 c93c 513d 0bbd 85bf 193c
00000270: 422a bf3d dc2a b53b bdb6 edbd 6223 d2bd
00000280: 3bb4 c33c 7698 9fbc 0e25 6e3c 619d 79bb
00000290: 8368 a53d 6fa9 25be d0ad 9d3d b543 53bd
000002a0: 6e0d 43bc c7ab 40bd d1ec 27bb 18fc 3b3d
000002b0: c1f4 cebc 6e82 eebc ba7f 203d 370f e73d
000002c0: ec35 7d3d 28aa a7bd 93ea ccbd e820 f7bd
000002d0: adaf 633d b62b c03c 8b97 2f3e 22f8 ecbc
000002e0: 090c 303d 7238 aabd e9f0 253e e7d7 04bd
000002f0: 038e 54bd 3bbd 8bbd 8ef2 61bd fd04 14bb
00000300: 2e8b c2bc 1980 023e 800b acbd 0a10 d13d
00000310: 20aa ea3c 8e47 4cbd 8e8b 933c 4761 283d
00000320: bd75 683d d480 9cbd 389d b33d ee54 2ebd
00000330: a84c 853c 9396 42bd 51af 043d 8877 6a3d
00000340: 6f38 273e 4c22 ad3c b78e 63bd 41fb 9dbd
00000350: 293d 11bd ee65 ef3d 2f80 c2bd 43f3 d73d
00000360: 46db b33c cac0 2a3e 005f c73c 63e7 1ebd
00000370: 5189 433d 4bb2 37ba ac0d 8e3d 0fe1 043e
00000380: 7843 ee3d f83a a63b 36f8 e03c ae73 5ebc
00000390: 4e90 083b 6321 85ba 1114 8abc 06ab 15be
000003a0: 4205 47bd 6dfb d83d cc02 42bd 9932 c13d
000003b0: 4f79 23bd 5347 993d 5c7e 1abe 580a 42bc
000003c0: 2b4f f6bc f071 d03c 86c1 f3bc 8b83 1cbe
000003d0: de5a a53d 5dc9 e5ba 0a21 2b3b e221 2d3d
000003e0: eed9 b9bd 8e8b 633d 2001 963b 674f e83b
000003f0: 2fe4 f5bd 76e1 85bc ad6e 4d3d 2b2f de3d
0.009689793 0.009415598 0.076325335 -0.010798189 -0.03816377 -0.099936225 -0.05403641 0.052973073
0.14262138 -0.1171188 0.02677625 -0.016108092 0.08138139 -0.08071567 -0.030118579 -0.030408198
-0.0132272625 -0.051553532 0.0752741 -0.076676816 0.027868086 -0.061951995 0.08109014 0.207139
-0.14625175 0.1316179 0.05208842 -0.08372399 -0.10979456 -0.12636007 0.13038541 0.124047875
-0.044857174 0.015211223 0.055706438 -0.018050969 -0.11660146 -0.0041295113 -0.036631666 -0.14934076
-0.056567952 0.057216357 0.051510885 -0.10732708 -0.053055234 0.030622657 0.1006925 0.16143921
-0.0071796905 0.07925025 -0.045161292 0.029462285 -0.13856901 0.10732746 0.12183881 -0.02872964
-0.045956302 0.043578465 0.19812647 0.009013252 -0.012381454 0.045552127 -0.1302146 0.016756563
0.0059501566 0.04075652 0.004448701 -0.055038087 -0.08025405 -0.22742648 -0.051278673 -0.021595841
-0.08119591 0.0810224 0.04243681 0.045371242 0.02045224 0.041425128 0.057539526 -0.045565624
-0.15733634 0.033283755 -0.009209165 -0.037649855 -0.10640415 0.0919091 0.08007709 0.039556973
0.17470345 -0.0665847 0.072713636 -0.015442441 0.030103544 0.103819996 0.07264921 0.04223596
-0.15232615 0.23199986 -0.14844239 1.2455872e-05 0.0481688 -0.14491825 -0.12610863 -0.018261474
-0.071442686 -0.048971657 -0.07981569 0.123753086 0.13382661 0.04097893 -0.08508519 0.088442214
-0.018236836 0.008071092 -0.059703276 0.021961894 -0.095031604 -0.11882293 -0.036304962 -0.07247861
-0.02508122 0.16107701 0.06450407 -0.021508697 -0.0063646524 0.012585495 -0.030296229 -0.005160162
-0.07993824 0.031068439 0.04679568 0.079129174 -0.09990791 0.0017151117 0.09718137 0.0897654
-0.112491146 -0.017267402 -0.05319319 -0.090497226 0.112843394 -0.0026534952 -0.032905538 -0.116595425
0.03494945 0.018260399 -0.056884743 0.18369631 0.04310402 0.14611419 -0.026945947 0.06225358
0.025821617 0.02465111 -0.033994023 0.009384041 0.09334232 0.005528791 -0.1160712 -0.10260655
0.023889652 -0.019481879 0.014535202 -0.003808819 0.08076575 -0.16177915 0.07699168 -0.051578242
-0.011905057 -0.04703882 -0.0025623331 0.045894712 -0.025263192 -0.029114928 0.03918431 0.11282199
0.061819002 -0.081867516 -0.10005679 -0.12066823 0.05558746 0.023458343 0.17147653 -0.028926913
0.042980228 -0.08311547 0.16205181 -0.032432463 -0.051893245 -0.06823202 -0.05516296 -0.002258598
-0.023748007 0.12744178 -0.08400631 0.10208137 0.028645575 -0.049872927 0.01801088 0.041108396
0.05675291 -0.076417595 0.087702215 -0.042561464 0.016271904 -0.04750688 0.032393757 0.0572429
0.16330121 0.021134518 -0.055556025 -0.077139385 -0.035458717 0.116893634 -0.09497105 0.10544445
0.021955144 0.16675106 0.024337292 -0.038794886 0.047738377 -0.0007007464 0.069362015 0.12976478
0.116339624 0.0050729476 0.027462106 -0.013577385 0.0020837965 -0.0010157045 -0.016855272 -0.14616022
-0.048589 0.10594831 -0.04736595 0.09433479 -0.03991061 0.07484307 -0.15087265 -0.011843286
-0.030067047 0.025444955 -0.029755365 -0.15284555 0.08073972 -0.0017531324 0.0026112222 0.04226864
-0.0907477 0.05555301 0.004577771 0.0070895436 -0.12006413 -0.01634286 0.050154377 0.1084884

weight f4 [256, 256]
00000000: a8df 103c b1b6 08bd 98e3 5b3c df18 ed3c
00000010: 47a0 f0bc 1115 27bb 8b32 22bb 9022 19bb
00000020: a43d 81bd e099 27bd ab0d 0bbd 3258 d23c
00000030: 7a33 523d 978c 1ebd e0ce 543c 120d 8c3c
00000040: cc51 89bc cb19 48bc bcc6 96bd 8972 1dbd
00000050: 8c06 963c aaf1 393d 75e7 813b 6a64 19bd
00000060: d1d3 843c d11c 00bc 5d17 00bd daa9 033d
00000070: 634f 8f3c ebef 0e3d d5f3 21bd a966 31bd
00000080: b36d 743d c0d2 03bd 91c6 01bd 2c10 063b
00000090: ba83 553d c7c2 52bb 547d 22bc af66 e33b
000000a0: 37dc 81bd cb71 efbc e622 d43c d54c b5bc
000000b0: 59cb 713d 4e66 7fbc 067e 673b b8da 713d
000000c0: 3046 d93d 1bc2 e13c 907c 77bc f4bd 19bb
000000d0: 1d1a 933c e1b9 8b3c 23bc 033d e18b 923d
000000e0: c785 563c 3de3 75bc c969 38bd cd9b d6bc
000000f0: b066 043d bde8 88bd 4396 9b3c 1c8b 21bd
00000100: bb0a e23c 50c8 60bc 6b11 8ebb d014 e83c
00000110: a4f1 5b3c a544 d1ba b92a 203c 8ad0 523c
00000120: bfd0 c3bb 483c 3fbc 3378 2d3d 2de4 9f3d
00000130: 3a96 97bc f207 2c3d ec1f 3c3c 1713 17bd
00000140: a860 14bc 64b4 f73c 0008 ea3c c773 01bd
00000150: 5bbc 143d 8fda 76bc 657e 4bbc 1b28 d83a
00000160: 86a3 fe3c 66dd a9b9 d3f9 acbc 9373 31bd
00000170: ba54 2abc 9760 e7b9 e612 ec3c 274e e6bb
00000180: 63c9 20bd bfb1 cebc f9e2 4fbb 7479 c3bb
00000190: e031 2ebd a27e 96bc 2b11 e23c 33ad 9dbc
000001a0: 0bd9 8a3c 76f2 87ba c86d 49bd 2b79 2ebd
000001b0: 72e0 843c 2c73 27bd 5e4d 9abd 42ea febc
000001c0: f6e9 043e 6a82 383c 80c4 943c 4761 373d
000001d0: c6cf c53c e2f1 00bc dea5 4f3d d9be c93b
000001e0: c16c 4dbc 618e 51bc 6bbf 79bc e614 ef3c
000001f0: 0f45 763b c188 0abd ddf5 3c3c 0c0e ec3c
00000200: f216 8cbb 4be7 cc3c 0bf9 d03c 7d98 9a3d
00000210: 2323 e83c 7caa a33c 551b 1c3b 4c56 f63c
00000220: 3ae8 9abc 7c44 453d cf22 57bc 7ab6 fa3b
00000230: 157d 76bd ed35 163d df40 ebbb eedf 6b3c
00000240: 0baf 563d c77b 69bc b464 77bd 0d50 903c
00000250: 3baf 41bd 4a59 e2bc b10e 973b 41ac afbb
00000260: b35b 37bd 786e 62bd 3f11 2d3d 82de 81bd
00000270: ec1e 0fbc f27e ae3b e830 b7bc 4bc7 a93c
00000280: 277b 72bb 3240 db3c 7633 8bbc 4cfc 8dbb
00000290: 4289 c63c d9df 003d 5918 daba 7c54 2fbd
000002a0: 3c1b cfbc 5088 17bd 3337 f23c 5796 123d
000002b0: 9931 1f3a bac1 f73c 7728 303d cd23 0a3d
000002c0: da88 71bc 3874 47bc 4b50 6e3b 1257 9b3c
000002d0: faaa 2d3c 4784 d4bc 87ab 033d 1414 123d
000002e0: f677 463d 6c9d 823b c470 cb3b 2fc3 dabc
000002f0: c672 d13c aa71 98bc 7882 ad3c d239 67bc
00000300: 9457 3abc 55d3 333a bc7f 0fbd af6e 63bc
00000310: 9d83 1bbc 462f 673c 0e19 793c b771 eabc
00000320: 43ed 19bd 80e2 263b f937 ec3c f4ad 9dbc
00000330: 7b51 93bc a659 433d 94c8 93bc 7d6a fa3c
00000340: f6c7 4fbd 09b1 9c3c a522 5a3d 4562 febb
00000350: 08d4 de3b c4a3 1abc 1aa9 1ebc 1c56 dcbc
00000360: 5f99 bc3c 7596 0c3d d4a7 79bc 7be0 b8bd
00000370: 997a 82bc 0c5c 0b3d 859c 1c3d 2b80 a4bc
00000380: 627d 843d f10d 3d3d 233d 2e3d 6573 6f3d
00000390: adc2 c53c c14b d73c 7aa9 49bb 8d74 29bc
000003a0: 3362 a4bd 405c 183d 9501 16bd 0a10 003d
000003b0: 82d0 9c3c 6e12 dbbb bc80 55bd bef4 06bc
000003c0: b8b8 6abb 35c2 1bbd 4ced 76bb 862d 513d
000003d0: 9272 52bb c527 f1bc cd2d c83c 6d9e 5dbd
000003e0: 6456 7f3c 19bf 8cbb 3dca 303d d9d1 bb3a
000003f0: 5c46 84bb 413d 28bd ffcc 82bc 3b3d 8d3b
0.008842386 -0.033377353 0.013420962 0.028942524 -0.029373301 -0.0025494734 -0.0024749364 -0.0023366548
-0.06310585 -0.04091823 -0.03394858 0.02567682 0.051318623 -0.038708296 0.012988776 0.017096076
-0.016762637 -0.012213181 -0.07362124 -0.038439307 0.018313669 0.045396484 0.0039643594 -0.037449278
0.016214283 -0.00781937 -0.03127228 0.032144405 0.01749391 0.034896772 -0.039539177 -0.043310795
0.05967493 -0.03218341 -0.03168351 0.0020456417 0.052127577 -0.0032159553 -0.009917576 0.006939731
-0.06340831 -0.029229065 0.025895547 -0.022131363 0.059031818 -0.015588356 0.0035322919 0.059046477
0.1060909 0.027558377 -0.015105382 -0.0023459168 0.017956788 0.017056407 0.032161843 0.07155586
0.013093418 -0.015007791 -0.04502276 -0.026197338 0.032324493 -0.06685016 0.018992549 -0.039439306
0.027593007 -0.013719633 -0.0043355725 0.028330237 0.013424311 -0.0015965892 0.009775811 0.012867102
-0.005975812 -0.011672087 0.04235096 0.07807193 -0.01850425 0.041999765 0.01148222 -0.03688344
-0.009056248 0.030237384 0.028568268 -0.031604555 0.036312442 -0.015066757 -0.0124202715 0.0016491445
0.031083833 -0.00032399147 -0.02111522 -0.04332311 -0.010396177 -0.00044131718 0.028817605 -0.0070283595
-0.039254557 -0.02523124 -0.003172098 -0.005965406 -0.042528033 -0.01837093 0.027596077 -0.019247627
0.016949197 -0.0010371942 -0.04917696 -0.042596024 0.016220305 -0.04088132 -0.07534288 -0.031117562
0.12979874 0.011261562 0.018160105 0.044770505 0.024146926 -0.007870169 0.050695293 0.006156784
-0.012538136 -0.012790293 -0.0152433915 0.02918477 0.0037577783 -0.033821825 0.011533228 0.028815292
-0.004275196 0.025012633 0.025509378 0.07548616 0.028337067 0.019978754 0.0023820002 0.030070446
-0.018909562 0.048161015 -0.013130858 0.0076511474 -0.06017788 0.03667252 -0.007179364 0.014396651
0.052413028 -0.014250702 -0.060398772 0.017616296 -0.047286253 -0.027630467 0.0046099056 -0.0053611104
-0.044765186 -0.055281132 0.042252775 -0.06341268 -0.0087354 0.0053251917 -0.022362188 0.020724913
-0.0036999674 0.02676401 -0.016992312 -0.0043330546 0.024235372 0.031463478 -0.0016639336 -0.04280518
-0.025281541 -0.036995232 0.029567337 0.035787906 0.0006072759 0.030243743 0.04300734 0.03372555
-0.014742101 -0.012173705 0.0036363776 0.018962417 0.010599846 -0.025941981 0.032146003 0.03566368
0.048454247 0.0039860513 0.006208511 -0.026704399 0.025567424 -0.018608887 0.021180376 -0.0141129065
-0.011373419 0.0006859799 -0.035033926 -0.0138813695 -0.009491828 0.014110392 0.015203727 -0.028618677
-0.037579786 0.0025464594 0.028835284 -0.019247986 -0.017983189 0.047692917 -0.018039979 0.030568356
-0.050727807 0.019127386 0.053255696 -0.0077631795 0.0068001784 -0.009438459 -0.009683872 -0.026896529
0.023022352 0.034323175 -0.015237767 -0.09027191 -0.0159276 0.03402333 0.038235206 -0.020080646
0.064692274 0.046155874 0.042538773 0.05845966 0.02414068 0.02628124 -0.0030771182 -0.010342729
-0.080265425 0.03719735 -0.036622602 0.031265296 0.019142393 -0.0066855466 -0.052124724 -0.008237062
-0.0035815667 -0.038027007 -0.003767806 0.051068805 -0.0032111746 -0.029437909 0.024435902 -0.054106165
0.015584562 -0.0042952416 0.04316162 0.0014329507 -0.004036708 -0.04107404 -0.01596689 0.0043102778

bias f4 [256]
00000000: 8e3d 9fbc 5724 b53b 00fd 0ebd 3449 e83c
00000010: b32c 513d 0b99 163d 2453 03bd 3816 13bc
00000020: fae3 87bb 492b 9d3c 6c77 81bc 47c0 943b
00000030: a129 193d 9ec2 80bc 2fc9 893d df4d ba3c
00000040: 76f1 65bd 2331 6cbb 8a3b 603b afee 9c3c
00000050: bf2a 903c 381b 21bd bd35 0b3c 2f38 fcbb
00000060: 6e13 b53b 8bd0 f93c 988f 87bc 7be6 3cbc
00000070: 6424 24bb bd35 223d a459 45bb 235d fb3b
00000080: 86f6 c1bc 4b05 28bd 73c4 8b3b faa3 2aba
00000090: 4d60 993a 6d20 9f3b 33fe 133d c8c1 923c
000000a0: 6a94 0e3c cca2 323c 2c6b 2d3c 7c49 8aba
000000b0: a0b5 65ba 6951 eabb 5598 2f3c 0608 903b
000000c0: 2578 d23c 9aab 64bc 7342 e7ba a870 c8bc
000000d0: d82a 25bc 81ec e53b 5923 5fbc 4e5e 853c
000000e0: 7d40 433b 8d55 01bd 762f 21bd e272 433c
000000f0: d5df 4c3c 6d09 5fbc aeef 813c 2706 adbc
00000100: 2e76 52bb f773 a03c b3af 3f3b 09f2 8dbc
00000110: 4e91 abbc 4fc2 4a3d d9d8 05bd 0042 babc
00000120: 3949 fcbc 0ab2 94bc 7daa e5bc 4e3a 4a3d
00000130: 5b69 39bd ec0a 863d abc9 4bbd d84c 07bd
00000140: 8848 99b9 81ee acba f394 023d cdd7 713c
00000150: aa2e c03c 122b 8fbc a289 a5bc 9680 dfbc
00000160: 0b58 79bc 3a20 163d 01a5 9dbc f81e 9b3c
00000170: 1c33 823c 3716 893c f247 093b 32bd a4bb
00000180: 141b 263d a889 b83c 3be6 43bc 02d1 52bc
00000190: 1769 b3bb 5e5e fcbc 6a1f 89bc d597 7d3c
000001a0: c061 7f3d eeea 953b 6d00 813b f40f d538
000001b0: d83f 43bc 360d 0bbc 8d1f ec3c b671 1b3d
000001c0: b159 be3c ae5a 6bbd ff35 c6bc ac13 983a
000001d0: 593e 52bc 5f4b b5bc 85b8 a339 8424 37bd
000001e0: 6089 8f3b 92f7 f3bb dae3 0e3d 5614 31bc
000001f0: af31 e03c 1bda 3cbb bc70 0d3c e78a ce3c
00000200: c519 f33c 9bc1 debb 318f 11bd eb22 723d
00000210: de9e 423d 3edc e53c 8cd6 7c3c 1382 633a
00000220: c410 4dbd 1a13 9fb9 de7c 36bc 8742 d93b
00000230: c13f 1cb9 aa13 cdbb 96cf 243d 8693 af3c
00000240: 0607 3a3b 1a22 7f3c 94a8 02bd 33c7 90bc
00000250: 4a77 54bc 0928 4dbb c1d1 ad3c 7884 e23b
00000260: d05b b43c 68ae e03c 49fa 363d 0dd2 b93c
00000270: 810c b23c 9f2d 0fbd 8282 f9bc c0d0 d53b
00000280: c07a a53c 3ce9 503c 4153 a63b e0b0 993a
00000290: 9601 f6bc 6308 80bc d353 253c e9fa 5dbc
000002a0: 222a 0d3a 5f22 61bc a54d a53c 5041 b2bb
000002b0: 9c9b 00bc cb86 ddbb aea7 3bbd e677 a43c
000002c0: f64a aa3b 006c bbbc 4ee0 a8bc a07f efba
000002d0: 2ee9 1fbd 4c83 bcbb 2cc4 0d3c ab2c d3bc
000002e0: c2fd d1bc 6193 b2bc 73ba 2b3d 6b52 dcbb
000002f0: 6607 683b 3b73 5b3b 3c82 e9bc 35ff f13a
00000300: b12a 07bd 7be8 603c a10c d03a e6c7 b43b
00000310: dbe9 05bc 9199 9c3c 4035 5dbb 3606 9cbc
00000320: f639 01bd d670 2abd 159b 37bc 7a6b fb3c
00000330: 6599 2ebc 4aa8 30bd 6a43 63bb aedc a0bc
00000340: 2ee3 ab3c 3505 87bc 1057 95bb 99e7 1bbb
00000350: b6f5 b43c 10ab 0ebd d62b 73bb 0138 0e3d
00000360: fe20 efbc 3132 3fbc ff1b 9b3c cb95 0a3c
00000370: 0c3a 0abd e88b 303d 0e24 5fbc d27d 39bd
00000380: 2bfc 19bc cd5c a0bc 8692 7abc cb41 063c
00000390: 62d3 25bc 2432 3f3d 8e07 493d a7da 90ba
000003a0: 2360 19bd a9b1 283c 4e8d 7e3d ee24 683c
000003b0: d859 0e3d afa5 a93b a815 c4bc 4dd5 c2bb
000003c0: 7573 5ebd 8f0a b139 d152 f03b 06da 82ba
000003d0: 2ac8 0bbc 54f4 ac3c 0786 debc e858 a1bc
000003e0: 6e59 e03c 3673 bebb 84cf f23c 6079 5c3c
000003f0: 3ed4 8a3c 3b9f 953b ac58 abba f251 263c
-0.019438531 0.0055280137 -0.03490925 0.028355218 0.05106802 0.036767047 -0.03206171 -0.008977465
-0.00414705 0.019185679 -0.015804015 0.004539523 0.037393216 -0.0157178 0.06727826 0.02274221
-0.05613848 -0.003604003 0.0034215176 0.019156782 0.017598508 -0.0393326 0.008496699 -0.0076971273
0.005525998 0.030494949 -0.016547963 -0.01152956 -0.0025046105 0.03960203 -0.0030113244 0.007671015
-0.023677122 -0.041020673 0.004265362 -0.000650942 0.0011701674 0.0048561604 0.036131095 0.017914668
0.008702377 0.010903072 0.010584634 -0.0010550465 -0.0008762721 -0.007150818 0.010717471 0.0043954877
0.025692055 -0.013956929 -0.0017643705 -0.024467781 -0.0100810155 0.007016719 -0.013619267 0.01628032
0.0029793077 -0.03157573 -0.039351903 0.011929246 0.012504538 -0.013613087 0.015861358 -0.021121098
-0.0032113898 0.019586546 0.0029249012 -0.017327325 -0.02094331 0.049501713 -0.032677505 -0.02273655
-0.030796634 -0.018151302 -0.028035397 0.04937201 -0.04526649 0.06545052 -0.049752872 -0.03303227
-0.00029236474 -0.0013193638 0.03188033 0.014760924 0.023459751 -0.017476592 -0.02020723 -0.027282994
-0.015218745 0.036651827 -0.019243719 0.018935665 0.015893511 0.016734226 0.0020947424 -0.0050274367
0.040553167 0.022526577 -0.011956747 -0.012867214 -0.005475174 -0.030806717 -0.016738612 0.015478094
0.06234908 0.004575125 0.0039368183 0.00010159603 -0.011917077 -0.008487036 0.028823638 0.03795024
0.023236128 -0.057459526 -0.02419567 0.0011602542 -0.012832248 -0.022130666 0.0003122726 -0.04471256
0.00438039 -0.007445284 0.034885265 -0.010808071 0.027367441 -0.0028816524 0.008632835 0.025212718
0.029675374 -0.006797982 -0.03553695 0.05911533 0.04751479 0.028059121 0.015432011 0.00086787454
-0.050064817 -0.00030341075 -0.011138169 0.006630245 -0.0001490107 -0.0062584477 0.040237032 0.02143265
0.0028385534 0.015572095 -0.03189905 -0.01767311 -0.012967894 -0.003130438 0.021218183 0.006912764
0.022016436 0.027426913 0.044672284 0.022683168 0.021734478 -0.034955617 -0.030457739 0.006525129
0.020200133 0.01275092 0.0050758426 0.0011725686 -0.030030053 -0.015629 0.010090786 -0.013548591
0.00053850014 -0.013741105 0.020178625 -0.0054399148 -0.0078496 -0.0067604533 -0.04581421 0.020076703
0.0051969243 -0.022878647 -0.02061477 -0.0018272288 -0.039040737 -0.0057529565 0.008652728 -0.025778135
-0.025633696 -0.021798791 0.04192586 -0.006723692 0.00354048 0.003348543 -0.028504483 0.0018462898
-0.032999698 0.013727303 0.0015872904 0.005516994 -0.008173431 0.019116195 -0.0033753663 -0.01904593
-0.031549416 -0.041611515 -0.011206408 0.030690897 -0.010656689 -0.043129243 -0.0034677633 -0.019636478
0.020982351 -0.016481975 -0.004557498 -0.0023789166 0.02208982 -0.034831107 -0.0037104986 0.03472138
-0.029190537 -0.011669681 0.018934248 0.008458565 -0.033746764 0.043102175 -0.013619436 -0.045286007
-0.0093985 -0.0195755 -0.015293723 0.008194397 -0.010121198 0.046678677 0.04907947 -0.0011051492
-0.0374452 0.010296264 0.062146477 0.014168961 0.03475365 0.0051772217 -0.023936108 -0.0059458376
-0.054309327 0.00033767938 0.0073340912 -0.0009983189 -0.00853161 0.021112598 -0.027163519 -0.019695714
0.027386393 -0.005812074 0.029639967 0.013456672 0.016946908 0.004566101 -0.0013072691 0.010151373
