outputs/2023-09-24-20-37-59/trained_model/tetris_epoch1209_score2200.pt (torch, 842187 bytes, 8 tensors)

weight f4 [32, 1, 4, 4]
0.036043163 0.01789529 -0.019846708 -0.0035342728 -0.006502344 0.07924374 0.0009774504 0.053227864
-0.21961841 0.12899713 0.19746502 -0.002329097 0.075155616 0.16430227 0.16476996 -0.020679982
0.4272027 0.0037154385 -0.5785687 -0.27343705 -0.37251753 0.10128724 -0.11427292 -0.14045022
0.03828664 -0.29090896 0.039633814 -0.37218457 -0.2415515 0.0023903898 0.09628096 -0.6001574
0.02712552 -0.052625228 -0.7538214 -0.14471813 0.018424774 -0.28397554 0.1432698 -0.23382321
0.10246018 0.31491813 0.04165633 0.019969705 -0.088732734 -0.11168499 -0.081548184 -0.094451495
-0.29404202 -0.26207608 -0.098394305 -0.031162778 0.13619226 -0.15136337 0.20146334 0.11123607
-0.24882114 0.0739211 -0.47533628 0.084218815 -0.1875855 -0.47947806 -0.5028969 0.088929184
-0.047225866 -0.7984466 -0.053510696 -0.01606057 0.071303755 0.077332065 0.064467855 0.06961727
0.23533058 -0.8788137 0.3004452 -0.024683058 -0.08145257 -0.094740294 -0.014186667 -0.012360467
-0.0005433924 0.011073343 -0.10364651 -0.092906885 -0.0014435013 -0.007565016 0.28284973 0.7697425
-0.00787623 0.030272223 -0.2977246 -0.7825021 -0.032658808 -0.013878609 -0.048431702 -0.039938517
0.061319366 0.058824625 0.15604 0.2723249 0.119449906 -0.023178207 0.18867019 -0.45573696
0.08632864 0.07057806 0.01857343 -0.6768931 -0.055000678 0.017329039 0.06394665 -0.2613802
-0.016213514 -0.010308968 0.23807947 -0.246882 0.073981956 0.07333298 -0.6919267 -0.6428838
-0.009353846 0.07835968 -0.42891198 -0.104970545 -0.038839694 0.1951823 -0.2974395 -0.4327431
-0.10810072 0.11956258 -0.37041688 -0.15813497 0.15842882 0.12087945 0.13997392 -0.24160339
0.008705386 0.09371852 -0.33234432 -0.7149761 0.14040825 -0.07392007 -0.06686308 0.05182725
-0.17144611 -0.03850518 0.010533441 -0.0044763703 -0.1038677 -0.18429954 -0.4901212 -0.018882949
-0.06673482 0.4661963 0.16305248 -0.06923199 0.062591426 -0.85985076 0.09203132 0.046949383
0.01260399 -0.054124437 -0.10758963 -0.13229679 -0.058667272 0.008278844 -0.18804032 -0.0021602637
-0.061978526 0.03596934 0.5582834 -0.040130723 -0.029418373 -0.06362832 -0.6888217 -0.07020542
-0.17858149 -0.35028502 -0.2693611 -0.01273262 -0.008951202 -0.17787832 0.029531624 0.17260973
-0.051949166 0.025334705 0.11251037 -0.55190486 0.10059399 0.02240963 0.07388194 -0.4203211
0.11830796 -0.053724874 0.011753779 -0.10384366 0.018529356 0.49450162 0.012961028 -0.019032545
-0.059991345 -0.52367806 0.1725634 -0.062183753 -0.07930736 -0.6486529 -0.19452095 0.03689976
0.0049547227 -0.04876503 0.013643754 0.0644177 -0.03614689 0.1388798 0.15048093 0.013942166
0.046058167 0.85709596 -0.024256103 0.028839275 -0.014176637 -1.4060422 0.08276011 -0.009981183
0.025607528 0.44680893 0.02723676 -0.02500138 -0.024096439 0.6961768 0.0033990454 -0.010379075
0.0010305481 -1.2664168 0.005196313 -0.001994728 -0.012383773 -0.039877966 -0.046034377 -0.0075099887
-0.27091137 -0.058625087 0.12602508 -0.10857109 -0.0420375 -0.19779748 -0.0737033 -0.026453126
0.15659049 0.1674045 0.12155863 0.13116553 0.012840251 0.092083775 -0.016180942 0.13772742
00000000: ffa1 133d 2599 923c 9095 a2bc 429f 67bb
00000010: 9d11 d5bb 8b4a a23d cb1d 803a 7605 5a3d
00000020: a6e3 60be d317 043e 4534 4a3e c3a3 18bb
00000030: 30eb 993d db3e 283e 75b9 283e 1169 a9bc
00000040: 50ba da3e b77e 733b 141d 14bf f1ff 8bbe
00000050: 9eba bebe af6f cf3d ec07 eabd 2fd2 0fbe
00000060: 74d2 1c3d 05f2 94be 1157 223d fa8e bebe
00000070: 4759 77be 16a8 1c3b f42e c53d eaa3 19bf
00000080: 5736 de3c 8d8d 57bd 70fa 40bf fd30 14be
00000090: 8def 963c 3e65 91be 52b5 123e 5a6f 6fbe
000000a0: a5d6 d13d f33c a13e d49f 2a3d 8297 a33c
000000b0: 82b9 b5bd 1abb e4bd bc02 a7bd c96f c1bd
000000c0: ad8c 96be d62e 86be f482 c9bd 1549 ffbc
000000d0: fc75 0b3e 00ff 1abe 684c 4e3e bdcf e33d
000000e0: f8ca 7ebe f263 973d 475f f3be ea7a ac3d
000000f0: 6a16 40be 267e f5be dabd 00bf 8120 b63d
00000100: e96f 41bd ff66 4cbf 082e 5bbd 7591 83bc
00000110: b407 923d 4660 9e3d b907 843d 8093 8e3d
00000120: 80fa 703e eff9 60bf f4d3 993e 2034 cabc
00000130: 9bd0 a6bd 3307 c2bd 326f 68bc 8e83 4abc
00000140: 7272 0eba f86c 353c 9f44 d4bd f745 bebd
00000150: de33 bdba f4e3 f7bb aed1 903e d80d 453f
00000160: 4e0b 01bc 74fd f73c 5c6f 98be 0f52 48bf
00000170: 3ec5 05bd 1b63 63bc 5260 46bd 9296 23bd
00000180: 042a 7b3d 17f2 703d f3c8 1f3e 2b6e 8b3e
00000190: 27a2 f43d 39e0 bdbc c232 413e 5b56 e9be
000001a0: 12cd b03d 3b8b 903d 4e27 983c de48 2dbf
000001b0: 6448 61bd a1f5 8d3c 76f6 823d a0d3 85be
000001c0: 34d2 84bc f2e6 28bc 1bcb 733e a3ce 7cbe
000001d0: da83 973d 9a2f 963d 1c22 31bf 0894 24bf
000001e0: e040 19bc 0a7b a03d 5a9a dbbe ccfa d6bd
000001f0: 5f16 1fbd dedd 473e fd49 98be 8190 ddbe
00000200: e963 ddbd 3add f43d 48a7 bdbe 22ee 21be
00000210: 2a3b 223e a58f f73d 5355 0f3e e166 77be
00000220: 09a1 0e3c 7fef bf3d 0929 aabe ac08 37bf
00000230: 2ec7 0f3e 6863 97bd 83ef 88bd cf48 543d
00000240: 928f 2fbe 9cb7 1dbd 7494 2c3c 84ae 92bb
00000250: 97b8 d4bd 05b9 3cbe 2af1 fabe 6ab0 9abc
00000260: 44ac 88bd 48b1 ee3e 3bf7 263e 80c9 8dbd
00000270: ef2f 803d 2e1f 5cbf eb7a bc3d ff4d 403d
00000280: f780 4e3c 96b1 5dbd f457 dcbd cf78 07be
00000290: 184d 70bd fda3 073c a48d 40be 3693 0dbb
000002a0: 32dd 7dbd 9654 133d a9eb 0e3f 1d60 24bd
000002b0: cdfe f0bc 914f 82bd 9e56 30bf dcc7 8fbd
000002c0: 11de 36be 8f58 b3be b3e9 89be 7b9c 50bc
000002d0: 10a8 12bc bc25 36be 4eec f13c 9bc0 303e
000002e0: a6c8 54bd ba8a cf3c d66b e63d a349 0dbf
000002f0: 3904 ce3d 6694 b73c 6a4f 973d 5434 d7be
00000300: 724b f23d 9d0e 5cbd ec92 403c fcab d4bd
00000310: e0ca 973c 512f fd3e 7e5a 543c 24ea 9bbc
00000320: 7cb9 75bd c40f 06bf 76b4 303e 64b4 7ebd
00000330: e66b a2bd 1e0e 26bf 8030 47be 3424 173d
00000340: 3a5b a23b d7bd 47bd 0d8a 5f3c 6ded 833d
00000350: c30e 14bd 8236 0e3e ac17 1a3e af6d 643c
00000360: 7da7 3c3d a46a 5b3f bcb4 c6bc 5840 ec3c
00000370: 2045 68bc 31f9 b3bf 227e a93d 1e88 23bc
00000380: e1c6 d13c 24c4 e43e a01f df3c b2cf ccbc
00000390: e565 c5bc a538 323f 85c2 5e3b ff0c 2abc
000003a0: 7513 873a f219 a2bf d545 aa3b fcb9 02bb
000003b0: 4fe5 4abc 1457 23bd 8b8e 3cbd 5a16 f6bb
000003c0: e5b4 8abe dc20 70bd b80c 013e 855a debd
000003d0: 832f 2cbd 6c8b 4abe c1f1 96bd 3ab4 d8bc
000003e0: 4259 203e 166c 2b3e bbf3 f83d 4250 063e
000003f0: eb5f 523c 6b96 bc3d e58d 84bc 6b08 0d3e

weight f4 [32, 32, 5, 5]
0.1232648 -0.11433807 0.07962998 0.073290534 0.017625852 0.15838856 -0.2515887 0.0041030627
-0.16005145 -0.37751067 0.019220889 -0.05934314 -0.086426914 -0.12913252 -0.07026193 -0.06317011
-0.42397633 -0.28098518 -0.03425554 -0.34067863 0.031526428 0.051175468 -0.10532857 0.048362225
0.099137254 0.23343936 -0.33825102 0.16299012 0.3417495 0.33077237 0.15153195 0.33333522
-0.26415747 -0.054264147 -0.03436207 0.06903502 -0.29789686 -0.49757716 0.23857214 -0.3395419
0.11855038 0.19808754 0.026898863 -0.20682812 -0.3400237 -0.21336588 0.43819848 0.16600105
0.042762112 0.3863944 -0.155056 -0.21836665 0.069155656 0.10861313 0.28946218 0.33581465
0.264492 -0.4212046 -0.49564335 -0.10556915 0.018423455 0.29322916 -0.1604621 -0.11747309
0.045266178 0.15094182 -0.39289525 0.14118329 0.08966698 -0.24164289 0.058808953 -0.21910346
0.095322266 -0.31146833 0.3477588 -0.07191551 -0.19680685 0.26959834 -0.53987765 0.090229794
-0.516702 0.32206687 0.16509031 -0.5347295 -0.14773563 -0.4484062 -0.0029952766 -0.15681969
0.11245314 -0.5836446 -1.1073655 -0.024809072 -0.61697894 -0.08733438 0.22886482 -0.059073158
0.3027704 -0.21649429 0.31331962 -0.27956584 -0.024023412 -0.15601428 0.063526645 0.78010947
-0.7512024 -0.32738405 0.3177917 0.0386258 -0.05385574 -0.12523305 -0.30915752 0.017249778
0.20068078 -0.077203915 0.47786027 -0.21487875 -0.029729195 -0.45533854 -0.12912633 -0.5174973
0.15700401 0.13515942 0.20110033 -0.12303441 -0.04898601 -0.11576936 -0.054482874 0.029369533
-0.042489454 -0.12627128 0.09540615 -0.13607486 0.13625738 0.014298347 -0.20950367 -0.048142556
0.03754257 0.008611949 -0.092101894 -0.074953176 -0.36501795 -1.4724451 -0.63252854 -0.1881823
-0.58961576 0.012363577 -0.1870919 -0.054360334 -0.1793115 -0.3723223 0.27191338 0.025338303
-0.07292586 -0.29102334 -0.49638602 0.15423416 0.045206286 -0.37717026 0.027912335 -1.0017402
0.0457726 0.25198472 -0.30318198 0.12189666 0.24047989 -0.29561105 -0.10849604 -0.38965204
0.07655294 -0.24924302 0.004856448 0.043000758 0.0698611 0.30827984 0.11301623 -0.007432055
-0.5751817 0.4741669 -0.18066621 -0.098792136 0.06825395 0.036013447 0.03221985 0.39795178
-1.0159669 0.05234731 -0.26960295 -0.24532178 0.23472221 -0.093534276 0.11887289 -0.25677773
-0.39025065 0.18648687 0.21094063 -0.21377397 -0.19489558 -0.1125857 0.25665697 0.12813589
0.33731747 -0.1590236 0.028545875 0.24877438 0.2552803 -0.6468181 0.049255364 -0.26298016
0.15288053 -0.01299306 -0.53308225 0.14822996 -0.034795973 0.022809101 -0.5456634 -0.5225446
-0.2829385 -0.19280083 0.10293996 -0.09045133 -0.18168585 0.16070925 0.0067047216 -0.22959739
0.2587587 0.17699632 0.06580616 -0.30408105 -0.017107412 -0.29312387 -0.42721733 -0.18929493
-0.020344779 -0.33820942 -0.3689105 -0.7467993 0.111839585 -0.1294642 0.15743126 -0.11060321
-0.25080156 0.34012303 -0.263514 0.043113522 -0.7699617 -0.17342408 0.17554626 0.07811598
0.08758427 0.15310979 0.47242138 -0.71596795 -0.17089023 0.36859417 -0.032534115 -0.45374095
00000000: 4172 fc3d 142a eabd 0b15 a33d 5919 963d
00000010: 1764 903c 9c30 223e 3cd0 80be fc72 863b
00000020: 87e4 23be 1449 c1be 2075 9d3c cb11 73bd
00000030: 9800 b1bd 513b 04be 7de5 8fbd 555f 81bd
00000040: 6d13 d9be 4add 8fbe 8a4f 0cbd 6e6d aebe
00000050: db21 013d 5e9d 513d 81b6 d7bd 7817 463d
00000060: 7908 cb3d ba0a 6f3e 3d2f adbe e2e6 263e
00000070: caf9 ae3e ff5a a93e 312b 1b3e eaaa aa3e
00000080: a63f 87be 1544 5ebd 3ebf 0cbd 3c62 8d3d
00000090: f085 98be 6fc2 febe 414c 743e 70d8 adbe
000000a0: 8bca f23d 76d7 4a3e 015b dc3c c0ca 53be
000000b0: 9617 aebe 967c 5abe 8d5b e03e 2efc 293e
000000c0: 5327 2f3d 7dd5 c53e 00c7 1ebe 829b 5fbe
000000d0: 7ba1 8d3d 9070 de3d 6334 943e e6ef ab3e
000000e0: 7f6b 873e 21a8 d7be f7c4 fdbe a334 d8bd
000000f0: c9ec 963c 2222 963e 2d50 24be bb95 f0bd
00000100: 0769 393d 7e90 1a3e 9129 c9be 5a92 103e
00000110: 52a3 b73d 3c71 77be a8e1 703d a85c 60be
00000120: 5238 c33d c778 9fbe 710d b23e 7048 93bd
00000130: bc87 49be cb08 8a3e 6c35 0abf 66ca b83d
00000140: 9546 04bf f3e5 a43e 6f0d 293e 08e4 08bf
00000150: 0248 17be 7f95 e5be 674c 44bb 5795 20be
00000160: d54d e63d bc69 15bf 27be 8dbf 653c cbbc
00000170: 55f2 1dbf 5edc b2bd 8a5b 6a3e b2f6 71bd
00000180: b904 9b3e aeb0 5dbe 6e6b a03e 4123 8fbe
00000190: bfcc c4bc 35c2 1fbe 421a 823d 41b5 473f
000001a0: cd4e 40bf e29e a7be 98b5 a23e 1636 1e3d
000001b0: d697 5cbd 183d 00be e549 9ebe 684f 8d3c
000001c0: 437f 4d3e 161d 9ebd 1aaa f43e 2d09 5cbe
000001d0: a48a f3bc 2222 e9be b139 04be b47a 04bf
000001e0: a9c5 203e 3b67 0a3e 3fed 4d3e 77f9 fbbd
000001f0: 8ea5 48bd 7c18 edbd 6f29 5fbd 6098 f03c
00000200: 6c09 2ebd 424d 01be 4d64 c33d 3557 0bbe
00000210: 0e87 0b3e 9d43 6a3c 2188 56be 2131 45bd
00000220: 3dc6 193d 2219 0d3c eb9f bcbd 0d81 99bd
00000230: a2e3 babe 1579 bcbf 64ed 21bf dcb2 40be
00000240: 0ff1 16bf 9a90 4a3c 0595 3fbe f1a8 5ebd
00000250: 6f9d 37be 07a1 bebe 3b38 8b3e 4692 cf3c
00000260: 275a 95bd 0301 95be 4f26 febe 8fef 1d3e
00000270: 3a2a 393d 761c c1be 69a8 e43c 0639 80bf
00000280: 0d7c 3b3d 2404 813e ab3a 9bbe f5a4 f93d
00000290: 5c40 763e 555a 97be 2c33 debd 7980 c7be
000002a0: cac7 9c3d 9039 7fbe d722 9f3b 9021 303d
000002b0: 5613 8f3d dbd6 9d3e 0e75 e73d 9988 f3bb
000002c0: 1c3f 13bf 01c6 f23e 9000 39be 8853 cabd
000002d0: bac8 8b3d d682 133d f6f8 033d 56c0 cb3e
000002e0: 340b 82bf 226a 563d 6609 8abe a235 7bbe
000002f0: 055b 703e e68e bfbd a173 f33d 5f78 83be
00000300: efce c7be 6af6 3e3e d200 583e 90e7 5abe
00000310: b592 47be 5593 e6bd 8b68 833e 0e36 033e
00000320: e0b4 ac3e 15d7 22be 0ad9 e93c b6be 7e3e
00000330: 19b4 823e df95 25bf febf 493d 56a5 86be
00000340: b78c 1c3e d8e0 54bc 1478 08bf 98c9 173e
00000350: 3986 0ebd 27da ba3c 99b0 0bbf 7cc5 05bf
00000360: 51dd 90be 956d 45be 30d2 d23d 8c3e b9bd
00000370: db0b 3abe f790 243e 48b3 db3b 941b 6bbe
00000380: 057c 843e 863e 353e 61c5 863d 83b0 9bbe
00000390: d824 8cbc 5514 96be 3bbc dabe 88d6 41be
000003a0: 18aa a6bc c929 adbe d6e1 bcbe 3d2e 3fbf
000003b0: 270c e53d 4392 04be a935 213e f083 e2bd
000003c0: 1069 80be 9b24 ae3e 4feb 86be ce97 303d
000003d0: 361c 45bf 1596 31be 66c2 333e 45fb 9f3d
000003e0: 625f b33d d0c8 1c3e 37e1 f13e ad49 37bf
000003f0: d9fd 2ebe 60b8 bc3e 7e42 05bd bc50 e8be

weight f4 [64, 32, 5, 5]
0.075442426 0.047739167 -0.075278476 0.18897206 -0.44086254 0.25927696 0.08181156 0.16162935
-0.06474495 0.068360664 -0.012125602 -0.16562198 -0.13637057 0.029525263 0.6092374 -0.13679673
0.05131478 0.076613076 -0.16043702 0.29984695 -0.05647552 -0.2672927 0.012235738 0.46995857
0.08743372 0.48855218 -0.39027 0.010217211 -0.24707687 0.098597355 0.056624528 0.34601617
0.2974468 -0.4954217 -0.30434138 -0.14995785 0.1836286 0.66531044 -0.11217575 -0.15454802
0.4401917 0.29640886 -0.38509426 0.49392045 0.030754443 -0.117008746 0.6230461 0.3389733
0.11212943 0.008171102 -0.20477484 -0.03454013 0.5121053 0.16519006 -0.056560516 0.38233066
-0.1282833 -0.52233934 -0.549583 -0.63169295 0.22307023 0.08769281 -0.3871015 0.26650798
-0.3036949 0.177533 0.18813865 0.28263032 -0.19737431 -0.11437287 0.54267675 0.12099449
0.009051223 0.1459273 -0.1240788 -0.34427947 -0.41207466 -0.1623884 0.33970883 -0.3019676
0.55843496 0.27786854 0.018805077 0.34493285 0.45195466 -0.023640553 -0.28616866 -0.25032407
-0.40570328 -0.92045957 -0.40242016 -0.039660726 -1.1906427 -0.0851527 0.22368239 0.21506324
-0.026778387 -0.084183015 0.4458031 0.005989377 -0.19582714 0.36935914 0.13540143 0.14202558
0.15553255 0.11006965 -0.15747678 0.07792821 0.16751276 0.5756377 0.32965827 -0.04864514
-0.16383547 0.07581471 -0.17979875 -0.13118543 0.04606786 -0.0036085653 -0.6443172 -0.5874537
-0.28625408 -0.0055220616 0.054064363 0.39042318 -0.26914796 0.07959459 -0.49460363 -0.2712926
0.23655161 -0.9360053 0.45103163 -0.34664968 0.12912998 0.025058929 -0.14930154 0.029560065
0.19686165 0.29003698 -0.03655913 -0.22672302 -0.40351853 -0.24276593 0.073784515 -0.053447142
-0.011493276 -0.34655008 -0.112906836 0.14208314 -0.023755021 0.15675218 0.0009284956 -0.44131005
0.017355438 -0.087948 -0.4411979 0.09419569 0.05918588 0.26767212 -0.075342365 0.06547284
-0.039048444 0.23625796 0.24638136 -0.218909 -0.27368656 0.05164397 -0.036265895 -0.055146858
-0.12748286 -0.37616238 0.3631039 0.18137817 0.20122339 -0.099886574 -0.21648856 -0.16761221
-0.41860458 0.014688801 -0.11322398 0.1483079 0.3866212 0.026653854 0.01830374 -0.03406215
-0.067924745 0.24529365 -0.1589008 -0.18363287 0.22958872 0.4253944 -0.05927149 -0.047392387
-0.067452475 -0.20863709 -0.13527353 0.31313884 -0.11802124 0.2690581 -0.8107951 -0.2483161
0.20199715 0.36095664 0.010374128 -0.37843826 -0.020706326 0.35749575 -0.97682214 0.0742429
-0.41693202 0.2532987 0.2984254 0.2903096 0.03659477 -0.118509576 -0.51041687 0.4219772
0.030798018 0.019018844 -0.13379635 0.502075 0.37485296 0.11425941 -0.041198574 0.06819269
-0.07450796 0.49841622 0.14126492 -0.071182944 -0.18637553 0.40138218 0.01208691 0.4573173
0.27158445 -0.0034663416 0.51186836 0.060019292 0.06143939 0.06436711 0.21507116 0.10587098
0.4150007 0.14543141 -0.27453622 0.43657592 0.011617019 -0.0229703 -0.11230631 0.2675692
0.4093457 -0.26667908 0.16423157 0.19177788 0.32150742 -0.21228717 0.32577297 0.5238321
00000000: 8f81 9a3d 258a 433d 9a2b 9abd e481 413e
00000010: bcb8 e1be f3bf 843e d28c a73d 2a82 253e
00000020: 0099 84bd ad00 8c3d 76aa 46bc cf98 29be
00000030: baa4 0bbe f7de f13c fbf6 1b3f 7114 0cbe
00000040: 722f 523d 51e7 9c3d 9a49 24be 8a85 993e
00000050: e052 67bd 97da 88be 6878 483c 699e f03e
00000060: 7310 b33d 8323 fa3e 78d1 c7be 1766 273c
00000070: b801 7dbe 69ed c93d 1fef 673d 0829 b13e
00000080: f24a 983e eaa7 fdbe a2d2 9bbe 8d8e 19be
00000090: 2309 3c3e c951 2a3f 66bc e5bd d641 1ebe
000000a0: ce60 e13e e7c2 973e 132b c5be 24e3 fc3e
000000b0: bef0 fb3c 48a2 efbd f37f 1f3f e98d ad3e
000000c0: 1da4 e53d 16e0 053c 7fb0 51be f479 0dbd
000000d0: 5519 033f 9527 293e 00ac 67bd d8c0 c33e
000000e0: b35c 03be 08b8 05bf 79b1 0cbf a1b6 21bf
000000f0: 866c 643e 4a98 b33d 2b32 c6be bc73 883e
00000100: e67d 9bbe 36cb 353e 6ba7 403e ecb4 903e
00000110: 7e1c 4abe 533c eabd ddec 0a3f f6cb f73d
00000120: 954b 143c f76d 153e 071d febd 6645 b0be
00000130: 73fb d2be 2549 26be 51ee ad3e 7f9b 9abe
00000140: 98f5 0e3f c944 8e3e 1b0d 9a3c 0a9b b03e
00000150: 9a66 e73e d5a9 c1bc b384 92be 7a2a 80be
00000160: 57b8 cfbe 3da3 6bbf 040a cebe 4973 22bd
00000170: fb66 98bf 8a64 aebd ff0c 653e 8a39 5c3e
00000180: 595e dbbc 2568 acbd 4e40 e43e 8942 c43b
00000190: e986 48be a41c bd3e aca6 0a3e 276f 113e
000001a0: ed43 1f3e 326c e13d 9841 21be d398 9f3d
000001b0: 7788 2b3e fe5c 133f f8c8 a83e 2040 47bd
000001c0: 7cc4 27be be44 9b3d 2a1d 38be 7955 06be
000001d0: a7b1 3c3d ae7d 6cbb f9f1 24bf 5e63 16bf
000001e0: e58f 92be 69f2 b4bb 9872 5d3d 8ce5 c73e
000001f0: c3cd 89be 7d02 a33d b03c fdbe dde6 8abe
00000200: 963a 723e 0b9e 6fbf 9eed e63e 117c b1be
00000210: a63a 043e 6248 cd3c 81e2 18be f327 f23c
00000220: 1a96 493e ba7f 943e 07bf 15bd 142a 68be
00000230: fb99 cebe a297 78be 561c 973d 64eb 5abd
00000240: 4b4e 3cbc 036f b1be b33b e7bd 3e7e 113e
00000250: e499 c2bc a583 203e 4966 733a 64f3 e1be
00000260: fe2c 8e3c 151e b4bd b1e4 e1be abe9 c03d
00000270: e56c 723d 520c 893e 194d 9abd a016 863d
00000280: 43f1 1fbd 9bed 713e 654b 7c3e ae29 60be
00000290: a520 8cbe a188 533d 8c8b 14bd ace1 61bd
000002a0: de8a 02be 5b98 c0be c1e8 b93e 33bb 393e
000002b0: 810d 4e3e 5591 ccbd 2daf 5dbe 89a2 2bbe
000002c0: 5753 d6be 4ca9 703c f9e1 e7bd 07de 173e
000002d0: 37f3 c53e 2f59 da3c baf1 953c c184 0bbd
000002e0: 211c 8bbd 422e 7b3e e4b6 22be 410a 3cbe
000002f0: 4e19 6b3e 4bcd d93e a9c6 72bd 851e 42bd
00000300: 8624 8abd f6a4 55be 2585 0abe bc53 a03e
00000310: 1fb5 f1bd fcc1 893e 4590 4fbf 9346 7ebe
00000320: 57d8 4e3e 4fcf b83e 3ff8 293c a9c2 c1be
00000330: 50a0 a9bc af09 b73e 0411 7abf a90c 983d
00000340: 1d78 d5be 5eb0 813e 37cb 983e 76a3 943e
00000350: 66e4 153d 26b5 f2bd aeaa 02bf 650d d83e
00000360: 204c fc3c 68cd 9b3c e901 09be fd87 003f
00000370: baec bf3e d600 ea3d d6bf 28bd 9ca8 8b3d
00000380: a197 98bd 6930 ff3e c0a7 103e 5dc8 91bd
00000390: 3ad9 3ebe f781 cd3e 2d08 463c 7e25 ea3e
000003a0: 1e0d 8b3e 902b 63bb ce09 033f cad6 753d
000003b0: dfa7 7b3d e7d2 833d 9d3b 5c3e e2d2 d83d
000003c0: f97a d43e f9eb 143e 0390 8cbe e186 df3e
000003d0: 4f55 3e3c 362c bcbc da00 e6bd d5fe 883e
000003e0: c295 d13e 298a 88be 522c 283e 6c61 443e
000003f0: 9f9c a43e cf61 59be b7cb a63e dc19 063f

weight f4 [256, 256]
0.055190366 0.0150575815 0.0028922244 0.10689942 0.08889129 -0.020760868 -0.07066648 -0.10182077
0.013168167 -0.12271478 -0.065042384 0.046614345 0.104302645 0.17894663 -0.054954052 0.03441158
-0.20505808 0.23302633 0.096188255 -0.025179397 -0.12125873 0.046890993 -0.02996397 -0.09436225
0.07356914 -0.14570142 -0.15946274 -0.03299118 -0.025289241 0.013915424 -0.027956888 0.0046412074
0.55009973 -0.17659532 -0.014357338 0.05210801 0.019125644 -0.020149525 -0.00220305 0.01218839
-0.005899754 -0.33452824 0.0078088846 -0.052294075 0.027418567 -0.029171856 -0.11294407 0.045003362
-0.10341485 0.016850887 -0.09878928 0.23460136 -0.016139353 0.0072410703 -0.061728686 -0.09058533
-0.041235317 -0.43284526 0.23764981 -0.047081247 0.11383975 0.063394465 -0.106791764 -0.235733
-0.07540538 -0.07498843 -0.08691325 0.07595531 0.13427407 0.010521546 0.04901561 -0.068340704
-0.07369353 -0.06610581 0.07199399 -0.004411003 -0.1504686 0.048962675 -0.044643562 0.0041895853
0.044955093 -0.027606014 0.12300645 0.10794003 -0.18777081 -0.05507716 0.033727795 -0.007817935
-0.0038608378 0.045367423 -0.08702861 -0.0016017018 0.035725463 -0.04459029 0.0419745 -0.08939054
0.50069046 -0.029314747 -0.0044938587 0.0354731 0.25731662 -0.09819938 0.21647216 -0.55087173
0.11353344 0.07869832 0.005800676 0.11001481 0.13461752 0.011756812 0.16113743 0.20080882
-0.051316503 -0.07106291 -0.042738974 0.10861033 -0.089392 0.029735992 -0.009200555 0.00021854565
-0.20152728 0.058234725 -0.27517083 -0.28149217 0.05397258 0.033395573 -0.01811045 -0.09301638
-0.14137693 -0.13712487 -0.14066188 0.23297341 0.0813804 -0.08779882 -0.07554435 -0.0224653
-0.029498996 0.048726577 0.0074533927 -0.021451917 -0.09725661 -0.016340218 0.09447673 0.025969926
0.020768434 0.056284424 0.0859525 -0.1328857 -0.03921922 0.062964216 -0.028214935 -0.024667399
0.06283089 0.08573264 0.07849606 -0.15782517 0.053273343 -0.081762634 -0.10177171 0.11241251
-0.060544677 0.03566648 -0.055618808 0.08026136 -0.10609085 0.044068083 0.07483436 -0.0038241223
0.08867262 0.10332838 0.047308337 0.08682116 -0.14735638 -0.09187469 -0.0055489517 -0.42735782
0.06525237 0.0040365006 0.08608073 -0.0817581 -0.09706344 -0.09412842 -0.01610761 0.0028502382
-0.2022759 -0.10240586 0.035508275 -0.11607449 0.005542533 0.08632987 -0.06269222 -0.028099658
0.020062942 -0.1153567 0.049470834 0.35025704 -0.008046485 -0.029373536 -0.0431102 0.02777815
-0.055845194 -0.20030302 0.14085537 0.007749952 0.05333956 0.15942428 0.13616042 0.031596836
0.123518996 0.04073217 0.016788326 -0.018299539 0.26401967 0.03506919 -0.24850486 -0.12150622
0.08198377 0.14480974 -0.12337283 0.024546474 -0.031183442 0.043455355 -0.04929167 0.018126156
0.06895183 0.017745858 0.12895022 -0.036229867 0.04667219 0.052115817 0.03419983 -0.086159915
-0.055004533 0.044935282 0.06743246 0.06309523 -0.29818824 0.053273812 0.33558932 0.0066758455
0.1799832 0.021306867 -0.11135298 -0.05271309 -0.067521065 0.058536857 0.041357286 0.083490334
0.12069983 0.03499373 0.08969936 0.088729635 0.021192513 -0.011054966 0.026751319 0.002342841
00000000: 4b0f 623d 13b4 763c 798b 3d3b 15ee da3d
00000010: a30c b63d b212 aabc 96b9 90bd 6887 d0bd
00000020: 4cbf 573c e351 fbbd f134 85bd afee 3e3d
00000030: a09c d53d c93d 373e 8017 61bd 28f3 0c3d
00000040: bffa 51be 749e 6e3e 59fe c43d 0645 cebc
00000050: 7f56 f8bd c510 403d 0077 f5bc ff40 c1bd
00000060: 6bab 963d c132 15be 334a 23be c221 07bd
00000070: 622b cfbc 85fd 633c d805 e5bc 4515 983b
00000080: 56d3 0c3f 67d5 34be 0a3b 6bbc 356f 553d
00000090: 62ad 9c3c 9e10 a5bc 0c61 10bb d0b1 473c
000000a0: b952 c1bb 4947 abbe ace1 ff3b 5032 56bd
000000b0: e79c e03c d1f9 eebc 384f e7bd 7255 383d
000000c0: 2acb d3bd df0a 8a3c 0952 cabd 573b 703e
000000d0: ad36 84bc 8046 ed3b 38d7 7cbd cd84 b9bd
000000e0: 5de6 28bd e59d ddbe 795a 733e 44d8 40bd
000000f0: d124 e93d f5d4 813d a4b5 dabd fe63 71be
00000100: 236e 9abd 8993 99bd 93ff b1bd 758e 9b3d
00000110: 247f 093e 9062 2c3c 98c4 483d 36f6 8bbd
00000120: a2ec 96bd 7c62 87bd 9671 933d 2d8a 90bb
00000130: 7114 1abe 168d 483d 2bdc 36bd ca48 893b
00000140: d522 383d 0226 e2bc ceea fb3d aa0f dd3d
00000150: fe46 40be 9798 61bd 2826 0a3d cc16 00bc
00000160: 1c06 7dbb 31d3 393d 0e3c b2bd 32f0 d1ba
00000170: dd54 123d 4fa4 36bd 74ed 2b3d 6312 b7bd
00000180: 402d 003f 7b25 f0bc 3841 93bb 3e4c 113d
00000190: 01bf 833e c21c c9bd e1aa 5d3e ee05 0dbf
000001a0: 3884 e83d 962c a13d 9913 be3b 724f e13d
000001b0: 2dd9 093e a59f 403c 3601 253e d4a0 4d3e
000001c0: 4131 52bd 6e89 91bd 100f 2fbd 186f de3d
000001d0: 2713 b7bd e598 f33c edbd 16bc 6729 6539
000001e0: 2b5d 4ebe 8987 6e3d 31e3 8cbe be1f 90be
000001f0: 5a12 5d3d ccc9 083d 5e5c 94bc 5f7f bebd
00000200: 1dc5 10be 766a 0cbe ab09 10be 9590 6e3e
00000210: c4aa a63d decf b3bd ffb6 9abd 2609 b8bc
00000220: e1a7 f1bc 8595 473d 973b f43b eebb afbc
00000230: 792e c7bd ecdb 85bc 047d c13d e2be d43c
00000240: 9022 aa3c 7f8a 663d dd07 b03d 3013 08be
00000250: 55a4 20bd 62f3 803d 0223 e7bc 4913 cabc
00000260: 7bad 803d 9894 af3d 8bc2 a03d ec9c 21be
00000270: 2635 5a3d 2b73 a7bd b06d d0bd 8838 e63d
00000280: b2fd 77bd 0417 123d 8cd0 63bd 1160 a43d
00000290: 2946 d9bd bc80 343d c242 993d 209e 7abb
000002a0: fe99 b53d d49d d33d 63c6 413d 4bcf b13d
000002b0: 97e4 16be cc28 bcbd fbd3 b5bb a5ce dabe
000002c0: 09a3 853d 9f44 843b 184b b03d ca70 a7bd
000002d0: 32c9 c6bd 67c6 c0bd 1bf4 83bc 10cb 3a3b
000002e0: 6a21 4fbe 2aba d1bd 2071 113d 76b8 edbd
000002f0: 239e b53b b7cd b03d c764 80bd 4131 e6bc
00000300: 0a5b a43c 2240 ecbd eea1 4a3d e454 b33e
00000310: 67d5 03bc c5a0 f0bc 5294 30bd 018f e33c
00000320: eebd 64bd 3c1c 4dbe 643c 103e 4ff3 fd3b
00000330: 957a 5a3d 1e40 233e a36d 0b3e af6b 013d
00000340: 87f7 fc3d c7d6 263d ac87 893c eae8 95bc
00000350: 962d 873e b6a4 0f3d 0f78 7ebe 41d8 f8bd
00000360: 1be7 a73d 0149 143e e5aa fcbd b015 c93c
00000370: 6b74 ffbc 3efe 313d 10e6 49bd 4e7d 943c
00000380: 9e36 8d3d c35f 913c 870b 043e c565 14bd
00000390: 572b 3f3d 6577 553d 1f15 0c3d 9c74 b0bd
000003a0: 6f4c 61bd 0f0e 383d 081a 8a3d 1238 813d
000003b0: 21ac 98be a435 5a3d 5dd2 ab3e 0dc1 da3b
000003c0: 844d 383e bd8b ae3c 080d e4bd aee9 57bd
000003d0: 7c48 8abd 58c4 6f3d 4266 293d fbfc aa3d
000003e0: 7931 f73d 9655 0f3d 4cb4 b73d e2b7 b53d
000003f0: ec9b ad3c e31f 35bc 9525 db3c 598a 193b

bias f4 [256]
0.010312735 0.008099989 0.07651953 -0.017373098 -0.03356248 -0.09935493 -0.05829444 0.06058224
0.13944432 -0.115276575 0.024834106 -0.022510834 0.08433904 -0.081903584 -0.026170146 -0.035089504
-0.011498086 -0.04732275 0.073231265 -0.07186417 0.02400406 -0.065434925 0.08582296 0.1890883
-0.13814099 0.114971414 0.04651524 -0.07850216 -0.11407313 -0.118482225 0.12734213 0.112835914
-0.028989915 0.0073885596 0.06320885 -0.016463216 -0.1270797 -0.006532068 -0.04167003 -0.14992532
-0.06478518 0.051779035 0.04070333 -0.10084103 -0.046404175 0.029358516 0.10848926 0.15147378
-0.0046341186 0.07119797 -0.039634265 0.022965342 -0.13120478 0.112284124 0.12091002 -0.03289279
-0.0288041 0.045625303 0.19602029 0.014169897 -0.01427122 0.051991694 -0.12708712 0.011760816
0.00012276803 0.042969752 -0.0009784818 -0.048944674 -0.08599993 -0.21566011 -0.05239253 -0.01978558
-0.08515173 0.08353296 0.036110774 0.027027877 0.017864756 0.040180687 0.05123646 -0.04249946
-0.14599435 0.034642424 -0.009377562 -0.024141587 -0.10447839 0.09280785 0.083165176 0.037947234
0.17436415 -0.05918616 0.0711619 -0.0002775053 0.04335068 0.105017796 0.074110456 0.04393739
-0.14067912 0.2175812 -0.13905789 0.0014626227 0.054106638 -0.13022101 -0.12007232 -0.0035568683
-0.07297575 -0.044923544 -0.07182515 0.118581936 0.1312795 0.0448291 -0.061911352 0.09400134
-0.00343863 0.007993431 -0.059402946 0.025839997 -0.09490451 -0.12448068 -0.019133102 -0.07099562
-0.02279007 0.15174036 0.059739657 -0.024040053 -0.012103448 0.025061982 -0.025867868 -0.0053765113
-0.08284345 0.02951007 0.05011193 0.07754194 -0.10433426 0.0077580255 0.09759585 0.08226328
-0.10202924 -0.022937564 -0.054332167 -0.08790746 0.1083982 -0.005773767 -0.03803128 -0.10403883
0.045465365 0.019158343 -0.0374047 0.17670777 0.041484505 0.14477219 -0.025477745 0.0580648
0.031140765 0.034380484 -0.017721927 -0.0010464434 0.098996915 0.0035579414 -0.12398265 -0.101969674
0.026090538 -0.018992957 -0.0010705902 -0.006384322 0.08174729 -0.16504467 0.07552516 -0.046210762
-0.016132383 -0.05005743 0.0028854883 0.04679059 -0.020929575 -0.034184825 0.037543412 0.10828094
0.05976582 -0.083475314 -0.10062015 -0.12590839 0.055148356 0.0065815668 0.16912137 -0.033663046
0.038228203 -0.0846094 0.15817116 -0.034111306 -0.05757275 -0.065277785 -0.045615654 -0.00071256293
-0.020347621 0.12187104 -0.08438327 0.10009232 0.029441614 -0.053591643 0.017024292 0.044820383
0.060221113 -0.08552186 0.093392104 -0.037807215 0.023765894 -0.050039507 0.032436416 0.0531454
0.1520659 0.020883884 -0.056038093 -0.080433324 -0.030612411 0.11413044 -0.097948834 0.10193218
0.02592083 0.16774774 0.032753706 -0.024647458 0.051333312 -0.008479838 0.07307265 0.11876725
0.11694951 0.0030475622 0.02819175 -0.016172945 -0.0062314016 -0.00622611 -0.0018431448 -0.13168842
-0.04833655 0.09576346 -0.050056566 0.09089452 -0.044209592 0.07321942 -0.14738217 -0.01520649
-0.02912323 0.01530149 -0.014679842 -0.14667016 0.074758194 0.004067658 0.00049273466 0.049225308
-0.086259514 0.047010377 0.008382215 -0.0032230935 -0.11802383 -0.017710818 0.05294649 0.10847313
00000000: bff6 283c d1b5 043c 45b6 9c3d 0752 8ebc
00000010: d078 09bd 997a cbbd 27c6 6ebd 1525 783d
00000020: 7eca 0e3e 2016 ecbd e570 cb3c a468 b8bc
00000030: f2b9 ac3d 11bd a7bd c662 d6bc 03ba 0fbd
00000040: 7862 3cbc 80d5 41bd 46fa 953d 862d 93bd
00000050: 2aa4 c43c bf02 86bd f3c3 af3d 5da0 413e
00000060: d574 0dbe 2276 eb3d c486 3e3d bec5 a0bd
00000070: 2c9f e9bd cfa6 f2bd fa65 023e 8416 e73d
00000080: 427c edbc bb1b f23b a473 813d dedd 86bc
00000090: 2e21 02be f50a d6bb 32ae 2abd 0686 19be
000000a0: 18ae 84bd 4116 543d 89b8 263d be85 cebd
000000b0: 4e12 3ebd 4581 f03c 9e2f de3d f11b 1b3e
000000c0: ced9 97bb 3ed0 913d 8a57 22bd d021 bc3c
000000d0: 8c5a 06be 38f5 e53d ac9f f73d 97ba 06bd
000000e0: 93f6 ebbc 99e1 3a3d 8bb9 483e db28 683c
000000f0: d6d1 69bc 3ef5 543d 2023 02be 70b0 403c
00000100: 4bbb 0039 0d01 303d 6740 80ba 367a 48bd
00000110: bb20 b0bd 01d6 5cbe 8d99 56bd 5e15 a2bc
00000120: 0864 aebd 5413 ab3d e4e8 133d 9169 dd3c
00000130: 1c59 923c 8194 243d 53dd 513d ea13 2ebd
00000140: 8b7f 15be 37e5 0d3d 59a4 19bc 94c4 c5bc
00000150: c4f8 d5bd 0b12 be3d 8152 aa3d 8f6e 1b3d
00000160: 848c 323e 306d 72bd 55bd 913d 227e 91b9
00000170: 7c90 313d 9213 d73d 39c7 973d b1f7 333d
00000180: 300e 10be 9bcd 5e3e 3165 0ebe 79b5 bf3a
00000190: ec9e 5d3d a858 05be 7ae8 f5bd 591a 69bb
000001a0: 4f74 95bd c001 38bd 1019 93bd 16db f23d
000001b0: 226e 063e b89e 373d c296 7dbd c683 c03d
000001c0: a35a 61bb e1f6 023c 8150 73bd 67ae d33c
000001d0: 4c5d c2bd baef febd 06bd 9cbc 2766 91bd
000001e0: 3eb2 babc d361 1b3e 92b1 743d a5ef c4bc
000001f0: 8a4d 46bc c94e cd3c dae8 d3bc 722d b0bb
00000200: d4a9 a9bd 1abf f13c 2b42 4d3d 4fce 9e3d
00000210: 33ad d5bd 0937 fe3b 55e0 c73d a779 a83d
00000220: b5f4 d0bd 8fe7 bbbc 688b 5ebd d408 b4bd
00000230: e0ff dd3d de31 bdbb b0c6 1bbd 4f12 d5bd
00000240: e439 3a3d f5f1 9c3c ac35 19bd e2f2 343e
00000250: a8eb 293d 293f 143e b4b6 d0bc 5bd5 6d3d
00000260: eb1a ff3c 8dd2 0c3d 932d 91bc d028 89ba
00000270: e5be ca3d 5a2c 693b 9eea fdbd 7ad5 d0bd
00000280: d3bb d53c 1e97 9bbc 0c53 8cba 9333 d1bb
00000290: 206b a73d 7801 29be efac 9a3d 7f47 3dbd
000002a0: 0f28 84bc 0509 4dbd 761a 3d3b 7da7 3f3d
000002b0: 8074 abbc 6305 0cbd 1fc7 193d 66c2 dd3d
000002c0: 01cd 743d 1bf5 aabd f011 cebd 21ee 00be
000002d0: 3ee3 613d 2faa d73b 272e 2d3e 43e2 09bd
000002e0: 2d95 1c3d b147 adbd 9ff7 213e 4cb8 0bbd
000002f0: 67d1 6bbd 5cb0 85bd 7bd7 3abd 4acb 3aba
00000300: 0eb0 a6bc 8697 f93d 23d1 acbd 34fd cc3d
00000310: 8a2f f13c e982 5bbd 8776 8b3c 9495 373d
00000320: 6aaa 763d 1626 afbd 5c44 bf3d bddb 1abd
00000330: b1b0 c23c 3af6 4cbd 0cdc 043d feae 593d
00000340: 2ab7 1b3e ae14 ab3c 3388 65bd 3aba a4bd
00000350: e1c6 fabc 38bd e93d 6699 c8bd d2c1 d03d
00000360: ec57 d43c 10c6 2b3e c028 063d 77e9 c9bc
00000370: e142 523d 05ef 0abc 1da7 953d 3e3c f33d
00000380: 3a83 ef3d 9cb9 473b 63f2 e63c 207d 84bc
00000390: c930 ccbb 6504 ccbb ad95 f1ba 54d9 06be
000003a0: 8cfc 45bd a21f c43d 1d08 4dbd e826 ba3d
000003b0: 1e15 35bd 10f4 953d 5aeb 16be a424 79bc
000003c0: d793 eebc 1ab3 7a3c b883 70bc b430 16be
000003d0: d31a 993d fd49 853b dd2a 013a 7aa0 493d
000003e0: d4a8 b0bd f48d 403d 8f55 093c 893a 53bb
000003f0: 7ab6 f1bd 4716 91bc 6bde 583d 2927 de3d

weight f4 [256, 256]
0.006235205 -0.019906828 0.0282215 0.029956728 -0.032469597 -0.02470697 0.000169208 0.0076343263
-0.03432015 -0.04111271 -0.02082447 0.019620162 0.05015725 -0.03662777 0.031204589 0.021931497
-0.027651444 0.009714442 -0.06007188 -0.024099834 0.002487092 0.058080688 -0.004573782 -0.04549765
0.026508901 0.034520876 -0.035380848 0.03981528 0.04356893 0.09344832 -0.004471517 -0.028946841
0.06230493 -0.043272074 -0.008516826 -0.0022157573 0.0672434 -0.017975163 -0.034080613 0.03206583
-0.06729432 -0.015699321 -0.0005167515 -0.0037001283 0.033569872 0.011479046 0.019389499 0.07736367
0.06796604 0.010038248 0.027471807 -0.011244193 0.0035332004 0.020073285 0.023826284 0.028150767
0.035867807 -0.008505708 -0.030515349 0.00021638343 0.005219541 -0.050641406 0.008848867 -0.020686362
0.01119747 -0.035952583 -0.041094497 0.044313405 -0.008342197 0.011388436 -0.019236518 0.02608483
-0.024741547 -0.015195752 0.042101283 0.07788391 0.003636304 -8.6586224e-05 0.01561996 0.01488976
-0.0010868208 0.016770357 0.041694283 -0.07006249 0.03739927 0.011364466 -0.033088848 0.0031446896
0.061856303 0.032054238 -0.034209687 -0.039051745 0.031019216 -0.021045676 0.00808446 0.022037612
-0.037584573 -0.028765077 -0.01111811 -0.048574165 -0.011745146 -0.065530844 -0.01352271 -0.014488375
-0.011797104 0.014372522 -0.012271742 -0.019800171 -0.07507879 -0.07800141 -0.0841293 -0.022369288
0.13209927 0.013844432 0.032551818 0.060021076 0.0032065143 -0.027184255 0.050690074 0.029342437
-0.0050010434 -0.045849774 -0.036370248 -0.015645387 -0.019625403 -0.014626129 -0.017045472 -0.007889222
-0.021558179 -0.007167149 0.0152537 0.06497666 0.013567514 0.032360893 -0.0019095108 0.042605292
-0.012375312 0.032100804 -0.015132494 0.008224553 -0.023382045 0.03951349 0.0016177522 -0.0076558925
0.017406771 -0.04842621 -0.062687196 -0.04939807 -0.047704257 -0.032054234 -0.03559713 0.03170748
-0.058360253 -0.047180682 0.038370162 -0.03830103 -0.017548872 0.0037330883 -0.016989471 0.0041960194
-0.0075673456 0.016701173 -0.018618515 -0.020269282 0.013856498 -0.010866757 -0.0013072392 -0.06424118
-0.042963367 -0.010869711 0.046411436 0.026510037 0.019653099 0.04881186 0.028286373 0.04116934
0.003436381 -0.004084938 0.033686582 0.01713047 0.0032191104 -0.027260454 0.021932585 -0.0123483995
0.035542205 0.050173312 -0.030463485 0.0047105527 0.00074092357 -0.012789726 0.0072318995 -0.024266362
0.001791209 -0.0045067747 -0.042281236 -0.0106701385 -0.0069428864 -0.002007772 0.04238389 -0.03185242
0.006818967 0.010978516 0.020933216 -0.031012181 0.009280147 0.02614594 -0.0106124785 0.03414924
-0.07072371 0.020908937 0.058491174 -0.018609852 0.033666562 -0.021587675 0.0044761924 -0.01287267
0.027976545 -0.004398802 0.01034592 -0.08755608 -0.026068658 0.042007085 0.021220604 0.005305783
0.04378192 0.012499664 0.02048264 0.06313766 0.016536534 0.041540787 -0.0011305084 -0.031226214
-0.058516033 0.028813068 -0.004408976 0.030421505 -0.0023827276 0.02307694 -0.0509681 -0.008202825
-0.015652904 0.0054705143 -0.0064822976 0.0142490305 0.0034353966 -0.02110618 0.0069395886 -0.05222168
-0.024309948 -0.045812413 0.046597894 -0.017707583 0.0026161617 -0.03904213 0.002577069 -0.017614989
00000000: b150 cc3b a513 a3bc c630 e73c d067 f53c
00000010: d7fe 04bd 4666 cabc 6d6d 3139 5f29 fa3b
00000020: 4993 0cbd cd65 28bd 1498 aabc 76ba a03c
00000030: b071 4d3d 0007 16bd c4a0 ff3c afa9 b33c
00000040: 4885 e2bc 5329 1f3c ef0d 76bd 046d c5bc
00000050: 7bfe 223b 04e6 6d3d aadf 95bb be5b 3abd
00000060: 3229 d93c c365 0d3d 82eb 10bd 5915 233d
00000070: 5675 323d d561 bf3d ce85 92bb ed21 edbc
00000080: 7433 7f3d 0f3e 31bd 288a 0bbc 3d36 11bb
00000090: e8b6 893d a640 93bc 1d98 0bbd 7657 033d
000000a0: 9bd1 89bd dd9b 80bc 9b76 07ba da7d 72bb
000000b0: 9080 093d 9c12 3c3c bad6 9e3c d870 9e3d
000000c0: c731 8b3d 7777 243c 8e0c e13c 9039 38bc
000000d0: 448d 673b bb70 a43c 572f c33c 709c e63c
000000e0: 1fea 123d 865b 0bbc 53fb f9bc fce4 6239
000000f0: af08 ab3b 5d6d 4fbd d7fa 103c 7276 a9bc
00000100: 9875 373c 0443 13bd b452 28bd f981 353d
00000110: b6ad 08bc 9096 3a3c e795 9dbc daaf d53c
00000120: c9ae cabc 9af7 78bc 6572 2c3d 9981 9f3d
00000130: 0f4f 6e3b a095 b5b8 dcea 7f3c 2ef4 733c
00000140: a873 8eba fd61 893c a0c7 2a3d ec7c 8fbd
00000150: fa2f 193d 0632 3a3c 2c88 07bd 2317 4e3b
00000160: 095d 7d3d 4e4b 033d 751f 0cbd b9f4 1fbd
00000170: 031c fe3c fb67 acbc af74 043c 3988 b43c
00000180: 48f2 19bd bda4 ebbc bc28 36bc b4f5 46bd
00000190: b66e 40bc 0935 86bd 5b8e 5dbc a660 6dbc
000001a0: a448 41bc ba7a 6b3c 6b0f 49bc f833 a2bc
000001b0: e9c2 99bd 34bf 9fbd fc4b acbd cc3f b7bc
000001c0: 0845 073e c2d3 623c 0e55 053d a9d8 753d
000001d0: 6224 523b 84b1 debc 65a0 4f3d 8d5f f03c
000001e0: cbdf a3bb f9cc 3bbd f8f8 14bd c12a 80bc
000001f0: 74c5 a0bc 6ea2 6fbc f2a2 8bbc cc41 01bc
00000200: c79a b0bc 67da eabb a8ea 793c 7c12 853d
00000210: 474a 5e3c db8c 043d 8d48 faba e382 2e3d
00000220: d2c1 4abc 227c 033d 48ee 77bc 47c0 063c
00000230: b48b bfbc e6d8 213d c20a d43a 48de fabb
00000240: a598 8e3c 905a 46bd 2562 80bd a155 4abd
00000250: 8a65 43bd 4d4b 03bd 4cce 11bd b4df 013d
00000260: 290b 6fbd 8840 41bd 082a 1d3d 8ae1 1cbd
00000270: a7c2 8fbc d4a6 743b 812d 8bbc c37e 893b
00000280: 7ff7 f7bb e6d0 883c db85 98bc c40b a6bc
00000290: 5d06 633c 7b0a 32bc ab57 abba e190 83bd
000002a0: 5bfa 2fbd df16 32bc eb19 3e3d 942b d93c
000002b0: 89ff a03c f2ee 473d d3b8 e73c 2fa1 283d
000002c0: e834 613b f2da 85bb f1fa 093d 3355 8c3c
000002d0: b6f7 523b 5151 dfbc f7ab b33c f150 4abc
000002e0: b494 113d 8882 4d3d 8f8e f9bc fb5a 9a3b
000002f0: 8a3a 423a 008c 51bc 92f9 ec3b 40ca c6bc
00000300: 00c7 ea3a 91ad 93bb 172f 2dbd ced1 2ebc
00000310: 2781 e3bb d394 03bb bb9a 2d3d af77 02bd
00000320: a471 df3b 3cdf 333c 237c ab3c 420d febc
00000330: c20b 183c 0330 d63c f6df 2dbc 13e0 0b3d
00000340: 98d7 90bd 3849 ab3c 7194 6f3d b073 98bc
00000350: f3e5 093d a3d8 b0bc 06ad 923b e4e7 52bc
00000360: 112f e53c d323 90bb ef81 293c 9a50 b3bd
00000370: f08d d5bc 9f0f 2c3d d5d6 ad3c 22dc ad3b
00000380: ac54 333d 64cb 4c3c 36cb a73c 514e 813d
00000390: a077 873c ac26 2a3d 912d 94ba 1ece ffbc
000003a0: 82ae 6fbd 6209 ec3c 2c79 90bb 8536 f93c
000003b0: 8927 1cbb da0b bd3c edc3 50bd 2465 06bc
000003c0: 853a 80bc 0042 b33b 7469 d4bb c474 693c
000003d0: 6424 613b dee6 acbc 7d65 e33b 66e6 55bd
000003e0: a825 c7bc cca5 3bbd 6fdd 3e3d 7e0f 91bc
000003f0: e973 2b3b a4ea 1fbd 0be4 283b 4f4d 90bc

bias f4 [256]
-0.03408458 0.013553224 -0.019724576 0.044348422 0.051334877 0.037383348 -0.013825487 0.0026652848
0.0018485667 0.017255777 -0.009552191 0.011517034 0.041174162 0.0013839963 0.06233368 0.021344751
-0.04794441 0.007456682 0.0017694272 0.009543738 0.02900026 -0.045821775 -0.0038747173 0.0049410695
-0.00016657391 0.027979529 -0.006633279 -0.031235008 0.0041968375 0.04201385 -0.0060806368 -0.0036867915
-0.008291135 -0.03258328 -0.0017882658 -0.023235502 0.0020925272 0.0009168814 0.053343248 0.03010404
0.016499558 0.029413965 -0.0045741852 0.0063867443 -0.018609496 -0.008698452 0.0014323913 0.0077621425
0.033907272 -0.016584134 0.0054713488 -0.012560114 -0.0100405235 0.004823996 -0.008589981 0.013814575
-0.0038502244 -0.020748105 -0.036035303 0.0024888238 0.014287781 -0.019077549 0.01849622 -0.016779538
-0.014252198 0.03268666 0.012240145 -0.01930445 -0.040691458 0.06205732 -0.03137436 -0.013968139
-0.030232891 -0.013435772 -0.032599963 0.04126479 -0.0411331 0.079250306 -0.056032766 -0.025537394
-0.021832813 -0.0059590167 0.036659192 0.019220112 0.02326098 -0.013628834 -0.010205682 -0.043629542
-0.02268509 0.030462934 -0.005771485 0.016913386 -0.02189279 0.013762295 -0.0046806997 -0.011346222
0.054904457 0.019746918 -0.0065903077 -0.0098009035 -0.007928755 -0.034647264 -0.012917538 -0.014383884
0.053878605 0.007604761 -0.001440949 0.010039536 -0.01695086 -0.02022758 0.02247056 0.034670893
0.021501884 -0.06051887 -0.03246822 0.010475386 -0.016320493 -0.015451129 -0.0058121434 -0.061209124
0.008973352 0.006987524 0.04177217 -0.002210789 0.034007773 -0.0021496625 0.016299067 0.036529895
0.029631333 -0.016708707 -0.05047081 0.057021793 0.034742083 0.03651625 0.0065083792 -0.005532441
-0.045093216 -0.018747643 -0.017650403 0.003077212 -0.0019007918 -0.0027912378 0.055301026 0.039370704
0.0022224651 0.020021556 -0.01889556 -0.027579201 -0.019859191 0.0020069035 0.022991806 0.028133702
0.0198059 0.040999934 0.049312837 0.0021083185 0.011073236 -0.033656273 -0.014596126 0.017522167
0.022207897 0.008767202 0.006622924 -0.020400813 -0.034994967 -0.015070088 0.014733601 -0.012663481
0.005342 -0.020290028 0.022920316 -0.015966466 0.0067186034 -0.016149916 -0.04654406 0.037557453
0.017521715 -0.025957948 -0.02264703 -0.004282581 -0.0154348705 -0.023794403 -5.507398e-05 -0.02550578
-0.060855314 -0.0119813625 0.05487623 -0.02755289 -0.0035941408 0.00441219 -0.033137992 0.004804113
-0.037158273 0.036347758 -0.0017087663 0.028105399 -0.023705266 0.035662603 0.009722457 -0.018544866
-0.016624695 -0.04723256 0.00977679 0.022573436 -0.00053420325 -0.05182152 0.005446805 -0.01968613
0.027942287 -0.027332257 -0.012659675 0.00024926374 0.0154873105 -0.038284395 -0.017820591 0.03793605
-0.04487369 -0.02278632 0.018832592 -0.0063534863 -0.024597058 0.048127558 -0.008091906 -0.02365383
-0.02048923 -0.015400679 -0.026158575 0.018386517 0.002112617 0.05671203 0.05223594 -0.0006380092
-0.03496914 0.011834376 0.07088442 0.017243523 0.04010151 -0.0074995956 -0.02721147 0.008099581
-0.058499917 0.004126547 -0.0027199674 0.0136265615 -0.0035150456 0.014017975 -0.02274726 -0.01847285
0.036541205 -0.0037182611 0.032408994 0.021680452 0.012568325 -0.0061934423 -0.009597256 0.02698164
00000000: 469c 0bbd 570e 5e3c 6f95 a1bc b1a6 353d
00000010: 8544 523d 481f 193d 4c84 62bc 0fac 2e3b
00000020: 9b4b f23a fd5b 8d3c cb80 1cbc f1b1 3c3c
00000030: 3da6 283d 3667 b53a 9a51 7f3d 30db ae3c
00000040: 5c61 44bd 2f57 f43b 20ec e73a 575d 1c3c
00000050: f491 ed3c 9daf 3bbd f8ee 7dbb b2e8 a13b
00000060: 58aa 2eb9 5335 e53c fa5b d9bb 8fe0 ffbc
00000070: a085 893b b716 2c3d 1440 c7bb 199e 71bb
00000080: 8ad7 07bc 0c76 05bd 3e64 eaba 6158 bebc
00000090: c822 093b df5a 703a 737e 5a3d bf9c f63c
000000a0: 152a 873c 8ef5 f03c 0ce3 95bb e547 d13b
000000b0: f172 98bc f483 0ebc 14bf bb3a 9259 fe3b
000000c0: 5ae2 0a3d 73db 87bc 0049 b33b f0c8 4dbc
000000d0: 0281 24bc 9d12 9e3b febc 0cbc 8756 623c
000000e0: 0c54 7cbb eef7 a9bc c199 13bd 891b 233b
000000f0: 4c17 6a3c 8548 9cbc 6285 973c 3e75 89bc
00000100: 0d82 69bc 72e2 053d e48a 483c 5e24 9ebc
00000110: 16ac 26bd d12f 7e3d 6782 00bd 9fda 64bc
00000120: f8aa f7bc b621 5cbc 8a87 05bd 4505 293d
00000130: 2e7b 28bd fc4d a23d 9d82 65bd cc33 d1bc
00000140: bada b2bc db43 c3bb f327 163d 7f73 9d3c
00000150: d08d be3c 794b 5fbc bc35 27bc e4b4 32bd
00000160: 15d6 b9bc 678d f93c ba1e bdbb f18d 8a3c
00000170: 8258 b3bc 407b 613c 8e60 99bb 81e5 39bc
00000180: 7fe3 603d 4ac4 a13c 82f3 d7bb f893 20bc
00000190: 9ce7 01bc 4aea 0dbd 15a4 53bc 62aa 6bbc
000001a0: d0af 5c3d 5c31 f93b 3ade bcba de7c 243c
000001b0: 88dc 8abc 4fb4 a5bc 2e14 b83c 1103 0e3d
000001c0: b824 b03c a2e2 77bd 65fd 04bd f4a0 2b3c
000001d0: 8eb2 85bc bb26 7dbc cb73 bebb 6bb6 7abd
000001e0: f704 133c 9af7 e43b 4c19 2b3d e2e2 10bb
000001f0: bc4b 0b3d 5ae1 0cbb 9f85 853c 5fa0 153d
00000200: 69bd f23c b3e0 88bc 7bba 4ebd af8f 693d
00000210: b74d 0e3d 1092 153d 3e44 d53b 7b49 b5bb
00000220: aab3 38bd a894 99bc 9497 90bc 0dab 493b
00000230: fd23 f9ba 33ed 36bb 5483 623d 2d43 213d
00000240: c7a6 113b 3f04 a43c ddca 9abc c7ed e1bc
00000250: beaf a2bc 4186 033b 5059 bc3c a678 e63c
00000260: fc3f a23c 8cef 273d 42fc 493d b72b 0a3b
00000270: 856c 353c 29db 09bd 9724 6fbc a68a 8f3c
00000280: 56ed b53c 4fa4 0f3c 1d05 d93b 9b1f a7bc
00000290: e256 0fbd 88e8 76bc 3465 713c 7d7a 4fbc
000002a0: f20b af3b 4637 a6bc 63c3 bb3c 1bcc 82bc
000002b0: bb27 dc3b d44c 84bc fca4 3ebd d8d5 193d
000002c0: b389 8f3c c3a5 d4bc 4486 b9bc e554 8cbb
000002d0: 8ae2 7cbc 7bec c2bc 3cff 66b8 7ff1 d0bc
000002e0: 6c43 79bd 7a4d 44bc e6c5 603d 99b6 e1bc
000002f0: ad8b 6bbb 2294 903b b4bb 07bd d26b 9d3b
00000300: 4633 18bd 63e1 143d aff8 dfba 4b3d e63c
00000310: 8c31 c2bc f312 123d f14a 1f3c 67eb 97bc
00000320: 8330 88bc ee76 41bd d42e 203c edeb b83c
00000330: c609 0cba cd42 54bd 1d7b b23b cf44 a1bc
00000340: 39e7 e43c e6e7 dfbc 876a 4fbc 9daf 8239
00000350: 7dbe 7d3c 19d0 1cbd 7dfc 91bc d562 1b3d
00000360: 79cd 37bd 60aa babc cf46 9a3c e830 d0bb
00000370: c57f c9bc 6721 453d ea93 04bc adc5 c1bc
00000380: 08d9 a7bc 2153 7cbc 824a d6bc 529f 963c
00000390: d573 0a3b e04a 683d 5af5 553d 1340 27ba
000003a0: cd3b 0fbd f8e4 413c da2b 913d 4a42 8d3c
000003b0: 7b41 243d 2bbf f5bb 97ea debc 1bb4 043c
000003c0: 9c9d 6fbd fc37 873b 7b41 32bb f141 5f3c
000003d0: ae5c 66bb a6ab 653c 7658 babc 6054 97bc
000003e0: 3bac 153d 12ae 73bb 4bbf 043d 349b b13c
000003f0: 60eb 4d3c 5cf2 cabb cf3d 1dbc 9a08 dd3c
