outputs/2023-09-24-20-37-59/trained_model/tetris_epoch2557_score5400.pt (torch, 842187 bytes, 8 tensors)

weight f4 [32, 1, 4, 4]
0.060834177 0.0097529385 -0.015571738 0.0014388664 -0.035239737 0.056442022 -0.018411916 0.04816911
-0.2020833 0.12198683 0.19370703 -0.0024461278 0.071414925 0.14931983 0.15403488 -0.037917234
0.4201338 -0.018285189 -0.52472615 -0.26765135 -0.3298317 0.04875075 -0.17875704 0.029425597
0.12558837 -0.41813862 0.024116496 -0.35562387 -0.13215277 0.0020647696 0.11250183 -0.61276263
0.045224346 -0.015167347 -0.7538214 -0.20930475 -0.03678431 -0.26549813 0.1436319 -0.30009842
0.09020778 0.30929095 0.06806777 0.0043546273 -0.07903533 -0.11542626 -0.09899451 -0.0459043
-0.28486007 -0.34307888 -0.110731594 -0.0076308455 0.12853257 -0.11673635 0.2712587 0.12645426
-0.19977157 0.09178521 -0.43397537 0.08586149 -0.28012618 -0.36976534 -0.4059474 0.12428322
-0.07891588 -0.80956066 -0.03730247 -0.010698979 0.07252852 0.07792491 0.08676072 0.041780323
0.2750384 -0.87367666 0.29729852 -0.009203012 -0.051205054 -0.104298584 -0.022240523 0.0013631058
0.015532874 0.07244352 -0.13858114 -0.0829197 -0.01180615 -0.017653655 0.3047179 0.7949727
0.028648404 0.026348034 -0.28427508 -0.75516295 -0.0029720156 -0.02531637 -0.09919989 -0.029298732
0.059956476 0.042565387 0.16086267 0.28452045 0.08559708 -0.006007182 0.19853023 -0.47512978
0.09219795 0.07151328 0.011960037 -0.6465918 -0.0562017 0.00091835944 0.05551281 -0.285959
0.008804137 0.017901307 0.14428109 -0.16644786 0.06522548 0.10261505 -0.7172284 -0.49963266
-0.013855769 0.07027155 -0.46327588 -0.12270013 0.00590173 0.20950267 -0.2786939 -0.49945682
-0.05310407 0.062834285 -0.37724376 -0.1639977 0.14705332 0.18832819 0.10150001 -0.2213004
-0.061756667 0.13584054 -0.35974753 -0.8242974 0.13382007 -0.06873976 -0.081631325 0.08688439
-0.067454435 -0.009331839 0.0037117382 0.06602927 -0.087546 -0.21134035 -0.4873341 -0.0046129962
-0.12381814 0.46518505 0.20309871 -0.07698021 0.055771474 -0.90834355 0.09129807 0.035597347
0.047347285 -0.039162327 -0.048403505 -0.11082811 -0.0029076266 0.05393883 -0.25345102 -0.013749599
-0.054663323 0.024203602 0.59114134 -0.06958492 -0.0053146277 -0.059523873 -0.6816266 -0.033804774
-0.14871849 -0.37830234 -0.28350067 -0.12180093 -0.0685491 -0.24892232 -0.013098859 0.22436471
-0.046796545 0.03340871 0.10985379 -0.59244686 0.07393441 -0.031657442 0.1173198 -0.40838537
0.15532286 -0.08948281 -0.018291354 -0.12255061 0.020742802 0.49941573 -0.035497066 -0.03168625
0.032433588 -0.53648216 0.1984142 -0.031959664 -0.07616993 -0.5557503 -0.18560232 0.013193371
-0.0050081005 -0.044635188 0.0043225014 0.016070472 -0.003077737 0.14820884 0.12797324 0.005261754
0.06704961 0.8849431 -0.021026528 0.03149371 -0.018621724 -1.4009047 0.079693116 -0.015102241
0.008263387 0.470526 0.057202403 0.015051239 -0.012274579 0.7119777 -0.0011115085 0.009102137
-0.0013597683 -1.3023307 0.00305764 0.0009113037 -0.026715165 -0.032279324 -0.031903334 -0.021517633
-0.28527817 -0.043404777 0.11840225 -0.12460239 -0.06584245 -0.23490389 -0.0727258 -0.042053483
0.16488037 0.1778516 0.12139763 0.13762414 -0.00084462145 0.104395844 -0.006265755 0.13888095
00000000: 422d 793d caca 1f3c 9a20 7fbc 5898 bc3a
00000010: 8b57 10bd c02f 673d 96d4 96bc f94c 453d
00000020: edee 4ebe 3bd4 f93d 235b 463e 374f 20bb
00000030: fd41 923d 4ce7 183e 52bb 1d3e 1a4f 1bbd
00000040: c71b d73e d2ca 95bc 7454 06bf 9909 89be
00000050: b3df a8be deae 473d 160c 37be f30d f13c
00000060: 3d9a 003e 4416 d6be f58f c53c 5514 b6be
00000070: 0e53 07be 1651 073b 5c67 e63d 03de 1cbf
00000080: 2a3d 393d 7780 78bc 70fa 40bf fc53 56be
00000090: 25ab 16bd 5fef 87be 3e14 133e 80a6 99be
000000a0: dbbe b83d 625b 9e3e 1d67 8b3d 43b1 8e3b
000000b0: 46dd a1bd 9a64 ecbd a2bd cabd 2606 3cbd
000000c0: 2ed9 91be 09a8 afbe 3fc7 e2bd 2c0c fabb
000000d0: 0b9e 033e 7813 efbd 6ce2 8a3e 3a7d 013e
000000e0: eb90 4cbe e2f9 bb3d 0532 debe 26d8 af3d
000000f0: b36c 8fbe e251 bdbe 56d8 cfbe 3388 fe3d
00000100: a69e a1bd 5e3f 4fbf 7aca 18bd c54a 2fbc
00000110: d589 943d 1897 9f3d 9baf b13d d821 2b3d
00000120: d5d1 8c3e 46a9 5fbf 8337 983e 3bc8 16bc
00000130: 64bc 51bd 7f9a d5bd c231 b6bc 3eaa b23a
00000140: 987d 7e3c 455d 943d 37e8 0dbe ced1 a9bd
00000150: 956e 41bc 669e 90bc fc03 9c3e 5583 4b3f
00000160: 0fb0 ea3c d5d7 d73c 818c 91be 5c52 41bf
00000170: 26c6 42bb 4764 cfbc 5029 cbbd e503 f0bc
00000180: ec94 753d 0b59 2e3d 2fb9 243e aaac 913e
00000190: 864d af3d e5d7 c4bb 824b 4b3e 3644 f3be
000001a0: 47d2 bc3d 8e75 923d 08f4 433c 0a87 25bf
000001b0: c133 66bd 0fbe 703a 6661 633d 3869 92be
000001c0: 3a3f 103c c3a5 923c 6cbe 133e 4f71 2abe
000001d0: f094 853d d727 d23d 489c 37bf dacf ffbe
000001e0: 4f03 63bc 88ea 8f3d 7f32 edbe 354a fbbd
000001f0: 4d63 c13b de87 563e f8b0 8ebe ceb8 ffbe
00000200: a783 59bd 43af 803d 1826 c1be 03ef 27be
00000210: 2595 163e 1bd9 403e 3ddf cf3d 929c 62be
00000220: 8ff4 7cbd c819 0b3e d430 b8be 2805 53bf
00000230: 2108 093e 6ec7 8cbd 532e a7bd 71f0 b13d
00000240: 8d25 8abd 92e4 18bc a240 733b 5b3a 873d
00000250: 514b b3bd 9b69 58be db83 f9be 9e28 97bb
00000260: 5d94 fdbd bc2c ee3e 1cf9 4f3e cda7 9dbd
00000270: a170 643d 3489 68bf 7cfa ba3d 86ce 113d
00000280: 3aef 413d ad68 20bd c142 46bd d9f9 e2bd
00000290: e18d 3ebb f6ee 5c3d 55c4 81be 0046 61bc
000002a0: a6e6 5fbd a246 c63c 0a55 173f 8a82 8ebd
000002b0: 5426 aebb 4ecf 73bd 157f 2ebf e076 0abd
000002c0: a949 18be d8b0 c1be 0027 91be c472 f9bd
000002d0: 7863 8cbd 7ee5 7ebe 999c 56bc ddbf 653e
000002e0: bcad 3fbd 92d7 083d 06fb e03d 99aa 17bf
000002f0: ed6a 973d 3cab 01bd 5d45 f03d e317 d1be
00000300: f50c 1f3e c342 b7bd c0d7 95bc d0fb fabd
00000310: cfec a93c 6bb3 ff3e 5f65 11bd 71c9 01bd
00000320: 15d9 043d e556 09bf 182d 4b3e 23e8 02bd
00000330: fbfe 9bbd a745 0ebf 890e 3ebe 0229 583c
00000340: fe1a a4bb 63d3 36bd c5a3 8d3b 39a6 833c
00000350: dcb3 49bb 0fc4 173e 6b0b 033e cb6a ac3b
00000360: 4e51 893d a28b 623f d33f acbc 8cff 003d
00000370: 968c 98bc d850 b3bf 2536 a33d 646f 77bc
00000380: 2863 073c c9e8 f03e 114d 6a3d 7999 763c
00000390: 511b 49bc 2c44 363f 09b0 91ba 2121 153c
000003a0: 413a b2ba c6b2 a6bf b062 483b 8ee4 6e3a
000003b0: c3d9 dabc 5337 04bd 12ad 02bd bf45 b0bc
000003c0: fb0f 92be 35c9 31bd e17c f23d 8a2f ffbd
000003d0: 68d8 86bd a58a 70be 44f1 94bd 4640 2cbd
000003e0: 66d6 283e bb1e 363e 529f f83d 58ed 0c3e
000003f0: 9669 5dba 7dcd d53d f650 cdbb cf36 0e3e

weight f4 [32, 32, 5, 5]
0.1438457 -0.14755738 0.094912544 0.098565675 0.1664689 0.19624539 -0.23026608 0.035089444
-0.020951698 -0.26807538 0.032689176 -0.091672465 0.04755094 -0.21382397 0.024019463 -0.04677602
-0.48888916 -0.26981944 -0.019612445 -0.14681776 0.08040874 0.07283356 -0.13649786 0.054075256
0.08702641 0.31190154 -0.2929128 0.078279786 0.3093207 0.40673935 0.1565829 0.3104191
-0.2462447 0.027187523 0.08120221 0.11916525 -0.4235308 -0.3958525 0.14055991 -0.3206228
0.030605247 0.1398732 0.0029226732 -0.093368724 -0.2510082 -0.1867265 0.5465324 0.009793615
0.05295852 0.1934839 0.019054351 -0.23482853 0.09595406 0.006512269 0.35116473 0.3393812
0.17858486 -0.45283437 -0.5567247 -0.21296053 -0.0783737 0.23808946 -0.064967744 -0.21867001
0.044946093 0.21056665 -0.4762256 0.06869797 0.083475284 -0.14902405 -0.024343368 -0.27678135
0.05541215 -0.34104007 0.31141368 -0.33460996 -0.18617474 0.29507175 -0.67670435 0.11759774
-0.5359397 0.26111063 0.109894745 -0.5227216 -0.18730557 -0.5552795 -0.09275456 -0.23289983
-0.02851676 -0.6391814 -1.1454651 0.11356949 -0.54343295 0.10656596 0.2197671 -0.084074296
0.238216 -0.21886306 0.29746532 -0.35737994 0.033054363 0.23438784 0.07616017 0.8281609
-0.7733551 -0.40558797 0.41688004 -0.0025265631 0.061365455 0.013770463 -0.4595375 -0.014566993
0.23142946 -0.18454883 0.6889448 -0.25775546 -0.1574824 -0.45410606 -0.19622767 -0.3970419
0.045228973 0.10849727 0.13124341 -0.11917556 -0.13971345 -0.060362056 0.038735215 -0.13144577
0.011754154 -0.08768884 0.01780375 -0.14448419 0.11470058 0.03798069 -0.1552565 -0.0045435578
-0.030184232 -0.022156771 -0.097991705 -0.1615228 -0.39398724 -1.1906253 -0.69721884 -0.1267425
-0.5438605 -0.021917202 -0.1109415 -0.012752492 -0.18505234 -0.41587174 0.31649616 0.035047777
-0.01044704 -0.4465305 -0.418092 0.16106065 0.12908953 -0.38464347 0.024417598 -1.0280614
0.039129175 0.23266213 -0.30907112 0.21491954 0.14623027 -0.37897137 -0.15844181 -0.3534816
0.09065311 -0.23247011 0.038235053 -0.04503822 0.12165859 0.2907845 0.20053726 -0.101832755
-0.5726863 0.57703525 -0.19513789 -0.2153831 0.10164838 -0.0013067839 0.13587923 0.28041428
-1.0581255 0.11534234 -0.27682889 -0.24288471 0.19378844 -0.06441664 0.19226788 -0.3626811
-0.19761057 0.14501388 0.3814454 -0.26421475 -0.18673928 -0.069713384 0.23765938 0.14072798
0.24091645 -0.1494813 0.30439314 0.2914272 0.263637 -0.7170564 0.0060740085 -0.15882298
-0.011159443 -0.06353399 -0.5810165 0.1576402 -0.13320208 0.0509134 -0.63381445 -0.45317444
-0.30474865 -0.24871148 0.09516751 0.027301913 -0.22483353 0.12730162 0.0093982965 -0.24937183
0.29669228 0.15314806 0.08732382 -0.3575388 -0.02710288 -0.12898314 -0.4958528 0.05816075
-0.23218305 -0.546846 -0.20231654 -0.9227753 -0.009914654 -0.0409714 0.051486474 -0.3045086
-0.1614799 0.29483253 -0.33555263 0.13690871 -0.605008 -0.20566371 0.17122972 0.082069404
-0.042616025 0.06597111 0.41533217 -0.75655365 0.056264747 0.23537455 -0.038082253 -0.62667835
00000000: 4a4c 133e 4819 17be 8261 c23d cddc c93d
00000010: d376 2a3e 8df4 483e dfca 6bbe f3b9 0f3d
00000020: e5a2 abbc 2d41 89be 16e5 053d c6be bbbd
00000030: c6c4 423d acf4 5abe 77c4 c43c 3698 3fbd
00000040: ae4f fabe c625 8abe 47aa a0bc 6557 16be
00000050: 56ad a43d c329 953d 18c6 0bbe 047e 5d3d
00000060: e73a b23d 8fb1 9f3e abf8 95be 2751 a03d
00000070: 485f 9e3e 2440 d03e 4557 203e 41ef 9e3e
00000080: 9227 7cbe 5eb8 de3c 584d a63d e90c f43d
00000090: 07d9 d8be 2ead cabe f0ee 0f3e ac28 a4be
000000a0: dbb7 fa3c ec3a 0f3e 528a 3f3b 1a38 bfbd
000000b0: 2684 80be 3b35 3fbe 8ce9 0b3f 6675 203c
000000c0: 08eb 583d a520 463e df17 9c3c e476 70be
000000d0: 9083 c43d df64 d53b ddcb b33e 5fc3 ad3e
000000e0: f3de 363e e8d9 e7be 8385 0ebf 5312 5abe
000000f0: 6482 a0bd b9cd 733e cf0d 85bd 08eb 5fbe
00000100: 6519 383d c99e 573e d8d3 f3be 85b1 8c3d
00000110: 17f5 aa3d c399 18be be6b c7bc 49b6 8dbe
00000120: daf7 623d ce9c aebe 9d71 9f3e ff51 abbe
00000130: 97a4 3ebe a513 973e 7f3c 2dbf 15d7 f03d
00000140: 5833 09bf 4bb0 853e 7f10 e13d 15d1 05bf
00000150: 08cd 3fbe cc26 0ebf 1af6 bdbd 4b7d 6ebe
00000160: fb9b e9bc 64a1 23bf 9a9e 92bf 1f97 e83d
00000170: 6c1e 0bbf 413f da3d a00a 613e 252f acbd
00000180: e5ee 733e a31d 60be 604d 983e 81fa b6be
00000190: 0364 073d 5e03 703e ddf9 9b3d 5a02 543f
000001a0: 9afa 45bf 3aa9 cfbe 4d71 d53e b294 25bb
000001b0: 585a 7b3d 829d 613c 8048 ebbe 66aa 6ebc
000001c0: d8fb 6c3e 5efa 3cbe b05e 303f 86f8 83be
000001d0: 1143 21be 9780 e8be e8ef 48be 1349 cbbe
000001e0: 0442 393d d133 de3d ac64 063e 5112 f4bd
000001f0: 0b11 0fbe 343e 77bd d1a8 1e3d b899 06be
00000200: 7f94 403c 3596 b3bd 2bd9 913c aaf3 13be
00000210: 23e8 ea3d a491 1b3d 8ffb 1ebe 20e2 94bb
00000220: ec44 f7bc 1e82 b5bc e0af c8bd 3c66 25be
00000230: b2b8 c9be 6966 98bf ef7c 32bf c9c8 01be
00000240: 713a 0bbf b48b b3bc 4c35 e3bd d4ef 50bc
00000250: 5c7e 3dbe 24ed d4be c90b a23e 428e 0f3d
00000260: 102a 2bbc a59f e4be 2810 d6be 15ed 243e
00000270: 0c30 043e fdef c4be 6a07 c83c 8497 83bf
00000280: ea45 203d fb3e 6e3e 923e 9ebe de13 5c3e
00000290: 63bd 153e 8908 c2be 923e 22be 8afb b4be
000002a0: 56a8 b93d a50c 6ebe 5c9c 1c3d ff79 38bd
000002b0: 2428 f93d b5e1 943e a459 4d3e b18d d0bd
000002c0: 929b 12bf 95b8 133f 3ad2 47be 638d 5cbe
000002d0: 072d d03d 6448 abba ed23 0b3e 7692 8f3e
000002e0: a870 87bf 9b38 ec3d 84bc 8dbe c5b6 78be
000002f0: 7a70 463e dfec 83bd dfe1 443e 56b1 b9be
00000300: 6d5a 4abe 857e 143e d04c c33e 2847 87be
00000310: 9538 3fbe e4c5 8ebd fb5c 733e ff1a 103e
00000320: cdb2 763e a011 19be 6bd9 9b3e f235 953e
00000330: 6efb 863e 0291 37bf 7a08 c73b 7ea2 22be
00000340: 19d6 36bc 1c1e 82bd 7fbd 14bf 6f6c 213e
00000350: 2066 08be 928a 503d aa41 22bf 7b06 e8be
00000360: 0408 9cbe 39ae 7ebe 2fe7 c23d 43a8 df3c
00000370: c33a 66be 5b5b 023e 50fb 193c 545b 7fbe
00000380: 0de8 973e d8d2 1c3e d5d6 b23d 530f b7be
00000390: dc06 debc 2814 04be 6be0 fdbe f739 6e3d
000003a0: 65c1 6dbe 19fe 0bbf 112c 4fbe 013b 6cbf
000003b0: 1371 22bc a0d1 27bd 7be3 523d 8de8 9bbe
000003c0: fd5a 25be 4af4 963e 8ecd abbe cc31 0c3e
000003d0: cee1 1abf 8299 52be d856 2f3e 0114 a83d
000003e0: 248e 2ebd dc1b 873d 6ba6 d43e 80ad 41bf
000003f0: dd75 663d 0706 713e 23fc 1bbd fe6d 20bf

weight f4 [64, 32, 5, 5]
0.17153014 0.048673946 -0.096417435 0.19259731 -0.39501536 0.21601473 0.12246943 0.14156264
-0.11978402 0.09433601 -0.0039552166 -0.20796026 -0.16945672 -0.003987935 0.6317366 -0.115143865
0.09815881 0.11662113 -0.097527966 0.34254438 -0.050958354 -0.20553735 -0.017909301 0.42774615
0.055083293 0.5504765 -0.35678986 -0.13161664 -0.35292193 0.043332875 -0.069392614 0.30044392
0.27614135 -0.47614554 -0.22513248 -0.19440217 0.16042937 0.56973904 -0.07701994 -0.16887847
0.39037946 0.29053497 -0.37190583 0.46013084 0.016765332 -0.113382705 0.5598043 0.40227878
0.16474244 0.007756579 -0.34117547 -0.044998996 0.3551152 0.023708275 -0.043028224 0.49739003
-0.14035808 -0.58351976 -0.5245958 -0.8101224 0.2713 0.06232735 -0.41829616 0.36553466
-0.3527548 0.1546495 0.08989189 0.31008515 -0.23785642 -0.11598583 0.64299136 0.16064538
-0.054110147 0.13266666 -0.21919219 -0.23982139 -0.4452703 -0.08718103 0.24443372 -0.36000082
0.5997089 0.35845372 0.10993015 0.23879509 0.42322493 -0.065356225 -0.33820626 -0.2853322
-0.39957803 -1.1951355 -0.69890606 -0.030814411 -1.4817272 -0.36976755 0.25724292 0.21151479
0.090971 -0.15390076 0.47035617 0.124646746 -0.3574936 0.39588353 0.018121516 0.11898434
0.2666282 0.038827125 -0.20826651 0.18876886 0.1363454 0.6758247 0.226877 -0.0068841265
-0.23958953 -0.036249984 -0.27849036 -0.1931776 0.14626645 -0.25794438 -0.6874616 -0.6444666
-0.3611851 -0.08244538 0.12886949 0.2847484 -0.25560942 -0.005234146 -0.578339 -0.20825681
0.30677527 -0.9637511 0.48609656 -0.27870125 0.16945757 -0.002012873 -0.16196309 0.05966306
0.16817501 0.34541893 -0.060289275 -0.26278374 -0.50771445 -0.17302077 0.12085241 -0.10145174
-0.017772667 -0.3955272 -0.10368449 0.09645706 -0.014460641 0.17039175 0.0067523047 -0.45134673
0.007136267 -0.18945295 -0.5182826 0.116997376 0.028845953 0.21777396 -0.07700119 0.061839804
-0.016125986 0.22443646 0.2608819 -0.260606 -0.23116249 0.051439326 -0.08174913 -0.05351172
-0.1295455 -0.43171877 0.35819194 0.16427422 0.13964224 -0.123147406 -0.3069518 -0.117236026
-0.5126771 0.055171754 -0.007494608 0.16437905 0.43733832 0.024281483 -0.077988684 -0.07090353
0.040735804 0.3747436 -0.31354618 -0.17647994 0.3193088 0.3861682 -0.20640479 -0.13985609
-0.10865491 -0.22979596 -0.17193237 0.27630275 -0.19228436 0.2157759 -0.7292043 -0.23272608
0.17223822 0.2729337 -0.033728622 -0.3681475 -0.067737415 0.3951902 -0.9937711 0.19549465
-0.34347096 0.1368804 0.36168364 0.21633247 0.032605264 -0.13197064 -0.41249752 0.4454978
0.08104031 0.088875346 -0.11877637 0.5729749 0.29925343 -0.045779157 -0.17519912 0.04376417
-0.10421306 0.450171 0.1010141 -0.09392867 -0.29373494 0.29397503 0.11153769 0.4561373
0.13213082 -0.015247411 0.6381533 0.09405936 0.17652929 0.02602115 0.20073624 0.20491701
0.4807679 0.118983746 -0.15604466 0.39578864 -0.06203468 0.08671808 -0.20821904 0.1708971
0.5557773 -0.31212804 0.21325482 0.11807204 0.35806006 -0.07239572 0.32906568 0.39118508
00000000: 99a5 2f3e 555e 473d 8176 c5bd 3b38 453e
00000010: 743f cabe f732 5d3e 41d1 fa3d ccf5 103e
00000020: 5351 f5bd 3d33 c13d c39a 81bb 89f3 54be
00000030: 1086 2dbe 39ad 82bb 7db9 213f 8cd0 ebbd
00000040: 7c07 c93d 0fd7 ee3d bebc c7bd fa61 af3e
00000050: b5b9 50bd 6278 52be 87b6 92bc 8b01 db3e
00000060: 059f 613d 07ec 0c3f 29ad b6be 83c6 06be
00000070: 2fb2 b4be d07d 313d b71d 8ebd c9d3 993e
00000080: 6662 8d3e 59c9 f3be 2189 66be 5d11 47be
00000090: 9947 243e 6bda 113f a1bc 9dbd 7aee 2cbe
000000a0: d1df c73e 00c1 943e 716a bebe 4596 eb3e
000000b0: 7357 893c 3135 e8bd 564f 0f3f 7cf7 cd3e
000000c0: 3eb2 283e e72a fe3b 8dae aebe de50 38bd
000000d0: a9d1 b53e db37 c23c 5d3e 30bd e8a9 fe3e
000000e0: 07ba 0fbe 8d61 15bf e94b 06bf 2e64 4fbf
000000f0: d5e7 8a3e f74a 7f3d ea2a d6be 5c27 bb3e
00000100: 479c b4be 705c 1e3e 3d19 b83d 7bc3 9e3e
00000110: a290 73be fb89 edbd 159b 243f 3980 243e
00000120: 9aa2 5dbd c5d9 073e eb73 60be bd93 75be
00000130: 78fa e3be f88b b2bd d54c 7a3e 0752 b8be
00000140: 8686 193f 3f87 b73e 0f23 e13d b386 743e
00000150: f0b0 d83e 7cd9 85bd 5f29 adbe 1017 92be
00000160: 7e95 ccbe 33fa 98bf 82eb 32bf 816e fcbc
00000170: 3da9 bdbf 2c52 bdbe 58b5 833e 5597 583e
00000180: 014f ba3d 2998 1dbe 86d2 f03e cb46 ff3d
00000190: 6709 b7be 3fb1 ca3e 9373 943c 10ae f33d
000001a0: 7e83 883e 3109 1f3d d143 55be a04c 413e
000001b0: 219e 0b3e d902 2d3f 7252 683e 3d94 e1bb
000001c0: f556 75be dd7a 14bd 4a96 8ebe 59d0 45be
000001d0: dfc6 153e 4911 84be 7cfd 2fbf c3fb 24bf
000001e0: 41ed b8be 20d9 a8bd 5df6 033e 8bca 913e
000001f0: 3ddf 82be 3383 abbb 060e 14bf 4641 55be
00000200: a611 9d3e 64b8 76bf a6e1 f83e eeb1 8ebe
00000210: 4986 2d3e 68ea 03bb a7d9 25be 4161 743d
00000220: 1236 2c3e c0da b03e e3f1 76bd 978b 86be
00000230: 93f9 01bf 5b2c 31be 7881 f73d eec5 cfbd
00000240: fc97 91bc 8b82 cabe 8958 d4bd 478b c53d
00000250: 53ec 6cbc 2d7b 2e3e 7042 dd3b eb16 e7be
00000260: 59d7 e93b f4ff 41be 2bae 04bf 529c ef3d
00000270: 594e ec3c 2300 5f3e cdb2 9dbd bc4b 7d3d
00000280: a51a 84bc acd2 653e 5092 853e 266e 85be
00000290: dcb5 6cbe 0bb2 523d 166c a7bd 1b2f 5bbd
000002a0: 93a7 04be 3e0a ddbe ef64 b73e 8037 283e
000002b0: 60fe 0e3e b534 fcbd c928 9dbe 7119 f0bd
000002c0: ce3e 03bf c7fb 613d 5495 f5bb fb52 283e
000002d0: cfea df3e f6e9 c63c 88b8 9fbd df35 91bd
000002e0: 96da 263d 65de bf3e 2089 a0be 28b7 34be
000002f0: 717c a33e d7b7 c53e c75b 53be 6f36 0fbe
00000300: 7786 debd a24f 6bbe 0a0f 30be 8e77 8d3e
00000310: 31e6 44be 5cf4 5c3e 22ad 3abf bf4f 6ebe
00000320: 375f 303e f7bd 8b3e 0627 0abd d47d bcbe
00000330: eab9 8abd 5f56 ca3e c867 7ebf c02f 483e
00000340: 6ddb afbe 602a 0c3e 992e b93e 4286 5d3e
00000350: 198d 053d 5023 07be e032 d3be 4a18 e43e
00000360: 76f8 a53d 4704 b63d 0741 f3bd 7cae 123f
00000370: bf37 993e ed82 3bbd 6667 33be 0f42 333d
00000380: a86d d5bd d07c e63e 7be0 ce3d ad5d c0bd
00000390: 6d64 96be e583 963e df6d e43d d48a e93e
000003a0: 4d4d 073e 47d0 79bc 045e 233f 32a2 c03d
000003b0: 18c4 343e 4f2a d53c cd8d 4d3e c4d5 513e
000003c0: 3627 f63e c0ad f33d 2cca 1fbe cfa4 ca3e
000003d0: 1418 7ebd 4099 b13d 5f37 55be a6ff 2e3e
000003e0: 6c47 0e3f 3fcf 9fbe 795f 5a3e c1cf f13d
000003f0: a653 b73e 3544 94bd 4c7b a83e 6949 c83e

weight f4 [256, 256]
0.0472088 0.024340091 -0.0012037257 0.059850242 0.08889129 -0.020760868 -0.07066648 -0.10182077
0.013168167 -0.12271478 -0.065042384 0.046614345 0.13932022 0.11836624 -0.04834015 0.03525292
-0.18307382 0.20236677 0.09318577 -0.0023347822 -0.12125873 0.046890993 -0.02996397 -0.09436225
0.07356914 -0.14570142 -0.15946274 -0.03299118 0.04914789 0.02827798 -0.02757993 0.018651085
0.60169095 -0.25694036 -0.0028180024 0.11678669 -0.008197581 0.009087668 -0.015852578 -0.008742536
-0.005899754 -0.33210033 0.009874574 -0.076060556 0.022805411 -0.050749198 -0.19209492 0.03390314
-0.07650295 0.038910676 -0.092554554 0.25406182 -0.016139353 0.0072410703 -0.061728686 -0.09058533
-0.041235317 -0.43284526 0.23764981 -0.047081247 0.13642468 0.0101334825 -0.17308687 -0.235733
-0.07540538 -0.07498843 -0.08691325 0.07595531 0.17360562 -0.027442034 0.018308535 -0.068340704
-0.045267027 -0.05148072 0.07199399 -0.004411003 -0.13412507 0.048829418 -0.044643562 -0.038100403
0.044955093 -0.027606014 0.12300645 0.10794003 -0.1836103 -0.029021252 0.025581995 0.01341268
-0.0038608378 0.045367423 -0.08702861 -0.0016017018 0.035725463 -0.04459029 0.0419745 -0.08939054
0.5387366 -0.1792438 -0.02069811 0.07778507 0.21654144 -0.07127959 0.2456674 -0.5455573
0.11353344 0.07869832 0.005800676 0.11001481 0.13461752 0.011756812 0.16113743 0.20080882
-0.01324415 -0.094476976 -0.065772966 0.10551692 -0.089392 0.029735992 -0.009200555 0.00021854565
-0.16688146 0.050843522 -0.27517083 -0.28149217 0.05397258 0.033395573 -0.01811045 -0.09301638
-0.11550473 -0.13161105 -0.14066188 0.23297341 0.0813804 -0.08779882 -0.07554435 -0.0224653
-0.0032961713 0.032163 0.0053629573 -0.017802194 -0.09725661 -0.016340218 0.09447673 0.025969926
0.064648814 0.048493862 0.048780683 -0.08979074 -0.037421983 0.059069447 -0.025178274 -0.022159189
0.06283089 0.08573264 0.07849606 -0.15782517 0.053273343 -0.081762634 -0.10177171 0.11241251
-0.060544677 0.03566648 -0.055618808 0.08026136 -0.10609085 0.044068083 0.07483436 -0.0038241223
0.08867262 0.10332838 0.047308337 0.08682116 -0.16187444 -0.09215081 -0.0055489517 -0.42737138
0.06525237 0.0040365006 0.08608073 -0.0817581 -0.06974768 -0.08277103 0.018683257 -0.038913928
-0.2022759 -0.10240586 0.035508275 -0.11607449 0.005542533 0.08632987 -0.06269222 -0.028099658
-0.015975203 -0.09754321 0.049470834 0.35025704 0.004658986 -0.0330332 -0.048699327 0.027300755
-0.07694977 -0.29889262 0.16277081 -0.013014896 -0.049290698 0.12274077 0.14697799 0.031596836
0.12734906 0.038899068 0.027185468 -0.014231265 0.22265437 0.018355811 -0.24762058 -0.16061927
0.08030847 0.12783085 -0.08475567 0.058429554 -0.031231051 0.030861748 -0.056812495 0.009227159
0.038385153 -0.02903367 0.120836675 -0.030311238 0.04667219 0.052115817 0.03419983 -0.086159915
-0.055004533 0.044935282 0.06743246 0.06309523 -0.22680199 0.05076443 0.32963338 0.016118532
0.1799832 0.021306867 -0.11135298 -0.05271309 -0.06523277 0.056479327 0.0135942865 0.09258243
0.12069983 0.03499373 0.08969936 0.088729635 0.012775088 -0.014707957 0.022001449 -0.003602831
00000000: 045e 413d df64 c73c 55c6 9dba 8725 753d
00000010: a30c b63d b212 aabc 96b9 90bd 6887 d0bd
00000020: 4cbf 573c e351 fbbd f134 85bd afee 3e3d
00000030: f6a9 0e3e 006a f23d 5200 46bd 5e65 103d
00000040: b477 3bbe 3c39 4f3e 2ed8 be3d 2503 19bb
00000050: 7f56 f8bd c510 403d 0077 f5bc ff40 c1bd
00000060: 6bab 963d c132 15be 334a 23be c221 07bd
00000070: 4c4f 493d 39a7 e73c 4eef e1bc 29ca 983c
00000080: 6b08 1a3f b08d 83be 3cae 38bb dc2d ef3d
00000090: 264f 06bc 71e4 143c 44dd 81bc db3c 0fbc
000000a0: b952 c1bb 0e09 aabe f7c8 213c a3c5 9bbd
000000b0: 6ad2 ba3c 64de 4fbd 88b4 44be 05de 0a3d
000000c0: 94ad 9cbd cd60 1f3d 3e8d bdbd 6414 823e
000000d0: ad36 84bc 8046 ed3b 38d7 7cbd cd84 b9bd
000000e0: 5de6 28bd e59d ddbe 795a 733e 44d8 40bd
000000f0: e9b2 0b3e e806 263c af3d 31be fe63 71be
00000100: 236e 9abd 8993 99bd 93ff b1bd 758e 9b3d
00000110: acc5 313e 1ece e0bc c8fb 953c 36f6 8bbd
00000120: eb69 39bd 73dd 52bd 9671 933d 2d8a 90bb
00000130: 1558 09be 5b01 483d 2bdc 36bd 2b0f 1cbd
00000140: d522 383d 0226 e2bc ceea fb3d aa0f dd3d
00000150: 5704 3cbe fabd edbc 5591 d13c dbc0 5b3c
00000160: 1c06 7dbb 31d3 393d 0e3c b2bd 32f0 d1ba
00000170: dd54 123d 4fa4 36bd 74ed 2b3d 6312 b7bd
00000180: a4ea 093f b08b 37be 158f a9bc c74d 9f3d
00000190: 0abd 5d3e 09fb 91bd 3c90 7b3e a5a9 0bbf
000001a0: 3884 e83d 962c a13d 9913 be3b 724f e13d
000001b0: 2dd9 093e a59f 403c 3601 253e d4a0 4d3e
000001c0: fefd 58bc 257d c1bd fab3 86bd 4119 d83d
000001d0: 2713 b7bd e598 f33c edbd 16bc 6729 6539
000001e0: f9e2 2abe 4c41 503d 31e3 8cbe be1f 90be
000001f0: 5a12 5d3d ccc9 083d 5e5c 94bc 5f7f bebd
00000200: be8d ecbd 0cc5 06be ab09 10be 9590 6e3e
00000210: c4aa a63d decf b3bd ffb6 9abd 2609 b8bc
00000220: 9404 58bb 5abd 033d bfbb af3b e8d5 91bc
00000230: 792e c7bd ecdb 85bc 047d c13d e2be d43c
00000240: 9966 843d 80a1 463d 41ce 473d 35e4 b7bd
00000250: cb47 19bd cef2 713d ab42 cebc 3087 b5bc
00000260: 7bad 803d 9894 af3d 8bc2 a03d ec9c 21be
00000270: 2635 5a3d 2b73 a7bd b06d d0bd 8838 e63d
00000280: b2fd 77bd 0417 123d 8cd0 63bd 1160 a43d
00000290: 2946 d9bd bc80 343d c242 993d 209e 7abb
000002a0: fe99 b53d d49d d33d 63c6 413d 4bcf b13d
000002b0: 6ac2 25be 90b9 bcbd fbd3 b5bb 6cd0 dabe
000002c0: 09a3 853d 9f44 843b 184b b03d ca70 a7bd
000002d0: dfd7 8ebd dc83 a9bd a10d 993c 3664 1fbd
000002e0: 6a21 4fbe 2aba d1bd 2071 113d 76b8 edbd
000002f0: 239e b53b b7cd b03d c764 80bd 4131 e6bc
00000300: 6ede 82bc bcc4 c7bd eea1 4a3d e454 b33e
00000310: 68aa 983b d24d 07bd f278 47bd d5a5 df3c
00000320: d797 9dbd 7408 99be 64ad 263e 6e3c 55bc
00000330: 0be5 49bd 835f fb3d 6681 163e af6b 013d
00000340: cb67 023e a154 1f3d 0fb4 de3c 402a 69bc
00000350: 82ff 633e ed5e 963c 4090 7dbe 6179 24be
00000360: c478 a43d 17e6 023e 6194 adbd d453 6f3d
00000370: 43d8 ffbc c7d1 fc3c 38b4 68bd 832d 173c
00000380: c039 1d3d 05d8 edbc 3879 f73d 464f f8bc
00000390: 572b 3f3d 6577 553d 1f15 0c3d 9c74 b0bd
000003a0: 6f4c 61bd 0f0e 383d 081a 8a3d 1238 813d
000003b0: c83e 68be 5dee 4f3d b5c5 a83e 030b 843c
000003c0: 844d 383e bd8b ae3c 080d e4bd aee9 57bd
000003d0: c298 85bd de56 673d 92ba 5e3c db9b bd3d
000003e0: 7931 f73d 9655 0f3d 4cb4 b73d e2b7 b53d
000003f0: 9a4e 513c a5f9 70bc 623c b43c 791d 6cbb

bias f4 [256]
0.0029975313 0.014592547 0.079041936 -0.013729983 -0.037345205 -0.09540311 -0.061339185 0.049448725
0.14180799 -0.12373069 0.025925308 -0.017638482 0.08590949 -0.08155488 -0.030963194 -0.03950608
-0.014398327 -0.050175603 0.08107322 -0.07803652 0.02850754 -0.063362874 0.085444055 0.20581174
-0.14209016 0.13280705 0.05299179 -0.08728452 -0.114847034 -0.12469358 0.1360583 0.124023184
-0.042155955 0.008102341 0.05986713 -0.0247546 -0.1220545 -0.0030326429 -0.042217247 -0.14926013
-0.061875187 0.060105115 0.05051443 -0.11002412 -0.059910472 0.028667327 0.108997494 0.16074541
-0.004906065 0.081062816 -0.045480154 0.029277164 -0.1379719 0.11287044 0.12739548 -0.033102788
-0.044233926 0.043557953 0.19944009 0.013669313 -0.014729357 0.048996046 -0.13570802 0.01713772
0.007198237 0.041759763 -0.00015053934 -0.059283104 -0.08409841 -0.22735195 -0.051370192 -0.023979776
-0.08139668 0.08811574 0.042880587 0.042512372 0.020295804 0.03979033 0.059997432 -0.042029504
-0.159866 0.03530236 -0.010942124 -0.038177982 -0.105485745 0.095908456 0.08447216 0.041755147
0.18324076 -0.06822185 0.072644226 -0.013424867 0.03479917 0.10873509 0.06739062 0.042111054
-0.15395147 0.2305319 -0.14814112 0.0013458468 0.05018251 -0.1441822 -0.12955387 -0.016231604
-0.07565111 -0.04963031 -0.07894246 0.12946036 0.13226545 0.041781787 -0.07904596 0.086300544
-0.016442506 0.0070068324 -0.060536962 0.027724126 -0.101882964 -0.12274699 -0.03440598 -0.06939521
-0.027452946 0.16188793 0.06224367 -0.024131248 -0.009297892 0.016617374 -0.035207532 -0.009082064
-0.083936214 0.036667902 0.04922523 0.0793801 -0.10792304 0.0041767475 0.102267094 0.09235434
-0.11239683 -0.01666221 -0.058064062 -0.09330089 0.11386658 -0.00676487 -0.032854915 -0.11929168
0.033893492 0.017107591 -0.053523745 0.1800146 0.045088954 0.14565986 -0.025443334 0.0621152
0.025701804 0.027664298 -0.031150158 0.004142376 0.09565099 0.0007745684 -0.11652547 -0.108994916
0.023865875 -0.019526737 0.012387794 -0.00547571 0.08649529 -0.16537727 0.082402706 -0.05095953
-0.016856134 -0.04565451 -0.0014841566 0.045835823 -0.02499651 -0.032999918 0.045809194 0.113646336
0.06376986 -0.08611251 -0.09603397 -0.13030452 0.055585064 0.020563742 0.17382318 -0.03401111
0.04099486 -0.08805157 0.16351241 -0.03436364 -0.053780753 -0.07089993 -0.055898864 -0.0028697997
-0.023400862 0.13206069 -0.08315182 0.10437612 0.037352744 -0.05119821 0.02172997 0.041529253
0.06462056 -0.07653419 0.09035572 -0.04347092 0.020084888 -0.052750982 0.031857084 0.062207375
0.1621129 0.025015526 -0.057560466 -0.079319246 -0.028192295 0.11842982 -0.0983868 0.11042237
0.024152154 0.1745662 0.023683023 -0.037201002 0.048332084 -0.0024412076 0.07755459 0.13153777
0.11765455 0.0070103896 0.02519033 -0.009586641 0.0008309354 -0.004301732 -0.015056916 -0.14467567
-0.047395907 0.109273486 -0.05150495 0.09626949 -0.04467086 0.08038131 -0.15532552 -0.013990025
-0.027771046 0.027938798 -0.027869279 -0.15970746 0.07731472 -0.0030412234 0.0011058873 0.044163704
-0.095016 0.053299718 0.0063868314 0.00437975 -0.12304555 -0.017698843 0.047276035 0.10735233
00000000: 3b72 443b 9415 6f3c bde0 a13d b9f3 60bc
00000010: 49f7 18bd b562 c3bd cc3e 7bbd bf8a 4a3d
00000020: 1d36 113e 8466 fdbd 5061 d43c 947e 90bc
00000030: 51f1 af3d 3f06 a7bd 86a6 fdbc 21d1 21bd
00000040: f6e6 6bbc ef84 4dbd b709 a63d 9cd1 9fbd
00000050: a588 e93c 65c4 81bd 4bfd ae3d 50c0 523e
00000060: 1580 11be 92fe 073e eb0d 593d 3ac2 b2bd
00000070: ec34 ebbd 595f ffbd de52 0b3e deff fd3d
00000080: b9ab 2cbd aebf 043c 3c37 753d 29ca cabc
00000090: b6f7 f9bd 4ebf 46bb feeb 2cbd a6d7 18be
000000a0: d670 7dbd c830 763d 38e8 4e3d 5354 e1bd
000000b0: af64 75bd bed7 ea3c 143a df3d 729a 243e
000000c0: 0ec3 a0bb 4304 a63d 6649 3abd aad6 ef3c
000000d0: 8148 0dbe 9e28 e73d f673 023e ca96 07bd
000000e0: a22e 35bd d369 323d 063a 4c3e 41f5 5f3c
000000f0: 6753 71bc 14b0 483d 0bf7 0abe 6764 8c3c
00000100: 30df eb3b 490c 2b3d 19da 1db9 d7d2 72bd
00000110: ca3b acbd f3ce 68be 8d69 52bd 3c71 c4bc
00000120: 4db3 a6bd 0676 b43d 8ea3 2f3d 7421 2e3d
00000130: 6343 a63c 2ffb 223d debf 753d 2127 2cbd
00000140: eab3 23be 3599 103d 9846 33bc 8460 1cbd
00000150: e908 d8bd a76b c43d bdff ac3d 7207 2b3d
00000160: 77a3 3b3e e6b7 8bbd 7fc6 943d f9f3 5bbc
00000170: 9389 0e3d 81b0 de3d 1804 8a3d a47c 2c3d
00000180: 74a5 1dbe 8e10 6c3e 4eb2 17be 2067 b03a
00000190: 2d8c 4d3d 80a4 13be c5a9 04be 24f8 84bc
000001a0: f8ee 9abd 2749 4bbd 96ac a1bd 4291 043e
000001b0: 9870 073e 6123 2b3d d9e2 a1bd 57be b03d
000001c0: 6fb2 86bc 9299 e53b 9bf5 77bd b51d e33c
000001d0: 04a8 d0bd c662 fbbd 49ed 0cbd 131f 8ebd
000001e0: 00e5 e0bc f3c5 253e 38f3 7e3d e5ae c5bc
000001f0: 3056 18bc 2921 883c c635 10bd f0cc 14bc
00000200: c0e6 abbd 1531 163d 65a0 493d 0992 a23d
00000210: c106 ddbd 19dd 883b 6971 d13d 4624 bd3d
00000220: 4f30 e6bd 307f 88bc 95d4 6dbd 8914 bfbd
00000230: e232 e93d d8ab ddbb e092 06bd 324f f4bd
00000240: e7d3 0a3d 3825 8c3c b73b 5bbd bf55 383e
00000250: 32af 383d dc27 153e 8a6e d0bc 826c 7e3d
00000260: 978c d23c 3da0 e23c 9e2e ffbc c5bc 873b
00000270: abe4 c33d 680c 4b3a e8a4 eebd ba38 dfbd
00000280: 5e82 c33c 89f6 9fbc 2df6 4a3c 966d b3bb
00000290: 7124 b13d a958 29be c0c2 a83d f1ba 50bd
000002a0: e015 8abc 3900 3bbd 0888 c2ba 58be 3b3d
000002b0: 7bc5 ccbc ec2a 07bd 6ca2 3b3d 69bf e83d
000002c0: c699 823d c15b b0bd 75ad c4bd 8c6e 05be
000002d0: 2aad 633d 4b75 a83c b4fe 313e 3c4f 0bbd
000002e0: 3aea 273d 6254 b4bd cc6f 273e e3c0 0cbd
000002f0: 3549 5cbd fc33 91bd 35f6 64bd 4013 3cbb
00000300: 2ab3 bfbc eb3a 073e 804b aabd 26c3 d53d
00000310: 31ff 183d 37b5 51bd 0d03 b23c 941a 2a3d
00000320: c957 843d f5bd 9cbd 6b0c b93d 900e 32bd
00000330: 1089 a43c 6a11 58bd 937c 023d 29cd 7e3d
00000340: ed00 263e 5ced cc3c 86c4 6bbd 2172 a2bd
00000350: 87f3 e6bc 558b f23d 057f c9bd 2025 e23d
00000360: bdda c53c 7bc1 323e e602 c23c 1460 18bd
00000370: ddf7 453d abfc 1fbb f1d4 9e3d d6b1 063e
00000380: def4 f03d 69b7 e53b f35b ce3c 4911 1dbc
00000390: 21d3 593a 8bf5 8cbb 48b1 76bc dc25 14be
000003a0: 3622 42bd c7ca df3d dbf6 52bd f028 c53d
000003b0: cbf8 36bd f59e a43d a70d 1fbe 6b36 65bc
000003c0: 1b80 e3bc e8df e43c 1d4e e4bc 5a8a 23be
000003d0: 2e57 9e3d 434f 47bb 6cf3 903a 00e5 343d
000003e0: c097 c2bd ce50 5a3d a048 d13b 0284 8f3b
000003f0: 4eff fbbd 2afd 90bc 84a4 413d 8adb db3d

weight f4 [256, 256]
-0.0135060735 -0.0042064437 0.013082341 0.041549373 -0.013167455 0.015044813 -0.021045726 -0.002834966
-0.051352747 -0.047747154 -0.03161042 0.027571626 0.03815126 -0.009779613 0.016588222 -0.0075459406
-0.026317498 0.0029313804 -0.08421652 -0.023715887 0.017697776 0.041952074 -0.0052781403 -0.039842833
0.018686457 0.013533513 -0.025769588 0.025463292 0.038243312 0.06316955 -0.024575971 -0.043528922
0.05997267 -0.054167535 -0.03119946 -0.0075521586 0.046184923 -0.016369037 -0.028926013 0.012926842
-0.063679054 -0.026757786 0.01864177 -0.022290215 0.03470529 -0.022234075 0.036296457 0.068525605
0.10370025 0.036922205 0.01940661 -0.005914364 0.023536213 0.023012372 0.03648407 0.03645562
-0.006173064 -0.015084143 -0.04150054 -0.013196054 -0.0033118587 -0.038851608 -0.0007886062 -0.047813274
0.026402302 -0.017282039 -0.02278197 0.018443553 0.0001750178 0.007870571 -0.004800497 0.02602687
-0.028418267 0.010664306 0.040098313 0.07814446 -0.021058707 0.015233685 0.018513827 -0.019800926
-0.01226241 0.0042082276 0.0370378 -0.03146841 0.010016366 0.004014442 -0.011691901 -0.018729206
0.047758285 0.008460082 -0.039505817 -0.04206851 0.0054233163 -0.023842672 0.0030539422 -0.018584331
-0.036064815 -0.028824462 0.0008446684 -0.027937423 -0.027484123 -0.02747657 0.007325841 -0.017815202
0.008317756 0.016909799 -0.027346136 -0.029536413 0.008219473 -0.050280664 -0.0784924 -0.024587912
0.12967925 -0.0025580032 0.016432531 0.06168668 1.9526342e-05 -0.0029021453 0.05201534 0.01548744
-0.030759789 -0.00272462 -0.02470934 -0.016716648 -0.0005061878 -0.008759906 0.0006300463 0.0013123006
-0.0019259553 0.026923649 0.004917836 0.07555113 0.008023244 0.032428578 0.02200934 0.044345636
-0.017791906 0.05108091 -0.0033432364 0.004964069 -0.043369096 0.04345724 0.0144400215 0.001993652
0.046054855 -0.040695943 -0.05939357 -0.0026020885 -0.026259841 -0.02030736 -0.011355525 -0.017326705
-0.057143617 -0.03683206 0.037288494 -0.052365918 -0.0036607045 -0.012933351 -0.026681054 -0.0014534055
-0.009769527 0.042428087 -0.01779765 -0.037334032 0.041583724 0.025155345 0.0060848636 -0.028802253
-0.066008516 -0.027024737 0.052611396 0.02364888 0.01710741 0.030563993 0.05713912 0.022091445
-0.0078946 -0.010044437 0.014466716 0.0012791844 0.010951053 -0.023760475 0.032635216 0.004108111
0.029367642 -0.0022841005 0.019315096 -0.028832877 0.004497782 -0.016225202 0.013538381 -0.016692277
0.0036160622 -0.00415633 -0.018018737 -0.0080629075 0.019228028 -0.0047962065 0.039754167 -0.01802426
-0.00811259 -0.003597034 0.043326784 -0.026510779 0.014398449 0.03367699 -0.027353812 0.036600545
-0.035000425 0.049282603 0.050219126 -0.002336982 0.044507973 0.00925166 -0.006267874 -0.020919733
0.011093488 0.055892747 9.389181e-05 -0.08975594 -0.015096539 0.038902473 0.033983286 0.012412005
0.057299625 0.046255987 0.039093453 0.09561703 0.017810522 0.01930807 -0.0026174474 -0.0014905119
-0.061805267 0.04379257 -0.025860269 0.019019533 0.012493641 0.023881702 -0.045780525 -0.014173047
-0.012966119 -0.017825322 -0.003510951 0.03683176 -0.010507238 -0.030987883 0.0019370106 -0.056686733
-0.014011568 -0.034879003 0.03132959 -0.016023582 0.00806229 -0.054693125 -0.004561381 0.013397469
00000000: 9448 5dbc 35d6 89bb 5157 563c ad2f 2a3d
00000010: 4fbc 57bc 857e 763c 1668 acbc d6ca 39bb
00000020: 4257 52bd 8592 43bd ee79 01bd e4dd e13c
00000030: 7f44 1c3d ac3a 20bc 06e4 873c f043 f7bb
00000040: cb97 d7bc 671c 403b b679 acbd d247 c2bc
00000050: edfa 903c f0d5 2b3d 40f4 acbb 3d32 23bd
00000060: 5714 993c abbb 5d3c be1a d3bc 6598 d03c
00000070: 05a5 1c3d 095f 813d 8c53 c9bc 624b 32bd
00000080: e7a5 753d c7de 5dbd 0396 ffbc 1978 f7bb
00000090: 672c 3d3d 5c18 86bc 3ff6 ecbc 1bcb 533c
000000a0: 2a6a 82bd 2533 dbbc a0b6 983c f899 b6bc
000000b0: 2227 0e3d 3c24 b6bc 98ab 143d 2757 8c3d
000000c0: cc60 d43d bd3b 173d 9cfa 9e3c 48cd c1bb
000000d0: 04cf c03c 7184 bc3c 5270 153d 7d52 153d
000000e0: 6a47 cabb 7b23 77bc 78fc 29bd 4334 58bc
000000f0: c50b 59bb dd22 1fbd 77ba 4eba dad7 43bd
00000100: a449 d83c 1093 8dbc 41a1 babc ef16 973c
00000110: fc84 3739 91f3 003c 7d4d 9dbb 4d36 d53c
00000120: 6dcd e8bc 57b9 2e3c 213e 243d 340a a03d
00000130: 4f83 acbc b596 793c 4faa 973c 8d35 a2bc
00000140: 46e8 48bc 2ce5 893b f3b4 173d 05e5 00bd
00000150: af1b 243c 958b 833b 638f 3fbc fe6d 99bc
00000160: 319e 433d 289c 0a3c dad0 21bd 0850 2cbd
00000170: 13b6 b13b b551 c3bc a624 483b 2b3e 98bc
00000180: b3b8 13bd 4721 ecbc bd6c 5d3a 06dd e4bc
00000190: 6226 e1bc 8b16 e1bc 9c0d f03b 30f1 91bc
000001a0: 3247 083c 6b86 8a3c 0105 e0bc 59f6 f1bc
000001b0: f8aa 063c 19f3 4dbd a0c0 a0bd 976c c9bc
000001c0: a3ca 043e 2ca4 27bb 849d 863c 2cab 7c3d
000001d0: 80cc a337 eb31 3ebb 0a0e 553d 08bf 7d3c
000001e0: f4fb fbbc 8a8f 32bb 3e6b cabc 5af1 88bc
000001f0: b0b1 04ba b585 0fbc b129 253a 8001 ac3a
00000200: 5670 fcba fc8e dc3c cc25 a13b 8dba 9a3d
00000210: ed73 033c d4d3 043d ee4c b43c c5a3 353d
00000220: 55c0 91bc 373a 513d 331a 5bbb a1a9 a23b
00000230: cba3 31bd 3800 323d d795 6c3c eea7 023b
00000240: 04a4 3c3d cab0 26bd ac46 73bd cd87 2abb
00000250: e11e d7bc 9f5b a6bc 860c 3abc bcf0 8dbc
00000260: 6d0f 6abd 37dd 16bd d2bb 183d a57d 56bd
00000270: 6ee8 6fbb 68e6 53bc 3a92 dabc 3280 beba
00000280: 5e10 20bc 13c9 2d3d 61cc 91bc 92eb 18bd
00000290: b253 2a3d 9512 ce3c 8963 c73b b4f2 ebbc
000002a0: 792f 87bd fb62 ddbc 0c7f 573d 4cbb c13c
000002b0: d724 8c3c 5761 fa3c b60a 6a3d 1ef9 b43c
000002c0: 5a58 01bc 6c91 24bc ce05 6d3c 4eaa a73a
000002d0: 0c6c 333c 54a5 c2bc 81ac 053d 559d 863b
000002e0: 6994 f03c d9b0 15bb b13a 9e3c ed32 ecbc
000002f0: 2162 933b b7ea 84bc 16d0 5d3c 3ebe 88bc
00000300: 75fb 6c3b d331 88bb 089c 93bc 491a 04bc
00000310: 1984 9d3c 7f29 9dbb 44d5 223d 9da7 93bc
00000320: abea 04bc 37bc 6bbb 6d77 313d 222d d9bc
00000330: 79e7 6b3c e2f0 093d 1a15 e0bc 74ea 153d
00000340: 9b5c 0fbd 8edc 493d 92b2 4d3d 0d28 19bb
00000350: fe4d 363d 4694 173c bd62 cdbb dc5f abbc
00000360: 76c1 353c cbef 643d c8e7 c438 f6d1 b7bd
00000370: 7957 77bc 3358 1f3d 0f32 0b3d b95b 4b3c
00000380: 03b3 6a3d eb76 3d3d 7520 203d ddd2 c33d
00000390: 5fe7 913c f52b 9e3c 7b89 2bbb 485d c3ba
000003a0: 8527 7dbd d65f 333d ead8 d3bc dace 9b3c
000003b0: 21b2 4c3c 8fa3 c33c 5c84 3bbd 1136 68bc
000003c0: d86f 54bc 6906 92bc fc17 66bb e6dc 163d
000003d0: 8d26 2cbc 4dda fdbc 4ae3 fd3a 5930 68bd
000003e0: c790 65bc 49dd 0ebd 7553 003d e343 83bc
000003f0: b217 043c e605 60bd a377 95bb 0f81 5b3c

bias f4 [256]
-0.019599747 0.012903117 -0.029669242 0.029751463 0.058722463 0.0429281 -0.01789797 -0.007098381
-0.007139883 0.015084325 -0.00931733 0.0123610655 0.038362466 -0.012627258 0.061848536 0.020755263
-0.051614154 -0.0020896131 0.0021901596 0.021415144 0.029099137 -0.04140395 0.0024890678 -0.01177126
0.00019286253 0.031126758 -0.012830198 -0.012482546 0.004767568 0.039476797 0.0015862607 0.00225469
-0.016170096 -0.034060076 0.007994252 -0.01786403 0.015381435 -0.0035801765 0.045055855 0.022068124
0.017721044 0.016027246 0.010224133 0.006478806 -0.0052972995 -0.008841126 0.011436009 -0.003686751
0.0298109 -0.009446002 -0.009349273 -0.022575654 -0.010662362 0.0025183696 -0.017924009 0.018100774
0.0022305846 -0.035155695 -0.03813449 0.010568007 0.011145852 -0.021703457 0.018389672 -0.02176973
-0.001863598 0.02672807 0.005676141 -0.013062747 -0.03301286 0.05253514 -0.028521527 -0.018125074
-0.031005783 -0.009292646 -0.029552247 0.048111822 -0.044347614 0.07019901 -0.051398486 -0.02726455
-0.009784611 -0.012104485 0.036871765 0.026858352 0.031842973 -0.00901761 -0.014344602 -0.031683583
-0.020219365 0.03019646 -0.020375207 0.021035012 0.0016865752 0.015806988 0.0020903393 -0.0050354935
0.040535163 0.02453866 -0.019086465 -0.009015335 -0.0032917284 -0.03592722 -0.011766817 0.00599661
0.057418153 0.016500402 0.010669986 0.00086484366 -0.018387409 -0.0085986415 0.02732586 0.029754775
0.021855364 -0.06024759 -0.02560046 0.007670625 -0.009749355 -0.024620049 -0.0020661866 -0.049314894
0.0031221332 -0.0005961107 0.034638565 -0.010331566 0.029338036 -0.002952494 0.020823862 0.021050852
0.026965858 -0.016436135 -0.036595684 0.05406869 0.0473909 0.033408795 0.0069624684 0.0012733768
-0.047574613 0.0014020056 -0.010503271 0.004814499 0.004828628 -0.0060270936 0.04218171 0.029651029
-0.0007717078 0.022240443 -0.03133888 -0.023074262 -0.013984689 0.0012999823 0.0207969 0.010548366
0.021255895 0.034374394 0.041042823 0.018970244 0.010468418 -0.036956903 -0.023370601 0.010825452
0.01603159 0.006316751 0.0018932256 -0.009765862 -0.035492897 -0.015214059 0.0048178597 -0.023549791
0.0037712653 -0.016106455 0.022622775 -0.012627927 -0.006115688 -0.0012253075 -0.044058323 0.032032542
0.005638954 -0.01641752 -0.017405938 0.0082334895 -0.03166248 -0.00886942 0.008058843 -0.025738891
-0.03722099 -0.009772106 0.03832339 -0.011207623 -0.009221372 0.009943136 -0.02782542 0.00050289213
-0.02533918 0.023479283 -0.005425727 0.01944235 -0.016736232 0.028247526 0.0032382153 -0.01913667
-0.026041152 -0.050421868 -0.007656325 0.02945961 -0.0066895387 -0.04457027 -0.003665712 -0.018556481
0.016939385 -0.016149877 -0.016194448 0.00061483815 0.026687426 -0.034057386 -0.0007466875 0.027473781
-0.042541772 -0.011477803 0.017939566 -0.00071707007 -0.03006473 0.05022555 -0.017165245 -0.03934811
-0.017947385 -0.011817035 -0.014962545 0.015642555 -0.010523721 0.05227697 0.047297705 0.0045832475
-0.0382837 0.012143437 0.06888343 0.020482063 0.03546767 -0.0017562682 -0.029377101 0.0017368632
-0.05457587 0.003115414 0.0044533922 0.001567008 -0.007766504 0.016239312 -0.0257149 -0.01743055
0.033395763 -0.0030164625 0.03388873 0.010594989 0.02006843 0.002684053 0.0007161676 0.014016491
00000000: a68f a0bc 9867 533c e90c f3bc 57b9 f33c
00000010: f786 703d 60d5 2f3d c39e 92bc 8999 e8bb
00000020: aef5 e9bb 3f24 773c b7a7 18bc 1186 4a3c
00000030: f621 1d3d 8fe2 4ebc e454 7d3d f106 aa3c
00000040: 5d69 53bd e4f1 08bb c888 0f3b d06e af3c
00000050: 5061 ee3c 3097 29bd a11f 233b 3edc 40bc
00000060: 243b 4a39 8bfd fe3c c035 52bc 9883 4cbc
00000070: 4239 9c3b 6cb2 213d 14ea cf3a 6cc3 133b
00000080: 2677 84bc 9482 0bbd 53fa 023c 9657 92bc
00000090: 6a02 7c3c 65a1 6abb 7d8c 383d 36c8 b43c
000000a0: b92b 913c 924b 833c 1f83 273c 2a4c d43b
000000b0: f894 adbb 5fda 10bc 195e 3b3c 6b9d 71bb
000000c0: fd35 f43c 67c3 1abc b12d 19bc 94f0 b8bc
000000d0: 30b1 2ebc 3b0b 253b 5fd5 92bc 1348 943c
000000e0: 002f 123b 6bff 0fbd e932 1cbd 6f25 2d3c
000000f0: 179d 363c 73cb b1bc f0a5 963c 6f56 b2bc
00000100: f943 f4ba d3f4 da3c ecfe b93b 2205 56bc
00000110: 7e38 07bd 162f 573d faa5 e9bc 097b 94bc
00000120: d7ff fdbc 2f40 18bc 8e17 f2bc e710 453d
00000130: d8a5 35bd 80c4 8f3d 3887 52bd e859 dfbc
00000140: a24f 20bc e451 46bc d906 173d 0c06 dc3c
00000150: c76d 023d 99be 13bc 9f05 6bbc a5c6 01bd
00000160: 15a3 a5bc 915e f73c e8e9 a6bc 9e51 ac3c
00000170: 1310 dd3a a87d 813c 13fe 083b c800 a5bb
00000180: 3308 263d 4d05 c93c 385b 9cbc 0eb5 13bc
00000190: 0aba 57bb 6c28 13bd 9cc9 40bc 367f c43b
000001a0: 4c2f 6b3d da2b 873c 2ad1 2e3c adb6 623a
000001b0: 31a1 96bc 51e1 0cbc 7bda df3c 49c0 f33c
000001c0: 050a b33c 2dc6 76bd 0eb8 d1bc de59 fb3b
000001d0: c2bb 1fbc fcaf c9bc dc68 07bb 6afe 49bd
000001e0: b49c 4c3b 5044 1cba 2be1 0d3d bb45 29bc
000001f0: 5256 f03c a17e 41bb ce96 aa3c d672 ac3c
00000200: 81e7 dc3c 13a5 86bc 5be5 15bd 2177 5d3d
00000210: f61c 423d a9d7 083d 6b25 e43b 6fe7 a63a
00000220: 99dd 42bd 80c3 b73a e915 2cbc f2c2 9d3b
00000230: 7839 9e3b ed7e c5bb bbc6 2c3d b7e6 f23c
00000240: 6f4c 4aba 9731 b63c 335d 00bd 3c06 bdbc
00000250: 0920 65bc 2b64 aa3a 435e aa3c 0ed3 2c3c
00000260: d820 ae3c 2acc 0c3d 851c 283d 7c67 9b3c
00000270: ba83 2b3c 1f60 17bd b473 bfbc 3d5d 313c
00000280: ae54 833c bffc ce3b 1c26 f83a fe00 20bc
00000290: 0061 11bd 6344 79bc 23df 9d3b 7eeb c0bc
000002a0: 5527 773b aff1 83bc 6653 b93c 5de5 4ebc
000002b0: 1c66 c8bb 7f9a a0ba 8076 34bd 8e34 033d
000002c0: fac6 b83b 097e 86bc e696 8ebc c2e5 063c
000002d0: 84b0 01bd 0b51 11bc 3d09 043c 5eda d2bc
000002e0: 0975 18bd 2f1b 20bc fdf8 1c3d 2ea0 37bc
000002f0: 3d15 17bc 89e8 223c 23f2 e3bc 85d4 033a
00000300: 1d94 cfbc a057 c03c 4cca b1bb 9045 9f3c
00000310: 6c1a 89bc 5b67 e73c 3d38 543b 81c4 9cbc
00000320: 4154 d5bc 2987 4ebd e9e1 fabb 4855 f13c
00000330: eb33 dbbb 518f 36bd 713c 70bb c303 98bc
00000340: 77c4 8a3c bf4c 84bc 38aa 84bc 172d 213a
00000350: 979f da3c c27f 0bbd 5abd 43ba b210 e13c
00000360: 4840 2ebd 650d 3cbc fff5 923c c2f9 3bba
00000370: 4f4a f6bc 4eb9 4d3d 219e 8cbc 7c2b 21bd
00000380: 6506 93bc 3d9c 41bc 7625 75bc d124 803c
00000390: af6b 2cbc 6020 563d 3dbb 413d 112f 963b
000003a0: 5ecf 1cbd 44f5 463c c112 8d3d 00ca a73c
000003b0: 8c46 113d 9532 e6ba 3fa8 f0bc 75a7 e33a
000003c0: f38a 5fbd f92b 4c3b c3ed 913b 1064 cd3a
000003d0: 287e febb 4e08 853c 0ea8 d2bc 83ca 8ebc
000003e0: ffc9 083d d8af 45bb e9ce 0a3d 9b96 2d3c
000003f0: 8c66 a43c f0e6 2f3b 32bd 3b3a 6da5 653c
