outputs/2023-09-24-20-37-59/trained_model/tetris_epoch9532_score17700.pt (torch, 842187 bytes, 8 tensors)

weight f4 [32, 1, 4, 4]
00000000: 9d04 593d aff9 903c 70ce 31bd d46c 9e3a
00000010: 8efe 2cbd 6a7b 763d 7ba2 2ebc bf38 213d
00000020: 81ff 2dbe 2324 183e 73f8 5d3e 9aca 0f3c
00000030: a140 a53d e1e9 283e 4a98 353e 1805 6bbc
00000040: ea87 e63e 7091 3aba 9bca f4be 36c5 9abe
00000050: 45d5 a5be 18c3 d0bc 1aeb acbe 4efe 06be
00000060: 6264 433e 0195 b2be 250a 933c 1bf9 cbbe
00000070: b14e 9dbd e076 12bc 146b 4f3d 9d8c 20bf
00000080: 200b 803c 51a5 163d 9245 41bf c12b 25be
00000090: e8d3 b1bc 14ba 85be b3d7 c63d ac39 86be
000000a0: 5f35 983d 1a22 8f3e abda 993d d5be 2abd
000000b0: ad0c a7bd ff4c 0dbe 8d16 0bbe 1964 b0bd
000000c0: 08ec 9dbe c467 cfbe 43d0 53bc b9a8 323b
000000d0: 21ec a63d 92c8 13be 9f16 723e 4343 e63d
000000e0: 9fb2 71be 908f 8d3d f742 edbe 5c7d 663a
000000f0: e247 a3bd 1338 9cbe 607c 04bf 4ca2 e23c
00000100: 1807 aebd 7567 1cbf 8215 3bbd 3259 f5bc
00000110: cb2d 9a3d bd82 493e c98e 0d3e 9f70 173d
00000120: 730f 8d3e cb2a 8cbf bec3 ac3e 4137 33bc
00000130: dee1 9cbd e835 81bd f96d 23ba 7cd3 e5bc
00000140: 111f 9dbd 9326 9a3d 0244 22be dcc1 4b3a
00000150: 83bb 023d 7b2e 7cbb 5f6a a23e 7392 543f
00000160: c2d0 e9ba 831e 9b3c d434 c8be 28f2 4cbf
00000170: 7ff8 b3bc 0ea2 23bd 4e1c 6dbd 04b6 25bd
00000180: bca5 203d 5494 fb3c bbac 3a3e 4ee0 803e
00000190: eb74 a03d f7cf 503c a2ca 4c3e b3a6 13bf
000001a0: d074 b83d 2547 c63d 8ec0 8c3d 5eb2 1ebf
000001b0: 3c20 46bd 608c e7bc 05e5 743d 4613 1fbe
000001c0: 7b9a 92bc 16a9 cd3d 5f68 2a3e 5620 4ebe
000001d0: cca0 6a3c f904 f33d 3ced 48bf 6f20 10bf
000001e0: ac44 673d f4c2 003e 3e2e f9be 4f01 cfbd
000001f0: 4e60 11bd c6ef 3a3e ef91 81be c7b6 1ebf
00000200: c1c4 8dbd ea39 753d 4ed4 9cbe 77c6 63be
00000210: 705e d03d 2289 533e 3254 f33d 4ac7 b6be
00000220: 611f 59bc 968f 373e 04a6 b3be 2805 53bf
00000230: e830 a53d e28f 92bd ab3f 8fbb add7 153c
00000240: 93b4 18be c300 c83c edb5 25bc 1727 63bc
00000250: 1386 b3bd 2e86 83be bac2 c9be bab9 db3a
00000260: f73c a9bd 241e 013f 79ea e23d e4e6 5fbd
00000270: 3304 ba3d b52c 78bf 8218 bc3d c4ec 8f3c
00000280: f7c0 9abc 58be 63bd 1555 7fbd db71 d2bd
00000290: 2c0b 6cbd ae5f 4dbc eb40 8fbe 3812 abbc
000002a0: 5bf5 87bd 8714 bf3c 8a43 293f 1b5d 46bd
000002b0: d3f9 21bc 5a16 f0bc 9d1f 3fbf 0b70 32bc
000002c0: 10c3 47be 2cf2 a8be dd5d d3be a314 31be
000002d0: f5b6 f0bd d584 93be 2554 1f3d c5a5 4d3e
000002e0: c44d 32bd 2e45 063c a45e 1a3e 6493 19bf
000002f0: 656e e3ba ad91 7fbd 0b06 393d c1e1 93be
00000300: 4a37 f93d 0294 04be ed53 463d b8b5 84bd
00000310: 11c7 90bd 5b80 0e3f b705 ccbd 13aa 8cbc
00000320: f7b9 d93c 49e3 0cbf 6dd8 793e 94f4 edbb
00000330: 2b38 a1bc 2d14 0ebf 47f4 29be abd1 f9bb
00000340: bd45 1bbc d08b 2dbd 88da 34bd b2d5 4d3c
00000350: 486f dd3c 93bf 253e 0ae0 d03d 5083 5b3c
00000360: f9af c83d 4209 713f 827b 8a3b b21b 233d
00000370: 4b79 3ebb 8820 c3bf b54b d13d 7554 21ba
00000380: a048 35bc 942c 023f 97ad 583c e6e7 aa3b
00000390: 8d65 d43b aa49 543f a4f6 413c 31ea 1d3c
000003a0: 618e 933b 270f b5bf d6b8 243a 4d59 3cbb
000003b0: 124e 8bbc 74e0 9dbc 7d37 c8bc 00ae 02bd
000003c0: 93c4 62be c6a2 a7bc 62ae bd3d a220 a3bd
000003d0: a207 83bd 5c53 4cbe 35e1 b6bd fb13 0abd
000003e0: bae9 193e 9b68 343e 82f6 ec3d 99b7 0b3e
000003f0: 911d 2cbc a0e6 a63d 207e bdbb 8248 0d3e
0.052982915 0.017697183 -0.043409765 0.0012086877 -0.04223495 0.06017629 -0.010658856 0.039360758
-0.16991998 0.14857535 0.21676807 0.008776331 0.080689676 0.16495468 0.17733875 -0.014344476
0.4502557 -0.0007117009 -0.47810826 -0.30228585 -0.32389274 -0.025483653 -0.33773118 -0.13182947
0.19081262 -0.34879306 0.017949173 -0.3983849 -0.07681025 -0.008939475 0.050639227 -0.6271456
0.015630305 0.03677875 -0.7549678 -0.16129972 -0.02170749 -0.2611853 0.0970911 -0.26215875
0.07432055 0.27955705 0.07512411 -0.041685898 -0.081567146 -0.13798903 -0.13582821 -0.08612842
-0.3084414 -0.40508854 -0.012928071 0.002726121 0.08150507 -0.1443198 0.23641442 0.11243298
-0.23603295 0.06912148 -0.46340153 0.0008792484 -0.07972695 -0.3051153 -0.5175228 0.02766528
-0.08497447 -0.6109536 -0.04567481 -0.029949758 0.075282656 0.19678779 0.13824 0.03697264
0.2755085 -1.0950559 0.3374309 -0.0109384665 -0.07660268 -0.0630911 -0.0006234344 -0.028054945
-0.07671941 0.07526889 -0.15846255 0.0007772723 0.031917106 -0.0038479853 0.3172178 0.83035964
-0.0017838704 0.018935448 -0.39102805 -0.80057 -0.021969078 -0.03994947 -0.05788832 -0.040456787
0.039220557 0.030710377 0.18229954 0.2517113 0.078348 0.012744895 0.19999173 -0.5767624
0.09006655 0.096815385 0.068726644 -0.61990917 -0.048370585 -0.028265178 0.059788723 -0.15534696
-0.017895928 0.10042016 0.16641377 -0.20129523 0.0143205635 0.11866183 -0.7848699 -0.5629949
0.056461975 0.12574369 -0.48668092 -0.101076715 -0.035492234 0.18255529 -0.2530665 -0.61997646
-0.069222935 0.059869684 -0.30630726 -0.22243677 0.101742625 0.20657781 0.11881293 -0.3569892
-0.01325211 0.17925867 -0.35087597 -0.8242974 0.08065969 -0.0715635 -0.0043716035 0.009145659
-0.14912634 0.024414426 -0.010114175 -0.0138643 -0.08765807 -0.25688308 -0.39406377 0.0016763725
-0.08263581 0.50436616 0.11079878 -0.054663554 0.09082832 -0.9694322 0.09184362 0.017568953
-0.018890841 -0.055601448 -0.062337 -0.102756225 -0.05762784 -0.012535019 -0.27979216 -0.02088271
-0.06638595 0.023325218 0.6611868 -0.048428636 -0.009886223 -0.029307533 -0.74657613 -0.010890971
-0.19508004 -0.32997262 -0.4128255 -0.17293029 -0.11753646 -0.2881228 0.038898606 0.20082767
-0.043531194 0.008195205 0.15075165 -0.59990525 -0.0017351626 -0.062394787 0.04517178 -0.28883174
0.12168749 -0.12947085 0.04841988 -0.064799726 -0.07069219 0.55664605 -0.099620275 -0.017170941
0.026577933 -0.5503431 0.24398966 -0.007261822 -0.019680103 -0.55499536 -0.1659709 -0.0076238713
-0.009477076 -0.042369664 -0.04415372 0.012563156 0.027030602 0.16186361 0.10198982 0.013398007
0.09799189 0.9415475 0.004226149 0.039821334 -0.0029063995 -1.5244303 0.10219518 -0.00061542477
-0.011064678 0.5084927 0.013224981 0.0052156327 0.0064818324 0.829249 0.011838589 0.009638355
0.004503057 -1.4145249 0.0006283646 -0.002873975 -0.017005 -0.019272067 -0.024440521 -0.03190422
-0.221453 -0.020463359 0.092617765 -0.079652086 -0.0639794 -0.19953674 -0.089296736 -0.03371046
0.15030566 0.17618029 0.11570455 0.13644256 -0.010505096 0.08149457 -0.0057828575 0.13797191

weight f4 [32, 32, 5, 5]
00000000: d5e5 4d3e 6522 55be 7549 9a3d 30b3 523d
00000010: 7355 f03d 422c 3d3e 2843 81be d421 ffbc
00000020: c018 82bd 940e 68be 32b7 933d 1594 95bd
00000030: 73f2 863d 31c2 9fbe 1b28 813c d334 cebd
00000040: a208 04bf 8571 b0be e51a b7bd 65d9 85be
00000050: be94 e83c 6623 a03d d38d 0bbe 251e 153d
00000060: cf13 053e b59b 8c3e 2787 56be 9bbd e7ba
00000070: 167e 2a3e ad4f 8e3e f2ac c53e 090e 133f
00000080: c325 89be aecf 963c 992a b4bd c424 193e
00000090: dbb0 e6be 4278 cbbe 845d 0d3e effc 0abf
000000a0: 86da 7fbc 110a e53d 697b 8bbd 5f31 b3bd
000000b0: f7d9 b1be 219f 19be 134c 023f 7879 88bd
000000c0: 2717 7b3d 3f3c 083e 4282 283e 9473 9ebe
000000d0: e138 803e 0ff5 d33d e18c 1e3e f713 a43e
000000e0: 82c9 243e 0e4a 96be f260 f1be ead9 aabe
000000f0: 45d2 843d cbd9 5a3d 955c d63c 8155 84be
00000100: 748f 263e 80cb 9b3e e8f1 cfbe 6f09 183e
00000110: 9252 ca3d f62a e0be 6d47 dbbd 3d8f 9dbe
00000120: 43eb 133a b37a b1be 0ccc 913e 9d3a acbe
00000130: 79f1 c4be 4190 433e 1df3 3abf f335 893e
00000140: 6d5f e5be 6f0b 5b3e 351b 763c ac0a efbe
00000150: a528 99be 8b26 34bf 1cf5 89be fefd 83be
00000160: 9895 873c 0944 3dbf ae12 9fbf d11e 353e
00000170: ceae e8be 758c 1b3d 4aa4 183e 9182 d0bd
00000180: b193 8c3d 173a dabd 9108 bd3e dfc4 5bbe
00000190: a914 0dbe 49f8 d53e e7f1 e43b 818d 5d3f
000001a0: 855f 4fbf 4c2f b5be fb8f f23e 60bf fc3c
000001b0: 0d85 263e a737 8bbd 296c d2be 1cf3 0b3d
000001c0: 3fa2 273e 24b2 67be 50c1 2d3f deab 3fbe
000001d0: 0d50 0abe be9d 9bbe 68a2 c9be ef0f a8be
000001e0: 5854 023e 153d db3b 4125 75bd d9ef 23be
000001f0: 6f9e 25be 7f5d c6ba 81c9 ea3d a5ba 69be
00000200: b898 293e 2ddd 113d 86bf fdbd 5cd6 febd
00000210: c85b 0c3e 5369 0e3d fc5d 72be ce04 c4bd
00000220: 3aa8 cebd 6339 99bd 6706 203e 8bb0 c7bd
00000230: d37e dbbe 37b7 8cbf 4333 09bf b914 3abe
00000240: 03e1 ebbe 14de c53d a470 93bd 3cd2 de3c
00000250: 3629 eebd 06b2 e3be 960f ea3e 37c7 e13d
00000260: 03fc e7bd 8e55 d6be 80f3 05bf 1af0 893e
00000270: 7b38 a73e 3752 dabe d9e5 b93b f296 7bbf
00000280: ad8a 243c d39d 943e ad36 afbe 82dd 3c3e
00000290: 424b 143e b39d b5be 93bd bdbd 650d 41be
000002a0: 9f5b f3bc 67ff c4be 94ec 09bc 6444 0b3e
000002b0: 77bd 3f3e 0f79 503e a9f9 163e dd61 8ebe
000002c0: 8802 bdbe 8971 063f 2ae9 79be 97ab 63be
000002d0: d85d 8f3e 6f0d 4abc 87fb e83d af59 6f3e
000002e0: 091c 7bbf 4037 253e 3b90 7dbe 3d86 dabe
000002f0: 98ce 1c3e ebbc 853d 2303 473e 3bbc c8be
00000300: 4d62 01be a0ae 4e3e 2edb 093f 182f a7be
00000310: 3cc9 87be bf36 24bd a4b4 7e3e 81ac aa3d
00000320: 912f 223e 3170 8bbd 2630 9b3e 0615 963e
00000330: 8513 a23e 5fd0 21bf edec fb3d aaed 16be
00000340: 7616 9ebc 93bf a9bd cadb 0cbf a2d9 b73e
00000350: 3541 50be a92b 533e e233 01bf 14d8 1ebf
00000360: db85 99be 643d 51be 0756 363e 5c15 b8ba
00000370: c122 5fbe e08c 073e 04db 8fbb e227 d2be
00000380: d142 b83e f1a1 883d eb26 c73b 0331 b9be
00000390: 9307 5ebe 39a3 afbc 86bc ddbe e62f 7cbd
000003a0: 8f57 f9bd d90e dbbe fc5f 1fbe 11f2 57bf
000003b0: 7268 47be 04be 343b 17e0 ef3c 56de b8be
000003c0: 2ab4 0cbe e4b2 903e 9f8e f2be 7890 ac3b
000003d0: 4a6e 22bf 8637 4ebe dca0 653e de2a e03d
000003e0: 5988 bc3d c55b 063e 847d 9a3e 32d4 36bf
000003f0: 0a2e 32be 5f9e 233e f321 27be c952 10bf
0.20107205 -0.20813902 0.07533542 0.051440418 0.11735048 0.18473914 -0.2524655 -0.03114406
-0.06352377 -0.22661811 0.07212676 -0.07303635 0.06589212 -0.31202844 0.015766194 -0.10068669
-0.5157567 -0.3446161 -0.089406766 -0.2614242 0.028391238 0.07819252 -0.1362832 0.0364057
0.12995838 0.27462545 -0.20949994 -0.0017680408 0.1664966 0.27795163 0.3860851 0.5744329
-0.26786622 0.018409576 -0.08797187 0.14955431 -0.45056805 -0.39740187 0.13805205 -0.54292196
-0.015616065 0.11183561 -0.06810648 -0.08749651 -0.34736606 -0.15002109 0.5089733 -0.06663793
0.061301377 0.13304232 0.1645594 -0.30947554 0.25043395 0.103494756 0.15483429 0.32046482
0.16092494 -0.29353374 -0.47144276 -0.3336938 0.06485418 0.05343036 0.026167193 -0.25846484
0.1626566 0.30428696 -0.40614247 0.14847349 0.0987903 -0.43782777 -0.10706983 -0.30773345
0.00056426617 -0.34663925 0.28475988 -0.33638468 -0.3846548 0.19097997 -0.7302721 0.26798972
-0.44799367 0.2139108 0.015021135 -0.4668783 -0.29913822 -0.7037131 -0.26944816 -0.25779718
0.016550824 -0.7393194 -1.2427576 0.17687537 -0.45445865 0.037975747 0.14906421 -0.101811536
0.068641074 -0.10655611 0.36920598 -0.21461819 -0.13777412 0.4179099 0.006986845 0.8654404
-0.81005126 -0.35387647 0.47375473 0.030852973 0.16261692 -0.06797724 -0.41098145 0.034167394
0.16370486 -0.22626549 0.67873096 -0.18717906 -0.135071 -0.30393785 -0.3938172 -0.32824656
0.12727487 0.006690631 -0.05984998 -0.16009463 -0.16173719 -0.0015134065 0.11464215 -0.22825105
0.16562164 0.03561132 -0.12390046 -0.124432296 0.13706887 0.034768414 -0.23668665 -0.09571229
-0.100906804 -0.07481649 0.15627442 -0.0975047 -0.42870197 -1.0993413 -0.53593844 -0.18171968
-0.46070108 0.09661499 -0.07199219 0.027199857 -0.11628954 -0.4447176 0.45715016 0.11024325
-0.11327364 -0.41862148 -0.52324677 0.26940995 0.3266028 -0.4264085 0.005673152 -0.982772
0.0100428285 0.2902666 -0.34221402 0.18443874 0.14481834 -0.35471877 -0.09264674 -0.18852766
-0.029706774 -0.38476107 -0.008418221 0.13600308 0.18724619 0.2035868 0.14743675 -0.2780904
-0.36915994 0.5251699 -0.24405351 -0.22233425 0.28001285 -0.012332304 0.113761 0.23374055
-0.98089653 0.16134357 -0.24762051 -0.4268054 0.15313184 0.06530174 0.1943479 -0.39206108
-0.12635155 0.20183802 0.53850067 -0.32653117 -0.26520717 -0.040091272 0.24873596 0.08333684
0.15838458 -0.06808508 0.30310172 0.29312915 0.31655517 -0.63208574 0.123010494 -0.14739099
-0.01929782 -0.08288493 -0.5502287 0.35908228 -0.20337375 0.20622124 -0.5046979 -0.6204846
-0.29984936 -0.20433575 0.17806254 -0.0014044452 -0.21790601 0.13237333 -0.0043901224 -0.41046053
0.35988477 0.06671513 0.0060776374 -0.36170205 -0.21682577 -0.021440135 -0.43307894 -0.061569117
-0.121749036 -0.42784765 -0.15563959 -0.8435374 -0.19473436 0.0027579078 0.029281659 -0.3610713
-0.13740602 0.28261483 -0.47374436 0.0052662455 -0.6344954 -0.20138368 0.22424644 0.10945676
0.09205694 0.13120945 0.30173886 -0.71417534 -0.17400375 0.15978383 -0.16321544 -0.5637632

weight f4 [64, 32, 5, 5]
00000000: 98b6 573e fe63 1d3e 2671 5ebd bc4c 8e3e
00000010: 2533 48be d239 073e 4464 f53d 8949 173e
00000020: 75d2 96bd 4ed1 013d 0d90 c7bc 3649 5bbe
00000030: 882b 21be 77cc 71bb 8277 163f e23d edbd
00000040: c3c4 0c3d e53e 2f3e 93b7 f0bd 4ebf 9a3e
00000050: bb8b babd d1c9 79be 2891 c2bd 04f9 d03e
00000060: 5911 0b3d 5a11 b43e a8a4 01bf 2b23 c2bd
00000070: e460 2dbe e562 3a3d 5cfa dabd 6f57 973e
00000080: a963 413e 78a6 10bf 84c6 c5be cc8f 7dbe
00000090: 5e4a 5a3d 789f a33e 26cd 6ebd dc68 60be
000000a0: d95e 073f a8ba 4b3e 3450 95be dbe6 983e
000000b0: 200b 2bbd 35ce 85bc 29eb f13e 8b4b 9f3e
000000c0: 217f 1a3e 07fb 6cbc 71a9 fbbe 39f8 7c3e
000000d0: 123a 0b3f 3c9e 5b3d bc3f 323d a863 fe3e
000000e0: 70ca 08bc c6e2 03bf 4757 05bf 4a0b 39bf
000000f0: e059 6a3e c900 483e 3cb0 d5be 0db1 a63e
00000100: 157f 53be 800f d93d 4f30 683d f53a b43e
00000110: 619f 32be 63e2 8cbd 9637 c33e dc5f f13c
00000120: 3a50 82be d120 8d3d 372a 3ebe 9a03 a5be
00000130: 5199 0abf fb76 3b3d 29c2 f73e 9127 51be
00000140: 6616 f33e 8093 ac3e 1a52 893d 8e70 043f
00000150: 0b55 da3e 4803 87bd 9b92 3ebe d4bd 79be
00000160: 62f6 dfbe 0e6e 8ebf 0e3e 4ebf 937c 9d3d
00000170: c24f a4bf 24f0 9ebe 1d59 c53d b743 063e
00000180: 5496 2f3d 6f39 91be d818 0b3f 1c62 013d
00000190: da4c a7be f0fd a83e 1236 57bd d0d5 723d
000001a0: 7808 493e ca2c 2abd 5c2d 33be f5b8 3f3e
000001b0: ebf7 be3d fe59 2b3f fb02 6a3e f06a d53d
000001c0: dfb7 83be 55ca abbd f7bc 89be 014e 7cbe
000001d0: d163 d83d 809b b3be f359 33bf b5cc 26bf
000001e0: e724 b6be ca0a 5ebe 717d 9ebc e15e 8c3e
000001f0: 9706 31be 86d3 0abe 88fe 08bf d3e9 9ebe
00000200: 1077 cc3e e301 67bf df97 f63e 7e41 8ebe
00000210: b7a3 113e 3a72 4cbc a92f 0bbe 7036 393e
00000220: 7392 0b3e 2b28 8d3e 79b3 ccbd 0676 71be
00000230: 2692 0bbf 99b3 42be 44ef 373e 6070 07be
00000240: cd1e 71bb 6509 dabe 2ffa e5bd cedb 263e
00000250: f837 f3bb c412 243e 04fd 523d 490b c8be
00000260: f3ad e83d 2767 2ebe dbef 02bf 8c5e 8f3d
00000270: 378d b33b 0b82 053e 4b7b 91bd 27e2 ce3d
00000280: 16b2 cebc f430 403e 1b59 8a3e 52df 94be
00000290: 05a8 52be 1d10 3d3d e5f2 b5bd 024a 51bd
000002a0: 8244 88bd 2c2b cabe 5f81 d23e 0c60 4a3e
000002b0: 0e53 e13d 1410 50bd adcd b0be 9715 8c3d
000002c0: 6774 17bf 12fe babd a845 2cbe 2e76 c63e
000002d0: fd98 b63e c305 4fbd f7ba f2bd 8a19 b93c
000002e0: 66bd 443e 0283 b03e 5e0a c1be b14a 37be
000002f0: 3f4e a43e 1dd2 b93e 116a 6bbe 2107 01be
00000300: dd85 e8bd 8200 5dbe 2786 313c 8d3b a13e
00000310: 2e85 85be 92c7 143d 9742 47bf 4dcd 8bbe
00000320: d734 143e c3c3 b73e 444c de3d 8be1 00bf
00000330: fbef 523e 4744 d43e 8c8b 85bf ad29 783e
00000340: 0fd1 a2be f48f fb3d f786 a83e 7fa6 843e
00000350: 8658 00bc 0a26 c3bd 90a6 b7be 460b 293f
00000360: 88ad 50be 4cdf 243e cfb6 c0bd d47e 143f
00000370: 5070 a63e c2f4 89be 01f9 05ba 4bb6 393e
00000380: aafc a23d df0a ec3e 3f06 8039 9e4f 94be
00000390: dff9 9fbe fdc6 c83e 83cc 873e f493 d83e
000003a0: bc6a 023e d5d6 1e3e 1f3b 3b3f 875e 993d
000003b0: 1f1b 303e bb59 633d 526a ad3d e59c 473e
000003c0: 8857 b53e 4cf7 6a3e 008f febc 4e3f d43e
000003d0: 0b95 7a3a 6af1 e73c 59f1 99be 6407 723e
000003e0: 5dbd b23e 3991 86be 8321 c03e cf13 6cbe
000003f0: 999d 923e 1845 023e f298 253f 58f0 0e3f
0.21065748 0.15370175 -0.054307126 0.2779292 -0.1955076 0.1320565 0.11982015 0.14774145
-0.0736436 0.03169375 -0.024360681 -0.21414647 -0.15739262 -0.0036895552 0.58776104 -0.11584069
0.034367334 0.17113836 -0.11753764 0.3022408 -0.09108683 -0.24393393 -0.095003426 0.40814984
0.03395209 0.35169488 -0.5064187 -0.09479364 -0.16931492 0.04550447 -0.106922835 0.29558894
0.18885674 -0.5650401 -0.38628018 -0.24761885 0.05329358 0.31957603 -0.058301114 -0.21915
0.528791 0.19895422 -0.29162753 0.2986363 -0.041758657 -0.016333679 0.47249725 0.31112322
0.15087558 -0.014464146 -0.4915271 0.24704064 0.54385483 0.0536177 0.043517813 0.49685407
-0.008349046 -0.51517904 -0.520863 -0.7228285 0.22885847 0.1953155 -0.4173602 0.32556954
-0.20653947 0.105986595 0.056686696 0.3520123 -0.1744361 -0.06879117 0.38128346 0.029464655
-0.25451833 0.06891025 -0.18570791 -0.3222931 -0.5414019 0.045767765 0.4839032 -0.2042525
0.47478026 0.33706284 0.06705113 0.51734245 0.42643008 -0.06592423 -0.18610613 -0.2438882
-0.43742663 -1.1127336 -0.8056344 0.07689776 -1.283684 -0.31042588 0.09636138 0.13111769
0.042867973 -0.2836413 0.54334784 0.031587705 -0.3267582 0.3300624 -0.0525418 0.05928594
0.19632137 -0.04154662 -0.17497772 0.187229 0.0932463 0.6693419 0.228527 0.10420787
-0.2572622 -0.08388201 -0.2690198 -0.24639131 0.105659135 -0.35079575 -0.70059127 -0.6515611
-0.3557503 -0.21683803 -0.019346924 0.27416137 -0.1728767 -0.13557252 -0.53513384 -0.3103777
0.39934587 -0.90237254 0.48162743 -0.27784342 0.14222609 -0.012478406 -0.135924 0.18087173
0.13630085 0.27569708 -0.09995169 -0.23580179 -0.5451988 -0.19013824 0.17962366 -0.13226461
-0.003679204 -0.42585292 -0.11229359 0.16294786 -0.0074224435 0.16022784 0.051510826 -0.3907111
0.11361303 -0.17031537 -0.5114724 0.07000455 0.0054794806 0.13037889 -0.071035944 0.10101729
-0.025231402 0.18768674 0.27021107 -0.2907663 -0.20571907 0.046157945 -0.08884219 -0.05109597
-0.06653692 -0.39486063 0.41114327 0.19763201 0.110021695 -0.050796583 -0.34531918 0.068400554
-0.5916199 -0.09130491 -0.16823447 0.3876204 0.35663596 -0.050542604 -0.11852067 0.022595186
0.19212875 0.3447495 -0.37703222 -0.17899586 0.32090947 0.36293116 -0.2298968 -0.12600376
-0.113536574 -0.21582225 0.010835207 0.31490746 -0.2607817 0.036323138 -0.77835983 -0.2730507
0.14473282 0.35891542 0.1085439 -0.5034415 0.20599358 0.4145834 -1.0433211 0.24234648
-0.31800124 0.12283316 0.3291547 0.25908276 -0.007833606 -0.0952874 -0.35869265 0.66032827
-0.20378697 0.16100806 -0.09409868 0.58006024 0.32507563 -0.26944548 -0.0005110652 0.18135945
0.07958348 0.46102044 0.00024418716 -0.28966993 -0.31245324 0.39214316 0.26523218 0.4230038
0.12736028 0.1551164 0.73137087 0.07488733 0.17197846 0.055505496 0.084675446 0.19493444
0.35418344 0.22945899 -0.031074047 0.41454548 0.00095589523 0.028313357 -0.30066946 0.23635632
0.34910098 -0.2628267 0.37525567 -0.23054431 0.28635862 0.1272167 0.646865 0.55835485

weight f4 [256, 256]
00000000: b3c2 253d f335 213d a98c 19bc 3443 17bd
00000010: a30c b63d b212 aabc 96b9 90bd 6887 d0bd
00000020: 4cbf 573c e351 fbbd f134 85bd afee 3e3d
00000030: d661 1e3e 9548 3d3d c583 a0bd cb96 073d
00000040: e478 debd 037f af3d 118c 7a3d 067e 14bd
00000050: 7f56 f8bd c510 403d 0077 f5bc ff40 c1bd
00000060: 97a5 963d 54da 14be 334a 23be c221 07bd
00000070: adda a6bb 4ddd a3bb d25e b93d 3342 793b
00000080: 4fe6 2b3f ccb4 5dbe 0e63 953d 768d ee3d
00000090: 0c9e 123c 97fa 9cbd d254 78bc cabb 123c
000000a0: 847d c73d 4efb c9be b092 293c aefe 1f3d
000000b0: 8e5e a23c e4fd 25bd 92e8 66be f8a3 3a3d
000000c0: 519c 32bc 7743 2b3e f4e4 c1bd 4901 7a3e
000000d0: ad36 84bc 8046 ed3b 38d7 7cbd cd84 b9bd
000000e0: a448 46bd 617d d7be 795a 733e 44d8 40bd
000000f0: f295 5d3e d388 883d 6f87 50be 507d bbbe
00000100: 236e 9abd 8993 99bd 93ff b1bd 758e 9b3d
00000110: 001b 6a3e 3458 043d 341a 1a3e e07f 78bd
00000120: 3f18 6fbd f516 323d 9671 933d 2d8a 90bb
00000130: af8d 32be 601c 1c3e 4bcc 12bd 5e1a 293d
00000140: d522 383d 0226 e2bc ceea fb3d aa0f dd3d
00000150: 6597 ebbd 5c3b 2dbd 6496 963c 8a9a 953c
00000160: 1c06 7dbb 31d3 393d 0e3c b2bd 32f0 d1ba
00000170: dd54 123d 4fa4 36bd 74ed 2b3d 6312 b7bd
00000180: 19d2 0d3f fb65 94be 108c 3fbd c74d 9f3d
00000190: 6917 703e 910c 03be 1514 853e 9602 0bbf
000001a0: 3884 e83d 962c a13d 9913 be3b 724f e13d
000001b0: 2dd9 093e a59f 403c 3601 253e d4a0 4d3e
000001c0: dfa0 6c3d ee2f 8cbc 4b2f cfbd dc13 a3b9
000001d0: 2713 b7bd e598 f33c edbd 16bc 6729 6539
000001e0: 6ddd 74be 074a 6d3d facf 97be be1f 90be
000001f0: 5a12 5d3d ccc9 083d 5e5c 94bc 5f7f bebd
00000200: 223a e5bd b9ac 06be ab09 10be 9590 6e3e
00000210: c4aa a63d a39e b3bd ffb6 9abd 2609 b8bc
00000220: de0e a9bd e7c9 82bc 6441 cfbc e8d5 91bc
00000230: 792e c7bd ecdb 85bc 047d c13d e2be d43c
00000240: cfbd d73d b638 12bc 5d46 9f3c 8190 8cbc
00000250: 11fb 1cbd 9bed 043e 887d 35bc 1bf9 643c
00000260: 5f68 773d bf3e b03d 8bc2 a03d ec9c 21be
00000270: 2635 5a3d 2b73 a7bd b06d d0bd 8838 e63d
00000280: b2fd 77bd 0417 123d 8cd0 63bd 1160 a43d
00000290: 2946 d9bd bc80 343d c242 993d 209e 7abb
000002a0: fe99 b53d d49d d33d 63c6 413d 4bcf b13d
000002b0: d340 39be 2eb3 81be fbd3 b5bb 6cd0 dabe
000002c0: 09a3 853d 9f44 843b 184b b03d ca70 a7bd
000002d0: 0bdb c2bd 4dd9 3abe 8482 463c 3730 073d
000002e0: 6a21 4fbe 2aba d1bd 2071 113d 76b8 edbd
000002f0: 239e b53b b7cd b03d c764 80bd 4131 e6bc
00000300: e4b4 c4bc af23 ccbd eea1 4a3d e454 b33e
00000310: 6213 d53b 55d2 f23c ca97 dabc 65a7 f23a
00000320: ba44 ebbd 9a6b 9cbe 774f 213e d678 76bd
00000330: 43d4 00be f170 a83d c90a e43d 4e07 5d3b
00000340: 86ee 8f3e cc76 543d de3f 853c 3822 583c
00000350: 4396 183e eadf c1bc 7b44 89be b6fe 0cbe
00000360: 479d be3d d0dc 023e 8a8f b0bd 1c24 083e
00000370: 2f4a 113b 90c0 df3c 402e 47bd 2107 39bc
00000380: ec23 3bbc e3e8 f0bd 7c11 313e 4dec 42bd
00000390: 572b 3f3d 6577 553d 1f15 0c3d 9c74 b0bd
000003a0: 6f4c 61bd 0f0e 383d 081a 8a3d 1238 813d
000003b0: b867 81be 0659 4dbd 88af ce3e bff2 843d
000003c0: 844d 383e bd8b ae3c 080d e4bd aee9 57bd
000003d0: a973 1ebe d719 9fbc 9ae7 0bbc fefa aa3d
000003e0: 7931 f73d 9655 0f3d 4cb4 b73d e2b7 b53d
000003f0: 0900 9f3c 9451 f13b 03a0 f53c b788 e7ba
0.040468883 0.03935809 -0.009371915 -0.036929324 0.08889129 -0.020760868 -0.07066648 -0.10182077
0.013168167 -0.12271478 -0.065042384 0.046614345 0.15467009 0.046211798 -0.07837633 0.03310279
-0.10862902 0.085691474 0.061168734 -0.036252998 -0.12125873 0.046890993 -0.02996397 -0.09436225
0.073558025 -0.1453641 -0.15946274 -0.03299118 -0.005091986 -0.0050007463 0.09051289 0.0038033843
0.671483 -0.21651 0.07294284 0.11648075 0.008948814 -0.07664984 -0.0151569415 0.008955905
0.09740737 -0.39449543 0.010349914 0.03906124 0.019820478 -0.040525332 -0.22549656 0.04556653
-0.010901527 0.16724955 -0.094674975 0.24414553 -0.016139353 0.0072410703 -0.061728686 -0.09058533
-0.04840912 -0.42087844 0.23764981 -0.047081247 0.21639231 0.06666722 -0.20364164 -0.36619043
-0.07540538 -0.07498843 -0.08691325 0.07595531 0.22861862 0.03231068 0.15049058 -0.060668826
-0.058372732 0.043478925 0.07199399 -0.004411003 -0.1743686 0.15245199 -0.03583936 0.04128491
0.044955093 -0.027606014 0.12300645 0.10794003 -0.115034856 -0.042292938 0.018382259 0.018262167
-0.0038608378 0.045367423 -0.08702861 -0.0016017018 0.035725463 -0.04459029 0.0419745 -0.08939054
0.5539871 -0.28984055 -0.046764433 0.07778507 0.2344643 -0.12797762 0.25991884 -0.5430082
0.11353344 0.07869832 0.005800676 0.11001481 0.13461752 0.011756812 0.16113743 0.20080882
0.057770606 -0.017112698 -0.10116442 -0.0003110458 -0.089392 0.029735992 -0.009200555 0.00021854565
-0.23912592 0.057931926 -0.2965086 -0.28149217 0.05397258 0.033395573 -0.01811045 -0.09301638
-0.111927286 -0.13151826 -0.14066188 0.23297341 0.0813804 -0.08770492 -0.07554435 -0.0224653
-0.08254789 -0.015965415 -0.025299735 -0.017802194 -0.09725661 -0.016340218 0.09447673 0.025969926
0.1053425 -0.008924654 0.019442732 -0.017158749 -0.038325373 0.12981264 -0.011077292 0.013975407
0.06040227 0.08605718 0.07849606 -0.15782517 0.053273343 -0.081762634 -0.10177171 0.11241251
-0.060544677 0.03566648 -0.055618808 0.08026136 -0.10609085 0.044068083 0.07483436 -0.0038241223
0.08867262 0.10332838 0.047308337 0.08682116 -0.18091135 -0.25332016 -0.0055489517 -0.42737138
0.06525237 0.0040365006 0.08608073 -0.0817581 -0.095144354 -0.18246956 0.012116078 0.033004966
-0.2022759 -0.10240586 0.035508275 -0.11607449 0.005542533 0.08632987 -0.06269222 -0.028099658
-0.024012037 -0.099677436 0.049470834 0.35025704 0.0065025548 0.02964131 -0.026683707 0.0018513022
-0.11487718 -0.30550843 0.1575297 -0.060173832 -0.12580971 0.08224667 0.111348696 0.0033726278
0.28111666 0.051871106 0.016265806 0.013191752 0.1490107 -0.02366634 -0.2681006 -0.1376904
0.09307342 0.12779546 -0.08621128 0.13295025 0.002216946 0.0273135 -0.04862809 -0.011293204
-0.011422139 -0.117631696 0.17291826 -0.047588635 0.04667219 0.052115817 0.03419983 -0.086159915
-0.055004533 0.044935282 0.06743246 0.06309523 -0.25274444 -0.050133727 0.40368295 0.06491613
0.1799832 0.021306867 -0.11135298 -0.05271309 -0.15473808 -0.019421501 -0.008539105 0.08348654
0.12069983 0.03499373 0.08969936 0.088729635 0.019409196 0.007364461 0.029983526 -0.0017664646

bias f4 [256]
00000000: b500 8c3c 4c13 d73b ab10 8a3d f1a0 86bc
00000010: 352c 2fbd 8ea7 c3bd 94e8 57bd 70ad 513d
00000020: 46a8 033e 29ed d9bd a9d0 673c 3579 b0bc
00000030: 8460 a73d 90cb 90bd 1533 b7bc e316 d1bc
00000040: 4b4c 03bc 2bbf 16bd 35cd 8e3d bd0f 9bbd
00000050: b812 a93c 32f9 7dbd 344f a93d aacd 503e
00000060: 46f1 08be 9834 013e 1d1a 103d f853 a3bd
00000070: 4a1c d1bd 6a92 d2bd abff f73d f71b fc3d
00000080: 9d12 34bd ca49 653c d0c7 363d ff7e f0bb
00000090: d446 fcbd 69aa 783b f671 08bd 6900 13be
000000a0: 3a08 51bd 7a50 493d e7c9 233d 4e90 c6bd
000000b0: b768 3cbd 549d e93c 5129 e13d 0824 213e
000000c0: 08fb ea3b 0d49 713d d1c0 56bd 195d 943c
000000d0: 5a59 05be 3bfb d13d 2d35 e43d e6d4 8fbc
000000e0: 4416 7cbd 097b 1c3d 57e2 2e3e 6fc6 233c
000000f0: d7cf 62bc 5919 433d 1cfe ecbd 704a 083c
00000100: 53b0 bb3b 9154 123d 4e7a 1937 c2e4 02bd
00000110: 328e 9bbd 0bfb 64be 4d24 21bd 112f c6bc
00000120: 5199 9abd cd66 a93d bb52 fe3c d09b e53c
00000130: 7ec7 e03a 2119 3a3d 4486 1e3d c23c 4ebd
00000140: b5d0 23be aa9b eb3c e5b5 28bb b8b9 f9bc
00000150: 653b c4bd d532 b83d ceea 983d 6c0c 0b3d
00000160: fc09 273e fb95 5cbd 1da4 8f3d 47b2 3c3c
00000170: 9f82 233d de36 d23d d35b 9a3d 6103 133d
00000180: d560 09be 5f06 713e 7e41 12be 123f f83b
00000190: eef2 703d 6679 26be d6e6 eebd bda9 f63a
000001a0: e4c8 74bd 1a77 37bd 319a abbd 9d61 e83d
000001b0: 629e 113e 3bfb ed3c e6f2 efbd 673b 9a3d
000001c0: 2073 543c f268 923a 40d8 66bd 54ac 7a3c
000001d0: 7a65 b9bd f2b3 f2bd 77cb 4fbc 72a0 82bd
000001e0: faaf c4bc c0f9 1f3e 4f88 8b3d 68c8 65bc
000001f0: 63cd 8cbc 0e9c 373c aaac a2bc f76f a2ba
00000200: d8d6 93bd 1585 b33c 45fa 253d 82e8 893d
00000210: c1df b6bd bc15 b2ba f79e b03d 6709 a33d
00000220: 6f2e cebd b5f3 42bc f008 81bd 9232 a4bd
00000230: 5ce4 d73d 5ead c13b 61d9 02bd 7dbf f3bd
00000240: da98 0b3d d50e 6c3c bcc5 1cbd 5804 383e
00000250: 5d8f 1a3d bb01 193e fac9 dabc baea 613d
00000260: 011c fe3c 3bc8 e23c 6e0b fdbc 6f92 55b9
00000270: 192f b03d fd42 a03c fdfd edbd a3cd c2bd
00000280: b2b2 9b3c 9f32 7abc e51f 7dbc 94e3 46bb
00000290: 5be3 b53d 004b 20be 366a 873d 3c57 4ebd
000002a0: 067c 02bc b7b2 25bd 6bfa e83a 2014 473d
000002b0: 0238 c3bc ae9e 0fbd 9ebf 0a3d 53e2 ce3d
000002c0: 2913 4d3d 1ef1 b0bd c3ac b7bd 193e eebd
000002d0: 2876 393d 5719 723b c20b 273e 1909 afbc
000002e0: bbfe 1b3d 40ec 9bbd 63b5 1c3e 457c 02bd
000002f0: 3cae 55bd 7e23 85bd 8758 4cbd 281c f33b
00000300: 2292 85bc 3bc6 023e 4e65 92bd 0982 bb3d
00000310: 2a39 933c 210b 3bbd 8fbd 433c a766 2d3d
00000320: 77b3 583d 6169 a7bd b742 bb3d 3145 3abd
00000330: dbfb 4a3c 32b3 42bd 6737 f93c 7ef4 393d
00000340: 7f18 223e 29b1 803c 1f47 3dbd 5e84 a8bd
00000350: 80c4 0bbd 0348 e43d 595e a2bd ee36 c03d
00000360: d7e2 e03c 0c7e 2a3e 5ded cf3c 1e78 afbc
00000370: 5cee 203d d84c 99b8 7725 713d ef17 f93d
00000380: c094 de3d f535 32bb 69ce f53c e7ca c9bc
00000390: 5012 f23a 01c0 57ba cb3f 1f3c 56b0 09be
000003a0: a526 54bd 4e43 c43d 3e88 2bbd 3e9c a93d
000003b0: 2638 25bd 3896 853d a184 0abe ea08 a6bc
000003c0: 4df1 97bc 23a7 5d3c 59c0 22bb e531 14be
000003d0: 92dc 903d 838a 003c 0de9 133c 41d2 493d
000003e0: 0435 a4bd 96b5 653d 100a c2ba 8052 123b
000003f0: ff88 efbd d601 bebc 924e 423d eb1c cd3d
0.01709018 0.0065635797 0.067414604 -0.016434165 -0.04276677 -0.09553443 -0.05271204 0.051190794
0.1285716 -0.10640938 0.01414887 -0.021542171 0.08172706 -0.070700765 -0.022363225 -0.025523609
-0.008013795 -0.036803406 0.06972734 -0.07571361 0.020638809 -0.06200523 0.0826706 0.20390955
-0.13373289 0.12617719 0.035181154 -0.07975 -0.10210474 -0.102818325 0.12109312 0.12310021
-0.043963064 0.013994643 0.04462415 -0.007339358 -0.12318197 0.003794337 -0.033311807 -0.14355625
-0.051033236 0.049149014 0.03998747 -0.09695493 -0.0459983 0.028517403 0.109942086 0.15736401
0.0071710385 0.058907557 -0.052429978 0.018110799 -0.13022366 0.102529965 0.11142955 -0.017557573
-0.06154467 0.038203273 0.1707853 0.009996041 -0.013843498 0.047631595 -0.11571905 0.0083185285
0.0057278066 0.03572518 9.147987e-06 -0.03195644 -0.07595481 -0.2236139 -0.03934126 -0.024192365
-0.07548774 0.08271561 0.031045308 0.028028399 0.0017149297 0.04543412 0.038702264 -0.050350912
-0.15997584 0.02876075 -0.0025743183 -0.030484065 -0.09581641 0.089940704 0.074666604 0.033947393
0.16312402 -0.05385397 0.07013724 0.011517114 0.03991949 0.10264371 0.07537045 0.035891894
-0.13415845 0.23537587 -0.14282796 0.007575878 0.058825426 -0.16257247 -0.11665122 0.0018818896
-0.059761897 -0.04479132 -0.08379019 0.11346743 0.14220574 0.02905046 -0.11716251 0.07530861
0.012966901 0.0011170192 -0.056358576 0.015299875 -0.09052558 -0.11850728 -0.012682787 -0.06378259
-0.024009693 0.15622616 0.06813108 -0.014024831 -0.01718778 0.01120664 -0.019857723 -0.0012392987
-0.072187126 0.021914044 0.04052188 0.067338005 -0.089293964 -0.00135868 0.0862407 0.07960778
-0.1006745 -0.011898925 -0.06300533 -0.08017458 0.10541603 0.0059105596 -0.03194559 -0.11901758
0.034081317 0.014407833 -0.03827451 0.17970407 0.037734378 0.14942066 -0.026707638 0.055155493
0.031019213 0.027683368 -0.03088924 -0.00020367814 0.08602733 0.019563193 -0.1162071 -0.09511878
0.019006107 -0.015270858 -0.015449499 -0.003034805 0.08881255 -0.1565361 0.06612055 -0.050376162
-0.00796414 -0.04045364 0.0017774826 0.048603177 -0.023830418 -0.035063438 0.033874147 0.10101762
0.0500671 -0.086397395 -0.089684986 -0.11632938 0.0452787 0.0036941373 0.16313079 -0.021366643
0.038084727 -0.076134205 0.15303569 -0.031856794 -0.052168116 -0.0650091 -0.049889114 0.007419128
-0.016305033 0.12770931 -0.071482286 0.091556616 0.017971594 -0.04566491 0.01194705 0.042334225
0.052905526 -0.08174396 0.09143584 -0.045476142 0.012389149 -0.047534175 0.030421926 0.04539918
0.15829657 0.015709477 -0.046210404 -0.08228372 -0.034122944 0.11146548 -0.07928152 0.09385477
0.027451916 0.16649646 0.025381738 -0.021419581 0.039289817 -7.309922e-05 0.05887362 0.12162768
0.108682156 -0.0027192805 0.03000565 -0.024632884 0.0018468592 -0.000823021 0.009719799 -0.13446173
-0.051794667 0.0958315 -0.041877978 0.08281754 -0.04033675 0.065227926 -0.13527156 -0.020267922
-0.018547678 0.013528618 -0.0024833886 -0.14472158 0.070733204 0.007845524 0.009027732 0.04927278
-0.080179244 0.056081377 -0.0014804024 0.0022327006 -0.11696052 -0.023194235 0.04743821 0.10015281

weight f4 [256, 256]
00000000: 9050 313b 2d39 a7bc 625f cdbc a293 aa3c
00000010: 6c2a 8cb9 6111 05bd 2344 b73c 0739 563d
00000020: 6313 08bd 8a80 37bc d83d 0ebc da20 283c
00000030: b569 2a3d d878 b2bc 6ed3 ecbb 79bc 0e3d
00000040: 4e5c 82bc 7d2e 2dbc 3446 87bd 1dd7 cdbc
00000050: 2ff7 203d 6c4d a23c ce0d 00bd 8cd5 2cbd
00000060: 1d12 fcbc 6f9b 003d db63 1ebd 7543 203d
00000070: e20d be3b 8eed 38bc cc9d 55bd b9c1 64bd
00000080: a0e6 713d 5c9e 65bd cf2d 63bc 3f4e 693b
00000090: 36f7 803d c0b0 b5bc 44e0 44bd 785f 333c
000000a0: aab9 4fbd 52f7 02bd 9332 dc3c 0dc1 25bc
000000b0: a216 583d ad25 023c db7e a93c fd21 8c3d
000000c0: 6d57 f13d 0f09 6d3d b35d e93a 8c14 20bc
000000d0: fbce ec3c 3e3f f1bb 4189 60bb 52db 623c
000000e0: 6da9 893d 3b41 d8b9 bfb1 c1bc 0286 5bbc
000000f0: 663f a5bc 1b6f 31bd ab79 16bc 8e61 50bd
00000100: 8edc 253c 9b38 3dba c0e3 063b fb07 823d
00000110: 0097 413d 3d64 7a3c 2640 313c 5954 123d
00000120: 7807 143c 6676 1ebc 9b6b bf3c ef24 a13d
00000130: f86e db3a a8d1 0e3d 0b33 423d c2ff 063c
00000140: 62ad 79bb c410 213c 8870 093d ee97 23bd
00000150: 8fd8 903c 098c 823c c240 debc c7b6 28bc
00000160: 2c18 1d3d 6ca5 12bb 1fe7 9b3b f7b9 31bd
00000170: 2aed bcbb d17e b8bc 6959 a93c a16b 87bc
00000180: 3ee7 acbc 3b70 b0bd 8f5d cebc 90a9 39bb
00000190: 2e7d e5bb 6960 493c be37 bd3c 774e acbc
000001a0: 35a8 793b 5c45 f2bc 3835 1fbd 1dff 52bc
000001b0: db5d 5a3c b801 45bd f646 9bbc 2cf8 03bc
000001c0: 89b8 f23d 15b5 7ebc e3bc 7b3c ad6e afbc
000001d0: b956 2aba cfd3 7a3c 5031 533d 3635 063d
000001e0: 5b4d f3bc 9854 dfbc d5fb 3cbc 5165 bb3c
000001f0: 1ab3 b73b 94e3 18bd e0e6 683a a94e cd3c
00000200: adba f73c 15bf 193d be19 973c 346a 2f3d
00000210: f6a1 3fbc 7a6d 243d 5f4d 80bc 3bd7 953c
00000220: dcc5 b5bc 654c 5ebb 1eac db3c cd20 4abc
00000230: 1aac 66bd ed51 363c 824c 1bbd bb4f 023b
00000240: 1eaa 023d a7cf 173b c85c 6cbd 90bc dabc
00000250: d385 b6bc 4e5a 76bc b595 f0bb b5d9 233c
00000260: f30e 99bc 2fbb 8e3a ae6d 523d b4ae 27bd
00000270: c21f bc3b 24be 74bc f914 b0bc 4f58 ef3c
00000280: b247 dfbb 2bb5 193c c38b 60bc 519c f9bc
00000290: faa8 413a 5521 083d 3647 423b c559 b0bb
000002a0: 0ce9 06bd 8f03 3bbd f3d6 72ba d4e4 4fbb
000002b0: 97de 153c 224c 043d 086e 193d f8c7 843c
000002c0: 3401 803b 0cf3 8fba 16d4 a93b f535 3fbb
000002d0: f441 8a3c ebae cebc c6ac f0bc ff27 863c
000002e0: f045 b13c 5873 e6bb 5e30 a6bb c471 99bb
000002f0: c481 5a3c e4d3 b3bb ced5 b0bb cd22 21bd
00000300: ffb2 eebc c4f7 f1bc bf63 59bd 3542 bf3b
00000310: 5b75 b6bb 3a2d 3ebc 01a0 77bc 4666 b1bc
00000320: 594b d2bc e753 1bbc 1de4 a13c 436b ddbc
00000330: 7355 87bb aa37 fb3c 19a7 4bbc d3d0 943c
00000340: 48ba 56bd a061 833c cbc2 bd3c 1a1a 80bc
00000350: 0029 c53b 2464 b93c 741c 4ebc 3a5c 243b
00000360: 3827 df3c 413e bc3c 7416 b53c 809b bfbd
00000370: 7825 863c 683b aa3c fabf a83b 3193 1a3c
00000380: cd67 853d 8eba 323c 96e3 b93c 8bb4 7b3d
00000390: 79c3 923a 729b ee3c 8c07 81bb 9d57 75bd
000003a0: c9da b7bc ae2c 843d b123 84bc bfe3 feb9
000003b0: dc5c 7fba 2265 dc3a 6ada 11bd dc4c be3b
000003c0: 9fa4 44bc eaad 0bbd b1d4 2bbc 1ed9 663d
000003d0: 6df2 033d ab1b 1a3b 7bd5 003d 9405 1abd
000003e0: f374 b43c 3f87 b1bb 6409 203d beaf 9abb
000003f0: a39f 043c 1ac0 47bc 77f0 363c f26b d03b
0.0027056076 -0.020413006 -0.025069896 0.02082235 -0.00026734488 -0.032487277 0.022371357 0.05230048
-0.033221614 -0.01120008 -0.008681737 0.010261739 0.041604716 -0.021786138 -0.007227353 0.03484771
-0.015913155 -0.010570166 -0.06605187 -0.025126988 0.039298233 0.019812308 -0.031263165 -0.04219584
-0.030770356 0.031398233 -0.03866945 0.039126832 0.005799995 -0.011287106 -0.05215244 -0.05584881
0.05905783 -0.056059226 -0.013865902 0.0035599617 0.06297152 -0.022179008 -0.04806544 0.0109480545
-0.050714172 -0.031974144 0.026879584 -0.010116828 0.05275596 0.007943553 0.020690372 0.0684242
0.11784253 0.057869967 0.0017804414 -0.009770524 0.02890729 -0.0073622754 -0.0034261497 0.013846235
0.067217685 -0.0004124733 -0.023644326 -0.013398649 -0.020171832 -0.04331885 -0.009184281 -0.050874285
0.010123385 -0.00072182127 0.0020582527 0.063491784 0.047263145 0.015282688 0.010818517 0.03572497
0.009034984 -0.009671783 0.02336674 0.07868373 0.0016741445 0.034867913 0.04741196 0.008239688
-0.003809773 0.009830657 0.033554584 -0.039939813 0.017681388 0.015935915 -0.027130488 -0.010297484
0.03835313 -0.002237643 0.0047577764 -0.04339024 -0.005765577 -0.022521408 0.020672517 -0.016530814
-0.021106359 -0.08615156 -0.025191097 -0.0028329827 -0.007003448 0.012291052 0.023097869 -0.021033509
0.0038094644 -0.029574089 -0.038869113 -0.012878207 0.013328041 -0.048097342 -0.018954735 -0.008054774
0.118516035 -0.015546103 0.015364858 -0.021415079 -0.0006497908 0.015309288 0.0515607 0.03276559
-0.029699972 -0.027262017 -0.011534651 0.02287546 0.0056060674 -0.03732641 0.0008884501 0.025061922
0.030240381 0.037535746 0.018444892 0.042825893 -0.011696329 0.040143467 -0.015661893 0.018291106
-0.022189073 -0.0033920046 0.02681547 -0.012336922 -0.056316473 0.011127931 -0.03791476 0.001988395
0.031900518 0.0023164542 -0.05770567 -0.026701242 -0.02228061 -0.015036179 -0.007342065 0.010000636
-0.018683886 0.0010889525 0.05137413 -0.040938094 0.0057410905 -0.014937911 -0.021494376 0.029216914
-0.0068139667 0.009381573 -0.013705197 -0.030470045 0.0007387545 0.033234913 0.0029644496 -0.005381795
-0.032937095 -0.04565769 -0.00092635973 -0.0031722086 0.009147308 0.03229917 0.03745845 0.016208634
0.0039063934 -0.0010982468 0.0051827533 -0.0029176448 0.016877152 -0.025229892 -0.02937926 0.016376493
0.021639794 -0.007032793 -0.005071684 -0.0046827514 0.013336603 -0.005487906 -0.0053965813 -0.03933983
-0.029138086 -0.02953709 -0.05307364 0.00583675 -0.005568189 -0.011607463 -0.0151138315 -0.021655213
-0.025670694 -0.009480453 0.019762093 -0.027028685 -0.0041300594 0.030666191 -0.012429976 0.018165981
-0.052423745 0.016037762 0.023164174 -0.015637446 0.0060168505 0.022630759 -0.012580026 0.0025079385
0.02724038 0.022978904 0.022105433 -0.09355831 0.016375288 0.02078028 0.0051498385 0.009434507
0.06513939 0.010908736 0.02269153 0.061451476 0.0011197171 0.029126856 -0.0039376672 -0.059898008
-0.022443192 0.064538345 -0.0161303 -0.0004861634 -0.0009741315 0.0016814808 -0.035608687 0.005807502
-0.012002139 -0.034101404 -0.010487721 0.056359403 0.032213617 0.0023515027 0.03145359 -0.037602976
0.022028422 -0.005417734 0.039071456 -0.004720657 0.008094701 -0.012191797 0.01116573 0.0063605243

bias f4 [256]
00000000: c52b 05bc 00d7 b7bb 503c 06bd 3fcd ed3c
00000010: 61de 673d 98b1 463d dac6 bebc 6087 d3bb
00000020: bc6c bfba 6583 5e3c a7c6 b639 bdb2 0b3c
00000030: 37f3 153d ed9d 2dbd 694a 353d 0172 e93c
00000040: 5970 51bd 91c2 433b 35a2 203c 1844 653c
00000050: fdf9 f33c 0af7 7dbd 7bc6 903b 1f7a 8cb9
00000060: 8045 e439 4884 3c3d 2838 82bc c983 22bb
00000070: 1325 b8bc 5c45 4e3d 2f29 a4bb ff84 c43b
00000080: 7d6b 9ebc a609 19bd ff70 a53c 1b96 e33b
00000090: aa72 1f3c 60ad 81bc 5430 563d 7d75 e93c
000000a0: 7219 873c 1a31 60bb 0360 da3b 58d3 b3bc
000000b0: 7396 1f3c b027 0abc 7f59 ed3b 5f78 3fbb
000000c0: ef2e 1e3d bed9 6bbc aa78 263b 7812 f8bc
000000d0: 8547 48bb 57c3 813b 89ea dcbc 6ee2 473c
000000e0: 9742 f83b 7158 2cbd c35b 24bd 0373 6bbb
000000f0: 3d29 863c a6ff 92bc 7596 c03c 14be 57bc
00000100: aefc 17ba 527b 033d b6db be3c 4f41 7bbc
00000110: 3855 e4bc 2c0b a93d 4183 bebc 3161 9dbc
00000120: bbef 2cbd 9f5e 0cbc 797c 1bbd dc58 813d
00000130: 859a 57bd 5302 ab3d 1be3 6cbd bc94 02bd
00000140: 8779 efbb 9cab 8cbc d2be 0f3d 3f36 c33c
00000150: 7faa 203d 4d75 b1bc e954 cdbb 6a95 2abd
00000160: 00bf 41bc d92d 8b3c 7133 03bd 19c3 9e3c
00000170: 6661 c73a e415 2b3d f964 ddbb 9206 66bc
00000180: c828 6a3d 9196 0e3d 19d0 e33b d8ad bdbc
00000190: d547 d1bb 54e4 dcbc 88b7 8abc b02f f1ba
000001a0: 0cc7 323d 0f5b 363c cbd1 8b3c d587 073c
000001b0: f793 47bc 115f 5abd e559 e73c 69ef 313d
000001c0: d04f 963c fcb7 6cbd 7e10 3ebd b252 26bb
000001d0: 68b4 21bc af51 b8bc f5ef e1bb ba4f 91bd
000001e0: ab79 a23b 6d38 923b 1122 053d a70d a4bc
000001f0: 7f81 463d e0a7 1e3c 6987 943c c9e9 033d
00000200: e19b 0b3d 5c68 ccbb ba34 49bd b951 853d
00000210: 96d8 4f3d e54f 223d 59bb be3c 8ed9 c2b7
00000220: 73a7 6abd b9c9 19ba a01c 743b 22af e73b
00000230: 23b0 b2bb 2a0d b53b e880 fa3c c801 fe3c
00000240: 3c0b bd3b 62e2 df3c 9dd3 d0bc fd14 86bc
00000250: 81ff 0ebc 6db1 59bc 8b98 5f3c c616 ccba
00000260: e10e 023d 7e44 9b3c f0cd 4b3d 1d62 053d
00000270: 9468 a83b 4851 24bd cbe3 32bd 33ef 3d3c
00000280: edf8 be3c 6a96 a13c 65c2 1a3c 40f9 78bb
00000290: 7427 80bd 368c c4bb 4b68 b23b 3a41 7cbc
000002a0: df99 683c ec6d bcbc 3e9c a13c 1188 4fbc
000002b0: 8052 783b 74fb fbbb 4e6c 4ebd 1237 d83c
000002c0: 85c1 3d3d d9b0 debc f1bb e7bc 5677 48bc
000002d0: 7d1d 71bd d30e 11bc 94b0 853c 5040 0dbd
000002e0: da46 c6bc d646 e4bc 4191 473d 67a0 9ebc
000002f0: a08b 713c f611 58bb fbb1 04bd 6010 a73a
00000300: 5788 35bd e5a4 2b3c 2a1b 4d3b ed84 053d
00000310: 67e6 a5bb b9a2 283d b305 4a3c 2e84 9fbc
00000320: 5ed6 47bd 92a2 5dbd 4294 f7bc 96ee 8e3c
00000330: f4cc 93bc 00d9 64bd 2da4 61bb 8cd6 71bc
00000340: 12cc f23c 0acd 87bd 5152 72bc d8c8 603c
00000350: cefb dd3c 6b99 30bd ded8 bbbc 338f 2b3d
00000360: 8f7b 25bd efa1 70bd e36a 483c 145f f63b
00000370: c7fb 5ebd 7ca6 873d ef34 023c 1e4a 86bd
00000380: bee0 99bc d3ac bdbc f01b 85bd 6765 853c
00000390: d93f 77bb a15b 713d 5355 773d 7b38 14bc
000003a0: a2be 56bd 7b23 863c 357e 8b3d a6b3 263b
000003b0: 4353 2e3d 5aaa 08bc 7a7e 0ebd 649d b6bb
000003c0: a37a 65bd 37a2 e2bb fd47 33bb aaf2 87bc
000003d0: b220 0b3b 1ba4 b43b f969 21bd 0481 99bb
000003e0: 8725 2b3d 6c8c 23bc 5bd6 893c 65fd 303c
000003f0: 04be 923c 454f f83b 481b a6bc 19d6 a73c
-0.008128111 -0.005610347 -0.032772362 0.029028533 0.05660856 0.04850921 -0.02328818 -0.006455347
-0.0014604549 0.013581132 0.00034861753 0.008526501 0.0366089 -0.042386938 0.044260416 0.028496744
-0.051132534 0.002987061 0.009804298 0.013993286 0.02978229 -0.062003173 0.004418192 -0.00026793868
0.0004353933 0.04602459 -0.015895918 -0.0024797788 -0.022478616 0.050359115 -0.0050097923 0.0059972997
-0.019338364 -0.037362717 0.020195482 0.006945384 0.009731928 -0.015829742 0.052292183 0.028498406
0.016491625 -0.0034208954 0.0066642775 -0.021951362 0.00974046 -0.008432314 0.007243335 -0.0029216034
0.038618978 -0.0143951755 0.0025401511 -0.030282244 -0.0030560207 0.003960054 -0.026967304 0.012199981
0.0075762975 -0.04207653 -0.040126573 -0.0035926707 0.016377086 -0.017944168 0.023509244 -0.013167877
-0.0005797845 0.03210003 0.023298126 -0.015335395 -0.027872667 0.08254084 -0.023255946 -0.019211384
-0.042220812 -0.008567481 -0.037960503 0.06315777 -0.052637596 0.08350053 -0.057833772 -0.031880125
-0.0073081884 -0.017171673 0.03509409 0.023829577 0.039225098 -0.021662379 -0.0062662256 -0.0416464
-0.011825323 0.016989635 -0.03203148 0.01938014 0.0015211522 0.041768923 -0.0067564216 -0.014039652
0.0571678 0.03481156 0.0069522974 -0.023154184 -0.006386737 -0.026964344 -0.016933218 -0.0018401053
0.043646857 0.0111301085 0.01706781 0.008272131 -0.012181274 -0.05331332 0.028241107 0.04344121
0.018348604 -0.05779265 -0.046402447 -0.002537888 -0.009869672 -0.022499887 -0.00689506 -0.07095285
0.0049583516 0.004462293 0.03250319 -0.020026041 0.04846334 0.009683579 0.018130975 0.032205377
0.034084205 -0.0062380265 -0.04912255 0.06509728 0.05074366 0.039626975 0.023282694 -2.3227909e-05
-0.0572886 -0.0005866546 0.0037248507 0.007070438 -0.005453126 0.005525251 0.030579045 0.031006709
0.0057691615 0.027329627 -0.02549153 -0.01636743 -0.008727909 -0.0132869305 0.013647209 -0.0015570752
0.03175247 0.018953558 0.049756944 0.03256427 0.00513942 -0.04011658 -0.04367427 0.011592674
0.023312056 0.019725043 0.009445761 -0.0037990361 -0.06257525 -0.0059981598 0.0054445616 -0.015396411
0.014196842 -0.023001634 0.019727822 -0.012666718 0.003789097 -0.0076898877 -0.050396256 0.026393447
0.046327133 -0.027183937 -0.02828786 -0.012235483 -0.058866013 -0.008853632 0.01631955 -0.03448516
-0.024203707 -0.027865808 0.04872251 -0.019363595 0.014742762 -0.003296969 -0.032396298 0.0012745969
-0.044319477 0.010476326 0.0031296709 0.03259747 -0.0050628665 0.04117081 0.01233046 -0.019472208
-0.04878842 -0.054110117 -0.030222062 0.017447751 -0.018042065 -0.05587101 -0.0034430132 -0.014760625
0.029638324 -0.06630905 -0.014790134 0.01371976 0.027097609 -0.04311506 -0.022930559 0.041884612
-0.040401038 -0.058748182 0.012232515 0.0075186584 -0.054439332 0.06623551 0.007947191 -0.065571055
-0.018783923 -0.023153698 -0.06499469 0.016283704 -0.0037727265 0.058925275 0.060384106 -0.009046669
-0.052427895 0.01637434 0.068111815 0.0025436669 0.042559873 -0.008341396 -0.034788586 -0.0055729616
-0.05602516 -0.00691631 -0.002735614 -0.016595203 0.0021229205 0.005512727 -0.039407704 -0.0046845693
0.041783836 -0.00998221 0.016825845 0.010802601 0.017912872 0.007577809 -0.02027668 0.020487832
