outputs/2023-09-24-20-37-59/trained_model/tetris_epoch3798_score17000.pt (torch, 842187 bytes, 8 tensors)

weight f4 [32, 1, 4, 4]
0.068623126 -0.00012213504 -0.019806942 0.013403018 -0.037731465 0.06126505 -0.008160181 0.051080912
-0.18606715 0.13698132 0.19871958 0.010170874 0.082457356 0.15373427 0.1697537 -0.027607081
0.39379227 -0.050445244 -0.5773881 -0.28904074 -0.35723647 0.010015754 -0.20523134 -0.0027540382
0.15434968 -0.4131881 -0.034005538 -0.35964513 -0.09862472 0.014516357 0.10571596 -0.6271456
0.061362527 0.039164517 -0.7549678 -0.2075523 -0.05163428 -0.3192062 0.12814341 -0.26733476
0.047743767 0.28365552 0.085427955 -0.101568796 -0.09175555 -0.12875994 -0.10362894 -0.070613585
-0.20681971 -0.43768606 -0.0040455274 0.045595925 0.119218245 -0.12601137 0.24772713 0.1340656
-0.22033098 0.08746307 -0.42651066 0.042019922 -0.20821254 -0.3513503 -0.4010065 0.099909164
-0.098292105 -0.60313284 -0.044369444 -0.028734084 0.06280759 0.1404898 0.14292741 0.042411573
0.27003604 -0.9745433 0.31214792 -0.012942315 -0.0603416 -0.07719328 -0.0032453302 -0.005178659
-0.017075209 0.06887399 -0.1534943 -0.03789732 0.0007375831 -0.009182913 0.32773125 0.80685514
-0.0046407604 0.026511824 -0.32407147 -0.75969267 -0.026948912 -0.014322825 -0.11381619 -0.042929202
0.04119287 0.027240738 0.14436607 0.28843266 0.06174853 -0.00051843823 0.20693107 -0.5066661
0.0625897 0.076841794 0.0039383313 -0.6252615 -0.060370404 -0.007913847 0.06468725 -0.26908436
0.018552415 0.048671417 0.15025517 -0.22856294 0.09091648 0.08389873 -0.7172284 -0.4904655
-0.012429648 0.09377836 -0.388733 -0.17828782 -0.027554806 0.19983241 -0.3042606 -0.5809731
-0.09635931 0.042981382 -0.29545015 -0.1408918 0.11752787 0.2124843 0.14866889 -0.24663544
-0.038580164 0.13748603 -0.3244003 -0.8242974 0.112027526 -0.056365665 -0.06787139 0.018332234
-0.16251008 0.012816777 0.0034072867 0.027516019 -0.15436839 -0.20481506 -0.41112638 0.020430911
-0.09243758 0.47500888 0.17798983 -0.03330274 0.07362958 -0.9694322 0.08972201 0.02223958
0.010837056 -0.068369545 -0.077120505 -0.08933711 -0.009173262 0.05003508 -0.28244084 -0.012293237
-0.045895576 0.020283023 0.61789685 -0.043685753 -0.004893577 -0.02815434 -0.71148324 -0.022503134
-0.21305309 -0.33865517 -0.33349004 -0.10637395 -0.04311443 -0.29931456 0.015147781 0.24379858
-0.08029938 0.021927526 0.13231319 -0.59990525 0.029958684 -0.05825295 0.07988661 -0.43861592
0.12731692 -0.101207554 0.008573319 -0.08339472 -0.012573197 0.510172 -0.07449884 -0.02333055
0.06850761 -0.56116927 0.23906054 1.733446e-06 -0.07972132 -0.50298953 -0.16712403 0.009534733
-0.013241109 -0.048030116 -0.012092287 0.021613592 0.004209971 0.16114621 0.10596043 0.009610028
0.08147203 0.9067407 -0.031842295 0.038041763 -0.0017412314 -1.4605504 0.08210637 -0.01542222
0.012521187 0.49066737 0.03647434 0.00075872795 -0.006409129 0.76253724 -0.018874902 -0.00062561163
-0.002656652 -1.3217936 0.0030171056 0.0018107289 -0.014028251 -0.020478096 -0.018947888 -0.020432675
-0.24455895 -0.059414327 0.12546483 -0.10800459 -0.07142909 -0.23077346 -0.0668213 -0.03910789
0.15296525 0.1679799 0.11627478 0.14537303 -0.00076496106 0.08972057 -0.012987889 0.14017078
00000000: 488a 8c3d 6011 00b9 2b42 a2bc 5598 5b3c
00000010: 4f8c 1abd 10f1 7a3d 48b2 05bc 383a 513d
00000020: 6388 3ebe d544 0c3e 257d 4b3e bda3 263c
00000030: 67df a83d 846c 1d3e ead3 2d3e 3f28 e2bc
00000040: 249f c93e ac9f 4ebd b5cf 13bf 26fd 93be
00000050: b3e7 b6be 1e19 243c 2a28 52be 187d 34bb
00000060: d80d 1e3e 648d d3be 6449 0bbd 6823 b8be
00000070: c2fb c9bd 04d6 6d3c 9c81 d83d 9d8c 20bf
00000080: 4657 7b3d f96a 203d 9245 41bf 9788 54be
00000090: 777e 53bd ff6e a3be 0738 033e 1ae0 88be
000000a0: f88e 433d 4c3b 913e daf4 ae3d 4d03 d0bd
000000b0: 55ea bbbd a5d9 03be 693b d4bd db9d 90bd
000000c0: 8cc8 53be 6318 e0be 5890 84bb cbc2 3a3d
000000d0: b228 f43d 2009 01be 2eac 7d3e 7e48 093e
000000e0: 729e 61be d71f b33d 9b5f dabe 151d 2c3d
000000f0: ab35 55be 30e4 b3be b950 cdbe 2d9d cc3d
00000100: 5f4d c9bd ea66 1abf bcbc 35bd be63 ebbc
00000110: 44a1 803d 8fdc 0f3e 905b 123e c2b7 2d3d
00000120: 2a42 8a3e ab7b 79bf dad1 9f3e 010c 54bc
00000130: c128 77bd 8317 9ebd 9baf 54bb beb1 a9bb
00000140: 4fe1 8bbc ce0d 8d3d 9c2d 1dbe 383a 1bbd
00000150: 5d5a 413a ee73 16bc 64cc a73e 0f8e 4e3f
00000160: 8511 98bb 532f d93c b2ec a5be 387b 42bf
00000170: f7c3 dcbc 48aa 6abc 7618 e9bd 88d6 2fbd
00000180: dbb9 283d f827 df3c b3d4 133e 72ad 933e
00000190: 07ec 7c3d cde7 07ba bde5 533e dfb4 01bf
000001a0: 072f 803d 3b5f 9d3d 1e0d 813b 2311 20bf
000001b0: f546 77bd 15a9 01bc c07a 843d 6dc5 89be
000001c0: 3cfb 973c ae5b 473d 7edc 193e 670c 6abe
000001d0: 6b32 ba3d 19d3 ab3d 489c 37bf 4b1e fbbe
000001e0: b9a5 4bbc de0e c03d 0308 c7be 1591 36be
000001f0: 9eba e1bc dea0 4c3e 0cc8 9bbe a7ba 14bf
00000200: 0858 c5bd 3f0d 303d 3e45 97be f145 10be
00000210: 74b2 f03d 7c95 593e a83c 183e 008e 7cbe
00000220: 3c06 1ebd 23c9 0c3e cc17 a6be 2805 53bf
00000230: b06e e53d afdf 66bd 2800 8bbd 7b2d 963c
00000240: 0b69 26be 76fd 513c c94c 5f3b 4669 e13c
00000250: bf12 1ebe 0abb 51be 287f d2be ba5e a73c
00000260: ea4f bdbd 5d34 f33e f742 363e 7468 08bd
00000270: 1bcb 963d b52c 78bf 2cc0 b73d c82f b63c
00000280: e88d 313c 5505 8cbd 5bf1 9dbd 60f6 b6bd
00000290: 734b 16bc 96f1 4c3d 169c 90be 9369 49bc
000002a0: 00fd 3bbd 9528 a63c 7d2e 1e3f d5ef 32bd
000002b0: 4d5a a0bb eea3 e6bc c423 36bf 7e58 b8bc
000002c0: 972a 5abe 3664 adbe 35bf aabe 96da d9bd
000002d0: c298 30bd c23f 99be 662e 783c 56a6 793e
000002e0: 0074 a4bd 5ba1 b33c 1c7d 073e 6493 19bf
000002f0: ea6b f53c a59a 6ebd 979b a33d 4492 e0be
00000300: 5e5f 023e e845 cfbd 1b77 0c3c daca aabd
00000310: cfff 4dbc a29a 023f d992 98bd b61f bfbc
00000320: b84d 8c3d caa8 0fbf 49cc 743e c0a8 e835
00000330: ee44 a3bd ecc3 00bf 9022 2bbe 9237 1c3c
00000340: 3df1 58bc 3abb 44bd ba1e 46bc fd0e b13c
00000350: ccf3 893b 8303 253e c801 d93d 6173 1d3c
00000360: cfda a63d 2920 683f 116d 02bd aed1 1b3d
00000370: 083a e4ba 51f3 babf 6227 a83d 7bad 7cbc
00000380: aa25 4d3c c138 fb3e 1e66 153d 5fe5 463a
00000390: ac03 d2bb a435 433f 8a9f 9abc 1600 24ba
000003a0: 391b 2ebb 8830 a9bf a2ba 453b fb55 ed3a
000003b0: c0d6 65bc aec1 a7bc 9a38 9bbc 6d62 a7bc
000003c0: a96d 7abe 705c 73bd da79 003e 8331 ddbd
000003d0: 6a49 92bd e14f 6cbe 9bd9 88bd 982f 20bd
000003e0: eca2 1c3e ec02 2c3e 7921 ee3d abdc 143e
000003f0: ab87 48ba 6bbf b73d 28cb 54bc ee88 0f3e

weight f4 [32, 32, 5, 5]
0.16750582 -0.16936043 0.061384633 0.16183002 0.1934505 0.17208812 -0.24600677 0.02176206
-0.01627993 -0.21657865 0.048220374 -0.077388234 0.055294823 -0.25885788 0.05574069 -0.08029299
-0.5246844 -0.36560792 -0.019503359 -0.21004434 0.035393894 0.077807136 -0.16034666 0.05443502
0.09429117 0.16826932 -0.22846915 0.09136537 0.31050676 0.36996803 0.19741166 0.39707565
-0.09789425 -0.05383163 0.075670436 0.15850343 -0.4450038 -0.41250008 0.1258299 -0.32914832
-0.0317872 0.109553896 -0.090637386 -0.011538125 -0.34840703 -0.16462624 0.57888037 -0.018786127
0.14971957 0.21149014 0.12643161 -0.23241006 0.15813406 0.09454065 0.21953346 0.3391623
0.2053789 -0.27486444 -0.5358998 -0.31324914 -0.02630606 0.109775536 -0.06923919 -0.16481182
0.040992234 0.2738979 -0.40447697 0.11376718 0.050797306 -0.24299383 -0.08113951 -0.2762466
0.0069127763 -0.35592866 0.29109618 -0.36149105 -0.40796024 0.2822884 -0.70244986 0.25064918
-0.53537196 0.13603714 0.12354998 -0.44724745 -0.26660258 -0.64754987 -0.20333143 -0.22325133
0.075307965 -0.6502112 -1.2998606 0.1653237 -0.4838715 0.07744351 0.1469285 -0.07837364
0.16657369 -0.13582474 0.37673625 -0.2502516 -0.07500779 0.34723273 0.028053379 0.8224791
-0.741874 -0.44377777 0.39707106 -0.012220225 0.11646082 -0.017634204 -0.42416787 0.03744224
0.16004092 -0.21700074 0.6645813 -0.30700386 -0.12803492 -0.4973036 -0.21463537 -0.29882634
0.12178794 0.08428418 0.05817479 -0.0851284 -0.11604144 -0.09963714 0.13474372 -0.14645784
0.054154158 -0.018149802 -0.040540818 -0.13114278 0.1603069 0.034257665 -0.14738218 -0.046742097
-0.06745794 -0.0627319 -0.0010680947 -0.19297156 -0.47045794 -0.9907051 -0.5176059 -0.12087774
-0.48551637 0.03991056 -0.13654457 0.016863411 -0.21606041 -0.44081876 0.40494588 0.06657267
-0.03847461 -0.41649926 -0.39826545 0.22663225 0.20692518 -0.40786424 0.050200433 -0.9981356
0.048708085 0.23910241 -0.31037077 0.23607379 0.14628749 -0.33611146 -0.21721986 -0.30517745
0.029186437 -0.2925471 -0.02267128 0.053509545 0.10377833 0.24247988 0.1649558 -0.14530063
-0.507103 0.48623812 -0.22323419 -0.26467425 0.13121296 0.044498805 0.067323595 0.1588404
-1.0899854 0.21692075 -0.327506 -0.3127448 0.15489885 -0.009488736 0.2730911 -0.28637502
-0.19493233 0.04432802 0.5443219 -0.30220017 -0.23596443 -0.08908631 0.29730898 0.16785869
0.23918054 -0.14655937 0.21332704 0.29468644 0.3041473 -0.71370244 0.05106137 -0.18359625
0.012157894 -0.13186736 -0.5748237 0.19904338 -0.16550438 0.06936683 -0.60166454 -0.55059695
-0.32293454 -0.27064562 0.051306304 0.11014764 -0.25764105 0.028855557 0.00791629 -0.36886537
0.42501214 0.12380354 0.011281337 -0.34088695 -0.017249899 -0.05347009 -0.37081867 0.04842883
-0.19620791 -0.52103484 -0.26080737 -0.86656594 -0.10288138 -0.11226804 -0.025112618 -0.312479
-0.13892221 0.26166913 -0.4449099 0.08131065 -0.64933187 -0.23795074 0.23594962 0.116928235
0.0032039366 0.1472572 0.39857745 -0.77538353 -0.09182149 0.23769985 -0.02428476 -0.5725978
00000000: a586 2b3e d26c 2dbe 746e 7b3d c5b6 253e
00000010: e317 463e de37 303e 33e9 7bbe 5946 b23c
00000020: 7d5d 85bc cbc6 5dbe ba82 453d b97d 9ebd
00000030: d37c 623d 0589 84be 5a50 643d a770 a4bd
00000040: b851 06bf f630 bbbe 82c5 9fbc dd15 57be
00000050: 30f9 103d 5959 9f3d ea31 24be 41f7 5e3d
00000060: bb1b c13d cb4e 2c3e d1f3 69be c41d bb3d
00000070: befa 9e3e 736c bd3e 4826 4a3e 804d cb3e
00000080: c87c c8bd 8e7e 5cbd 1af9 9a3d b94e 223e
00000090: 8ad7 e3be 3633 d3be 8ed9 003e 2186 a8be
000000a0: 4c33 02bd cb5d e03d 18a0 b9bd 670a 3dbc
000000b0: 6862 b2be c893 28be 8131 143f 5de5 99bc
000000c0: 1650 193e df90 583e 4a77 013e e7fc 6dbe
000000d0: e5ed 213e 879e c13d 61cd 603e aea6 ad3e
000000e0: d94e 523e 08bb 8cbe bb30 09bf 3162 a0be
000000f0: ce7f d7bc ffd1 e03d 47cd 8dbd 6ec4 28be
00000100: 79e7 273d 583c 8c3e 9b17 cfbe c4fe e83d
00000110: d610 503d 60d3 78be 792c a6bd 3270 8dbe
00000120: 9284 e23b 483c b6be 8f0a 953e 5b15 b9be
00000130: 2ae0 d0be 1b88 903e c1d3 33bf 1755 803e
00000140: 230e 09bf 524d 0b3e c607 fd3d 9efd e4be
00000150: 2280 88be d4c5 25bf 1d36 50be ff9b 64be
00000160: 103b 9a3d 3e74 26bf d561 a6bf 9e4a 293e
00000170: 01be f7be b49a 9e3d 6d74 163e 5c82 a0bd
00000180: 4b92 2a3e a415 0bbe 93e3 c03e fa20 80be
00000190: af9d 99bd 7dc8 b13e 33d0 e53c fe8d 523f
000001a0: 74eb 3dbf d736 e3be e64c cb3e 5737 48bc
000001b0: 0383 ee3d 9b75 90bc 882c d9be 095d 193d
000001c0: c4e1 233e 7135 5ebe 0022 2a3f 9c2f 9dbe
000001d0: 961b 03be 949e febe 60c9 5bbe c4ff 98be
000001e0: f56b f93d 2f9d ac3d b048 6e3d cc57 aebd
000001f0: 22a7 edbd 8f0e ccbd 42fa 093e 0bf9 15be
00000200: c0d0 5d3d e5ae 94bc 210e 26bd 4b4a 06be
00000210: 7e27 243e c451 0c3d 5beb 16be a474 3fbd
00000220: 6327 8abd 9579 80bd 50ff 8bba 569a 45be
00000230: dddf f0be d99e 7dbf d281 04bf c08e f7bd
00000240: 9a95 f8be 4179 233d 57d2 0bbe 2325 8a3c
00000250: f13e 5dbe ffb2 e1be 1155 cf3e 4157 883d
00000260: 8d97 1dbd 643f d5be 73e9 cbbe 4912 683e
00000270: 32e4 533e 95d3 d0be f89e 4d3d d185 7fbf
00000280: 2182 473d 43d7 743e ebe8 9ebe 54bd 713e
00000290: 63cc 153e cd16 acbe e26e 5ebe 3840 9cbe
000002a0: 6518 ef3c bcc8 95be 1fb9 b9bc d32c 5b3d
000002b0: bc89 d43d a54c 783e 2cea 283e b0c9 14be
000002c0: 81d1 01bf 34f4 f83e 8197 64be 6283 87be
000002d0: b15c 063e 6144 363d f4e0 893d 0fa7 223e
000002e0: a484 8bbf 7920 5e3e deae a7be 1620 a0be
000002f0: ce9d 1e3e a576 1bbc 99d2 8b3e bf9f 92be
00000300: 579c 47be 4c91 353d ae58 0b3f fbb9 9abe
00000310: a9a0 71be e272 b6bd e238 983e 26e3 2b3e
00000320: beeb 743e a913 16be 6772 5a3e 24e1 963e
00000330: 32b9 9b3e 34b5 36bf ba25 513d a800 3cbe
00000340: e731 473c 3d08 07be a527 13bf 07d2 4b3e
00000350: fb79 29be 3210 8e3d b006 1abf ecf3 0cbf
00000360: ad57 a5be 1092 8abe 8f26 523d 1695 e13d
00000370: 87e9 83be 7d62 ec3c 54b3 013c ecdb bcbe
00000380: 319b d93e b68c fd3d 5bd5 383c bc88 aebe
00000390: a94f 8dbc 7403 5bbd f2db bdbe 4f5d 463d
000003a0: baea 48be 8a62 05bf 8b88 85be 44d7 5dbf
000003b0: 79b3 d2bd c9ec e5bd fab8 cdbc 3ffd 9fbe
000003c0: a041 0ebe 7ff9 853e 3bcb e3be 3386 a63d
000003d0: 9d3a 26bf 5ca9 73be c79c 713e 1278 ef3d
000003e0: 23f9 513b 97ca 163e 5812 cc3e 897f 46bf
000003f0: e80c bcbd 9767 733e d5f0 c6bc c595 12bf

weight f4 [64, 32, 5, 5]
0.17000173 0.046272013 -0.123000614 0.21110334 -0.3465156 0.20521855 0.12539318 0.09284279
-0.104487106 0.035118658 -0.008877393 -0.2349899 -0.14789172 -0.0019085497 0.63264465 -0.07268375
0.08016526 0.16096231 -0.073923714 0.30336004 -0.07962536 -0.21048482 -0.06734225 0.39573392
0.048520666 0.39743993 -0.44700202 -0.11408375 -0.226414 0.16085783 -0.113103636 0.35362792
0.19133806 -0.5263768 -0.33235207 -0.27038628 0.13388808 0.465718 -0.03807647 -0.159924
0.5076348 0.36053532 -0.3140512 0.40986368 -0.124321476 -0.100161314 0.44820675 0.3682329
0.19213246 -0.043011993 -0.4464635 0.14386328 0.43822142 0.034636155 -0.032662455 0.5281731
0.015095843 -0.6502521 -0.5335631 -0.74666226 0.30929244 0.07121286 -0.3627851 0.32392332
-0.23217425 0.07889357 0.007008451 0.4315342 -0.2195009 -0.17485076 0.5824871 0.17114134
-0.08833193 0.1305443 -0.22812645 -0.25588363 -0.4637509 0.03740871 0.2659017 -0.34460506
0.52230966 0.44812128 0.055043504 0.3479285 0.40040636 -0.08416473 -0.30121973 -0.36520278
-0.29776695 -1.1124954 -0.7566583 0.050391477 -1.4202309 -0.33094326 0.11362231 0.2189775
0.043008752 -0.1949803 0.47607043 0.05225755 -0.36087996 0.31308052 0.030600535 0.081432246
0.2695133 -0.0034720183 -0.18282503 0.21848996 0.1610348 0.6467368 0.26462272 0.09918024
-0.22297074 -0.061982546 -0.27299884 -0.24839385 0.07246335 -0.26281372 -0.7162197 -0.65092504
-0.39601633 -0.13309915 -0.008253537 0.3371281 -0.17438418 -0.09128799 -0.58360016 -0.20650662
0.34373766 -0.98059696 0.41312915 -0.26540762 0.16519149 -0.0004706074 -0.15565354 0.10271331
0.13680114 0.3118184 -0.06894511 -0.253095 -0.6825197 -0.14623545 0.13145429 -0.12231193
-0.0142343575 -0.4058308 -0.13680597 0.12974736 -0.005636139 0.15799746 0.035135504 -0.42755762
0.0010618905 -0.2830257 -0.5511956 0.108210966 0.0076457425 0.15225424 -0.058046162 0.08012421
-0.01378575 0.20335698 0.2661666 -0.3027931 -0.1689807 0.04883873 -0.0718019 -0.031490188
-0.11657114 -0.40452853 0.37386045 0.17528991 0.14095016 -0.06313024 -0.42057434 -0.016350817
-0.5585928 -0.12627932 -0.09786041 0.29578686 0.39853537 0.009583933 -0.04514853 -0.019106587
0.21559125 0.39588466 -0.38241026 -0.15750468 0.3522397 0.4569698 -0.17540212 -0.062155128
-0.04303504 -0.086297706 -0.08553188 0.36969915 -0.17750345 0.09635288 -0.6984527 -0.1772771
0.15190591 0.2633905 0.04172871 -0.41327786 0.098182745 0.35699815 -0.89779633 0.19942798
-0.24572726 0.17160809 0.46612698 0.1885418 0.037994783 -0.15559062 -0.45135826 0.42712045
-0.018027363 0.1639988 -0.08384205 0.5957667 0.35004708 -0.05339321 -0.13309865 0.18811433
-0.06564623 0.49462128 0.087360464 -0.2131675 -0.31739786 0.3265958 0.13896434 0.43374512
0.16525891 0.030842181 0.67597765 0.05623157 0.23834309 0.06667252 0.1052278 0.18730712
0.36212066 0.14573804 -0.16281557 0.34239253 0.082296066 0.1053002 -0.23073247 0.1879621
0.43006366 -0.36283475 0.33142123 0.020095466 0.3889365 0.014446573 0.61633676 0.45593092
00000000: ef14 2e3e b987 3d3d bfe7 fbbd 792b 583e
00000010: 7e6a b1be d024 523e 1267 003e 5c24 be3d
00000020: 56fd d5bd 95d8 0f3d 7c72 11bc 31a1 70be
00000030: ed70 17be 4d28 faba 00f5 213f 38db 94bd
00000040: af2d a43d 4ed3 243e 5165 97bd 0252 9b3e
00000050: 9f12 a3bd 5589 57be bcea 89bd a39d ca3e
00000060: 9bbd 463d 3f7d cb3e 73dd e4be bea4 e9bd
00000070: 12d9 67be eab7 243e e1a2 e7bd b80e b53e
00000080: 20ee 433e a1c0 06bf 0d2a aabe 1270 8abe
00000090: f519 093e 9772 ee3e 13f6 1bbd 1ec3 23be
000000a0: 5bf4 013f 1698 b83e 52cb a0be a7d9 d13e
000000b0: 429c febd 6021 cdbd 5b7b e53e 0689 bc3e
000000c0: 5fbe 443e 582d 30bd dd96 e4be e550 133e
000000d0: 8f5e e03e a4de 0d3d 11c9 05bd 5a36 073f
000000e0: 8e54 773c ec76 26bf 9797 08bf 4225 3fbf
000000f0: 945b 9e3e 0cd8 913d f8be b9be 47d9 a53e
00000100: 16bf 6dbe f492 a13d 26a7 e53b 0df2 dc3e
00000110: d8c4 60be 140c 33be e01d 153f ad3f 2f3e
00000120: 5fe7 b4bd 68ad 053e fb99 69be 2e03 83be
00000130: c270 edbe e039 193d 4524 883e 1370 b0be
00000140: 16b6 053f 2770 e53e 4c75 613d af23 b23e
00000150: 1002 cd3e 8f5e acbd 7939 9abe dcfb babe
00000160: e974 98be 4066 8ebf 5cb4 41bf 4b67 4e3d
00000170: 20ca b5bf 6571 a9be d0b2 e83d a33b 603e
00000180: f229 303d eaa8 47be 81bf f33e 030c 563d
00000190: 42c5 b8be 174c a03e f9ad fa3c f3c5 a63d
000001a0: a6fd 893e cd8a 63bb 7c36 3bbe d5bb 5f3e
000001b0: 4ee6 243e 8b90 253f a17c 873e 021f cb3d
000001c0: 7152 64be 69e1 7dbd 81c6 8bbe f55a 7ebe
000001d0: aa67 943d 858f 86be 2d5a 37bf 06a3 26bf
000001e0: a7c2 cabe 254b 08be d839 07bc 0e9c ac3e
000001f0: c491 32be 33f5 babd d266 15bf 7976 53be
00000200: 62fe af3e 6708 7bbf aa85 d33e 82e3 87be
00000210: f527 293e dbbb f6b9 a463 1fbe 5b5b d23d
00000220: 9915 0c3e a9a6 9f3e 1833 8dbd ab95 81be
00000230: 9cb9 2ebf bfbe 15be f49b 063e ad7e fabd
00000240: 3937 69bc 0ec9 cfbe dd16 0cbe 7edc 043e
00000250: 5caf b8bb 16ca 213e 3fea 0f3d d5e8 dabe
00000260: 222f 8b3a bfe8 90be 281b 0dbf b69d dd3d
00000270: 2389 fa3b 89e8 1b3e d0c1 6dbd 2918 a43d
00000280: a0dd 61bc d03c 503e fd46 883e b207 9bbe
00000290: 4709 2dbe 1f0b 483d e00c 93bd dbfb 00bd
000002a0: dabc eebd 5d1e cfbe a36a bf3e 337f 333e
000002b0: 3d55 103e 6d4a 81bd 8555 d7be 26f2 85bc
000002c0: f0ff 0ebf 5e4f 01be 0a6b c8bd 6071 973e
000002d0: d40c cc3e ee05 1d3c aaed 38bd 6b85 9cbc
000002e0: f4c3 5c3e 65b1 ca3e 47cb c3be e848 21be
000002f0: c358 b43e f2f7 e93e 9d9c 33be 6096 7ebd
00000300: 8345 30bd dabc b0bd 572b afbd 3549 bd3e
00000310: 77c3 35be a954 c53d cccd 32bf 2188 35be
00000320: 398d 1b3e 1fdb 863e b9eb 2a3d 2899 d3be
00000330: 0914 c93d 76c8 b63e fbd5 65bf d936 4c3e
00000340: ed9f 7bbe 08ba 2f3e 32a8 ee3e 1a11 413e
00000350: 6ba0 1b3d 2653 1fbe 6e18 e7be 88af da3e
00000360: 1fae 93bc 4def 273e 61b5 abbd 2b84 183f
00000370: 5f39 b33e d7b2 5abd 034b 08be 0ba1 403e
00000380: 8871 86bd 003f fd3e 0bea b23d 9548 5abe
00000390: f981 a2be 9137 a73e ab4c 0e3e d713 de3e
000003a0: a239 293e bea8 fc3c df0c 2d3f 1353 663d
000003b0: 3610 743e 9a8b 883d ac81 d73d 70cd 3f3e
000003c0: e167 b93e 5a3c 153e 20b9 26be 134e af3e
000003d0: d78a a83d a2a7 d73d 2245 6cbe 2379 403e
000003e0: 4e31 dc3e 7ac5 b9be 0bb0 a93e 3f9f a43c
000003f0: af22 c73e 52b1 6c3c 3fc8 1d3f c76f e93e

weight f4 [256, 256]
0.038232904 0.0369693 -0.010339739 0.037965644 0.08889129 -0.020760868 -0.07066648 -0.10182077
0.013168167 -0.12271478 -0.065042384 0.046614345 0.13408624 0.09173132 -0.056526393 0.03014707
-0.14234093 0.16932763 0.041728273 -0.013786944 -0.12125873 0.046890993 -0.02996397 -0.09436225
0.07356914 -0.14570142 -0.15946274 -0.03299118 0.062837765 0.0032576695 -0.01177939 0.022036232
0.6173168 -0.18112002 0.0366262 0.15046552 0.018440083 0.022859326 -0.057119157 0.02543801
0.030170338 -0.35149312 0.011568819 -0.0710595 0.008036575 -0.028795563 -0.23927893 0.025549142
-0.08390289 0.04312355 -0.082836896 0.24943699 -0.016139353 0.0072410703 -0.061728686 -0.09058533
-0.04840912 -0.43284526 0.23764981 -0.047081247 0.1705177 0.060044773 -0.1628993 -0.2580858
-0.07540538 -0.07498843 -0.08691325 0.07595531 0.16166475 -0.025156394 0.07413078 -0.068340704
-0.036577832 -0.042234007 0.07199399 -0.004411003 -0.12890801 0.048918292 -0.044643562 0.02696578
0.044955093 -0.027606014 0.12300645 0.10794003 -0.121311754 -0.02215068 0.007971922 -0.022062859
-0.0038608378 0.045367423 -0.08702861 -0.0016017018 0.035725463 -0.04459029 0.0419745 -0.08939054
0.5349654 -0.15193488 -0.046764433 0.07778507 0.21916674 -0.080912724 0.24881558 -0.5430082
0.11353344 0.07869832 0.005800676 0.11001481 0.13461752 0.011756812 0.16113743 0.20080882
0.008368719 -0.10101199 -0.041646447 0.0371915 -0.089392 0.029735992 -0.009200555 0.00021854565
-0.15987685 0.083541535 -0.2738529 -0.28149217 0.05397258 0.033395573 -0.01811045 -0.09301638
-0.11518806 -0.13169217 -0.14066188 0.23297341 0.0813804 -0.08779882 -0.07554435 -0.0224653
0.004303292 0.004666175 0.021712407 -0.017802194 -0.09725661 -0.016340218 0.09447673 0.025969926
0.11634832 0.029232893 0.019683668 -0.13275437 -0.034238648 0.06156067 -0.019678319 -0.009604493
0.06283089 0.08573264 0.07849606 -0.15782517 0.053273343 -0.081762634 -0.10177171 0.11241251
-0.060544677 0.03566648 -0.055618808 0.08026136 -0.10609085 0.044068083 0.07483436 -0.0038241223
0.08867262 0.10332838 0.047308337 0.08682116 -0.16894132 -0.18084756 -0.0055489517 -0.42737138
0.06525237 0.0040365006 0.08608073 -0.0817581 -0.07031783 -0.072840296 0.045311976 -0.0073327185
-0.2022759 -0.10240586 0.035508275 -0.11607449 0.005542533 0.08632987 -0.06269222 -0.028099658
-0.024609396 -0.09992765 0.049470834 0.35025704 0.0005486529 -0.019078512 -0.01938522 0.03496679
-0.09443322 -0.3158725 0.17538074 0.0030532258 -0.08451644 0.064795546 0.11303944 0.031596836
0.114129074 0.06404349 0.03659604 0.0031507593 0.24777806 0.06525736 -0.22419086 -0.17431022
0.099380076 0.15372333 -0.08621128 0.065363534 -0.026745202 0.020514544 -0.053789947 0.008439722
0.039319303 -0.10786605 0.1304694 0.0698216 0.04667219 0.052115817 0.03419983 -0.086159915
-0.055004533 0.044935282 0.06743246 0.06309523 -0.17100924 0.025377182 0.32500196 0.004492231
0.1799832 0.021306867 -0.11135298 -0.05271309 -0.04583621 0.021174232 -0.003922777 0.07595101
0.12069983 0.03499373 0.08969936 0.088729635 0.013118533 -0.015912432 0.03304512 0.0012182517
00000000: 1b9a 1c3d 1f6d 173d 0268 29bc dd81 1b3d
00000010: a30c b63d b212 aabc 96b9 90bd 6887 d0bd
00000020: 4cbf 573c e351 fbbd f134 85bd afee 3e3d
00000030: e74d 093e a1dd bb3d 3888 67bd fdf6 f63c
00000040: d2c1 11be 3964 2d3e 44eb 2a3d a2e2 61bc
00000050: 7f56 f8bd c510 403d 0077 f5bc ff40 c1bd
00000060: 6bab 963d c132 15be 334a 23be c221 07bd
00000070: 16b1 803d a07e 553b 58fe 40bc 5485 b43c
00000080: 7908 1e3f 8777 39be 5b05 163d a213 1a3e
00000090: a80f 973c 7b43 bb3c c7f5 69bd 6063 d03c
000000a0: c927 f73c e8f6 b3be 258b 3d3c a587 91bd
000000b0: d7ab 033c ace4 ebbc 8905 75be 6f4c d13c
000000c0: 47d5 abbd 52a2 303d 64a6 a9bd 696c 7f3e
000000d0: ad36 84bc 8046 ed3b 38d7 7cbd cd84 b9bd
000000e0: a448 46bd e59d ddbe 795a 733e 44d8 40bd
000000f0: 319c 2e3e 82f1 753d 13cf 26be d223 84be
00000100: 236e 9abd 8993 99bd 93ff b1bd 758e 9b3d
00000110: 728b 253e c814 cebc e1d1 973d 36f6 8bbd
00000120: a3d2 15bd 91fd 2cbd 9671 933d 2d8a 90bb
00000130: 7600 04be 8c5e 483d 2bdc 36bd 57e7 dc3c
00000140: d522 383d 0226 e2bc ceea fb3d aa0f dd3d
00000150: 4c72 f8bd 5875 b5bc aa9c 023c 2bbd b4bc
00000160: 1c06 7dbb 31d3 393d 0e3c b2bd 32f0 d1ba
00000170: dd54 123d 4fa4 36bd 74ed 2b3d 6312 b7bd
00000180: 7ef3 083f d194 1bbe 108c 3fbd c74d 9f3d
00000190: 3f6d 603e 92b5 a5bd 83c9 7e3e 9602 0bbf
000001a0: 3884 e83d 962c a13d 9913 be3b 724f e13d
000001b0: 2dd9 093e a59f 403c 3601 253e d4a0 4d3e
000001c0: f41c 093c 60df cebd 7795 2abd 1d56 183d
000001d0: 2713 b7bd e598 f33c edbd 16bc 6729 6539
000001e0: c2b6 23be d317 ab3d 7336 8cbe be1f 90be
000001f0: 5a12 5d3d ccc9 083d 5e5c 94bc 5f7f bebd
00000200: b8e7 ebbd 50da 06be ab09 10be 9590 6e3e
00000210: c4aa a63d decf b3bd ffb6 9abd 2609 b8bc
00000220: a102 8d3b b7e6 983b 38de b13c e8d5 91bc
00000230: 792e c7bd ecdb 85bc 047d c13d e2be d43c
00000240: 0748 ee3d d279 ef3c a53f a13c c3f0 07be
00000250: d33d 0cbd 0b27 7c3d 6d34 a1bc 2a5c 1dbc
00000260: 7bad 803d 9894 af3d 8bc2 a03d ec9c 21be
00000270: 2635 5a3d 2b73 a7bd b06d d0bd 8838 e63d
00000280: b2fd 77bd 0417 123d 8cd0 63bd 1160 a43d
00000290: 2946 d9bd bc80 343d c242 993d 209e 7abb
000002a0: fe99 b53d d49d d33d 63c6 413d 4bcf b13d
000002b0: f4fe 2cbe 1a30 39be fbd3 b5bb 6cd0 dabe
000002c0: 09a3 853d 9f44 843b 184b b03d ca70 a7bd
000002d0: cb02 90bd 4b2d 95bd 0d99 393d 4d47 f0bb
000002e0: 6a21 4fbe 2aba d1bd 2071 113d 76b8 edbd
000002f0: 239e b53b b7cd b03d c764 80bd 4131 e6bc
00000300: a599 c9bc dea6 ccbd eea1 4a3d e454 b33e
00000310: 79d3 0f3a 8a4a 9cbc c1cd 9ebc 5639 0f3d
00000320: 3466 c1bd 0aba a1be 0297 333e a118 483b
00000330: f516 adbd 87b3 843d 3981 e73d af6b 013d
00000340: 81bc e93d 3c29 833d bbe5 153d f87c 4e3b
00000350: 88b9 7d3e a7a5 853d 4a92 65be 617e 32be
00000360: c887 cb3d a669 1d3e 8a8f b0bd 51dd 853d
00000370: c118 dbbc 1e0e a83c d952 5cbd c246 0a3c
00000380: 470d 213d e0e8 dcbd c599 053e a1fe 8e3d
00000390: 572b 3f3d 6577 553d 1f15 0c3d 9c74 b0bd
000003a0: 6f4c 61bd 0f0e 383d 081a 8a3d 1238 813d
000003b0: 0c1d 2fbe cfe3 cf3c a866 a63e 9133 933b
000003c0: 844d 383e bd8b ae3c 080d e4bd aee9 57bd
000003d0: c0be 3bbd 9575 ad3c a38a 80bb 348c 9b3d
000003e0: 7931 f73d 9655 0f3d 4cb4 b73d e2b7 b53d
000003f0: 1eef 563c ca5a 82bc 525a 073d bead 9f3a

bias f4 [256]
0.010709486 0.012338824 0.06983864 -0.013101885 -0.04100075 -0.09976252 -0.052780703 0.05485943
0.13776226 -0.11398155 0.021624777 -0.0141119845 0.081984885 -0.07577004 -0.027554633 -0.030162267
-0.0077669006 -0.04332972 0.07217879 -0.072228216 0.024219442 -0.06074645 0.07368066 0.20997396
-0.14123344 0.13436489 0.04583439 -0.07770632 -0.10401965 -0.12426429 0.12518944 0.12559123
-0.043835413 0.016629148 0.050852526 -0.0131215155 -0.113461725 0.0015021852 -0.033151206 -0.14816631
-0.05010317 0.053374574 0.045873977 -0.10410303 -0.050042614 0.03137481 0.09774165 0.16278249
-0.006504782 0.07764896 -0.04356193 0.028223004 -0.13828628 0.10368095 0.118053846 -0.027105495
-0.04987224 0.04207432 0.19469674 0.0049166973 -0.010624532 0.047408827 -0.1263016 0.017307607
0.008533493 0.039778437 0.005204732 -0.04977878 -0.07629849 -0.22749113 -0.049512535 -0.021991767
-0.08130949 0.0816034 0.039623156 0.04317399 0.014958077 0.044457506 0.04998213 -0.047772095
-0.15790482 0.030245444 -0.0041599777 -0.03553601 -0.10576713 0.09002553 0.07842028 0.038281076
0.17501925 -0.063464865 0.066366315 -0.01189056 0.030718403 0.10247952 0.079614125 0.0458072
-0.1545036 0.2330991 -0.1499932 0.0056642354 0.04629611 -0.1491504 -0.12166011 -0.015344822
-0.07157775 -0.04834448 -0.08373857 0.12020421 0.13590303 0.03501059 -0.09384698 0.0853532
-0.013380402 0.007485695 -0.05432684 0.018503742 -0.09167654 -0.121204466 -0.033172444 -0.06904801
-0.024263937 0.16245973 0.06653753 -0.014801 -0.014155681 0.012848073 -0.02930336 -0.00249388
-0.07682204 0.02547955 0.043198373 0.07585293 -0.09648309 -0.0033403584 0.09350827 0.087884195
-0.11456517 -0.013999097 -0.0550741 -0.08837727 0.112625316 -0.0014428414 -0.032543316 -0.11901618
0.034825593 0.015281669 -0.055477746 0.1866455 0.039737254 0.14608511 -0.030395413 0.058294717
0.023188734 0.020615254 -0.033385046 0.009546238 0.09127658 0.010908417 -0.11493927 -0.09848302
0.02103083 -0.019042514 0.010284227 -0.0026069651 0.07699244 -0.15811336 0.06656198 -0.05396954
-0.006827418 -0.042799197 -0.0054020435 0.04450845 -0.022768945 -0.031615637 0.036089666 0.105269924
0.05547835 -0.07741215 -0.09218076 -0.117549315 0.053232923 0.020618254 0.17070836 -0.029292092
0.03712759 -0.08356782 0.16299391 -0.034467474 -0.04834478 -0.066144325 -0.057975907 -0.004021331
-0.022666564 0.12520142 -0.08168185 0.097465925 0.02498229 -0.04602039 0.017732255 0.037346035
0.05228168 -0.07561347 0.0883428 -0.044041682 0.014174888 -0.042836554 0.033869367 0.050673172
0.16448735 0.019303175 -0.052920103 -0.07775508 -0.03189105 0.111254744 -0.090368964 0.09834395
0.025323048 0.1645551 0.023580283 -0.03726012 0.04264668 -0.0062882677 0.06929911 0.1291232
0.11038312 -0.00015794093 0.02600841 -0.014464432 0.001700669 -0.0014986752 -0.012955517 -0.14862876
-0.048480567 0.108593546 -0.04091566 0.08841736 -0.037360497 0.0777897 -0.14371984 -0.016288543
-0.03338013 0.023638608 -0.0256583 -0.15401937 0.07981668 0.002911805 0.005197189 0.04483976
-0.08775247 0.057030123 0.0016769554 0.002509135 -0.11580634 -0.015155918 0.05162393 0.102573514
00000000: d776 2f3c c728 4a3c 9007 8f3d 4aa9 56bc
00000010: 67f0 27bd 4b50 ccbd 9430 58bd 48b4 603d
00000020: 8d11 0d3e 296f e9bd 7226 b13c f435 67bc
00000030: b1e7 a73d 532d 9bbd 41ba e1bc dc16 f7bc
00000040: 7c81 febb 817a 31bd 79d2 933d 63ec 93bd
00000050: da67 c63c 45d1 78bd e3e5 963d 6a03 573e
00000060: 809f 10be f396 093e d7bc 3b3d 7e24 9fbd
00000070: 4108 d5bd 477e febd a931 003e fd9a 003e
00000080: c38c 33bd da39 883c bd4a 503d a0fb 56bc
00000090: 9f5e e8bd f9e4 c43a 8fc9 07bd e9b8 17be
000000a0: fb38 4dbd 4c9f 5a3d 5ae6 3b3d f833 d5bd
000000b0: 7cf9 4cbd df82 003d c62c c83d 74b0 263e
000000c0: 1126 d5bb 6b06 9f3d ff6d 32bd ee33 e73c
000000d0: eb9a 0dbe ae56 d43d 37c6 f13d 580c debc
000000e0: d546 4cbd 1f56 2c3d 955e 473e 3f1c a13b
000000f0: 8412 2ebc c22f 423d 3555 01be afc8 8d3c
00000100: 10d0 0b3c b7ee 223d 758c aa3b d6e4 4bbd
00000110: 6242 9cbd 6ff3 68be a8cd 4abd 1428 b4bc
00000120: 9785 a6bd af1f a73d e44b 223d 36d7 303d
00000130: b912 753c 1319 363d 10ba 4c3d acac 43bd
00000140: cdb1 21be 4bc5 f73c 6c50 88bb 358e 11bd
00000150: 709c d8bd 4e5f b83d d09a a03d 9ecc 1c3d
00000160: 3f38 333e def9 81bd 10eb 873d a0d0 42bc
00000170: 29a5 fb3c c8e0 d13d bb0c a33d 55a0 3b3d
00000180: 3136 1ebe 88b1 6e3e d197 19be 0d9b b93b
00000190: fda0 3d3d e2ba 18be f028 f9bd d968 7bbc
000001a0: 5b97 92bd dd04 46bd 217f abbd a02d f63d
000001b0: 2a2a 0b3e 4467 0f3d d832 c0bd a9cd ae3d
000001c0: 7939 5bbc 904a f53b d285 5ebd 2995 973c
000001d0: e9c0 bbbd 0c3a f8bd d4df 07bd 0b69 8dbd
000001e0: 2ac5 c6bc d85b 263e d444 883d e57f 72bc
000001f0: 3bed 67bc b980 523c 9a0d f0bc 5d70 23bb
00000200: e054 9dbd 7dba d03c c7f0 303d c858 9b3d
00000210: ed98 c5bd eae9 5abb 4481 bf3d a1fc b33d
00000220: 25a1 eabd 785c 65bc 6195 61bd 24ff b4bd
00000230: 1aa8 e63d b91d bdba 244c 05bd c1be f3bd
00000240: 48a5 0e3d f75f 7a3c a23c 63bd ff1f 3f3e
00000250: 88c3 223d 5697 153e cdff f8bc 71c6 6e3d
00000260: 4df6 bd3c 52e1 a83c c2be 08bd d367 1c3c
00000270: 37ef ba3d 38b9 323c 4865 ebbd 77b1 c9bd
00000280: d948 ac3c 0cff 9bbc 2d7f 283c 9ed9 2abb
00000290: 36ae 9d3d 78e8 21be a651 883d 2a0f 5dbd
000002a0: 89b8 dfbb 364e 2fbd a003 b1bb 7e4e 363d
000002b0: f085 babc 667f 01bd c2d2 133d c297 d73d
000002c0: 443d 633d 438a 9ebd 44c9 bcbd b2bd f0bd
000002d0: c40a 5a3d 9de7 a83c 2cce 2e3e f8f5 efbc
000002e0: 1a13 183d 9b25 abbd e0e7 263e c42d 0dbd
000002f0: 2d05 46bd ad76 87bd 2578 6dbd 5fc5 83bb
00000300: 3baf b9bc cd34 003e d048 a7bd 379c c73d
00000310: a9a7 cc3c e07f 3cbd 3c43 913c 28f8 183d
00000320: 5125 563d 3cdb 9abd 12ed b43d 0d65 34bd
00000330: ca3d 683c 6275 2fbd 9bba 0a3d ac8e 4f3d
00000340: 5f6f 283e b121 9e3c c0c2 58bd 0e3e 9fbd
00000350: 31a0 02bd 87d9 e33d 5d13 b9bd 8e68 c93d
00000360: 4872 cf3c 2281 283e 702b c13c 119e 18bd
00000370: 49ae 2e3d d00d cebb b1ec 8d3d df38 043e
00000380: 8c10 e23d f29c 25b9 970f d53c 3afc 6cbc
00000390: fbe8 de3a 326f c4ba 6043 54bc 2332 18be
000003a0: 8f93 46bd 4b66 de3d 2e97 27bd 2914 b53d
000003b0: 5207 19bd 3550 9f3d 4b2b 13be 8d6f 85bc
000003c0: 9ab9 08bd c1a5 c13c 5b31 d2bc 41b7 1dbe
000003d0: ed76 a33d fbd3 3e3b 2e4d aa3b e5a9 373d
000003e0: 91b7 b3bd 6b98 693d 49cd db3a 4d70 243b
000003f0: e02b edbd 8750 78bc 9d73 533d 1012 d23d

weight f4 [256, 256]
0.014793311 -0.025932364 7.459799e-05 0.03255698 0.020703748 -0.03872802 0.019331913 0.011793408
-0.043169487 -0.012696954 -0.043153774 0.0078175 0.06347646 -0.01794952 0.013516479 0.036648113
-0.0064219614 0.013300323 -0.07330675 -0.057608373 0.017441344 0.04134318 0.0073013795 -0.05073487
-0.0088936435 -2.758157e-05 -0.01440655 0.038477976 0.013738139 0.019495495 -0.02369817 -0.044905555
0.05927925 -0.030970568 -0.017598331 0.005193956 0.037326876 -0.013472347 -0.008008098 0.036785446
-0.03454894 -0.04042412 0.06928937 -0.03462534 0.05672771 -0.008201886 0.014648992 0.08204107
0.111021 0.04396063 -0.0027346248 -0.011404548 0.007690684 0.008540526 0.012319078 0.083621
0.010396481 -0.03819587 -0.048237573 -0.027495684 0.040049862 -0.04279037 0.021548357 -0.024503348
0.04185909 0.015513079 -0.03801557 0.06534728 0.030585626 -0.009201651 0.018184064 0.022063484
0.0062261266 -0.005094339 0.02578854 0.077985644 -0.0028125492 0.05779878 0.02710049 -0.004773084
-0.0049959063 0.021829054 0.024700677 -0.02350909 0.017604282 0.01592816 -0.02254609 -0.018513396
0.034251124 -0.019014183 0.007480538 -0.0417328 0.012291771 -0.02449465 0.03930505 0.006590159
-0.033959188 -0.025015496 -0.028224722 0.016854959 -0.018014703 -0.016611185 0.017538939 -0.018475067
0.0037317653 0.015168922 -0.05809137 -0.0473052 0.022937272 -0.051784333 -0.070055336 0.001299123
0.12788403 0.0067376383 0.01954949 0.03391664 0.03899301 -0.01086471 0.05188556 0.029348075
-0.06011829 -0.0039995825 -0.008317953 0.034917187 -0.017417 -0.03466395 0.0108911395 0.037866585
-0.0051113092 0.019084109 -0.011260604 0.093912534 -0.0004901238 0.038500845 -0.018199362 0.023398867
-0.03050269 0.04662737 -0.01562743 0.016652862 -0.03750683 0.04125 -0.004701993 0.028272795
0.028281925 -0.030119987 -0.06113066 -0.007699522 -0.06347579 0.016375564 -0.034228556 -0.03427464
-0.03919654 -0.054006368 0.04300027 -0.041582774 -0.011842131 0.020546256 -0.0006387975 0.0024192452
-0.01580263 0.046920232 -0.016746296 -0.036709182 0.02830516 0.01849604 0.011690298 -0.019146658
-0.041310884 -0.027662167 0.060334448 0.00075936166 -0.02326555 0.024842132 0.060012776 0.052947465
0.0108737275 -0.012530466 0.0029908814 0.012934788 0.009592243 -0.027615335 0.03258069 0.010401659
0.03208858 0.019752266 0.017009232 -0.015695093 -0.0019291353 -0.017122222 0.023100074 -0.0022312792
-0.00020975847 0.015717957 -0.038388558 -0.010679879 -0.0421975 0.019963408 0.03802469 -0.0040369797
-0.061184466 -0.012528821 0.026622726 0.0021430065 0.010753491 0.013704769 -0.035754956 0.029807717
-0.03249753 -0.009972294 0.0031747841 -0.0018231346 -0.009451632 0.017394438 0.0048572365 -0.04102897
0.019676825 0.01883272 0.0067656026 -0.09129975 -0.009210797 0.045960914 0.026762353 -0.008143726
0.036494587 0.0355786 0.05793222 0.03886019 0.050190292 0.03449555 -0.0042456565 -0.032839786
-0.04146663 0.043638036 -0.0224234 -0.017353604 -0.013111778 -0.016468806 -0.05720184 -0.016790798
0.021263544 -0.020127356 -0.0069272257 0.05755514 -0.0034381659 -0.009273595 0.023243157 -0.049531344
0.02371059 -0.010537719 0.042030837 0.014033249 0.01876466 -0.020846296 -0.007319811 -0.0072649666
00000000: a55f 723c 1c70 d4bc 7e71 9c38 785a 053d
00000010: e89a a93c 46a1 1ebd f65d 9e3c 2339 413c
00000020: 7dd2 30bd e306 50bc 03c2 30bd f914 003c
00000030: f2ff 813d df0a 93bc 3974 5d3c 551c 163d
00000040: 516f d2bb 99e9 593c d921 96bd c2f6 6bbd
00000050: 26e1 8e3c 7757 293d 6940 ef3b 5ecf 4fbd
00000060: a5b6 11bc f85e e7b7 7309 6cbc 159b 1d3d
00000070: ee15 613c 04b5 9f3c aa22 c2bc e3ee 37bd
00000080: cdce 723d fdb5 fdbc 602a 90bc 1032 aa3b
00000090: 11e4 183d 1ebb 5cbc 6634 03bc 56ac 163d
000000a0: 3083 0dbd c393 25bd 96e7 8d3d 4dd3 0dbd
000000b0: 515b 683d 3461 06bc 5302 703c 2605 a83d
000000c0: fa5e e33d 1010 343d 6437 33bb 24da 3abc
000000d0: 2202 fc3b 90ed 0b3c f5d5 493c 7d41 ab3d
000000e0: 0056 2a3c 4673 1cbd c394 45bd a13e e1bc
000000f0: 530b 243d f444 2fbd 2e86 b03c 3fbb c8bc
00000100: 7074 2b3d 922a 7e3c 37b6 1bbd cbd4 853d
00000110: b58e fa3c 86c2 16bc bff6 943c 7bbe b43c
00000120: 8904 cc3b 6aee a6bb 7d42 d33c f0b6 9f3d
00000130: bf52 38bb 6abe 6c3d d901 de3c 8867 9cbb
00000140: b3b4 a3bb d8d2 b23c 1359 ca3c 2396 c0bc
00000150: db36 903c c67b 823c 94b2 b8bc 68a9 97bc
00000160: e84a 0c3d a2c3 9bbc 4d1f f53b 03f0 2abd
00000170: 6d63 493c 01a9 c8bc 55fe 203d 43f2 d73b
00000180: ca18 0bbd 4ced ccbc 8837 e7bc 6913 8a3c
00000190: 9293 93bc 2e14 88bc d2ad 8f3c 0659 97bc
000001a0: a290 743b 1287 783c 37f1 6dbd 19c3 41bd
000001b0: f2e6 bb3c cf1b 54bd 2c79 8fbd 5647 aa3a
000001c0: 08f4 023e 68c7 dc3b 4126 a03c 2dec 0a3d
000001d0: 22b7 1f3d e601 32bc f485 543d 606b f03c
000001e0: 993e 76bd ee0e 83bb 0648 08bc 5305 0f3d
000001f0: 19ae 8ebc c9fb 0dbd c070 323c fe19 1b3d
00000200: c57c a7bb 4756 9c3c 657e 38bc 3755 c03d
00000210: a77b 00ba 10b3 1d3d d416 95bc fbae bf3c
00000220: c7e0 f9bc 57fc 3e3d 1905 80bc 956b 883c
00000230: c3a0 19bd c3f5 283d 2d13 9abb 599c e73c
00000240: 7faf e73c 31be f6bc 2564 7abd 464c fcbb
00000250: 98ff 81bd 0c26 863c 3e33 0cbd 9163 0cbd
00000260: 8d8c 20bd c835 5dbd 0d21 303d b352 2abd
00000270: 7f05 42bc 9f50 a83c f974 27ba 338c 1e3b
00000280: 8474 81bc 6e2f 403d 872f 89bc 5e5c 16bd
00000290: 39e0 e73c 0285 973c aa88 3f3c 74d9 9cbc
000002a0: 9a35 29bd c59b e2bc 4121 773d e60f 473a
000002b0: 6597 bebc ba81 cb3c f5cf 753d 71df 583d
000002c0: b827 323c 954c 4dbc aa02 443b 6fec 533c
000002d0: c828 1d3c 8e39 e2bc 5473 053d b86b 2a3c
000002e0: 516f 033d 81cf a13c f256 8b3c ff92 80bc
000002f0: 0adb fcba e743 8cbc 5e3c bd3c a73a 12bb
00000300: 9cf2 5bb9 f2c2 803c 523d 1dbd a9fa 2ebc
00000310: 49d7 2cbd 4d8a a33c c7bf 1b3d a448 84bb
00000320: 909c 7abd af45 4dbc e717 da3c af71 0c3b
00000330: 692f 303c f889 603c ca73 12bd 502f f43c
00000340: 211c 05bd d562 23bc 0a10 503b 3ff6 eeba
00000350: 05db 1abc c87e 8e3c 7429 9f3b fe0d 28bd
00000360: 4b31 a13c 1447 9a3c fdb1 dd3b 5dfb babd
00000370: e2e8 16bc 8341 3c3d b93c db3c 436d 05bc
00000380: 597b 153d deba 113d 564a 6d3d dd2b 1f3d
00000390: 5694 4d3d 354b 0d3d 261f 8bbb 0383 06bd
000003a0: ead8 29bd ccbd 323d 47b1 b7bc 2529 8ebc
000003b0: c8d2 56bc 97e9 86bc 7a4c 6abd db8c 89bc
000003c0: e230 ae3c 20e2 a4bc c8fd e2bb f0be 6b3d
000003d0: da52 61bb 47f0 17bc 6f68 be3c 61e1 4abd
000003e0: b63c c23c 66a6 2cbc 8728 2c3d b6eb 653c
000003f0: 58b8 993c dac5 aabc 06db efbb f50e eebb

bias f4 [256]
-0.016822679 -0.0071448 -0.030537892 0.026625425 0.048245214 0.03690435 -0.024555717 0.0032242066
-0.0021823167 0.02328992 -0.0069861636 0.0075482465 0.03601452 -0.014333864 0.05247301 0.02487522
-0.0409059 -0.0065635946 0.006319538 0.017752573 0.01567016 -0.046479773 0.0011187863 -0.00810708
-0.0048286025 0.019662566 -0.012636944 0.0075566666 -0.006272499 0.03875711 -0.00046237436 0.004825324
-0.011728044 -0.026666466 -1.248371e-05 0.00823394 -0.002727312 -0.0063337837 0.0472605 0.017563414
0.006204215 0.008419202 0.011599731 -0.008677985 -0.0076544588 -0.007053138 0.009108349 0.0049750945
0.028114928 -0.016800452 0.0018542538 -0.031144897 -0.0066597634 0.0142931575 -0.016603177 0.010899988
0.010321782 -0.020725079 -0.039183367 0.0049807527 0.014891248 -0.016359733 0.010010122 -0.023296705
0.006631973 0.013102011 0.015211662 -0.016369019 -0.016261669 0.05444559 -0.022576818 -0.023906378
-0.032453503 -0.0066014514 -0.03567316 0.045500774 -0.04655348 0.06294083 -0.04891433 -0.029924456
-0.010812115 -0.008230051 0.03610265 0.018530644 0.03292759 -0.014456119 -0.014952274 -0.031486783
-0.008365502 0.021771125 -0.021177115 0.01460545 0.01899071 0.029811088 0.0039997473 0.0031327207
0.042623695 0.020714942 -0.0027568098 -0.013919269 0.002755019 -0.028351683 -0.015956465 0.011978577
0.05191984 -0.00014273557 -0.0024795332 0.011970851 -0.009651945 -0.015271329 0.026377503 0.03279374
0.025579676 -0.05763195 -0.022654554 0.0054053087 -0.003370577 -0.0118238395 -0.010995056 -0.059113916
0.008159939 -0.0017404617 0.029116167 -0.010945476 0.03547566 0.0014446035 0.017879767 0.037182253
0.024446592 -0.01676261 -0.022656145 0.05879708 0.05280954 0.025132593 0.008964214 0.0066452813
-0.055072878 0.0051279794 -0.0022385304 0.005070366 -0.008409239 -0.0019643873 0.032703776 0.023999553
-6.899598e-06 0.026312249 -0.022758354 -0.02304636 -0.009681553 0.0034275854 0.021583138 -0.005208148
0.020192133 0.020426866 0.047283646 0.02758494 0.014541496 -0.029286534 -0.03074414 0.004522861
0.012740142 0.02316499 0.0024971433 -0.004726583 -0.028836356 -0.013445904 0.009582685 -0.010281329
0.010885804 -0.0062880246 0.022883328 -0.0050157886 -0.0040067034 -0.0044695586 -0.051513903 0.022811146
0.01153836 -0.020958576 -0.017985724 1.4134093e-05 -0.04786741 -0.011443658 0.011226033 -0.01900783
-0.022597866 -0.017549803 0.04177741 -0.0074345833 0.012776829 -0.0022205624 -0.028271688 0.012299649
-0.033729892 0.008475306 0.002656393 0.0091355955 0.00037056755 0.012219341 0.0026595409 -0.01894081
-0.028886285 -0.044147026 -0.019848475 0.02487371 -0.01935804 -0.056237638 -0.0031340828 -0.013335319
0.016214525 -0.023890438 -0.0036048987 -0.013438552 0.022815187 -0.031161008 -0.009584714 0.03357814
-0.032960363 -0.01872539 0.019955995 0.00524667 -0.03146475 0.03917672 -0.0054190354 -0.034458842
-0.0073556667 -0.015590446 -0.02267774 0.0025812949 -0.011342464 0.041783325 0.053957142 0.00092117867
-0.043411292 0.0049495543 0.061624993 0.011784723 0.03110723 0.000107104235 -0.017193409 -0.016700335
-0.051581964 -0.0008943907 0.009414118 -0.010125024 -0.0075349202 0.021199096 -0.030476255 -0.0117620835
0.031403046 -0.008000793 0.030464767 0.016137682 0.022069465 -0.005550937 0.0008549886 0.013585174
00000000: b7cf 89bc ed1e eabb 9a2a fabc 901d da3c
00000010: c69c 453d 0429 173d 1229 c9bc 364d 533b
00000020: 3305 0fbb 81ca be3c 30ec e4bb 4857 f73b
00000030: f683 133d 95d8 6abc f0ed 563d 1ec7 cb3c
00000040: f28c 27bd 6c13 d7bb 2114 cf3b d86d 913c
00000050: b55e 803c 9361 3ebd 3da4 923a 8fd3 04bc
00000060: 4139 9ebb 6413 a13c 2f0b 4fbc ea9d f73b
00000070: 8989 cdbb c6bf 1e3d d66a f2b9 c01d 9e3b
00000080: fb26 40bc a273 dabc 2071 51b7 a6e7 063c
00000090: b4bc 32bb a18b cfbb 3a94 413d 26e1 8f3c
000000a0: ba4c cb3b b1f0 093c cc0c 3e3c 1b2e 0ebc
000000b0: 41d2 fabb 031e e7bb 2f3b 153c 1e06 a33b
000000c0: 4751 e63c 1aa1 89bc 6f0a f33a 9523 ffbc
000000d0: 253a dabb d92d 6a3c 6303 88bc dd95 323c
000000e0: b11c 293c a4c7 a9bc bd7e 20bd 9535 a33b
000000f0: 6cfa 733c d904 86bc 7f01 243c bbd8 bebc
00000100: 0651 d93b d1a9 563c 563a 793c 5218 86bc
00000110: 3137 85bc 5702 5f3d 05f3 b8bc 4fd7 c3bc
00000120: f7ed 04bd fd50 d8bb 051e 12bd 055f 3a3d
00000130: ddae 3ebd 1fe7 803d 645a 48bd 2224 f5bc
00000140: 4c25 31bc 56d7 06bc 5fe0 133d 94cd 973c
00000150: 15df 063d 5cd9 6cbc 62fa 74bc 49f8 00bd
00000160: 750f 09bc 5c59 b23c a17b adbc b34b 6f3c
00000170: 6892 9b3c 6236 f43c 5010 833b 554e 4d3b
00000180: 2f96 2e3d 62b2 a93c 98ab 34bb a50d 64bc
00000190: 8d8d 343b ca41 e8bc 22b7 82bc cb41 443c
000001a0: e6a9 543d 4aab 15b9 aa7f 22bb 6321 443c
000001b0: 3123 1ebc 9934 7abc a215 d83c bb52 063d
000001c0: 788c d13c 7b0f 6cbd 0b96 b9bc 041f b13b
000001d0: e6e4 5cbb c7b8 41bc 9b24 34bc 6f21 72bd
000001e0: 44b1 053c 3420 e4ba 0785 ee3c a754 33bc
000001f0: ed4e 113d da58 bd3a 9778 923c 6b4c 183d
00000200: 3844 c83c be51 89bc 6199 b9bc 35d5 703d
00000210: d14e 583d dee2 cd3c a3de 123c a9c0 d93b
00000220: 1994 61bd 9c08 a83b 4fb4 12bb 5025 a63b
00000230: e8c6 09bc f3bc 00bb 65f4 053d b69a c43c
00000240: 1883 e7b6 c98c d73c ba6f babc b8cb bcbc
00000250: 609f 1ebc 57a1 603b 1fcf b03c 1da9 aabb
00000260: f969 a53c 3e56 a73c 7fac 413d d0f9 e13c
00000270: 743f 6e3c 50ea efbc 22db fbbc 8234 943b
00000280: 07bc 503c 81c4 bd3c 1da7 233b 74e1 9abb
00000290: 393a ecbc 354c 5cbc b200 1d3c 0573 28bc
000002a0: 5f5a 323c c60b cebb d175 bb3c 7c5b a4bb
000002b0: aa4a 83bb 6075 92bb 3e00 53bd 71de ba3c
000002c0: 640b 3d3c 52b1 abbc cc56 93bc 7821 6d37
000002d0: 9e10 44bd 2e7e 3bbc 65ed 373c 4fb6 9bbc
000002e0: 291f b9bc 9bc4 8fbc ca1e 2b3d ce9d f3bb
000002f0: e855 513c db86 11bb 079a e7bc 7884 493c
00000300: 5b28 0abd 03dc 0a3c e116 2e3b 77ad 153c
00000310: bc48 c239 a133 483c b14b 2e3b c229 9bbc
00000320: eea2 ecbc 83d3 34bd 4599 a2bc f3c3 cb3c
00000330: c194 9ebc 7059 66bd 2f65 4dbb 627c 5abc
00000340: 53d4 843c e1b5 c3bc 2a40 6cbb 5f2d 5cbc
00000350: eae6 ba3c 5f45 ffbc 3409 1dbc 3b89 093d
00000360: 7201 07bd fd65 99bc c17a a33c 42ec ab3b
00000370: 2fe1 00bd c577 203d 2a92 b1bb b724 0dbd
00000380: ce07 f1bb 126f 7fbc abc6 b9bc f12a 293b
00000390: bed5 39bc fe24 2b3d 2a02 5d3d 417b 713a
000003a0: 0ad0 31bd df2f a23b 7d6a 7c3d b614 413c
000003b0: 97d4 fe3c 269d e038 31d9 8cbc 24cf 88bc
000003c0: 9c47 53bd 8b75 6aba ac3d 1a3c 6ee3 25bc
000003d0: 7ee7 f6bb baa9 ad3c 57a9 f9bc c1b5 40bc
000003e0: 7ba0 003d c215 03bc 3f91 f93c 2c33 843c
000003f0: 06cb b43c a2e4 b5bb 5021 603a 5a94 5e3c
