output/2023-09-14-22-52-13/trained_model/tetris_epoch3824_score16600.pt (torch, 842187 bytes, 8 tensors)

weight f4 [32, 1, 4, 4]
0	0xbcaaf47e	-0.020868536
1	0x3ceafb79	0.028684365
2	0xbd39e952	-0.045388527
3	0x3cebee3a	0.028800119
4	0xbc3208ad	-0.010866326
5	0x3d7ade91	0.061247412
6	0xbb0ec53e	-0.0021785046
7	0x3d969cc5	0.0735412
8	0xbe66aad8	-0.22526109
9	0x3df4f33e	0.11960457
10	0x3e407821	0.18795826
11	0x3c9244f9	0.017855154
12	0x3d67a74e	0.05655604
13	0x3e225452	0.15852478
14	0x3e3ead25	0.18620737
15	0xbd28d2d0	-0.04121667
16	0x3ed19baf	0.4093909
17	0xbd88e6d2	-0.066846505
18	0xbecbee04	-0.3983003
19	0xbe966672	-0.29375035
20	0xbf14ada4	-0.58077455
21	0x3d0d0b37	0.034434523
22	0xbde7a53b	-0.11310812
23	0xbe4269eb	-0.18985717
24	0x3d9f3973	0.077746294
25	0xbe5202b3	-0.20508842
26	0x3da4c5e3	0.080455564
27	0xbeb3006e	-0.34961265
28	0xbe839b87	-0.25704595
29	0x3c926427	0.017870022
30	0x3d79239f	0.060824987
31	0xbf30f6f3	-0.69126815
32	0xbcd0636f	-0.025438039
33	0x3d912e3b	0.07088896
34	0xbf57c75f	-0.8428859
35	0xbe52b901	-0.20578386
36	0x3cf5d61a	0.030009318
37	0xbe835c42	-0.25656325
38	0x3e5a59ef	0.2132337
39	0xbe9aa35d	-0.3020276
40	0x3d7f0ff5	0.062271077
41	0x3e8b1fb5	0.27172628
42	0x3b9a39eb	0.0047066114
43	0xbb95cd9b	-0.004571629
44	0xbe04ca20	-0.1296773
45	0xbe042783	-0.12905698
46	0xbe1393be	-0.14411828
47	0xbdcb0102	-0.099123016
48	0xbec03bb6	-0.37545556
49	0xbed409bc	-0.41413677
50	0xbd58fc65	-0.052975077
51	0xbd488b2e	-0.048960857
52	0x3e835514	0.25650847
53	0xbe35f804	-0.17770392
54	0x3e92032c	0.28518045
55	0x3dc2bd71	0.09508789
56	0xbeafc480	-0.34329605
57	0x3c559c79	0.013037794
58	0xbf1e99da	-0.6195351
59	0x3db7f23f	0.08981752
60	0xbe36bbf6	-0.17845139
61	0xbf23f47d	-0.64044935
62	0xbed07664	-0.40715325
63	0x3d50167f	0.050802704
64	0xbcef7172	-0.0292289
65	0xbf44a80d	-0.76818925
66	0xbd91617c	-0.07098672
67	0xbbf49471	-0.0074639847
68	0x3d65e624	0.056127682
69	0x3d41703e	0.047226183
70	0x3db8027d	0.089848496
71	0x3d2c68ca	0.042092122
72	0x3e538251	0.2065518
73	0xbf60f9ef	-0.8788137
74	0x3ea3f13f	0.32019994
75	0xbcc0885e	-0.023502525
76	0xbdb608de	-0.0888841
77	0xbd7ae2f2	-0.06125159
78	0x3c0e30e8	0.008678652
79	0xbbbcdd32	-0.005763673
80	0xbccf8859	-0.02533357
81	0xbbc7e652	-0.0061004544
82	0xbe36c90b	-0.1785013
83	0xbdc1c3e1	-0.09461189
84	0x3bcf6c63	0.0063300594
85	0xbc5b3d74	-0.013381351
86	0x3e965a37	0.29365703
87	0x3f46d51e	0.7766894
88	0xbbd0f9c6	-0.0063774316
89	0x3bad5ce1	0.005290613
90	0xbe8edb77	-0.27901813
91	0xbf4d6578	-0.80232954
92	0xbc694211	-0.014236943
93	0xb9dff440	-0.00042715855
94	0xbce5886a	-0.028019149
95	0xba8f9da5	-0.0010957016
96	0xbc5cfe4d	-0.013488364
97	0x3d63a95d	0.05558144
98	0x3e1ed99f	0.15512703
99	0x3e691ae0	0.22764158
100	0x3dc43059	0.09579534
101	0xbcecc961	-0.028904619
102	0x3e4ef3f8	0.20210254
103	0xbecaa2ee	-0.3957743
104	0x3dc816aa	0.09769948
105	0x3cb5bffd	0.022186274
106	0x3c4cf9f4	0.012510765
107	0xbf0d5d6e	-0.5522069
108	0x3b81a0cd	0.0039559365
109	0xbbaf5ac0	-0.0053513944
110	0x3df4c646	0.1195188
111	0xbec6a8f7	-0.38800785
112	0xbd43a78e	-0.047767214
113	0x3d605072	0.05476422
114	0x3e517713	0.2045558
115	0xbdf6c2b8	-0.120488584
116	0x3d9dd3cb	0.07706412
117	0x3e0c04db	0.13673727
118	0xbf36a719	-0.7134872
119	0xbf1f6a80	-0.6227188
120	0x3cf5ee3a	0.030020822
121	0x3d95fb9a	0.0732338
122	0xbf12eaf2	-0.5738975
123	0xbd024608	-0.03180507
124	0xbcff1c7f	-0.031141518
125	0x3e4b6a95	0.19864877
126	0xbe719c0d	-0.23594685
127	0xbe9e6caa	-0.3094228
128	0xbdb2bfb4	-0.08727971
129	0x3d8fe8b0	0.070268035
130	0xbf064a8e	-0.5245751
131	0xbe31fa1a	-0.17380562
132	0x3dca9df6	0.0989341
133	0x3e086a27	0.13321744
134	0x3e5a60c0	0.2132597
135	0xbecec91f	-0.40387818
136	0xbd642373	-0.05569787
137	0x3d816c39	0.0631947
138	0xbe8779ec	-0.26460207
139	0xbf3d82dc	-0.740278
140	0x3dcac71f	0.099012606
141	0xbdab48e0	-0.08363509
142	0xbd4dacc9	-0.05021361
143	0x3db8e154	0.09027353
144	0xbe3ec68b	-0.18630426
145	0xbd593e2f	-0.05303782
146	0x3c2afbd0	0.010436013
147	0x3d92fea5	0.07177476
148	0xbdf419f9	-0.119190164
149	0xbe907712	-0.28215843
150	0xbecd3c32	-0.40084988
151	0xbd164940	-0.03669095
152	0xbd5fa061	-0.05459631
153	0x3ee8c3f7	0.4546201
154	0x3e544523	0.20729499
155	0xbde36b21	-0.111044176
156	0x3d927e33	0.07152977
157	0xbf5fcb28	-0.87419367
158	0x3daed21a	0.085361674
159	0x3ce9baec	0.028531514
160	0xbd2eee01	-0.042707447
161	0xbdf69a2a	-0.12041123
162	0xbe3a390b	-0.18185823
163	0xbe194158	-0.14966333
164	0x3b0deb08	0.0021654982
165	0xbd80dd28	-0.06292182
166	0xbe585cc4	-0.21129137
167	0x3ce11092	0.027473722
168	0xbc9e0edf	-0.0192942
169	0x3df8c48a	0.12146862
170	0x3f17bc6b	0.5927188
171	0xbcb02f94	-0.021507062
172	0xbcb8255f	-0.022478757
173	0xbe0d757f	-0.13814352
174	0xbf408d32	-0.75215447
175	0xbd0e625a	-0.034761764
176	0xbe2fcade	-0.17167231
177	0xbd4ace0a	-0.0495129
178	0xbea859d8	-0.32881045
179	0xbdb4d7fc	-0.08830258
180	0xbde75e14	-0.11297241
181	0xbc61e12f	-0.013786598
182	0x3cb2abdc	0.021810465
183	0x3ea3f151	0.32020047
184	0xbca58159	-0.02020328
185	0xbd651bd5	-0.055934746
186	0x3e1399e0	0.14414167
187	0xbf09b7ac	-0.53795886
188	0x3cc69983	0.024243122
189	0x3d129584	0.03578712
190	0x3d41f682	0.04735423
191	0xbf0491d4	-0.51785016
192	0x3e04adae	0.12956879
193	0xbe4ddf5e	-0.20104739
194	0x3d4958fa	0.04915712
195	0xbcfe7552	-0.031061802
196	0x3ccc28c3	0.02492178
197	0x3f0d7792	0.55260575
198	0x3d405c53	0.046963047
199	0xbd1bd368	-0.03804341
200	0xbdc58681	-0.09644795
201	0xbf131e86	-0.5746845
202	0x3e37711c	0.17914242
203	0xbd32efc3	-0.043685686
204	0x3d489e6b	0.048979204
205	0xbf0219a6	-0.50820386
206	0xbe31baf3	-0.17356472
207	0x38502de0	4.963379e-05
208	0x3cf54dcb	0.029944321
209	0xbd51e021	-0.051239137
210	0xbd2c99f2	-0.042139
211	0x3d8510fd	0.06497381
212	0xbd1a2933	-0.037636947
213	0x3e30a90e	0.17251989
214	0x3e0c20b6	0.13684353
215	0x3c903165	0.017601678
216	0x3cf0f1ee	0.029412236
217	0x3f5c78f9	0.8612209
218	0xbcad3918	-0.021145388
219	0x3d3cee77	0.046125855
220	0x3c1ed26c	0.009693723
221	0xbfafa771	-1.3722974
222	0x3dae5df0	0.08514011
223	0xbd0079a9	-0.031366024
224	0x3cedfaf1	0.029050322
225	0x3ee12e11	0.43980458
226	0x3d336a2e	0.043802433
227	0x3cb6c10f	0.022308854
228	0x3c744fa3	0.014911565
229	0x3f394a1f	0.72378725
230	0x3cb2a10f	0.021805314
231	0x3cc06043	0.023483401
232	0xbc9d828e	-0.019227292
233	0xbfac15bc	-1.3444133
234	0x3c6d2d46	0.014476126
235	0xbcff9ce8	-0.031202748
236	0xbce153ff	-0.027505873
237	0xbd6cb6f5	-0.05779167
238	0xbd81c665	-0.06336669
239	0xb9e653f6	-0.00043931574
240	0xbe55be50	-0.2087338
241	0xbc723272	-0.014782535
242	0x3e21e486	0.15809831
243	0xbdd615df	-0.1045339
244	0xbcc51509	-0.024057882
245	0xbe1ec62e	-0.15505287
246	0xbdd15429	-0.102211304
247	0xbcf48082	-0.029846434
248	0x3e01f659	0.1269163
249	0x3e3afc87	0.18260394
250	0x3da9ed2b	0.08297189
251	0x3e1da94c	0.15396613
252	0xbc446e20	-0.0119891465
253	0x3da97923	0.08275058
254	0xbb38b92f	-0.002818655
255	0x3df2bb37	0.11852115

weight f4 [32, 32, 5, 5]
0	0x3cbab4a9	0.022791224
1	0xbe409cf5	-0.18809874
2	0x3c529e19	0.012855076
3	0x3e7e293a	0.24820414
4	0x3e04a455	0.12953313
5	0x3e0440df	0.12915371
6	0xbe85495a	-0.26032525
7	0xbcad5e75	-0.021163205
8	0xbdcc537e	-0.09976862
9	0xbe9d513b	-0.30726036
10	0xbdc5f4d7	-0.0966584
11	0xbd74590b	-0.05965523
12	0x3bb9ed2d	0.0056740255
13	0xbe0cf5db	-0.13765661
14	0xbd174d88	-0.036939174
15	0xbdf6eec9	-0.120572634
16	0xbf28907f	-0.65845484
17	0xbea9bf31	-0.3315368
18	0x3c718552	0.014741259
19	0xbebbfd55	-0.36716715
20	0x3dbf340b	0.09336098
21	0xbb3e50ff	-0.0029039977
22	0xbdfb96a0	-0.12284589
23	0x3d94bf9a	0.072631076
24	0x3dd523ed	0.10407243
25	0x3e25624a	0.16150776
26	0xbe9f8fee	-0.31164497
27	0x3e004e35	0.12529834
28	0x3f0e2474	0.55524373
29	0x3f080a96	0.5314115
30	0xbe9fff0e	-0.3124928
31	0x3e7c856e	0.24660274
32	0xbe4e2dee	-0.20134708
33	0xbe107ddd	-0.14110513
34	0x3e3fb7ea	0.18722501
35	0x3da3105b	0.07962104
36	0xbe8b2f96	-0.27184743
37	0xbea5811a	-0.3232506
38	0x3e360fff	0.1777954
39	0xbe404abe	-0.18778512
40	0xbd659b55	-0.05605634
41	0x3d6f9aeb	0.05849735
42	0xbdd1a8ea	-0.10237296
43	0xbed127d2	-0.40850693
44	0xbe2e82a9	-0.1704203
45	0xbe4c5ca1	-0.1995721
46	0x3edb5c05	0.42843643
47	0x39da79a0	0.00041670818
48	0x3d52b117	0.051438417
49	0x3eb93997	0.3617675
50	0x3e9521e3	0.29127416
51	0xbe1c14e5	-0.15242346
52	0xbdfd20b5	-0.12359754
53	0x3e4fc5de	0.20290324
54	0xbb615aa0	-0.0034386292
55	0x3f03e307	0.5151829
56	0x3e9ea0ee	0.30982155
57	0xbf344494	-0.7041714
58	0xbee9c355	-0.4565684
59	0xbe2de6f7	-0.16982637
60	0xbd3ecd26	-0.046582364
61	0x3e79eb46	0.24406156
62	0xbd99160c	-0.07474908
63	0xbef666d3	-0.48125324
64	0x3d4d6a0a	0.050149955
65	0x3e49af3f	0.19695757
66	0xbea90f41	-0.3301945
67	0xbd9f374e	-0.077742204
68	0x3eb2156e	0.34781975
69	0xbe6f87af	-0.23391603
70	0xbcb55b5a	-0.022138286
71	0xbea63efc	-0.32469928
72	0x3dce5576	0.10074894
73	0xbeb475f0	-0.3524623
74	0x3ddc76dd	0.10764859
75	0x3d7e4f41	0.0620873
76	0xbdff53c0	-0.12467146
77	0x3f0d0361	0.5508328
78	0xbedda651	-0.43290952
79	0x3c1ea791	0.009683506
80	0xbf1626a8	-0.58652735
81	0x3e56bca6	0.20970401
82	0xbcf85f4e	-0.030318882
83	0xbf1d1597	-0.6136107
84	0xbbe4c7c2	-0.006981821
85	0xbd6a40a8	-0.057190567
86	0xbec7a775	-0.38994947
87	0x3ce46464	0.027879901
88	0x3dc69872	0.096970454
89	0xbf397c00	-0.72454834
90	0xbf929bba	-1.1453774
91	0xbe32f447	-0.17475997
92	0xbecdeb8d	-0.40218773
93	0xbe8f21cc	-0.27955472
94	0x3e06d2e5	0.13166387
95	0xbb4afffa	-0.0030975328
96	0x3e8c1ea0	0.27367115
97	0xbdec3a0c	-0.11534509
98	0x3e489d58	0.19591272
99	0xbe26c464	-0.16285855
100	0x3c02ae67	0.007976151
101	0x3dbbb87a	0.091660455
102	0x3d9fc0e8	0.07800466
103	0x3f369b00	0.7133026
104	0xbf3f9f6a	-0.7485262
105	0xbed688a0	-0.41901112
106	0x3eb1849c	0.34671485
107	0x3e79fa91	0.2441199
108	0xbe929e36	-0.2863633
109	0xbe0ab831	-0.13546826
110	0xbebea4b6	-0.3723504
111	0xbe0ccd9b	-0.13750307
112	0x3ec327de	0.38116354
113	0x3e8dcaa8	0.27693677
114	0x3f4393e2	0.76397526
115	0xbbbfaf7c	-0.005849777
116	0x3d116b4d	0.03550272
117	0xbee995dc	-0.45622146
118	0xbd96acda	-0.073571876
119	0xbf157b96	-0.583917
120	0x3d8b0b1d	0.06789229
121	0x3df65ec3	0.12029793
122	0x3de894fb	0.11356541
123	0xbe283abc	-0.16428655
124	0xbd9e50de	-0.07730268
125	0x3e2245ac	0.1584689
126	0x3e585d0a	0.21129242
127	0xbddb1f90	-0.106993794
128	0xbd6d58f4	-0.05794616
129	0xbe1f6b52	-0.15568283
130	0x3c8aa6c2	0.01692522
131	0xbea75436	-0.32681435
132	0xbd2af2dd	-0.04173552
133	0xbd322e4f	-0.043501195
134	0xbd0a22dd	-0.033724654
135	0xbbd40704	-0.006470563
136	0xbe091743	-0.1338778
137	0x3d49a29a	0.049227335
138	0x3ccfcb7a	0.02536558
139	0x3e3caf70	0.18426299
140	0xbe6376c8	-0.2221328
141	0xbfeb490d	-1.8381668
142	0xbf5730ab	-0.84058636
143	0xbd9bc413	-0.076057576
144	0xbf13911b	-0.5764329
145	0xbd42273f	-0.04740071
146	0xbefb8b03	-0.49129495
147	0x3e48c420	0.19606066
148	0xbec8bbea	-0.39205867
149	0xbf057aeb	-0.5214068
150	0x3e8a9c1d	0.2707223
151	0xbd805865	-0.0626686
152	0xbe028863	-0.1274734
153	0xbe8e1282	-0.27748495
154	0xbf193b17	-0.5985579
155	0x3e2fecad	0.17180128
156	0x3ddcde24	0.107845575
157	0xbedbe961	-0.4295149
158	0xbd06fcbf	-0.03295588
159	0xbf4a2dbd	-0.7897604
160	0x3d237bfb	0.03991316
161	0x3e727a72	0.23679522
162	0xbe2a61b0	-0.16638827
163	0x3e185aa1	0.14878322
164	0x3e2629eb	0.16226928
165	0xbe3ccf80	-0.1843853
166	0xbc565a20	-0.013083011
167	0xbea31950	-0.3185525
168	0xbda8c7e7	-0.08241253
169	0xbd906f3d	-0.07052467
170	0x3d0d666a	0.034521498
171	0x3e071b72	0.13194063
172	0xbc25dcd2	-0.010123448
173	0x3e9dee39	0.30845812
174	0x3db9f69b	0.090802394
175	0x3d63b962	0.055596717
176	0xbf2bae16	-0.6706251
177	0x3efdf110	0.4959798
178	0xbdb892ad	-0.09012351
179	0x3d1f3d90	0.03887707
180	0x3db1f300	0.08688927
181	0xbd2abda1	-0.04168475
182	0xbd2d3f51	-0.04229671
183	0x3e99a60a	0.3000949
184	0xbf4a31b0	-0.7898207
185	0x3c8b6409	0.017015474
186	0xbeccbdbe	-0.39988512
187	0xbea51f98	-0.32250667
188	0x3e3b9610	0.18318963
189	0xbe280401	-0.16407777
190	0x3e0ad795	0.135588
191	0xbea7e157	-0.32789108
192	0xbea37b32	-0.31929928
193	0x3e52b447	0.20576583
194	0x3e182ae6	0.14860114
195	0xbe81715b	-0.25281796
196	0xbe4b88b9	-0.19876374
197	0xbe234433	-0.15943985
198	0x3e876e45	0.26451316
199	0xbd960f43	-0.0732713
200	0x3e005dc9	0.12535776
201	0xbe0e66ca	-0.13906398
202	0x3da68b1a	0.08132
203	0x3ec6a99f	0.38801286
204	0x3e14b6f1	0.14522912
205	0xbf51611b	-0.81788796
206	0x3e16e6ed	0.14736529
207	0xbe3a3d2d	-0.18187399
208	0xbc9e27da	-0.019306112
209	0xbd7d710d	-0.06187539
210	0xbf72f98a	-0.94912016
211	0x3e3fa4e8	0.1871525
212	0x3e4b1480	0.19832039
213	0x3b86766f	0.004103474
214	0xbf0bea94	-0.5465481
215	0xbf0cfb65	-0.550711
216	0xbebb0b8a	-0.3653224
217	0xbe984a2a	-0.29744083
218	0x3dce2c00	0.10066986
219	0xbc066b9c	-0.008204367
220	0xbe53833f	-0.20655535
221	0x3e8bb775	0.27288404
222	0xbd79afd0	-0.060958683
223	0xbe982473	-0.2971531
224	0x3e9530ca	0.29138786
225	0x3ddbbf51	0.1072985
226	0x3e101384	0.14069945
227	0xbebe509d	-0.37170878
228	0xbe134a9a	-0.14383927
229	0x3da260ad	0.07928596
230	0xbe99c3dd	-0.30032244
231	0xbe8f6333	-0.2800537
232	0x3e2d4972	0.16922548
233	0xbe90a1aa	-0.2824834
234	0xbeb2d94b	-0.34931406
235	0xbed9af5f	-0.4251661
236	0x3f115073	0.5676338
237	0xbd99fa6c	-0.07518467
238	0xbd922a50	-0.07136977
239	0xbd039058	-0.03212008
240	0xbe3e45bd	-0.1858129
241	0x3e02127b	0.12702362
242	0xbe8dc782	-0.27691275
243	0x3e0558d8	0.13022172
244	0xbf04f84b	-0.51941365
245	0xbe098372	-0.13429049
246	0x3e62a8c9	0.22134699
247	0x3de48f0a	0.11160095
248	0x3db32ede	0.087491736
249	0x3e559f56	0.20861563
250	0x3f653d2d	0.8954647
251	0xbf04fd67	-0.5194916
252	0x3d95bdb3	0.07311573
253	0x3d675028	0.056472927
254	0x3e2796a4	0.16366059
255	0xbf0b7738	-0.5447879

weight f4 [64, 32, 5, 5]
0	0xbb6c1ea3	-0.0036029003
1	0x3dd76c1b	0.10518666
2	0xbd5ae92e	-0.053445034
3	0x3e70383f	0.23458956
4	0xbe4204cb	-0.18947141
5	0x3e427f8d	0.1899397
6	0x3d151dac	0.03640525
7	0x3e429849	0.19003405
8	0xbe263d73	-0.16234379
9	0x3df088e8	0.11744863
10	0x3d95fd3b	0.073236905
11	0xbe5b3ba9	-0.21409477
12	0xbe281ecd	-0.16418
13	0x3dc022e1	0.093816526
14	0x3f2be633	0.6714813
15	0xbdbd22d0	-0.092351556
16	0x3d3549ac	0.044259712
17	0x3d6a060a	0.057134666
18	0xbe1e20f1	-0.15442254
19	0x3e9df010	0.30847216
20	0xbd623687	-0.055227783
21	0xbef11bf0	-0.47091627
22	0xbe285469	-0.1643845
23	0x3f055120	0.5207691
24	0x3e886ccd	0.26645508
25	0x3e8efaaf	0.2792563
26	0xbee2ccb6	-0.44296807
27	0x3e6b89cc	0.23001784
28	0x3e4009b6	0.18753704
29	0x3cf6d9f7	0.03013323
30	0x3bc0ceb0	0.005884014
31	0x3ecd9777	0.4015462
32	0x3e584202	0.2111893
33	0xbf2b9839	-0.6702915
34	0xbd50b165	-0.050950427
35	0x3e5c2732	0.21499327
36	0x3e62191a	0.22079888
37	0x3f20a9b2	0.62758934
38	0x3dd681e9	0.10473997
39	0xbed17a1c	-0.40913475
40	0x3e8053db	0.25063977
41	0x3ed34b4c	0.41268384
42	0xbf236de7	-0.6383957
43	0x3ed21fb2	0.41039807
44	0x3e1ac219	0.15113105
45	0xbc97b776	-0.018520098
46	0x3f27d139	0.65553623
47	0x3ea9d26b	0.3316835
48	0x3d338917	0.04383191
49	0xbd85819a	-0.0651886
50	0xbe8bd510	-0.2731099
51	0xbe1b9927	-0.15195142
52	0x3ef8bf2e	0.4858336
53	0x3e824a62	0.25447375
54	0xbe90fb9d	-0.28316966
55	0x3d8d0aec	0.06886849
56	0xbe01267e	-0.1261234
57	0xbf1b965f	-0.60776323
58	0xbf82ccb3	-1.0218719
59	0xbf0a4412	-0.5401012
60	0x3dfabf54	0.12243524
61	0x3db06022	0.08612086
62	0xbf2d01b3	-0.6758072
63	0x3dfd88a9	0.123795815
64	0xbeef98ac	-0.46796167
65	0x3e5dd2a6	0.21662387
66	0x3e614f39	0.22002877
67	0xbda7893e	-0.08180474
68	0xbe970d16	-0.2950217
69	0xbe7b3857	-0.2453321
70	0x3ee04e5e	0.4380979
71	0x3dba9217	0.09109896
72	0x3e19e9a2	0.1503053
73	0x3d9bf6d0	0.07615435
74	0xbe1eb811	-0.15499903
75	0xbedc7bcd	-0.43063203
76	0xbef98a1a	-0.48738176
77	0xbdb23d2b	-0.08703073
78	0x3eb0cd5d	0.3453168
79	0xbe86f365	-0.2635757
80	0x3eede029	0.46460083
81	0x3db39fd6	0.08770721
82	0x3ea7590a	0.3268512
83	0x3f39390f	0.7235269
84	0x3e847df5	0.25877348
85	0x3e5f8129	0.21826614
86	0xbd074cb7	-0.033032145
87	0xbf128b90	-0.57244205
88	0xbf16a149	-0.5883985
89	0xbf931d4c	-1.1493316
90	0xbeacab3d	-0.33724394
91	0xbe31ad26	-0.17351207
92	0xbf871789	-1.0554057
93	0x3d68be46	0.056822084
94	0x3ebc60f1	0.3679271
95	0x3c41e7b4	0.0118350275
96	0xbd88dccd	-0.066827394
97	0x3af00f56	0.0018315117
98	0x3f0878dd	0.5330942
99	0x3e01acf7	0.12663637
100	0xbe540824	-0.2070623
101	0x3e8cc59d	0.27494517
102	0x3e9f4b84	0.311123
103	0xbd01decf	-0.031706627
104	0x3dee5e85	0.11639122
105	0xbeeb99f9	-0.4601591
106	0xbe216289	-0.15760244
107	0x3d45943f	0.04823708
108	0xbdbe6646	-0.09296851
109	0x3f2e3950	0.680562
110	0x3e848798	0.258847
111	0xbec9d77c	-0.39422214
112	0xbe62488f	-0.22097991
113	0x3abf11ee	0.0014577487
114	0xbea30bff	-0.3184509
115	0x3c81908c	0.015815996
116	0x3e739d77	0.23790537
117	0xbe306b79	-0.17228498
118	0xbefa3208	-0.48866296
119	0xbf18c31a	-0.596727
120	0xbed7fa9e	-0.42183393
121	0xbe742604	-0.23842627
122	0xbda72357	-0.081610374
123	0x3eb0c906	0.3452837
124	0xbef01341	-0.4688969
125	0xbddae80f	-0.10688793
126	0xbf06a60e	-0.5259713
127	0xbeadcd9a	-0.33945924
128	0x3ee6155c	0.4493817
129	0xbf2eafd2	-0.6823703
130	0x3ee442f7	0.4458234
131	0xbed034d1	-0.40665296
132	0x3e2f594a	0.17123905
133	0xbe9d0d68	-0.3067429
134	0xbe540c85	-0.20707901
135	0xbb9713cb	-0.004610514
136	0x3e51fa5c	0.20505661
137	0x3deef5fb	0.11668011
138	0xbcb54b3d	-0.022130603
139	0xbe517b12	-0.20457104
140	0xbf0d356a	-0.5515963
141	0xbe42dc92	-0.19029453
142	0x3d9cbf41	0.07653666
143	0xbcebd4ab	-0.028787931
144	0xbc927a9e	-0.017880734
145	0xbf0ba9c8	-0.5455594
146	0xbdc40797	-0.0957176
147	0x3e2d2e93	0.16912298
148	0xbd530a01	-0.051523212
149	0x3de46efe	0.111539826
150	0xbcd360f4	-0.025803067
151	0xbee0bbf0	-0.43893385
152	0x3da85ec4	0.082212
153	0x3e018401	0.12648012
154	0xbe5c75b4	-0.21529275
155	0x3d7a4303	0.061099064
156	0xbc6208f8	-0.013796084
157	0x3e126512	0.14296368
158	0xbdb3fa80	-0.087880135
159	0x3d824917	0.06361597
160	0xbd0c5ed4	-0.034270123
161	0x3e853aba	0.26021367
162	0x3e766b95	0.24064477
163	0xbe8b54ab	-0.27213034
164	0xbe3ad49f	-0.18245171
165	0x3cfc068d	0.030764842
166	0xbd9ba870	-0.07600486
167	0xbd4aa908	-0.049477607
168	0xbdfd6168	-0.123720944
169	0xbeae0001	-0.33984378
170	0x3ea5d879	0.32391718
171	0x3e2c67a1	0.16836406
172	0xbd819fcb	-0.06329306
173	0xbda0f94a	-0.07860048
174	0x3d36b54c	0.044606492
175	0xbc54f4e7	-0.012997842
176	0xbebe2ff2	-0.37145954
177	0x3e2cbc40	0.16868687
178	0xbe35bdb2	-0.17748144
179	0x3c3c75a4	0.011502657
180	0x3e4212c9	0.18952478
181	0x3dccb7cd	0.09995995
182	0x3df3ba86	0.11900811
183	0xbdf2ba6b	-0.11851963
184	0xbf11be08	-0.5693059
185	0x3db9946e	0.09061514
186	0xbc575a2e	-0.013144059
187	0xbe9dd018	-0.30822825
188	0x3e3f57bb	0.1868581
189	0x3e92ad54	0.28647864
190	0x3d985f2f	0.0744003
191	0xbe6df6fb	-0.23238747
192	0xbe07ab6e	-0.13248989
193	0xbde2be63	-0.1107147
194	0xbd97eb32	-0.07417907
195	0x3e38f6a9	0.18062843
196	0xbea5b00d	-0.3236088
197	0xbe1911e8	-0.14948237
198	0xbf57fac6	-0.84367025
199	0xbe8de46b	-0.27713332
200	0x3e9db5d2	0.3080278
201	0x3ed0219c	0.40650642
202	0xbe30e404	-0.17274481
203	0xbeb6b24e	-0.3568291
204	0x3de9b64c	0.114117235
205	0x3ec2da34	0.380571
206	0xbf57db7d	-0.8431929
207	0x3e4cfbbd	0.20017906
208	0xbf17e236	-0.59329545
209	0x3ee9a0bb	0.4563044
210	0x3e7d1b92	0.24717548
211	0x3e098270	0.13428664
212	0xbea2124a	-0.31654578
213	0xbdbc74b3	-0.09201946
214	0xbf0d38e5	-0.5516494
215	0x3e6b8621	0.23000385
216	0xbeda64e1	-0.4265509
217	0x3db3ca44	0.087788135
218	0x3ca6bd4e	0.02035394
219	0x3eef1905	0.46698776
220	0x3f19eb91	0.6012507
221	0xbdfcc225	-0.12341718
222	0x3e2417cb	0.16024701
223	0x3e8b50db	0.27210125
224	0x3e87e73d	0.26543608
225	0x3ec8fd88	0.3925593
226	0xbd9ad02e	-0.075592384
227	0xbbe0cb9d	-0.00686021
228	0xbe22d633	-0.15902023
229	0x3f1c21d9	0.6098915
230	0x3e48ad91	0.1959746
231	0xbdb39111	-0.087679036
232	0x3e6870d7	0.22699295
233	0x3c622c16	0.013804456
234	0xbd2f0683	-0.04273082
235	0x3d41413a	0.047181346
236	0xbda8e86d	-0.08247457
237	0xbd5de142	-0.0541699
238	0x3b202414	0.0024435567
239	0x3dab5bd1	0.08367122
240	0x3efe5359	0.49672964
241	0x3e4546b5	0.19265254
242	0xbf0ab9b0	-0.54189587
243	0x3d8cc921	0.068743
244	0x3bd7483b	0.00656989
245	0xbe8dfce8	-0.27732015
246	0x3df86795	0.12129132
247	0x3e9a00f1	0.30078843
248	0x3e6b2e5b	0.22966902
249	0xbdbe6c83	-0.09298041
250	0x3de67160	0.11252093
251	0x3e6d7c51	0.23191954
252	0x3e92621c	0.28590477
253	0xbe34c063	-0.17651515
254	0x3edd3aed	0.4320902
255	0x3eee3e92	0.46532112

weight f4 [256, 256]
0	0x3d402603	0.04691125
1	0x3d0a67fc	0.033790573
2	0x3c7d9ed1	0.015479759
3	0x3d6a4ed0	0.057204068
4	0x3db60ca3	0.08889129
5	0xbcaa12b2	-0.020760868
6	0xbd90b996	-0.07066648
7	0xbdd08768	-0.10182077
8	0x3c57bf4c	0.013168167
9	0xbdfb51e3	-0.12271478
10	0xbd8534f1	-0.065042384
11	0x3d3eeeaf	0.046614345
12	0x3e15dc1d	0.14634748
13	0x3e12dfae	0.1434314
14	0xbd6624d7	-0.056187477
15	0x3c79f2c0	0.01525563
16	0xbe19e725	-0.15029581
17	0x3e30643c	0.17225736
18	0x3dbdffd3	0.0927731
19	0xbb2f7faf	-0.0026778986
20	0xbdf8567f	-0.12125873
21	0x3d4010c5	0.046890993
22	0xbcf57700	-0.02996397
23	0xbdc140ff	-0.09436225
24	0x3d96ab6b	0.07356914
25	0xbe1532c1	-0.14570142
26	0xbe234a33	-0.15946274
27	0xbd0721c2	-0.03299118
28	0x3c847e09	0.01617338
29	0x3ce38040	0.027771115
30	0xbd8399cb	-0.06425818
31	0x3c9cb13e	0.019127484
32	0x3efb786f	0.4911532
33	0x3ca0f196	0.019646447
34	0xbc635402	-0.0138750095
35	0x3ea3c74e	0.31987995
36	0xbd0fd595	-0.035115797
37	0xbc94eb68	-0.018178657
38	0x3c03a6b1	0.008035348
39	0xbc554265	-0.013016318
40	0x3e5010f1	0.20318963
41	0xbe80cf4e	-0.2515816
42	0xbcfce51f	-0.030870972
43	0x3bb44a0f	0.0055019925
44	0x3d404d6f	0.046948846
45	0x3d62b9d7	0.055353012
46	0xbd7cc76a	-0.061713614
47	0x3d49a0e7	0.049225714
48	0xbdc4352a	-0.09580453
49	0x3da3dc80	0.080010414
50	0x3cbe93a6	0.023263764
51	0x3d283981	0.041070465
52	0xbc8436ad	-0.016139353
53	0x3bed4680	0.0072410703
54	0xbd7cd738	-0.061728686
55	0xbdb984cd	-0.09058533
56	0x3c89544b	0.016763827
57	0xbf3368a1	-0.70081526
58	0x3eab0821	0.3340464
59	0xbd40d844	-0.047081247
60	0x3e421b71	0.1895578
61	0x3f0c2e3d	0.54758054
62	0xbdeaba2d	-0.114612915
63	0xbe8eb363	-0.27871236
64	0xbd9a6e23	-0.07540538
65	0xbd999389	-0.07498843
66	0xbdb1ff93	-0.08691325
67	0x3d9b8e75	0.07595531
68	0x3e1bd926	0.15219554
69	0x3cfcebda	0.030874182
70	0x3d0a2ce6	0.033734225
71	0xbd8e352b	-0.06943735
72	0xbd96eca2	-0.07369353
73	0xbd87627c	-0.06610581
74	0x3d937196	0.07199399
75	0xbb908a2d	-0.004411003
76	0xbe2ad14a	-0.166814
77	0x3d9d2948	0.076738894
78	0xbd36dc2b	-0.044643562
79	0x3c1339b1	0.008985923
80	0x3d3822d5	0.044955093
81	0xbce22602	-0.027606014
82	0x3dfbeace	0.12300645
83	0x3ddd0faa	0.10794003
84	0xbe155bc3	-0.14585786
85	0xbc91aa2f	-0.017781345
86	0x3d7b6ae0	0.06138122
87	0x3c3cbb12	0.01151921
88	0xbb7d061c	-0.0038608378
89	0x3d39d331	0.045367423
90	0xbdb23c0e	-0.08702861
91	0xbad1f032	-0.0016017018
92	0x3d1254dd	0.035725463
93	0xbd36a44f	-0.04459029
94	0x3d2bed74	0.0419745
95	0xbdb71263	-0.08939054
96	0x3ed6eb84	0.4197656
97	0x3d8fbe23	0.070186876
98	0xbd33988e	-0.04384666
99	0x3cc47c3e	0.023985025
100	0x3ecadc11	0.39621022
101	0xbdf46af4	-0.11934462
102	0x3e6d327e	0.23163792
103	0xbf0b70c5	-0.5446895
104	0x3de88438	0.11353344
105	0x3da12c96	0.07869832
106	0x3bbe1399	0.005800676
107	0x3de14f72	0.11001481
108	0x3e09d92d	0.13461752
109	0x3c409fa5	0.011756812
110	0x3e250136	0.16113743
111	0x3e4da0d4	0.20080882
112	0xbc13bf67	-0.009017802
113	0xbd830b6a	-0.063986614
114	0xbd807111	-0.06271566
115	0x3db7c1bd	0.089724995
116	0xbdb71327	-0.089392
117	0x3cefac6b	0.02925702
118	0xbc16bded	-0.009200555
119	0x39652967	0.00021854565
120	0xbe03d33a	-0.12873545
121	0x3d22ba6c	0.039728567
122	0xbe8ce331	-0.27517083
123	0xbe901fbe	-0.28149217
124	0x3d5d125a	0.05397258
125	0x3d08c9cc	0.033395573
126	0xbc945c5e	-0.01811045
127	0xbdbe7f5f	-0.09301638
128	0xbd8a256f	-0.06745421
129	0x3bc7b18f	0.0060941647
130	0xbe1009ab	-0.14066188
131	0x3e6e9095	0.23297341
132	0x3da6aac4	0.0813804
133	0xbdb3cfde	-0.08779882
134	0xbd9ab6ff	-0.07554435
135	0xbcb80926	-0.0224653
136	0xbd1b3a63	-0.03789748
137	0x3cd20c79	0.025640713
138	0x3b9ee9b4	0.004849637
139	0x3cf5af5a	0.02999084
140	0xbdc72e79	-0.09725661
141	0xbc85dbec	-0.016340218
142	0x3dc17d04	0.09447673
143	0x3cd4bee2	0.025969926
144	0x3d88d24f	0.06680738
145	0x3cefac7d	0.029257054
146	0x3d1d0feb	0.03834526
147	0xbe86f19b	-0.26356205
148	0xbd1ac218	-0.03778276
149	0x3d89d617	0.067302875
150	0xbc92d867	-0.017925454
151	0xbc994051	-0.018707426
152	0x3d80ad7b	0.06283089
153	0x3daf9498	0.08573264
154	0x3da0c28b	0.07849606
155	0xbe219cec	-0.15782517
156	0x3d5a3526	0.053273343
157	0xbda7732b	-0.081762634
158	0xbdd06db0	-0.10177171
159	0x3de63888	0.11241251
160	0xbd77fdb2	-0.060544677
161	0x3d121704	0.03566648
162	0xbd63d08c	-0.055618808
163	0x3da46011	0.08026136
164	0xbdd94629	-0.10609085
165	0x3d3480bc	0.044068083
166	0x3d9942c2	0.07483436
167	0xbb7a9e20	-0.0038241223
168	0x3db599fe	0.08867262
169	0x3dd39dd4	0.10332838
170	0x3d41c663	0.047308337
171	0x3db1cf4b	0.08682116
172	0xbd841b8b	-0.06450566
173	0xbd19d94d	-0.03756075
174	0x3d084e32	0.033277698
175	0xbecd2258	-0.40065265
176	0x3d85a309	0.06525237
177	0x3b84449f	0.0040365006
178	0x3db04b18	0.08608073
179	0xbda770ca	-0.0817581
180	0xbcb4cac1	-0.022069337
181	0xbd9f372c	-0.07774195
182	0x3b6e25da	0.003633848
183	0x3c0adfaa	0.008476177
184	0xbe4f216a	-0.2022759
185	0xbdd1ba2a	-0.10240586
186	0x3d117120	0.035508275
187	0xbdedb876	-0.11607449
188	0x3bb59e23	0.005542533
189	0x3db0cdb7	0.08632987
190	0xbd8064c7	-0.06269222
191	0xbce63141	-0.028099658
192	0xbd7fe7a4	-0.06247677
193	0xbe7b0676	-0.24514183
194	0x3d3d8b6d	0.046275545
195	0x3eb354e4	0.35025704
196	0x3bdbc6fb	0.00670707
197	0xba48e880	-0.000766404
198	0xbd511fcf	-0.051055726
199	0x3cfbe54d	0.030748988
200	0xbdaf1898	-0.08549613
201	0xbe2468ab	-0.16055553
202	0x3d1adb21	0.037806634
203	0xbc792898	-0.015207432
204	0xbcc36c59	-0.023855375
205	0x3e10e829	0.14151062
206	0x3dce1776	0.100630686
207	0x3c5b7a87	0.013395912
208	0x3dcf20ba	0.10113664
209	0x3ca5e800	0.020252228
210	0x3c0dbbfb	0.008650775
211	0xbcc774bb	-0.024347654
212	0x3e91ebf8	0.28500342
213	0x3b9e30e3	0.004827605
214	0xbe832664	-0.25615227
215	0xbe859762	-0.26092058
216	0x3e25dab3	0.16196708
217	0x3e2d193f	0.16904162
218	0xbdfdaebe	-0.12386845
219	0x3e16819f	0.14697884
220	0xbcba879d	-0.022769744
221	0x3d3eab08	0.046549827
222	0xbd28ff68	-0.0412592
223	0x3ca1d9ea	0.01975723
224	0xbc390fb3	-0.011295247
225	0x3da4ce42	0.08047153
226	0x3db6ff6c	0.089354366
227	0xbd3e896b	-0.04651777
228	0x3d3f2b57	0.04667219
229	0x3d557765	0.052115817
230	0x3d0c151f	0.03419983
231	0xbdb0749c	-0.086159915
232	0xbd614c6f	-0.055004533
233	0x3d380e0f	0.044935282
234	0x3d8a1a08	0.06743246
235	0x3d813812	0.06309523
236	0xbe01ffc4	-0.12695223
237	0x3d15dbc1	0.036586527
238	0x3e91ec4a	0.28500587
239	0xbd16a93b	-0.036782485
240	0x3e384d84	0.1799832
241	0x3cae8bbd	0.021306867
242	0xbde40d08	-0.11135298
243	0xbd57e9ae	-0.05271309
244	0xbdb26cba	-0.08712144
245	0x3d444614	0.047918394
246	0x3d4de37b	0.05026577
247	0x3c7f35ca	0.015576789
248	0x3df73179	0.12069983
249	0x3d0f5596	0.03499373
250	0x3db7b44c	0.08969936
251	0x3db5b7e2	0.088729635
252	0x3c060b2c	0.0081813745
253	0xbc538b17	-0.01291158
254	0x3d064ca4	0.032787934
255	0x3c8c3b1d	0.017118031

bias f4 [256]
0	0xbb0f83c6	-0.0021898611
1	0x3c78b139	0.015178972
2	0x3da77194	0.0817596
3	0xbc89d9bb	-0.016827455
4	0xbd43b34f	-0.047778424
5	0xbddd12c6	-0.107945964
6	0xbd63b7a2	-0.055595048
7	0x3d93dfb4	0.07220402
8	0x3e1c44af	0.15260576
9	0xbe0375df	-0.12837933
10	0x3cb51e14	0.022109069
11	0xbc65395a	-0.013990724
12	0x3dae0a34	0.0849804
13	0xbda4dae3	-0.08049562
14	0xbce557c8	-0.027995959
15	0xbd13cd08	-0.036084205
16	0xbc00f903	-0.007871869
17	0xbd648f32	-0.055800624
18	0x3d99fd0a	0.075189665
19	0xbd98e9ca	-0.07466467
20	0x3cb10b20	0.02161175
21	0xbd7d15d7	-0.061788406
22	0x3da00562	0.07813527
23	0x3e5eb6b2	0.2174938
24	0xbe20acc4	-0.15690905
25	0x3e0ca092	0.13733128
26	0x3d2d0d2f	0.0422489
27	0xbd9824d4	-0.074288994
28	0xbdd7ecac	-0.105431885
29	0xbddc45b5	-0.10755483
30	0x3e0a94ce	0.13533327
31	0x3e11930f	0.14216255
32	0xbd8025c2	-0.06257202
33	0x3a9e07e7	0.0012056798
34	0x3d9343ed	0.0719069
35	0x3b76c47f	0.0037653742
36	0xbe079604	-0.1324082
37	0xbbf46736	-0.0074585928
38	0xbd49bc43	-0.049251806
39	0xbe2846e4	-0.16433293
40	0xbd49ca19	-0.049265
41	0x3d2c843e	0.042118303
42	0x3cd2c022	0.025726382
43	0xbdda3d79	-0.10656256
44	0xbd231ee1	-0.03982437
45	0x3d1871bb	0.037217837
46	0x3df516a7	0.11967211
47	0x3e25a743	0.16177087
48	0xbc9d99ff	-0.01923847
49	0x3dace990	0.08442986
50	0xbd1deaf0	-0.038554132
51	0x3ce9de23	0.028548306
52	0xbe1201bf	-0.14258479
53	0x3dedd75d	0.11613343
54	0x3defa5f0	0.11701572
55	0xbd0a3d6c	-0.033749983
56	0xbd8e3319	-0.0694334
57	0x3d2b0954	0.041756943
58	0x3e5edf69	0.21764912
59	0x3cd40959	0.025883364
60	0xbc963846	-0.01833738
61	0x3d89349e	0.06699489
62	0xbe039413	-0.12849455
63	0x3b992022	0.00467302
64	0x3b0c884e	0.0021443549
65	0x3d0934fe	0.033497803
66	0x39dfc5e1	0.00042681306
67	0xbd49c7ea	-0.04926292
68	0xbdc26ea4	-0.09493759
69	0xbe778326	-0.24171123
70	0xbd6754e6	-0.05647745
71	0xbc77421d	-0.015091446
72	0xbd9f79f5	-0.07786933
73	0x3db0b0c0	0.086274624
74	0x3d0f4727	0.034979966
75	0x3d76758e	0.060170703
76	0x3c129c47	0.008948392
77	0x3d1a18a4	0.037621155
78	0x3d6d6dbb	0.057965975
79	0xbd3ac95b	-0.045602184
80	0xbe281b9b	-0.1641678
81	0x3d38a40c	0.045078322
82	0xbc8e209f	-0.01734954
83	0xbd0dbc07	-0.034603145
84	0xbdf6adfb	-0.12044903
85	0x3de278cb	0.11058196
86	0x3da10004	0.07861331
87	0x3d2569e5	0.040384192
88	0x3e3cebaf	0.18449281
89	0xbd65074f	-0.055915173
90	0x3d9dc56c	0.07703671
91	0xbcf97f9e	-0.03045636
92	0x3d46dd67	0.04855099
93	0x3dedec7e	0.11617373
94	0x3da726ec	0.08161721
95	0x3d425f73	0.04745431
96	0xbe1344d3	-0.14381723
97	0x3e8262cc	0.25466
98	0xbe12ca5a	-0.14335003
99	0xbb4785ba	-0.0030444697
100	0x3d5d50c7	0.054032113
101	0xbe0aa2e0	-0.13538694
102	0xbe0ffc42	-0.14061072
103	0xbd05bfe0	-0.03265369
104	0xbd902c6f	-0.07039725
105	0xbd80dbea	-0.06291945
106	0xbdb5fab1	-0.08885706
107	0x3dece2a9	0.115666695
108	0x3e1cab75	0.1529978
109	0x3d0f6876	0.03501173
110	0xbdcb2bb6	-0.099204466
111	0x3db8f620	0.090313196
112	0xbd0bcf91	-0.034133498
113	0x3c6cbc43	0.014449182
114	0xbd689f28	-0.05679241
115	0x3d25f01b	0.040512186
116	0xbdc3fa84	-0.095692664
117	0xbdfc52a2	-0.123204485
118	0xbd5591ea	-0.052141108
119	0xbda237e3	-0.07920816
120	0xbcf76290	-0.030198365
121	0x3e2b411a	0.16724053
122	0x3d3ff656	0.046865784
123	0xbcd11993	-0.02552489
124	0xbc8202af	-0.01587042
125	0x3cdb166d	0.026744092
126	0xbd153485	-0.03642704
127	0xbc1584c8	-0.009125896
128	0xbdc4526b	-0.095860325
129	0x3cea5de8	0.028609231
130	0x3d618322	0.0550567
131	0x3ddb87f4	0.107192904
132	0xbdec67e1	-0.11543251
133	0x3b9078b9	0.0044089225
134	0x3dc75fc2	0.09735061
135	0x3dac8906	0.08424573
136	0xbdc92001	-0.098205574
137	0xbd195fe6	-0.03744497
138	0xbd66540c	-0.056232497
139	0xbdc5f0a6	-0.09665041
140	0x3e04cc01	0.12968446
141	0xbbe549c7	-0.0069973203
142	0xbd250465	-0.040287394
143	0xbddf3d3f	-0.10900354
144	0x3d8509ba	0.06495996
145	0x3bfbcbce	0.0076842075
146	0xbd9335fb	-0.0718803
147	0x3e4d0fb5	0.20025523
148	0x3d4a7b12	0.049433775
149	0x3e2c7cfd	0.16844554
150	0xbcc42041	-0.023941161
151	0x3d7abb1f	0.06121361
152	0x3d3fb35f	0.04680192
153	0x3d3aa9a2	0.04557193
154	0xbd52171a	-0.051291563
155	0xbc097bbf	-0.00839132
156	0x3df0329c	0.11728403
157	0x3c0ce92a	0.0086005125
158	0xbe015b0d	-0.1263239
159	0xbdc40024	-0.09570339
160	0x3d0f961e	0.035055272
161	0xbca79b09	-0.020459669
162	0x3cf528fd	0.029926771
163	0xbca6b9cf	-0.020352272
164	0x3da24d3e	0.07924889
165	0xbe2fe279	-0.17176236
166	0x3d98512c	0.07437357
167	0xbd2dc852	-0.04242737
168	0xbc7b82d5	-0.015351017
169	0xbd54bee0	-0.051939845
170	0xbc803e7a	-0.015654791
171	0x3d18a83f	0.037269827
172	0xbcb67b69	-0.022275643
173	0xbd53b7c3	-0.05168892
174	0x3d37c2a7	0.04486337
175	0x3dd267c2	0.102736965
176	0x3d6bbbfa	0.057552315
177	0xbdb5a6b0	-0.08869684
178	0xbdc3df66	-0.09564094
179	0xbdf85888	-0.12126261
180	0x3d9e931f	0.07742905
181	0x3d1eecd7	0.038800087
182	0x3e2a5042	0.16632178
183	0xbd1e81d0	-0.038698018
184	0x3cd053c3	0.025430566
185	0xbdba6f2e	-0.09103237
186	0x3e3243d8	0.17408693
187	0xbd01bc58	-0.03167376
188	0xbd5e862c	-0.054327175
189	0xbd8bc139	-0.06823964
190	0xbcc61415	-0.024179498
191	0xbb0c55aa	-0.0021413364
192	0xbc3d8b36	-0.011568835
193	0x3e05c22f	0.13062356
194	0xbdcafaba	-0.099111035
195	0x3de095ff	0.109661095
196	0x3cf504c6	0.029909503
197	0xbd4fde44	-0.05074908
198	0x3bc01328	0.0058616586
199	0x3d031219	0.03199968
200	0x3d7cd069	0.061722193
201	0xbdc74412	-0.0972978
202	0x3dd7f3bf	0.10544538
203	0xbd400c8d	-0.04688697
204	0x3c6c2033	0.014411974
205	0xbd471574	-0.048604444
206	0x3cea72ab	0.028619131
207	0x3d8336e5	0.06406955
208	0x3e25d687	0.16195117
209	0x3cd42e78	0.025901064
210	0xbd882045	-0.0664678
211	0xbdb8f0c8	-0.090303004
212	0xbd40f6d8	-0.04711041
213	0x3e086248	0.13318741
214	0xbde91f53	-0.11382928
215	0x3ddcf70c	0.10789308
216	0x3cc79304	0.024362095
217	0x3e3058a4	0.17221314
218	0x3d1617c4	0.03664376
219	0xbd60da54	-0.054895714
220	0x3d1cf6c4	0.03832127
221	0xbca14d5e	-0.019690212
222	0x3d5f0cd3	0.05445559
223	0x3dfb3d3e	0.122675404
224	0x3e05d59a	0.13069764
225	0xbc3e14cd	-0.011601639
226	0x3cc6e15d	0.024277383
227	0xbca088b3	-0.019596433
228	0xbc9603dc	-0.018312387
229	0x3c3e4091	0.0116120735
230	0xbd035caa	-0.032070793
231	0xbe1f4d38	-0.155568
232	0xbd5bc495	-0.053654272
233	0x3db523dd	0.08844731
234	0xbd62a04d	-0.055328656
235	0x3dc4dda8	0.0961259
236	0xbd07938b	-0.033099692
237	0x3dc82bfb	0.097740136
238	0xbe17efb5	-0.14837535
239	0xbc53c83a	-0.012926156
240	0xbd11440d	-0.03546529
241	0x3c4934d8	0.012280665
242	0xbd3c5b47	-0.045985486
243	0xbe18932e	-0.14899895
244	0x3d8f0901	0.06984139
245	0x378e22f0	1.6943988e-05
246	0x3b65049b	0.0034945372
247	0x3d8297e9	0.06376631
248	0xbdcbe7a1	-0.09956289
249	0x3d32f1b0	0.043687522
250	0xbbf1cedb	-0.0073793954
251	0x3b648d48	0.003487425
252	0xbde71fca	-0.1128536
253	0xbc1ac0cf	-0.009445383
254	0x3d58ecc4	0.052960172
255	0x3de641bb	0.11243006

weight f4 [256, 256]
0	0xbcfb09c3	-0.030644303
1	0xbc03363d	-0.008008537
2	0xbbfd7230	-0.0077345595
3	0xbbb45ff6	-0.0055046035
4	0xbd357dc8	-0.044309407
5	0xba93a789	-0.0011265139
6	0xbc77f678	-0.015134446
7	0x3d074372	0.033023305
8	0xbd178dcc	-0.037000462
9	0xbd0b5582	-0.034017093
10	0xbca268b8	-0.019825324
11	0x3d0f694a	0.03501252
12	0x3d1ca78e	0.03824573
13	0xbc8f157b	-0.017466297
14	0x3d0c9cb2	0.034329124
15	0xbc2cd305	-0.010548358
16	0x3a456248	0.00075295987
17	0x3bcab037	0.006185557
18	0xbca3d310	-0.019998103
19	0xbc991ff3	-0.018691992
20	0xbc5a9240	-0.013340533
21	0x3d847618	0.06467837
22	0x3b3e5245	0.0029040736
23	0xbd3a66aa	-0.045508064
24	0x3d027898	0.03185329
25	0xbbe46712	-0.0069702948
26	0xbd1ce3a3	-0.03830303
27	0x3d2fd15b	0.042924266
28	0x3c100964	0.008791301
29	0x3d3d0094	0.04614313
30	0xbcdfda16	-0.027325671
31	0xbda33dd9	-0.07970781
32	0x3d81132e	0.06302486
33	0xbd91c258	-0.07117146
34	0xbd189661	-0.037252788
35	0xbb670922	-0.0035253246
36	0x3c9e0753	0.019290602
37	0x3ccef662	0.025263969
38	0xbc968d3f	-0.018377898
39	0x3bc29bed	0.005938998
40	0xbd46d06a	-0.048538603
41	0xbc24eb99	-0.0100659365
42	0xbd3d124b	-0.046160024
43	0xbcc39631	-0.023875328
44	0x3c857013	0.016288793
45	0x3ce51cf4	0.027967907
46	0x3ca872b1	0.020562502
47	0x3d1ff316	0.039050184
48	0x3a22e97e	0.00062146026
49	0x3d0d4524	0.034489766
50	0x3d1d24b7	0.038365092
51	0xbc8f38e9	-0.017483192
52	0xbc1a0d36	-0.009402564
53	0x3cafef26	0.02147634
54	0x3a7a5c5d	0.00095505064
55	0x3c2179ac	0.009855669
56	0x3cdccebb	0.026954046
57	0xbb6d385e	-0.0036196928
58	0x3c1c8744	0.009553734
59	0xbd0c482b	-0.034248512
60	0xbc74296b	-0.014902453
61	0xbd0304d6	-0.031987034
62	0xbc1529fe	-0.00910425
63	0xbbf63d3a	-0.007514623
64	0xbb6905d0	-0.0035556443
65	0xbd4723d7	-0.048618164
66	0xbbb404a0	-0.0054937154
67	0x3d58b179	0.052903626
68	0xbc7fafdf	-0.015605896
69	0x3b007a6c	0.001960422
70	0x3c2226e5	0.0098969685
71	0xbb3783e2	-0.0028002192
72	0xbcbdfd5e	-0.023192104
73	0x3d8762e9	0.066106625
74	0x3d5cb533	0.053883743
75	0x3d927be2	0.07152535
76	0xbad73ab6	-0.0016420695
77	0x3c2b27ad	0.010446471
78	0xb74dfad0	-1.2277349e-05
79	0xbc7a7955	-0.015287717
80	0xbcdac818	-0.02670674
81	0x3b1f1d1c	0.0024278825
82	0x3c86f766	0.01647539
83	0xbd835c00	-0.06414032
84	0x3cc51b55	0.024060884
85	0x3d035831	0.032066528
86	0xbbb8ba98	-0.005637478
87	0xbc1304dc	-0.0089733265
88	0x3d59e0b9	0.053192828
89	0x3cee5dad	0.029097402
90	0xbcf11a96	-0.029431622
91	0xbd2b6514	-0.041844442
92	0x3bdc8466	0.0067296503
93	0xbcdb8c09	-0.026800172
94	0x3b70131a	0.003663248
95	0x3d4ae255	0.049532253
96	0xbd2feb99	-0.042949293
97	0x3b08ae7f	0.002085596
98	0xbd08bdc0	-0.033384085
99	0xbc5fe4e5	-0.013665413
100	0x3c447b43	0.0119922785
101	0xbc823803	-0.01589585
102	0xbb69a643	-0.0035652078
103	0xbc65b723	-0.014020714
104	0x3c50e451	0.012749747
105	0xbcfa61e3	-0.030564254
106	0x3d057787	0.032584693
107	0xbd1b9474	-0.037983373
108	0xbc4e991f	-0.012609749
109	0xbb93a621	-0.004505888
110	0xbd965421	-0.07340265
111	0xbc5d6530	-0.0135128945
112	0x3e069cea	0.13145795
113	0xbcfe5a55	-0.031048933
114	0xbc870844	-0.016483434
115	0x3d69a01f	0.05703747
116	0xbb2b3745	-0.0026125473
117	0xbc37b3fe	-0.011212347
118	0x3d581810	0.052757323
119	0xba22f83a	-0.0006216798
120	0x3ba6d339	0.0050910977
121	0x3bef13e1	0.007296071
122	0xbb771378	-0.0037700813
123	0x3bcd7632	0.0062701935
124	0xbc0e339a	-0.008679295
125	0xbc178b1a	-0.009249473
126	0xbbb583c7	-0.0055393907
127	0xbc4eb522	-0.012616428
128	0x3c6f5435	0.014607479
129	0xbc0a1e73	-0.008430111
130	0x3c91db62	0.017804805
131	0x3d9b27d2	0.075759545
132	0xbbc02dcb	-0.005864834
133	0xba937a88	-0.0011251727
134	0xba2f1f7c	-0.0006680412
135	0x3d1b975b	0.03798614
136	0xbce41285	-0.027840862
137	0x3c67610e	0.014122261
138	0x3c683689	0.014173158
139	0x3c8001fc	0.015625946
140	0x3c45f45a	0.012082184
141	0x3d4bba2b	0.04973809
142	0xbce58aa5	-0.028020212
143	0x39ccf03d	0.00039088904
144	0x3d45a7ab	0.048255604
145	0x3ccba63e	0.024859544
146	0xbd82477a	-0.06361289
147	0xbd038196	-0.032106005
148	0xbd534582	-0.05157996
149	0xbca052b9	-0.019570695
150	0x3c5cef07	0.013484723
151	0x3d14bee4	0.03631486
152	0x3b8195d4	0.0039546285
153	0xbd201a2c	-0.03908746
154	0x3d11e232	0.035616107
155	0xbd2cf33f	-0.042224165
156	0xbcd4984c	-0.025951527
157	0x3bf30b34	0.007417107
158	0xbcc94d48	-0.024572983
159	0xba4249de	-0.000741152
160	0xbc071f75	-0.008247246
161	0xbc6771e2	-0.014126273
162	0xbc958627	-0.018252445
163	0xbc8c9e65	-0.017165372
164	0x3d8088b2	0.062760726
165	0x3c203914	0.0097792335
166	0x3c01f48e	0.007931842
167	0xbd1ec0b9	-0.038758013
168	0xbd975043	-0.073883556
169	0xba81f1d0	-0.0009913985
170	0x3d1e6a6c	0.03867571
171	0x3d32ad9c	0.043622598
172	0x3d15d29d	0.03657781
173	0x3d232e5c	0.039839134
174	0xbc0083d7	-0.007843933
175	0x3cf4cc87	0.029882682
176	0xbca789dc	-0.020451479
177	0xbc8cdba5	-0.017194578
178	0x3b12b47e	0.0022385414
179	0xbccf3d80	-0.02529788
180	0xb99cb386	-0.00029888394
181	0xbcc33fc6	-0.02383412
182	0xbcab5f2d	-0.020919407
183	0xba760c2e	-0.000938597
184	0x3d27addb	0.040937286
185	0x3b2cf174	0.0026389034
186	0xbc5a1039	-0.013309532
187	0xbc85d6e5	-0.016337821
188	0xbd14b23d	-0.036302794
189	0x3cc70b92	0.02429751
190	0x3c83ca2c	0.016087614
191	0xbcba97a6	-0.02277739
192	0xb982fc22	-0.00024983386
193	0xbc0cab33	-0.008585739
194	0xbc9ad03d	-0.018898124
195	0xbb712152	-0.0036793542
196	0x3ccc5a36	0.02494536
197	0xbc6391a9	-0.013889709
198	0x3c336c2d	0.010951084
199	0xbc470c2e	-0.0121489
200	0xbcbe8376	-0.023256045
201	0x3cd67358	0.026178047
202	0x3d29d39b	0.04146157
203	0x3c20d94f	0.009817435
204	0x3b248a96	0.0025107018
205	0x3cc5007f	0.024048088
206	0x3d0c2925	0.034218926
207	0x3c673b87	0.0141133135
208	0xbd5a1af6	-0.05324837
209	0xbc48fee4	-0.012267802
210	0x3d5707db	0.052497726
211	0xbd23ea3a	-0.040018298
212	0x3d14bcdc	0.036312923
213	0xba80a240	-0.0009813979
214	0xbb117c1c	-0.002219922
215	0x3c938fd5	0.01801292
216	0x3d12d429	0.035846863
217	0x3c231082	0.009952666
218	0x3c39198c	0.011297595
219	0xbda9263b	-0.08259245
220	0xbd180ff3	-0.037124585
221	0x3d702f9c	0.058639154
222	0x3ca3a3ca	0.019975562
223	0xbb27803e	-0.0025558616
224	0x3d76affb	0.06022642
225	0xbb04c01e	-0.0020256112
226	0x3d0459ad	0.032312084
227	0x3d6b9c6a	0.057522215
228	0xbbac99c2	-0.005267353
229	0xbcb0fc8f	-0.021604804
230	0xba73895b	-0.0009290182
231	0xbb13a5aa	-0.0022529163
232	0xbd0aef42	-0.03391958
233	0x3d6b7a25	0.057489533
234	0xbc2a73c0	-0.0104035735
235	0x3c79aa49	0.015238353
236	0xbcee83c3	-0.029115563
237	0xbb0d4dff	-0.0021561382
238	0xbdabb13c	-0.08383414
239	0x3c12aab0	0.008951828
240	0xbca0f4f6	-0.019648056
241	0xbc12f9a6	-0.008970654
242	0xbb4aa1ac	-0.0030919118
243	0x3d2ad57a	0.041707493
244	0x3d208300	0.03918743
245	0xbd2a856a	-0.04163114
246	0xbd1f4770	-0.038886487
247	0xbcd071e0	-0.025444925
248	0x3bc30564	0.0059515703
249	0xbd088383	-0.033328544
250	0x3d1e5bec	0.038661882
251	0xbd2088ff	-0.03919315
252	0xbd0fdf8b	-0.035125297
253	0xbc90e4a5	-0.017687151
254	0x3d14df75	0.036345918
255	0x3b163dcc	0.0022925017

bias f4 [256]
0	0xbd09a544	-0.033604875
1	0x3c25b2cc	0.010113429
2	0xbd16a69e	-0.036779992
3	0x3cc2c9a0	0.023777783
4	0x3d4d306f	0.050095018
5	0x3cb0cab0	0.021581024
6	0xbc74c79d	-0.01494017
7	0xbb0f44d3	-0.002186109
8	0xbadc76fb	-0.0016820127
9	0x3c75e5a2	0.015008362
10	0xbbc7682e	-0.0060854172
11	0x3cb554f2	0.022135232
12	0x3d0375fc	0.03209494
13	0xbd00279e	-0.031287782
14	0x3d8ba691	0.068188794
15	0x3cfb4b2b	0.030675491
16	0xbd596688	-0.053076297
17	0x3b776c78	0.0037753861
18	0x3b1f4967	0.0024305226
19	0x3c299067	0.01034937
20	0x3ce8b7ec	0.028408013
21	0xbd44a04f	-0.048004445
22	0x3c2910d2	0.010318952
23	0xbbbb0c17	-0.0057082283
24	0xbb3d3cc1	-0.0028875323
25	0x3d390d81	0.045178894
26	0xb78fab88	-1.7126804e-05
27	0xbc96c5d8	-0.018404886
28	0x3c77e289	0.015129694
29	0x3d33d0e9	0.043900404
30	0xbb8a9961	-0.00422971
31	0x3b41a8e8	0.002955014
32	0xbcad87c5	-0.021182904
33	0xbd1afcee	-0.03783887
34	0x3b99ceb6	0.0046938313
35	0xbcc49936	-0.023998838
36	0xbb4f177c	-0.003159969
37	0xbc30fd07	-0.010802514
38	0x3d17ba80	0.037043095
39	0x3cde444c	0.027132176
40	0x3cc05d61	0.023482027
41	0x3ca59b69	0.020215707
42	0x3babf7b2	0.0052480334
43	0x3c38d46f	0.011281117
44	0xbb9fa160	-0.0048715323
45	0xbb9002cb	-0.004394864
46	0x3bbbcbce	0.0057310825
47	0xbb2816b1	-0.002564829
48	0x3d2e479e	0.04254877
49	0xbcf560aa	-0.02995332
50	0x3b18805d	0.002326987
51	0xbcadb85a	-0.02120607
52	0xbb8db04d	-0.004323995
53	0x3c1e9902	0.009680035
54	0xbcc6304b	-0.02419295
55	0x3ca49f10	0.020095378
56	0xbbd2a3b4	-0.0064282063
57	0xbcdaf82a	-0.026729662
58	0xbd0bfd22	-0.034176953
59	0xbc819c01	-0.015821459
60	0x3ad0c450	0.0015927646
61	0xbc4dd25c	-0.012562361
62	0x3c6bc03e	0.014389096
63	0xbc820ac3	-0.015874272
64	0xbbf0737d	-0.007337986
65	0x3d0de8f7	0.034646
66	0x3bd851d0	0.0066015497
67	0xbc9c8859	-0.019107984
68	0xbd080a09	-0.033212695
69	0x3d60de6f	0.05489963
70	0xbcef2c51	-0.029195936
71	0xbcab95da	-0.020945478
72	0xbd2812b1	-0.04103345
73	0xbc953221	-0.01821238
74	0xbc498c5a	-0.012301529
75	0x3d1b9015	0.037979204
76	0xbd19ed35	-0.037579734
77	0x3d74508f	0.05964714
78	0xbd155838	-0.036461085
79	0xbc9f2d64	-0.019430824
80	0xbc0470e0	-0.008083552
81	0xbc005847	-0.007833547
82	0x3cc48ec3	0.023993855
83	0x3c1a3a1d	0.009413269
84	0x3ce9a870	0.0285227
85	0xbcc1852f	-0.023623077
86	0xbbf80eeb	-0.0075701377
87	0xbcd54b92	-0.026037011
88	0xbc990f8a	-0.018684167
89	0x3cef578b	0.029216548
90	0xbc13ac17	-0.009013197
91	0x3c22a91f	0.009928017
92	0xbc01634a	-0.0078972075
93	0x3d032057	0.032013264
94	0xbba701de	-0.005096658
95	0xb9f1c907	-0.0004611688
96	0x3d80dd9f	0.06292271
97	0x3d12f7e4	0.03588094
98	0xbc2c049b	-0.010499145
99	0xbc85af64	-0.016318984
100	0xbc1a6aa0	-0.009424835
101	0xbd30b40f	-0.043140467
102	0xbc0ffc07	-0.008788115
103	0x3c32f877	0.010923496
104	0x3d62ae34	0.055341914
105	0xbad4d9b1	-0.0016239194
106	0x3b43b36e	0.0029861587
107	0x3b2cfe4d	0.0026396692
108	0xbcd90e4a	-0.026496071
109	0x3bdb3350	0.0066894665
110	0x3ce00f2a	0.02735098
111	0x3d4d5404	0.05012895
112	0x3ce7266c	0.028216563
113	0xbd6e1a0b	-0.058130305
114	0xbcfdac6f	-0.030966012
115	0x3a3f419a	0.0007295847
116	0xbd0b9958	-0.034081787
117	0xbc8dd922	-0.017315451
118	0xbb33f7a0	-0.0027460828
119	0xbd39582a	-0.045250095
120	0x3bc9e580	0.0061613917
121	0xbc02ffc6	-0.007995551
122	0x3d337aeb	0.043818396
123	0xbc32a82f	-0.010904356
124	0x3cea47a8	0.028598621
125	0xbb73755a	-0.0037148804
126	0x3c541b84	0.012946013
127	0x3cc5c711	0.024142774
128	0x3d1d93ba	0.03847096
129	0xbca9fd94	-0.020750798
130	0xbd0b3dcd	-0.033994485
131	0x3d80f1b4	0.06296101
132	0x3d2d0b75	0.042247254
133	0x3d1ac465	0.037784953
134	0x3c9f77d4	0.019466318
135	0xb9f6f834	-0.00047105702
136	0xbd46f407	-0.048572566
137	0xbbdcc2eb	-0.006737103
138	0xbc05bfd8	-0.008163415
139	0x3bb89cce	0.005633927
140	0xbc0224fa	-0.007943386
141	0xbbff77a8	-0.0077962466
142	0x3d3eb933	0.04656334
143	0x3d2e7b0e	0.042597823
144	0xbb268adb	-0.0025412354
145	0x3cd138c1	0.025539758
146	0xbd0656f3	-0.032797765
147	0xbcec6bed	-0.028860057
148	0xbbe6b24d	-0.007040298
149	0x38db7aa8	0.0001046558
150	0x3c707cf9	0.014678233
151	0x3c9dd811	0.019268068
152	0x3c85cd8c	0.016333364
153	0x3ced615a	0.028977085
154	0x3d14fc63	0.036373507
155	0x3bf4ce85	0.007470908
156	0x3cc76481	0.024339916
157	0xbd26e2fb	-0.04074381
158	0xbcb64d18	-0.022253558
159	0x3baae045	0.0052147233
160	0x3c5d8e2c	0.013522666
161	0x3bed1668	0.007235337
162	0x3bb2c454	0.005455533
163	0xbc3eb7b0	-0.011640474
164	0xbd1bffcf	-0.038085755
165	0xbb562d41	-0.0032680782
166	0x3c4ea6a7	0.012612975
167	0xbcab7341	-0.02092898
168	0x3c3baa79	0.011454218
169	0xbccacbbc	-0.024755351
170	0x3cce27de	0.025165495
171	0xbc7ef5b0	-0.015561506
172	0xbcbdfa36	-0.023190599
173	0xbb8b81ac	-0.0042574015
174	0xbd13afec	-0.036056444
175	0x3d0cbd4a	0.034360208
176	0xbc235098	-0.0099679455
177	0xbce8d35d	-0.028421098
178	0xbc9ebb7e	-0.019376513
179	0xbc58ce62	-0.013232799
180	0xbd63ec22	-0.055645116
181	0xbc712cb7	-0.0147201335
182	0xbbb3986d	-0.005480817
183	0xbcedca91	-0.029027255
184	0xbd54e913	-0.05198009
185	0xbc675598	-0.014119528
186	0x3d62f47c	0.05540894
187	0xbc7d78d1	-0.015470699
188	0xbbb1e4fd	-0.005428909
189	0x3bfbb45f	0.007681414
190	0xbd23bd5b	-0.039975505
191	0x3aacfe7e	0.0013198403
192	0xbcb04021	-0.021514954
193	0x3d314eed	0.04328816
194	0x3c1e32bf	0.0096556535
195	0x3cf64245	0.030060897
196	0xbc7e9696	-0.015538832
197	0x3cb0903d	0.021553153
198	0xbb1528ba	-0.002275987
199	0xbbee2f17	-0.007268797
200	0xbce9003c	-0.028442495
201	0xbd4524d3	-0.04813082
202	0x3bd427e9	0.006474484
203	0x3cfe173d	0.03101694
204	0x3b3a0b81	0.0028388205
205	0xbd4a218b	-0.049348395
206	0xbb809d1b	-0.0039249784
207	0xbd01904d	-0.031631757
208	0x3d020229	0.03174034
209	0xbaab7713	-0.0013081752
210	0xbc9c9460	-0.01911372
211	0x3bbd78af	0.005782209
212	0x3ced21aa	0.028946716
213	0xbcd599c0	-0.02607429
214	0xbca9d417	-0.020731015
215	0x3d05c583	0.032659065
216	0xbd28b3cb	-0.04118709
217	0x3b6a19a6	0.0035720854
218	0x3ca57446	0.020197045
219	0xbbcfd5cd	-0.0063426257
220	0xbcd7d89f	-0.02634841
221	0x3d2f7e85	0.042845268
222	0xbbb4a5e2	-0.005512939
223	0xbd4df213	-0.050279688
224	0xbca24f00	-0.01981306
225	0xbcd458f3	-0.02592132
226	0xb9046762	-0.00012627014
227	0x3c237458	0.009976469
228	0xbb8815fc	-0.0041530114
229	0x3d553871	0.05205578
230	0x3d4b8964	0.049691573
231	0x3c7b8bb6	0.015353134
232	0xbccd060b	-0.025027296
233	0x3c408203	0.011749747
234	0x3d8f9796	0.070113346
235	0x3c5dc847	0.013536519
236	0x3d18ac21	0.03727353
237	0x3bce8b60	0.006303236
238	0xbd13db72	-0.03609795
239	0x3c095216	0.008381387
240	0xbd5e45ab	-0.05426566
241	0x3c4af7b0	0.012388155
242	0x3c197574	0.009366382
243	0x3a40597d	0.00073375535
244	0xbc39e142	-0.01134521
245	0x3c8a4297	0.016877456
246	0xbca5a2c9	-0.020219224
247	0xbc647b24	-0.013945375
248	0x3d47ebef	0.04880899
249	0xbb5386cd	-0.0032276392
250	0x3d142c90	0.03617531
251	0x3cac321a	0.021019984
252	0x3caf9337	0.021432502
253	0x3bba9839	0.005694416
254	0x3b19d241	0.0023471268
255	0x3cb002e3	0.021485751
