output/2023-09-14-22-52-13/trained_model/tetris_epoch3313_score12700.pt (torch, 842187 bytes, 8 tensors)

weight f4 [32, 1, 4, 4]
000000 18 e3 ba bc b3 d2 af 3c b7 d9 43 bd f7 d5 87 3c
       -0.022813365 0.021462774 -0.04781505 0.016581519
000010 de c3 3d 3b 62 ec 87 3d f5 fc c4 bb 7f c4 8b 3d
       0.0028955857 0.06636883 -0.0060116 0.06824588
000020 ae 6a 6d be 5b 96 df 3d 1f 6e 3b 3e af c8 a5 3c
       -0.23185226 0.1091735 0.18303727 0.020237295
000030 ff cf 3d 3d d5 c3 19 3e f0 58 38 3e 9c 4d 35 bd
       0.04634094 0.1501611 0.18002677 -0.044263467
000040 10 c8 d7 3e 57 f9 93 bd 13 98 c2 be 72 66 96 be
       0.42144823 -0.07225292 -0.38006648 -0.29375035
000050 b0 a3 10 bf 46 3e 50 bc ed be d3 bd 18 35 4a be
       -0.5649977 -0.01271016 -0.103391506 -0.19746816
000060 78 14 8f 3d af 25 59 be 1a 22 a3 3d 93 57 b4 be
       0.06986326 -0.21205781 0.07965489 -0.35223064
000070 25 1d 75 be 46 c3 36 3d ee 0c ea 3d f3 f6 30 bf
       -0.23936899 0.04461982 0.114282474 -0.69126815
000080 e8 fd 28 3d a8 30 bb 3d 61 dc 4f bf 0a ff 4a be
       0.04125777 0.0914014 -0.81195647 -0.19823852
000090 84 bb 69 3d fa 7a 86 be 43 7e 4d 3e 13 aa a0 be
       0.057063594 -0.262657 0.20067696 -0.31379756
0000a0 96 8f c2 3d 90 0e 91 3e c1 c9 8c 3c c2 89 24 3c
       0.09500043 0.28331423 0.017186048 0.01004261
0000b0 42 4f d7 bd 37 2b 07 be 5a 4a 23 be 19 ea d2 bd
       -0.10513164 -0.13200079 -0.15946332 -0.10298557
0000c0 d0 86 c6 be 5f 71 de be 10 80 cf bd 77 7f 84 bd
       -0.3877473 -0.4344587 -0.10131848 -0.064696245
0000d0 0a d3 84 3e 00 ee 3f be 01 a6 8b 3e 62 da cc 3d
       0.2594226 -0.18743134 0.27275088 0.10002591
0000e0 74 f0 a9 be 8f 4a e0 3b 63 ba 23 bf 46 cc b2 3d
       -0.33191264 0.0068448256 -0.6395628 0.08730368
0000f0 2a 48 20 be 9b 95 24 bf 3b 02 e2 be 37 d7 b8 3d
       -0.15652528 -0.6429078 -0.44142327 0.09025424
000100 b4 a1 50 bd 0d a8 44 bf 34 b7 6d bd 91 b0 b6 bc
       -0.050935462 -0.76818925 -0.058036044 -0.02230099
000110 99 3e d5 3c 82 2d b1 3c 21 91 d1 3d e9 b5 20 3d
       0.026030825 0.021628145 0.10232759 0.039235983
000120 37 83 5e 3e ef f9 60 bf 2f 54 a2 3e 6e d4 f3 bc
       0.21729742 -0.8788137 0.31704852 -0.02976438
000130 02 17 97 bd 0a fc 98 bd 4b b4 77 3c 51 8b b5 bb
       -0.07377435 -0.07469948 0.015118669 -0.0055402895
000140 8e 1d 1f bd ed aa 36 3b 4b e6 42 be 58 b4 f8 bd
       -0.038846545 0.0027872876 -0.19033162 -0.12143773
000150 aa ea 27 3c 56 af 3e bc 19 2f 9b 3e a0 3e 41 3f
       0.010248819 -0.011638483 0.3030937 0.75486183
000160 fc 5d 49 bc 6c 67 28 ba dc 48 80 be aa ae 49 bf
       -0.012290474 -0.00064241025 -0.25055587 -0.7878214
000170 04 ee ca bc 7f 85 27 bc 85 f9 52 bd b3 68 29 bd
       -0.024771698 -0.010224699 -0.05150749 -0.041359615
000180 ac e8 9c bc de 4a 69 3d 4f c3 1b 3e c0 00 71 3e
       -0.019153915 0.056956165 0.15211223 0.23535442
000190 4a 70 d0 3d 52 43 ca bc 61 c2 4e 3e 98 5b c6 be
       0.101776674 -0.024690304 0.20191337 -0.38741755
0001a0 54 5d d0 3d 76 97 23 3d 50 a2 a8 3c f9 6e 01 bf
       0.10174051 0.039939366 0.02058521 -0.50559956
0001b0 86 24 84 3c 89 16 dd 3b e5 38 fb 3d 10 3c ce be
       0.016130697 0.006747071 0.12266711 -0.402802
0001c0 17 3f b9 bc 58 a5 f1 3c cc ea 22 3e 87 ca dc bd
       -0.022613091 0.029497787 0.1590988 -0.107808165
0001d0 e4 9b 7e 3d 07 10 d5 3d d8 fa 38 bf 80 6a 1f bf
       0.062160388 0.104034476 -0.7225776 -0.6227188
0001e0 5b ef 06 3d a2 ae 96 3d 15 4c 12 bf 86 bc 88 bd
       0.03294311 0.07357527 -0.5714734 -0.06676583
0001f0 5e 41 4b bd 82 36 40 3e 5c e1 89 be 93 a9 bc be
       -0.049622886 0.18770793 -0.26929748 -0.36848125
000200 88 7d ee bd 94 e5 aa 3d 33 c7 06 bf 7c 7f 4c be
       -0.11645037 0.0834457 -0.52647704 -0.19970506
000210 f5 e7 f2 3d ad e6 1e 3e 63 8e 4e 3e c4 dd cb be
       0.118606485 0.15517683 0.20171504 -0.3981763
000220 20 87 08 bd 92 be a5 3d 5e c5 83 be 9a bf 40 bf
       -0.03333199 0.08092989 -0.25736517 -0.7529236
000230 5e 1d eb 3d 13 24 9f bd 98 67 36 bd d4 8c fe 3d
       0.11480211 -0.077705525 -0.04453239 0.124292046
000240 1b b4 23 be 7e dd 1d bd 33 89 42 bc d2 bd bd 3d
       -0.15986674 -0.03854131 -0.011873531 0.09264721
000250 c0 4a fc bd c7 6b 86 be 10 8d e5 be 4e a0 11 bd
       -0.12318945 -0.26254103 -0.44834185 -0.03555327
000260 d7 3b 43 bd 12 7b e3 3e 40 c2 67 3e 28 2b cc bd
       -0.04766449 0.44429833 0.22632694 -0.09969169
000270 d7 51 60 3d ce 18 60 bf 07 30 bf 3d 89 76 0b 3d
       0.05476555 -0.8753785 0.09335332 0.03404859
000280 5f 63 92 bd 5d 06 0c be 2b df 2c be d9 84 07 be
       -0.0714786 -0.13674302 -0.16882007 -0.13234271
000290 44 c0 c4 bb a0 83 a5 bd 7e ce 3d be 79 80 2e 3d
       -0.006004365 -0.08081746 -0.18535802 0.04260299
0002a0 87 cd 90 bb 11 aa 06 3e 45 17 11 3f a5 cd d6 bc
       -0.004419032 0.13150813 0.5667613 -0.026221106
0002b0 1b ac 1d bc 02 33 0f be 84 f2 3e bf bf 4c 65 bd
       -0.009623553 -0.13984302 -0.745888 -0.055981394
0002c0 55 17 47 be 35 bc 6a bd b7 a4 b7 be 98 d6 a3 bd
       -0.19442494 -0.057308394 -0.35867855 -0.07999915
0002d0 c5 8a d0 bd 72 68 6d bd d7 73 39 3b f7 78 aa 3e
       -0.10182718 -0.057960935 0.0028297806 0.33295414
0002e0 9f 28 be bc 9f 1d 47 bd 24 dd 20 3e 55 b7 05 bf
       -0.023212729 -0.048612233 0.15709358 -0.5223287
0002f0 a1 69 b2 3c 46 5a 1d 3d 1b ff 55 3d 28 e6 f7 be
       0.021778883 0.03841617 0.05224524 -0.48417783
000300 97 99 1c 3e 5d 7a 43 be 66 9d f0 3c 64 42 3d bd
       0.15292965 -0.19089647 0.029371928 -0.046205893
000310 93 de 4b 3d 0a 4c 0c 3f be 0f 44 3d b8 84 70 bd
       0.04977281 0.54803526 0.047866575 -0.05872032
000320 8b d3 a6 bd 52 ec 0f bf 22 c9 23 3e af 27 24 bd
       -0.08145817 -0.5621997 0.15994695 -0.040076908
000330 ec db 92 bc c2 5b 0c bf 80 e8 49 be fa 71 76 bb
       -0.017927133 -0.5482751 -0.19717598 -0.0037604556
000340 94 fe a4 3c e1 92 61 bd 68 3f ef bc e3 bc a4 3d
       0.020140924 -0.055071715 -0.02920504 0.0804384
000350 2a 66 49 bd 1e 12 3e 3e d5 23 1a 3e c8 45 57 3c
       -0.049169697 0.18561599 0.15052731 0.013139196
000360 38 6d aa 3c 96 1c 5d 3f 4a 09 14 bd aa bb 7c 3d
       0.020804033 0.86371744 -0.03614167 0.061702408
000370 45 ef 55 bc 77 eb a9 bf bf d7 94 3d cc 82 a5 bc
       -0.013057535 -1.3274983 0.07267713 -0.02020397
000380 9b 16 0d 3d 7f 39 e5 3e cd 5b 4f 3d ab 63 d1 3c
       0.034445386 0.4477043 0.050624657 0.02556022
000390 6e 53 6b ba d4 fc 33 3f 46 f3 d0 3c c3 07 da 3b
       -0.00089769706 0.7030766 0.025506627 0.0066537573
0003a0 ce 31 30 bc 92 99 a6 bf a0 12 80 3c 51 70 e2 bc
       -0.010754062 -1.3015616 0.015633881 -0.027641447
0003b0 33 2c da bc a3 24 8c bd 2d 9a 96 bd 4d 19 af 3c
       -0.026632404 -0.068429254 -0.073536254 0.021374369
0003c0 a1 87 5f be 97 19 65 bc 93 dc 24 3e f1 99 df bd
       -0.21829082 -0.013983152 0.16099767 -0.10918034
0003d0 1a 6a 05 bd 07 5e 22 be 1f 8e e6 bd ce 81 d6 bc
       -0.03257189 -0.15856181 -0.11257576 -0.026184943
0003e0 71 46 02 3e 5c 0a 3c 3e dc 02 a1 3d 7c a6 22 3e
       0.12722184 0.18363327 0.078618735 0.15883821
0003f0 a0 cf 28 bc 76 7f 9f 3d a1 38 87 bb ad be ea 3d
       -0.010303408 0.07787983 -0.0041266237 0.1146215

weight f4 [32, 32, 5, 5]
000000 d7 50 47 3d 02 e7 2f be 29 bd 0f 3d a0 78 85 3e
       0.04866108 -0.17177966 0.035092507 0.26068592
000010 40 9d de 3d 2e f1 07 3e f4 d1 78 be f8 3b d8 bc
       0.10869837 0.13275596 -0.24298841 -0.026395783
000020 67 98 c6 bd 63 d7 9c be ee 66 b8 bd 0f 26 1d bd
       -0.09697037 -0.30633077 -0.09004007 -0.038366374
000030 8e 2c 08 3c b3 13 08 be 11 80 2f bd ef b3 db bd
       0.008311404 -0.13288765 -0.042846743 -0.10727679
000040 6f e8 2b bf 12 b3 a3 be f6 45 a2 3c d7 a0 aa be
       -0.6715154 -0.31972557 0.01980875 -0.33325836
000050 15 aa c7 3d 7f 04 22 3c a4 bf fa bd ad 43 ac 3d
       0.097492374 0.009888767 -0.12243584 0.08411346
000060 dc 3d f7 3d 00 db 26 3e e0 10 93 be 87 a7 0c 3e
       0.120723456 0.1629448 -0.28723812 0.13735782
000070 a2 fa 10 3f 30 29 02 3f a0 41 9c be ad 75 7f 3e
       0.56632435 0.508441 -0.30518818 0.24947233
000080 3d 36 56 be 47 45 21 be 27 64 57 3e 5b 22 87 3d
       -0.20919128 -0.15749083 0.21034299 0.0659835
000090 35 47 87 be 8f 5f 99 be ac 1f 3d 3e 73 20 42 be
       -0.26421514 -0.29955718 0.18469113 -0.18957691
0000a0 e0 67 d3 bc 38 97 8d 3d 05 8c 13 be b6 b0 cb be
       -0.025806367 0.06913608 -0.14408882 -0.39783257
0000b0 08 08 24 be 47 23 3d be e7 c2 d2 3e cb 76 b4 bc
       -0.16018689 -0.18470488 0.41164324 -0.022029301
0000c0 68 b6 ae 3c 92 37 b2 3e 67 0a 9c 3e 30 77 2a be
       0.021327212 0.34808022 0.30476686 -0.16647029
0000d0 91 d8 f3 bd e2 92 93 3e 1a bf 14 3d 04 aa fb 3e
       -0.11906541 0.28823 0.03631506 0.4915315
0000e0 f9 81 b9 3e 11 97 3c bf 52 6a f3 be df 7b 26 be
       0.36231974 -0.7366801 -0.47542053 -0.1625819
0000f0 a7 99 80 bd 7f fc 50 3e 77 22 ae bd 21 e6 f8 be
       -0.06279307 0.2040882 -0.085026674 -0.48613074
000100 e3 65 04 3d f9 d4 3a 3e 8a fa ab be 13 a8 b1 bd
       0.03232373 0.18245305 -0.33589584 -0.08674636
000110 b3 78 ad 3e bb d0 6c be 17 9c 24 3b e2 69 9e be
       0.3388115 -0.231265 0.002511745 -0.30940157
000120 ae e3 6d 3d 20 00 ae be 17 08 ae 3d 18 4a 69 3d
       0.05807846 -0.3398447 0.08497637 0.056955427
000130 3b 42 f7 bd 21 7c 0e 3f bd d2 d7 be ed c4 24 3c
       -0.12073179 0.55658156 -0.42152968 0.010056716
000140 d2 8c 19 bf ae 77 5f 3e 03 0f 80 bc 50 de 1b bf
       -0.599805 0.21822998 -0.015632158 -0.60886097
000150 84 59 bc 3c 00 7a 94 bd 52 ec be be b0 c0 b1 3b
       0.022991903 -0.07249832 -0.37289673 0.0054245815
000160 3b 4f c1 3d d3 98 36 bf e5 e7 93 bf 2e 20 1b be
       0.0943894 -0.7132694 -1.1555144 -0.15148994
000170 93 dd c3 be 5f 90 73 be bf 8f 03 3e 1b 7a 06 bc
       -0.38254985 -0.23785542 0.12847804 -0.008207823
000180 f1 31 5f 3e 28 e4 be bd 30 5f 4a 3e b3 81 45 be
       0.21796395 -0.09320861 0.19762874 -0.19287758
000190 8a fd 6c 3c df c7 d8 3d a8 89 10 3e 1a 20 3d 3f
       0.014464745 0.105849974 0.14115012 0.7387711
0001a0 18 8a 45 bf 58 25 cf be 3b 5a a5 3e c0 db 80 3e
       -0.7716384 -0.4045818 0.32295403 0.25167656
0001b0 8e 94 96 be 29 88 16 be 78 55 bb be 1c 18 3a be
       -0.29410213 -0.14700378 -0.36588645 -0.1817326
0001c0 99 0e af 3e 77 ba 87 3e b3 3b 4a 3f b0 27 03 bd
       0.34190825 0.2650945 0.78997344 -0.03202027
0001d0 d8 48 05 3c 40 0c f1 be e3 06 af bd da eb 18 bf
       0.008135043 -0.47079659 -0.085462354 -0.5973488
0001e0 a4 9a 5a 3d 5a 33 22 3e f4 36 13 3e 51 57 5c be
       0.053370133 0.15839902 0.14376432 -0.21517684
0001f0 57 60 61 bd 01 cd 32 3e f4 f9 52 3e 37 f3 d8 bd
       -0.055023517 0.17461015 0.20603162 -0.105932645
000200 07 e7 66 bd be c1 1c be eb bc 93 3d 23 99 af be
       -0.05637267 -0.15308282 0.072137676 -0.34296522
000210 ed 99 42 bd 6c 7c ec bc c0 b9 68 bc 19 11 10 bc
       -0.047510076 -0.028867923 -0.0142044425 -0.008793139
000220 b2 89 1f be 54 72 8b 3d e9 07 b3 3c 9f c3 3c 3e
       -0.1557987 0.06808916 0.021854358 0.18433999
000230 60 9b 82 be b9 c6 e9 bf 70 19 55 bf 4e 72 94 bd
       -0.25509167 -1.826377 -0.8324194 -0.072483644
000240 e0 7f 15 bf c2 e6 1d bd 02 7d f8 be b6 62 46 3e
       -0.58398247 -0.038550146 -0.48532873 0.19373593
000250 88 d1 c9 be 48 83 02 bf ae 38 83 3e be 7a 5b bd
       -0.39417672 -0.5098157 0.2562918 -0.053583853
000260 78 23 d4 bd 1e e7 83 be fc 44 21 bf d5 3d 07 3e
       -0.103583276 -0.25762266 -0.62995887 0.13207181
000270 75 46 01 3e a2 61 c7 be 6d 39 dc bc 4f d4 47 bf
       0.12624533 -0.38941675 -0.026882851 -0.7805833
000280 d7 b9 15 3d 3f 73 6b 3e df 01 1a be 0f 79 29 3e
       0.036554184 0.22993182 -0.15039776 0.16550086
000290 11 c4 2f 3e df 8c 38 be 32 1f be bc 28 8c bd be
       0.17164637 -0.18022488 -0.023208234 -0.37020993
0002a0 1f 75 92 bd e2 b4 83 bd d2 a3 6f 3d 0b 84 f4 3d
       -0.07151245 -0.06430985 0.05850584 0.11939248
0002b0 10 cb 58 bc a0 7f a7 3e ed 36 cc 3d 4b b6 90 3d
       -0.013232008 0.32714558 0.09971414 0.070660196
0002c0 51 bf 25 bf 9b 71 01 3f 04 76 9b bd c6 95 f4 3c
       -0.6474505 0.50563973 -0.07590869 0.029856574
0002d0 73 e0 e1 3d d2 e2 2f 3c 70 a0 3c bd 62 c2 9b 3e
       0.110291384 0.0107352305 -0.046051443 0.3042174
0002e0 0b 1c 4c bf 1c 54 f2 3c 8c 23 cd be 2e 41 a7 be
       -0.7973029 0.029581122 -0.40066183 -0.32666916
0002f0 ec 42 2b 3e 26 e2 2c be 63 b0 f3 3d 44 5e 95 be
       0.16724747 -0.16883144 0.118988775 -0.2917348
000300 64 e5 a4 be 9c 7f 58 3e 24 8b 19 3e 05 f4 88 be
       -0.3220626 0.21142429 0.14994484 -0.26748672
000310 a0 2c 4c be 5d e3 28 be fe 73 7b 3e 6d 0e ad bd
       -0.19938898 -0.16492982 0.24555966 -0.08450017
000320 ff 0e 18 3e 81 f1 0b be 8f 79 9d 3d 55 0c bd 3e
       0.1484947 -0.13666345 0.07689201 0.3692347
000330 7a 25 05 3e a1 83 4e bf 39 e2 17 3e b5 a8 45 be
       0.13002577 -0.806696 0.14832391 -0.19302638
000340 63 d4 24 bb 56 a3 ab bd f5 af 67 bf b7 21 27 3e
       -0.0025151006 -0.08380763 -0.90502864 0.16321455
000350 6d 51 42 3e ff 11 74 bc 06 f5 0b bf e8 7c 0e bf
       0.18976374 -0.014896869 -0.5467075 -0.5565934
000360 95 7c af be 60 cb 88 be 8b 21 f2 3d 08 81 7e 3c
       -0.34274736 -0.26717663 0.11822804 0.015533693
000370 81 6b 63 be bb 8d 7d 3e f8 a4 b3 bd 7a 06 9f be
       -0.22208978 0.24761097 -0.087717 -0.3105963
000380 32 59 a5 3e 7b 23 bf 3d 21 0d 10 3e f5 ce be be
       0.32294613 0.09332939 0.14067508 -0.3726727
000390 4e 6c 37 be a2 9a a2 3d 3f 28 9b be 43 48 a0 be
       -0.17912409 0.0793965 -0.30304143 -0.3130513
0003a0 5d c3 24 3e eb 98 92 be d3 34 ac be 06 55 d4 be
       0.1609015 -0.28632292 -0.33634052 -0.41471118
0003b0 af 50 0f 3f 05 6a a1 bc a9 7b 38 bd 9a 8a 28 bd
       0.5598249 -0.019703874 -0.045039807 -0.041147806
0003c0 65 fe 45 be f9 b3 0b 3e 41 c3 94 be e4 ef ec 3d
       -0.19335325 0.13642873 -0.29055217 0.11569193
0003d0 00 dc 07 bf 78 40 fb bd d6 c9 76 3e 73 a1 0c 3e
       -0.5307007 -0.12268156 0.24100432 0.13733463
0003e0 69 60 62 3d 9e 6a 6e 3e d9 a9 68 3f e6 29 05 bf
       0.055267725 0.23282859 0.90884167 -0.52017057
0003f0 e1 f0 d7 3c 28 40 dd 3c 85 5c 20 3e 61 ad 07 bf
       0.026359977 0.027008131 0.15660293 -0.5299893

weight f4 [64, 32, 5, 5]
000000 b2 96 b7 3b a6 8d c0 3d 59 73 8d bd f9 14 6c 3e
       0.005602681 0.09402017 -0.069067664 0.23054875
000010 88 14 42 be 8b 2e 63 3e eb 0c 55 3d 82 75 39 3e
       -0.18953145 0.22185723 0.052014273 0.18111232
000020 18 1f 13 be f8 39 fb 3d bf 3e b1 3d 4b 9d 68 be
       -0.1436733 0.12266916 0.08654546 -0.22716253
000030 aa 48 1e be 1f 4d b4 3d 09 a1 2b 3f f3 42 e8 bd
       -0.15457407 0.08803772 0.67042595 -0.113408946
000040 40 e2 64 3d 9d c8 2c 3d 83 70 1a be 43 fc a2 3e
       0.05587983 0.042183507 -0.15081982 0.31833085
000050 6c 9c 47 bd 6f 83 fc be 78 2a 05 be f0 6b 04 3f
       -0.04873316 -0.49319026 -0.13004482 0.517272
000060 b1 2a 86 3e df 49 8d 3e e5 ba db be f8 d2 68 3e
       0.26204446 0.27595422 -0.42916027 0.22736728
000070 3f 14 1d 3e 65 88 16 3d 2a 1f 9d bb 59 cb c4 3e
       0.15339755 0.03675117 -0.004794975 0.38436392
000080 db cd 69 3e 1c 46 37 bf b4 d2 0a bd 09 80 7a 3e
       0.22832434 -0.71591353 -0.03389235 0.24462904
000090 3a 96 63 3e ff b0 2d 3f 83 21 bc 3d 3b 4e d9 be
       0.22225276 0.678482 0.09186079 -0.42442498
0000a0 73 52 30 3e 05 57 b1 3e f6 89 24 bf ca dc bb 3e
       0.17218952 0.34636703 -0.6427301 0.36691886
0000b0 29 1e ed 3d c4 61 fb bc 1b b8 21 3f 6b 88 ab 3e
       0.11578018 -0.030686267 0.6317155 0.33502516
0000c0 1b 54 2b 3d 32 3e 50 bd 49 18 73 be 86 31 cf bd
       0.041828256 -0.050840564 -0.23739733 -0.10116868
0000d0 1c 85 01 3f d7 29 84 3e 03 7f 90 be fa 05 aa 3d
       0.50593734 0.2581317 -0.28221902 0.08301921
0000e0 21 81 d0 bd b8 08 17 bf 50 bc 82 bf c3 64 10 bf
       -0.101808794 -0.5899768 -1.0213718 -0.5640375
0000f0 af 00 d6 3d e7 16 4f 3d ad 8e 32 bf aa d0 28 3e
       0.10449349 0.05055895 -0.69748956 0.16485849
000100 d7 43 f4 be 50 8e 7c 3e 5a b7 3c 3e 45 03 11 be
       -0.47708008 0.24663663 0.18429318 -0.14161403
000110 13 d7 82 be b8 ba 7c be b5 96 d2 3e 04 86 b6 3d
       -0.25554714 -0.24680603 0.41130605 0.0891228
000120 ec fe c0 3d ec 63 fc 3d 3c 79 16 be 8f 6a d3 be
       0.094236225 0.12323746 -0.14694685 -0.41292235
000130 49 9d f7 be b4 32 c7 bd 85 91 a2 3e ac 0f 5f be
       -0.48362187 -0.09726468 0.31751648 -0.21783322
000140 66 cb ef 3e 40 97 b9 3d e6 7e a7 3e ef 5f 39 3f
       0.46834868 0.09062052 0.32714003 0.7241201
000150 4a 0b 4f 3e 6f 5a 77 3e c9 b6 0b ba c5 06 10 bf
       0.2021915 0.24155591 -0.00053296663 -0.5626033
000160 be ed 10 bf 4e 9e 9a bf d7 cc b1 be 76 26 02 be
       -0.56612766 -1.2079561 -0.34726593 -0.12709984
000170 f9 75 8c bf ff 46 3e 3d 17 bc bb 3e 64 71 13 3d
       -1.0973502 0.046454426 0.3666694 0.03599681
000180 d7 c3 cc bd 14 9f 9e bc 6b 26 0d 3f 08 05 02 3e
       -0.09998291 -0.019362964 0.55136746 0.12697232
000190 01 e9 49 be a6 72 81 3e 48 1d a5 3e d4 9c 43 bd
       -0.1971779 0.25282782 0.32248902 -0.047756985
0001a0 61 b7 f6 3d 81 bd e9 be 50 82 1b be b2 7d 6b 3d
       0.120466955 -0.45652393 -0.15186429 0.05749292
0001b0 4f 7a 04 bd ab f0 30 3f 34 60 6f 3e 62 81 c6 be
       -0.032343205 0.6911723 0.23376542 -0.38770586
0001c0 3a 2e 53 be 6d 85 da 3c bb 26 92 be 03 79 13 bd
       -0.20623103 0.02667495 -0.28545174 -0.036004078
0001d0 fb bd 4e 3e bb 0d 57 be 86 04 05 bf 92 72 19 bf
       0.2018966 -0.21001332 -0.5196003 -0.59940445
0001e0 f5 af df be 6d 47 67 be db 70 c2 bd 2a a0 b9 3e
       -0.43688932 -0.2258584 -0.09494182 0.36255008
0001f0 f6 46 fc be 1f c3 b7 bd cc b5 05 bf b3 65 bb be
       -0.4927289 -0.08972763 -0.52230525 -0.36601028
000200 31 19 d9 3e 17 29 2d bf 62 27 f8 3e f4 e8 ce be
       0.42402032 -0.67640823 0.48467547 -0.40412104
000210 8f 88 46 3e 2a c1 94 be e8 60 4e be 0a 61 27 bb
       0.1938803 -0.29053622 -0.20154154 -0.0025540018
000220 8b 1c 63 3e eb c0 0e 3e 3e 9d 6b 3c 92 75 4e be
       0.22178857 0.1394078 0.014380751 -0.20162037
000230 ac 2f 07 bf f4 99 71 be 24 6f 67 3d 32 97 80 bd
       -0.52807117 -0.23593885 0.056502476 -0.06278838
000240 81 04 9e bc 74 f6 00 bf 46 b6 fa bd 7b c5 1e 3e
       -0.019289257 -0.5037606 -0.12241797 0.1550502
000250 21 7f 49 bd 51 f6 de 3d d0 8f 00 bd 66 a3 df be
       -0.049193505 0.10886825 -0.03138715 -0.4367935
000260 83 f9 a2 3d e3 34 f0 3d fb 27 62 be 62 15 b0 3d
       0.07957747 0.11728837 -0.22085564 0.085978284
000270 a8 a0 52 3a f5 cb 1a 3e 24 6f b5 bd bb bc 90 3d
       0.0008034804 0.15116866 -0.08859089 0.070672475
000280 fc 07 e7 bc b2 39 87 3e 35 8c 7f 3e 73 29 88 be
       -0.02820205 0.26411206 0.24955828 -0.26594123
000290 47 1c 42 be 28 6a 15 3d 9f 36 97 bd 79 f5 5a bd
       -0.189561 0.03647819 -0.07383465 -0.053456757
0002a0 e1 15 08 be f8 df ac be 09 73 a4 3e 9a cd 28 3e
       -0.13289596 -0.33764625 0.32119015 0.16484681
0002b0 32 f8 90 bd dc c2 bf bd ea 1d b6 3d ac 26 81 bb
       -0.070785895 -0.09363338 0.088924244 -0.0039413776
0002c0 1b 0f c4 be f2 5e 16 3e 04 09 60 be a4 75 3c 3c
       -0.38292775 0.14684656 -0.21878439 0.011502657
0002d0 d2 84 2e 3e be f3 bc 3d cf dd 02 3e db 1b cf bd
       0.17042854 0.09226178 0.12779926 -0.10112735
0002e0 63 3b 06 bf 38 43 e9 3d eb 79 5d 3c c4 2e 8c be
       -0.52434367 0.11389774 0.013517837 -0.2737943
0002f0 ae 93 43 3e e1 87 9c 3e df fb 67 3d 9a b4 7f be
       0.19099304 0.30572417 0.056636687 -0.24971238
000300 69 ab 31 be a8 22 bc bd 75 e0 e9 3c a7 8a 38 3e
       -0.17350544 -0.09186298 0.028549412 0.18021642
000310 bb 50 a1 be d5 1d 03 be 0c d8 57 bf bb 36 87 be
       -0.31506905 -0.12804349 -0.84314036 -0.26408944
000320 ca 30 a6 3e 24 08 bd 3e 84 db 3b be 20 08 c0 be
       0.32459098 0.36920273 -0.18345457 -0.375062
000330 e4 6d cd 3d 79 f5 c3 3e 05 a2 59 bf a7 62 47 3e
       0.100307256 0.38273218 -0.8501285 0.19471227
000340 3d d6 0e bf b5 29 f0 3e da 3d 87 3e 87 47 05 3e
       -0.5579565 0.4690682 0.26414376 0.13015567
000350 ef d9 a3 be bf b1 ef bd 29 cc 13 bf ff 71 8b 3e
       -0.32002208 -0.11703824 -0.577334 0.2723541
000360 bc bb 01 bf 4c b9 8f 3d 9c ec c3 ba 0c 1e fa 3e
       -0.50677085 0.070177644 -0.0014947834 0.4885105
000370 9f ce 26 3f 70 54 0a be ee 96 18 3e e0 9d a1 3e
       0.6515903 -0.13508773 0.14901325 0.31565762
000380 37 42 71 3e 26 ee c6 3e 07 d9 c4 bd b0 13 be 3b
       0.23560415 0.38853568 -0.09611707 0.005800687
000390 95 40 2d be 61 49 17 3f 5a bf 48 3e ed fc a6 bd
       -0.16919167 0.5909634 0.19604245 -0.081537105
0003a0 ab 9d 83 3e 8e f2 99 3c 9a 8c a3 bb fd bd c4 3c
       0.2570623 0.018792417 -0.0049911262 0.024016375
0003b0 8b 83 95 bd 80 c6 28 bd 0b c5 c0 bc 31 4b e5 3d
       -0.073004805 -0.04120493 -0.023531457 0.11195982
0003c0 a3 4f f2 3e 38 03 23 3e ec d9 0d bf 81 43 aa 3d
       0.47326383 0.15919197 -0.5541065 0.083136566
0003d0 3e eb e6 b9 0b e3 85 be dd aa c9 3d f6 9c 85 3e
       -0.00044044288 -0.26149783 0.09847043 0.26096314
0003e0 53 91 85 3e 8a 78 c8 bc 60 71 e6 3d 96 a5 61 3e
       0.26087436 -0.02447154 0.11252093 0.22035822
0003f0 53 9e 8d 3e 0e 55 4b be da 67 de 3e e5 28 ec 3e
       0.27659854 -0.19856665 0.43438607 0.4612495

weight f4 [256, 256]
000000 68 d9 11 bc f5 e8 06 3d 1e 39 37 3c 08 c2 9d 3d
       -0.008901931 0.03293701 0.011183051 0.07703024
000010 a3 0c b6 3d b2 12 aa bc 96 b9 90 bd 68 87 d0 bd
       0.08889129 -0.020760868 -0.07066648 -0.10182077
000020 4c bf 57 3c e3 51 fb bd f1 34 85 bd af ee 3e 3d
       0.013168167 -0.12271478 -0.065042384 0.046614345
000030 ab d7 30 3e b3 aa 1f 3e 4d 75 48 bd 40 f9 46 3c
       0.17269771 0.1559246 -0.04893999 0.012144387
000040 30 1e 1d be dc 28 5c 3e 68 21 e8 3d dc 2b e1 3b
       -0.15343547 0.21499962 0.11334497 0.0068716835
000050 7f 56 f8 bd c5 10 40 3d 00 77 f5 bc ff 40 c1 bd
       -0.12125873 0.046890993 -0.02996397 -0.09436225
000060 6b ab 96 3d c1 32 15 be 33 4a 23 be c2 21 07 bd
       0.07356914 -0.14570142 -0.15946274 -0.03299118
000070 4e b5 92 3c 60 ca be 3c c7 cb 52 bd 76 96 8d 3c
       0.017908718 0.02328986 -0.05146387 0.01728366
000080 2e 6a fb 3e 89 3d cb bb 9d 3a 16 ba f6 b7 a3 3e
       0.49104446 -0.006202404 -0.000573078 0.3197629
000090 ad c0 00 bd 7a e0 99 bc 6d d4 71 3c 18 8e 00 bb
       -0.03143375 -0.018783797 0.014760119 -0.0019615944
0000a0 4a 07 30 3e 2d 9e 7d be 3b da fc bc ab cf 88 bc
       0.1719028 -0.2476737 -0.03086578 -0.016700586
0000b0 2b 13 c5 3c bb 20 ff 3c cc f5 56 bd 11 69 71 3d
       0.024056992 0.031143537 -0.052480504 0.05893809
0000c0 37 b3 c9 bd 2a 5d 9d 3d ed 9b c9 3c 31 19 91 3d
       -0.09848636 0.07683785 0.024610484 0.07084883
0000d0 ad 36 84 bc 80 46 ed 3b 38 d7 7c bd cd 84 b9 bd
       -0.016139353 0.0072410703 -0.061728686 -0.09058533
0000e0 2b 26 29 3c b3 b4 13 bf 04 7c a3 3e 44 d8 40 bd
       0.010324041 -0.576976 0.31930554 -0.047081247
0000f0 0a 87 88 3e ec c6 04 3f 0d 7e d5 bd 56 91 8e be
       0.26665527 0.5186603 -0.10424433 -0.27845258
000100 23 6e 9a bd 89 93 99 bd 93 ff b1 bd 75 8e 9b 3d
       -0.07540538 -0.07498843 -0.08691325 0.07595531
000110 81 03 26 3e b2 2a a2 3c f9 cc 39 3c 36 f6 8b bd
       0.16212274 0.01979575 0.011340373 -0.068340704
000120 a2 ec 96 bd 7c 62 87 bd 96 71 93 3d 2d 8a 90 bb
       -0.07369353 -0.06610581 0.07199399 -0.004411003
000130 4a d1 2a be f6 66 98 3d 2b dc 36 bd b9 0a 2f 3c
       -0.166814 0.07441513 -0.044643562 0.010683709
000140 d5 22 38 3d 02 26 e2 bc ce ea fb 3d aa 0f dd 3d
       0.044955093 -0.027606014 0.12300645 0.10794003
000150 db d1 20 be 2d c8 1a bd 4a 58 0c 3d 29 4a 07 3c
       -0.15705054 -0.03778856 0.034263887 0.008257427
000160 1c 06 7d bb 31 d3 39 3d 0e 3c b2 bd 32 f0 d1 ba
       -0.0038608378 0.045367423 -0.08702861 -0.0016017018
000170 dd 54 12 3d 4f a4 36 bd 74 ed 2b 3d 63 12 b7 bd
       0.035725463 -0.04459029 0.0419745 -0.08939054
000180 86 ee d7 3e c7 55 ae 3d 8e 98 33 bd ca a1 e1 3c
       0.42174166 0.085124545 -0.04384666 0.027542967
000190 11 dc ca 3e f4 6a f4 bd 7e 32 6d 3e c5 70 0b bf
       0.39621022 -0.11934462 0.23163792 -0.5446895
0001a0 38 84 e8 3d 96 2c a1 3d 99 13 be 3b 72 4f e1 3d
       0.11353344 0.07869832 0.005800676 0.11001481
0001b0 2d d9 09 3e a5 9f 40 3c 36 01 25 3e d4 a0 4d 3e
       0.13461752 0.011756812 0.16113743 0.20080882
0001c0 09 65 72 bc f1 d1 54 bd 62 5b 71 bd 65 7e 66 3d
       -0.0147945965 -0.05195803 -0.05892504 0.056272883
0001d0 27 13 b7 bd 6b ac ef 3c ed bd 16 bc 67 29 65 39
       -0.089392 0.02925702 -0.009200555 0.00021854565
0001e0 bd 8f f8 bd f0 67 6f 3d 31 e3 8c be be 1f 90 be
       -0.12136791 0.058448732 -0.27517083 -0.28149217
0001f0 5a 12 5d 3d cc c9 08 3d 5e 5c 94 bc 5f 7f be bd
       0.05397258 0.033395573 -0.01811045 -0.09301638
000200 4d 9a 0b bd d6 19 9a bc ab 09 10 be 95 90 6e 3e
       -0.0340827 -0.018811148 -0.14066188 0.23297341
000210 c4 aa a6 3d de cf b3 bd ff b6 9a bd 26 09 b8 bc
       0.0813804 -0.08779882 -0.07554435 -0.0224653
000220 2d 87 cf bc 4f 1f da 3c 76 4d 15 3b 46 af f5 3c
       -0.025333012 0.026626257 0.0022781766 0.029990803
000230 79 2e c7 bd ec db 85 bc 04 7d c1 3d e2 be d4 3c
       -0.09725661 -0.016340218 0.09447673 0.025969926
000240 4c 91 96 3d 0b bb 6e bb ae 5f f0 3c 0d df 68 be
       0.07351932 -0.0036427404 0.029342499 -0.22741337
000250 53 f4 1d bd 35 4e 84 3d 20 aa b2 bc bb 52 d0 bc
       -0.038563084 0.06460229 -0.021809638 -0.025430074
000260 7b ad 80 3d 98 94 af 3d 8b c2 a0 3d ec 9c 21 be
       0.06283089 0.08573264 0.07849606 -0.15782517
000270 26 35 5a 3d 2b 73 a7 bd b0 6d d0 bd 88 38 e6 3d
       0.053273343 -0.081762634 -0.10177171 0.11241251
000280 b2 fd 77 bd 04 17 12 3d 8c d0 63 bd 11 60 a4 3d
       -0.060544677 0.03566648 -0.055618808 0.08026136
000290 29 46 d9 bd bc 80 34 3d c2 42 99 3d 20 9e 7a bb
       -0.10609085 0.044068083 0.07483436 -0.0038241223
0002a0 fe 99 b5 3d d4 9d d3 3d 63 c6 41 3d 4b cf b1 3d
       0.08867262 0.10332838 0.047308337 0.08682116
0002b0 8b 1b 84 bd 4d d9 19 bd 32 4e 08 3d 58 22 cd be
       -0.06450566 -0.03756075 0.033277698 -0.40065265
0002c0 09 a3 85 3d 9f 44 84 3b 18 4b b0 3d ca 70 a7 bd
       0.06525237 0.0040365006 0.08608073 -0.0817581
0002d0 b0 d2 b4 bc b8 ec 8f bd af ec 84 3b 5f d4 f6 3c
       -0.02207312 -0.070275724 0.004056535 0.030130563
0002e0 6a 21 4f be 2a ba d1 bd 20 71 11 3d 76 b8 ed bd
       -0.2022759 -0.10240586 0.035508275 -0.11607449
0002f0 23 9e b5 3b b7 cd b0 3d c7 64 80 bd 41 31 e6 bc
       0.005542533 0.08632987 -0.06269222 -0.028099658
000300 ae c9 47 bd 82 12 54 be 6d 8b 3d 3d e4 54 b3 3e
       -0.04877632 -0.20710185 0.046275545 0.35025704
000310 37 f6 08 3c 02 8c 67 bc 53 4f 3c bd cf 76 20 3d
       0.008359483 -0.014132502 -0.045974087 0.039175805
000320 4d 36 da bd ed 03 29 be f4 7b a9 3d 9e 5c 73 3c
       -0.10654888 -0.16505404 0.08275595 0.014853625
000330 4f 3e 1a bd 98 6a 0e 3e e7 32 eb 3d 87 7a 5b 3c
       -0.03765708 0.1390785 0.11484318 0.013395912
000340 02 9b f8 3d ea 9c 48 3d 41 06 be 3c 7b 32 90 bc
       0.121389404 0.04897777 0.023196341 -0.017602196
000350 e0 fd 9a 3e 9b 1b 12 3d 92 66 8b be ee 33 53 be
       0.30271816 0.035670858 -0.27226692 -0.20625278
000360 2c 4b 24 3e c7 c6 27 3e 41 af fd bd 43 6e 0c 3e
       0.16044301 0.16384421 -0.12386943 0.13713937
000370 32 be c9 bc b4 74 47 3d b6 66 19 bd 4f 58 11 3c
       -0.024626825 0.04869528 -0.03745147 0.008871152
000380 71 c8 db 3b 03 4a 44 3d df 56 bc 3d 1a ef 10 bd
       0.006707244 0.047922146 0.09196257 -0.035384275
000390 57 2b 3f 3d 65 77 55 3d 1f 15 0c 3d 9c 74 b0 bd
       0.04667219 0.052115817 0.03419983 -0.086159915
0003a0 6f 4c 61 bd 0f 0e 38 3d 08 1a 8a 3d 12 38 81 3d
       -0.055004533 0.044935282 0.06743246 0.06309523
0003b0 f9 eb 1d be 83 6e 77 3d 49 c7 91 3e 2c f6 93 bc
       -0.15422048 0.060408127 0.28472355 -0.01806172
0003c0 84 4d 38 3e bd 8b ae 3c 08 0d e4 bd ae e9 57 bd
       0.1799832 0.021306867 -0.11135298 -0.05271309
0003d0 2a ad 87 bd 95 a1 88 3d 86 5b 59 3d 9e 71 0e 3c
       -0.06624825 0.06671444 0.0530658 0.008694081
0003e0 79 31 f7 3d 96 55 0f 3d 4c b4 b7 3d e2 b7 b5 3d
       0.12069983 0.03499373 0.08969936 0.088729635
0003f0 62 6d 04 3c 90 e7 27 bc fd 5e de 3c a1 33 5d 3b
       0.0080827195 -0.01024808 0.027144903 0.0033752697

bias f4 [256]
000000 9f c1 93 ba de d3 60 3c 3f 46 a6 3d 3b 24 84 bc
       -0.0011272914 0.013722388 0.08118867 -0.016130557
000010 a0 c6 35 bd 72 59 e6 bd d0 67 6f bd ac 94 8f 3d
       -0.044378877 -0.11247529 -0.058448613 0.07010779
000020 e7 22 1c 3e 24 84 03 be fd e2 c7 3c f7 46 49 bc
       0.15247689 -0.12843376 0.024400229 -0.012284986
000030 49 89 b2 3d 2e 87 a7 bd f1 c1 f1 bc 11 68 12 bd
       0.08717591 -0.0818008 -0.029511424 -0.035743777
000040 89 7f 18 bc 7a 90 56 bd 44 df 9d 3d 87 21 94 bd
       -0.0093077505 -0.052383877 0.077086 -0.07232957
000050 ca 0c b4 3c e9 59 88 bd 38 24 a2 3d 14 e6 5b 3e
       0.021978755 -0.06657774 0.079170644 0.21474487
000060 dd eb 24 be 9a ea 0a 3e ec 15 39 3d eb 7a a1 bd
       -0.161056 0.13566056 0.045186922 -0.07884773
000070 d6 2c e5 bd e1 d2 da bd 38 ab 09 3e 9f ee 10 3e
       -0.111901924 -0.10684753 0.13444221 0.14153527
000080 c1 5b 70 bd da f9 60 bb 83 53 9f 3d f9 40 11 bb
       -0.058681253 -0.003432861 0.077796005 -0.002216397
000090 7b 61 07 be 8e 47 13 bc 9c 04 63 bd 3c c9 2a be
       -0.1322078 -0.008989228 -0.055424318 -0.16678327
0000a0 62 7e 57 bd c7 38 39 3d d8 5a e2 3c d7 97 e2 bd
       -0.052610762 0.045220163 0.027631208 -0.110641174
0000b0 43 96 14 bd b6 fa 1a 3d d5 56 f5 3d 5d 1f 27 3e
       -0.036276113 0.037836753 0.119794525 0.16320558
0000c0 b8 6a b3 bc f8 70 a9 3d 0e 86 1a bd 44 c2 09 3d
       -0.021901473 0.082735 -0.0377255 0.03363253
0000d0 5f 1a 14 be 4a 14 f0 3d 37 91 f4 3d fb 72 23 bd
       -0.14463185 0.1172262 0.1194176 -0.039904576
0000e0 23 62 80 bd bc 36 38 3d 64 18 61 3e 86 1e cd 3c
       -0.06268718 0.044974074 0.2198196 0.025038969
0000f0 64 ac 67 bc c1 05 88 3d 66 19 0a be 13 c9 fa 3b
       -0.014140222 0.066417225 -0.13486251 0.0076533644
000100 d7 ba d2 3a dd f3 21 3d ad 7d 42 39 d2 ad 63 bd
       0.0016077411 0.039539207 0.000185481 -0.05558569
000110 b8 06 bc bd a3 c8 76 be dd 75 71 bd 63 f8 85 bc
       -0.09180969 -0.24099974 -0.058950294 -0.016353792
000120 17 2d 97 bd d6 13 a8 3d 9d be 0f 3d 1e 37 6c 3d
       -0.07381647 0.082069084 0.035093892 0.05766975
000130 53 c3 db 3b 02 2f 16 3d 4e 2f 7d 3d ac 45 1f bd
       0.006706634 0.036665924 0.06181269 -0.038884804
000140 8c bd 28 be d3 c6 25 3d 5e 7b 7f bc 07 19 08 bd
       -0.16478556 0.040472817 -0.015593378 -0.033226993
000150 e5 14 f7 bd 69 9b de 3d d3 15 a5 3d ca 37 2c 3d
       -0.12064532 0.10869486 0.08060803 0.042045392
000160 5d d4 3a 3e bf 13 6b bd 49 ee 9a 3d 7b 2e ed bc
       0.18245073 -0.05739188 0.075649805 -0.028952828
000170 bf ae 40 3d 9f 84 f0 3d b9 72 a5 3d f1 7a 4c 3d
       0.04704165 0.117440455 0.08078522 0.049921934
000180 cc fa 14 be ca 5a 80 3e 18 8e 13 be 7a e9 aa bb
       -0.14548796 0.25069267 -0.14409673 -0.005215821
000190 1f e6 64 3d d4 04 0b be c9 46 0e be a2 73 00 bd
       0.055883523 -0.1357606 -0.1389419 -0.031360276
0001a0 4e e3 a0 bd 12 02 7f bd 49 96 be bd 2d c2 f6 3d
       -0.07855855 -0.062257834 -0.09306008 0.12048755
0001b0 ef 47 1d 3e 63 f0 17 3d 02 1f bd bd 70 3f c0 3d
       0.15359472 0.037094485 -0.0923443 0.093871
0001c0 7f 78 03 bd 18 ac 71 3c ec b1 6a bd be 23 34 3d
       -0.032097336 0.014750503 -0.057298586 0.0439794
0001d0 df 30 d3 bd d3 85 01 be ae 49 4b bd 8c 8e 9e bd
       -0.10312056 -0.12648706 -0.049630813 -0.077420324
0001e0 d9 73 dc bc 14 6c 2c 3e e0 11 4e 3d d7 af a9 bc
       -0.02691071 0.16838104 0.050310016 -0.02071373
0001f0 49 29 54 bc 9d 18 eb 3c ba 81 22 bd fc 13 e0 bb
       -0.012949296 0.02869826 -0.0396745 -0.00683832
000200 bb 45 c3 bd 58 76 f2 3c 02 18 70 3d 30 87 d4 3d
       -0.095347844 0.029597446 0.058616646 0.103773475
000210 4e 87 f1 bd a4 d5 28 3c c9 8d c9 3d 10 ca b3 3d
       -0.117933854 0.010304842 0.098414965 0.08778775
000220 dc 1f d3 bd 17 70 11 bd d3 47 67 bd 69 1e d0 bd
       -0.10308811 -0.035507288 -0.05646498 -0.1016205
000230 b5 e2 02 3e f3 2e 29 bc e7 50 24 bd c0 a3 e8 bd
       0.12781794 -0.010326135 -0.040116217 -0.11359358
000240 05 1e 8a 3d 12 81 42 3c 32 40 8e bd b0 dd 4d 3e
       0.06744007 0.011871593 -0.06945838 0.20104098
000250 4d 21 48 3d 0e 31 2d 3e 06 a5 dc bc d3 55 82 3d
       0.048859883 0.16913244 -0.026934158 0.06364026
000260 6b 40 48 3d ee f1 38 3d 01 ed 41 bd 9b f5 1b bc
       0.04888956 0.045152597 -0.047345165 -0.009519006
000270 7b 75 f1 3d bd 48 d8 3b c9 4f 06 be 37 cf c3 bd
       0.11789986 0.006600468 -0.13116373 -0.095610075
000280 6f 0b 14 3d aa 71 a3 bc 8a 74 e6 3c a8 5e a6 bc
       0.036143716 -0.01995166 0.028131742 -0.020308807
000290 9b 24 a2 3d 67 49 31 be 9f 8c a1 3d 5d 88 37 bd
       0.07917138 -0.17313157 0.078881495 -0.04480778
0002a0 86 ec 81 bc 1d 88 76 bd d3 ec 48 bc a1 20 20 3d
       -0.015859853 -0.0601884 -0.012263495 0.039093617
0002b0 24 0d c9 bc 95 9a 43 bd 80 d4 51 3d 43 ba d7 3d
       -0.024542399 -0.047754843 0.051228046 0.105335735
0002c0 e5 47 6b 3d e4 33 b0 bd 1c 56 c1 bd 3b dc ff bd
       0.05744161 -0.08603647 -0.09440252 -0.124931775
0002d0 e8 3a 9b 3d 6f bf 12 3d df a9 32 3e 55 87 1b bd
       0.07579595 0.035827097 0.17447613 -0.03797086
0002e0 51 6d f5 3c 7f a8 bb bd c6 8e 33 3e 2b 14 fb bc
       0.029959353 -0.091629975 0.17534932 -0.030649265
0002f0 01 7b 5e bd 92 52 90 bd 77 68 d3 bc 48 39 af bb
       -0.054316524 -0.07046999 -0.025806649 -0.0053474046
000300 e4 50 af bc 51 2e 07 3e 18 ea d4 bd f4 5e e6 3d
       -0.021400876 0.13201262 -0.10396212 0.112485796
000310 3a 7f eb 3c 30 7f 5f bd 76 1e a2 3b 3c 97 03 3d
       0.02874719 -0.054564655 0.004947479 0.03212665
000320 3e bb 86 3d 14 e6 c8 bd 6b 02 da 3d 72 bd 28 bd
       0.06578682 -0.09809509 0.106449924 -0.041196294
000330 d3 b5 8b 3c a7 9f 40 bd eb 8b ed 3c dd 09 88 3d
       0.017054474 -0.047027256 0.028997382 0.06642506
000340 fb bd 24 3e be 5c d6 3c 07 e4 8e bd d2 af b2 bd
       0.16088097 0.02616727 -0.069770865 -0.08724941
000350 67 94 29 bd 8c 08 07 3e e2 73 e1 bd eb d8 e2 3d
       -0.041401293 0.13186854 -0.11008431 0.1107653
000360 21 bc be 3c f5 10 33 3e 96 a2 2b 3d 81 9c 5a bd
       0.023283066 0.17486937 0.0419031 -0.05337191
000370 a8 a8 16 3d c2 e5 b0 bc 95 8f 60 3d 40 d0 f5 3d
       0.036781937 -0.021593932 0.05482443 0.12002611
000380 39 aa 09 3e bb 41 1c bc 96 68 b4 3c 33 cc 84 bc
       0.13443841 -0.009537156 0.022022527 -0.016210651
000390 54 dc b1 bc 5e 93 38 3c 61 1a f9 bc 64 e9 1e be
       -0.021711506 0.011265604 -0.030408086 -0.15518719
0003a0 0e 5e 59 bd 48 fd ad 3d 28 5e 70 bd e0 d5 c6 3d
       -0.053068213 0.08495575 -0.058683544 0.09708762
0003b0 8b e5 fd bc bf fc ca 3d 2c 14 1c be 78 0f 48 bc
       -0.030993244 0.09911489 -0.1524207 -0.012210719
0003c0 e0 31 0f bd b1 6c 3e 3c db 36 34 bd b1 97 1a be
       -0.034959674 0.011622594 -0.043997627 -0.15096928
0003d0 13 12 9b 3d 55 f6 03 bb 3d 47 8e 3b 7a 74 80 3d
       0.07571807 -0.002013584 0.0043419884 0.06272216
0003e0 7a 44 cb bd 43 46 35 3d b9 28 a4 bb 23 9f 5b 3a
       -0.0992517 0.04425646 -0.0050097373 0.00083779
0003f0 c0 09 e7 bd b0 f3 f5 bb 1f 7c 59 3d 6a fd e6 3d
       -0.112811565 -0.0075058565 0.053096887 0.11278804

weight f4 [256, 256]
000000 63 bd 06 bd b9 a2 3d bc 79 a5 9e 3b 77 b9 1f bc
       -0.032895457 -0.011574441 0.004841503 -0.009748808
000010 b0 f4 2c bd cd ea b2 bb 4e 2f a5 bc 06 72 e1 3c
       -0.04222554 -0.0054601193 -0.020164158 0.02752019
000020 ec 21 b8 bc 99 94 e9 bc 6b d0 a3 bc ce 33 81 3b
       -0.022477113 -0.02851324 -0.019996842 0.003942943
000030 7e df bd 3b 6e ab 04 bc ea 52 01 3d 5e 1c 2e bc
       0.0057944646 -0.008097513 0.031573214 -0.01062688
000040 5e d9 6f 3b b0 a8 35 bc 7e 9b 93 bb 48 ca 03 bd
       0.0036598067 -0.0110875815 -0.00450462 -0.032175332
000050 92 b4 0e bd 16 ff 3c 3d 50 db 5d 3c 1a 5f 07 bd
       -0.034840174 0.046141706 0.013541058 -0.03304968
000060 73 62 18 3d be 30 20 3c db 95 47 bd 46 e4 03 3d
       0.037203263 0.009777246 -0.048726898 0.03220012
000070 7a be 03 3d de 0d 15 3d 2b de 8f bc e9 93 6e bd
       0.032164074 0.036390178 -0.017561993 -0.058246527
000080 be 03 7c 3d a4 40 2e bd c3 0e 67 bd 64 42 81 bb
       0.061527006 -0.042542115 -0.056410562 -0.003944682
000090 6c 49 ab 3c ea a0 6d 3c 7d a2 70 3b 01 73 7b 3c
       0.020909034 0.014503697 0.0036717944 0.015347243
0000a0 aa 5e 06 bd 42 67 56 bc 2e 2b f5 bc 36 a5 b2 bc
       -0.032805122 -0.013086142 -0.029927816 -0.021807294
0000b0 3f ab cc bb ba 04 84 3c 9f 42 4b 3d f1 22 84 3d
       -0.006246 0.016115535 0.04962408 0.06451977
0000c0 e7 bf ec 3b ca 24 12 3d 6b 93 e3 3c a0 ee 3f bc
       0.007225025 0.035679616 0.027780255 -0.0117146075
0000d0 f0 f1 fb bb 8f 1e d7 3c 84 aa 16 3c a6 b5 0a 3d
       -0.0076887533 0.026259689 0.0091959275 0.03386464
0000e0 d2 6e 24 3b cd 58 2e bc 91 6d ce ba 34 27 0d bd
       0.0025090468 -0.010641289 -0.0015749206 -0.034461215
0000f0 13 1c b1 bc 32 8a 2e bd 46 7a 43 3b b5 7b 82 3b
       -0.021619832 -0.042612262 0.002982752 0.003982032
000100 ce 9c ca 3b 1f 84 46 bd ce 8c a8 bb 44 17 80 3d
       0.0061832434 -0.048465844 -0.0051437384 0.062544376
000110 35 50 1e bc a4 10 e1 bb 28 cd c3 3c 8c 80 11 3b
       -0.0096626775 -0.006868439 0.023901537 0.0022201864
000120 5a d6 c7 bc c6 b6 6d 3d 0c c1 06 3d 89 6d 93 3d
       -0.024394203 0.058035634 0.032898948 0.071986265
000130 83 66 eb 3b 95 96 6e 3b de 09 8a 3b db 5b b8 bc
       0.007183851 0.0036405672 0.004212602 -0.022504738
000140 ab c6 14 bd ab 3d 2c 3c 24 54 6c bb 28 90 89 bd
       -0.036322277 0.01051275 -0.0036060894 -0.06716949
000150 9e 33 ec 3c e9 39 0d 3d 22 ca 4e bc 09 88 9f bc
       0.028833207 0.034479056 -0.012621434 -0.019474046
000160 79 c6 5c 3d 9b e4 12 3d 13 f8 79 bc d6 b2 24 bd
       0.053900216 0.035862546 -0.015256899 -0.040209614
000170 c5 0d 4e 3c 44 a9 2a bd a2 fc df bb 67 54 b0 3c
       0.012576525 -0.04166533 -0.006835536 0.021524621
000180 c5 3a 10 bd 5c ac 39 3b 60 27 26 bd a6 20 8b bc
       -0.035212297 0.0028331494 -0.040564895 -0.016983341
000190 8e 2d 59 ba a0 89 a4 bc f6 d8 a9 bc 27 55 60 bc
       -0.0008284681 -0.020085156 -0.020733338 -0.013692177
0001a0 29 44 f2 3c 2f 92 d1 bc 94 db 33 3c 72 94 0c bd
       0.029573517 -0.025582401 0.0109776445 -0.034321256
0001b0 dc 55 e6 bc 05 53 db bc 2d 28 a1 bd bc ab e6 bc
       -0.028117113 -0.026772985 -0.07868991 -0.028158061
0001c0 45 fb 06 3e 97 71 5a bd ce 14 a9 bb 7a e6 19 3d
       0.13181789 -0.053330984 -0.005159951 0.037573315
0001d0 9b a2 88 3c 0b a8 26 bc ad 7c 5e 3d 0e ae 08 3c
       0.016679099 -0.0101719005 0.05431812 0.008342279
0001e0 e0 32 a5 bb c5 b9 6b 3c 4e bd 64 bc dd d8 30 bb
       -0.005041465 0.014387553 -0.013961149 -0.002698473
0001f0 3c c7 03 3c 8b f2 bd bc 34 b1 26 bc 5a e3 cf 3a
       0.008043107 -0.023186943 -0.010174084 0.0015860603
000200 54 1e e2 3b 03 18 67 3b c6 6b b2 3b c2 1d b8 3d
       0.006900588 0.0035262115 0.0054449765 0.08990051
000210 3e 1c 80 bc d8 b5 76 ba 03 cc 47 bc 65 62 49 3d
       -0.015638467 -0.0009411252 -0.012194636 0.049166102
000220 78 a0 f8 bc c2 27 21 3c df 4c 6b 3b 9d 6c 8c 3c
       -0.030349955 0.009836139 0.0035903973 0.017141635
000230 6c e4 01 3c 1b 85 6f 3d 4e 2b 30 3a 01 f7 0a 3c
       0.007927995 0.05847655 0.000672032 0.008481742
000240 af c5 48 3d 17 0e 12 bc 24 ec 79 bd 92 9b d6 bc
       0.04901665 -0.008914492 -0.061016217 -0.026197229
000250 4c 02 7c bd 06 40 a2 bc f9 70 c2 3c ee bd 01 3d
       -0.061525628 -0.01980592 0.02373551 0.03167527
000260 7c 65 7c bc e8 de 01 bd 78 35 14 3d bf 96 a4 bc
       -0.015405055 -0.03170672 0.036183804 -0.020091413
000270 2d 4d e4 bc 87 69 94 3b a2 91 80 bc ba 83 50 ba
       -0.027868832 0.0045291814 -0.015694443 -0.0007954199
000280 b7 a3 3a bb 08 72 8d bb 0c e6 ab bc 9d 55 d4 bc
       -0.002847893 -0.004316572 -0.020983718 -0.02591973
000290 aa 7e 8e 3d 5b a3 94 3c 49 f6 a8 bb 1f 7a 15 bd
       0.06957753 0.0181443 -0.0051563126 -0.036493417
0002a0 90 f2 7c bd af d8 88 3c cb 07 5e 3d e4 14 11 3d
       -0.061754763 0.016704885 0.05420665 0.035420313
0002b0 02 c6 2a 3d f5 5f f9 3c 75 51 cf bc 41 66 e1 3c
       0.04169274 0.030441264 -0.025307396 0.027514579
0002c0 dc bd 01 bc 38 dc df bc 45 79 f0 bb 44 5b 79 bc
       -0.007918801 -0.027326688 -0.007338675 -0.015219513
0002d0 a5 88 28 bb ba 83 c3 bc 1a fb e9 bc c6 75 a9 3a
       -0.0025716212 -0.023866523 -0.028562117 0.0012928776
0002e0 3e 29 1a 3d 1d 27 e8 3b 7c e3 16 ba 04 1c b1 bc
       0.037636988 0.007084741 -0.0005755944 -0.021619804
0002f0 8b 0b 4c bd 71 9a 90 3c 92 9a f5 3c 0a eb ca bc
       -0.049815696 0.017651768 0.029980931 -0.024770278
000300 c3 44 d8 3c e4 03 9e 3c 11 2c e0 bc 2e 7c 14 3b
       0.026399976 0.019288965 -0.027364762 0.0022657025
000310 fd 2a cb 3c 8f f8 36 3c d4 6b d2 3b 11 5f aa 3b
       0.024800772 0.011167659 0.0064215455 0.005199321
000320 70 a5 96 bc b7 70 06 3b b3 96 cb 3c 06 0c a9 3b
       -0.018389434 0.002051396 0.024852132 0.005158904
000330 1b b2 df bc d5 5c 98 3c 09 1a 0e 3d ec af 95 3c
       -0.027306607 0.018598953 0.034692798 0.018272363
000340 a7 cd f1 bc 7b 66 0f bc 2b 28 37 3d 62 d1 87 bd
       -0.029517008 -0.008752461 0.04471604 -0.066317335
000350 e3 94 8a 3c 06 8f 43 ba a0 65 9d bb 74 ec 93 3c
       0.016916698 -0.0007459972 -0.0048033744 0.018057086
000360 ea 04 85 3c 66 01 7c 3c 0a de aa bb 49 f2 ac bd
       0.016237695 0.015381193 -0.0052144574 -0.0844465
000370 0b c7 17 bd 9a 17 9a 3d 88 1e d2 3b 82 1a 28 3b
       -0.037055057 0.07524033 0.006412331 0.0025650566
000380 b8 56 61 3d 46 de 42 3b 35 78 ff 3c 08 e5 52 3d
       0.055014342 0.0029734536 0.031185249 0.051487952
000390 c3 e4 94 3c 03 c7 4d bb 24 d8 18 ba 6c 88 af bc
       0.018175488 -0.0031399138 -0.00058305473 -0.021427356
0003a0 a7 bc 50 bd b7 2c 10 3d 4d 69 a0 3b b0 fe cd 3b
       -0.050961163 0.035198893 0.0048953653 0.0062864646
0003b0 62 67 cc bc 74 ba 1a bc 0a 57 96 bd de 07 d2 3a
       -0.02495164 -0.009443868 -0.0734082 0.0016024073
0003c0 0f 56 f3 bb 69 60 ea bb 85 12 9d ba d2 bd 40 3d
       -0.0074260305 -0.0071526063 -0.0011983669 0.047056027
0003d0 fb 80 ef 3c 28 74 0a bd 8f 3c 94 bc 6b 44 2d bd
       0.029236307 -0.03380218 -0.018095283 -0.042301577
0003e0 f8 b0 b7 bc a4 1e 01 bd 15 0b 02 3d 98 58 f9 3b
       -0.022423252 -0.03152336 0.03174885 0.007609438
0003f0 eb a6 8a bc d1 68 c0 bc 34 ab ed 3c d4 3e f4 bb
       -0.016925296 -0.02348748 0.0290123 -0.0074537788

bias f4 [256]
000000 a2 cb ea bc e1 cf 22 3c 2d 7f ce bc 8d bd 09 3d
       -0.028661553 0.0099372575 -0.025207127 0.033628035
000010 9f 7e 4b 3d 4a d7 06 3d c2 e3 7d bc f1 5d cb bb
       0.049681302 0.03292016 -0.015496196 -0.006206267
000020 87 26 25 bb e5 a3 71 3c 77 cc 19 bc f1 bd 97 3c
       -0.0025199966 0.014748548 -0.009387127 0.018523188
000030 c7 cb ff 3c 5c 82 e9 bc cf 0c 78 3d a0 85 bb 3c
       0.031225098 -0.028504543 0.06055909 0.022890866
000040 31 5d 35 bd 28 85 2e bb 6a c3 73 ba 02 e2 82 3c
       -0.044278327 -0.002662966 -0.00092988333 0.01597691
000050 5f ac a2 3c d6 2a 34 bd 9f 7a 75 3b 69 be f4 ba
       0.019857584 -0.043986164 0.003745712 -0.0018672469
000060 1f a8 6f 3b 5e b1 1a 3d b7 83 78 bb 1b 60 ae bc
       0.0036568714 0.037766807 -0.0037920305 -0.021286061
000070 42 a5 90 3b e1 d4 29 3d 55 6f d0 ba 06 20 7a bb
       0.0044142315 0.041462783 -0.001590232 -0.003816606
000080 97 b0 8d bc 9d 7e 04 bd 15 c8 74 bb 3f 0f 81 bc
       -0.017296119 -0.03234731 -0.0037350703 -0.01575434
000090 68 ed a5 3b bd be 98 bb 4b 22 1b 3d 26 8e ca 3c
       0.0050637014 -0.0046614096 0.0378745 0.024725985
0000a0 4f 36 da 3c ac e4 c8 3c b9 e0 1a bb 9a 18 0a 3c
       0.026637224 0.024523102 -0.002363248 0.008428717
0000b0 2f 3c 2a bc 5b 9f af bb 82 d8 0a 3c 0c be 42 3a
       -0.010390325 -0.005359573 0.008474471 0.0007428832
0000c0 d0 14 11 3d e9 80 88 bc 60 b3 e6 3a 98 a4 87 bc
       0.03542024 -0.016663032 0.0017601065 -0.016557977
0000d0 70 cd aa b9 f1 0a c8 3b bb c9 13 bc 62 cd 92 3c
       -0.0003257799 0.00610482 -0.009020264 0.0179202
0000e0 35 54 1d bc 70 37 ab bc 18 8e f8 bc 9f 28 31 bc
       -0.009602596 -0.020900458 -0.030341193 -0.0108129075
0000f0 fd 84 57 3c f3 e9 a7 bc 0e b4 91 3c 2c d8 ae bc
       0.0131542655 -0.020497298 0.017786052 -0.021343313
000100 4d c1 0e bc b9 ef ea 3c d7 97 d4 3b 79 75 30 bc
       -0.008713079 0.028678762 0.0064878273 -0.010770195
000110 25 09 ff bc 5d 40 67 3d 36 6c b9 bc 02 ff b0 bc
       -0.03113229 0.056457866 -0.022634607 -0.021605972
000120 b3 40 d2 bc ea c6 36 bc 8c 49 b7 bc 46 5d 06 3d
       -0.025665617 -0.011155823 -0.022373937 0.032803796
000130 2f 3e 09 bd 5a a3 72 3d 96 a3 3b bd 65 b0 8f bc
       -0.03350657 0.059237815 -0.045810305 -0.017540166
000140 f1 27 64 bc 02 d6 93 bb e8 41 00 3d 43 60 8d 3c
       -0.013925538 -0.0045115957 0.031312853 0.017257815
000150 97 bc ce 3c 16 68 c2 bc ff 61 d5 bb 63 7d 23 bd
       0.025236411 -0.023731273 -0.006511926 -0.0399145
000160 8e 63 67 bc 35 ef e1 3c c7 98 bd bb 74 e8 9b 3c
       -0.014122857 0.027579883 -0.0057860347 0.01903174
000170 07 6e 97 3b 74 57 a3 3c b2 b9 15 b9 f6 25 b4 bb
       0.0046212706 0.019939162 -0.00014278924 -0.0054976894
000180 be 0a 4d 3d 4d 39 af 3c ca 53 cd bb 64 4e 82 bc
       0.050059073 0.021389628 -0.006266092 -0.01590652
000190 a6 54 32 bb 45 82 09 bd ea 77 e6 bb 42 fa 9d 3a
       -0.00272111 -0.0335715 -0.007033338 0.0012052732
0001a0 52 43 51 3d bc bc ac 3b 5e 82 7f bb c0 87 33 3a
       0.051089592 0.0052715223 -0.0038987617 0.00068485364
0001b0 4a 02 4f bc 1e ec dc 3b ab 80 b8 3c 2b c5 43 3d
       -0.012634823 0.0067420145 0.022522291 0.047795456
0001c0 42 ae b4 3c 9b 46 3f bd 9d a4 ac bc 21 3c ca 3b
       0.022055749 -0.046698194 -0.021074587 0.0061717187
0001d0 8f 09 d1 bc 65 1d b7 bc 8a 63 7c bb c8 78 51 bd
       -0.025517253 -0.022352884 -0.0038511478 -0.051140577
0001e0 a6 1c 63 ba 8a 20 be 3a 7d 67 2e 3d 42 14 55 bc
       -0.0008663632 0.0014505547 0.042579163 -0.013005318
0001f0 f2 48 29 3d 9e 0c 36 3b 80 e2 ad 3c 78 fe b6 3c
       0.04132933 0.0027778517 0.021226168 0.022338137
000200 05 b4 23 3d 6a cb 62 bc 4d ae 17 bd cf 4b 5a 3d
       0.039966602 -0.013842443 -0.03703146 0.053294953
000210 af bd 15 3d e0 e5 0c 3d 77 75 cf 3b eb a9 2f 3b
       0.03655785 0.034398913 0.0063311416 0.002680416
000220 f9 cf 53 bd e0 aa 34 bb 16 0c 58 bc a2 6e 6e 3a
       -0.05171201 -0.002756767 -0.013186475 0.0009095465
000230 27 74 12 bc 9e e6 1f bb 1b 6e 29 3d 33 7e 04 3d
       -0.008938826 -0.0024398933 0.04136477 0.032346915
000240 6e 49 e7 ba 0e 0a 85 3c c8 a1 b7 bc 5a 2e e1 bc
       -0.0017645785 0.016240146 -0.02241601 -0.027487922
000250 23 11 28 bc e1 cd 30 3b 74 ce c6 3c 4c ab 6a 3c
       -0.010257992 0.0026978182 0.024268366 0.014323067
000260 d7 df b7 3c 5d e1 f5 3c be d5 00 3d 51 7b 3e 3c
       0.022445602 0.030014688 0.03145384 0.011626081
000270 b6 2a 31 3c 38 a9 07 bd 5f 55 81 bc 76 d2 d7 3b
       0.010813406 -0.033120364 -0.015787778 0.006586368
000280 db bf 67 3c ee fe b7 39 5f 4c 0c 3c ee 52 cb bb
       0.014144863 0.00035094417 0.00856313 -0.0062049543
000290 30 9f 09 bd 55 17 2a bc 70 f0 8d 3c d2 a1 72 bc
       -0.03359908 -0.010381539 0.017326564 -0.014809089
0002a0 03 05 9a 3b c6 22 97 bc 44 c4 ae 3c 9f 25 ab bb
       0.0047003045 -0.018449198 0.021333821 -0.0052229906
0002b0 62 04 b2 bc 04 cb 7f bc 94 f8 18 bd ec bc 01 3d
       -0.021730606 -0.015612368 -0.037346438 0.03167431
0002c0 c9 34 20 bc 8a 7c b7 bc 17 d0 c4 bc ba 10 67 bb
       -0.00977821 -0.022398252 -0.024025006 -0.0035257773
0002d0 a2 41 46 bd fd b2 60 bc cb bd da 3a 34 4c b6 bc
       -0.048402436 -0.013714549 0.0016688643 -0.022253133
0002e0 a9 da 2c bd 76 30 57 bc f2 00 3a 3d bb ed 7f bc
       -0.042200718 -0.013134113 0.045411058 -0.015620644
0002f0 bf c5 8c 3a 21 92 d2 3b c2 af f1 bc df 2b 40 bb
       0.0010740085 0.0064261113 -0.029502753 -0.0029323024
000300 7b 3a d5 bc 10 5c 0b 3d 50 ad 3b 3b 3e 1c c5 3c
       -0.026028862 0.034023345 0.0028637238 0.024061318
000310 11 c7 8c bc ae b6 be 3c 1f 0b 94 3b 48 d8 0d bc
       -0.017184766 0.023280468 0.0045179273 -0.0086575225
000320 96 a8 cc bc 6a c6 32 bd 1a cb 62 bb 38 6c a3 3c
       -0.024982732 -0.043646254 -0.0034605921 0.019949064
000330 24 a1 36 3b 64 e9 2e bd a8 2a 24 bb 8c 84 ba bc
       0.0027867043 -0.042703047 -0.002504984 -0.022768281
000340 93 f8 f9 3c 3e e8 68 ba 5f 61 85 bc 4b fa b2 3a
       0.030514037 -0.00088847044 -0.016281782 0.0013654915
000350 b2 c8 be 3c 20 b3 0a bd db 51 8f bc ff 7a 12 3d
       0.023289058 -0.033862233 -0.017495086 0.03576183
000360 f6 00 28 bd 6f 9f 79 3b 5c c7 45 3c 47 42 b5 bb
       -0.04101654 0.0038089415 0.012071457 -0.0055315825
000370 56 af c6 bc e7 b3 35 3d 32 bf b3 ba 90 2f 2e bd
       -0.024253529 0.04436102 -0.0013713597 -0.042525828
000380 46 4e 93 bc de 5b 3c bc 51 e9 99 39 a3 92 23 3c
       -0.01798166 -0.011496512 0.00029356268 0.009983691
000390 e0 2c 50 bb 27 28 4f 3d b9 07 62 3d 9c 8c 3c 3b
       -0.0031765029 0.0505754 0.055183146 0.0028770333
0003a0 79 5b 01 bd 46 a2 62 3c 21 74 84 3d 67 3e 3d 3c
       -0.031581376 0.013832634 0.06467462 0.011550522
0003b0 51 20 17 3d 10 ea 92 3a 3a 27 d1 bc db c8 47 3c
       0.036896054 0.0011208672 -0.0255314 0.012193884
0003c0 5f ba 5a bd 5f 93 50 3c 9f 7c de 3b 0a 63 0e 3b
       -0.053400394 0.0127304485 0.0067897583 0.0021726512
0003d0 57 2d a8 bb 75 78 3e 3c fc 48 d3 bc 3b 73 73 bc
       -0.005132358 0.011625399 -0.025791638 -0.014859016
0003e0 f7 e3 2b 3d 1f 17 8d bb 05 4d fd 3c 34 88 69 3c
       0.04196545 -0.0043057348 0.030920515 0.014253665
0003f0 8d ae 7e 3c 5c 47 03 3b 27 09 88 3b b5 28 58 3c
       0.015544546 0.0020031547 0.0041514817 0.013193299
