output/2023-09-14-22-52-13/trained_model/tetris_epoch3184_score11800.pt (torch, 842187 bytes, 8 tensors)

weight f4 [32, 1, 4, 4]
00000000: cd27 a6bc b0fb 4d3c 0d65 1dbd 45f7 833c
00000010: 661c d83b c731 813d 5c4f 4a3a 20a2 813d
00000020: 0591 79be 47e1 db3d ae42 3e3e 40b1 4d3c
00000030: f83c 483d 8c73 163e 4d7f 393e 05b6 3fbd
00000040: c1a7 d83e c4f1 a4bd ddfe c0be 8003 97be
00000050: 925d 0fbf 4850 0fbd b0df babd 0772 4fbe
00000060: 2292 823d 1996 71be bce8 a43d 9e96 b9be
00000070: 9892 72be cdb2 433d 38d4 de3d f3f6 30bf
00000080: a159 043d 9468 ba3d 61dc 4fbf 975a 5cbe
00000090: e427 383d 3ef4 8cbe 9a25 483e 74e1 9cbe
000000a0: 4788 bf3d 1df3 923e e2d4 5a3c da41 e43c
000000b0: 5620 cdbd 6e6c 06be a621 39be 3d2a adbd
000000c0: 3bc9 ccbe 9a10 d5be 3292 cfbd b397 62bd
000000d0: 4857 8e3e d6af 2dbe efb8 8e3e 7651 f83d
000000e0: cac6 9dbe ec29 e23c 294e 25bf 449b b93d
000000f0: f4e6 03be 76e3 21bf f392 ebbe bf56 8f3d
00000100: f936 a5bd 0da8 44bf 4b18 87bd 60f0 44bd
00000110: f551 893c 7ca1 b13c 028b b13d 61ca 0f3d
00000120: 528c 5c3e eff9 60bf 848a 9d3e 987c a2bc
00000130: e1cc 91bd ec46 9fbd 6257 1c3c 93fb 25bc
00000140: 16de 84bc 6e15 2c3c c5d4 2dbe 9a89 c7bd
00000150: 91d2 323c 0805 5dbc b772 963e 82d3 453f
00000160: c0e1 0cbc c37f 0aba 5bb8 83be f502 4bbf
00000170: 965c b8bc 394a 41bc e245 73bd 22ac 31bd
00000180: 4c89 0fbc f74e 823d 6320 1e3e 3709 693e
00000190: 0a13 e93d 0737 b1bc 034e 533e f79b c9be
000001a0: 42dd eb3d 01bf 523d bb96 8a3c 5e4d 03bf
000001b0: 0dac 963c 3ef2 073c 6764 fd3d e3ee cfbe
000001c0: 873f ccbc 99dc e83c 883e 233e b752 ebbd
000001d0: a31f 5f3d e89b dc3d d8fa 38bf 806a 1fbf
000001e0: 4f1c cc3c 2e79 a03d aa4e 09bf 42fa 23bd
000001f0: 5363 61bd a394 443e 72bf 89be 7906 babe
00000200: d2d1 cfbd d11c e13d b5d0 06bf 2c8a 56be
00000210: 755a df3d a42a 0d3e 2673 433e 18bd c6be
00000220: 5b36 09bd 4366 943d 6a96 87be ab13 42bf
00000230: e7fb 023e 843e 9dbd 16ac 28bd 5c15 083e
00000240: 9a03 03be c7bf e7bc d52a 75bc 0f02 cb3d
00000250: 0bcd c0bd 9fbd 84be 462a ebbe 930c ffbc
00000260: ed3d 48bd 6151 e83e eae9 643e 51db b4bd
00000270: 32e3 7a3d c23c 60bf fefc b43d 09cc 033d
00000280: 6d6a 8ebd f0d2 01be 2449 39be a5c9 25be
00000290: 3833 32bb 1787 c2bd 182b 3abe 4b31 323d
000002a0: 0057 e1bb 713e fa3d b74b 0e3f 1861 e6bc
000002b0: ab24 4dbc 7b65 0ebe 84f2 3ebf a062 4cbd
000002c0: becd 26be d74e 01bd 43a0 b8be a3dd b3bd
000002d0: 7d7c abbd d62b 94bd 82f6 c53c c516 ab3e
000002e0: 0cbe b0bc 596c 3cbd 318d 163e a4fb 0abf
000002f0: 18f5 233d 9fa4 623d 895b 643d 4731 f1be
00000300: 49ee 133e 375e 37be b118 8e3c 8a4d 7cbd
00000310: 6823 1f3d 4beb 0d3f e024 533d 2c34 57bd
00000320: 01f0 dabd 5547 0fbf 6b0c 2f3e a32b d5bc
00000330: 5e8f bfbc 7fa5 04bf 5b64 4abe bcbc 04bb
00000340: b9d7 b03c eba6 7cbd 7e73 30bd 6861 9e3d
00000350: c13b 4fbd 6394 383e 6ce9 113e 1268 1cbb
00000360: 4446 443c 2bed 5b3f ffe9 04bd 6a68 6d3d
00000370: 746f 1ebc ff32 a8bf db0c a33d 95a5 93bc
00000380: 3f65 d63c e47b dd3e 5252 753d f79c ce3c
00000390: 8327 10bc ee26 323f aa70 f73c af72 0b3c
000003a0: 51f2 98bc cb57 a5bf a0b9 7d3c 819a dabc
000003b0: 7cb0 bfbc 8972 9cbd 9242 9dbd aca3 833c
000003c0: 155c 5cbe cfd2 90bc 16bd 323e 72c7 dbbd
000003d0: 9a86 abbc 7c82 23be 607b dabd e3c0 d0bc
000003e0: f5fb 033e 3667 403e ae77 a53d 2ea1 203e
000003f0: 4e8c 04bc dea7 993d c146 33bc da59 e23d
-0.02028265 0.012572214 -0.038426448 0.016109118 0.006595182 0.063083224 0.0007717514 0.06329751
-0.24371727 0.107363276 0.18580124 0.012554467 0.04888627 0.14692515 0.18114968 -0.046804447
0.42315486 -0.08053926 -0.37694445 -0.29494858 -0.5600215 -0.03498867 -0.09124696 -0.20258342
0.06375529 -0.23592414 0.08052203 -0.36247724 -0.23688734 0.04777794 0.10880321 -0.69126815
0.03231204 0.09101978 -0.81195647 -0.21518932 0.044959918 -0.27530092 0.19545594 -0.30640757
0.09352165 0.28701106 0.013356419 0.027863432 -0.10015933 -0.131273 -0.18079242 -0.08455322
-0.39997277 -0.41614228 -0.101353064 -0.055320453 0.27800965 -0.16961607 0.27875468 0.121249124
-0.30815727 0.02760788 -0.6457239 0.09062818 -0.1288107 -0.632377 -0.4601055 0.069989674
-0.08067126 -0.76818925 -0.065964304 -0.048080802 0.016762713 0.021683447 0.08669092 0.035105113
0.21537903 -0.8788137 0.30769742 -0.019834802 -0.07119156 -0.07777199 0.009542318 -0.010130781
-0.01621918 0.010503156 -0.16975696 -0.09743042 0.010914461 -0.013489969 0.29384395 0.7727586
-0.008598745 -0.000528332 -0.2572659 -0.7930139 -0.022505086 -0.011797481 -0.059392817 -0.04337705
-0.0087607615 0.063627176 0.15442042 0.22757421 0.113805845 -0.021632684 0.20635228 -0.39376804
0.11516811 0.051451687 0.016917577 -0.5128993 0.018392587 0.008297501 0.12372666 -0.40611944
-0.024932636 0.028425502 0.15941823 -0.11490386 0.05447353 0.10771924 -0.7225776 -0.6227188
0.024915842 0.07835613 -0.53635657 -0.040033586 -0.055026364 0.19197325 -0.26903874 -0.36333063
-0.10147442 0.109918244 -0.5266221 -0.20951146 0.10905925 0.13785797 0.19086894 -0.38816142
-0.033499103 0.072460674 -0.26481944 -0.7581126 0.12791406 -0.076779395 -0.04117974 0.13289398
-0.12794343 -0.028289689 -0.014963825 0.09912502 -0.09414109 -0.2592592 -0.4593069 -0.031133926
-0.048887182 0.45374587 0.22354856 -0.08830894 0.061251827 -0.8759271 0.08837317 0.032177005
-0.06953893 -0.12678123 -0.18094307 -0.16190203 -0.0027191173 -0.094984226 -0.18180501 0.04350404
-0.0068768263 0.12218941 0.5558428 -0.02812247 -0.012520949 -0.13905899 -0.745888 -0.049898744
-0.16289422 -0.03156933 -0.3605977 -0.08782508 -0.08373354 -0.072349235 0.024165396 0.3341581
-0.021574996 -0.046001766 0.14702298 -0.54290223 0.04002866 0.055332776 0.055751357 -0.47107908
0.14446367 -0.17907034 0.017345758 -0.061597385 0.038852125 0.55437154 0.05154884 -0.05253999
-0.10690308 -0.5596822 0.17094581 -0.026021784 -0.023383792 -0.51815027 -0.19764845 -0.0020254096
0.02158724 -0.061682623 -0.043078892 0.077334225 -0.050594095 0.18025355 0.142492 -0.0023865742
0.011979643 0.85908765 -0.03244972 0.057960905 -0.009670127 -1.3140563 0.07961436 -0.018023292
0.026171325 0.43258584 0.05989296 0.025221331 -0.008798483 0.6959065 0.03020509 0.008511229
-0.018670233 -1.2917417 0.015486151 -0.026685001 -0.023399584 -0.07639033 -0.07678713 0.016069256
-0.21519502 -0.017678646 0.17454943 -0.107314005 -0.020938206 -0.15967745 -0.10668063 -0.0254826
0.12889083 0.18789372 0.08079468 0.15686485 -0.008090092 0.07502721 -0.010942162 0.11052294

weight f4 [32, 32, 5, 5]
00000000: 46e8 cb3c df8f 39be d631 e93c 02bb 793e
00000010: cc07 df3d dd9f 023e 0a20 82be 85d3 c3bc
00000020: 8d34 cbbd 0ddf 9fbe edc6 a9bd 78de 10bd
00000030: bfa8 4dbc b3a2 02be a533 2bbd 33f5 eabd
00000040: 756e 3dbf bcf2 a4be b033 9a3b 7d9d acbe
00000050: 61d6 cd3d c5f7 653c 6e8c eebd 5390 c13d
00000060: 3630 f53d cc06 3f3e 8bac 8abe 082a 063e
00000070: 575f 103f 8672 023f 3e76 96be 082a 833e
00000080: 3ee7 5ebe 98e8 13be 2cc2 5a3e e503 673d
00000090: 9650 77be bbe0 97be 805b 343e 36a4 4bbe
000000a0: 4f15 03bd 3538 e53c de89 18be b7d4 cebe
000000b0: 09d4 14be ae33 37be 5001 c83e e407 babc
000000c0: 4313 b83c a907 a33e b191 803e 8c27 2cbe
000000d0: 86e7 ecbd 6ba8 833e cc94 d23c 9c85 043f
000000e0: d969 bb3e ed9b 3fbf e5ff ddbe 1bb2 28be
000000f0: 74b4 8cbd e230 633e 6697 e4bd 09a7 f5be
00000100: 0dfe 963c b477 5b3e 8492 9abe 22ab c2bd
00000110: 7a94 a63e 9d21 59be bdb4 aabc 759b 9ebe
00000120: a62c 4b3d c296 adbe 8e58 d63d dde8 8b3d
00000130: d2ca 32be f594 0a3f c9e3 d6be 6416 56bb
00000140: ed57 17bf b544 713e ba22 01bc 0598 21bf
00000150: 0f58 a73c 15c4 bfbd 5e2d b8be 2d53 66bc
00000160: 09d4 8b3d f030 35bf 8876 93bf 3403 06be
00000170: 8ddb cabe cc36 44be 1daa 133e 6d80 23bc
00000180: 7c7a 5e3e c4ac 95bd ea2d 5e3e c95e 33be
00000190: 6164 813c 5d89 923d 535a fa3d e4e7 313f
000001a0: 2fce 3fbf 9313 c4be 84cd 9f3e b0a4 8e3e
000001b0: 6e7d a0be 0543 09be 98bd b5be 0468 59be
000001c0: 5c7e b33e 04b9 763e 07ab 483f efde c3bc
000001d0: 8d77 873c 27a5 e6be 6e58 3ebd 1549 16bf
000001e0: f22e 9a3d 639f 223e c62e 183e 846c 6abe
000001f0: c42c 55bd 44da 2e3e b262 423e 5ca4 a4bd
00000200: a8e6 5dbd eff0 11be 2a3d 2a3d 00b3 c5be
00000210: b87b 68bd e8cd 07bd 717a f7bc 8051 b13b
00000220: db97 31be 3e86 8d3d 5cba 953c 47ce 3d3e
00000230: f732 86be 1857 ddbf 6c50 55bf 6eae 8ebd
00000240: 2249 23bf 3694 15bd 88a6 f3be 85cc e03d
00000250: 913e c9be 71da 02bf 4235 373e cb3f 97bd
00000260: b697 cbbd 3329 8ebe d228 2dbf 0cfd ee3d
00000270: b34f 0e3e b8b5 c2be c07f 2fbd 01bc 4abf
00000280: 3d43 5a3d 7264 843e b504 10be 8964 1a3e
00000290: 4b20 3b3e 8733 32be 1d83 3bbd c9cb bdbe
000002a0: bb5b 96bd b6ea 6abd 42f8 613d 0f27 ea3d
000002b0: 2355 483c f3c8 ae3e 6c2f b13d 84d6 d53c
000002c0: 42c8 1ebf b7ff 023f 099d 63bd 0c6f 5b3c
000002d0: 62e6 113e 843f 12bc 6c4d 80bd 6a48 9f3e
000002e0: dc35 40bf d06e 9d3c c702 d0be 622e a9be
000002f0: a773 f13d 379d 87be 0367 0b3e 1f99 90be
00000300: 8042 b1be 6928 613e f87c ef3d 1a32 8abe
00000310: dc48 48be c0e9 37be 8d20 713e 5a54 b1bd
00000320: fdae 053e fcc3 35be 6689 d43d 86ee b33e
00000330: 9083 093e a4d0 52bf 41ef 183e 90ad 56be
00000340: 33cb 963d 97cf d6bd d4f8 55bf 2165 253e
00000350: 7464 293e b45e 38bd 6421 0bbf 35a3 12bf
00000360: f655 a6be ee74 95be a196 c53d 9abb 7cbb
00000370: 8030 6ebe dc2a 843e d2aa e4bd b057 9fbe
00000380: c095 a03e e512 cf3d edd1 2d3e c140 bebe
00000390: 01b9 2cbe 6dc6 c83d 3f1a a1be 9164 a3be
000003a0: 06a7 203e f853 94be f1e9 b2be cb01 d7be
000003b0: 77e3 113f 1f27 43bd 83e2 5abd 49a6 fabc
000003c0: a7a3 4bbe 4a9a f03d 65b5 90be edb6 903d
000003d0: 5577 04bf fabe ddbd 513d 803e 4f94 113e
000003e0: e718 4e3d a2f6 7e3e ad89 673f 6c52 0bbf
000003f0: 67ae c23b 477c debc f36e 273e c46f fcbe
0.02489103 -0.18121289 0.028466146 0.24387744 0.10890159 0.12756296 -0.2541507 -0.023904571
-0.09922133 -0.31224862 -0.08289895 -0.035368413 -0.012552439 -0.12757377 -0.0417973 -0.11472549
-0.7399667 -0.32216442 0.0047058687 -0.33713904 0.10050655 0.014036124 -0.116478786 0.09451356
0.11972086 0.18654937 -0.27084765 0.13101971 0.5639548 0.50956 -0.29387087 0.25618005
-0.217679 -0.14444196 0.21363133 0.0564002 -0.24151835 -0.29663643 0.1761303 -0.1988686
-0.032002743 0.027980903 -0.14896342 -0.40396664 -0.1453401 -0.17890808 0.390635 -0.02270884
0.022470122 0.31841782 0.25111154 -0.16811961 -0.11567597 0.2571443 0.025705718 0.5176637
0.36604193 -0.748473 -0.43359295 -0.16474192 -0.06870356 0.22186616 -0.111616895 -0.47979
0.018431688 0.21432382 -0.30189908 -0.09505297 0.32535154 -0.21204229 -0.020838136 -0.3097798
0.049603127 -0.33904082 0.10466109 0.068315245 -0.17460182 0.5413354 -0.4197066 -0.0032667154
-0.5911854 0.23561366 -0.007881815 -0.6312259 0.020427732 -0.093635716 -0.35972112 -0.014057917
0.06827552 -0.707778 -1.1520548 -0.1308716 -0.3962063 -0.19161528 0.14420362 -0.00997935
0.21726412 -0.07308343 0.21697202 -0.17516626 0.015794935 0.07155106 0.12224259 0.6949446
-0.74923986 -0.38296184 0.31211483 0.27860022 -0.31345695 -0.13404472 -0.3549621 -0.21231085
0.35057342 0.24094015 0.78385967 -0.023910014 0.016536498 -0.45047876 -0.046471052 -0.58705264
0.07528485 0.15881114 0.14861593 -0.22892958 -0.052044645 0.17075449 0.18982962 -0.080391616
-0.05417505 -0.14252065 0.041562237 -0.3861313 -0.056758612 -0.033155352 -0.030209752 0.005411327
-0.17343085 0.0691037 0.01827734 0.1853572 -0.26210758 -1.7292204 -0.8332584 -0.069668636
-0.63783467 -0.036518298 -0.4758799 0.10976509 -0.39305547 -0.51114565 0.1789141 -0.073852144
-0.09941046 -0.27765808 -0.6764041 0.116693586 0.1389759 -0.38029265 -0.04284644 -0.7919312
0.05328678 0.25857884 -0.14064296 0.15077414 0.18274038 -0.17402469 -0.045779336 -0.37069538
-0.07341715 -0.057352744 0.055168398 0.11433231 0.012227329 0.34137687 0.08651623 0.026103266
-0.6202432 0.5117144 -0.055569682 0.013393175 0.1424804 -0.008926276 -0.06264767 0.31109935
-0.7508218 0.019217879 -0.4062712 -0.330432 0.11789637 -0.26487133 0.13613515 -0.28241822
-0.34621048 0.21988072 0.11693758 -0.2699135 -0.19559044 -0.17960262 0.23547573 -0.08658667
0.13055034 -0.17750543 0.10377769 0.35142916 0.13429093 -0.8234961 0.14935018 -0.20964646
0.07362976 -0.10488813 -0.83582807 0.16151859 0.16542226 -0.04501219 -0.54347825 -0.57280284
-0.32487458 -0.29190773 0.09647871 -0.0038563968 -0.23260689 0.2581395 -0.11165394 -0.31121588
0.3136425 0.10111026 0.16974612 -0.37158778 -0.16867448 0.09803472 -0.31465337 -0.31912664
0.15688714 -0.28970313 -0.34944108 -0.41993555 0.5698771 -0.04764473 -0.053438675 -0.030596869
-0.19886647 0.11748178 -0.28263393 0.0706614 -0.51744586 -0.108274415 0.2504678 0.14216731
0.050316717 0.2489877 0.9044445 -0.5442264 0.0059412005 -0.02715887 0.16350918 -0.4930402

weight f4 [64, 32, 5, 5]
00000000: 5ca2 b23c efdf 973d 55df 82bd 20bd 713e
00000010: a7cb 68be 6f22 5f3e 3586 703d 4908 1e3e
00000020: 3c90 12be 87cb fd3d 7f68 b23d fe24 72be
00000030: c686 0cbe 29f4 a33d d31f 2c3f 680f eabd
00000040: 514a 8f3d 29fd ff3c 1b2d 18be 75f6 9f3e
00000050: 3984 58bd 8daa 06bf 38f9 04be edde 033f
00000060: 2646 793e 8446 933e e3bf dbbe 6680 683e
00000070: 0098 fb3d 71ac 473d 239a c03c 0a8a d43e
00000080: 66b0 613e dc15 33bf 1a01 dabc 2778 883e
00000090: 33f5 453e 4f6f 2a3f b933 fd3d 3672 d8be
000000a0: 0ca5 153e efef b63e 8939 28bf cb1d c83e
000000b0: c5c8 d63d 7a10 26bd cbb4 213f e7c6 b23e
000000c0: b5b9 593d 8756 40bd a657 74be 18b9 a3bd
000000d0: 46f5 073f 5a29 843e 6759 8dbe c1a1 983d
000000e0: d24c 0ebe 6ba0 08bf 6131 7dbf 14f2 0dbf
000000f0: 681a 113e d43e 3b3d 6152 31bf 7cb5 3d3e
00000100: a9e8 f5be 1aab 533e ecc2 113e aae9 d2bd
00000110: 1f43 85be ad45 84be 371d de3e db9b c73d
00000120: 955f cd3d 6a75 d33d bee5 0ebe dbc7 d2be
00000130: 167c 03bf d49a 07be 6d51 833e ffb2 69be
00000140: 6187 023f 3aac d13d fd9a a23e 0b69 363f
00000150: 5e01 2e3e 2847 853e 745b 853c bbab 1ebf
00000160: 10b8 11bf f245 9bbf 0c9e afbe 5dbf 01be
00000170: a795 8cbf 05b0 753d 0ebb c23e 70c9 4dbb
00000180: 66f6 bcbd f858 60bc 2a57 0e3f 1b78 0b3e
00000190: 2004 49be 1318 6e3e 6120 a23e d394 b4bc
000001a0: 6b53 003e f401 f0be 452b 19be 938e 753d
000001b0: c30d 4ebd 3e2b 303f ea90 813e 54e4 c7be
000001c0: 4404 3abe 9945 9f3c db92 8cbe db05 f8bc
000001d0: 7fe4 2d3e 7c04 47be c35f 0bbf 977b 20bf
000001e0: 429a e4be 149f 6abe 706a 25bd 891f bb3e
000001f0: 759d f8be 76a6 b0bd 4986 04bf e1df b2be
00000200: c8de cf3e dc65 32bf c685 f73e e049 d2be
00000210: fc40 453e 1d50 8bbe b78c 4cbe 3ae8 73bc
00000220: db98 5e3e 79a7 163e b105 893c 6ed5 4dbe
00000230: dec7 03bf 45bc 81be 8bef ec3c aefd 98bd
00000240: c41f c7bc e1e2 04bf aec9 f8bd 1492 243e
00000250: 3786 64bd 82dd de3d 4c43 fcbc 2589 e5be
00000260: 9b47 863d dd65 a63d 92c4 74be cfc1 a03d
00000270: 8898 2a3b 8f40 293e 5d17 b4bd 88e5 873d
00000280: ea8f e7bc b9d2 863e fc87 7f3e e545 8cbe
00000290: 1027 30be c064 153d eb96 a1bd 65db 58bd
000002a0: 3e7d 14be ea19 9dbe 5a1c a33e bb3e 253e
000002b0: 4acb 81bd 33e9 acbd 7a59 dd3d 5c0f 293a
000002c0: 3f7f dabe 7351 203e ebdb 63be bee4 553c
000002d0: f9d7 483e 1598 cd3d 678e d73d 1d44 b4bd
000002e0: c994 08bf 34d7 c53d 543e 193d c51a 8dbe
000002f0: 44ee 593e c7e6 993e 3688 6c3d 2cc0 56be
00000300: 07c3 38be dc0a adbd 67e8 263c bfeb 2c3e
00000310: cf0f 96be 79f7 e7bd a978 50bf ed25 89be
00000320: 7428 a33e 6e13 ad3e 6c6b 44be 0c2b c5be
00000330: 7037 823d 9b52 d33e 1d65 5dbf 0a91 533e
00000340: f51d 12bf 3c09 e83e d2ae 883e ec7f 053e
00000350: fba0 aabe 4167 15be f98e 15bf 13b0 943e
00000360: 473a 04bf 45f0 d53d 146a bb3b 2f67 f03e
00000370: 4247 233f 5a95 84bd 8637 d63d 83d4 ae3e
00000380: 1dbd 643e dadd c23e 365d a1bd 97bc df3b
00000390: 20bb 22be 785e 1a3f 5b1d 203e 5ef0 e9bd
000003a0: f797 903e a9b6 503d d6aa efbc a259 883c
000003b0: 33b3 a4bd f208 40bd fa94 33bc 9c56 e43d
000003c0: 8c17 d93e abf4 163e 3432 15bf e6b3 013e
000003d0: a76e 67bc 0ffc 3abe 0778 213c 7438 813e
000003e0: 6f76 a53e b3c9 1fbc 6071 e63d 3d90 4f3e
000003f0: b3e9 943e 3a39 85be d06c d33e c09f de3e
0.021805935 0.07415759 -0.063902535 0.23607302 -0.22733937 0.21790479 0.05872174 0.15432848
-0.14312834 0.123923354 0.08711337 -0.23646924 -0.13723287 0.08005554 0.6723606 -0.1142872
0.069965966 0.031248646 -0.14860956 0.3124272 -0.052860472 -0.5260399 -0.12985694 0.5151203
0.24343166 0.28764737 -0.42919835 0.2270523 0.12284851 0.048748437 0.023510998 0.41511565
0.22039947 -0.6995523 -0.026611853 0.2665417 0.19331817 0.66576093 0.12363381 -0.42274636
0.14613742 0.3572993 -0.6571279 0.3908523 0.104875125 -0.040543057 0.63166493 0.34917375
0.05315562 -0.04695752 -0.2386156 -0.07994288 0.5310863 0.258128 -0.2760727 0.07452727
-0.13896492 -0.5336978 -0.9890347 -0.55447507 0.1417023 0.045714214 -0.69266325 0.18526262
-0.48029068 0.20670739 0.14234513 -0.10298474 -0.26027772 -0.25834408 0.43381664 0.09746524
0.100279965 0.10325129 -0.13954827 -0.41168103 -0.51361215 -0.13242656 0.2564806 -0.22822188
0.5098782 0.10237928 0.31758872 0.7125403 0.16992709 0.2603085 0.01627896 -0.6198079
-0.5692148 -1.2130721 -0.34300268 -0.12670656 -1.098317 0.05998232 0.38033336 -0.0031400584
-0.09226684 -0.013693087 0.5560175 0.13620035 -0.1963048 0.23251371 0.31665328 -0.022043621
0.12531821 -0.4687649 -0.14957912 0.059950422 -0.050306093 0.6881598 0.25305873 -0.39041388
-0.1816569 0.019442366 -0.27455792 -0.03027623 0.16981696 -0.19435304 -0.54442996 -0.62688583
-0.4464894 -0.22912246 -0.04038471 0.36547497 -0.4855763 -0.086255 -0.517674 -0.3493643
0.40599656 -0.69686675 0.4834425 -0.41071987 0.19263071 -0.2720956 -0.19975553 -0.01488691
0.21737997 0.14712323 0.016726347 -0.20100948 -0.5147685 -0.2533895 0.028922817 -0.074702606
-0.02430714 -0.5190869 -0.12147842 0.1607135 -0.05579206 0.10882093 -0.030793808 -0.44831195
0.065566264 0.08124898 -0.2390311 0.07849466 0.0026030857 0.16528533 -0.08793519 0.066355765
-0.028266866 0.26332644 0.24954218 -0.27397075 -0.17202401 0.036473036 -0.078901134 -0.052943606
-0.14500901 -0.30683833 0.31857568 0.16137211 -0.063376024 -0.08442917 0.10808082 0.0006449127
-0.42675206 0.1565607 -0.22251861 0.013055025 0.19613637 0.10038773 0.10525208 -0.08802054
-0.5335203 0.09660187 0.037412956 -0.27559486 0.21282297 0.30058882 0.05774709 -0.20971745
-0.18043147 -0.08449337 0.010187245 0.16886805 -0.29308936 -0.113264985 -0.8143411 -0.26786748
0.318668 0.33803886 -0.19181603 -0.38509405 0.0635823 0.4127396 -0.8648241 0.20660797
-0.5707696 0.45319545 0.26695877 0.1303708 -0.33325943 -0.1459017 -0.58421284 0.29040584
-0.51651424 0.104462184 0.0057194326 0.46953723 0.63780606 -0.06473799 0.10459809 0.3414651
0.22337766 0.38059884 -0.07879107 0.0068279016 -0.15891695 0.603004 0.15636198 -0.114227995
0.2824094 0.05095545 -0.029256266 0.016644303 -0.08041992 -0.04688353 -0.010960812 0.11149332
0.42400777 0.14741771 -0.5827973 0.12666282 -0.014125503 -0.18260215 0.009855277 0.25238383
0.3231692 -0.009752679 0.11252093 0.20269866 0.29084548 -0.26020223 0.41293955 0.43481255

weight f4 [256, 256]
00000000: 41d7 cdbb cee7 103d d4ff ac3c 2a67 b53d
00000010: a30c b63d b212 aabc 96b9 90bd 6887 d0bd
00000020: 4cbf 573c e351 fbbd f134 85bd afee 3e3d
00000030: 9051 1f3e 18d0 333e ee12 62bd f9f2 123c
00000040: 526a 2bbe fb01 593e e1a1 cc3d 07e0 03bc
00000050: 7f56 f8bd c510 403d 0077 f5bc ff40 c1bd
00000060: 6bab 963d c132 15be 334a 23be c221 07bd
00000070: 1a8e 253a 7a09 92bb 0310 87bd 3b5b 4f3c
00000080: dd70 fb3e 3c7e ccbb 6e69 b6bb 3d0b a93e
00000090: cc23 97bc 12b9 a2bc 19c4 2d3c 6560 30bc
000000a0: 21c1 303e 633a 8cbe 8d40 edbb a276 1bbd
000000b0: acdd 903b fb6f 8e3c 7ba6 a0bd 1d51 633d
000000c0: 8713 cfbd 9dde 9c3d 8aea a13c 15cf 823d
000000d0: ad36 84bc 8046 ed3b 38d7 7cbd cd84 b9bd
000000e0: 666f 043d dfd8 0fbf 84a2 b73e 44d8 40bd
000000f0: 42f3 813e 9bb4 023f ee03 bdbd 203d 8ebe
00000100: 236e 9abd 8993 99bd 93ff b1bd 758e 9b3d
00000110: 6dee 1f3e 7614 7d3c 8f3e 863b 36f6 8bbd
00000120: a2ec 96bd 7c62 87bd 9671 933d 2d8a 90bb
00000130: 4ad1 2abe aa59 8d3d 2bdc 36bd 79a5 4e3c
00000140: d522 383d 0226 e2bc ceea fb3d aa0f dd3d
00000150: e384 21be f105 33bd 2d6b 063d 25f5 153c
00000160: 1c06 7dbb 31d3 393d 0e3c b2bd 32f0 d1ba
00000170: dd54 123d 4fa4 36bd 74ed 2b3d 6312 b7bd
00000180: 86ee d73e c755 ae3d 8e98 33bd 0dee e23c
00000190: 11dc ca3e f46a f4bd 7e32 6d3e c570 0bbf
000001a0: 3884 e83d 962c a13d 9913 be3b 724f e13d
000001b0: 2dd9 093e a59f 403c 3601 253e d4a0 4d3e
000001c0: fa45 85bc 3f45 53bd b08b 7fbd a81d 4c3d
000001d0: 2713 b7bd 6bac ef3c edbd 16bc 6729 6539
000001e0: 95a0 00be 8165 6f3d 31e3 8cbe be1f 90be
000001f0: 5a12 5d3d ccc9 083d 5e5c 94bc 5f7f bebd
00000200: 1d44 0fbd e320 93bc ab09 10be 9590 6e3e
00000210: c4aa a63d decf b3bd ffb6 9abd 2609 b8bc
00000220: ca9d 31bc 81c0 c63c fe5a bc3b 4f77 f53c
00000230: 792e c7bd ecdb 85bc 047d c13d e2be d43c
00000240: 34f2 953d 07f4 ff3c 5ed7 f43c 826b 75be
00000250: 8bce 15bd 942e 8a3d e32c a4bc 2591 cbbc
00000260: 7bad 803d 9894 af3d 8bc2 a03d ec9c 21be
00000270: 2635 5a3d 2b73 a7bd b06d d0bd 8838 e63d
00000280: b2fd 77bd 0417 123d 8cd0 63bd 1160 a43d
00000290: 2946 d9bd bc80 343d c242 993d 209e 7abb
000002a0: fe99 b53d d49d d33d 63c6 413d 4bcf b13d
000002b0: 8b1b 84bd 4dd9 19bd 324e 083d 5822 cdbe
000002c0: 09a3 853d 9f44 843b 184b b03d ca70 a7bd
000002d0: 95a7 b8bc 5d95 86bd 5ab6 373c 75e4 873c
000002e0: 6a21 4fbe 2aba d1bd 2071 113d 76b8 edbd
000002f0: 239e b53b b7cd b03d c764 80bd 4131 e6bc
00000300: be09 20bd 0ac7 40be 6d8b 3d3d e454 b33e
00000310: 7442 243c 6a15 8fbc dfc2 30bd cb98 223d
00000320: 9248 d9bd d2bf 3ebe f20b c23d b744 e33b
00000330: 934e 9fbb 1b56 0e3e 3a59 1e3e 877a 5b3c
00000340: db86 013e f39b 333d 2e6e a73c 0c9f c6bc
00000350: e763 a03e 1d97 403d dba2 91be d4b0 3fbe
00000360: e697 2f3e caaf 2f3e b399 05be 71ae 093e
00000370: f365 e2bc 538c 403d 3583 1dbd 8eb6 813b
00000380: 8257 5fbb 0edc 793d bdb1 ad3d c29e 09bd
00000390: 572b 3f3d 6577 553d 1f15 0c3d 9c74 b0bd
000003a0: 6f4c 61bd 0f0e 383d 081a 8a3d 1238 813d
000003b0: 1aa4 31be 71d9 363d 950f 933e e853 763c
000003c0: 844d 383e bd8b ae3c 080d e4bd aee9 57bd
000003d0: f8de 8abd 8a9a 853d 5949 453d a0c2 0e3c
000003e0: 7931 f73d 9655 0f3d 4cb4 b73d e2b7 b53d
000003f0: 6a37 3b3c 3389 d6bb 4a98 d13c 079d a23b
-0.006281764 0.035377316 0.021118082 0.088575676 0.08889129 -0.020760868 -0.07066648 -0.10182077
0.013168167 -0.12271478 -0.065042384 0.046614345 0.15558457 0.1755985 -0.055193834 0.008969062
-0.16739777 0.21192162 0.099918135 -0.008049018 -0.12125873 0.046890993 -0.02996397 -0.09436225
0.07356914 -0.14570142 -0.15946274 -0.03299118 0.0006315425 -0.004456696 -0.06594851 0.012656028
0.49109545 -0.0062406342 -0.0055667674 0.33016387 -0.018449686 -0.019863639 0.010605835 -0.01076517
0.17261173 -0.27388296 -0.007240361 -0.037954934 0.0044209566 0.01738738 -0.07844254 0.055497278
-0.101111464 0.076596476 0.019765157 0.06387154 -0.016139353 0.0072410703 -0.061728686 -0.09058533
0.0323328 -0.56190294 0.35866177 -0.047081247 0.25380903 0.5105683 -0.09229265 -0.2778101
-0.07540538 -0.07498843 -0.08691325 0.07595531 0.15618296 0.015446773 0.004096813 -0.068340704
-0.07369353 -0.06610581 0.07199399 -0.004411003 -0.166814 0.06901868 -0.044643562 0.012612694
0.044955093 -0.027606014 0.12300645 0.10794003 -0.15773349 -0.043706838 0.032817055 0.009152685
-0.0038608378 0.045367423 -0.08702861 -0.0016017018 0.035725463 -0.04459029 0.0419745 -0.08939054
0.42174166 0.085124545 -0.04384666 0.027701402 0.39621022 -0.11934462 0.23163792 -0.5446895
0.11353344 0.07869832 0.005800676 0.11001481 0.13461752 0.011756812 0.16113743 0.20080882
-0.016268719 -0.05157971 -0.062389076 0.04983297 -0.089392 0.02925702 -0.009200555 0.00021854565
-0.12561257 0.05844641 -0.27517083 -0.28149217 0.05397258 0.033395573 -0.01811045 -0.09301638
-0.034977067 -0.017960018 -0.14066188 0.23297341 0.0813804 -0.08779882 -0.07554435 -0.0224653
-0.0108408425 0.024261715 0.005748152 0.029964117 -0.09725661 -0.016340218 0.09447673 0.025969926
0.07321587 0.031244291 0.029887851 -0.23966792 -0.036573928 0.06747165 -0.020040935 -0.024849484
0.06283089 0.08573264 0.07849606 -0.15782517 0.053273343 -0.081762634 -0.10177171 0.11241251
-0.060544677 0.03566648 -0.055618808 0.08026136 -0.10609085 0.044068083 0.07483436 -0.0038241223
0.08867262 0.10332838 0.047308337 0.08682116 -0.06450566 -0.03756075 0.033277698 -0.40065265
0.06525237 0.0040365006 0.08608073 -0.0817581 -0.022540847 -0.065714575 0.01121291 0.016588429
-0.2022759 -0.10240586 0.035508275 -0.11607449 0.005542533 0.08632987 -0.06269222 -0.028099658
-0.03907179 -0.18825927 0.046275545 0.35025704 0.010025609 -0.017466266 -0.043154594 0.039696496
-0.10609545 -0.18627861 0.09474935 0.0069356817 -0.0048616617 0.13900034 0.15463725 0.013395912
0.126491 0.043849897 0.02043828 -0.024245761 0.3132622 0.047019113 -0.2844456 -0.18719798
0.17147788 0.17156902 -0.13046913 0.1344545 -0.027636504 0.047008824 -0.038455207 0.00395853
-0.0034079258 0.061000876 0.084811665 -0.03359867 0.04667219 0.052115817 0.03419983 -0.086159915
-0.055004533 0.044935282 0.06743246 0.06309523 -0.17347756 0.044640962 0.28722826 0.015034653
0.1799832 0.021306867 -0.11135298 -0.05271309 -0.06780809 0.065236166 0.048165653 0.008713394
0.12069983 0.03499373 0.08969936 0.088729635 0.011426786 -0.006547117 0.025585312 0.004962567

bias f4 [256]
00000000: 2323 18ba a03f 753c 2a2a a43d 6eaa 41bc
00000010: 2e02 3ebd fb11 e0bd 7b14 73bd 96ad 8a3d
00000020: 2087 193e 8e9e 02be 2045 c43c 3125 52bc
00000030: 799a b23d ecbf a5bd 46a2 fcbc c03e 1abd
00000040: aba5 3dbc c39e 54bd b683 993d 6cdf 93bd
00000050: 53c6 863c 59e4 7fbd 3a3d a23d 126f 5d3e
00000060: a29d 23be e282 0a3e 646a 373d 0802 a7bd
00000070: 79e2 e4bd f9b8 dfbd 0883 083e 8f95 103e
00000080: 0749 72bd d4c8 20ba 5f64 963d 3c62 e1bb
00000090: e29e 08be 6bb9 e6bb 408b 64bd b81b 2abe
000000a0: 1683 64bd 75ec 3c3d e5f8 e33c 2203 dbbd
000000b0: 5f7e 19bd e48e 1c3d 8a3e f63d 49d9 263e
000000c0: 2a1e b3bc 2a20 a93d 874c 2bbd 86bc 083d
000000d0: 7d99 13be 507f ed3d 9e6b fd3d ccf1 1ebd
000000e0: 3f0d 83bd bffa 393d 9887 603e 8511 b93c
000000f0: 325e 8ebc 3709 803d de03 09be e34f 1e3c
00000100: ba01 313a 7f38 193d 4860 b6ba 5840 64bd
00000110: 8cfc b8bd 97f1 77be 4773 76bd fca9 8ebc
00000120: 59aa 9abd 367d ab3d 2d7f 033d 3226 6e3d
00000130: 8b1b 2a3c 643d 333d 8c70 693d 09a2 22bd
00000140: 4391 25be 9fd5 1d3d 05b7 6dbc 1131 18bd
00000150: f864 f0bd 8d80 e03d c53e a83d 2022 263d
00000160: 9d30 3b3e 5403 62bd bdd0 963d 475c f4bc
00000170: 8045 3d3d 751d f53d 8eba a93d f66e 5b3d
00000180: d959 15be fb8a 803e 3ccf 13be 821d e2ba
00000190: 14b9 733d 0789 09be ad77 0ebe 8219 04bd
000001a0: 4f88 a3bd 042b 7dbd 9667 b8bd 9fc6 f43d
000001b0: 2821 1c3e d140 223d 6579 bbbd 3e89 bb3d
000001c0: 9fe9 06bd da5a 593c 49ae 76bd 403d 2b3d
000001d0: 2f08 dcbd c892 02be 5333 4dbd 3fc1 a1bd
000001e0: a74a e4bc c05c 2a3e 1a29 493d 1692 7cbc
000001f0: 7fc5 7fbc 50c6 db3c 9df4 1bbd c656 e2bb
00000200: bb29 c1bd 4926 d93c 0259 763d 6dd4 d43d
00000210: 82eb f2bd 75a2 fa3b 4275 ce3d 785e a93d
00000220: 0752 d3bd d118 05bd 753a 5fbd 6735 ccbd
00000230: 8f83 023e b244 06bc 07e0 27bd 2ea1 e5bd
00000240: 120b 8a3d 562a 1e3c 34c7 8ebd 7685 4c3e
00000250: e5a4 3c3d e562 293e a028 dcbc b9e3 813d
00000260: 3d27 423d 157f 343d e3a7 43bd a604 27bc
00000270: acb1 ed3d b0f5 f53b faf7 08be bf8d c5bd
00000280: e7d1 103d 62a5 bdbc 72b5 ec3c 229b 92bc
00000290: 6c6f a33d 9eb6 30be f9ef a03d c727 40bd
000002a0: beae 79bc df40 64bd ba11 37bc 2167 2a3d
000002b0: b308 c1bc 1bc1 43bd 02bb 503d 0ea6 e13d
000002c0: 568a 6f3d 1234 b0bd 450f c4bd 886b 01be
000002d0: 32b7 923d c04c 153d 4f2f 313e 4ada 1cbd
000002e0: e60b fb3c e526 babd 7f80 313e 50a8 01bd
000002f0: 8d0b 62bd febc 8fbd da38 e1bc cfa4 f9bb
00000300: cece afbc 7755 043e eabe d1bd 0248 e33d
00000310: 1c21 e93c e892 5bbd ad45 a53b f21a 0c3d
00000320: 9a0f 883d 522d c8bd 8188 d33d a259 23bd
00000330: 1698 8c3c c43b 41bd 1192 033d 1a1e 853d
00000340: 3834 253e eb6e db3c d587 8abd 8abe afbd
00000350: 7877 1cbd 8821 053e 7cbf dcbd fadd e13d
00000360: 473e d03c ba1c 353e f0d5 263d d17d 5ebd
00000370: 2044 263d 5e6d 9bbc d900 6d3d 7b5d f13d
00000380: 2a45 0c3e 10ec 0cbc 794f ab3c 3ced 8abc
00000390: 53e6 9bbc 3534 1f3c 88aa febc c7ae 1fbe
000003a0: b188 56bd 8fe2 ae3d ec03 65bd 3e29 c73d
000003b0: 7cdf fabc e767 c83d 3f25 1ebe 567f 75bc
000003c0: b77f 04bd a7a3 4e3c 4c3f 38bd e64f 1cbe
000003d0: 71fe 963d 87d3 91bb a5d1 3b3b 1bde 7d3d
000003e0: 062d c8bd 9bf3 333d 0728 a6bb 1c0a 0839
000003f0: 506d f0bd f533 31bc 4f35 503d 0dd0 de3d
-0.00058035756 0.014968783 0.08015855 -0.011820419 -0.046388797 -0.109409295 -0.059345704 0.0677139
0.14992952 -0.12755796 0.023958743 -0.01282625 0.087208696 -0.08093247 -0.030839097 -0.0376575
-0.011575143 -0.05190922 0.07495825 -0.07220349 0.01645199 -0.06247363 0.07921834 0.21624401
-0.15978101 0.1352649 0.044779196 -0.08154684 -0.11176009 -0.109239526 0.13331234 0.14119552
-0.059151676 -0.00061334413 0.07343363 -0.0068781655 -0.13341859 -0.0070411465 -0.05579686 -0.16612136
-0.055789076 0.04612394 0.027828643 -0.10693957 -0.037474032 0.03822221 0.12023647 0.16293825
-0.02186497 0.08258088 -0.04182103 0.033382915 -0.1441402 0.115965486 0.12374042 -0.038804814
-0.06399011 0.045405146 0.21926725 0.022591362 -0.0173789 0.062517576 -0.13380381 0.009662601
0.00067522714 0.037407394 -0.0013914192 -0.055725425 -0.090325445 -0.24213253 -0.06016853 -0.01741504
-0.075520225 0.083734915 0.032103706 0.058141895 0.010382543 0.04375972 0.0569921 -0.03970531
-0.16168694 0.038533803 -0.014508967 -0.03715617 -0.11738008 0.10962019 0.08215097 0.040559888
0.18280263 -0.055178955 0.073640324 -0.029829158 0.04620886 0.11968509 0.082875356 0.053572617
-0.14585055 0.25106034 -0.14434522 -0.0017251226 0.059502676 -0.13431178 -0.1391284 -0.03225089
-0.07984983 -0.0618086 -0.090041324 0.119519465 0.15247023 0.039612595 -0.091540135 0.09157036
-0.032937642 0.01326629 -0.060224805 0.04180646 -0.107437484 -0.12751305 -0.050097775 -0.07898187
-0.027867628 0.16636944 0.049111463 -0.015415689 -0.015611052 0.026827961 -0.03807508 -0.006907317
-0.094317876 0.026507514 0.06014348 0.103920795 -0.11861326 0.007648761 0.10080959 0.082699716
-0.1031838 -0.03249437 -0.05449911 -0.09971123 0.12745498 -0.008195089 -0.040985133 -0.11212383
0.06740393 0.009653648 -0.06971589 0.19972786 0.046055693 0.16541632 -0.02687484 0.06342263
0.0474007 0.044066507 -0.04776753 -0.010193979 0.11606154 0.007506095 -0.13375846 -0.096461765
0.03535643 -0.02315015 0.028895114 -0.017896239 0.079802364 -0.17257163 0.07858271 -0.046912935
-0.015239416 -0.05572593 -0.01117366 0.041602258 -0.023563718 -0.04779158 0.050959595 0.110180005
0.058481537 -0.086036816 -0.09573225 -0.12638676 0.07163848 0.036450148 0.17303203 -0.038294114
0.030645322 -0.0908945 0.17334174 -0.031654656 -0.055186797 -0.07018469 -0.02749293 -0.0076185237
-0.021460917 0.12923227 -0.10241492 0.11097719 0.02845817 -0.053606898 0.0050437064 0.034205385
0.06643601 -0.09774269 0.103287704 -0.039880402 0.017162364 -0.047176138 0.03212172 0.06499882
0.16133201 0.026786288 -0.06764189 -0.08581264 -0.03819987 0.13001072 -0.1077871 0.11028667
0.025420321 0.1768674 0.04073137 -0.054319207 0.040592313 -0.018973049 0.057862137 0.11785408
0.13698259 -0.008601204 0.020911919 -0.016958825 -0.019030726 0.009717037 -0.031087175 -0.15594016
-0.052376453 0.08539306 -0.055911943 0.09724663 -0.030624144 0.09785443 -0.15443896 -0.014983973
-0.03234836 0.01261226 -0.04498224 -0.15264854 0.073727496 -0.004450265 0.0028658893 0.061979394
-0.097742125 0.043933492 -0.0050706896 0.00012973737 -0.117396 -0.01081561 0.05083209 0.10879526

weight f4 [256, 256]
00000000: afa4 14bd c049 b5bc b293 91bb 6ae3 a43c
00000010: c490 14bd 88c3 83bb 76d9 c2bb b68f 0c3d
00000020: 563b 20bd e363 18bd 8ed5 78bb ef6f 4e3c
00000030: 5732 713c 2e3c 15bb 99b5 ae3c e124 06bc
00000040: 27fb f6bb be02 9bba 4f4b 53bc de01 99bc
00000050: 5ad8 b9bc a8ba 333d 55b2 8abc 257a 24bd
00000060: 8a7c d23c fcbf 1e3c e942 febc d4a4 e33c
00000070: b9ef ce3c 679f cc3c e088 debc 1cd4 60bd
00000080: 8ac0 683d 77b2 27bd 27a1 76bd 1a5f 743b
00000090: 703a 223d 9e19 a33c ccb3 90bc 9945 603b
000000a0: 990a 0bbd 5678 ddbc 78c6 febc 7075 c83b
000000b0: 7c44 013c 21d1 593c 6f86 303d 46ae 343d
000000c0: c0b6 423c 484a 5c3d 9a30 103d 37d0 9e3b
000000d0: d6ff b9bc b785 d1ba 1c74 f03b a575 fa3c
000000e0: 5205 e13b b7ae 95bc 3b82 223c a9e9 38bd
000000f0: e673 f4bc 6261 3cbd f570 01ba 694f 80ba
00000100: 0d51 be3b ffa3 fbbc cca0 183a 0467 443d
00000110: 0ebf 26bc c426 38bc a370 cf3c 2c52 1b3c
00000120: 63da 05bd fb49 cb3c 0fcf 1e3d 676f 9d3d
00000130: d6eb 0cbc ec8a 0d3c 7a2a 873c 7c66 c43b
00000140: a427 3abd c639 8f3c 923f 973b 640f 85bd
00000150: cdac dc3c 21eb 003d a27c f5bb ac07 f5bc
00000160: fbcc 393d 0530 c43c 11a7 cabc 6551 34bd
00000170: bbdc 4abc 0261 9cbc 5823 90bb f7cb 153d
00000180: fbd7 cbbc 39b7 12ba 4f93 03bd 2638 8cbc
00000190: 1549 a8bc 3c1d 45bc 0e05 1abc 8688 8bbc
000001a0: 3d09 cb3c 500a 4abd 3db6 023c 27f9 07bd
000001b0: e2f3 42bc 7567 13bd 2f25 aebd 69b7 60bd
000001c0: b587 033e 87d3 f7bc 53a8 0d3b ca54 503d
000001d0: 9dbd 8cbb de95 533c 0a6a 483d 9c60 953b
000001e0: 5564 d1bb 0fd2 a23c 6122 1bbc 20b5 223c
000001f0: a94e c83b d275 f7bc e887 bdbc a344 b13b
00000200: 277c 613b 0394 923b c6e1 133d 3d74 ce3d
00000210: a8e2 37bc c272 f2ba fc6b 31bb 16e5 1d3d
00000220: 97cb 0dbd ff9d 06bc 420c 9d3b 2b01 123c
00000230: 454c 483b d019 793d f4f8 edbc 0a04 4c3c
00000240: cc71 823d 3cf4 e03b 7d95 89bd b12e edbc
00000250: 54db 66bd 2781 eabc 91af 823c 7b8a ec3c
00000260: 5d09 bebb 0de6 1bbd 3778 063d b5ee ffbc
00000270: 5d10 11bd d439 973b c9b9 29bd 5a38 70bb
00000280: 7a3d d4bc 8918 ec3b 25ec 86bc f2b4 8abc
00000290: b2b2 6d3d a10d b73c 9001 46bc 41fd 46bd
000002a0: ab64 67bd 332e 823b dda5 193d 2b26 de3c
000002b0: 9159 413d a468 a63c dd15 a3bc 322f 413c
000002c0: a93c 29bc a916 b4bc cfbf 563c e830 73bb
000002d0: 3cca 183c df35 a7bc f4df ffbc ed00 19bc
000002e0: bfbb c33c 6bee 2c3c d2c2 0ebc 3cb3 89bc
000002f0: 0a1a 18bd 2d12 ae3c 7f12 fe3c 5274 41bd
00000300: 86ef a33a 4085 adbb 4248 2dbd 24f2 2b3c
00000310: 6cd2 113d ce5d b93c aebc 0c3c f73f 87bb
00000320: 738e 36bc 492e 5a3c fa2d a03c b183 45bc
00000330: 6b6e 6ebc 1e00 0d3d b174 be3c 1882 de3c
00000340: aff5 32bd 8659 6b3b 5934 513d 6930 1cbd
00000350: 9e7b 873c 6fa3 7c3b c00f a5bc 8043 993c
00000360: c117 853c 231d 9c3c 2582 5fbc 38a8 b5bd
00000370: 3a79 01bd db07 6e3d 2338 08bc 634d 81b9
00000380: 0121 793d 60d7 b8bb 0a83 e93c c55a 193d
00000390: 5545 8e3c f010 fc3b 51ba 99bb 757e 33bc
000003a0: 4e0f 41bd 8fb6 263d 0809 293c 750b 743c
000003b0: 0c8d a9bb a5b5 443c d63b 6abd 73f5 e3bb
000003c0: caee dabb bf19 c73a 121a d3bb fc36 413d
000003d0: d489 db3c dd9f f0bc 13b7 e2bc c6ee 49bd
000003e0: d100 8cbc b9a8 18bd e72e 0a3d 62b8 673c
000003f0: 55fe 8bbc 5e6a 0ebc ca8a 833c e918 69bc
-0.036289867 -0.022129893 -0.0044426555 0.02012797 -0.03627087 -0.004021112 -0.0059463335 0.03431674
-0.039119087 -0.037204634 -0.0037969085 0.012599929 0.014721475 -0.0022771466 0.021326827 -0.008187504
-0.007537264 -0.0011826379 -0.012896373 -0.018677648 -0.022686172 0.04387918 -0.016930738 -0.04015555
0.02569415 0.009689327 -0.031037765 0.027788557 0.025260793 0.024978353 -0.027164876 -0.054889783
0.056824245 -0.04094168 -0.06021228 0.003728813 0.03960651 0.019909676 -0.017663859 0.003422117
-0.033945654 -0.02703492 -0.031100497 0.0061175153 0.007889863 0.013294489 0.043096956 0.044111513
0.011884391 0.053781778 0.0352026 0.0048465985 -0.022705 -0.0015985285 0.00733806 0.030573675
0.0068670893 -0.018271787 0.009918745 -0.04514471 -0.029840421 -0.04599131 -0.00049377914 -0.0009789291
0.005808002 -0.030717848 0.00058223004 0.047949806 -0.010177387 -0.011239711 0.025322264 0.0094800405
-0.032678973 0.02481555 0.038771685 0.07687264 -0.00860115 0.008639079 0.016499747 0.0059936624
-0.04544796 0.017483603 0.0046157325 -0.06497076 0.026937867 0.031474236 -0.007491664 -0.029910885
0.0453615 0.023948679 -0.024737867 -0.044022936 -0.012381728 -0.019089226 -0.0043987446 0.03657147
-0.024883261 -0.00055967603 -0.032122906 -0.017116617 -0.02054266 -0.012030896 -0.009400619 -0.017032873
0.024784679 -0.04932624 0.007978019 -0.033196595 -0.0118989665 -0.035987336 -0.08503186 -0.054862414
0.12844737 -0.030252231 0.0021615222 0.05086211 -0.0042950646 0.012914149 0.04892925 0.004558636
-0.0063901343 0.019875554 -0.009468646 0.009930879 0.0061128926 -0.030207548 -0.023136094 0.0054097935
0.0034406276 0.004473211 0.036103986 0.100807644 -0.011223473 -0.0018497335 -0.002707242 0.03854855
-0.034617987 -0.00821638 0.004792721 0.008911411 0.0030563038 0.060815632 -0.029049374 0.012452135
0.06369361 0.0068650525 -0.06717966 -0.028952928 -0.05636151 -0.028626038 0.015952857 0.028874626
-0.005799456 -0.03806119 0.03282949 -0.031241754 -0.035415996 0.004615048 -0.041436944 -0.0036654682
-0.02590822 0.0072050733 -0.016470024 -0.016931985 0.058031745 0.022345366 -0.0120853335 -0.048581365
-0.05649249 0.0039727925 0.037511695 0.02711781 0.047204558 0.020313568 -0.019907886 0.011791037
-0.010329404 -0.021983461 0.013107254 -0.0037108008 0.00932556 -0.02041143 -0.031234719 -0.0093386
0.023893235 0.01055489 -0.008713441 -0.016809098 -0.037134208 0.021248901 0.031014679 -0.047230072
0.0012507297 -0.0052954257 -0.04230524 0.010494743 0.035601065 0.022627737 0.008589907 -0.0041274983
-0.011142361 0.013316699 0.019553173 -0.012055323 -0.014552693 0.03442394 0.023249002 0.027161643
-0.043691333 0.0035911514 0.051075313 -0.038132105 0.016538437 0.0038549562 -0.020149112 0.018708944
0.016246678 0.019056862 -0.013641869 -0.08869976 -0.03160975 0.05811296 -0.008314165 -0.00024662455
0.06082249 -0.005640909 0.028504867 0.03744008 0.017367044 0.007692449 -0.0046914 -0.010955443
-0.047133736 0.040701445 0.010317095 0.01489531 -0.005174285 0.012006198 -0.05718597 -0.00695675
-0.006681298 0.0015190168 -0.006442317 0.047171578 0.02679912 -0.029373104 -0.027675187 -0.049299978
-0.017090233 -0.03727028 0.033736136 0.014143081 -0.017089048 -0.008692352 0.01605739 -0.01422713

bias f4 [256]
00000000: 4833 ebbc a65c 083c db18 aabc 7bd5 083d
00000010: b80d 563d 10d9 093d be4f 6cbc 2de3 ecbb
00000020: fb86 89ba f825 923c 7714 f1bb e867 953c
00000030: c7b4 0a3d 8747 ecbc e397 803d da23 b13c
00000040: f2e2 36bd 2b5c 113b 30f5 003b 31b3 923c
00000050: 72ae 9b3c b559 2fbd 8a76 71ba a86d 62bb
00000060: b13e 323b 50b7 063d c54f 07ba 7600 9dbc
00000070: 6124 0a3c 1d9a 2c3d d451 61bb 377d c3bb
00000080: b93a 79bc 2df6 03bd f304 94bb aae6 9dbc
00000090: a817 793a 46e8 09bb 29ca 1d3d e982 de3c
000000a0: 4184 ec3c ab83 d33c 697c 243a 9159 2a3c
000000b0: fcec 48bc 1bd0 a8bb 8224 c33b 87b6 ef39
000000c0: c928 043d e02e 97bc e810 db3a 9e82 8cbc
000000d0: 3cd6 b83a dbdf e13b 4a97 86bb 747b 823c
000000e0: e6b1 61bc 5b79 b4bc 38b4 e6bc cdcc 14bc
000000f0: 4cd3 2a3c d80c afbc 0e04 823c 1a10 b2bc
00000100: 1756 30bc 47bd f63c b645 c73b ef8a 4fbc
00000110: 681e 07bd 9bf8 633d 9d37 d4bc 77c3 b1bc
00000120: 8b09 f0bc de46 41bc 7bd5 c0bc 1efe 023d
00000130: c992 12bd 95c4 813d ef85 3fbd 9dc5 85bc
00000140: 02c4 61bc 9852 98bb 4685 053d 85e4 863c
00000150: 7bc8 df3c d6ec c1bc 3a07 97bb f21e 33bd
00000160: 708b 87bc 5c08 e03c 9a4f c3bb 1c08 9c3c
00000170: 7b4b 8c3b e78b a03c 74a9 8fbb 3dbf c6bb
00000180: 014e 5d3d b30e bf3c fe2f d3bb a4d3 89bc
00000190: 0d56 98bb b144 16bd 0a9e 2dbc 0074 493a
000001a0: df8b 473d f9a3 3c3b e763 f3bb 20f2 70ba
000001b0: 2982 75bc 7886 043c be94 a93c d824 3e3d
000001c0: c087 bb3c 2a7a 46bd 4bd4 a6bc df16 173c
000001d0: 023a acbc fc63 a4bc f958 52bb 1e1f 5abd
000001e0: 7257 4dbb af38 33ba ef0b 243d eb86 39bc
000001f0: afab 183d d21c 723a d017 b33c 5e24 dc3c
00000200: a0fb 233d 6472 87bc 712e 1ebd 5a6c 553d
00000210: 83c1 183d 971c 0d3d 86b6 d93b a656 2d3b
00000220: 0052 46bd ea11 ecbb 3bf6 81bc cba2 443b
00000230: b613 27bc a2c6 ba38 54af 263d 30a0 0c3d
00000240: 954f c33a 7b27 a73c 0bd1 bcbc ed45 eabc
00000250: d88a 0ebc 9e7d e63b de96 c03c 6556 9e3c
00000260: dce9 ba3c 2b5f 063d 5cb8 023d 80af 033c
00000270: 994d 463c 538e 08bd 8b0e 2bbc da64 403b
00000280: 5599 893c 7065 49bb 2253 b43b 3cb5 22bc
00000290: f92c 01bd 4886 36bc 508f 8a3c 4603 4cbc
000002a0: a3a2 ba3b 61ff aabc 2c8e d43c f905 d7bb
000002b0: a8d2 b8bc 2305 a5bc ba6d 19bd 1146 043d
000002c0: 68c7 34bc 4565 d1bc 1443 bdbc c5d2 7cbb
000002d0: 6574 41bd 46e0 4fbc 60b2 4139 8457 d5bc
000002e0: ae89 2fbd c6d2 42bc 8936 443d 1a93 a2bc
000002f0: b1c5 a739 da6e b33b 7477 04bd 736e 3cbb
00000300: 3d12 debc eaba 193d d8ca 583a 05b1 bb3c
00000310: c0b8 a3bc 4daa e73c 6795 ef3b 8e94 31bc
00000320: 4f8b b1bc 5afe 36bd 0e71 f4ba 9a08 933c
00000330: a3bb a23b 4000 22bd 7644 d1ba aafe b4bc
00000340: 0405 fb3c 7376 1b3a 511f 9fbc 82b8 713b
00000350: 2b19 d13c 7f27 0bbd 06e5 6fbc 2374 003d
00000360: 7bd7 26bd 5ab9 ab3b 1cac 6b3c c726 eabb
00000370: d637 bcbc d473 463d 06d4 73bb b498 3abd
00000380: edab b2bc 1092 47bc a0e0 e73a 8f1d 3d3c
00000390: 8502 65ba b9d4 5c3d db4b 623d d92b 4e3b
000003a0: b9a5 f4bc 521b 6a3c de49 873d 1b76 773c
000003b0: 10af 243d f8e3 3239 79b1 c8bc 1e90 253c
000003c0: de13 5bbd bc31 393c d2f8 fe3b 34ad a13b
000003d0: 78f9 87bb a8a6 1e3c 8511 cbbc 034e 55bc
000003e0: 0779 2b3d 019a d5bb 4352 123d ceaf 853c
000003f0: 8bc3 853c 233a a2ba 9887 c83b 79b7 6f3c
-0.028710976 0.00832287 -0.020763805 0.033406716 0.052259177 0.033654273 -0.014423309 -0.00722923
-0.0010492498 0.01784037 -0.007357176 0.018238023 0.03386381 -0.0288427 0.0627897 0.02162354
-0.044650026 0.002218018 0.0019677393 0.01790771 0.01900408 -0.04281016 -0.0009211084 -0.0034550223
0.0027198012 0.032889664 -0.0005161728 -0.019165259 0.008431525 0.04213916 -0.0034381049 -0.0059658545
-0.0152117545 -0.032217193 -0.0045171916 -0.019275028 0.0009502121 -0.0021042987 0.038522873 0.027162032
0.028871657 0.02581962 0.0006274642 0.010397331 -0.012263533 -0.005151761 0.00595528 0.00045721626
0.03226546 -0.018454969 0.0016713412 -0.017152127 0.0014101933 0.0068931407 -0.0041073905 0.015928008
-0.013775324 -0.022030523 -0.028162107 -0.009082031 0.010426354 -0.021368429 0.015871074 -0.021736193
-0.010762713 0.030119551 0.0060813082 -0.012667402 -0.032987982 0.05565701 -0.025905425 -0.02169965
-0.029301425 -0.011796681 -0.023539295 0.031980626 -0.035784516 0.06336323 -0.04675859 -0.01632958
-0.013779642 -0.004648518 0.032597803 0.016466388 0.027317276 -0.023672502 -0.004609016 -0.043730684
-0.016545981 0.027347736 -0.005960417 0.019046836 0.004281459 0.01959796 -0.004384214 -0.006065278
0.05402947 0.023322439 -0.00644493 -0.01682455 -0.00464893 -0.036686603 -0.0105967615 0.0007684827
0.048717376 0.0028784259 -0.007427681 -0.0009191353 -0.014984646 0.0080887005 0.020700809 0.046421856
0.02289188 -0.04845635 -0.020364901 0.0092217615 -0.021023754 -0.020067208 -0.003209649 -0.053252332
-0.003133264 -0.00068367546 0.040050443 -0.011323671 0.037273105 0.0009235862 0.02186194 0.02687281
0.04003489 -0.016534038 -0.03861851 0.052105285 0.037293922 0.034451094 0.006644073 0.0026449352
-0.048418045 -0.007204284 -0.015864482 0.0030004259 -0.010197571 8.9061694e-05 0.04069455 0.034332454
0.0014901037 0.020404568 -0.023048898 -0.028597796 -0.008700095 0.0070340177 0.02350944 0.019328305
0.022816591 0.032805603 0.0319141 0.008037448 0.012103462 -0.033338856 -0.010440479 0.0029356987
0.016796747 -0.0030730627 0.0055030743 -0.009930905 -0.03153703 -0.011140414 0.01691404 -0.012451952
0.0056956573 -0.020873727 0.0259467 -0.0065619913 -0.022561386 -0.020144051 -0.03745816 0.032293383
-0.01103387 -0.025560984 -0.023103274 -0.0038577777 -0.047230143 -0.012687748 0.00018472364 -0.026042707
-0.04285591 -0.011891073 0.04790357 -0.019845534 0.00032000014 0.005475861 -0.032340482 -0.0028752356
-0.027108306 0.03753177 0.0008269972 0.022911558 -0.019985557 0.028279448 0.0073115113 -0.010838641
-0.021672873 -0.044676162 -0.0018649416 0.017948437 0.0049662157 -0.03955102 -0.0015965838 -0.02209409
0.03064204 0.0005930431 -0.019424113 0.0036883657 0.025524696 -0.033973213 -0.014642006 0.031360757
-0.040732842 0.0052406015 0.014384296 -0.007145736 -0.022975843 0.048450306 -0.0037205233 -0.045555785
-0.021810496 -0.01218082 0.0017690845 0.011542692 -0.0008736032 0.053913806 0.055248123 0.003145924
-0.029864179 0.01428874 0.06605886 0.015103842 0.040206015 0.00017060328 -0.024498688 0.010105161
-0.053485744 0.0113033615 0.0077811265 0.0049339775 -0.004149612 0.009683289 -0.024788627 -0.013019088
0.041863468 -0.006518603 0.035722982 0.016319182 0.016328594 -0.0012376945 0.0061196797 0.014631146
