output/2023-09-14-22-52-13/trained_model/tetris_epoch1914_score1900.pt (torch, 842187 bytes, 8 tensors)

weight f4 [32, 1, 4, 4]
0.023114888 0.012208929 -0.022792606 0.0041739834 0.01464748 0.074682266 -0.002696253 0.05821186
-0.23550597 0.12161141 0.18610315 0.00033727865 0.076190636 0.15942907 0.17489025 -0.04372446
0.44459802 -0.0031433322 -0.37173724 -0.2564281 -0.5808623 0.014838838 -0.059380405 -0.15408741
0.06636835 -0.24083464 0.047989015 -0.28771132 -0.15890831 0.0374525 0.12129667 -0.6808928
0.03420898 0.03895375 -0.7538214 -0.18741462 0.0173107 -0.2669574 0.15956378 -0.24518779
0.09102973 0.31220973 -0.014117373 0.032134723 -0.14751561 -0.10498363 -0.18787032 -0.08193365
-0.3884599 -0.33055452 -0.09424593 -0.0035515619 0.24450931 -0.21446837 0.24053246 0.10599193
-0.3085879 0.02398006 -0.5897079 0.13929427 -0.1200314 -0.6305379 -0.51545006 0.10060649
2.6053174e-05 -0.76818925 -0.09229568 -0.073288 0.021517687 0.028641395 0.07980654 0.049788456
0.23480497 -0.8788137 0.29414657 -0.010390348 -0.06905309 -0.082026385 0.013999629 -0.015439401
0.0022174716 -0.011649845 -0.11990044 -0.0992998 0.021036474 -0.0034255523 0.2917042 0.7644574
-0.03396816 -0.006050071 -0.26007646 -0.79310715 -0.019716913 -0.002639256 -0.00838479 -0.037189834
0.021447986 0.057943676 0.15708086 0.2552617 0.13409199 -0.022934955 0.19952518 -0.42895728
0.09286979 0.04213775 0.03845174 -0.6094288 -0.01624132 -0.011201807 0.08963649 -0.33534396
-0.010309004 -0.020346794 0.17778723 -0.12021005 0.08209209 0.0845575 -0.6919267 -0.6227188
-0.012565736 0.07411588 -0.48944053 -0.061438642 -0.068486534 0.1842801 -0.35206607 -0.3806197
-0.11021316 0.11320149 -0.4299576 -0.16939795 0.08847089 0.1450633 0.1735364 -0.39805904
-0.028640611 0.08766991 -0.25710493 -0.68601084 0.14578082 -0.054640964 -0.0794592 0.10561736
-0.18790677 -0.028046023 0.047163136 0.02271582 -0.13082898 -0.23204662 -0.4320899 -0.069001734
-0.028069638 0.46136928 0.15358895 -0.04728931 0.06960572 -0.8582904 0.10347926 0.03530733
0.007428854 -0.12278641 -0.15206431 -0.13303341 -0.040476855 -0.08193273 -0.2069384 0.023563571
-0.021358334 0.077045605 0.55640554 -0.04832142 -0.010093249 -0.11594592 -0.6888217 -0.017680423
-0.092884816 -0.07059531 -0.3382781 -0.080883116 -0.029140221 -0.12251474 0.031114079 0.26196626
-0.074070185 -0.013335852 0.13552323 -0.49991804 0.08962198 0.037325248 0.064126536 -0.4589521
0.118817806 -0.15367472 0.031538203 -0.10832064 0.02620954 0.49769172 0.036429655 -0.08334373
-0.06682078 -0.5212521 0.1739523 -0.037196 -0.023855533 -0.6247183 -0.20460482 0.022156756
0.045487124 -0.07566682 -0.03765856 0.05822992 -0.02316502 0.17231463 0.11780024 0.0059881145
-0.007506654 0.85459197 -0.049265083 0.042924844 0.009184561 -1.3105018 0.08943595 -0.029887281
0.021304063 0.43780515 0.058006912 -0.02584723 -0.016080504 0.6951552 0.0058963243 0.018314276
-0.009153218 -1.1885164 0.003431969 -0.023264663 -0.02334395 -0.0550333 -0.06500288 0.017959638
-0.22775999 -0.037968766 0.15523735 -0.106313474 -0.017409641 -0.17362078 -0.08229346 -0.012907312
0.13511078 0.18231668 0.08590691 0.15356426 -0.0065564215 0.08723601 -0.020679703 0.12212908
00000000: 6f5b bd3c f607 483c 8fb7 babc e9c5 883b
00000010: fcfb 6f3c 04f3 983d 9eb3 30bb 8f6f 6e3d
00000020: 7a28 71be 670f f93d d391 3e3e c6d4 b039
00000030: d609 9c3d 6041 233e 6e16 333e 6b18 33bd
00000040: 5aa2 e33e 5d00 4ebb 5854 bebe 8b4a 83be
00000050: 64b3 14bf 991e 733c de38 73bd 17c9 1dbe
00000060: 21ec 873d 5b9d 76be 2190 443d e64e 93be
00000070: dcb8 22be cb67 193d 636a f83d fe4e 2ebf
00000080: b71e 0c3d f88d 1f3d 70fa 40bf 9ee9 3fbe
00000090: 2bcf 8d3c a4ae 88be b064 233e 8212 7bbe
000000a0: cc6d ba3d f4d9 9f3e 8e4c 67bc b39f 033d
000000b0: 550e 17be a801 d7bd 1461 40be d4cc a7bd
000000c0: 37e4 c6be 713e a9be 0304 c1bd 52c1 68bb
000000d0: a660 7a3e 999d 5bbe 244e 763e 4c12 d93d
000000e0: 3cff 9dbe d571 c43c 19f7 16bf 28a3 0e3e
000000f0: 06d3 f5bd ef6a 21bf 89f4 03bf c70a ce3d
00000100: c48c da37 0da8 44bf 8405 bdbd 0518 96bd
00000110: dc45 b03c 5ca1 ea3c 9c71 a33d fbee 4b3d
00000120: b770 703e eff9 60bf 619a 963e 473c 2abc
00000130: b56b 8dbd 73fd a7bd b35e 653c 8bf5 7cbc
00000140: 0053 113b fede 3ebc 5d8e f5bd b25d cbbd
00000150: af54 ac3c 3b7f 60bb 415a 953e 7bb3 433f
00000160: 3322 0bbd ad3f c6bb be28 85be 1209 4bbf
00000170: 5d85 a1bc 5ef7 2cbb 5c60 09bc 5e54 18bd
00000180: b0b3 af3c 5956 6d3d ced9 203e a9b1 823e
00000190: 694f 093e 16e2 bbbc 5450 4c3e 4aa0 dbbe
000001a0: 8432 be3d a298 2c3d 927f 1d3d 8703 1cbf
000001b0: 840c 85bc c987 37bc 5693 b73d 34b2 abbe
000001c0: 19e7 28bc 52ae a6bc db0d 363e b030 f6bd
000001d0: e61f a83d 7c2c ad3d 1c22 31bf 806a 1fbf
000001e0: 84e0 4dbc 11ca 973d f397 fabe 16a7 7bbd
000001f0: ab42 8cbd ecb3 3c3e 0142 b4be 96e0 c2be
00000200: 70b7 e1bd 2fd6 e73d 6723 dcbe a876 2dbe
00000210: 3a30 b53d 798b 143e 87b3 313e 65ce cbbe
00000220: b79f eabc 488c b33d 42a3 83be 689e 2fbf
00000230: 9147 153e 34cf 5fbd 81bb a2bd ea4d d83d
00000240: a26a 40be c6c0 e5bc 222e 413d 8716 ba3c
00000250: 08f8 05be a19d 6dbe e33a ddbe c850 8dbd
00000260: 4cf2 e5bc 9838 ec3e 6c46 1d3e 6fb2 41bd
00000270: 728d 8e3d ebb8 5bbf efec d33d 6b9e 103d
00000280: be6d f33b 7177 fbbd bfb6 1bbe e939 08be
00000290: 0fcb 25bd 59cc a7bd a9e7 53be 6408 c13c
000002a0: acf7 aebc 16ca 9d3d 9870 0e3f aeec 45bd
000002b0: 285e 25bc 0e75 edbd 9e56 30bf 89d6 90bc
000002c0: 653a bebd 4694 90bd ca32 adbe 0ca6 a5bd
000002d0: 79b7 eebc 02e9 fabd f4e2 fe3c 7120 863e
000002e0: 1cb2 97bd 9e7e 5abc 9ac6 0a3e 42f5 ffbe
000002f0: bb8b b73d 5ce2 183d c654 833d c5fb eabe
00000300: c056 f33d e85c 1dbe 342e 013d 36d7 ddbd
00000310: 64b5 d63c 73d1 fe3e 4337 153d 1eb0 aabd
00000320: 55d9 88bd c770 05bf 8d20 323e d55a 18bd
00000330: ae6c c3bc 8aed 1fbf ed83 51be 1682 b53c
00000340: b550 3a3d 35f7 9abd dd3f 1abd 7f82 6e3d
00000350: 91c4 bdbc 3f73 303e 4141 f13d f237 c43b
00000360: 61fa f5bb 8ac6 5a3f 2fca 49bd f6d1 2f3d
00000370: d77a 163c 86be a7bf 322a b73d 2cd6 f4bc
00000380: dc85 ae3c ff27 e03e a898 6d3d 92bd d3bc
00000390: 43bb 83bc b1f5 313f f435 c13b d207 963c
000003a0: 61f7 15bc 4e21 98bf e3ea 603b 8995 bebc
000003b0: d03b bfbc 996a 61bd 3b20 85bd 1720 933c
000003c0: ea39 69be 2385 1bbd 8af6 1e3e e1ba d9bd
000003d0: aa9e 8ebc a5c9 31be 7989 a8bd 3179 53bc
000003e0: 7b5a 0a3e 39b1 3a3e f6ef af3d f33f 1d3e
000003f0: 40d7 d6bb cba8 b23d 7b68 a9bc d01e fa3d

weight f4 [32, 32, 5, 5]
0.012084003 -0.117422275 0.070820615 0.10586922 0.19483379 0.13910645 -0.22181085 -0.03820578
-0.115443766 -0.30518684 -0.00047688576 -0.08027684 -0.00041707366 -0.18172313 -0.0217745 -0.073435016
-0.63337934 -0.2596278 0.010940266 -0.36619562 0.066959985 0.058329973 -0.08612797 0.04531969
0.11612048 0.25663838 -0.25589108 0.20963675 0.5346265 0.37815255 -0.14947489 0.26255572
-0.27389652 -0.07336865 0.23087649 0.0402561 -0.19248684 -0.4360856 0.08967817 -0.27273327
-0.043754786 -0.014937709 -0.1445316 -0.26080012 -0.16093677 -0.2194146 0.32423428 0.04052637
-0.036770105 0.36653602 0.11588112 -0.20794003 -0.17284392 0.2077502 0.104571454 0.44283414
0.36329845 -0.50029594 -0.35903004 -0.22011551 -0.08803494 0.37580323 -0.20625609 -0.3497351
0.041429263 0.24072428 -0.3689965 0.06359984 0.32252538 -0.12888625 -0.010786676 -0.22263671
-0.038682893 -0.33732626 0.23943885 0.080247454 -0.12099589 0.30632803 -0.31422746 0.09117376
-0.53354764 0.21566959 0.16322297 -0.5822491 -0.03348328 -0.3508942 -0.4029307 -0.059233278
0.10617152 -0.604241 -1.1407195 -0.009385246 -0.44898954 -0.17336445 0.3454936 -0.060109366
0.17933474 -0.12838773 0.25312462 -0.271409 0.06774422 0.075604506 0.0713572 0.5612795
-0.88595736 -0.34983778 0.4027976 0.10353029 -0.25354174 -0.006083208 -0.33176318 -0.13431937
0.33496115 0.0651481 0.7816314 -0.16679032 0.009663395 -0.48656046 -0.16444005 -0.6412972
0.086122 0.111611426 0.08861093 -0.14232449 -0.019887216 -0.031607583 0.068862505 -0.024567124
-0.062874995 -0.1152528 0.08516881 -0.3305076 -0.020706968 0.020173272 -0.083359845 0.0027500326
-0.10684849 0.03248007 0.04760516 0.20347369 -0.2268116 -1.7202287 -0.7306264 -0.18207873
-0.5061174 0.009126458 -0.39967257 0.00535369 -0.30340976 -0.38791317 0.16525024 -0.10302237
-0.047287695 -0.34357843 -0.6459698 0.10870624 0.13874575 -0.33741978 -0.077351235 -0.8464359
0.029893694 0.272443 -0.14471167 0.15047088 0.17400032 -0.21733141 -0.19806793 -0.39997476
-0.0017089853 -0.107971184 -0.0016402705 0.052397575 0.0016197341 0.3111259 0.09675836 -0.009324516
-0.56053376 0.46689352 -0.019904366 -0.21707186 -0.04622833 0.026981024 0.1152136 0.34240752
-0.9777596 0.020175481 -0.29175666 -0.295855 0.14851867 -0.2677284 0.19688328 -0.22563744
-0.21290578 0.24821551 0.0049750274 -0.20517822 -0.18794158 -0.19145715 0.2505789 -0.0421583
0.3139806 -0.14312693 0.05833357 0.30963284 -0.042716354 -0.774576 0.114605345 -0.25345573
0.17689551 -0.15607077 -0.7170251 0.1781058 0.15738258 0.017856024 -0.6496275 -0.5121839
-0.33494574 -0.28124893 0.08187805 0.14546822 -0.26911733 0.23344983 -0.066222794 -0.27601033
0.20459774 0.19410431 0.26553237 -0.35826546 -0.047933917 0.040938936 -0.4674057 -0.2833511
0.019118331 -0.29770684 -0.31347403 -0.45363325 0.37866938 -0.119577855 0.034711804 0.037315115
-0.26881194 0.14628682 -0.32349455 0.12870687 -0.46803483 -0.1569474 0.23848173 0.11558213
0.057756692 0.19357815 0.79638076 -0.5967815 0.056755565 0.18325906 0.15165281 -0.39349124
00000000: fbfb 453c 177b f0bd 660a 913d f6d1 d83d
00000010: 8282 473e ec71 0e3e 6222 63be aa7d 1cbd
00000020: c86d ecbd 7341 9cbe 8606 fab9 2f68 a4bd
00000030: aeaa dab9 a115 3abe 7060 b2bc 1965 96bd
00000040: 2625 22bf efed 84be cd3e 333c fe7d bbbe
00000050: 5122 893d 69eb 6e3d dc63 b0bd 24a1 393d
00000060: 93d0 ed3d 1b66 833e 2804 83be 04ab 563e
00000070: 48dd 083f 369d c13e f20f 19be b46d 863e
00000080: 2a3c 8cbe 4e42 96bd e36a 6c3e 95e3 243d
00000090: 451b 45be 9d46 dfbe 30a9 b73d b2a3 8bbe
000000a0: 3838 33bd 4bbd 74bc 1700 14be 9887 85be
000000b0: 9ccc 24be 39ae 60be 0902 a63e fbfe 253d
000000c0: 409c 16bd 9caa bb3e 1553 ed3d 3bee 54be
000000d0: fffd 30be 78bc 543e 8f29 d63d 28bb e23e
000000e0: 4102 ba3e 6513 00bf c9d2 b7be f665 61be
000000f0: aa4b b4bd 4869 c03e cc34 53be 7b10 b3be
00000100: bbb1 293d 6d80 763e 1ced bcbe a240 823d
00000110: 0c22 a53e c2fa 03be 99ba 30bc e1fa 63be
00000120: f471 1ebd 07b6 acbe 752f 753e c758 a43d
00000130: b1cc f7bd 07d7 9c3e 6ce2 a0be 4fb9 ba3d
00000140: 9496 08bf 7dd8 5c3e ec23 273e 470e 15bf
00000150: c425 09bd 68a8 b3be ef4c cebe 989e 72bd
00000160: 7470 d93d 8aaf 1abf 1903 92bf 93c4 19bc
00000170: f5e1 e5be 7386 31be 8ae4 b03e 3d35 76bd
00000180: 87a3 373e 1378 03be 8d99 813e 1ff6 8abe
00000190: 7bbd 8a3d 89d6 9a3d b923 923d 03b0 0f3f
000001a0: 1ace 62bf f01d b3be 7d3b ce3e b007 d43d
000001b0: 39d0 81be a655 c7bb dddc a9be 048b 09be
000001c0: 0780 ab3e 5e6c 853d ff18 483f 15cb 2abe
000001d0: 3753 1e3c 741e f9be f962 28be 0e2c 24bf
000001e0: bb60 b03d 8894 e43d a679 b53d 83bd 11be
000001f0: 84ea a2bc f476 01bd c907 8d3d fe40 c9bc
00000200: 9bc4 80bd a909 ecbd fc6c ae3d 4b38 a9be
00000210: a9a1 a9bc 6b42 a53c 91b8 aabd e439 343b
00000220: 62d3 dabd d209 053d a1fd 423d 685b 503e
00000230: 4d41 68be 7430 dcbf 550a 3bbf d972 3abe
00000240: e990 01bf 2487 153c e2a1 ccbe 026e af3b
00000250: 8658 9bbe 8e9c c6be 5c37 293e 64fd d2bd
00000260: beb0 41bd 83e9 afbe 475e 25bf 61a1 de3d
00000270: 5e13 0e3e 49c2 acbe 536a 9ebd 06b0 58bf
00000280: 9fe3 f43c a67d 8b3e 4c2f 14be 0a15 1a3e
00000290: 242d 323e 208c 5ebe 52d2 4abe 7ec9 ccbe
000002a0: 0800 e0ba ff1f ddbd 58fe d6ba d79e 563d
000002b0: 424d d43a e54b 9f3e 3f29 c63d dbc5 18bc
000002c0: 247f 0fbf ab0c ef3e 7b0e a3bc 1648 5ebe
000002d0: eb59 3dbd 4f07 dd3c 1cf5 eb3d 0a50 af3e
000002e0: 744e 7abf 0d47 a53c 2161 95be 4e7a 97be
000002f0: 4715 183e b213 89be c59b 493e 800d 67be
00000300: f903 5abe 352c 7e3e 8e05 a33b 3d1a 52be
00000310: c273 40be 580d 44be e14b 803e 2eae 2cbd
00000320: 11c2 a03e de8f 12be 2eef 6e3d 3288 9e3e
00000330: 58f7 2ebd 9d4a 46bf 35b6 ea3d f3c4 81be
00000340: 1924 353e 04d1 1fbe f58e 37bf 5e61 363e
00000350: e628 213e cc46 923c fd4d 26bf 7c1e 03bf
00000360: 027e abbe dcff 8fbe aeaf a73d 9ff5 143e
00000370: bfc9 89be 790d 6f3e d19f 87bd 3a51 8dbe
00000380: 1282 513e 48c3 463e dcf3 873e 926e b7be
00000390: 5b56 44bd 96af 273d cd4f efbe 6513 91be
000003a0: 0c9e 9c3c 086d 98be ab7f a0be 9e42 e8be
000003b0: f4e0 c13e 3ce5 f4bd f72d 0e3d bcd7 183d
000003c0: b8a1 89be 36cc 153e 14a1 a5be bccb 033e
000003d0: 43a2 efbe d2b6 20be 8e34 743e 53b6 ec3d
000003e0: 4892 6c3d 5a39 463e 9cdf 4b3f acc6 18bf
000003f0: 8678 683d 43a8 3b3e e04a 1b3e af77 c9be

weight f4 [64, 32, 5, 5]
0.009652866 -0.06912643 -0.01809509 0.22228518 -0.36650348 0.30912516 0.1227602 0.20279802
-0.016944438 0.1423269 0.08507932 -0.17781706 -0.16591862 0.1005185 0.6947124 -0.10307568
0.07059283 0.077112235 -0.16345786 0.2724068 -0.10159437 -0.56916744 -0.1404041 0.38907316
0.10103738 0.23077543 -0.39051443 0.37513962 -0.09038974 0.0060615162 0.019701768 0.35183278
0.11294712 -0.77600604 -0.0025078903 0.17489181 0.027901195 0.5872928 0.005924576 -0.38332683
0.19650985 0.3457736 -0.60594827 0.46756995 0.03467879 -0.06484794 0.58896935 0.31984264
0.06001035 -0.00057250244 -0.3404741 -0.06875775 0.43380722 0.2708144 -0.24556287 0.17029946
-0.3181047 -0.6461594 -1.0218248 -0.6016429 0.22106914 0.07512347 -0.44797048 0.16025786
-0.39923245 0.113472305 0.05452435 0.041496057 -0.21043102 -0.16670147 0.5338905 0.14733566
0.07842894 0.088476986 -0.08909747 -0.3293597 -0.44640425 -0.15370826 0.22882614 -0.24092045
0.26104647 0.054464612 0.025860617 0.62227935 0.115873106 0.13860372 0.033997957 -0.6943148
-0.41819543 -1.1167561 -0.38022742 -0.11031122 -1.1459448 0.103624925 0.29851753 0.07966531
-0.18564007 -0.07915736 0.61051977 0.021954361 -0.08605546 0.06663512 0.20960827 -0.028302295
0.13102621 -0.31712398 -0.1564061 0.05531123 -0.0017059305 0.6210737 0.29291144 -0.29221255
-0.2474098 -0.021861324 -0.22533184 -0.111552745 0.054993782 -0.039770566 -0.5523354 -0.77822936
-0.42506662 -0.14574535 0.016583668 0.35549712 -0.46230006 -0.14333838 -0.59659696 -0.43266732
0.39873394 -0.6929094 0.4153473 -0.4459027 0.09690234 -0.20369397 -0.12571388 -0.012137478
0.22643608 0.20138799 0.022141289 -0.16613163 -0.51407003 -0.27400678 -0.076621085 -0.08205096
-0.025522241 -0.42329562 -0.09982846 0.22245209 -0.097976424 0.12086765 -0.09227924 -0.5273451
0.101131685 0.054417506 -0.18505509 0.10083904 0.06440816 0.21734214 -0.08134113 0.063106544
-0.02917863 0.28691053 0.28340805 -0.25134727 -0.16618347 0.04163739 -0.07437202 -0.08799004
-0.15676135 -0.31142384 0.32574517 0.13691822 0.08101419 -0.121181905 -0.035157498 -0.0062348214
-0.37809774 0.22825007 -0.2076112 0.066268176 0.268889 0.013565664 0.016247736 -0.0821901
-0.33636788 0.027766513 0.07949608 -0.3038369 0.26522484 0.5100589 0.038898624 -0.21645787
-0.031931486 -0.08186601 -0.11030701 0.10540804 -0.24555813 -0.0714439 -0.75949806 -0.31450897
0.3340803 0.27424744 -0.25373662 -0.5192176 0.12493473 0.34047887 -0.8863612 0.21495952
-0.574871 0.33452836 0.16859934 0.076797634 -0.32709166 -0.012916622 -0.53407896 0.3223977
-0.37775204 0.15764286 0.03791167 0.3606653 0.5848471 -0.024292318 0.035609268 0.16037515
0.22236739 0.2890456 0.06645875 -0.14078589 0.02879484 0.56698316 0.13004616 -0.10611473
0.38802016 0.0519061 0.13931462 -0.090163164 -0.20227854 -0.096661784 -0.029085036 0.10943477
0.44219866 0.09665983 -0.48769718 0.20852138 -0.04553752 -0.085652135 -0.20111912 0.17026302
0.41977882 -0.12775543 0.11847813 0.12366414 0.20587467 -0.20264763 0.3645018 0.32495025
00000000: 0e27 1e3c 2892 8dbd 273c 94bc ba9e 633e
00000010: 58a6 bbbe a745 9e3e b369 fb3d 49aa 4f3e
00000020: 10cf 8abc 25be 113e 113e ae3d ad15 36be
00000030: 92e6 29be a5dc cd3d acd8 313f 5819 d3bd
00000040: f992 903d 05ed 9d3d 7f61 27be e778 8b3e
00000050: b610 d0bd f5b4 11bf 18c6 0fbe 9934 c73e
00000060: b0ec ce3d 6550 6c3e 82f1 c7be 4d12 c03e
00000070: 421e b9bd af9f c63b 9a65 a13c 6d23 b43e
00000080: d250 e73d 55a8 46bf 6b5b 24bb d716 333e
00000090: 0c91 e43c d258 163f f222 c23b 6a43 c4be
000000a0: e139 493e 3d09 b13e 6d1f 1bbf 5465 ef3e
000000b0: 590b 0e3d ffce 84bd b2c6 163f 6ac2 a33e
000000c0: 6acd 753d fd13 16ba 9f52 aebe ddd0 8cbd
000000d0: fb1b de3e 2fa8 8a3e d574 7bbe fb62 2e3e
000000e0: 9fde a2be b46a 25bf 28cb 82bf 4505 1abf
000000f0: f35f 623e 55da 993d 635c e5be a31a 243e
00000100: 3268 ccbe 2b64 e83d ed54 5f3d c5f7 293d
00000110: 3b7b 57be cab3 2abe 0cad 083f 29df 163e
00000120: 5a9f a03d 6c33 b53d bc78 b6bd d6a1 a8be
00000130: 198f e4be b365 1dbe 6651 6a3e dab3 76be
00000140: e2a7 853e 4916 5f3d a5d9 d33c b34d 1f3f
00000150: e14e ed3d 22ee 0d3e 7141 0b3d 9dbe 31bf
00000160: b61d d6be ddf1 8ebf 2bad c2be d9ea e1bd
00000170: 52ae 92bf 4e39 d43d 4ad7 983e 9127 a33d
00000180: 6e18 3ebe 411d a2bd 064b 1c3f a2d9 b33c
00000190: d83d b0bd fe77 883d 8da3 563e 37da e7bc
000001a0: bc2b 063e 135e a2be ec28 20be 078e 623d
000001b0: 8799 dfba b0fe 1e3f 7df8 953e e29c 95be
000001c0: ff58 7dbe 8516 b3bc 64bd 66be c475 e4bd
000001d0: 2941 613d 76e6 22bd da65 0dbf 0a3a 47bf
000001e0: 55a2 d9be 453e 15be 79da 873c b803 b63e
000001f0: 98b2 ecbe 4cc7 12be 94ba 18bf 9286 ddbe
00000200: db26 cc3e 8362 31bf 67a8 d43e 5c4d e4be
00000210: bc74 c63d 2795 50be 24bb 00be 46dc 46bc
00000220: dcde 673e a738 4e3e a661 b53c 691e 2abe
00000230: 189a 03bf 9e4a 8cbe 84eb 9cbd 550a a8bd
00000240: 0514 d1bc 34ba d8be dd72 ccbd 7bca 633e
00000250: dda7 c8bd 7589 f73d e6fc bcbd 1700 07bf
00000260: 211e cf3d e4e4 5e3d 157f 3dbe b384 ce3d
00000270: 6de8 833d f08e 5e3e 2e96 a6bd 013e 813d
00000280: 0608 efbc f0e5 923e dc1a 913e 97b0 80be
00000290: 002c 2abe f88b 2a3d 5c50 98bd 1f34 b4bd
000002a0: 0c86 20be f272 9fbe 12c8 a63e 4a34 0c3e
000002b0: c5ea a53d 382e f8bd 4f01 10bd 794d ccbb
000002c0: 0796 c1be 63ba 693e 0898 54be 9cb7 873d
000002d0: d2ab 893e 8542 5e3c f919 853c 4853 a8bd
000002e0: 6938 acbe 9976 e33c d7ce a23d 8390 9bbe
000002f0: 8dcb 873e 3893 023f 2a54 1f3d 22a7 5dbe
00000300: 97ca 02bd 5ea9 a7bd a4e8 e1bd 2ce0 d73d
00000310: 9773 7bbe 2e51 92bd 776e 42bf 5207 a1be
00000320: 930c ab3e 296a 8c3e c4e9 81be 72eb 04bf
00000330: c8dd ff3d 3f53 ae3e 91e8 62bf 591e 5c3e
00000340: bf2a 13bf 4d47 ab3e 4ea5 2c3e 1448 9d3d
00000350: 8f78 a7be 3da0 53bc 66b9 08bf 5011 a53e
00000360: b768 c1be 216d 213e 4449 1b3d 1fa9 b83e
00000370: 8ab8 153f af00 c7bc 06db 113d 6239 243e
00000380: 47b4 633e c9fd 933e 861b 883d 2d2a 10be
00000390: 28e3 eb3c cf25 113f d22a 053e ae52 d9bd
000003a0: 94aa c63e 7e9b 543d 7ea8 0e3e 77a7 b8bd
000003b0: 1b22 4fbe 9df6 c5bd be43 eebc 561f e03d
000003c0: dd67 e23e 97f5 c53d 72b3 f9be a186 553e
000003d0: 8d85 3abd 636a afbd 2cf2 4dbe 6e59 2e3e
000003e0: 40ed d63e 52d2 02be a9a4 f23d a043 fd3d
000003f0: cfd0 523e dc82 4fbe fb9f ba3e e15f a63e

weight f4 [256, 256]
-0.027245801 0.066304475 0.028558819 0.077581905 0.08889129 -0.020760868 -0.07066648 -0.10182077
0.013168167 -0.12271478 -0.065042384 0.046614345 0.13203059 0.22559282 -0.038629867 0.017108567
-0.1655681 0.23350541 0.07712473 -0.0050630593 -0.12125873 0.046890993 -0.02996397 -0.09436225
0.07356914 -0.14570142 -0.15946274 -0.03299118 -0.05514714 0.02769113 -0.04568553 0.0236051
0.4761676 -0.054334395 -0.07234888 0.2880069 -0.012005836 -0.009096672 0.00886971 0.002226495
0.10405726 -0.36210713 0.01996459 -0.03345945 0.01814745 0.03780547 -0.12145251 0.034091994
-0.094777636 0.069479406 0.008234606 0.085271515 -0.016139353 0.0072410703 -0.061728686 -0.09058533
0.03240864 -0.5145061 0.26897493 -0.047081247 0.23336942 0.51096284 -0.108827524 -0.26020482
-0.07540538 -0.07498843 -0.08691325 0.07595531 0.1744094 0.034521252 0.039853156 -0.068340704
-0.07369353 -0.06610581 0.07199399 -0.004411003 -0.16540909 0.046816014 -0.044643562 0.04187909
0.044955093 -0.027606014 0.12300645 0.10794003 -0.14786729 -0.052943 0.024789052 0.017704386
-0.0038608378 0.045367423 -0.08702861 -0.0016017018 0.035725463 -0.04459029 0.0419745 -0.08939054
0.4232458 0.085008055 -0.04384666 0.032663137 0.30655867 -0.12979056 0.20660022 -0.5446895
0.11353344 0.07869832 0.005800676 0.11001481 0.13461752 0.011756812 0.16113743 0.20080882
-0.04299011 -0.08918635 -0.0722411 0.09241919 -0.089392 0.029735992 -0.009200555 0.00021854565
-0.20152728 0.058234725 -0.27517083 -0.28149217 0.05397258 0.033395573 -0.01811045 -0.09301638
-0.015433401 -0.015750268 -0.14066188 0.23297341 0.0813804 -0.08779882 -0.07554435 -0.0224653
-0.028929256 -0.009784136 -0.008117388 0.04242683 -0.09725661 -0.016340218 0.09447673 0.025969926
0.016416539 0.058316052 0.081872635 -0.20636542 -0.03598914 0.06961159 -0.025382197 -0.026280751
0.06283089 0.08573264 0.07849606 -0.15782517 0.053273343 -0.081762634 -0.10177171 0.11241251
-0.060544677 0.03566648 -0.055618808 0.08026136 -0.10609085 0.044068083 0.07483436 -0.0038241223
0.08867262 0.10332838 0.047308337 0.08682116 -0.064782135 -0.038135186 0.031754114 -0.40065265
0.06525237 0.0040365006 0.08608073 -0.0817581 -0.046271194 -0.083496556 0.002548949 0.027159834
-0.2022759 -0.10240586 0.035508275 -0.11607449 0.005542533 0.08632987 -0.06269222 -0.028099658
-0.018573178 -0.1915581 0.046275545 0.35025704 -0.00022591594 -0.017796617 -0.048501313 0.042385045
-0.09788017 -0.23736328 0.18914618 0.020393694 0.008504567 0.1709644 0.14592452 0.013395912
0.11702461 0.045235343 0.011058042 -0.017480185 0.35504773 0.07086475 -0.23115863 -0.19454621
0.17695276 0.1378356 -0.15580991 0.106687225 -0.027794879 0.0465468 -0.041135475 0.009375128
0.003029656 0.061665505 0.100724205 -0.025106475 0.04667219 0.052115817 0.03419983 -0.086159915
-0.055004533 0.044935282 0.06743246 0.06309523 -0.23130955 0.014232016 0.28037125 0.009554317
0.1799832 0.021306867 -0.11135298 -0.05271309 -0.06482623 0.068139195 0.05104007 0.02644422
0.12069983 0.03499373 0.08969936 0.088729635 0.016141444 -0.0069350256 0.028141247 0.0063571273
00000000: 9632 dfbc a4ca 873d 2ff4 e93c 43e3 9e3d
00000010: a30c b63d b212 aabc 96b9 90bd 6887 d0bd
00000020: 4cbf 573c e351 fbbd f134 85bd afee 3e3d
00000030: 0733 073e ce01 673e 5a3a 1ebd 4427 8c3c
00000040: af8a 29be 0b1c 6f3e 92f3 9d3d 05e8 a5bb
00000050: 7f56 f8bd c510 403d 0077 f5bc ff40 c1bd
00000060: 6bab 963d c132 15be 334a 23be c221 07bd
00000070: f8e1 61bd 82d8 e23c c020 3bbd 7c5f c13c
00000080: 3dcc f33e be8d 5ebd a62b 94bd a475 933e
00000090: 20b4 44bc 350a 15bc 4352 113c 63ea 113b
000000a0: f91b d53d 1b66 b9be c88c a33c c70c 09bd
000000b0: f6a9 943c e9d9 1a3d 18bc f8bd 0ca4 0b3d
000000c0: c71a c2bd 384b 8e3d 71ea 063c d5a2 ae3d
000000d0: ad36 84bc 8046 ed3b 38d7 7cbd cd84 b9bd
000000e0: ecbe 043d acb6 03bf 15b7 893e 44d8 40bd
000000f0: 65f8 6e3e 76ce 023f f7e0 debd 9139 85be
00000100: 236e 9abd 8993 99bd 93ff b1bd 758e 9b3d
00000110: 6198 323e 2866 0d3d 103d 233d 36f6 8bbd
00000120: a2ec 96bd 7c62 87bd 9671 933d 2d8a 90bb
00000130: 0061 29be 26c2 3f3d 2bdc 36bd 6989 2b3d
00000140: d522 383d 0226 e2bc ceea fb3d aa0f dd3d
00000150: 866a 17be c2da 58bd 6912 cb3c ca08 913c
00000160: 1c06 7dbb 31d3 393d 0e3c b2bd 32f0 d1ba
00000170: dd54 123d 4fa4 36bd 74ed 2b3d 6312 b7bd
00000180: acb3 d83e b418 ae3d 8e98 33bd c8c9 053d
00000190: 42f5 9c3e d1e7 04be 028f 533e c570 0bbf
000001a0: 3884 e83d 962c a13d 9913 be3b 724f e13d
000001b0: 2dd9 093e a59f 403c 3601 253e d4a0 4d3e
000001c0: 6616 30bd 55a7 b6bd 24f3 93bd 4646 bd3d
000001d0: 2713 b7bd e598 f33c edbd 16bc 6729 6539
000001e0: 2b5d 4ebe 8987 6e3d 31e3 8cbe be1f 90be
000001f0: 5a12 5d3d ccc9 083d 5e5c 94bc 5f7f bebd
00000200: 60dc 7cbc b506 81bc ab09 10be 9590 6e3e
00000210: c4aa a63d decf b3bd ffb6 9abd 2609 b8bc
00000220: 0cfd ecbc a44d 20bc cbfe 04bc c1c7 2d3d
00000230: 792e c7bd ecdb 85bc 047d c13d e2be d43c
00000240: fa7b 863c d0dc 6e3d d7ac a73d 7551 53be
00000250: 5969 13bd 8590 8e3d 53ee cfbc bb4a d7bc
00000260: 7bad 803d 9894 af3d 8bc2 a03d ec9c 21be
00000270: 2635 5a3d 2b73 a7bd b06d d0bd 8838 e63d
00000280: b2fd 77bd 0417 123d 8cd0 63bd 1160 a43d
00000290: 2946 d9bd bc80 343d c242 993d 209e 7abb
000002a0: fe99 b53d d49d d33d 63c6 413d 4bcf b13d
000002b0: 7fac 84bd a433 1cbd 9a10 023d 5822 cdbe
000002c0: 09a3 853d 9f44 843b 184b b03d ca70 a7bd
000002d0: dd86 3dbd 3e00 abbd 450c 273b 4d7e de3c
000002e0: 6a21 4fbe 2aba d1bd 2071 113d 76b8 edbd
000002f0: 239e b53b b7cd b03d c764 80bd 4131 e6bc
00000300: c726 98bc ce27 44be 6d8b 3d3d e454 b33e
00000310: d9e3 6cb9 36ca 91bc 50a9 46bd f19b 2d3d
00000320: 6675 c8bd 5c0f 73be 89af 413e ad10 a73c
00000330: bd56 0b3c 4b11 2f3e 3d6d 153e 877a 5b3c
00000340: 99aa ef3d b248 393d ca2c 353c 9b32 8fbc
00000350: d1c8 b53e 8a21 913d d9b4 6cbe 1f37 47be
00000360: 1b33 353e c724 0d3e a28c 1fbe d57e da3d
00000370: 16b2 e3bc dba7 3e3d ac7d 28bd 239a 193c
00000380: 318d 463b f894 7c3d 7e48 ce3d 18ac cdbc
00000390: 572b 3f3d 6577 553d 1f15 0c3d 9c74 b0bd
000003a0: 6f4c 61bd 0f0e 383d 081a 8a3d 1238 813d
000003b0: 69dc 6cbe 672d 693c d28c 8f3e b689 1c3c
000003c0: 844d 383e bd8b ae3c 080d e4bd aee9 57bd
000003d0: 9dc3 84bd 908c 8b3d 640f 513d 8da1 d83c
000003e0: 7931 f73d 9655 0f3d 4cb4 b73d e2b7 b53d
000003f0: 103b 843c 363f e3bb 7988 e63c 734f d03b

bias f4 [256]
0.0001659999 0.01917693 0.083431475 -0.018068582 -0.043982454 -0.100240916 -0.058970343 0.06467829
0.1520477 -0.12829146 0.028676385 -0.011031245 0.08324239 -0.08495258 -0.027872333 -0.037863642
-0.010689008 -0.05723351 0.07407256 -0.07682348 0.020065213 -0.061532494 0.07806156 0.2084527
-0.1532142 0.12986453 0.04502678 -0.080585726 -0.11236671 -0.11034809 0.13362888 0.13123149
-0.04370216 0.0005542467 0.08076144 -0.0027859518 -0.12985884 -0.012955534 -0.049126413 -0.16398545
-0.05237093 0.05163588 0.026576543 -0.10387212 -0.036693785 0.030908607 0.11842555 0.16088809
-0.01313097 0.0744999 -0.04211938 0.02585498 -0.13372336 0.12067015 0.12095112 -0.03474873
-0.053545102 0.04492054 0.20790182 0.023898916 -0.018624945 0.05923574 -0.12798306 0.009460307
-0.0010057067 0.038797934 0.0027534266 -0.05717525 -0.085367195 -0.23068602 -0.05785905 -0.018027235
-0.08252956 0.086136475 0.03654693 0.041190363 0.006544867 0.042917956 0.054880075 -0.04694158
-0.15961732 0.045379464 -0.012689281 -0.032288335 -0.11247394 0.10550348 0.08185831 0.044777825
0.18512098 -0.054652363 0.07394417 -0.014427616 0.04807511 0.11498012 0.082157515 0.052521672
-0.1435491 0.23622534 -0.14526314 0.006781005 0.054152496 -0.13561758 -0.13391724 -0.017148668
-0.07698244 -0.059381474 -0.082899995 0.12168442 0.13906239 0.038035884 -0.07676981 0.09147391
-0.017837157 0.013060872 -0.06038943 0.039268248 -0.09595905 -0.12835218 -0.034279812 -0.07761615
-0.031055268 0.16396575 0.05505264 -0.01878125 -0.01263351 0.026601886 -0.031987112 -0.0074387584
-0.09399349 0.030732207 0.050431915 0.092395626 -0.11649593 0.0025626777 0.10275156 0.083562106
-0.103654794 -0.031992096 -0.051420458 -0.09742526 0.1201141 -0.010537861 -0.040594034 -0.11142939
0.065512694 0.013524423 -0.05221128 0.18604182 0.043356158 0.1560531 -0.025796268 0.06574106
0.042624567 0.040601097 -0.031094298 -0.0064778533 0.11633054 0.010588497 -0.12424881 -0.100336395
0.03998299 -0.017540827 0.013459349 -0.013633863 0.07809918 -0.16999821 0.07678292 -0.04759147
-0.010994848 -0.05060837 -0.009916235 0.04538257 -0.020132307 -0.0425004 0.043428957 0.10318317
0.05741435 -0.09032595 -0.10016965 -0.12466501 0.062162325 0.021522325 0.17336147 -0.04170794
0.024571102 -0.094340384 0.16813286 -0.030543035 -0.06321765 -0.063949846 -0.026791658 -0.0040965513
-0.022616833 0.13276187 -0.096977636 0.10523057 0.036202744 -0.0519392 0.005773094 0.042866305
0.066404074 -0.10026665 0.10419753 -0.04001852 0.02050333 -0.057845917 0.029223902 0.058255635
0.16513947 0.026943672 -0.06541141 -0.08763613 -0.035131563 0.12406487 -0.106248364 0.112422965
0.02282242 0.17409027 0.035656966 -0.039456334 0.045053687 -0.013130753 0.06341207 0.119498305
0.13088913 -0.007379216 0.015889412 -0.018154975 -0.015495181 0.008895353 -0.016198125 -0.1543918
-0.059971016 0.08990966 -0.05535965 0.09856709 -0.034795053 0.09004063 -0.15216598 -0.013870826
-0.03498785 0.015298247 -0.029334884 -0.1515472 0.070631295 0.0020096942 0.0017004812 0.050468843
-0.09729928 0.046377115 -0.004874766 0.0065606236 -0.11925622 -0.015934916 0.05183502 0.10913313
00000000: 4210 2e39 f018 9d3c 1fde aa3d 9004 94bc
00000010: f226 34bd 1c4b cdbd e38a 71bd 0d76 843d
00000020: 64b2 1b3e d65e 03be bdea ea3c 65bc 34bc
00000030: fc7a aa3d 9efb adbd 8554 e4bc e816 1bbd
00000040: f320 2fbc af6d 6abd 5bb3 973d a155 9dbd
00000050: cd5f a43c 7f09 7cbd bdde 9f3d a074 553e
00000060: 2fe4 1cbe 35fb 043e 006e 383d 210a a5bd
00000070: 8520 e6bd 2efe e1bd 02d6 083e 8c61 063e
00000080: 0901 33bd de4a 113a 4166 a53d 8494 36bb
00000090: b7f9 04be 7343 54bc c738 49bd cdeb 27be
000000a0: e682 56bd 2580 533d 0db7 d93c e8ba d4bd
000000b0: 394c 16bd 0c34 fd3c 1889 f23d d9bf 243e
000000c0: 4823 57bc 6793 983d 5f85 2cbd d3cd d33c
000000d0: c7ee 08be e921 f73d 39b5 f73d af54 0ebd
000000e0: 1c52 5bbd 9afe 373d 37e4 543e a9c7 c33c
000000f0: 5793 98bc 2da1 723d fe0d 03be 67ff 1a3c
00000100: ebd1 83ba 95ea 1e3d d572 343b 9830 6abd
00000110: ffd4 aebd f538 6cbe 9cfd 6cbd daad 93bc
00000120: 4205 a9bd 5268 b03d 3cb2 153d 3ab7 283d
00000130: 5376 d63b bdca 2f3d eec9 603d d045 40bd
00000140: b972 23be d1df 393d b4e6 4fbc c640 04bd
00000150: bd58 e6bd 3512 d83d 54a5 a73d f468 373d
00000160: 5b90 3d3e 28db 5fbd 0a70 973d cf61 6cbc
00000170: 68ea 443d b27a eb3d 3342 a83d f720 573d
00000180: 89fe 12be 0ee5 713e dcbf 14be 3133 de3b
00000190: 02cf 5d3d 56df 0abe 9a21 09be 5d7b 8cbc
000001a0: f8a8 9dbd fd39 73bd 79c7 a9bd ae35 f93d
000001b0: 5f66 0e3e 84cb 1b3d 7d39 9dbd ac56 bb3d
000001c0: 3b1f 92bc 45fd 553c e85a 77bd bed7 203d
000001d0: 2e86 c4bd c16e 03be fd68 0cbd 37f5 9ebd
000001e0: 9e67 febc a3e6 273e e17e 613d 23db 99bc
000001f0: c8fc 4ebc 33ec d93c eb04 03bd d4c0 f3bb
00000200: a97f c0bd 1cc2 fb3c b291 4e3d eb39 bd3d
00000210: 6b95 eebd 99f2 273b 696f d23d 9c22 ab3d
00000220: f748 d4bd 250a 03bd 429e 52bd e586 c7bd
00000230: 62fe f53d fea6 2cbc ee45 26bd 1835 e4bd
00000240: 852b 863d 8b95 5d3c 7fdb 55bd bf81 3e3e
00000250: 3a96 313d 62cc 1f3e b252 d3bc 40a3 863d
00000260: 1997 2e3d 564d 263d 78b9 febc 2c44 d4bb
00000270: b53e ee3d 607b 2d3c 2976 febd 2b7d cdbd
00000280: 34c5 233d c8b1 8fbc 9a84 5c3c 9160 5fbc
00000290: 76f2 9f3d 0314 2ebe 5d40 9d3d 46ef 42bd
000002a0: bc23 34bc b94a 4fbd b477 22bc 13e3 393d
000002b0: 82ec a4bc e614 2ebd 90e2 313d b351 d33d
000002c0: 4f2b 6b3d d0fc b8bd bf25 cdbd 5e50 ffbd
000002d0: ec9d 7e3d 964f b03c ab85 313e f2d5 2abd
000002e0: 5649 c93c 8835 c1bd 052b 2c3e 6335 fabc
000002f0: 4178 81bd 23f8 82bd 2e7a dbbc 5d3c 86bb
00000300: f046 b9bc baf2 073e 369c c6bd 2083 d73d
00000310: 5449 143d 33be 54bd 392c bd3b 9494 2f3d
00000320: dcfe 873d 9a58 cdbd 8465 d53d 76ea 23bd
00000330: 99f6 a73c d7ef 6cbd f766 ef3c 769d 6e3d
00000340: 521a 293e fab8 dc3c 6bf6 85bd 927a b3bd
00000350: 1de6 0fbd b915 fe3d be98 d9bd 033e e63d
00000360: 15f6 ba3c b844 323e 0a0d 123d f79c 21bd
00000370: 378a 383d 5f22 57bc 30de 813d 87bb f43d
00000380: cd07 063e 5acd f1bb 832a 823c beb9 94bc
00000390: 80df 7dbc d1bd 113c eeb1 84bc e218 1ebe
000003a0: 2ba4 75bd 8e22 b83d cdc0 62bd 8bdd c93d
000003b0: 4285 0ebd 3967 b83d 66d1 1bbe 7642 63bc
000003c0: 6b4f 0fbd 80a5 7a3c b64f f0bc 302f 1bbe
000003d0: 24a7 903d 13b5 033b aee2 de3a 6bb8 4e3d
000003e0: d844 c7bd eef5 3d3d 80bc 9fbb 80fa d63b
000003f0: 9b3c f4bd f189 82bc f550 543d 3181 df3d

weight f4 [256, 256]
-0.018881839 -0.024323495 0.010124916 0.014158705 -0.042710975 -0.03475779 -0.039158866 0.032177012
-0.025486425 -0.038000386 -0.0023654157 0.0002979444 0.059505288 -0.029178506 0.024189482 -0.023919664
0.025887847 0.02448347 -0.023423685 -0.025539558 0.014582278 0.046175513 -0.023986934 -0.058431145
0.042964343 -0.003686096 -0.036936104 0.047974423 0.030577661 0.075442605 -0.013384381 -0.08671701
0.061919965 -0.042410936 -0.012491817 0.01361681 0.043330923 0.037337203 -0.0060391244 0.03455358
-0.05459017 -0.037843842 -0.0088176 -0.0017778854 0.005510759 0.0049838335 0.06007096 0.066936046
0.009666812 0.03370194 0.035464287 0.014009737 -0.037575386 -0.009717407 0.022374243 0.019919226
0.033876315 -0.038271233 -0.02614205 -0.0352836 0.0073964805 -0.042951312 0.0023520908 -0.014981412
0.011954838 0.014334213 -0.00344314 0.04745605 -0.0049776975 0.028810028 0.021046162 0.029187275
-0.041178305 -0.010660891 0.07299308 0.075377576 0.001550575 -0.0013116075 0.033927057 -0.010206266
-0.036955167 0.018913113 -0.001274501 -0.05457698 0.009993883 0.027751787 0.001261757 -0.015561414
0.05232047 -0.008536308 -0.001727347 -0.042349298 0.010215964 -0.022464156 0.017560488 0.032478902
0.0053376905 -0.0480976 -0.0355405 -0.02402126 -0.050002106 -0.04479559 -0.007974094 -0.014249643
0.0076684793 -0.027673237 0.020206546 -0.022451378 -0.06918311 -0.06960989 -0.08273945 -0.030902576
0.13270546 0.0026892624 0.00076782063 0.09335126 -0.005573305 -0.007711092 0.05078348 0.023149623
0.014613137 -0.005531623 -0.0025653527 -0.028811533 -0.005298805 -0.02704936 -0.026496114 0.015653018
0.0047947336 0.009827716 0.011996465 0.0795403 -0.0075132037 0.015784215 -0.020145502 0.014465898
-0.04940234 -0.012616202 -0.027434161 0.008085611 -0.01565871 0.007936686 0.007932405 -0.011170039
0.059206516 -0.03147764 -0.06391487 -0.07211849 -0.04924533 -0.032130353 -0.0011729463 0.021026017
-0.008086482 -0.08011745 0.0371048 -0.049370456 -0.03420737 0.0031593426 -0.011294848 -0.013960041
0.005818197 0.032968458 -0.017618665 -0.0047453726 0.037769377 0.008394507 -0.015369813 -0.03537005
-0.07901029 -0.029303208 0.046186056 0.014737415 0.041877747 0.012889294 -0.0033758818 -0.0010574923
0.00033021715 0.008677566 0.02585209 0.010616532 0.0033288668 -0.028462527 -0.018984955 -0.004966415
0.031194773 0.016868882 -0.018740408 -0.017692441 -0.021198807 -0.003034673 0.047077127 -0.047984626
0.02841474 -0.023705194 -0.027752 -0.010354221 0.022873428 -0.003501365 0.051435996 -0.01864562
-0.0057763825 0.027108101 0.03375148 -0.03504064 -0.011666029 0.029762387 0.0029288507 0.03105976
-0.03883708 0.0098251 0.04304027 -0.010653125 -0.0009894742 -0.005889424 -0.0027328208 0.017914465
0.027280571 0.016774569 0.0067306464 -0.08732143 -0.01148006 0.03451097 -0.013051259 0.019669602
0.05412078 -0.01388584 0.037121326 0.0067283446 0.019788072 0.04035024 -0.0012341834 -0.023355555
-0.022562915 -6.182169e-05 -0.019523794 0.013699265 -0.011510333 -0.012922325 -0.050639838 0.019441225
-0.019833595 0.028282788 -0.005468049 0.03964271 0.05741667 -0.023405511 -0.017532082 -0.045941893
-0.023251673 -0.06451542 0.059486113 0.011922141 -0.009536293 -0.019317048 0.0031018518 -0.027420046
00000000: 16ae 9abc 1142 c7bc fae2 253c eaf9 673c
00000010: b4f1 2ebd 2f5e 0ebd 0c65 20bd 0bcc 033d
00000020: e8c8 d0bc 4ba6 1bbd 1705 1bbb 6c35 9c39
00000030: d1bb 733d c307 efbc 0529 c63c 2cf3 c3bc
00000040: c012 d43c 8f91 c83c 07e3 bfbc 5638 d1bc
00000050: 82ea 6e3c 8922 3d3d 3f80 c4bc 7f55 6fbd
00000060: 61fb 2f3d 6e92 71bb 504a 17bd d480 443d
00000070: 017e fa3c a781 9a3d 2a4a 5bbc b098 b1bd
00000080: ca9f 7d3d 17b7 2dbd 7aaa 4cbc 0a19 5f3c
00000090: c47b 313d e5ee 183d d9e3 c5bb 0e88 0d3d
000000a0: f199 5fbd 2502 1bbd b277 10bc ef07 e9ba
000000b0: 9993 b43b 6d4f a33b f80c 763d c415 893d
000000c0: 8c61 1e3c 0c0b 0a3d 0043 113d 1989 653c
000000d0: a6e8 19bd c235 1fbc 304a b73c a52d a33c
000000e0: e4c1 0a3d 4cc2 1cbd da27 d6bc 8985 10bd
000000f0: 2d5e f23b b7ed 2fbd 8925 1a3b 9974 75bc
00000100: 3ade 433c 0cda 6a3c 4ea6 61bb 4661 423d
00000110: f41b a3bb 0203 ec3c 0069 ac3c 271a ef3c
00000120: 95aa 28bd 05ab 2ebc 657d 953d 8f5f 9a3d
00000130: aa3c cb3a 3fea abba 19f7 0a3d 2f38 27bc
00000140: 4d5e 17bd acef 9a3c 280d a7ba 1d8c 5fbd
00000150: 62bd 233c b757 e33c 8a61 a53a 4df5 7ebc
00000160: fd4d 563d dfdb 0bbc 2668 e2ba 7576 2dbd
00000170: dc60 273c c006 b8bc 03db 8f3c 9908 053d
00000180: cbe7 ae3b fd01 45bd ea92 11bd 3cc8 c4bc
00000190: 02cf 4cbd 957b 37bd c6a5 02bc 5677 69bc
000001a0: de47 fb3b fcb2 e2bc 3388 a53c f4eb b7bc
000001b0: e0af 8dbd a18f 8ebd 4d73 a9bd 6627 fdbc
000001c0: f1e3 073e 563e 303b 9247 493a f22e bf3d
000001d0: 45a0 b6bb 54ad fcbb 5702 503d 47a4 bd3c
000001e0: f06b 6f3c 9e42 b5bb 7a1f 28bb 2a06 ecbc
000001f0: 99a1 adbb 9f96 ddbc 610e d9bc c23a 803c
00000200: 241d 9d3b 6e04 213c d28c 443c 06e6 a23d
00000210: 5231 f6bb e64d 813c 2e08 a5bc 6002 6d3c
00000220: 1c5a 4abd 30b4 4ebc 9bbd e0bc 8379 043c
00000230: b246 80bc e008 023c ebf6 013c 8a02 37bc
00000240: 8882 723d b3ee 00bd cde5 82bd dcb2 93bd
00000250: 79b5 49bd 1e9b 03bd 8cbd 99ba c13e ac3c
00000260: 2a7d 04bc 9e14 a4bd 34fb 173d ad38 4abd
00000270: 071d 0cbd f90c 4f3b 070e 39bc a8b8 64bc
00000280: 93a6 be3b ef09 073d 0555 90bc 127f 9bbb
00000290: 10b4 1a3d 1d89 093c abd1 7bbc 30e0 10bd
000002a0: 26d0 a1bd 480d f0bc 972d 3d3d 3375 713c
000002b0: 0088 2b3d 9e2d 533c e63d 5dbb 8e9b 8aba
000002c0: ff20 ad39 5a2c 0e3c c3c7 d33c f6f0 2d3c
000002d0: 1e29 5a3b 3f2a e9bc 5686 9bbc 4fbd a2bb
000002e0: 2e8c ff3c 9c30 8a3c 7c85 99bc bdef 90bc
000002f0: 1fa9 adbc 5de1 46bb f2d3 403d 878b 44bd
00000300: 07c6 e83c 6531 c2bc 2a58 e3bc c0a4 29bc
00000310: 0e61 bb3c 2877 65bb 8dae 523d b3be 98bc
00000320: cf47 bdbb cf11 de3c fe3e 0a3d c686 0fbd
00000330: df22 3fbc 40d0 f33c f6f1 3f3b 0a71 fe3c
00000340: a113 1fbd 75f9 203c ff4a 303d 728a 2ebc
00000350: 3fb1 81ba 12fc c0bb 2019 33bb 5bc1 923c
00000360: 817b df3c d26a 893c c18c dc3b 94d5 b2bd
00000370: dd16 3cbc 605b 0d3d f3d4 55bc 2522 a13c
00000380: c0ad 5d3d 6f81 63bc 880c 183d 7279 dc3b
00000390: 981a a23c 4b46 253d 53c4 a1ba 2654 bfbc
000003a0: ddd5 b8bc 44a6 81b8 5df0 9fbc e272 603c
000003b0: d695 3cbc 29b8 53bc b86b 4fbd 3443 9f3c
000003c0: 107a a2bc 4eb1 e73c 522d b3bb 6560 223d
000003d0: be2d 6b3d eabc bfbc 719f 8fbc 912d 3cbd
000003e0: 4b7a bebc a920 84bd b6a7 733d 1555 433c
000003f0: 1d3e 1cbc c93e 9ebc 7048 4b3b 01a0 e0bc

bias f4 [256]
-0.028992455 0.01611507 -0.018169045 0.040834215 0.055838134 0.033804245 -0.017875662 0.0053447094
0.0038395696 0.020004844 -0.015980024 0.016281733 0.039408136 -0.012497421 0.06413114 0.016238043
-0.044653222 0.005073459 0.00011668284 0.005403667 0.028196331 -0.045740236 0.0015956225 0.0029546462
0.0009347445 0.03509111 -0.0131474305 -0.030700792 0.0063622124 0.043152314 -0.0039946153 -0.006408526
-0.013293871 -0.031941555 -0.006651945 -0.030640764 -1.4916051e-05 -0.00016511086 0.05599434 0.029826231
0.022395018 0.032471843 -0.008073788 0.01571636 -0.020295897 0.0014991069 0.0063765994 0.0062645213
0.033829376 -0.024500925 0.0005607578 -0.012879423 -0.002112269 0.0041468525 -0.008045298 0.016130012
0.0030083186 -0.02325873 -0.045446865 0.009138033 0.014616886 -0.020086057 0.023112563 -0.01280227
-0.013981795 0.031798642 0.008774929 -0.010804356 -0.042779565 0.06326809 -0.028623689 -0.021102674
-0.027414419 -0.022778211 -0.03552946 0.04116398 -0.043735966 0.0703724 -0.058346465 -0.02064131
-0.016358057 -0.004759522 0.037040018 0.018246405 0.028571011 -0.01718219 -0.010211691 -0.04394435
-0.025847763 0.023047442 7.574867e-05 0.022182953 -0.011828028 0.0117029715 -0.008465967 -0.009741755
0.05031007 0.014445279 -0.0044679055 -0.01086455 -0.016541483 -0.03433258 -0.010028722 -0.014306083
0.0544452 0.009743445 0.0075963484 0.009016855 -0.020600745 -0.005429986 0.017140128 0.035444297
0.020558815 -0.05326336 -0.027200462 0.0156123275 -0.014234161 -0.017580377 0.0008031794 -0.059395175
-0.0010780394 0.0059640165 0.039076377 -0.013635995 0.028872909 -0.008156603 0.01817849 0.033337723
0.034454904 -0.013889437 -0.05329341 0.05836477 0.041022506 0.036644083 0.0012686682 -0.0044857026
-0.039851442 -0.016674163 -0.013827381 0.007169406 0.0036431695 0.010768245 0.048802115 0.034894187
-0.0018222303 0.020945635 -0.021923665 -0.022374611 -0.021452736 0.00022838915 0.019956226 0.031220188
0.02069977 0.04055947 0.051926997 0.0026217108 0.014931273 -0.03412236 -0.0091685355 0.013494683
0.012967846 0.0052587823 0.0028882115 -0.008494013 -0.035452463 -0.016676208 0.013541124 -0.0052689076
0.0058847405 -0.025095593 0.024512783 -0.013395126 -0.0076117297 -0.01496104 -0.040676225 0.042190615
0.0027869255 -0.02162671 -0.022456184 -0.0019395715 -0.028486477 -0.018042045 0.0029184616 -0.021673145
-0.05101933 -0.014810374 0.044698413 -0.03010019 -0.0037794427 -0.0037365246 -0.03263797 -0.00024326328
-0.033588562 0.037416577 0.00034642548 0.034032363 -0.029442787 0.038167633 0.01777315 -0.015757041
-0.017235147 -0.039962087 0.0059181 0.022906141 0.0027971666 -0.04525175 0.0025140545 -0.017572397
0.022361968 -0.012408187 -0.013019198 -0.001124047 0.014839499 -0.04261893 -0.017653665 0.041308403
-0.04876776 -0.007900716 0.014366952 -0.004643776 -0.02454827 0.04386268 -0.0045739375 -0.02910615
-0.030422665 -0.011972832 -0.011242984 0.0140764285 0.0007686154 0.053670682 0.06280492 -0.008815418
-0.03472784 0.014095198 0.0746402 0.024646852 0.036042593 -0.0040567266 -0.032284245 0.014527596
-0.056138184 0.0038679654 -0.002316258 0.009324449 -0.0038049577 0.01099708 -0.02593761 -0.018851096
0.044865932 -0.005681506 0.040697597 0.022840248 0.011782862 -0.005490703 -0.006538979 0.026047027
00000000: 9681 edbc c003 843c 40d7 94bc c741 273d
00000010: 87b6 643d 5276 0a3d fb6f 92bc ac22 af3b
00000020: 4aa1 7b3b 33e1 a33c 8ae8 82bc 4561 853c
00000030: 6d6a 213d fcc1 4cbc 3057 833d a505 853c
00000040: 4ce6 36bd 423f a63b 9fb3 f438 3f11 b13b
00000050: fefb e63c 1d5a 3bbd 3524 d13a bda2 413b
00000060: a409 753a b2bb 0f3d 5268 57bc 3a80 fbbc
00000070: 1b7a d03b 7bc0 303d 43e5 82bb 9dfe d1bb
00000080: 89ce 59bc 26d5 02bd 8ff8 d9bb 5702 fbbc
00000090: f43f 7ab7 9c21 2db9 525a 653d 2456 f43c
000000a0: c275 b73c 3201 053d ec47 04bc 99bf 803c
000000b0: 9543 a6bc ae7d c43a cbf2 d03b 9d46 cd3b
000000c0: ac90 0a3d 2ab6 c8bc d2ff 123a 3704 53bc
000000d0: fe6d 0abb 52e2 873b 6dd0 03bc 1623 843c
000000e0: 3627 453b 1889 bebc 7e26 3abd b0b7 153c
000000f0: aa7b 6f3c 848b a4bc 8f56 bd3c 9dc0 51bc
00000100: e613 65bc 4b3f 023d b8c4 0f3c c104 31bc
00000110: a039 2fbd b392 813d 3a7c eabc 84df acbc
00000120: 3494 e0bc 5f99 babc 5787 11bd 909b 283d
00000130: 7c24 33bd 681f 903d b4fc 6ebd f717 a9bc
00000140: 5501 86bc c4f5 9bbb 46b7 173d 7c79 953c
00000150: c10d ea3c aac1 8cbc f04e 27bc fefe 33bd
00000160: b0be d3bc fdcd bc3c 42db 9e38 06b9 b53c
00000170: 58ca 41bc d2bd 3f3c d7b4 0abc e29b 1fbc
00000180: ef11 4e3d e4ab 6c3c 8267 92bb 3a01 32bc
00000190: 0182 87bc 52a0 0cbd 824f 24bc 1064 6abc
000001a0: ee01 5f3d f8a2 1f3c caea f83b 6ebb 133c
000001b0: e5c2 a8bc 06ee b1bb 7469 8c3c 0a2e 113d
000001c0: f66a a83c ae2a 5abd 81d3 debc d9ca 7f3c
000001d0: 6636 69bc b904 90bc 758c 523a 5b48 73bd
000001e0: 004d 8dba cc6d c33b 8d0e 203d 8269 5fbc
000001f0: e186 ec3c 46a3 05bc 0feb 943c 238d 083d
00000200: 9620 0d3d 8590 63bc 314a 5abd e60f 6f3d
00000210: 3707 283d 1b18 163d 7149 a63a cdfc 92bb
00000220: 443b 23bd 4198 88bc 3d8c 62bc 56ed ea3b
00000230: 3ec2 6e3b 4b6d 303c bae4 473d 35ed 0e3d
00000240: e7d7 eeba 2e96 ab3c 4299 b3bc f64a b7bc
00000250: a6bd afbc bf7b 6f39 3d7b a33c 7bc1 ff3c
00000260: 9092 a93c b021 263d 67b1 543d 02d1 2b3b
00000270: 4ca2 743c e3c3 0bbd a037 16bc ce18 5d3c
00000280: 1777 543c dd51 ac3b 2648 3d3b 792a 0bbc
00000290: 9a36 11bd 8b9c 88bc 97db 5d3c cda6 acbb
000002a0: c8d4 c03b 4695 cdbc 08cf c83c 3b77 5bbc
000002b0: d16b f9bb 261f 75bc 1d9c 26bd 11d0 2c3d
000002c0: daa4 363b 802a b1bc 08f6 b7bc 3839 feba
000002d0: 795c e9bc e9cc 93bc a943 3f3b e18b b1bc
000002e0: a5f9 50bd 36a7 72bc af15 373d ac94 f6bc
000002f0: 87b0 77bb 7be0 74bb 64af 05bd 7d14 7fb9
00000300: 2994 09bd 2042 193d 71a0 b539 8565 0b3d
00000310: 0032 f1bc aa55 1c3d ff98 913c e914 81bc
00000320: b930 8dbc 49af 23bd 9fec c13b a9a5 bb3c
00000330: ab50 373b e659 39bd d6c2 243b fdf3 8fbc
00000340: 7230 b73c b54b 4bbc 794e 55bc c254 93ba
00000350: 5f21 733c 3091 2ebd 6b9e 90bc 0033 293d
00000360: b4c0 47bd 0172 01bc 5d63 6b3c d12a 98bb
00000370: 7419 c9bc 5ba9 333d f8e0 95bb 0570 eebc
00000380: f438 f9bc b229 44bc 7e34 38bc d2a0 663c
00000390: e87c 493a cad5 5b3d de9f 803d 8b6e 10bc
000003a0: c83e 0ebd 8cef 663c f6dc 983d 32e8 c93c
000003b0: 66a1 133d 4aee 84bb 7c3c 04bd 2705 6e3c
000003c0: 27f1 65bd b17d 7d3b 5ccc 17bb 93c5 183c
000003d0: 995c 79bb 192d 343c 1c7b d4bc 9d6d 9abc
000003e0: 57c5 373d ed2b babb 86b2 263d 791b bb3c
000003f0: e80c 413c 5beb b3bb ee44 d6bb 9360 d53c
