output/2023-09-14-22-52-13/trained_model/tetris_epoch3480_score15000.pt (torch, 842187 bytes, 8 tensors)

weight f4 [32, 1, 4, 4]
0	0xbc7fc6e4	-0.015611384
1	0x3cb832f9	0.022485243
2	0xbd4622e3	-0.048373114
3	0x3cb49b97	0.022046847
4	0xbb76c9b3	-0.0037656843
5	0x3d83ebd3	0.06441464
6	0xbb6f9341	-0.0036556276
7	0x3d97389d	0.07383845
8	0xbe68667f	-0.22695349
9	0x3de9a509	0.11408431
10	0x3e3c9198	0.18414915
11	0x3ca4d9ca	0.020123381
12	0x3d563f5c	0.052306518
13	0x3e20b3ad	0.15693541
14	0x3e3bf09c	0.18353504
15	0xbd2ee90c	-0.04270272
16	0x3ed79c24	0.42111313
17	0xbd65bddc	-0.056089267
18	0xbec82ec0	-0.39098167
19	0xbe966672	-0.29375035
20	0xbf11fe62	-0.5702878
21	0xbb8aa6e3	-0.00423132
22	0xbdbac020	-0.09118676
23	0xbe4834d7	-0.19551407
24	0x3d734af6	0.05939766
25	0xbe556891	-0.2084067
26	0x3d8cb184	0.06869796
27	0xbeb2b838	-0.34906173
28	0xbe83a449	-0.25711277
29	0x3cd9feda	0.02661078
30	0x3dc16e37	0.0944485
31	0xbf30f6f3	-0.69126815
32	0x3c823b57	0.015897436
33	0x3dbfe87c	0.09370515
34	0xbf4fdc61	-0.81195647
35	0xbe455700	-0.19271469
36	0x3d4311e0	0.04762447
37	0xbe88d153	-0.26722202
38	0x3e599717	0.21249042
39	0xbe9d8749	-0.30767277
40	0x3db645c1	0.08900023
41	0x3e938546	0.28812617
42	0x3c87cdc6	0.016577613
43	0x3c6cbe0d	0.0144496085
44	0xbdd8c6aa	-0.10584767
45	0xbdfdfad1	-0.12401355
46	0xbe1b150b	-0.15144746
47	0xbda7beaa	-0.08190663
48	0xbec11967	-0.37714693
49	0xbedce012	-0.43139702
50	0xbda86d6f	-0.08223998
51	0xbd5ad6c2	-0.053427465
52	0x3e8696df	0.2628698
53	0xbe398375	-0.18116553
54	0x3e9343e7	0.28762743
55	0x3dbc2d23	0.09188297
56	0xbea8f186	-0.32996768
57	0x3c8d45b9	0.01724516
58	0xbf238909	-0.63880974
59	0x3dc22b79	0.09480948
60	0xbe37119e	-0.17877814
61	0xbf23f47d	-0.64044935
62	0xbed9379b	-0.42425236
63	0x3d994576	0.07483952
64	0xbd5b0d38	-0.053479403
65	0xbf44a80d	-0.76818925
66	0xbd4e3ec7	-0.050352838
67	0xbcf69cff	-0.030104158
68	0x3d2424d0	0.04007417
69	0x3d01563e	0.031576388
70	0x3dd84c8c	0.10561475
71	0x3d125632	0.035726734
72	0x3e57ef73	0.21087436
73	0xbf60f9ef	-0.8788137
74	0x3ea1aeec	0.31578767
75	0xbcfb1131	-0.030647846
76	0xbda26641	-0.0792966
77	0xbd8f444b	-0.06995448
78	0x3c324fc1	0.010883273
79	0xbc2114d0	-0.009831622
80	0xbd090414	-0.033451155
81	0x3c133cff	0.008986711
82	0xbe3bdb70	-0.18345428
83	0xbdd24b2b	-0.102682434
84	0x3c8e4e28	0.017371252
85	0xbc3b5bcb	-0.011435459
86	0x3e988cd5	0.29794946
87	0x3f45bda0	0.7724247
88	0xbc0a7d2b	-0.008452694
89	0x3b3e74e3	0.002906137
90	0xbe859956	-0.2609355
91	0xbf495dab	-0.7865855
92	0xbcb0b847	-0.021572245
93	0x3a4f2f7e	0.00079035
94	0xbd4e546f	-0.05037349
95	0xbd15a278	-0.036531895
96	0xbc42aac4	-0.011881534
97	0x3d679cae	0.056545906
98	0x3e1f1fb1	0.15539433
99	0x3e73c47a	0.23805419
100	0x3dd808d4	0.10548559
101	0xbcdd3f5d	-0.027007753
102	0x3e4f654a	0.20253482
103	0xbec103b1	-0.3769813
104	0x3de55ff5	0.11199943
105	0x3d0fca37	0.035104956
106	0x3ca143d1	0.019685658
107	0xbf0679a0	-0.52529335
108	0x3c76f168	0.015072204
109	0x3b656dcc	0.003500807
110	0x3df50b0f	0.11965
111	0xbecd75b7	-0.40128872
112	0xbd1eceb7	-0.038771357
113	0x3d1e8760	0.038703322
114	0x3e34b077	0.17645441
115	0xbde5478f	-0.11195289
116	0x3d79ab0f	0.06095415
117	0x3de550c3	0.11197045
118	0xbf38fad8	-0.7225776
119	0xbf1f6a80	-0.6227188
120	0x3ceea0b6	0.029129367
121	0x3d97131e	0.07376693
122	0xbf135b7a	-0.5756146
123	0xbd61b74e	-0.055106454
124	0xbd2f4aa0	-0.042795777
125	0x3e45c0bc	0.19311804
126	0xbe8b3bfc	-0.27194202
127	0xbeafe3d6	-0.34353513
128	0xbe0122c8	-0.12610924
129	0x3d8d01bd	0.06885097
130	0xbf06e3ce	-0.5269135
131	0xbe49803a	-0.19677821
132	0x3ddc0565	0.107432164
133	0x3e1654f3	0.14680843
134	0x3e5c84ef	0.21535085
135	0xbecdc8de	-0.40192312
136	0xbd2641df	-0.040590163
137	0x3d977cd8	0.07396859
138	0xbe836e7d	-0.25670233
139	0xbf3e58ea	-0.7435442
140	0x3df6514c	0.12027225
141	0xbdab8606	-0.08375172
142	0xbd23c460	-0.0399822
143	0x3dfd8457	0.123787574
144	0xbe233e80	-0.1594181
145	0xbc6e289a	-0.014536047
146	0x39cd4959	0.00039155295
147	0x3db47e61	0.08813167
148	0xbe003a21	-0.12522174
149	0xbe80ffa8	-0.2519505
150	0xbedd81fe	-0.4326324
151	0xbcd93ff2	-0.02651975
152	0xbd725483	-0.059162628
153	0x3ee6d8ed	0.45087376
154	0x3e58ddad	0.21178313
155	0xbdd24c55	-0.102684654
156	0x3d8bbd4b	0.06823214
157	0xbf5f6e26	-0.8727745
158	0x3dc0432c	0.09387812
159	0x3d146849	0.036232267
160	0xbd58564b	-0.05281667
161	0xbdfaa86c	-0.12239155
162	0xbe32bec1	-0.1745558
163	0xbdf28d83	-0.118433975
164	0x3b5a6fe6	0.0033330857
165	0xbd906412	-0.07050337
166	0xbe3f3fcf	-0.18676685
167	0x3d3a6213	0.045503687
168	0xbcacbb1c	-0.021085314
169	0x3e0b30b0	0.13592792
170	0x3f152981	0.58266455
171	0xbca1c1d2	-0.019745741
172	0xbc01dc2d	-0.007926029
173	0xbe0ab499	-0.13545455
174	0xbf3f8260	-0.7480831
175	0xbd751ff3	-0.059844922
176	0xbe485da1	-0.19566967
177	0xbdbe3483	-0.092873596
178	0xbeb35107	-0.35022756
179	0xbd9a48f0	-0.07533443
180	0xbda9cb1f	-0.082906954
181	0xbd1ee8b7	-0.038796153
182	0x3c279a11	0.010229603
183	0x3ea08417	0.31350777
184	0xbb8d3c11	-0.004310139
185	0xbd5e4256	-0.05426248
186	0x3e1c7653	0.15279512
187	0xbf084b24	-0.53239655
188	0x3d0db972	0.034600683
189	0x3d2999ce	0.041406445
190	0x3d6161c2	0.05502487
191	0xbf027a46	-0.50967824
192	0x3e1c7ee9	0.15282787
193	0xbe2fa9be	-0.17154595
194	0x3d1c6cdb	0.03818975
195	0xbd0dff43	-0.034667265
196	0x3d35752d	0.0443012
197	0x3f0bc2c5	0.5459407
198	0x3d4b9df5	0.049711186
199	0xbd61a9dd	-0.055093635
200	0xbdb45774	-0.08805743
201	0xbf1294d7	-0.5725836
202	0x3e2add4e	0.16685984
203	0xbd31343a	-0.043262698
204	0xbcbbb0a8	-0.022911385
205	0xbf0f11a1	-0.55886275
206	0xbe4aa99b	-0.19791262
207	0xbbcd8ca8	-0.006272871
208	0x3cdb8174	0.026795126
209	0xbd784631	-0.060613815
210	0xbd274e6c	-0.040846273
211	0x3d8ec57d	0.06971262
212	0xbd1190b1	-0.03553838
213	0x3e390114	0.18066818
214	0x3e0f2790	0.13979936
215	0x3c7500ef	0.014953836
216	0x3cbdcadc	0.02316802
217	0x3f5cc873	0.8624336
218	0xbd24bc7c	-0.040218815
219	0x3d5a2617	0.05325898
220	0xbc0e7dee	-0.008697016
221	0xbfabc268	-1.3418703
222	0x3d9f05e9	0.07764799
223	0xbcc07aeb	-0.023496112
224	0x3cbfbaa9	0.023404436
225	0x3ee353d4	0.44399893
226	0x3d35c669	0.04437867
227	0x3c8f4a81	0.01749158
228	0xbb79a286	-0.0038091256
229	0x3f361ea0	0.7114048
230	0x3ccfad7c	0.025351278
231	0x3c4ede52	0.0126262475
232	0xbca3a48e	-0.019975927
233	0xbfaa391f	-1.3298682
234	0x3c9185b8	0.017763957
235	0xbcb496f7	-0.022044642
236	0xbced2f93	-0.02895335
237	0xbd95fad4	-0.07323232
238	0xbd932f0c	-0.07186708
239	0x3c3e1659	0.011602008
240	0xbe5d7814	-0.21627837
241	0xbbbb9002	-0.005723954
242	0x3e22b758	0.15890253
243	0xbdd604ea	-0.10450156
244	0xbcd1293c	-0.025532357
245	0xbe1cf3c3	-0.15327363
246	0xbdd3f938	-0.10350269
247	0xbcd16c18	-0.025564238
248	0x3dfebbc6	0.12438159
249	0x3e3e0533	0.18556671
250	0x3d9e7dcc	0.077388376
251	0x3e242abb	0.16031925
252	0xbc50a9d0	-0.012735799
253	0x3da68f7d	0.08132837
254	0xbb001555	-0.0019543965
255	0x3de512c8	0.11185223

weight f4 [32, 32, 5, 5]
0	0x3d2118e4	0.03933038
1	0xbe40dc1f	-0.1883397
2	0x3d3221b5	0.043489177
3	0x3e8481f3	0.25880393
4	0x3e0ba515	0.13637193
5	0x3df929f2	0.121662036
6	0xbe8432d9	-0.25820044
7	0xbc8594d9	-0.016306328
8	0xbdc8a549	-0.09797151
9	0xbe95729f	-0.2918901
10	0xbdd0dae7	-0.10198002
11	0xbd6f20bf	-0.05838084
12	0x3c86260f	0.01637557
13	0xbe037d65	-0.12840803
14	0xbca5b48e	-0.020227697
15	0xbde6ff96	-0.11279218
16	0xbf2de957	-0.67934173
17	0xbeaaa2e9	-0.33327416
18	0x3b115a99	0.0022179245
19	0xbeb3d55f	-0.35123727
20	0x3db6db74	0.08928576
21	0xbbd417ac	-0.0064725485
22	0xbe0596af	-0.13045762
23	0x3d9790bf	0.07400655
24	0x3de3a331	0.11115111
25	0x3e2c40ce	0.16821596
26	0xbe9f5e42	-0.311266
27	0x3e0dfdcb	0.13866346
28	0x3f0d663a	0.5523411
29	0x3f065aa6	0.5248207
30	0xbea0d223	-0.31410322
31	0x3e7fafd8	0.24969423
32	0xbe57298f	-0.21011947
33	0xbe127446	-0.14302167
34	0x3e414608	0.18874371
35	0x3da8d9af	0.08244645
36	0xbe8ce653	-0.27519473
37	0xbea17276	-0.3153264
38	0x3e3fcc42	0.18730262
39	0xbe3c3680	-0.18380165
40	0xbd370d91	-0.044690672
41	0x3d956571	0.07294739
42	0xbdefedee	-0.11715303
43	0xbed02fd3	-0.40661487
44	0xbe2e6bf8	-0.17033374
45	0xbe4887c7	-0.19583045
46	0x3ed65244	0.4185964
47	0xbc8cbe94	-0.017180718
48	0x3d34c29c	0.044130906
49	0x3ebde159	0.3708599
50	0x3e909a9d	0.2824296
51	0xbe2da620	-0.16957903
52	0xbdf318c1	-0.11869956
53	0x3e7750d2	0.24151924
54	0x3c9f5bb1	0.019452902
55	0x3ef0ab57	0.47005722
56	0x3ea92461	0.33035567
57	0xbf362add	-0.71159154
58	0xbef8d510	-0.48600054
59	0xbe2b427a	-0.16724578
60	0xbd9bcba1	-0.076071985
61	0x3e58f318	0.21186483
62	0xbd8d0dca	-0.06887396
63	0xbef140aa	-0.47119647
64	0x3d244666	0.0401062
65	0x3e3f1df3	0.18663768
66	0xbeab98ee	-0.33515114
67	0xbdcf3207	-0.10116964
68	0x3eace5fd	0.33769217
69	0xbe6b420f	-0.22974418
70	0x3b6d0ab2	0.0036169705
71	0xbea5dadc	-0.3239354
72	0x3db171c0	0.08664274
73	0xbea90833	-0.33014068
74	0x3d9891e3	0.07449701
75	0x3d35d832	0.044395633
76	0xbded65fb	-0.11591717
77	0x3f0e06a2	0.5547887
78	0xbeda9c89	-0.42697552
79	0x3c15a9a0	0.00913468
80	0xbf1770f3	-0.5915672
81	0x3e56415e	0.20923373
82	0xbd08e377	-0.033420052
83	0xbf1d157e	-0.6136092
84	0x3cc885c3	0.024477845
85	0xbd8f8ab2	-0.07008876
86	0xbecca603	-0.39970407
87	0x3c4f0c42	0.0126372
88	0x3dc6a4e0	0.09699416
89	0xbf374c6c	-0.71600986
90	0xbf944d4d	-1.158609
91	0xbe25cd32	-0.16191557
92	0xbed1ee02	-0.41001898
93	0xbe8c4596	-0.2739684
94	0x3df9792c	0.12181315
95	0xba749dc0	-0.0009331368
96	0x3e71b391	0.23603655
97	0xbdb79ab0	-0.08965051
98	0x3e471d0f	0.19444679
99	0xbe3303a2	-0.17481855
100	0x3b13c6e3	0.0022548966
101	0x3dbf67e5	0.09345988
102	0x3dfdae42	0.12386753
103	0x3f426e68	0.75949717
104	0xbf432386	-0.7622608
105	0xbecbb16d	-0.39783803
106	0x3ea93b2e	0.33052963
107	0x3e7adf93	0.2449935
108	0xbe815837	-0.25262615
109	0xbe1540e6	-0.14575538
110	0xbebed989	-0.3727534
111	0xbe14d55c	-0.14534515
112	0x3eb643f0	0.35598707
113	0x3e965ff5	0.29370084
114	0x3f49d135	0.7883485
115	0xbc4abc85	-0.012374048
116	0x3bdf8d04	0.0068222303
117	0xbeee2a6b	-0.46516737
118	0xbd9d9862	-0.0769508
119	0xbf19b50d	-0.60041887
120	0x3ce31bb4	0.02772317
121	0x3e10ba42	0.14133552
122	0x3e016fcc	0.12640303
123	0xbe4a3af9	-0.19749059
124	0xbd96f7f7	-0.07371514
125	0x3e22ee89	0.15911306
126	0x3e5d1f48	0.21593964
127	0xbde999f2	-0.11406316
128	0xbd63e956	-0.05564245
129	0xbe216c44	-0.15763956
130	0x3d8f434a	0.06995256
131	0xbea8c768	-0.32964635
132	0xbd26a193	-0.040681433
133	0xbd20abb8	-0.039226264
134	0xbd083531	-0.033253852
135	0xbc302889	-0.010751852
136	0xbe1dd34e	-0.15412638
137	0x3d414570	0.04718536
138	0x3cb23933	0.02175579
139	0x3e32f0ac	0.17474622
140	0xbe740d5c	-0.23833221
141	0xbfeabb1f	-1.8338355
142	0xbf556130	-0.8335142
143	0xbda51cb1	-0.08062113
144	0xbf135067	-0.5754456
145	0xbd5e197d	-0.054223526
146	0xbefc4944	-0.49274647
147	0x3e38d514	0.18050033
148	0xbec8f486	-0.39249057
149	0xbf0933e6	-0.53594816
150	0x3e929a90	0.28633547
151	0xbd5ed082	-0.054398067
152	0xbdb43c68	-0.08800584
153	0xbe92bbbc	-0.28658855
154	0xbf19bd58	-0.6005454
155	0x3e0c2dd5	0.13689359
156	0x3dfc4f68	0.12319833
157	0xbecabb66	-0.395961
158	0xbd2f1b03	-0.04275037
159	0xbf4a2aac	-0.7897136
160	0x3ce2017e	0.027588602
161	0x3e618bfa	0.22026053
162	0xbe3347a3	-0.17507796
163	0x3e183fb5	0.14868052
164	0x3e1fb275	0.1559542
165	0xbe4ba29d	-0.19886251
166	0xbc57c057	-0.013168416
167	0xbeb0c65b	-0.34526333
168	0xbdabbcba	-0.08385606
169	0xbd856d1d	-0.06514952
170	0x3d4113e7	0.04713812
171	0x3de4c068	0.11169511
172	0xbce142eb	-0.02749773
173	0x3ea8df8d	0.32983056
174	0x3dbeca37	0.09315913
175	0x3d8d2896	0.06892507
176	0xbf2a7263	-0.6658079
177	0x3f076d5b	0.5290124
178	0xbdc71da4	-0.097224504
179	0x3d52b40b	0.051441234
180	0x3db937a2	0.09043814
181	0xbba840e9	-0.005134691
182	0xbd06878f	-0.032844122
183	0x3e975de2	0.29563814
184	0xbf4acefb	-0.7922208
185	0x3cf0d8bc	0.029400222
186	0xbed110e7	-0.40833208
187	0xbea3e153	-0.32007846
188	0x3e2c9c98	0.16856611
189	0xbe25e9c6	-0.16202459
190	0x3e120e5d	0.14263292
191	0xbea3c842	-0.31988722
192	0xbeac67e4	-0.33673012
193	0x3e485e24	0.19567162
194	0x3df3e174	0.11908236
195	0xbe8bf2ec	-0.27333772
196	0xbe495d0b	-0.196644
197	0xbe20d3aa	-0.15705743
198	0x3e89997c	0.26874912
199	0xbdcfd614	-0.10148254
200	0x3e1a5d06	0.15074548
201	0xbe08be92	-0.13353947
202	0x3daff279	0.0859117
203	0x3ec65c88	0.3874247
204	0x3df215b7	0.11820548
205	0xbf4e5722	-0.80601704
206	0x3e0e344c	0.13887137
207	0xbe2e2977	-0.17008005
208	0xbc9b39a3	-0.018948382
209	0xbd5c5fa7	-0.05380216
210	0xbf72f4dd	-0.9490488
211	0x3e298d9f	0.1655793
212	0x3e43d2ef	0.19123434
213	0xbb806707	-0.003918532
214	0xbf0acb21	-0.542162
215	0xbf122898	-0.5709319
216	0xbebb5ebb	-0.3659571
217	0xbe922740	-0.2854557
218	0x3dc63b72	0.09679307
219	0xbb0e52e7	-0.0021716894
220	0xbe623453	-0.22090273
221	0x3e7fbff9	0.24975576
222	0xbd9fbf50	-0.07800162
223	0xbe9b264a	-0.3030265
224	0x3ea3de76	0.32005662
225	0x3dcc49e1	0.09975029
226	0x3e01581a	0.12631264
227	0xbec4e189	-0.3845332
228	0xbe1e209a	-0.15442124
229	0x3d86b196	0.065768406
230	0xbe9efc55	-0.3105189
231	0xbe99b40d	-0.3002018
232	0x3e28687e	0.1644611
233	0xbe91212e	-0.28345627
234	0xbeaf09f5	-0.34187284
235	0xbed451af	-0.4146857
236	0x3f0d0f7e	0.55101764
237	0xbd824bc6	-0.06362109
238	0xbd3a7f55	-0.04553159
239	0xbc95b4fd	-0.018274779
240	0xbe51d4ef	-0.20491384
241	0x3df0d8de	0.11760114
242	0xbe8f4e3e	-0.27989382
243	0x3e03c7f5	0.12869246
244	0xbf0758f1	-0.5287009
245	0xbe103978	-0.14084423
246	0x3e6c48fb	0.23074715
247	0x3dfc7ed5	0.12328879
248	0x3d9ce10d	0.076601125
249	0x3e6f2a41	0.23355962
250	0x3f61a2b0	0.88138866
251	0xbf03340e	-0.51251304
252	0x3d27f868	0.041008383
253	0x3d5929b6	0.053018294
254	0x3e1e5b4c	0.15464514
255	0xbf0a7fd2	-0.5410129

weight f4 [64, 32, 5, 5]
0	0xbb971d1c	-0.0046116244
1	0x3dcce0a1	0.10003782
2	0xbd9c5133	-0.07632675
3	0x3e5b7687	0.21431933
4	0xbe471b17	-0.19443928
5	0x3e55dbbf	0.20884608
6	0x3d31e88f	0.043434676
7	0x3e35df33	0.17760925
8	0xbe1e5977	-0.15463816
9	0x3df90f0d	0.12161074
10	0x3d8e1a5c	0.069386214
11	0xbe62ee7c	-0.22161287
12	0xbe25ea21	-0.16202594
13	0x3da5a6fb	0.080884896
14	0x3f2af7a9	0.6678415
15	0xbdf4fd94	-0.11962429
16	0x3d39b09e	0.04533445
17	0x3d25e669	0.04050294
18	0xbe15b9f6	-0.1462172
19	0x3ea3a682	0.31962973
20	0xbd600532	-0.054692455
21	0xbeed18c0	-0.46307945
22	0xbe03cd45	-0.12871273
23	0x3f032b52	0.51237977
24	0x3e8be07c	0.27319705
25	0x3e8eb6df	0.27873895
26	0xbee2573d	-0.44207183
27	0x3e577ff4	0.21044904
28	0x3e3e5ef9	0.18590917
29	0x3cf42d4b	0.029806754
30	0x3cb1c28a	0.021699209
31	0x3ecc0e8e	0.39854854
32	0x3e6b8f93	0.23003988
33	0xbf319bb3	-0.69378203
34	0xbd7ba4fa	-0.06143663
35	0x3e620edc	0.22075981
36	0x3e6d9128	0.23199904
37	0x3f281a25	0.65664893
38	0x3dbe9be1	0.09307075
39	0xbecb6925	-0.39728656
40	0x3e4fb886	0.20285234
41	0x3ead8cfb	0.33896622
42	0xbf219de0	-0.63131523
43	0x3ec6dd02	0.3884049
44	0x3df36323	0.11884143
45	0xbcad3a95	-0.021146098
46	0x3f24006f	0.6406316
47	0x3ea86679	0.3289068
48	0x3d277645	0.040884275
49	0xbd5302a1	-0.05151618
50	0xbe71b87f	-0.23605536
51	0xbdcd770c	-0.10032472
52	0x3ef8c911	0.48590901
53	0x3e7bd00f	0.24591087
54	0xbe91ed6a	-0.28501445
55	0x3dbcd2c5	0.092198886
56	0xbe0408a9	-0.12893929
57	0xbf1b3d8e	-0.606408
58	0xbf832869	-1.0246707
59	0xbf119ab9	-0.56876713
60	0x3df18b22	0.117941156
61	0x3da84bb6	0.08217566
62	0xbf2abac4	-0.6669123
63	0x3e2a5403	0.1663361
64	0xbef95013	-0.48693904
65	0x3e77d716	0.24203143
66	0x3e61e83f	0.22061251
67	0xbe190a6e	-0.14945385
68	0xbe797481	-0.24360849
69	0xbe842e9e	-0.25816816
70	0x3ede18f9	0.43378428
71	0x3de325c0	0.110911846
72	0x3de0b424	0.10971859
73	0x3df7181e	0.12065147
74	0xbe25f28e	-0.16205809
75	0xbedb1c90	-0.4279523
76	0xbef8d437	-0.48599407
77	0xbdad9258	-0.084751785
78	0x3eb0cd7a	0.34531766
79	0xbe88a698	-0.266896
80	0x3ee89fd9	0.45434454
81	0x3dc9ebb1	0.09859408
82	0x3ea20a25	0.31648365
83	0x3f384e70	0.71994686
84	0x3e536258	0.20642984
85	0x3e6c3c33	0.23069839
86	0xbcc9e00d	-0.024642969
87	0xbf1034f7	-0.5633082
88	0xbf155dda	-0.5834633
89	0xbf9b1666	-1.211621
90	0xbeb7f271	-0.35927156
91	0xbe0a50e9	-0.13507427
92	0xbf8aed0a	-1.0853589
93	0x3d4f6f3b	0.050643187
94	0x3eb237e9	0.3480828
95	0x3d239b5e	0.03994309
96	0xbdc799e1	-0.09746147
97	0xbb8264a8	-0.0039792843
98	0x3f0afa77	0.5428843
99	0x3dd11574	0.1020917
100	0xbe5539c8	-0.20822823
101	0x3e91441b	0.28372273
102	0x3eab4b74	0.33456004
103	0xbd13f562	-0.036122687
104	0x3de7d1be	0.11319302
105	0xbef1e4a5	-0.47244754
106	0xbe1be5b6	-0.15224347
107	0x3d2b0e17	0.041761484
108	0xbd568dbc	-0.052381262
109	0x3f333753	0.70006293
110	0x3e831067	0.25598451
111	0xbec948c8	-0.3931334
112	0xbe3ba3f6	-0.18324265
113	0x3d103922	0.035210736
114	0xbe9a2100	-0.30103302
115	0xbcf860b8	-0.030319557
116	0x3e7048c0	0.23465252
117	0xbe553b5e	-0.20823428
118	0xbf057aee	-0.521407
119	0xbf15169f	-0.5823764
120	0xbedebe90	-0.43504763
121	0xbe601742	-0.21883872
122	0xbdad241c	-0.08454153
123	0x3eb877cc	0.36028898
124	0xbef1f904	-0.47260296
125	0xbdbdd570	-0.092692256
126	0xbf01c5fe	-0.5069274
127	0xbeb32b8b	-0.34994158
128	0x3ee1d406	0.44107074
129	0xbf33e3a3	-0.7026922
130	0x3eed2048	0.4631369
131	0xbece3ae4	-0.40279305
132	0x3e4470f3	0.19183712
133	0xbe90af0d	-0.28258553
134	0xbe5d8a2a	-0.21634737
135	0xbb5e6be5	-0.0033938822
136	0x3e677a3e	0.22605225
137	0x3e0f7c6e	0.1401231
138	0x3b82f9c8	0.0039970614
139	0xbe5470c1	-0.20746137
140	0xbf10936d	-0.56474954
141	0xbe6401a9	-0.22266258
142	0x3d806c01	0.062706
143	0xbd7e3c98	-0.062069505
144	0xbccd1648	-0.025035039
145	0xbf012d24	-0.50459504
146	0xbde3b8a2	-0.111192
147	0x3e1cf515	0.15327866
148	0xbd42b362	-0.047534354
149	0x3dd0ca2d	0.10194812
150	0xbcb4ab19	-0.022054242
151	0xbedccc8a	-0.431248
152	0x3d81c44c	0.06336269
153	0x3ddbad2d	0.1072639
154	0xbe78f3c1	-0.24311735
155	0x3d9cca36	0.07655756
156	0xbbc4d4c5	-0.0060068094
157	0x3e151dab	0.14562099
158	0xbdbff63b	-0.093731366
159	0x3d63c79c	0.055610284
160	0xbd021aff	-0.031764027
161	0x3e852f75	0.2601277
162	0x3e7909ce	0.24320146
163	0xbe88f9da	-0.26753122
164	0xbe3f8d94	-0.18706352
165	0x3d09306a	0.033493437
166	0xbd9cff6f	-0.076659076
167	0xbd6a1730	-0.05715102
168	0xbe020f23	-0.12701087
169	0xbeae26b9	-0.34013918
170	0x3ea4c11f	0.3217859
171	0x3e281432	0.16413954
172	0xbd7bee6e	-0.06150668
173	0xbdb47635	-0.08811609
174	0x3d6efbeb	0.058345716
175	0xbc3d6fbc	-0.011562284
176	0xbebf6f15	-0.37389436
177	0x3e030566	0.12795028
178	0xbe450d4e	-0.19243357
179	0x3c3c75a4	0.011502657
180	0x3e411abe	0.18857858
181	0x3db70fe6	0.08938579
182	0x3dffeb01	0.12495995
183	0xbde2682c	-0.110550255
184	0xbf0990df	-0.5373668
185	0x3de6b11a	0.11264248
186	0x3c26ee35	0.010188629
187	0xbe9fd6e3	-0.31218633
188	0x3e55e9b6	0.20889935
189	0x3e9d234f	0.30691
190	0x3da43f0a	0.08019836
191	0xbe70656c	-0.2347619
192	0xbe1590c7	-0.1460601
193	0xbdc973ef	-0.09836566
194	0xbaf35ecf	-0.0018567684
195	0x3e31b3fd	0.17353816
196	0xbe9e8fc4	-0.3096906
197	0xbe16c809	-0.14724745
198	0xbf566e5d	-0.8376215
199	0xbe8bb79e	-0.27288526
200	0x3e9f177f	0.31072614
201	0x3ecbd505	0.39810959
202	0xbe3f1c9f	-0.18663262
203	0xbeb7fec8	-0.3593657
204	0x3de9fbef	0.11425006
205	0x3ec4ac01	0.3841248
206	0xbf566123	-0.8374197
207	0x3e4166f7	0.18886934
208	0xbf10ca73	-0.56558913
209	0x3ef41d6b	0.47678694
210	0x3e8523c7	0.26003858
211	0x3e0af08e	0.13568327
212	0xbea49cfc	-0.3215102
213	0xbdd8e5f4	-0.10590735
214	0xbf12a3cf	-0.572812
215	0x3e8257b4	0.25457537
216	0xbee3d738	-0.44500136
217	0x3daa31cb	0.083102785
218	0x3c157fa2	0.009124668
219	0x3f015d66	0.5053314
220	0x3f19b3d3	0.60040015
221	0xbe0b5b80	-0.13609123
222	0x3e2c0ef9	0.16802587
223	0x3e92722e	0.28602737
224	0x3e733753	0.23751573
225	0x3eca10ea	0.3946603
226	0xbda797c3	-0.08183243
227	0xbb50ae01	-0.0031841996
228	0xbe44aa76	-0.1920565
229	0x3f13e56f	0.5777196
230	0x3e484420	0.19557238
231	0xbdad9ea1	-0.08477522
232	0x3e83d912	0.2575155
233	0x3c5d1831	0.013494537
234	0xbb364fd7	-0.0027818584
235	0x3cf4241f	0.02980238
236	0xbdad4ed7	-0.08462303
237	0xbd884c7d	-0.06655214
238	0xbc4770dd	-0.012172905
239	0x3dc6da7f	0.097096436
240	0x3efdf1ca	0.49598533
241	0x3e2a78d5	0.16647656
242	0xbf0e92ab	-0.5569255
243	0x3d84fad6	0.06493156
244	0x3cd62178	0.026139006
245	0xbe8c2486	-0.27371615
246	0x3e19293d	0.14957137
247	0x3e88de5d	0.2673215
248	0x3e846160	0.2585554
249	0xbd738c16	-0.05945977
250	0x3de67160	0.11252093
251	0x3e81ec5c	0.2537564
252	0x3e912557	0.283488
253	0xbe35fc10	-0.17771935
254	0x3ed90b2f	0.42391345
255	0x3ee9d4a1	0.45670035

weight f4 [256, 256]
0	0x3a8dbe72	0.0010814203
1	0x3c91783b	0.017757526
2	0x3c7598de	0.01499006
3	0x3d910f89	0.07083041
4	0x3db60ca3	0.08889129
5	0xbcaa12b2	-0.020760868
6	0xbd90b996	-0.07066648
7	0xbdd08768	-0.10182077
8	0x3c57bf4c	0.013168167
9	0xbdfb51e3	-0.12271478
10	0xbd8534f1	-0.065042384
11	0x3d3eeeaf	0.046614345
12	0x3e2f1e5b	0.17101423
13	0x3e19e3e8	0.15028346
14	0xbd60eda5	-0.054914135
15	0x3c69780e	0.014249815
16	0xbe1fb674	-0.15596944
17	0x3e5ad2ed	0.21369524
18	0x3ddf2d43	0.10897305
19	0x3b9415bd	0.004519193
20	0xbdf8567f	-0.12125873
21	0x3d4010c5	0.046890993
22	0xbcf57700	-0.02996397
23	0xbdc140ff	-0.09436225
24	0x3d96ab6b	0.07356914
25	0xbe1532c1	-0.14570142
26	0xbe234a33	-0.15946274
27	0xbd0721c2	-0.03299118
28	0x3b87d17f	0.004144847
29	0x3c50b7cc	0.012739133
30	0xbd5a255a	-0.053258277
31	0x3c3d8339	0.01156693
32	0x3efb6976	0.49103898
33	0x3c16e074	0.009208787
34	0x3b573f10	0.0032843985
35	0x3ea3d271	0.31996492
36	0xbd02b78d	-0.03191333
37	0xbc99338f	-0.018701343
38	0x3cda53c3	0.026651269
39	0xbc083e81	-0.008315683
40	0x3e33989a	0.17538682
41	0xbe801220	-0.25013828
42	0xbcfce51f	-0.030870972
43	0xbc78c119	-0.015182757
44	0x3cf13cd4	0.02944795
45	0x3d1b1961	0.037866
46	0xbd287727	-0.041129258
47	0x3d5d7276	0.054064237
48	0xbdc9ebde	-0.09859441
49	0x3d9d34dd	0.076760985
50	0x3cc206f8	0.023684964
51	0x3d8d1648	0.068890154
52	0xbc8436ad	-0.016139353
53	0x3bed4680	0.0072410703
54	0xbd7cd738	-0.061728686
55	0xbdb984cd	-0.09058533
56	0x3a97f84e	0.0011594386
57	0xbf1695f3	-0.58822554
58	0x3ea7ff22	0.32811838
59	0xbd40d844	-0.047081247
60	0x3e87bd8a	0.26511794
61	0x3f039538	0.51399565
62	0xbddd3f23	-0.10803058
63	0xbe8eb363	-0.27871236
64	0xbd9a6e23	-0.07540538
65	0xbd999389	-0.07498843
66	0xbdb1ff93	-0.08691325
67	0x3d9b8e75	0.07595531
68	0x3e19f389	0.15034308
69	0x3c66cfde	0.014087645
70	0x3c26f586	0.010190373
71	0xbd8bf636	-0.068340704
72	0xbd96eca2	-0.07369353
73	0xbd87627c	-0.06610581
74	0x3d937196	0.07199399
75	0xbb908a2d	-0.004411003
76	0xbe2ad14a	-0.166814
77	0x3d9d2948	0.076738894
78	0xbd36dc2b	-0.044643562
79	0x3bf1a8ba	0.00737485
80	0x3d3822d5	0.044955093
81	0xbce22602	-0.027606014
82	0x3dfbeace	0.12300645
83	0x3ddd0faa	0.10794003
84	0xbe23d16a	-0.15997854
85	0xbd2f7c31	-0.042843048
86	0x3d1cfaad	0.038325
87	0x3c41609e	0.0118028205
88	0xbb7d061c	-0.0038608378
89	0x3d39d331	0.045367423
90	0xbdb23c0e	-0.08702861
91	0xbad1f032	-0.0016017018
92	0x3d1254dd	0.035725463
93	0xbd36a44f	-0.04459029
94	0x3d2bed74	0.0419745
95	0xbdb71263	-0.08939054
96	0x3ed7ee86	0.42174166
97	0x3dae55c7	0.085124545
98	0xbd33988e	-0.04384666
99	0x3ce1a0d4	0.02754251
100	0x3ecadc11	0.39621022
101	0xbdf46af4	-0.11934462
102	0x3e6d327e	0.23163792
103	0xbf0b70c5	-0.5446895
104	0x3de88438	0.11353344
105	0x3da12c96	0.07869832
106	0x3bbe1399	0.005800676
107	0x3de14f72	0.11001481
108	0x3e09d92d	0.13461752
109	0x3c409fa5	0.011756812
110	0x3e250136	0.16113743
111	0x3e4da0d4	0.20080882
112	0xbc32ee6c	-0.010921102
113	0xbd4a3319	-0.049365137
114	0xbd7bfdba	-0.06152127
115	0x3d89a77b	0.067213975
116	0xbdb71327	-0.089392
117	0x3cefac6b	0.02925702
118	0xbc16bded	-0.009200555
119	0x39652967	0.00021854565
120	0xbdfb9faf	-0.122863166
121	0x3d20a17a	0.039216496
122	0xbe8ce331	-0.27517083
123	0xbe901fbe	-0.28149217
124	0x3d5d125a	0.05397258
125	0x3d08c9cc	0.033395573
126	0xbc945c5e	-0.01811045
127	0xbdbe7f5f	-0.09301638
128	0xbd1df3a5	-0.038562436
129	0xbcaefbd4	-0.021360315
130	0xbe1009ab	-0.14066188
131	0x3e6e9095	0.23297341
132	0x3da6aac4	0.0813804
133	0xbdb3cfde	-0.08779882
134	0xbd9ab6ff	-0.07554435
135	0xbcb80926	-0.0224653
136	0xbcc17c5d	-0.023618871
137	0x3cba20d3	0.02272073
138	0xba5c6764	-0.00084077404
139	0x3cf5af5a	0.02999084
140	0xbdc72e79	-0.09725661
141	0xbc85dbec	-0.016340218
142	0x3dc17d04	0.09447673
143	0x3cd4bee2	0.025969926
144	0x3d9aea8e	0.07564269
145	0x3b4f5c55	0.0031640728
146	0x3ce8d12c	0.028420053
147	0xbe72f4f5	-0.23726256
148	0xbd140661	-0.036138896
149	0x3d866961	0.06563068
150	0xbc9447e0	-0.018100679
151	0xbccc819c	-0.024964146
152	0x3d80ad7b	0.06283089
153	0x3daf9498	0.08573264
154	0x3da0c28b	0.07849606
155	0xbe219cec	-0.15782517
156	0x3d5a3526	0.053273343
157	0xbda7732b	-0.081762634
158	0xbdd06db0	-0.10177171
159	0x3de63888	0.11241251
160	0xbd77fdb2	-0.060544677
161	0x3d121704	0.03566648
162	0xbd63d08c	-0.055618808
163	0x3da46011	0.08026136
164	0xbdd94629	-0.10609085
165	0x3d3480bc	0.044068083
166	0x3d9942c2	0.07483436
167	0xbb7a9e20	-0.0038241223
168	0x3db599fe	0.08867262
169	0x3dd39dd4	0.10332838
170	0x3d41c663	0.047308337
171	0x3db1cf4b	0.08682116
172	0xbd841b8b	-0.06450566
173	0xbd19d94d	-0.03756075
174	0x3d084e32	0.033277698
175	0xbecd2258	-0.40065265
176	0x3d85a309	0.06525237
177	0x3b84449f	0.0040365006
178	0x3db04b18	0.08608073
179	0xbda770ca	-0.0817581
180	0xbcae80c4	-0.021301635
181	0xbd9260df	-0.07147383
182	0x3c336546	0.010949438
183	0x3d04449b	0.03229199
184	0xbe4f216a	-0.2022759
185	0xbdd1ba2a	-0.10240586
186	0x3d117120	0.035508275
187	0xbdedb876	-0.11607449
188	0x3bb59e23	0.005542533
189	0x3db0cdb7	0.08632987
190	0xbd8064c7	-0.06269222
191	0xbce63141	-0.028099658
192	0xbd77a87e	-0.06046342
193	0xbe5a591d	-0.21323057
194	0x3d3d8b6d	0.046275545
195	0x3eb354e4	0.35025704
196	0x3bf33c06	0.007422927
197	0xbc275d7b	-0.010215159
198	0xbd39f135	-0.04539605
199	0x3d0a9baa	0.03383986
200	0xbdc8a8a0	-0.09797788
201	0xbe2b0a26	-0.1670309
202	0x3db2808d	0.08715925
203	0x3bc757d4	0.006083468
204	0xbd1c672c	-0.03818433
205	0x3e071153	0.13190202
206	0x3dd0d4a0	0.10196805
207	0x3c5b7a87	0.013395912
208	0x3df590f9	0.11990542
209	0x3d2578de	0.04039847
210	0x3cabac62	0.020956222
211	0xbc67d035	-0.0141487615
212	0x3e914953	0.28376254
213	0x3ce57ba1	0.028013052
214	0xbe8a6a6c	-0.27034318
215	0xbe7b0534	-0.24513704
216	0x3e1e8332	0.15479735
217	0x3e295c57	0.16539131
218	0xbdfdaebe	-0.12386845
219	0x3e1041e7	0.1408764
220	0xbccb1bb0	-0.024793476
221	0x3d39746f	0.045277055
222	0xbd18f70a	-0.03734497
223	0x3be140c3	0.0068741753
224	0x3a4adf70	0.0007738983
225	0x3d6b9657	0.057516422
226	0x3db9f683	0.090802215
227	0xbd134b91	-0.035960738
228	0x3d3f2b57	0.04667219
229	0x3d557765	0.052115817
230	0x3d0c151f	0.03419983
231	0xbdb0749c	-0.086159915
232	0xbd614c6f	-0.055004533
233	0x3d380e0f	0.044935282
234	0x3d8a1a08	0.06743246
235	0x3d813812	0.06309523
236	0xbe15e7ed	-0.14639254
237	0x3d642b58	0.0557054
238	0x3e91417a	0.28370267
239	0xbcea5adf	-0.028607784
240	0x3e384d84	0.1799832
241	0x3cae8bbd	0.021306867
242	0xbde40d08	-0.11135298
243	0xbd57e9ae	-0.05271309
244	0xbd9c4512	-0.076303616
245	0x3d83a925	0.06428746
246	0x3d53421a	0.05157671
247	0x3c3f71a3	0.011684808
248	0x3df73179	0.12069983
249	0x3d0f5596	0.03499373
250	0x3db7b44c	0.08969936
251	0x3db5b7e2	0.088729635
252	0x3c23aa84	0.009989385
253	0xbc1bc3a7	-0.009507096
254	0x3cd865a6	0.026415657
255	0x3be594fa	0.007006285

bias f4 [256]
0	0xbaa0bfd7	-0.0012264204
1	0x3c812071	0.01576254
2	0x3da75af6	0.08171646
3	0xbc8e8102	-0.0173955
4	0xbd3b553d	-0.045735586
5	0xbde2de1d	-0.11077521
6	0xbd7e6752	-0.062110253
7	0x3d8db067	0.06918412
8	0x3e1c8a4d	0.15287133
9	0xbe046b80	-0.12931633
10	0x3cc5f505	0.024164686
11	0xbc5167c2	-0.012781085
12	0x3db52077	0.08844083
13	0xbda3a874	-0.07991114
14	0xbce3b03d	-0.027793998
15	0xbd0b59d1	-0.034021202
16	0xbc31c8d1	-0.010851101
17	0xbd59a1c9	-0.053132806
18	0x3d9c8728	0.076429665
19	0xbd96f939	-0.07371754
20	0x3cb3f97f	0.021969555
21	0xbd86b4fa	-0.06577487
22	0x3da6632e	0.08124386
23	0x3e5cf4da	0.21577778
24	0xbe226403	-0.15858464
25	0x3e0a5614	0.13509399
26	0x3d2bcd06	0.041943572
27	0xbd9f11ec	-0.0776709
28	0xbde04611	-0.10950864
29	0xbdd7da77	-0.10539716
30	0x3e088357	0.13331352
31	0x3e110695	0.14162667
32	0xbd764580	-0.060124874
33	0xbb338be8	-0.0027396623
34	0x3d9bf018	0.076141536
35	0xbb0cdab2	-0.0021492657
36	0xbe0831b7	-0.13300215
37	0xbc11c325	-0.008896624
38	0xbd5a59e1	-0.05330837
39	0xbe294cea	-0.16533247
40	0xbd5f0ced	-0.054455686
41	0x3d3a35b2	0.045461364
42	0x3cec64ad	0.0288566
43	0xbde5c4d3	-0.11219182
44	0xbd11f24d	-0.035631467
45	0x3d1b24a1	0.03787673
46	0x3df5df41	0.12005473
47	0x3e27bf32	0.16381529
48	0xbcb5ffda	-0.022216726
49	0x3daa6527	0.083200745
50	0xbd1d825c	-0.0384544
51	0x3ce8f793	0.028438365
52	0xbe1219d8	-0.14267671
53	0x3df0ce25	0.11758069
54	0x3df4c4c3	0.11951592
55	0xbd24418a	-0.040101565
56	0xbd8602ad	-0.06543479
57	0x3d362226	0.04446616
58	0x3e61fb3d	0.22068496
59	0x3cdeab07	0.027181162
60	0xbc80021e	-0.01562601
61	0x3d8804f1	0.066415675
62	0xbe09f5c4	-0.13472658
63	0x3bcef883	0.006316246
64	0x3a3fc602	0.0007315577
65	0x3d13db8d	0.03609805
66	0x39d4e21d	0.00040604259
67	0xbd5d715a	-0.05406318
68	0xbdbf9128	-0.09353858
69	0xbe775c9c	-0.24156421
70	0xbd7179e9	-0.058954153
71	0xbc69d556	-0.014272055
72	0xbd9b2a45	-0.07576422
73	0x3dad10f6	0.08450501
74	0x3d0ff0f2	0.035141893
75	0x3d748e23	0.059705865
76	0x3bf3c8e6	0.0074397204
77	0x3d16b189	0.036790404
78	0x3d725c10	0.05916983
79	0xbd30b4e6	-0.04314127
80	0xbe291d55	-0.16515096
81	0x3d2fb3b0	0.042895973
82	0xbc91a4b4	-0.017778732
83	0xbd0eefb6	-0.034896575
84	0xbdf7fdd3	-0.1210896
85	0x3ddbbbb3	0.1072916
86	0x3da2a529	0.07941658
87	0x3d30a368	0.043124586
88	0x3e3bc3c6	0.183364
89	0xbd638be8	-0.055553347
90	0x3d971af2	0.07378186
91	0xbcf74141	-0.030182483
92	0x3d4c012c	0.049805805
93	0x3df48d9e	0.11941074
94	0x3da6ea5a	0.08150168
95	0x3d4317a1	0.047629956
96	0xbe143c4d	-0.14476128
97	0x3e80ee4f	0.25181815
98	0xbe12fc7e	-0.1435413
99	0xbb6fc5b1	-0.003658634
100	0x3d693e61	0.056944255
101	0xbe0bf7a7	-0.1366869
102	0xbe0e1a38	-0.13877189
103	0xbd05de7d	-0.032682884
104	0xbd9a8184	-0.075442344
105	0xbd7aa904	-0.061196342
106	0xbdbb363f	-0.09141206
107	0x3df454c0	0.11930227
108	0x3e1cece3	0.1532474
109	0x3d13550a	0.03596977
110	0xbdc3894a	-0.0954767
111	0x3db90106	0.09033398
112	0xbd0a01c1	-0.03369308
113	0x3c4f6658	0.012658678
114	0xbd731d56	-0.05935415
115	0x3d3343e4	0.043765917
116	0xbdce238f	-0.10065376
117	0xbdff7998	-0.12474364
118	0xbd5233cf	-0.05131894
119	0xbd9eca1a	-0.077533916
120	0xbcea3872	-0.028591368
121	0x3e2d50af	0.1692531
122	0x3d427414	0.047473982
123	0xbcb50feb	-0.022102317
124	0xbc752dfa	-0.014964575
125	0x3cef7ec3	0.02923525
126	0xbd151f1f	-0.036406633
127	0xbc093f12	-0.008376854
128	0xbdc370fa	-0.09543033
129	0x3cf33d8b	0.029692432
130	0x3d6a37a3	0.057181966
131	0x3dd7c24d	0.10535107
132	0xbdecb92c	-0.11558756
133	0x3c17d1b5	0.009266307
134	0x3dcd61b8	0.10028404
135	0x3db556b0	0.08854425
136	0xbdd028ab	-0.10164007
137	0xbd114ad2	-0.035471745
138	0xbd60831a	-0.05481253
139	0xbdca12d4	-0.098668724
140	0x3e03a32f	0.12855218
141	0xbc1cce1e	-0.009570627
142	0xbd214d64	-0.039380446
143	0xbde6f419	-0.11277027
144	0x3d8adca9	0.06780369
145	0x3c18b51b	0.009320523
146	0xbd9164b0	-0.07099283
147	0x3e4cb3db	0.19990484
148	0x3d525c3e	0.0513575
149	0x3e2c0165	0.16797407
150	0xbcd12330	-0.025529474
151	0x3d8200b1	0.06347788
152	0x3d458aba	0.048228003
153	0x3d42a64a	0.047521867
154	0xbd493d32	-0.049130626
155	0xbc2dc4ef	-0.010606035
156	0x3df751e2	0.12076165
157	0x3b91a80d	0.004445082
158	0xbe0655b2	-0.13118628
159	0xbdc1bfec	-0.09460434
160	0x3d15a1b4	0.036531165
161	0xbcb5d8ff	-0.022198198
162	0x3cf545ed	0.02994057
163	0xbcabcf06	-0.02097274
164	0x3da5033d	0.08057258
165	0xbe318a60	-0.17337942
166	0x3da2352f	0.079203
167	0xbd30b99a	-0.043145753
168	0xbc84a3bc	-0.016191356
169	0xbd69594b	-0.056969922
170	0xbc4c9f85	-0.012489204
171	0x3d267d34	0.040646747
172	0xbcb95c36	-0.022626977
173	0xbd496cae	-0.04917591
174	0x3d4cc403	0.04999162
175	0x3dd7d5a5	0.10538796
176	0x3d6edb6d	0.05831473
177	0xbdb0377b	-0.08604332
178	0xbdc395c1	-0.09550048
179	0xbdff1e06	-0.124568984
180	0x3d9a4f08	0.07534605
181	0x3d1967e6	0.0374526
182	0x3e310b8a	0.17289558
183	0xbd17d6f9	-0.03707025
184	0x3cf1c244	0.029511578
185	0xbdbce3b2	-0.09223117
186	0x3e344949	0.17606081
187	0xbd00590f	-0.031334933
188	0xbd5d3ed7	-0.054015007
189	0xbd901561	-0.07035328
190	0xbcddba34	-0.027066328
191	0xbabc7c2d	-0.0014380269
192	0xbc9192bd	-0.017770166
193	0x3e071ff7	0.13195787
194	0xbdcf48cf	-0.10121309
195	0x3de28f6e	0.11062513
196	0x3ce2698c	0.02763822
197	0xbd5a3fd1	-0.053283516
198	0x3b76f55b	0.0037682864
199	0x3cfd3301	0.03090811
200	0x3d8458e4	0.06462267
201	0xbdc26b9d	-0.09493182
202	0x3ddca6ab	0.10773977
203	0xbd2c46a7	-0.042059567
204	0x3c70260c	0.014657509
205	0xbd458f5a	-0.048232414
206	0x3cf9b771	0.03048298
207	0x3d845d33	0.06463089
208	0x3e260ee1	0.16216613
209	0x3cd71683	0.026255852
210	0xbd8b94bd	-0.06815479
211	0xbdb4e7df	-0.088332884
212	0xbd26dcca	-0.040737905
213	0x3e09d63d	0.13460632
214	0xbde38cb6	-0.11110823
215	0x3de1f2a7	0.110326104
216	0x3cb5559b	0.022135546
217	0x3e316257	0.1732267
218	0x3d242354	0.040072754
219	0xbd610386	-0.054935
220	0x3d1fbae9	0.03899661
221	0xbcb28f9e	-0.021796998
222	0x3d65d815	0.056114275
223	0x3df78ed4	0.12087789
224	0x3e07bc98	0.13255537
225	0xbc0d00af	-0.00860612
226	0x3cbb32be	0.022851344
227	0xbc8b489f	-0.017002402
228	0xbcac8669	-0.021060186
229	0x3c10fe2b	0.008849661
230	0xbd032d88	-0.032025844
231	0xbe1ed8bb	-0.15512364
232	0xbd5cbaa7	-0.053888943
233	0x3dafec10	0.08589947
234	0xbd6c1df3	-0.05764575
235	0x3dc87667	0.097882085
236	0xbd0cc4bd	-0.03436731
237	0x3dca310d	0.09872637
238	0xbe1d5977	-0.1536616
239	0xbc1cb16e	-0.009563787
240	0xbd1073ad	-0.035266567
241	0x3c477da7	0.012175954
242	0xbd3ad19b	-0.04561005
243	0xbe19a1db	-0.15003149
244	0x3d98ebd1	0.074668534
245	0xbb38af0d	-0.002818051
246	0x3b8e8312	0.004349121
247	0x3d84d6b9	0.064862676
248	0xbdc91e7a	-0.09820266
249	0x3d2f8827	0.042854454
250	0xbbc109e0	-0.00589107
251	0xbabb4890	-0.0014288593
252	0xbde95aaf	-0.1139425
253	0xbc16b815	-0.009199162
254	0x3d5d9b5b	0.054103237
255	0x3de653a8	0.11246425

weight f4 [256, 256]
0	0xbd0c6ec0	-0.034285307
1	0xbc6308b8	-0.013857059
2	0xbc104be5	-0.008807157
3	0xbb074054	-0.0020637708
4	0xbd75c16c	-0.059998915
5	0xbbaeacb7	-0.005330648
6	0xbc4a8715	-0.012361308
7	0x3d1a3ba3	0.03765453
8	0xbd27f54e	-0.041005425
9	0xbc829d74	-0.01594422
10	0xbbab3d26	-0.0052257953
11	0xbbb3b7e0	-0.005484566
12	0x3bc05e6e	0.005870632
13	0xbc391fef	-0.0112991175
14	0x3c879f5e	0.016555484
15	0xbc499c8d	-0.012305391
16	0x3c6947d7	0.014238319
17	0x3c4c159b	0.012456323
18	0x3c2de474	0.0106135495
19	0xbd0f04d2	-0.034916706
20	0xbcd0509e	-0.025429066
21	0x3d4ad676	0.049520932
22	0x3b8a1fe4	0.0042152274
23	0xbd3b3586	-0.04570534
24	0x3d1163f9	0.035495732
25	0xbb0063c8	-0.0019590724
26	0xbd210325	-0.03930964
27	0x3d2a3895	0.041557867
28	0x3d1afe25	0.037840027
29	0x3d0627c8	0.032752782
30	0xbcd5f3eb	-0.026117286
31	0xbd896191	-0.067080624
32	0x3d789c01	0.060695652
33	0xbd56171e	-0.05226814
34	0xbd6b92e4	-0.057513133
35	0xbc1db081	-0.009624601
36	0x3d159248	0.036516458
37	0x3c079cb3	0.008277106
38	0xbbc70029	-0.006073017
39	0x3c882f1d	0.016624028
40	0xbcf27a98	-0.029599473
41	0xbce58323	-0.028016632
42	0xbce3dab8	-0.027814254
43	0xbcbf0a41	-0.02332032
44	0xbc7e484a	-0.015520165
45	0x3ce328e1	0.027729454
46	0x3cf03416	0.029321712
47	0x3d39b236	0.04533597
48	0x3c6d5d95	0.014487644
49	0x3d544c8f	0.051830824
50	0x3cf3a362	0.029740993
51	0xbc4edbda	-0.012625659
52	0xbc921aba	-0.01783501
53	0xbba95669	-0.0051677716
54	0x3c05b8e5	0.008161758
55	0x3ca93540	0.020655274
56	0x3c882565	0.016619394
57	0xbc874952	-0.016514454
58	0xbc0c8055	-0.008575519
59	0xbd2fb682	-0.042898662
60	0x3aeac5a7	0.0017911688
61	0xbd14e56e	-0.036351614
62	0x3c842385	0.016130218
63	0xbc6a0493	-0.014283317
64	0x3c0c3479	0.008557432
65	0xbd1e98c1	-0.038719896
66	0xbc98e5de	-0.018664297
67	0x3d961d52	0.07329811
68	0xbc721933	-0.014776516
69	0xbab2f150	-0.0013652239
70	0x3cd2e6fb	0.025744906
71	0x3b403ea4	0.0029334212
72	0xbc2899b7	-0.010290555
73	0x3d693e46	0.056944154
74	0x3d331bff	0.04372787
75	0x3d972b0e	0.07381259
76	0xbb4553a0	-0.003010966
77	0x3b51906b	0.003197695
78	0x3b80c017	0.003929149
79	0x3ba91d4b	0.0051609627
80	0xbcd73172	-0.026268695
81	0xbc0c5848	-0.00856597
82	0xbb3c89d4	-0.0028768675
83	0xbd842327	-0.06452017
84	0x3cb5cf72	0.022193644
85	0x3d0f765c	0.035024986
86	0xbcd4b26c	-0.025963984
87	0xbcd3def7	-0.025863154
88	0x3d187ac9	0.037226472
89	0x3ccca039	0.024978744
90	0xbca62a11	-0.02028373
91	0xbd3023cb	-0.043002885
92	0x3c1f3730	0.009717748
93	0xbd268e2c	-0.04066293
94	0xbb871cf9	-0.004123327
95	0x3d6cb255	0.05778726
96	0xbc8e9479	-0.017404782
97	0xbbc9e27a	-0.0061610313
98	0xbce6c77e	-0.028171297
99	0xbcbe3237	-0.023217304
100	0xbcfa7a29	-0.030575829
101	0xbc132e15	-0.008983155
102	0xbc0cddf2	-0.008597838
103	0xbc834d75	-0.016028145
104	0x3b238560	0.0024951324
105	0xbd37fed6	-0.044920765
106	0x3d13a8cd	0.036049653
107	0xbcdf5eb8	-0.027266845
108	0xbcdf5223	-0.027260846
109	0xbd152267	-0.03640976
110	0xbd9d88e9	-0.07692129
111	0xbccca5ec	-0.024981461
112	0x3e049bc3	0.12950043
113	0xbcfa0886	-0.030521642
114	0x3c44c195	0.012009044
115	0x3d216373	0.039401483
116	0x3c43993f	0.011938392
117	0x3963e36e	0.00021733131
118	0x3d52f82b	0.051506203
119	0x3c9dc31a	0.01925807
120	0xbcb1ea16	-0.021718066
121	0x3c80561e	0.015666064
122	0x3c74186a	0.014898399
123	0x3b4ab8b2	0.003093284
124	0xbc06736b	-0.008206229
125	0xbc788cd4	-0.015170295
126	0xbc99d0bf	-0.018776296
127	0xbbcc38bb	-0.0062323487
128	0x3c390874	0.011293519
129	0xbc14dc39	-0.009085708
130	0x3b846c97	0.004041265
131	0x3da57c34	0.080803305
132	0xbca89544	-0.020578988
133	0x3bb73b6e	0.0055918014
134	0xbd2bb0a7	-0.041916516
135	0x3d399cfe	0.045315735
136	0xbcc6837d	-0.02423262
137	0x3b8e50b6	0.0043431176
138	0xbbf30563	-0.0074164136
139	0xbc15ebe9	-0.009150484
140	0xbb0cfa07	-0.0021511333
141	0x3d5b32d0	0.053515255
142	0xbbe3ad87	-0.0069481763
143	0x3c37cb61	0.011217923
144	0x3d14dce6	0.036343478
145	0x3b2b1102	0.0026102667
146	0xbd8314a9	-0.06400425
147	0xbd06b8a0	-0.032890916
148	0xbd79292e	-0.060830288
149	0xbcf67a76	-0.03008769
150	0x3cf3c453	0.0297567
151	0x3cbd49fb	0.023106566
152	0xbc7217fd	-0.014776227
153	0xbd65e436	-0.056125842
154	0x3d134117	0.035950746
155	0xbc3b1478	-0.011418454
156	0xbd41ea70	-0.047342718
157	0x3c81e6eb	0.01585718
158	0xbcd43358	-0.025903389
159	0xbae7f717	-0.001769754
160	0xbc6a57c7	-0.014303154
161	0xbaa8fdb8	-0.0012892997
162	0xbc8f7e43	-0.017516261
163	0xbca4f9f1	-0.020138713
164	0x3d7f1a0a	0.062280692
165	0x3c791043	0.015201631
166	0xbc624260	-0.01380977
167	0xbd33d657	-0.043905582
168	0xbd876444	-0.06610921
169	0x3c2576b7	0.010099105
170	0x3d5cc126	0.05389514
171	0xbb6e44ee	-0.0036357003
172	0x3ce658b2	0.028118465
173	0x3d1adfe3	0.03781117
174	0xbc56707f	-0.013088345
175	0x3cbeb58e	0.023279931
176	0xbbfb327f	-0.0076659317
177	0xbc00c059	-0.007858359
178	0x3b92fe90	0.0044859126
179	0xbba0a338	-0.0049022697
180	0xba5a85a2	-0.0008335953
181	0xbcc20cda	-0.023687769
182	0xbd16f14b	-0.03685121
183	0xbc934cc5	-0.017980943
184	0x3cb6484c	0.02225127
185	0x3c75ede5	0.015010332
186	0xbc4cb5a0	-0.012494475
187	0xbcbe6431	-0.023241134
188	0xbd1c9aa3	-0.03823341
189	0xbb08dfc3	-0.0020885326
190	0x3cf9cc09	0.0304928
191	0xbd3d9802	-0.046287544
192	0x3b8aace4	0.004232036
193	0x3c80658b	0.01567342
194	0xbd0a938c	-0.033832118
195	0xbaad14cc	-0.001320505
196	0x3b24b434	0.0025131823
197	0x3b1c2299	0.0023824333
198	0x3c73e3ce	0.014885856
199	0x3acd02de	0.0015641113
200	0xbc74161e	-0.014897851
201	0x3bb16f1d	0.005414857
202	0x3cb6b01e	0.022300776
203	0xbacfeabf	-0.0015862806
204	0xbc9bc855	-0.019016424
205	0x3cbd08f3	0.023075556
206	0x3cc615ca	0.024180312
207	0x3caec5ab	0.02133449
208	0xbd4fce9a	-0.05073414
209	0xbc9b384f	-0.018947748
210	0x3d4ad1e5	0.049516577
211	0xbd538945	-0.051644582
212	0x3ca02ab7	0.019551618
213	0xba2cc70f	-0.00065909413
214	0x3c6f098c	0.0145896785
215	0x3b03528d	0.0020038218
216	0x3c780593	0.015138048
217	0xba4a3ba9	-0.00077145785
218	0x3c8ee037	0.017440898
219	0xbdaed2e9	-0.08536322
220	0xbd21748b	-0.039417785
221	0x3d89e9ac	0.067340225
222	0xbc5e012a	-0.013550082
223	0x3c2ef32c	0.010678094
224	0x3d2c5f81	0.042083267
225	0xbadda97b	-0.0016911471
226	0x3d1b95e2	0.037984736
227	0x3d86adb7	0.06576102
228	0x3c559b15	0.013037463
229	0x3c517c16	0.012785932
230	0xbb0efd74	-0.002181855
231	0xba04cd49	-0.000506599
232	0xbcecc3b2	-0.028901909
233	0x3cddd1b3	0.027077531
234	0xbc2be583	-0.010491732
235	0xbcfb66df	-0.030688701
236	0xbc4d70d6	-0.012539109
237	0xbab37738	-0.0013692146
238	0xbd5ee0de	-0.05441367
239	0x3c846094	0.016159333
240	0x3bd6c2a1	0.0065539633
241	0xbc0b6c6a	-0.008509735
242	0xbb599714	-0.0033201622
243	0x3d67c1c9	0.056581292
244	0x3d1e9b8d	0.038722564
245	0xbcf1ace5	-0.029501388
246	0xbce9a206	-0.028519642
247	0xbd6190eb	-0.055069845
248	0xbca481dd	-0.020081455
249	0xbd07eceb	-0.033184927
250	0x3cea16b9	0.028575288
251	0xbc2211eb	-0.009891967
252	0xbbd596f7	-0.0065182406
253	0xbc1ae6e7	-0.0094544655
254	0x3c293e29	0.010329762
255	0xbc5ced40	-0.013484299

bias f4 [256]
0	0xbcd847bb	-0.026401391
1	0x3c04af16	0.008098384
2	0xbce300cc	-0.02771034
3	0x3d01de12	0.031705923
4	0x3d40c530	0.047063053
5	0x3ce32398	0.027726933
6	0xbc8d14ba	-0.017221797
7	0xbb18c24b	-0.0023309167
8	0xbbba5a04	-0.005687
9	0x3c6f1942	0.014593424
10	0xbc7e1b28	-0.015509404
11	0x3c8b49cd	0.017002964
12	0x3cec49a7	0.028843714
13	0xbcf7cad2	-0.03024808
14	0x3d7db94f	0.061944302
15	0x3ce0e891	0.027454646
16	0xbd413812	-0.047172613
17	0xbbb81dd2	-0.0056187892
18	0xbb4c0dc4	-0.0031136135
19	0x3c74d822	0.014944108
20	0x3c81bd68	0.015837386
21	0xbd3422e1	-0.043978576
22	0x3be271ac	0.0069105234
23	0xbb2e3a59	-0.002658507
24	0x3acb0e2c	0.0015491894
25	0x3d29ba8d	0.041437674
26	0xbb240dfe	-0.0025032754
27	0xbc9dc4ed	-0.01925894
28	0x3c352614	0.011056442
29	0x3d1b937c	0.03798245
30	0xba87cd83	-0.001036093
31	0xb98aa28f	-0.00026442527
32	0xbc8a4ce4	-0.016882367
33	0xbd107517	-0.035267916
34	0xbb87fd36	-0.004150058
35	0xbc82cf46	-0.015967976
36	0x3bd1d1f8	0.006403204
37	0xbbc0b2ce	-0.00588069
38	0x3d214b90	0.039378703
39	0x3ccc5709	0.024943845
40	0x3cd3974e	0.025828984
41	0x3cc806f0	0.02441737
42	0xbaae041a	-0.0013276369
43	0x3c23c8b3	0.009996581
44	0xbc4109c4	-0.011782113
45	0xbbca560d	-0.006174809
46	0x3c1069a3	0.008814248
47	0x3b0101b7	0.001968486
48	0x3d192b3f	0.03739476
49	0xbc999481	-0.01874757
50	0x3ba70d7c	0.005098043
51	0xbc6d767a	-0.014493579
52	0x3b3040df	0.0026894135
53	0x3b9669fe	0.004590272
54	0xbc7316e8	-0.014837004
55	0x3ca0c2a3	0.01962406
56	0xbbd8b6c4	-0.0066135842
57	0xbc98659e	-0.018603142
58	0xbd07c7b0	-0.03314942
59	0xbc610788	-0.013734706
60	0x3c597400	0.013272285
61	0xbcab99dd	-0.020947391
62	0x3c9c001e	0.019043025
63	0xbcc931e7	-0.024559928
64	0xbbc961b5	-0.006145681
65	0x3ced2cf2	0.028952096
66	0x3c0e95a4	0.008702669
67	0xbc636f63	-0.013881537
68	0xbcf6332f	-0.030053703
69	0x3d5d6818	0.05405435
70	0xbcc13ca8	-0.023588493
71	0xbcb6e061	-0.02232379
72	0xbcf1488c	-0.029453538
73	0xbc7f7b45	-0.015593355
74	0xbc96a7e2	-0.0183906
75	0x3d0764cd	0.033055115
76	0xbd01ea2c	-0.031717464
77	0x3d6dc845	0.05805232
78	0xbd3119f9	-0.04323766
79	0xbc9b2c7a	-0.018942107
80	0xbc6af126	-0.014339721
81	0xbb1a3fd4	-0.002353658
82	0x3cf2e94f	0.029652266
83	0x3c97105f	0.018440424
84	0x3cd6497d	0.026158089
85	0xbcb3e336	-0.021958929
86	0xbc03ebd0	-0.008051828
87	0xbd05832a	-0.03259579
88	0xbc65653f	-0.01400119
89	0x3ccef248	0.025262013
90	0xbbf088a3	-0.007340507
91	0x3ca31947	0.019909514
92	0xbae9248d	-0.0017787382
93	0x3c9e51a2	0.019326035
94	0x3abc8e24	0.0014385623
95	0xbb9a8485	-0.0047155046
96	0x3d49119e	0.049089067
97	0x3cc47068	0.02397938
98	0xbc27be6d	-0.010238272
99	0xbcaa0659	-0.02075498
100	0xbb280d79	-0.0025642796
101	0xbd13aa96	-0.036051355
102	0xbc398d10	-0.011325136
103	0x3b8f16fc	0.0043667536
104	0x3d54c3dd	0.051944602
105	0x3afdb8e8	0.0019357475
106	0xbb040d22	-0.002014943
107	0x3bd32719	0.00644387
108	0xbc7e7da9	-0.015532889
109	0x3c0534dd	0.008130279
110	0x3cb70004	0.022338875
111	0x3d4e6e6e	0.050398283
112	0x3cb26675	0.021777371
113	0xbd4544e6	-0.04816141
114	0xbcc54ff9	-0.024085985
115	0x38b5334a	8.640306e-05
116	0xbce766b9	-0.028247224
117	0xbcac2e17	-0.021018071
118	0xba76a3df	-0.0009408574
119	0xbd438ec6	-0.04774358
120	0x3aa951cf	0.0012918058
121	0xba6ca7d8	-0.0009027696
122	0x3d338c30	0.043834865
123	0xbc88825c	-0.016663723
124	0x3d0e7287	0.03477719
125	0x3b11be08	0.0022238512
126	0x3ca195b9	0.019724714
127	0x3ccc4737	0.024936302
128	0x3d2f472b	0.04279248
129	0xbc6d225c	-0.014473524
130	0xbd01202c	-0.031524822
131	0x3d689fa1	0.05679286
132	0x3d1588df	0.036507484
133	0x3cff5517	0.031168504
134	0x3c20fd82	0.009826066
135	0x3a9bb949	0.0011880781
136	0xbd57e752	-0.05271084
137	0xbaccd092	-0.0015626124
138	0xbc3adbdc	-0.011404958
139	0x375aeb60	1.3048615e-05
140	0xbc0bac42	-0.008524956
141	0xbaaaed73	-0.0013040736
142	0x3d387960	0.045037627
143	0x3d06e17e	0.03292989
144	0xbb8c0079	-0.0042725173
145	0x3c9efe99	0.019408511
146	0xbcbed9c0	-0.02329719
147	0xbd015f17	-0.031584825
148	0xbc439733	-0.011937904
149	0x3b6b4856	0.003590127
150	0x3c8c45f5	0.017123202
151	0x3c607909	0.013700732
152	0x3cbeb33d	0.023278827
153	0x3cf79d86	0.03022648
154	0x3cffe729	0.031238155
155	0x3bbd9d43	0.0057865693
156	0x3c94ae5b	0.018149545
157	0xbd107232	-0.035265155
158	0xbc782f4b	-0.015147994
159	0xbb16fd0d	-0.0023039014
160	0x3c8061f6	0.015671711
161	0x3b1b4309	0.002369108
162	0x3bd7002e	0.0065613007
163	0xbc05ccc4	-0.008166496
164	0xbd0170af	-0.031601604
165	0xbc0ea722	-0.00870684
166	0x3c5f9dbf	0.013648449
167	0xbc93bb24	-0.018033572
168	0x3c0dea97	0.008661888
169	0xbcb022c8	-0.02150096
170	0x3c997140	0.01873076
171	0xbc188808	-0.009309776
172	0xbcbefcbc	-0.023313873
173	0xbc4b2856	-0.012399754
174	0xbd15ad59	-0.03654227
175	0x3cd7749f	0.026300726
176	0xbc3788ff	-0.011202096
177	0xbcabd206	-0.02097417
178	0xbc8f7199	-0.017510222
179	0xbc2bed15	-0.0104935365
180	0xbd4e7eea	-0.050414003
181	0xbc805fe9	-0.015670734
182	0xbba38993	-0.0049907654
183	0xbcb65d60	-0.022261322
184	0xbd2e7077	-0.042587724
185	0xbc6f69fd	-0.014612672
186	0x3d3e1fdf	0.046417113
187	0xbc74200a	-0.014900217
188	0x3b1fee4a	0.0024403506
189	0x3c2c32d4	0.010510165
190	0xbcefe8fd	-0.029285902
191	0xbb97357d	-0.0046145306
192	0xbcb4b6c9	-0.022059815
193	0x3d0a5721	0.0337745
194	0x3b384949	0.0028119853
195	0x3cd510f5	0.026009062
196	0xbc66c896	-0.014085909
197	0x3ccb1d59	0.024794267
198	0x3b84f64c	0.004057681
199	0xbc1d2f98	-0.009593867
200	0xbcd49b43	-0.02595294
201	0xbd2eeead	-0.042708088
202	0xba52aebc	-0.00080369017
203	0x3cb59bac	0.022168957
204	0x3b0e802f	0.0021743884
205	0xbd4081f3	-0.04699893
206	0xbb62b6a6	-0.003459373
207	0xbcad5be4	-0.02116198
208	0x3d029d19	0.0318881
209	0x39e67ff8	0.00043964363
210	0xbc3b9ce6	-0.011450982
211	0x3b6c21c1	0.003603086
212	0x3cc894e5	0.024485061
213	0xbd0d0c21	-0.034435395
214	0xbc7ea059	-0.01554116
215	0x3d12da17	0.035852518
216	0xbd23bb96	-0.039973818
217	0x3ba8dfd4	0.0051536355
218	0x3c3ec6dd	0.011644092
219	0xbb0e43ae	-0.002170782
220	0xbcc0f928	-0.023556307
221	0x3d3fb2cb	0.04680137
222	0xbaa4c80a	-0.0012571823
223	0xbd3b5158	-0.045731872
224	0xbc7962aa	-0.015221277
225	0xbc828cfd	-0.01593637
226	0x3ad3fd71	0.0016173554
227	0x3ba5660a	0.0050475644
228	0xbb46cbca	-0.003033387
229	0x3d4e7242	0.050401933
230	0x3d5023fe	0.050815575
231	0x3c0f82a0	0.008759171
232	0xbd099455	-0.033588726
233	0x3c1ea7a3	0.009683522
234	0x3d82acf5	0.06380645
235	0x3bd5114e	0.006502307
236	0x3d1003bf	0.035159823
237	0x3b1b7a55	0.0023724039
238	0xbce105c0	-0.027468562
239	0x3c886bb4	0.01665292
240	0xbd5ecf8b	-0.054397147
241	0x3c540717	0.0129411435
242	0x3ba1376d	0.0049199373
243	0x393673f6	0.00017400071
244	0xbbb9f75f	-0.005675241
245	0x3c837b9c	0.016050152
246	0xbcca7126	-0.024712157
247	0xbc5f237c	-0.0136193
248	0x3d3882a9	0.045046482
249	0x3a9d32aa	0.0011993248
250	0x3cf3f395	0.029779235
251	0x3c7bc0d9	0.015365803
252	0x3c8f3766	0.01748247
253	0x3b608f7d	0.0034265213
254	0x3a95b184	0.0011420702
255	0x3c7204a0	0.0147716105
