output/2023-09-14-22-52-13/trained_model/tetris_epoch571_score300.pt (torch, 842187 bytes, 8 tensors)

weight f4 [32, 1, 4, 4]
000000 48 5e 12 3d 94 49 fa 3c 11 d2 a6 bc f5 aa fc bb
       0.035734445 0.030552663 -0.02036384 -0.0077108094
000010 57 32 b1 3c b4 de 99 3d 97 2d 98 bb 2c 71 5c 3d
       0.02163045 0.075131804 -0.0046441066 0.053818867
000020 74 a0 62 be 49 3a ff 3d c4 82 43 3e 99 b6 9e bb
       -0.2213152 0.12462289 0.19092852 -0.0048435447
000030 25 18 ac 3d 68 26 27 3e e9 24 30 3e 83 59 f9 bc
       0.08403043 0.16323245 0.1720158 -0.03043819
000040 00 35 e5 3e eb 2f cb 3c fd 13 c9 be 85 50 7a be
       0.44766998 0.024803123 -0.39273062 -0.24444778
000050 f3 92 14 bf ef 9d 0a 3d 01 16 b0 bd f6 5d 10 be
       -0.58036727 0.033842023 -0.08597947 -0.14098343
000060 c1 b4 19 3d 00 0e 3e be 2a e9 65 3d fc c0 9f be
       0.037525896 -0.18560028 0.056130566 -0.31201923
000070 65 41 f4 bd fb 0e 2d 3c ca 7c ba 3d 6f 0a 22 bf
       -0.119265355 0.010562654 0.09105833 -0.6329717
000080 13 fb d1 3c 57 24 7c 3d 70 fa 40 bf d3 46 a8 bd
       0.025632417 0.061558094 -0.7538214 -0.08216634
000090 7d ba 7c bc c6 f9 8b be 7f 2c 20 3e 82 d4 8d be
       -0.015425322 -0.27339 0.15641974 -0.27701193
0000a0 99 53 d8 3d c2 78 97 3e df c9 2a bb 20 4b d6 3c
       0.1056282 0.29584318 -0.0026060266 0.02615887
0000b0 88 18 28 be 85 ef 05 be df d8 44 be 15 f2 9c bd
       -0.16415608 -0.1307965 -0.19223355 -0.07663361
0000c0 3d e4 4b be 3c 8f 89 be 7e e8 cc bd b0 08 24 bc
       -0.19911285 -0.26867092 -0.10005282 -0.010011837
0000d0 27 9d 2e 3e 80 e4 69 be e7 18 69 3e 9c cb df 3d
       0.17052136 -0.22841072 0.22763406 0.10927507
0000e0 a0 93 8f be e2 c2 9a 3d 77 7e 08 bf 28 82 cb 3d
       -0.28042316 0.07556702 -0.5331797 0.09936935
0000f0 7f 0c e4 bd 9f 11 05 bf 8b 3d da be 7d b9 c6 3d
       -0.11135196 -0.5198001 -0.4262508 0.09703348
000100 a1 31 33 bd f6 f8 43 bf 7f ae 46 bd bf fb 63 bd
       -0.0437485 -0.7655176 -0.048506256 -0.055660006
000110 2e db 8d 3d f3 2a 1a 3d 98 86 b5 3d 01 53 8a 3d
       0.06926571 0.037638616 0.08863562 0.06754113
000120 73 ce 6c 3e ef f9 60 bf 03 bf 96 3e 8b af 8b bc
       0.23125629 -0.8788137 0.29442605 -0.017051479
000130 93 4b d6 bd 0c 9c df bd c6 61 67 bc 3e c1 90 bb
       -0.104636334 -0.109184355 -0.014122432 -0.0044175675
000140 16 79 da 3c 5a 88 23 bd 2c bb d8 bd 2b 9e 9d bd
       0.026669066 -0.039924957 -0.10582575 -0.07696184
000150 4a df 17 3d a2 03 3b bb 47 7f 94 3e b1 73 3f 3f
       0.03707818 -0.00285361 0.29003355 0.74785906
000160 aa 17 ff bc 68 42 0b bc 32 29 9a be f8 84 44 bf
       -0.031139214 -0.008499719 -0.30109555 -0.76765394
000170 66 2c 7b bc 51 ad 59 bc f0 19 9b bc 7f 6d 3e bd
       -0.01533041 -0.013285951 -0.018933266 -0.046491142
000180 57 21 05 3d e2 33 71 3d ee 8e 24 3e e2 53 86 3e
       0.0325025 0.05888737 0.16070148 0.26235873
000190 73 5d 12 3e 7a 77 da bc ff 61 4a 3e 7c d8 ea be
       0.1429346 -0.026668299 0.19763945 -0.4586829
0001a0 68 59 a8 3d 6d 33 51 3d 9e 66 96 3c cc 33 24 bf
       0.08220178 0.051074434 0.018359479 -0.64141536
0001b0 1c 73 af bc 59 c3 30 3c 83 a5 9d 3d b9 37 99 be
       -0.021417193 0.010788762 0.076975845 -0.29925326
0001c0 a2 b2 03 3c 28 ba 6c 3c 76 dc 22 3e ba 60 48 be
       0.008038195 0.01444868 0.15904412 -0.19568148
0001d0 a3 6f 85 3d 39 63 6b 3d 1c 22 31 bf 80 6a 1f bf
       0.06515434 0.057467673 -0.6919267 -0.6227188
0001e0 ed 3c 07 bd 9b 27 a7 3d 7a eb 03 bf d8 e7 ed bc
       -0.033017088 0.08161851 -0.51531184 -0.029041216
0001f0 de 7f 50 bd 0b 6b 4b 3e d4 27 b2 be db 6b b5 be
       -0.050903194 0.19865052 -0.3479601 -0.3543385
000200 35 86 03 be cb cf ed 3d f2 40 d6 be af c6 26 be
       -0.12844165 0.11611899 -0.41846424 -0.1628673
000210 ce b8 ef 3d 09 e7 e5 3d f6 6e 37 3e 2a 29 9f be
       0.117051706 0.11225707 0.17913422 -0.31086093
000220 42 37 ae bc ff 3e b2 3d 41 73 85 be bb 87 1a bf
       -0.021266583 0.08703422 -0.26064494 -0.6036336
000230 f6 bb 07 3e aa a1 fa bc 23 27 80 bd 84 99 81 3d
       0.13255295 -0.030594666 -0.06257465 0.06328109
000240 b4 41 23 be 05 83 41 bd c5 67 0f 3d 34 03 cc 3c
       -0.15943033 -0.04724409 0.03501107 0.024903871
000250 1c 89 b4 bd ab 14 28 be 3f 9d cc be 8c fa 2e bd
       -0.08815214 -0.16414134 -0.3996372 -0.04271941
000260 bf 2d 96 bd b3 fa f4 3e db 3a 20 3e 48 e7 fd bc
       -0.07332944 0.47847518 0.15647452 -0.030994073
000270 50 88 79 3d 2e 1f 5c bf f4 50 b1 3d a1 61 fe 3c
       0.060921013 -0.85985076 0.08658019 0.031052412
000280 ad 58 26 bc 26 81 02 be a4 8b 1d be 15 f1 1b be
       -0.010152978 -0.12744579 -0.153853 -0.15228684
000290 03 49 97 bd 0b a9 4e bd 2c 6d 48 be 2c 3d 9f 3c
       -0.07386973 -0.05045418 -0.19572896 0.019438349
0002a0 dc ea 80 bc 1f c5 78 3d 7b e9 0f 3f 1a 5e 25 bd
       -0.01573699 0.060734864 0.5621564 -0.040372945
0002b0 36 c4 8a bc 2b b8 fc bd 9e 56 30 bf be 2f 16 bd
       -0.016939264 -0.12339815 -0.6888217 -0.036666624
0002c0 81 94 ba bd 74 c4 b5 bd a4 be b3 be e0 ce 81 bd
       -0.09110356 -0.08875361 -0.35106385 -0.063382864
0002d0 ab 5d 66 bc c0 49 12 be a0 e0 20 3d 45 a1 4d 3e
       -0.014060418 -0.14285946 0.03927672 0.2008105
0002e0 d7 af 39 bd cf 6d 16 bc 08 87 09 3e 15 fe 09 bf
       -0.04533371 -0.009181454 0.13430417 -0.53903323
0002f0 ff c5 a4 3d c3 4a de 3c 9b e5 92 3d 34 60 d3 be
       0.08045577 0.027135259 0.071727 -0.41284335
000300 ce ff de 3d 4c 96 04 be 9c 5d 4d 3d a3 f1 76 bd
       0.108886346 -0.12947959 0.0501381 -0.060289036
000310 5c 9a 08 3d 0a 22 00 3f e5 e1 c3 3c 68 c2 6a bd
       0.033350334 0.5005194 0.023911426 -0.057314306
000320 22 8f 85 bd 2f 10 01 bf 92 bf 26 3e 04 95 1e bd
       -0.06521441 -0.5041532 0.16284016 -0.03871633
000330 c1 d5 7d bd 23 5a 14 bf 53 bb 52 be 07 eb d7 3c
       -0.06197143 -0.5795004 -0.20579271 0.026357187
000340 25 49 5c 3d 40 7d 59 bd ff 68 c4 ba c6 49 4e 3d
       0.053780694 -0.053097963 -0.0014984905 0.050363325
000350 d0 6a d6 3b 32 3a 27 3e 53 80 12 3e c5 c8 0b 3c
       0.0065434948 0.16330793 0.14306764 0.008531754
000360 40 52 d6 3c 44 df 5a 3f 5b ca 23 bd 13 d6 50 3d
       0.026162267 0.85496926 -0.039987903 0.050985407
000370 f2 ad 5f bb d8 87 a8 bf 77 58 ac 3d 46 bb e2 bc
       -0.003413078 -1.3166456 0.08415311 -0.02767719
000380 fc 07 99 3c 68 65 e1 3e 4f 84 57 3d ca d0 ba bc
       0.018680565 0.4402268 0.052616414 -0.022804637
000390 62 a6 d2 bc fb c9 34 3f 8d c7 75 b9 b4 b0 45 3c
       -0.025714103 0.706207 -0.00023439359 0.012066055
0003a0 6c 28 9e 38 f2 19 a2 bf b9 2c 9f ba ac 14 f0 bb
       7.541556e-05 -1.2664168 -0.0012144066 -0.007326683
0003b0 87 56 41 bd 68 db ee bc f6 6b 13 bd 36 5b 6f 3c
       -0.04720166 -0.029157355 -0.03599163 0.014609149
0003c0 02 7e 5f be 29 a0 16 bd 54 6e 06 3e 54 d3 e5 bd
       -0.21825412 -0.036773834 0.13128024 -0.11221948
0003d0 e4 34 28 bc 91 72 42 be aa 91 97 bd f7 ef 22 bc
       -0.010266516 -0.18989016 -0.0740083 -0.009944907
0003e0 ac 81 28 3e aa 5d 29 3e db a9 cf 3d 44 2c 17 3e
       0.16455716 0.16539636 0.10139819 0.1476298
0003f0 6d 5f c8 bc c7 fb c4 3d 06 b2 04 bd 28 01 02 3e
       -0.024459565 0.09618335 -0.03239634 0.12695754

weight f4 [32, 32, 5, 5]
000000 3a dc 84 3d 47 19 e9 bd 46 25 b9 3d 20 5b d4 3d
       0.064873174 -0.113817744 0.090403125 0.10368943
000010 e0 3d ba 3d ac a1 ff 3d 3c 81 87 be 74 f2 9b bc
       0.09093833 0.12482008 -0.26465786 -0.01903651
000020 4a 61 f4 bd 6f c6 ae be f1 ef 91 bc a0 a0 b3 bd
       -0.11932619 -0.34135768 -0.017814608 -0.08770871
000030 dc 89 83 3c eb 8f 64 be 0b e1 e1 bc 4f 21 02 be
       0.016056947 -0.22320525 -0.02757313 -0.12708019
000040 6e 3c 02 bf ea 26 87 be 7d 80 6e bd fb c4 ae be
       -0.5087346 -0.26396877 -0.058228005 -0.3413466
000050 a7 9b 3f 3d f4 a8 67 3d 78 cc c7 bd a0 65 5d 3c
       0.0467793 0.05655761 -0.09755796 0.013512999
000060 4a cd b2 3d d2 ad cd 3e a0 a8 c9 be 40 b1 51 3e
       0.08730562 0.40171677 -0.39386463 0.20477772
000070 ea 79 ff 3e 93 f4 b0 3e e6 dd 21 3c 24 17 b6 3e
       0.498977 0.34561595 0.009879565 0.3556453
000080 6d 34 89 be 70 44 87 bd a8 ac 22 3d 1b 37 98 3d
       -0.2679781 -0.0660485 0.03971544 0.074323855
000090 ad 8e 60 be e9 1c 84 be 2e ad e4 3c 8c 95 7c be
       -0.21929426 -0.25803307 0.02791461 -0.24666423
0000a0 56 2b 4b 3d 01 1d b6 3d c8 f6 51 3c 60 c9 59 be
       0.049601875 0.08892251 0.012815185 -0.21268225
0000b0 a6 bb 55 be 31 ce 15 be 93 ae c2 3e 59 4f bb 3d
       -0.20872363 -0.14629437 0.38023815 0.09145994
0000c0 cc d9 cb 3b 5d 56 b3 3e 34 ab 4e bd f4 19 3f be
       0.006221032 0.35026827 -0.05045624 -0.18662244
0000d0 fd 1b be bd 53 f9 89 3e 76 be 88 3d d1 d6 e0 3e
       -0.09282682 0.26948032 0.066769525 0.43913892
0000e0 a8 81 b4 3e 26 03 05 bf be 53 df be 34 94 4b be
       0.3525517 -0.5195793 -0.43618578 -0.19880754
0000f0 1b 5f 1e be 5f ad bb 3e 59 44 2c be 0c 08 5b be
       -0.15465967 0.3665571 -0.16822948 -0.21389788
000100 8e 7c 52 3d e6 67 96 3e 3c ef c4 be b2 2d e7 3d
       0.051388316 0.29376143 -0.3846377 0.112880126
000110 97 19 06 3e e6 12 4e be da 46 74 3d 07 a9 5a be
       0.13095699 -0.20124397 0.05963788 -0.21353541
000120 a5 0b d0 3b 5c 09 ae be 33 fc a1 3e 46 8a f4 3d
       0.0063490444 -0.33991516 0.31637725 0.11940436
000130 9b 1b 34 be 20 93 b8 3e 5f b5 d7 be 98 74 c7 3d
       -0.17588656 0.36049747 -0.42130563 0.09739035
000140 62 2b fa be 68 0a a0 3e aa 97 4a 3e ff ed 0f bf
       -0.48861223 0.3125794 0.19784418 -0.5622253
000150 92 83 b3 bd 1d 9e 92 be b9 a9 86 be d9 74 b2 bd
       -0.087653294 -0.28636256 -0.26301363 -0.08713693
000160 21 04 cc 3d dc 9a 0d bf a6 17 8d bf f0 3c 6f bd
       0.09961725 -0.5531442 -1.1022842 -0.058407724
000170 7d 36 01 bf 7a 2f de bd 4f 23 89 3e 03 77 3e bd
       -0.5047377 -0.10848899 0.2678475 -0.046500217
000180 62 3b 04 3e b8 ea 60 be f9 7c 7d 3e a0 26 1c be
       0.12913278 -0.21964538 0.24754705 -0.1524911
000190 a5 06 77 3d 4f a7 4e 3d e9 3a 08 3e d2 b5 0e 3f
       0.06030907 0.050452527 0.13303722 0.55746186
0001a0 19 f9 3f bf 4c da 70 be 8d d4 d3 3e 19 05 5c bd
       -0.7498947 -0.23520774 0.413731 -0.0537158
0001b0 51 e5 b2 be 5e 6d bb bd a0 a2 95 be 18 01 98 bd
       -0.3494058 -0.091517195 -0.29225636 -0.074220836
0001c0 b3 12 76 3e 17 53 9c bd ea 00 1f 3f 0e af 1b be
       0.2403057 -0.07633036 0.6211077 -0.15203497
0001d0 b6 cc 01 bb 74 85 ca be fe dd 27 be e4 01 0c bf
       -0.0019805855 -0.39554942 -0.16393277 -0.54690385
0001e0 c1 dd 2d 3e 45 e5 cb 3d 96 56 35 3e 58 c0 07 be
       0.16979124 0.09955839 0.17708811 -0.13256967
0001f0 fe 82 fc bc 86 e1 06 bd 69 47 10 3d 14 6b 7b 3c
       -0.03082418 -0.03292992 0.035224352 0.015345354
000200 9d e0 8a bd e1 3d 0c be 26 ec 03 3e 95 7b 95 be
       -0.06781123 -0.1369548 0.12883052 -0.29195848
000210 8e a1 0b 3d 54 cc 80 3c 61 79 08 be 13 25 14 be
       0.034089617 0.015722431 -0.13327552 -0.14467268
000220 14 7c a4 bd b8 98 04 3d 6c 5d e7 ba 4c 5e 59 3d
       -0.080314785 0.032372206 -0.0017651743 0.053068444
000230 0c 86 94 be 25 12 cc bf 5f 79 2e bf e8 3f 8d be
       -0.2900852 -1.5943037 -0.6815395 -0.2758782
000240 25 57 13 bf c5 6e ab 3b dd fc ab be 1a ff 8a bc
       -0.57554847 0.0052317106 -0.33591357 -0.016967345
000250 36 c0 91 be 34 38 d7 be 88 0f 61 3e 0d aa 67 bd
       -0.28466958 -0.42035067 0.21978581 -0.056558657
000260 c3 5f 0c bd 2f fb a4 be c5 1a 23 bf 29 7f 01 3e
       -0.034271013 -0.32222888 -0.6371272 0.12646164
000270 5c 82 20 3e 70 b0 9d be 59 da 5e bd 1e d2 5d bf
       0.15674728 -0.30798674 -0.05440745 -0.8664874
000280 7b f4 b7 3c 90 f8 8b 3e 0b 29 ed bd 3a 51 01 3e
       0.022455445 0.27338076 -0.11580094 0.12628642
000290 5f f0 55 3e 00 28 7c be 64 98 40 be 3c 26 9c be
       0.20892476 -0.24624634 -0.18808132 -0.3049792
0002a0 a5 43 23 3c bd 9d d4 bd f9 27 2e 3c 60 d9 98 3d
       0.009964858 -0.10381649 0.010629647 0.07463336
0002b0 b8 12 7c 3c 31 5a 95 3e 2f be 99 3d c7 3a a2 bd
       0.015385322 0.29170373 0.07506978 -0.07921367
0002c0 ef 87 10 bf 1f b5 e9 3e df 01 85 bd 11 ac 04 be
       -0.5645742 0.45645997 -0.064944975 -0.12956263
0002d0 d8 af a4 bd b0 f1 aa 3d c4 fd 84 3d f4 0f c2 3e
       -0.08041352 0.083468795 0.064937145 0.37902796
0002e0 5a f6 5f bf a8 b8 ad bc 4a 33 8e be d5 dd 34 be
       -0.8748528 -0.021206215 -0.27773505 -0.17662747
0002f0 ca ca 1f 3e b3 c6 6f be a1 b7 f9 3d dc a9 10 be
       0.15604702 -0.23415641 0.121932276 -0.14127296
000300 49 8a 8c be 7c af 81 3e 3d fd f3 3d 55 0b 70 be
       -0.27449253 0.25329196 0.11913536 -0.23441823
000310 08 fb 34 be 25 77 0b be 8b ea 82 3e fc b9 01 ba
       -0.17673886 -0.13619669 0.25569567 -0.00049486733
000320 f2 43 96 3e a4 6b 0c be 4e 77 be 3d 2d e1 97 3e
       0.29348713 -0.13712937 0.09300099 0.29663983
000330 a9 f9 a5 3d 99 48 58 bf f6 c6 ea 3d 90 c4 79 be
       0.081042595 -0.84485775 0.1146373 -0.24391389
000340 e5 8b 5a 3e 2e 20 d2 bd 09 6c 35 bf 9a 1e 1a 3e
       0.21342428 -0.10260044 -0.70867974 0.15050736
000350 10 ee 10 3e 65 b2 1b 3e a9 21 09 bf 9a c5 04 bf
       0.14153314 0.15204771 -0.53566986 -0.51864016
000360 51 6b a6 be f3 ae 56 be a5 40 d6 3d 15 f3 42 3d
       -0.3250375 -0.20965175 0.10461549 0.047595102
000370 31 30 80 be 11 9b 3a 3e cc 59 0c bd 0c 58 8d be
       -0.25036767 0.18223216 -0.034265324 -0.27606237
000380 5a bd 3c 3e 87 18 19 3e d7 c4 7c 3e 23 c6 ba be
       0.18431607 0.14950763 0.24684463 -0.3647929
000390 ed 0e 1a bd e5 54 32 bc c2 0e f6 be 60 26 91 be
       -0.03761189 -0.010884498 -0.48058134 -0.2834959
0003a0 2e 84 44 3c 6c 65 bc be f6 b6 c2 be f8 5f 17 bf
       0.011994405 -0.3679613 -0.38030213 -0.5913081
0003b0 4c 32 72 3e 19 49 2b bc 9c 1d b4 3d 44 d3 60 bd
       0.23651999 -0.01045444 0.0879471 -0.05488898
0003c0 b0 02 62 be ea f1 6b 3e 43 16 a2 be 39 60 2c 3e
       -0.22071338 0.23041502 -0.3165761 0.16833581
0003d0 9d 30 05 bf 32 85 18 be d9 df 82 3e e2 8c da 3d
       -0.52027303 -0.1489456 0.25561407 0.106714025
0003e0 93 e2 4e 3d a7 b7 63 3e 1a 59 1d 3f 60 e9 0d bf
       0.050509047 0.22238027 0.61464083 -0.55434227
0003f0 4c 1a ad bd 18 10 3f 3e bf be 32 3e b5 60 e3 be
       -0.08452281 0.18658483 0.17455576 -0.4440972

weight f4 [64, 32, 5, 5]
000000 7e c0 91 3b 79 53 97 3c a2 38 80 bc 34 42 53 3e
       0.0044479957 0.01847242 -0.015652005 0.20630723
000010 9c e1 8e be 4f 60 91 3e 8f 9e cb 3d 51 67 2f 3e
       -0.279065 0.2839379 0.09942352 0.17129256
000020 11 f6 a4 bc 20 2b 08 3e b0 fe 16 bc d4 12 27 be
       -0.020136865 0.13297701 -0.009215996 -0.16315776
000030 6b d6 24 be a3 f8 55 3d 6a b1 21 3f a0 23 c8 bd
       -0.16097419 0.05223907 0.6316134 -0.0977242
000040 90 11 3d 3d 16 96 e5 3c 6c 6d 4e be 54 72 8f 3e
       0.046159327 0.028025668 -0.20158929 0.28016913
000050 ff c0 d9 bd 00 76 b9 be c3 46 ca bd af 06 a6 3e
       -0.10632514 -0.3622284 -0.09876778 0.32426974
000060 af 45 8c 3d dd bc 90 3e 32 83 e3 be 55 42 23 3e
       0.068492286 0.2826909 -0.44436032 0.15943272
000070 72 d8 f3 bc f0 ad af 3c 62 26 a8 3c 81 61 83 3e
       -0.029766295 0.021445245 0.020526115 0.25660327
000080 41 90 80 3e 15 da 08 bf e2 4f a3 bb 5f 8d ca bd
       0.25110057 -0.53457767 -0.004983888 -0.09890246
000090 14 4c 3b bd 19 b7 27 3f 0a f7 38 3c 78 b8 90 be
       -0.04572685 0.6551376 0.011289367 -0.28265738
0000a0 97 37 95 3e 26 6f 8a 3e 81 43 f5 be bc 94 da 3e
       0.29143974 0.27037925 -0.47903064 0.426916
0000b0 18 dc 13 3c c7 9b b4 bc 68 f9 25 3f ca 68 ac 3e
       0.009024642 -0.022046937 0.6483369 0.33673698
0000c0 43 93 87 3d 14 65 90 bd c7 8e 84 be 14 10 1d bd
       0.06619885 -0.07050529 -0.2589018 -0.03834541
0000d0 c7 db d8 3e d3 0d 4c 3e ed 7e 5f bd 42 82 66 3e
       0.42355177 0.19927149 -0.054564405 0.22510627
0000e0 31 41 3e be 46 fc 18 bf 09 17 57 bf 99 ce 0d bf
       -0.18579556 -0.5975994 -0.84019524 -0.5539337
0000f0 74 fb 78 3e 7c 1c 65 3d b0 18 9d be 0c c5 91 3e
       0.24314672 0.055935368 -0.30682898 0.28470647
000100 19 51 99 be c2 6a 4e 3e 39 d7 39 3e 7f 38 23 3e
       -0.29944685 0.20157912 0.18148507 0.1593952
000110 f7 70 8f bd ba 3b 14 be 06 24 29 3f e6 f9 93 3d
       -0.07003968 -0.14475909 0.6607059 0.07225399
000120 26 ae ca 3c d4 2d ca 3c 41 91 a0 bd b7 5e bd be
       0.024741244 0.024680056 -0.07840205 -0.36986324
000130 e6 6d bf be 1d 11 25 be d1 87 89 3e bd 13 86 be
       -0.37388533 -0.1611981 0.26861432 -0.26186934
000140 e0 63 db 3e e3 d5 b8 3d 6a b8 62 3a 28 ab 00 3f
       0.42849636 0.09025171 0.00086486957 0.50261164
000150 c6 bf 84 3e 74 23 f4 bc a5 82 0b be e6 79 de be
       0.25927562 -0.029802062 -0.13624056 -0.43452376
000160 d5 9d e9 be ae ca 72 bf 55 8d d1 be 96 5d f4 3c
       -0.4562823 -0.94840515 -0.4092814 0.029829782
000170 fb ce 8a bf 3c 1d 0b 3e 06 57 44 3e 0f c5 6b 3e
       -1.0844415 0.13585371 0.19173822 0.2302439
000180 c2 93 53 bd a0 31 28 bc c3 f7 21 3f 5c e8 c7 3d
       -0.051654585 -0.010265738 0.6326868 0.09761116
000190 ad 0f aa 3b 71 c9 67 3e 46 51 9a 3e 7a fe f9 bc
       0.005189857 0.22635438 0.30140132 -0.030516852
0001a0 57 40 06 3e 3a 3a 23 be c0 ab 87 bd 60 44 2e 3d
       0.13110481 -0.1594018 -0.066245556 0.042545676
0001b0 14 1f ff 3b 73 bb 37 3f ed 35 d6 3e be c3 d7 bd
       0.007785687 0.717704 0.41838017 -0.10535382
0001c0 b1 58 29 be 62 0c d1 3d ae ea 2b be 7a 60 a2 bd
       -0.1653774 0.1020744 -0.16788742 -0.07928558
0001d0 08 b0 f3 bd 10 69 a3 bd 2a 08 1d bf 75 9c 2b bf
       -0.1189881 -0.079790235 -0.6134058 -0.6703561
0001e0 38 9b b4 be c1 3b 70 bd 52 b3 b7 3d 1e 13 cd 3e
       -0.35274673 -0.058650736 0.089697495 0.40053648
0001f0 88 31 92 be 77 ea b1 3b a3 b1 01 bf fb 07 bf be
       -0.28553414 0.0054295617 -0.5066168 -0.37310776
000200 55 2e b3 3e 84 29 40 bf 04 c4 d1 3e 62 7b ed be
       0.34996286 -0.7506335 0.4096986 -0.46383196
000210 35 72 5e 3d d5 01 ec bc 0f 10 d3 bd 91 69 13 3d
       0.054308135 -0.028809467 -0.10305797 0.035989348
000220 42 d3 6c 3e 01 92 0b 3e 91 f7 f9 bc 2a 9a 5f be
       0.23127463 0.13629915 -0.030513557 -0.21836153
000230 65 92 13 bf 67 4c 40 be a9 75 b2 3c 8c e0 14 be
       -0.57645255 -0.18779145 0.02178462 -0.14538783
000240 f9 2f f9 bc 6d 15 c1 be e8 21 11 be 20 43 8e 3e
       -0.030418383 -0.3771166 -0.1417309 0.27785587
000250 dd 47 c6 bd ce 15 01 3e b8 74 b1 3a c1 31 d7 be
       -0.096816756 0.12605974 0.0013538813 -0.42030147
000260 2e 9d c5 3d 93 17 7a 3d 9a ea 59 be f6 39 d3 3d
       0.0964912 0.06105764 -0.212809 0.103137895
000270 b3 26 d6 3d 9a e6 87 3e 4d f4 82 bd a6 97 7f 3d
       0.104566 0.26543123 -0.06394253 0.062400483
000280 3e 37 96 bd b0 bf 82 3e 3a 6a 69 3e 98 fd 4d be
       -0.07334755 0.2553687 0.22794428 -0.2011627
000290 52 96 54 be 06 e0 12 3d 7f 59 7b bd 53 53 a4 bd
       -0.20760468 0.035858177 -0.061364647 -0.08023705
0002a0 c4 6d ad bd 7c 53 da be 81 eb b3 3e 03 99 13 3e
       -0.08468202 -0.4264182 0.35140613 0.14413838
0002b0 76 50 e2 3d 8e 2f ec bd 09 23 3e be 6e 2c 0c bd
       0.11050503 -0.11532508 -0.18568052 -0.03422206
0002c0 67 32 a3 be c2 01 1f 3e 22 d7 0d be 9c b7 87 3d
       -0.3187439 0.15528014 -0.13851598 0.066268176
0002d0 97 92 91 3e 5b 13 39 bc a6 4a 14 3e fc a7 46 3d
       0.28432152 -0.011296119 0.14481601 0.048500046
0002e0 ac 06 38 be b6 9a 18 3e 26 fa 9d 3d f0 4a 64 be
       -0.17971295 0.14902768 0.07713728 -0.22294211
0002f0 e8 99 8f 3e 3b e7 13 3f b1 a5 a5 bd d8 67 85 be
       0.2804711 0.57774705 -0.08088244 -0.2605579
000300 57 ff 28 bd f0 d2 41 be 5c fd 22 be d5 50 82 3e
       -0.041259136 -0.18928123 -0.15916961 0.25452295
000310 86 d8 61 be c2 3b 8d bd 51 a9 4a bf 12 48 53 be
       -0.22055253 -0.068961635 -0.79164606 -0.20632961
000320 1e 9b 22 3e 13 6c c3 3e 62 93 7f be ae b1 f0 be
       0.15879485 0.38168392 -0.24958566 -0.4701056
000330 c3 69 bc 3d 7e d7 d1 3e ed 3a 51 bf 9b 77 d5 3d
       0.0919986 0.4098472 -0.8173054 0.104232036
000340 52 be f5 be 4b fd 6a 3e 2f be 77 3e 97 bf 5c 3e
       -0.47996765 0.22948186 0.24193643 0.2155746
000350 ed c0 10 be 0f 2f a3 3c 68 55 13 bf df b2 9f 3e
       -0.14136095 0.0199199 -0.57552195 0.31191155
000360 86 8d 70 bd e0 07 36 3c 7b 79 31 be a8 99 bd 3e
       -0.058728717 0.011110276 -0.17331497 0.37031293
000370 6f 51 dc 3e d4 53 d4 3d 05 47 75 bd fb b6 ac ba
       0.4303088 0.103675514 -0.059882183 -0.0013177091
000380 de c8 34 bd b5 0b a8 3e 7b e8 36 3e 2f 5d 8b bc
       -0.044136874 0.32821432 0.17862122 -0.017012207
000390 b7 94 23 3b 3d 76 c4 3e 96 66 ed 3d 42 24 20 3e
       0.0024960467 0.3837146 0.11591832 0.15638831
0003a0 27 56 87 3e 00 cc b5 bc 7c c7 95 3e 64 91 ce bd
       0.26432917 -0.022192001 0.29253757 -0.10086325
0003b0 d9 18 d1 bd 71 41 a2 bd 17 2e 09 3e 11 bc a6 3d
       -0.102098174 -0.07922638 0.13396488 0.081413396
0003c0 ac 80 02 3f e1 50 1f 3e d9 ff b2 be 92 cb 91 3e
       0.5097759 0.15558197 -0.3496082 0.28475624
0003d0 d9 eb 22 3d da 49 30 be ac c5 4b be a1 ef 59 3e
       0.039775703 -0.17215672 -0.19899625 0.21282817
0003e0 58 2f bd 3e 98 16 15 be db 29 30 3e 70 01 61 3e
       0.36950183 -0.145594 0.17203467 0.21973205
0003f0 ee 28 4d 3e 26 42 8f be ed af b7 3e 26 25 f2 3e
       0.20035145 -0.27980155 0.35876408 0.47293967

weight f4 [256, 256]
000000 03 75 03 3c e3 11 83 3d bc ed 1c b9 e4 fe 9d 3d
       0.008023503 0.06399896 -0.00014965882 0.07714632
000010 a3 0c b6 3d b2 12 aa bc 96 b9 90 bd 68 87 d0 bd
       0.08889129 -0.020760868 -0.07066648 -0.10182077
000020 4c bf 57 3c e3 51 fb bd f1 34 85 bd af ee 3e 3d
       0.013168167 -0.12271478 -0.065042384 0.046614345
000030 11 89 d4 3d e7 f0 6e 3e a3 81 5e bc 1b ab c6 3c
       0.10377706 0.23334084 -0.0135807125 0.024251511
000040 de 35 58 be c6 0a 7b 3e b9 c8 de 3d 30 8f 29 bd
       -0.21114299 0.24515828 0.108781286 -0.04139632
000050 7f 56 f8 bd c5 10 40 3d 00 77 f5 bc ff 40 c1 bd
       -0.12125873 0.046890993 -0.02996397 -0.09436225
000060 6b ab 96 3d c1 32 15 be 33 4a 23 be c2 21 07 bd
       0.07356914 -0.14570142 -0.15946274 -0.03299118
000070 43 ff bf bc 84 e1 e8 b8 78 64 65 bc 68 28 a0 3c
       -0.023437148 -0.000111046276 -0.014001004 0.019550517
000080 78 89 ea 3e 63 86 ca bd 8e 9c c6 bc 7f c0 f0 3d
       0.45808005 -0.098889135 -0.024244573 0.11755466
000090 04 3a a5 bc 8e 10 d7 b9 28 29 84 bc be 4e f4 bb
       -0.020169266 -0.0004102033 -0.016132906 -0.007455676
0000a0 b9 52 c1 bb ab 4f ab be ac e1 ff 3b e0 6d 4c bd
       -0.005899754 -0.3345922 0.0078088846 -0.049909472
0000b0 3b 2e 61 3b ff f2 07 3d 0a 3d c5 bb ff b4 0a 3d
       0.003435983 0.033190724 -0.0060192393 0.033864018
0000c0 1a 5b 91 bd 65 9e 98 3d 1d fa fc bc 20 a5 f0 3d
       -0.07097454 0.07452086 -0.030880982 0.11750245
0000d0 ad 36 84 bc 80 46 ed 3b 38 d7 7c bd cd 84 b9 bd
       -0.016139353 0.0072410703 -0.061728686 -0.09058533
0000e0 74 04 36 bd 55 be ee be 79 5a 73 3e 44 d8 40 bd
       -0.04443784 -0.46629587 0.23764981 -0.047081247
0000f0 0e 05 61 3e 75 9a 98 3e 87 26 e4 bc b6 80 79 be
       0.21974584 0.2980534 -0.027850403 -0.24365506
000100 23 6e 9a bd 89 93 99 bd 93 ff b1 bd 75 8e 9b 3d
       -0.07540538 -0.07498843 -0.08691325 0.07595531
000110 7f 2c 3a 3e 4c 4a a9 3c 4b 5a d7 3c 36 f6 8b bd
       0.18181036 0.02066531 0.026288172 -0.068340704
000120 a2 ec 96 bd 7c 62 87 bd 96 71 93 3d 2d 8a 90 bb
       -0.07369353 -0.06610581 0.07199399 -0.004411003
000130 fd a8 12 be 26 c2 3f 3d 2b dc 36 bd 75 4e c7 bb
       -0.14322276 0.046816014 -0.044643562 -0.006082351
000140 d5 22 38 3d 02 26 e2 bc ce ea fb 3d aa 0f dd 3d
       0.044955093 -0.027606014 0.12300645 0.10794003
000150 5d 07 12 be ef 7c 25 bd c9 2e 01 3d 55 70 56 bc
       -0.14260621 -0.04040235 0.03153876 -0.0130883055
000160 1c 06 7d bb 31 d3 39 3d 0e 3c b2 bd 32 f0 d1 ba
       -0.0038608378 0.045367423 -0.08702861 -0.0016017018
000170 dd 54 12 3d 4f a4 36 bd 74 ed 2b 3d 63 12 b7 bd
       0.035725463 -0.04459029 0.0419745 -0.08939054
000180 93 b1 d4 3e d2 ae 94 3d 31 f4 7d bc 07 22 fd bb
       0.41541728 0.07259907 -0.015500114 -0.0077250036
000190 d6 a5 7e 3e d0 85 c1 bd 9d 7b 53 3e 84 b3 0f bf
       0.24867949 -0.09449351 0.20652623 -0.56133294
0001a0 38 84 e8 3d 96 2c a1 3d 99 13 be 3b 72 4f e1 3d
       0.11353344 0.07869832 0.005800676 0.11001481
0001b0 2d d9 09 3e a5 9f 40 3c 36 01 25 3e d4 a0 4d 3e
       0.13461752 0.011756812 0.16113743 0.20080882
0001c0 8d 12 89 bd 44 91 a8 bd 73 75 3e bd 78 cb 18 3b
       -0.066929914 -0.08230832 -0.046498727 0.0023314636
0001d0 27 13 b7 bd e5 98 f3 3c ed bd 16 bc 67 29 65 39
       -0.089392 0.029735992 -0.009200555 0.00021854565
0001e0 2b 5d 4e be 89 87 6e 3d 31 e3 8c be be 1f 90 be
       -0.20152728 0.058234725 -0.27517083 -0.28149217
0001f0 5a 12 5d 3d cc c9 08 3d 5e 5c 94 bc 5f 7f be bd
       0.05397258 0.033395573 -0.01811045 -0.09301638
000200 34 68 9d bd 46 38 c8 bd ab 09 10 be 95 90 6e 3e
       -0.07685891 -0.09776358 -0.14066188 0.23297341
000210 c4 aa a6 3d de cf b3 bd ff b6 9a bd 26 09 b8 bc
       0.0813804 -0.08779882 -0.07554435 -0.0224653
000220 0e 3c 81 bc 1f cb 9f 3c 9e 93 20 bb 36 82 e6 3b
       -0.015775707 0.019506035 -0.002450205 0.0070345653
000230 79 2e c7 bd ec db 85 bc 04 7d c1 3d e2 be d4 3c
       -0.09725661 -0.016340218 0.09447673 0.025969926
000240 0f 4e 8e 3c 69 05 9e 3d 05 ab 83 3d 62 e9 bf bd
       0.017371206 0.07715876 0.06429104 -0.09370686
000250 0f 1e 15 bd e9 59 8c 3d ca 7c db bc af 8e ce bc
       -0.03640562 0.068530865 -0.026792902 -0.025214521
000260 7b ad 80 3d 98 94 af 3d 8b c2 a0 3d ec 9c 21 be
       0.06283089 0.08573264 0.07849606 -0.15782517
000270 26 35 5a 3d 2b 73 a7 bd b0 6d d0 bd 88 38 e6 3d
       0.053273343 -0.081762634 -0.10177171 0.11241251
000280 b2 fd 77 bd 04 17 12 3d 8c d0 63 bd 11 60 a4 3d
       -0.060544677 0.03566648 -0.055618808 0.08026136
000290 29 46 d9 bd bc 80 34 3d c2 42 99 3d 20 9e 7a bb
       -0.10609085 0.044068083 0.07483436 -0.0038241223
0002a0 fe 99 b5 3d d4 9d d3 3d 63 c6 41 3d 4b cf b1 3d
       0.08867262 0.10332838 0.047308337 0.08682116
0002b0 7f ac 84 bd f1 73 8e bd e5 7d f6 b8 10 cd da be
       -0.064782135 -0.06955708 -0.00011753644 -0.42734575
0002c0 09 a3 85 3d 9f 44 84 3b 18 4b b0 3d ca 70 a7 bd
       0.06525237 0.0040365006 0.08608073 -0.0817581
0002d0 ed ae 87 bd 98 de 9e bd dc 0a 84 bc 25 00 70 3c
       -0.06625161 -0.077573 -0.01611846 0.014648472
0002e0 6a 21 4f be 2a ba d1 bd 20 71 11 3d 76 b8 ed bd
       -0.2022759 -0.10240586 0.035508275 -0.11607449
0002f0 23 9e b5 3b b7 cd b0 3d c7 64 80 bd 41 31 e6 bc
       0.005542533 0.08632987 -0.06269222 -0.028099658
000300 a4 31 37 bd e5 24 34 be 6d 8b 3d 3d e4 54 b3 3e
       -0.044725075 -0.17592199 0.046275545 0.35025704
000310 88 54 7d bb ae da 8e bc fa 0d 55 bd cf 06 d7 3c
       -0.003865512 -0.017438259 -0.052015282 0.026248364
000320 87 d1 e1 bd 2e e4 66 be fd f6 10 3e 28 44 d6 bb
       -0.11026292 -0.22547981 0.14156719 -0.0065388866
000330 4f 7c 8f 3d 72 ee fb 3d 4e e3 0c 3e af 6b 01 3d
       0.07006132 0.12301339 0.13758585 0.031596836
000340 fa 90 fb 3d bb 52 21 3d b0 7b a7 3b e6 a2 94 bc
       0.122835115 0.03938554 0.0051111802 -0.018144082
000350 3d 97 ab 3e 4e 10 03 bc 99 bf 73 be 09 aa 1d be
       0.33513823 -0.007999493 -0.23803557 -0.15396895
000360 a9 26 ea 3d 13 29 ef 3d 0a 37 d5 bd ae ea 30 3d
       0.11433155 0.11677756 -0.104108885 0.043192558
000370 e5 81 c4 bc ff 34 1f 3d 38 40 38 bd 70 59 6b 3c
       -0.02398772 0.0388689 -0.04498312 0.014364585
000380 03 67 ac ba 0d 9b 9e 3d 9e 12 4c 3d df 50 8a bc
       -0.0013153258 0.07744417 0.049822442 -0.016884265
000390 57 2b 3f 3d 65 77 55 3d 1f 15 0c 3d 9c 74 b0 bd
       0.04667219 0.052115817 0.03419983 -0.086159915
0003a0 6f 4c 61 bd 0f 0e 38 3d 08 1a 8a 3d 12 38 81 3d
       -0.055004533 0.044935282 0.06743246 0.06309523
0003b0 a5 11 ab be 52 ec 6f bc 98 80 93 3e 05 58 df ba
       -0.334119 -0.0146437455 0.28809047 -0.0017039782
0003c0 84 4d 38 3e bd 8b ae 3c 08 0d e4 bd ae e9 57 bd
       0.1799832 0.021306867 -0.11135298 -0.05271309
0003d0 ae 5a 9b bd 83 2f 6a 3d 7e 5b 63 3d 28 39 49 3d
       -0.07585655 0.057174217 0.055507176 0.049126774
0003e0 79 31 f7 3d 96 55 0f 3d 4c b4 b7 3d e2 b7 b5 3d
       0.12069983 0.03499373 0.08969936 0.088729635
0003f0 2e eb a3 3c f2 a7 87 bb da e3 01 3d 14 cf 9d 3b
       0.020009603 -0.0041398937 0.031711437 0.0048159454

bias f4 [256]
000000 bd 2f 25 3c fe 0f 79 3c 0b 81 95 3d a4 cb 6c bc
       0.0100821825 0.015201567 0.073000036 -0.014452849
000010 8a 51 0e bd c9 a5 ce bd 45 ea 5b bd 07 56 83 3d
       -0.03474573 -0.10090215 -0.053690214 0.06412893
000020 aa 23 18 3e 59 4f f3 bd d8 d8 c0 3c 8d 51 77 bc
       0.14857355 -0.11880369 0.0235409 -0.015095127
000030 d7 e0 9f 3d 2e 4e 9b bd d9 22 f5 bc 5c eb 05 bd
       0.07806557 -0.07583271 -0.029923843 -0.03269516
000040 13 ae 7b bc 74 50 3c bd de dc 92 3d 98 50 90 bd
       -0.015361327 -0.045975164 0.07171033 -0.07046622
000050 d6 3d 98 3c 6b c3 78 bd cc e8 94 3d 4d ed 43 3e
       0.018584173 -0.06073324 0.07270965 0.19133492
000060 66 55 11 be 66 3c e6 3d c2 25 26 3d 3e 0e 96 bd
       -0.14192733 0.11241989 0.040563352 -0.07326935
000070 14 e8 d6 bd bf af f9 bd d3 91 fa 3d b9 97 dd 3d
       -0.10493484 -0.12191724 0.12234845 0.108199544
000080 f9 ab da bc 45 56 f0 3a 39 bf 84 3d 98 13 23 bb
       -0.026693331 0.0018336257 0.06481785 -0.0024883505
000090 8d a1 f1 bd 18 bb 0d bc 08 7e 1d bd f4 79 1a be
       -0.117983915 -0.008650564 -0.03845027 -0.15085584
0000a0 29 60 4f bd 0d 8f 4f 3d 5b 0b 08 3d ab 2e c0 bd
       -0.050628815 0.050673533 0.033213954 -0.09383901
0000b0 e3 94 0d bd 34 99 e5 3c 3c 5c e0 3d 43 f2 10 3e
       -0.034565818 0.028027155 0.10955092 0.14154916
0000c0 a5 95 f2 3a 19 f2 82 3d 27 c3 28 bd ba 5b a2 3c
       0.0018507732 0.06393833 -0.041201737 0.01981913
0000d0 26 3c 04 be 8d 28 e1 3d 8d c3 e5 3d a2 82 27 bd
       -0.1291357 0.109940626 0.11218939 -0.040896066
0000e0 22 2d fb bc 8d 42 3b 3d 0a 91 41 3e e2 4a b5 3c
       -0.03066117 0.045717765 0.18902984 0.022130433
0000f0 17 28 77 bc 23 b3 52 3d d3 b4 f3 bd cc 4c 4a 3c
       -0.015085242 0.05144037 -0.11899724 0.012347411
000100 cb 2f 52 3b 78 bd 20 3d 34 de ac 3b 86 3d 51 bd
       0.0032071944 0.03924319 0.005275512 -0.051084064
000110 e7 31 a4 bd 9b 03 56 be be 60 59 bd 0c f4 91 bc
       -0.080173306 -0.20899813 -0.053070776 -0.017816566
000120 21 d2 a0 bd 76 54 a0 3d db a9 fa 3c fb c8 b9 3c
       -0.07852579 0.0782861 0.030598572 0.022678843
000130 1d 58 2f 3c de e3 20 3d 2b 48 3e 3d b4 5c 39 bd
       0.01070216 0.03927981 0.046455543 -0.045254424
000140 ba 5a 0e be 6a 56 03 3d e1 26 09 bc a2 a0 e0 bc
       -0.13901797 0.032064833 -0.008371086 -0.027420346
000150 5f c1 d8 bd 51 ab be 3d 0c 32 a5 3d 03 d9 30 3d
       -0.105837576 0.0931002 0.08066186 0.04317571
000160 40 94 30 3e 47 e7 41 bd 5e 39 8f 3d b3 4f 4d 3b
       0.17244053 -0.047339704 0.06993364 0.0031328022
000170 f1 82 23 3d aa 1b d6 3d df c2 a2 3d 18 d8 42 3d
       0.039919797 0.10454495 0.07947325 0.047569364
000180 56 2a 10 be 4a cf 59 3e 83 ca 07 be c8 3d d7 b6
       -0.1407865 0.21270481 -0.13260846 -6.4146916e-06
000190 f9 1e 62 3d 47 1a f5 bd fb 48 ee bd 50 d6 36 39
       0.05520532 -0.11967903 -0.11635014 0.0001743671
0001a0 7c 45 97 bd 3e d5 4a bd 86 07 8a bd 64 cf ec 3d
       -0.073863 -0.04951977 -0.06739716 0.11562994
0001b0 bb 58 09 3e e6 fa 39 3d a1 d5 71 bd a4 24 be 3d
       0.13412754 0.04540529 -0.059041623 0.092843324
0001c0 20 95 49 38 df d8 3d 3c fd 1c 6b bd 9a 36 bf 3c
       4.8061018e-05 0.011587351 -0.057400692 0.023341466
0001d0 ee 19 bb bd 63 4b 00 be 06 91 81 bc 77 7f 99 bd
       -0.09135805 -0.12528758 -0.015816223 -0.07495015
0001e0 bc c9 c9 bc b6 b5 15 3e a3 e1 6e 3d 88 cd 96 bc
       -0.024632327 0.14620098 0.058320653 -0.018408552
0001f0 8f b7 4c bc 03 f3 e4 3c 6b 01 e9 bc e4 5e b8 bb
       -0.012494936 0.027947908 -0.028443059 -0.005626546
000200 b6 c4 9e bd 22 80 e2 3c 5e 82 44 3d de cc 95 3d
       -0.077523634 0.02764899 0.04797589 0.07314466
000210 29 ab cc bd b9 db 84 3b 98 e3 c3 3d 21 81 a1 3d
       -0.09993584 0.0040545133 0.095648944 0.078859575
000220 43 ae be bd fa 48 b6 bc cd a0 47 bd f6 4a b6 bd
       -0.093105815 -0.022251595 -0.048737336 -0.089010164
000230 88 5d d5 3d 82 77 a8 bb 56 c2 06 bd 5f bf c4 bd
       0.1041823 -0.0051411996 -0.032900177 -0.09606814
000240 18 8e 71 3d 1d 5e 96 3c c0 21 0e bd 14 81 36 3e
       0.0589734 0.018355424 -0.034700155 0.17822677
000250 22 b7 fe 3c 3c b6 10 3e fb b0 f4 bc ec 7a 7d 3d
       0.031093184 0.14132017 -0.029869547 0.061884806
000260 d9 95 1f 3d 21 25 14 3d c5 c0 7e bc 3d 25 5a bb
       0.038961265 0.03616822 -0.0155488895 -0.0033286356
000270 93 68 cf 3d 5c e0 03 3c 38 ed f3 bd 73 f0 cc bd
       0.10127368 0.008049097 -0.1191048 -0.100067995
000280 aa 5a fb 3c ec 1d bb bc bc 97 8f bb a3 c9 3d bc
       0.03068288 -0.022841416 -0.004382102 -0.0115837185
000290 d3 9e 9a 3d 56 3d 25 be 5c f2 93 3d e8 be 39 bd
       0.075498246 -0.16136679 0.07223961 -0.045348078
0002a0 91 97 6c bc eb 13 42 bd d2 9a f1 bb 6d 36 3e 3d
       -0.014440433 -0.047382277 -0.0073731923 0.046438623
0002b0 62 a1 b3 bc 35 ec 29 bd 57 b9 1e 3d a5 27 c9 3d
       -0.02192754 -0.04148503 0.038750973 0.09822015
0002c0 68 59 6a 3d 16 cb a7 bd cf c2 c8 bd b1 80 f4 bd
       0.05721417 -0.081930324 -0.09802782 -0.119386084
0002d0 19 82 7d 3d 59 de 87 3b 30 61 21 3e 3c ae 04 bd
       0.06189165 0.004146379 0.1575973 -0.032392725
0002e0 24 54 0c 3d 0a b6 b3 bd a3 5f 19 3e d3 54 f4 bc
       0.03425993 -0.087749556 0.14977889 -0.029825604
0002f0 d7 74 77 bd 51 90 7a bd 17 5a e6 bc 70 8e 5a bb
       -0.06041416 -0.061172787 -0.02811913 -0.003334906
000300 82 57 d3 bc ad 10 fc 3d 56 b9 b8 bd e7 3e c3 3d
       -0.025798563 0.12307868 -0.09019725 0.09533482
000310 45 ff f0 3c a0 46 48 bd 9d 4d 50 3c a6 ba 29 3d
       0.029418597 -0.04889548 0.012713817 0.041437767
000320 9d d6 7a 3d 83 ac ba bd 0b ed ba 3d 62 71 07 bd
       0.061239827 -0.09114935 0.091272436 -0.033067115
000330 e8 c2 af 3c fa 0d 45 bd dd 4f ff 3c 50 1d 52 3d
       0.021455243 -0.048109032 0.031166011 0.051297486
000340 6a ab 15 3e b6 97 db 3c ba dc 61 bd 65 80 a6 bd
       0.1461617 0.02680574 -0.055142142 -0.08129958
000350 c5 ee 10 bd ad c4 ea 3d 01 e0 c0 bd de 9c d0 3d
       -0.03538396 0.11463294 -0.09417725 0.1018617
000360 34 5e a7 3c 8e cb 27 3e fc 17 0b 3d 38 29 b5 bc
       0.020430662 0.16386244 0.03395842 -0.022114381
000370 93 30 33 3d 5b 89 eb bb f5 c2 72 3d 5c b7 d9 3d
       0.043747496 -0.007188005 0.059267957 0.10630676
000380 ee 15 02 3e d5 4e c1 bb 33 3a a1 3c 0d 08 d1 bc
       0.12703678 -0.00589929 0.019681072 -0.025516534
000390 08 6a 1e bc 8d 81 c4 3b c8 df 87 3a 3e ae 0a be
       -0.0096688345 0.005996889 0.0010366375 -0.1354303
0003a0 88 53 62 bd 78 93 ce 3d f6 05 45 bd 51 68 bc 3d
       -0.055255443 0.10086721 -0.048101388 0.09199584
0003b0 30 d1 1c bd 42 a3 af 3d 9f bd 10 be a6 11 12 bc
       -0.038285434 0.08576061 -0.14134835 -0.0089153405
0003c0 48 99 01 bd 95 10 9f 3b 88 df 3c bc 3f e3 14 be
       -0.03164032 0.0048542717 -0.011527903 -0.14539813
0003d0 b9 3d 99 3d 16 6c 42 3b 44 84 36 3a d2 ea 40 3d
       0.07482476 0.0029666475 0.0006962458 0.047098942
0003e0 42 07 a1 bd a0 e6 42 3d 53 f1 20 bb 28 5b f0 ba
       -0.078627124 0.047583222 -0.0024557903 -0.0018337714
0003f0 cd dc eb bd 75 c5 4c bc 96 2d 6e 3d 00 28 dd 3d
       -0.11516724 -0.012498249 0.058148943 0.10798645

weight f4 [256, 256]
000000 f2 df 3b 3c 2f ff 1a bd e5 46 8c 3c 1a 54 be 3c
       0.011466967 -0.03784102 0.017123649 0.023233462
000010 ab 7b cf bb 3c d7 28 bd f1 7d ba bc 5a 8d 82 3c
       -0.006331881 -0.04122089 -0.022765132 0.015936542
000020 65 6c ac bc 7e 96 a5 b8 ab e7 3f bc d0 62 e8 3c
       -0.02104778 -7.8958445e-05 -0.011712949 0.02836743
000030 3b ef 42 3c c2 5d 5b bd 1b 85 54 3d d9 b2 49 bc
       0.011897857 -0.05355621 0.05188475 -0.012310707
000040 ea 8f 04 bb c8 14 9e 3b b7 c6 3f bd f2 90 42 bd
       -0.002022738 0.0048242547 -0.04682037 -0.047501512
000050 b6 66 28 bd f0 2a 76 3d 4a a8 4d 3c 7e 23 7a bd
       -0.041113578 0.060099542 0.01255233 -0.061069004
000060 0d ac 02 3d d1 69 e5 3b a5 d4 68 bc fa a5 2b 3d
       0.03190236 0.0070011397 -0.014210855 0.041906334
000070 91 04 30 3d 07 46 be 3d 1d 8d fe bc 54 e3 44 bd
       0.042973105 0.092907004 -0.031073147 -0.04806836
000080 4a 91 85 3d 2f 3e 19 bd 9e 50 ec 3b 58 a2 87 bc
       0.06521852 -0.03741282 0.0072117588 -0.016556904
000090 b2 8a 61 3d 1a 6a 3b 3b 7a 8e 8c 3b 2a fa 30 3d
       0.05506391 0.0028597177 0.0042894455 0.043207325
0000a0 de 8c b9 bd f0 12 ca bc 13 18 82 3c f2 1c 5b bc
       -0.090600714 -0.024667233 0.01588062 -0.0133736
0000b0 70 3a e5 3c 32 48 06 bd cb 4f 30 3d 84 d1 a1 3d
       0.027981967 -0.032783695 0.043044847 0.0790129
0000c0 a4 5f 05 3d cc 40 4e 3b 41 79 44 3d a2 1b ed bb
       0.032561913 0.0031471727 0.0479672 -0.00723596
0000d0 30 a8 02 bc 04 a0 31 3c 68 13 e4 3c df 07 15 3d
       -0.007974669 0.010841373 0.027841285 0.03638446
0000e0 34 58 3c 3d b2 43 ef 3b 12 43 09 bd 01 8f 58 bc
       0.045982555 0.007301771 -0.03351123 -0.013217689
0000f0 72 19 27 3d 78 e9 3b bd 93 ed ba 3b 3b 0f e1 bb
       0.04079575 -0.04587695 0.0057045906 -0.0068682707
000100 39 42 88 bb 84 a1 e2 bc 07 ff bc 3a 93 27 1f 3d
       -0.004158285 -0.027664907 0.0014419266 0.0388561
000110 b3 87 90 bc a0 8a 88 3c a1 44 83 3b df 71 13 3d
       -0.017642831 0.016667664 0.004005984 0.035997268
000120 55 1a 13 bd 7c fb 0e bd 87 a6 f4 3c 6b 5b a3 3d
       -0.035913784 -0.034907803 0.029864563 0.07976421
000130 91 2e 83 3c 73 2c d9 bc ba 32 ac 3c 8f 03 a0 bc
       0.016013416 -0.026510453 0.021020282 -0.019532947
000140 7e 0a 83 bc ee 35 9e 3c ba b2 2c 3c 55 d2 82 bd
       -0.015996214 0.019312825 0.010540659 -0.06387774
000150 80 d4 01 3d 20 a8 3d 3c 9c 7a b8 3b a1 e7 07 bd
       0.031696796 0.011575729 0.0056298506 -0.033179883
000160 5a b2 35 3d e6 6b ba 3c 23 39 4b bc 6b f8 27 bd
       0.044359542 0.022756528 -0.012403759 -0.041008394
000170 42 2e 9d 3c 4a e8 4d bd e5 68 3e 3c 65 15 22 bb
       0.019187097 -0.050270356 0.0116216885 -0.002473199
000180 5b 0c 83 bc 77 88 28 bd 27 2c ae bc ed e9 4d bc
       -0.015997102 -0.041145768 -0.021261288 -0.012567979
000190 bc 1e 97 bc 92 cc 38 bd d1 ee af 3c fd 42 75 bc
       -0.018447272 -0.04511697 0.021476181 -0.0149695845
0001a0 f8 2a 0c 3c ac 4c 28 3d 18 d0 09 bc 82 cd 2d bd
       0.008555166 0.041088745 -0.00841143 -0.042432316
0001b0 3e fe 50 bd 10 5f 37 bd f8 09 b3 bd e4 11 25 bd
       -0.051023714 -0.044768393 -0.08742136 -0.040300265
0001c0 c8 b0 06 3e ef 90 a8 bb 01 b6 52 3b ab a4 ab 3d
       0.13153374 -0.0051442306 0.003215194 0.08381017
0001d0 e5 4e 01 bc 44 cd 6e 3b e2 b6 52 3d 80 7a 4f 3c
       -0.007892345 0.0036438266 0.051443942 0.012663484
0001e0 2d 7a db 3b 15 9b a6 bc 44 81 b7 bc 81 d4 a8 bc
       0.006697914 -0.02033762 -0.022400506 -0.020609142
0001f0 b1 2c 85 3b 6c b3 66 bc 17 1b a4 bc 0e dd 22 3c
       0.0040641655 -0.014080863 -0.020032449 0.009940399
000200 06 c5 9b 3c 38 1d 16 b9 59 88 23 3c bd f6 b6 3d
       0.019014847 -0.00014316 0.009981238 0.0893378
000210 e0 c2 34 bc eb f1 0d 3d 94 4b 0c bd 54 7b 9a 3c
       -0.01103279 0.03465454 -0.034251764 0.018857636
000220 66 e6 e3 bc cc 23 85 bc 0b fb e1 bc 49 92 5e 3c
       -0.027819823 -0.01625242 -0.027585527 0.013584682
000230 95 8e 13 bb 19 3c b1 3c b6 94 c5 3c ef 43 40 ba
       -0.0022515405 0.021635102 0.024118762 -0.00073343416
000240 30 f9 23 3d 62 27 19 bd 6d 48 86 bd 4b ee 03 bd
       0.040032566 -0.037391074 -0.06556783 -0.032209676
000250 60 c9 16 bd ac 6e a2 bc 78 fd 8c 3c f0 de 14 3d
       -0.03681314 -0.019828163 0.017210707 0.036345422
000260 8f f1 71 bc 92 a8 19 bd 5c 2f 11 3d 17 04 55 bd
       -0.014767065 -0.037514277 0.035445556 -0.052005854
000270 b4 fb 03 bd 56 a0 e0 3b 6c 48 15 bc 47 0f 2f 3c
       -0.032222465 0.006855051 -0.009111505 0.010684795
000280 60 41 41 3d 9e 90 d7 3c 47 f7 8a bc 66 97 c1 bc
       0.047181487 0.026314076 -0.016963614 -0.023631763
000290 7c 32 78 3d 1f a2 8a 3c ea 8c 81 bc 03 8b 27 bd
       0.06059502 0.016923008 -0.015814263 -0.040904056
0002a0 bd be 95 bd 22 e1 f7 bc b2 e2 3a 3d 63 64 98 3d
       -0.07311771 -0.030258719 0.04562635 0.07441022
0002b0 00 92 04 3d 17 d8 0d 3d 13 b4 ab 3b fa f1 52 3c
       0.0323658 0.034629907 0.0052399724 0.0128750745
0002c0 82 e7 22 bd 6f 28 2d bb d8 2c c4 3c e2 5b fc 3c
       -0.039771564 -0.0026421805 0.023947164 0.030805532
0002d0 e1 fa d3 bc 79 fc ce bc 36 cb 02 bb f1 d3 01 3c
       -0.025876464 -0.025266873 -0.001995755 0.007924066
0002e0 08 c3 39 3d e2 3d d3 3c a2 0f 81 bc fa a6 d9 ba
       0.045352012 0.025786344 -0.015754525 -0.0016605549
0002f0 7d 53 96 3c d3 25 1a 3c a5 91 36 3d c9 4f 29 3b
       0.018350357 0.009408432 0.04457249 0.002583491
000300 e2 c9 13 3d 53 f6 9b bc 87 54 03 bd b5 d1 e5 bc
       0.036081202 -0.019038355 -0.032063033 -0.028054098
000310 47 27 be 3c 1f 51 c5 bb 4c ee 1d 3d 3b ef dd bb
       0.023212088 -0.0060216333 0.038557336 -0.0067729033
000320 bd 7b 3b bd 12 d1 f5 3c 69 6f 3b 3d 2c c5 a1 3a
       -0.045772303 0.030006919 0.045760546 0.0012342087
000330 80 4c fa 3c 27 f5 ec 3c 94 85 74 bc 14 25 88 3c
       0.030554056 0.028925491 -0.014924426 0.016619243
000340 65 9c f3 bc eb 17 91 3c c2 15 63 3d 6b 81 bc bb
       -0.02973766 0.0177116 0.05544067 -0.0057527325
000350 7a e5 1d bb b3 dd d0 bc 21 1c 1e 3a bd 06 9c bc
       -0.0024093078 -0.02549634 0.0006031413 -0.019046182
000360 a2 c7 8b 3d dd d6 a9 3c a0 f7 02 bd 6a 9a b1 bd
       0.06825186 0.020732338 -0.031974435 -0.0867203
000370 1f bb 45 bc 2b ff 8b 3d 07 8d 05 3c bc ab 86 3b
       -0.012068539 0.06835779 0.008151299 0.004109828
000380 e2 e7 77 3d ef 34 b7 3c f1 2f a5 3c 0b b8 05 3d
       0.060523875 0.022364108 0.020164462 0.03264622
000390 16 1e 3e 3c 2c ee 29 3d 62 15 48 bb d1 90 2f bd
       0.011603853 0.041486904 -0.0030530323 -0.042862717
0003a0 e6 b9 1b bd 11 2d c1 3c 55 fd c4 bb 05 9d f0 3c
       -0.038019083 0.02358106 -0.006011645 0.029371748
0003b0 52 f2 49 bc 4e be 77 bc da ec 43 bd 23 99 ea 3c
       -0.01232584 -0.015121056 -0.0478333 0.028637474
0003c0 24 3f ed bc eb 5c 2d 3d cd 6a ce bb 86 6b 19 3d
       -0.028960772 0.04232494 -0.0062993527 0.037456058
0003d0 8b e0 fe 3c 7c 09 16 bd 28 54 1b 39 9a 18 32 bd
       0.03111293 -0.03663014 0.00014813303 -0.043480493
0003e0 e9 3d a9 bc 92 7e 23 bd f4 97 3b 3d 78 b2 a1 3c
       -0.020659404 -0.03991563 0.04579921 0.01973842
0003f0 45 e3 a2 bc 1a 2a 22 bd 45 d7 c8 bc 51 f9 ad bc
       -0.019883761 -0.039590932 -0.024516711 -0.021237047

bias f4 [256]
000000 56 43 e7 bc 56 01 35 3a 47 b3 d9 bc 22 85 37 3d
       -0.02823035 0.0006904801 -0.026574744 0.0448047
000010 2d 3b 4b 3d 87 09 33 3d 38 3b 94 bb 8d f5 32 bc
       0.04961698 0.043710258 -0.004523661 -0.010922802
000020 20 70 da 3b 2d 40 a5 3c e2 65 3f ba f4 e6 78 3c
       0.0066661984 0.020172203 -0.00073012535 0.015191782
000030 07 ae 30 3d b1 53 9e 3b 6f c4 7f 3d 61 44 95 3c
       0.043134715 0.004831754 0.062443193 0.018221082
000040 23 50 26 bd 95 50 72 3c 10 11 4f 3c 97 23 16 3c
       -0.040603768 0.01478972 0.012638345 0.009163759
000050 d2 6c a9 3c 31 7a 46 bd 41 46 fd bb d4 cc 37 bb
       0.020681772 -0.048456375 -0.007729322 -0.002804567
000060 d6 79 95 3b 42 1b 2a 3d 17 ca cc ba 04 1b 12 bd
       0.004561643 0.0415299 -0.0015624192 -0.035670295
000070 f1 cf 51 3b 48 53 45 3d b3 5b e0 3b b4 39 07 bc
       0.0032014812 0.048175126 0.006846869 -0.008253504
000080 17 b0 f8 3b 83 33 a0 bc 4c 3e 80 3a 7c 33 0f bd
       0.007589351 -0.019555813 0.0009784191 -0.03496121
000090 d4 d0 a1 3b 7f c4 60 bb f2 1f 24 3d a3 0c 0f 3d
       0.0049382243 -0.0034296808 0.040069528 0.03492416
0000a0 9e 31 c6 3c 12 a3 c1 3c c6 62 e8 b8 ee 00 a5 3b
       0.024193581 0.023637328 -0.0001108102 0.005035511
0000b0 29 79 bd bc 6d 9e f1 3b a4 ab b6 3b 21 04 a2 3b
       -0.023129063 0.007373622 0.0055746604 0.00494434
0000c0 12 8f 09 3d 7d 57 8d bc 56 4d d0 3b 26 2c 16 bc
       0.033583708 -0.017253632 0.0063568754 -0.009165799
0000d0 a6 eb a6 bc 1c d6 80 3b 68 c6 16 bc 28 af 80 3c
       -0.020376038 0.003931774 -0.009202577 0.015708521
0000e0 3e f7 0f bb a1 61 86 bc f5 9e 2e bd fc c2 9e 39
       -0.0021967436 -0.016403975 -0.042632062 0.00030281383
0000f0 2e 38 3a 3c 47 72 1b bc fb 95 21 3d e3 bd 3d 3b
       0.011365933 -0.009487695 0.039449673 0.0028952293
000100 88 94 1e bc 15 d1 11 3d 17 44 86 3c ae 5e f6 bc
       -0.009678967 0.035599787 0.01638989 -0.030074444
000110 b1 63 0c bd 3d 48 93 3d e1 4e e0 bc fb 00 8a bc
       -0.03427476 0.07191513 -0.027381362 -0.01684617
000120 4d ea 15 bd cb 82 db bb b1 71 e3 bc 24 d5 29 3d
       -0.0366004 -0.0066989413 -0.027764173 0.041463032
000130 c7 14 45 bd 7a 82 97 3d 0b 9e 56 bd 56 aa a7 bc
       -0.048115518 0.07397933 -0.052396815 -0.020466965
000140 cf f0 99 bc 27 ed 3d bb 2f 36 33 3d bd 1b 8b 3c
       -0.018791584 -0.0028980465 0.043752845 0.016981
000150 9f 4a f6 3c 18 98 26 bc e7 25 25 bc fd 4b 50 bd
       0.030064879 -0.010168098 -0.010079837 -0.050853718
000160 9e cb e9 bc 85 00 cf 3c 12 23 3d bb 4a 9a 9e 3c
       -0.028539475 0.025268802 -0.0028860015 0.01936068
000170 c4 7e 09 bd 9f 02 a2 3c 27 1a 47 bc 3f 9e 4c bc
       -0.03356816 0.01977664 -0.012152231 -0.012488901
000180 8a 50 7b 3d 1c b1 ee 3c 4e c5 e8 bb 05 9e b7 bc
       0.061356105 0.029137187 -0.0071035987 -0.022414217
000190 05 84 34 bc 7a ab 00 bd b5 2a 9e bc c7 43 28 bc
       -0.011017804 -0.031413533 -0.019307474 -0.010270066
0001a0 cb 85 68 3d ab ec de 3b 80 92 df b9 3f f1 7e 3c
       0.05676822 0.0068031154 -0.00042643026 0.015560447
0001b0 4b 4e f2 bc c2 57 be bc 47 1a b2 3c 3d 58 fe 3c
       -0.029578349 -0.023235206 0.021741046 0.031047935
0001c0 e9 4c e0 3c c2 b4 83 bd ea 73 d2 bc eb c7 60 3c
       0.027380424 -0.06430961 -0.025690038 0.013719539
0001d0 40 fa ab bc ba 7e 9c bc d8 36 46 bb fb bd 71 bd
       -0.020993352 -0.019103397 -0.0030245092 -0.05901907
0001e0 9c 89 30 3c b7 ae 0d 3c b6 31 09 3d 95 37 36 bc
       0.010774996 0.008647612 0.033494674 -0.01112165
0001f0 16 e2 f2 3c 25 96 95 3a e5 06 c3 3c 54 10 f5 3c
       0.029648822 0.0011412544 0.023806999 0.029915012
000200 73 03 f4 3c 45 d7 9c bc 56 bb 47 bd b2 75 8f 3d
       0.029786801 -0.019145617 -0.04876264 0.070048705
000210 8c e3 37 3d 9a 15 31 3d f9 d5 14 3c ce eb ed bb
       0.04489474 0.04323349 0.009084218 -0.007260776
000220 70 b8 20 bd 32 de b7 bc e0 18 08 bc 89 df 14 3c
       -0.039238393 -0.022444818 -0.008306712 0.009086498
000230 bc f4 68 3b 3b 84 3e bb a2 9f 4f 3d 0d 43 0a 3d
       0.0035546264 -0.0029070515 0.050689347 0.03375535
000240 22 5a 42 3c 8e 4d 93 3c e2 79 c9 bc af 50 ca bc
       0.01186231 0.017981317 -0.024594251 -0.024696676
000250 24 77 bd bc ea ec 9d 3b 45 71 9e 3c bc 36 cd 3c
       -0.0231281 0.004819502 0.01934112 0.025050513
000260 09 23 b1 3c 75 45 22 3d 74 4d 61 3d 65 57 d8 3b
       0.021623151 0.03961702 0.055005506 0.006602215
000270 c4 5d cf 3b 8f 50 ce bc 61 ef 56 bc fc 18 39 3c
       0.0063283164 -0.025184898 -0.013118596 0.011297461
000280 55 97 37 3c 07 d4 6b 3c 20 74 06 ba 65 b1 4b bc
       0.011205514 0.014393813 -0.00051289983 -0.012432431
000290 7d 15 09 bd a3 bf 74 bc 72 c4 26 3c 93 a4 df bb
       -0.03346776 -0.014938268 0.010178672 -0.0068250387
0002a0 30 56 9c 3b d7 d5 92 bc 6a cb 86 3c 3d 52 35 bc
       0.0047710165 -0.017924232 0.016454417 -0.01106697
0002b0 8b 93 21 3c 7f b4 97 bc 36 77 6e bd 68 80 11 3d
       0.009861837 -0.018518684 -0.058219157 0.03552285
0002c0 0d 63 a8 3c 05 9e 08 bd 6a 0e bc bc 71 18 6a 3b
       0.020555044 -0.033353824 -0.022956092 0.0035720135
0002d0 aa 9d 41 bc 29 2f a1 bc ad 8c 50 3b e1 ac 1a bd
       -0.011817375 -0.019675808 0.003182213 -0.037762526
0002e0 22 39 6a bd d7 1b e3 bb 24 96 62 3d 60 e4 1a bd
       -0.057183392 -0.006930809 0.055318967 -0.03781545
0002f0 60 d2 d8 bb 97 07 4b bb 65 65 18 bd 2e ad 22 3c
       -0.0066168755 -0.0030979866 -0.037206072 0.009928985
000300 f5 69 0e bd a2 5a 24 3d ee a6 8c 3a a0 64 20 3d
       -0.034769017 0.040125497 0.0010730901 0.039158463
000310 7f 4b cc bc 6b b7 0e 3d 2f 30 df 3c bb e8 ab bc
       -0.024938343 0.03484289 0.027244655 -0.020984998
000320 7f 8d a6 bc 75 21 75 bd 10 77 d0 3c 55 8d 6a 3c
       -0.020331142 -0.05984636 0.025447398 0.014315923
000330 91 67 c7 ba c2 f1 49 bd ce 30 34 bb bb a4 e1 bc
       -0.001521336 -0.049302824 -0.002749491 -0.02754437
000340 75 7c 9f 3c 8f b6 f7 bc ba 4b 38 bc f2 14 66 ba
       0.019468525 -0.030238418 -0.011248523 -0.0008776925
000350 05 6d 3a 3c 50 4f 45 bd 72 8b b5 bc 1c f7 23 3d
       0.011378531 -0.04817134 -0.02216122 0.040030584
000360 cc 89 2c bd 01 5e d2 bc 5d 55 70 3c e1 de 1e bc
       -0.0421236 -0.02567959 0.01466879 -0.009696693
000370 17 59 8b bc 91 ee 50 3d 75 00 10 bc 0e 6a 98 bc
       -0.017010255 0.051008765 -0.008789171 -0.018605258
000380 9d 02 bf bc 5b 67 a2 bc 32 48 ee bc ea 5b b9 3c
       -0.023316676 -0.019824674 -0.02908716 0.022626836
000390 10 de 57 3b 77 a2 4e 3d 22 67 45 3d 62 ce 95 bb
       0.0032938756 0.050447907 0.04819406 -0.004571722
0003a0 da 79 f9 bc 9d 1b b7 3c 6e aa 96 3d 77 89 8a 3c
       -0.030453611 0.022352034 0.07356726 0.016911251
0003b0 8a 37 49 3d 31 dc 2b bc 85 26 02 bd 03 7f d4 3b
       0.04912523 -0.010489509 -0.031775016 0.0064848675
0003c0 c1 a7 83 bd c8 7b d7 3b ac 40 a2 3b 38 17 c9 3b
       -0.06428481 0.006576035 0.004951557 0.006136801
0003d0 8c fb ed 3b 9d 81 4c 3c 61 b4 da bc 1d db 91 bc
       0.0072626527 0.012482074 -0.02669734 -0.017804677
0003e0 fe 80 25 3d 2b 4b 0c 3c 28 42 07 3d aa 22 d8 3c
       0.04040622 0.008562843 0.033022076 0.026383717
0003f0 78 79 0e 3c 53 cf 99 bb 6f 07 a0 bc eb 27 23 3d
       0.008695953 -0.0046939044 -0.019534795 0.03983299
