output/2023-09-14-22-52-13/trained_model/tetris_epoch338_score0.pt (torch, 842187 bytes, 8 tensors)

weight f4 [32, 1, 4, 4]
0	0x3d07b197	0.033128347
1	0x3d024d01	0.031811718
2	0xbc94d36f	-0.018167226
3	0xbbbcfec9	-0.0057676774
4	0x3c956935	0.018238643
5	0x3da351cf	0.07974588
6	0xbb1db6e2	-0.0024065305
7	0x3d48444a	0.04889325
8	0xbe60eee6	-0.21966133
9	0x3e02766d	0.12740488
10	0x3e43c9be	0.19119927
11	0xbbe51d7d	-0.0069920407
12	0x3dabfe3c	0.08398101
13	0x3e29948b	0.16560571
14	0x3e31f358	0.17377985
15	0xbcf1a994	-0.029499806
16	0x3edcbf8b	0.43114886
17	0x3cade826	0.021228861
18	0xbed11d70	-0.40842772
19	0xbe75572b	-0.23959033
20	0xbf11ab77	-0.5690226
21	0x3cf9815e	0.030457195
22	0xbd8ca8c4	-0.06868127
23	0xbe06e8f8	-0.13174808
24	0x3d1d0104	0.038331047
25	0xbe39d067	-0.18145905
26	0x3d3bb77c	0.04582928
27	0xbea7ae39	-0.3275011
28	0xbe08630b	-0.13319032
29	0x3b27bc8f	0.0025594567
30	0x3dadf2c7	0.08493572
31	0xbf168ad2	-0.58805573
32	0x3d035753	0.0320657
33	0x3d728e70	0.05921787
34	0xbf40fa70	-0.7538214
35	0xbda17f4b	-0.07885607
36	0x3af876b8	0.0018956279
37	0xbe89f01e	-0.26941007
38	0x3e25ec8b	0.16203515
39	0xbe8c93e3	-0.2745658
40	0x3dd72e74	0.10506907
41	0x3e943023	0.28942975
42	0xbb323e7b	-0.0027197886
43	0x3cdfa5d9	0.027300762
44	0xbe2254b3	-0.15852623
45	0xbe0e1b17	-0.13877521
46	0xbe31d6f0	-0.17367148
47	0xbdde0dfa	-0.108425096
48	0xbe3fdb59	-0.18736018
49	0xbe84f39d	-0.25967112
50	0xbda7cae8	-0.08192998
51	0xbb54b198	-0.0032454487
52	0x3e1f116e	0.15533993
53	0xbe4ed640	-0.20198917
54	0x3e5fb723	0.21847205
55	0x3dd85b79	0.10564322
56	0xbe8b855d	-0.27250186
57	0x3dc0ef84	0.09420684
58	0xbf0203d6	-0.50787103
59	0x3dbd32fe	0.092382416
60	0xbdf51c96	-0.11968343
61	0xbf02d3f1	-0.51104647
62	0xbed5e863	-0.4177886
63	0x3db54d28	0.08852607
64	0xbd39309f	-0.045212384
65	0xbf430943	-0.7618601
66	0xbd1afb4a	-0.037837304
67	0xbcfd86c1	-0.030948045
68	0x3dacf0fd	0.08444402
69	0x3d264ff3	0.04060359
70	0x3db6f589	0.08933551
71	0x3d92db9f	0.07170796
72	0x3e71d27d	0.23615451
73	0xbf60f9ef	-0.8788137
74	0x3e97af2a	0.29625827
75	0xbca30151	-0.019898089
76	0xbde1d8ad	-0.11027656
77	0xbde0016e	-0.10937773
78	0xbcbff231	-0.023430916
79	0xbbb3fc23	-0.0054927035
80	0x3ba6ffc8	0.0050964095
81	0xbd0cdaba	-0.03438828
82	0xbdd34248	-0.103153765
83	0xbda96d33	-0.08272781
84	0x3ceb8006	0.02874757
85	0xbba756a1	-0.0051067625
86	0x3e95828a	0.29201156
87	0x3f3c3f73	0.73534316
88	0xbcdca9e9	-0.026936488
89	0x3c2bb3cf	0.010479881
90	0xbe98b713	-0.29827175
91	0xbf45c945	-0.7726024
92	0xbc5a0978	-0.013307922
93	0xbc89ea18	-0.016835257
94	0xbcbca297	-0.023026748
95	0xbd4adab3	-0.049524974
96	0x3d02ca0a	0.03193096
97	0x3d75f15f	0.060044643
98	0x3e251d31	0.16124417
99	0x3e882767	0.26592562
100	0x3e0cf5d8	0.13765657
101	0xbcb20126	-0.021729063
102	0x3e4bf26f	0.199167
103	0xbeebfff7	-0.46093723
104	0x3da5d44b	0.08097132
105	0x3d3bbe4d	0.04583578
106	0x3c7f8977	0.015596739
107	0xbf289bae	-0.6586255
108	0xbcacddbd	-0.021101827
109	0x3c0d9f1b	0.008643891
110	0x3d7351c1	0.05940414
111	0xbe9ac4ac	-0.30228174
112	0x3c87ef49	0.016593592
113	0x3c98ef5b	0.018668821
114	0x3e1b970e	0.15194342
115	0xbe584bfd	-0.21122737
116	0x3d875027	0.06607085
117	0x3d7dc016	0.061950766
118	0xbf31221c	-0.6919267
119	0xbf1f6a80	-0.6227188
120	0xbce361c4	-0.02775658
121	0x3daf6805	0.08564762
122	0xbf0041e6	-0.50100553
123	0xbc8ddddd	-0.017317707
124	0xbd4f7bb5	-0.050655086
125	0x3e404a5b	0.18778364
126	0xbea2abe4	-0.31771767
127	0xbeb5f378	-0.35537314
128	0xbdeef635	-0.11668054
129	0x3df1e2fc	0.11810872
130	0xbed41823	-0.41424665
131	0xbe193960	-0.14963293
132	0x3e027ecd	0.12743683
133	0x3dd11611	0.10209287
134	0x3e318ec5	0.17339619
135	0xbe9e75c2	-0.30949217
136	0xbc88e91e	-0.016712721
137	0x3dafa60c	0.08576593
138	0xbe86e0ba	-0.26343328
139	0xbf144200	-0.5791321
140	0x3e04c8c1	0.12967207
141	0xbd275c27	-0.040859368
142	0xbd8710f8	-0.065950334
143	0x3d4b20c5	0.0495918
144	0xbe254983	-0.16141324
145	0xbd5d9872	-0.05410046
146	0x3c966d7a	0.01836275
147	0x3c02a9bd	0.007975039
148	0xbdab8965	-0.08375815
149	0xbe2aa6be	-0.1666517
150	0xbecd3be8	-0.40084767
151	0xbd3e4088	-0.04644826
152	0xbda21a4e	-0.079151735
153	0x3ef644c2	0.48099333
154	0x3e255b81	0.16148187
155	0xbd0c2ce9	-0.034222517
156	0x3d6ffe9d	0.058592428
157	0xbf5c1f2e	-0.85985076
158	0x3db151f1	0.08658207
159	0x3d194463	0.037418734
160	0xbaf11ed0	-0.0018396024
161	0xbdfacddf	-0.12246298
162	0xbe0a8c01	-0.1352997
163	0xbdf69c3d	-0.12041519
164	0xbda874f8	-0.08225435
165	0xbd309994	-0.043115214
166	0xbe3f326c	-0.18671578
167	0x3cb170a6	0.02166016
168	0xbc9c5a54	-0.01908604
169	0x3d8502fb	0.06494709
170	0x3f10cf08	0.56565905
171	0xbccf6b5b	-0.025319746
172	0xbc0f8d85	-0.008761768
173	0xbde10891	-0.10987962
174	0xbf30569e	-0.6888217
175	0xbd37050a	-0.04468254
176	0xbd8d7d51	-0.06908668
177	0xbe5a5406	-0.21321115
178	0xbe990ab0	-0.29890966
179	0xbd96ebb5	-0.07369176
180	0xbc1b588e	-0.009481562
181	0xbe0f73ad	-0.1400897
182	0x3d2739c6	0.04082658
183	0x3e342b92	0.17594746
184	0xbd3b3426	-0.04570403
185	0xbbc11b78	-0.005893167
186	0x3e059f96	0.13049158
187	0xbf0e74be	-0.55646884
188	0x3dae0859	0.08497686
189	0x3cd5908b	0.0260699
190	0x3d7a0303	0.06103803
191	0xbec772fc	-0.38954914
192	0x3de64bc4	0.1124492
193	0xbdfb6ad9	-0.12276239
194	0x3d455c17	0.048183527
195	0xbd6edbfb	-0.05831526
196	0x3cebe16c	0.028794013
197	0x3efe709c	0.4969529
198	0x3c64d428	0.013966598
199	0xbd45dc8d	-0.048306037
200	0xbd869692	-0.06571688
201	0xbefe6395	-0.4968535
202	0x3e20f3a3	0.1571794
203	0xbd268008	-0.040649444
204	0xbd78a48c	-0.0607038
205	0xbf0ffe7f	-0.56247705
206	0xbe54e814	-0.20791656
207	0x3cda1779	0.02662252
208	0x3d186298	0.0372034
209	0xbd57729d	-0.052599538
210	0xbc18839a	-0.00930872
211	0x3d48f847	0.0490649
212	0x395e3d57	0.0002119442
213	0x3e2c760e	0.1684191
214	0x3e1f73a2	0.15571454
215	0x3c44bc41	0.012007774
216	0x3cdf8b18	0.027288005
217	0x3f5ad1ef	0.85476583
218	0xbcfe0393	-0.031007564
219	0x3d5ad61c	0.053426847
220	0xbb028455	-0.0019915302
221	0xbfaaf690	-1.3356495
222	0x3db068ce	0.0861374
223	0xbccb7c14	-0.024839438
224	0x3cdfb57b	0.027308216
225	0x3edf2a53	0.43586978
226	0x3d5f795a	0.05455909
227	0xbcd3bd33	-0.025847053
228	0xbc7659d1	-0.015036062
229	0x3f34937d	0.7053755
230	0xb933ff52	-0.00017165884
231	0xbc00fd9a	-0.007872963
232	0x3b47f2f9	0.0030509813
233	0xbfa219f2	-1.2664168
234	0xba28d748	-0.0006440771
235	0xbc4921ef	-0.012276157
236	0xbd218eb7	-0.039442744
237	0xbd011cfb	-0.03152178
238	0xbd0e948a	-0.034809627
239	0x3c3e0e78	0.011600129
240	0xbe5b3331	-0.21406247
241	0xbd350fff	-0.04420471
242	0x3e095082	0.13409618
243	0xbddcf0d9	-0.107881255
244	0xbc815222	-0.015786234
245	0xbe45b737	-0.19308172
246	0xbd9102bf	-0.07080602
247	0xbc47c8d1	-0.012193874
248	0x3e27619d	0.1634583
249	0x3e2692d7	0.16266952
250	0x3dd2c2d4	0.10291067
251	0x3e1346ad	0.1438243
252	0xbca8f9b0	-0.020626873
253	0x3dbc110b	0.09182938
254	0xbceeb600	-0.029139519
255	0x3df57317	0.11984842

weight f4 [32, 32, 5, 5]
0	0x3db20989	0.08693225
1	0xbe096523	-0.13417487
2	0x3df3c823	0.119034074
3	0x3de6a6b6	0.11262266
4	0x3d9e7ca4	0.07738617
5	0x3e074f6f	0.13213895
6	0xbe8c2d9b	-0.27378544
7	0xbd203b1b	-0.039118867
8	0xbe092ac8	-0.13395226
9	0xbea19eb4	-0.31566393
10	0xbc869526	-0.016428541
11	0xbd91eb5b	-0.071249686
12	0xbc01ba11	-0.007917897
13	0xbe58abd0	-0.21159291
14	0xbc89a261	-0.016801061
15	0xbdd91abd	-0.10600803
16	0xbeee3573	-0.46525154
17	0xbe7d0915	-0.24710496
18	0xbd405a49	-0.046961103
19	0xbeb9bbe5	-0.36276165
20	0x3d49bc87	0.04925206
21	0x3d5db3c2	0.05412651
22	0xbdccc0a6	-0.09997682
23	0x3c04c588	0.008103736
24	0x3d921e11	0.07134641
25	0x3ebb9534	0.3663727
26	0xbecb08ac	-0.39655054
27	0x3e706d1e	0.23479125
28	0x3efd1988	0.4943354
29	0x3ea99d1b	0.33127674
30	0x3cd6e6da	0.026233125
31	0x3e948f73	0.29015693
32	0xbe634074	-0.22192556
33	0xbd992229	-0.07477219
34	0x3ceb7c14	0.028745688
35	0x3da63bbc	0.08116862
36	0xbe519f98	-0.20471036
37	0xbe76fb32	-0.24119261
38	0x3d87c5f6	0.06629555
39	0xbe92c356	-0.28664654
40	0x3db410be	0.08792256
41	0x3da1b4f8	0.07895845
42	0xbbeb3931	-0.0071784486
43	0xbe467857	-0.19381844
44	0xbe8afe54	-0.27147162
45	0xbe21d08c	-0.1580221
46	0x3ed24068	0.41064763
47	0x3df3e9e6	0.11909847
48	0x3c4a07c6	0.012330955
49	0x3eb594ef	0.3546519
50	0xbd7ee2b8	-0.062227935
51	0xbe5f4de3	-0.21807055
52	0x3c952362	0.018205348
53	0x3e861d07	0.2619402
54	0x3e0771db	0.13227026
55	0x3ed3d3b0	0.41372442
56	0x3eb60202	0.35548407
57	0xbf02ba1d	-0.51065236
58	0xbf01f4d3	-0.507642
59	0xbe438547	-0.1909381
60	0xbe1cc83f	-0.15310763
61	0x3ea7d1ab	0.3277715
62	0xbe39510b	-0.18097322
63	0xbe79e587	-0.24403964
64	0x3daea89a	0.08528252
65	0x3e9c5937	0.30536816
66	0xbec382a1	-0.381856
67	0x3dfe4559	0.12415571
68	0x3db5fb5f	0.08885836
69	0xbe2fb072	-0.17157152
70	0x3dacb6ac	0.084332794
71	0xbe54e34c	-0.20789832
72	0x3c0776c4	0.008268062
73	0xbea4c81f	-0.3218393
74	0x3e9fc667	0.31206056
75	0x3da17e10	0.07885373
76	0xbe0a4dfd	-0.13506313
77	0x3eb9cfed	0.36291447
78	0xbeea2e7c	-0.4573859
79	0x3de8e774	0.11372271
80	0xbee8c335	-0.4546143
81	0x3e815dc7	0.2526686
82	0x3e4a1832	0.19735792
83	0xbf0d2456	-0.5513357
84	0xbdc79612	-0.097454205
85	0xbea2835f	-0.31740853
86	0xbe53e428	-0.20692503
87	0xbdb93c21	-0.09044672
88	0x3df107ce	0.11769067
89	0xbf0743af	-0.5283765
90	0xbf8d091a	-1.1018403
91	0xbd2ef58d	-0.042714644
92	0xbf05a95d	-0.5221155
93	0xbdb5db4f	-0.088797204
94	0x3e8a4a63	0.27009878
95	0xbd692c9e	-0.056927316
96	0x3e1cdd4d	0.15318795
97	0xbe43ad3e	-0.19109055
98	0x3e701f8c	0.23449534
99	0xbdff95a0	-0.124797106
100	0x3d82c9b7	0.0638613
101	0x3d31be44	0.043394342
102	0x3daf7f82	0.08569242
103	0x3f14883b	0.5802037
104	0xbf3a0007	-0.7265629
105	0xbe8187df	-0.25298974
106	0x3eb5fd8a	0.35544997
107	0xbda3b180	-0.0799284
108	0xbea372b8	-0.3192346
109	0xbe24aa41	-0.16080572
110	0xbe91699f	-0.28400895
111	0xbd5f9389	-0.05458406
112	0x3e5c0be7	0.21488915
113	0xbde8e008	-0.113708556
114	0x3f0ac3c0	0.5420494
115	0xbe3bb9cf	-0.18332599
116	0xbc6cbff4	-0.014450062
117	0xbec4625d	-0.38356295
118	0xbe278ebb	-0.16363041
119	0xbf018bfb	-0.5060422
120	0x3e281796	0.16415247
121	0x3dabd9ac	0.08391127
122	0x3e32189f	0.17392205
123	0xbdeb8623	-0.11500194
124	0xbd494976	-0.049142323
125	0xbd561857	-0.052269306
126	0xbc4dd8e4	-0.012563918
127	0x3d1b51f1	0.037919942
128	0xbdc14f3c	-0.09438941
129	0xbe1c979f	-0.15292214
130	0x3de08b75	0.10964099
131	0xbe4e04db	-0.2011904
132	0x3d03a622	0.03214086
133	0x3c84f9d6	0.016232412
134	0xbe427894	-0.1899131
135	0xbdadf5c6	-0.08494143
136	0xbdb55051	-0.0885321
137	0xbbf99a89	-0.007617299
138	0x3c4e103c	0.012577113
139	0x3c417753	0.011808234
140	0xbe88621b	-0.2663735
141	0xbfd07a1e	-1.6287267
142	0xbf2fd33a	-0.6868168
143	0xbe8b5687	-0.27214453
144	0xbf17c0d6	-0.5927862
145	0x3d0b2103	0.03396703
146	0xbea10539	-0.31449297
147	0xbbc141de	-0.0058977446
148	0xbe981b09	-0.29708126
149	0xbec066f6	-0.37578553
150	0x3e75df8b	0.24011056
151	0xbcb1ca04	-0.021702774
152	0xbd122497	-0.035679426
153	0xbea5d827	-0.32391474
154	0xbf221581	-0.6331406
155	0x3df82b9e	0.12117694
156	0x3e17931a	0.14802209
157	0xbea63d9d	-0.32468882
158	0xbd999dd0	-0.075008035
159	0xbf5db4b2	-0.86603844
160	0x3c908f29	0.01764639
161	0x3e81b646	0.25334376
162	0xbe2f472a	-0.1711699
163	0x3da72f8b	0.08163365
164	0x3e6699bf	0.22519587
165	0xbe84900b	-0.25891146
166	0xbe45d55e	-0.19319674
167	0xbeac8caf	-0.33701083
168	0x3d42bf0e	0.047545485
169	0xbde50800	-0.111831665
170	0xbbb711f8	-0.005586859
171	0x3dcc7232	0.099827185
172	0x3bca2ae4	0.0061696637
173	0x3ea11dac	0.3146795
174	0x3d65b6da	0.056082584
175	0xbdbc02ff	-0.09180259
176	0xbf0c90cb	-0.54908437
177	0x3ee5bc85	0.4487039
178	0xbd8e290a	-0.06941421
179	0xbdb4641c	-0.08808157
180	0xbcd22c14	-0.025655784
181	0x3e0b41c7	0.13599311
182	0x3d716e0b	0.058942836
183	0x3ebf078e	0.3731045
184	0xbf5e4e98	-0.86838675
185	0xbc798b83	-0.015231016
186	0xbe896207	-0.268326
187	0xbe1bfadd	-0.15232415
188	0x3e2914a1	0.16511776
189	0xbe79bd5a	-0.24388638
190	0x3e0610e2	0.13092378
191	0xbe1c1ff1	-0.1524656
192	0xbe88a3fb	-0.26687607
193	0x3e79638f	0.24354385
194	0x3dfd4c23	0.123680376
195	0xbe5f023f	-0.217782
196	0xbe368910	-0.17825723
197	0xbe10197c	-0.14072222
198	0x3e73a922	0.23794988
199	0x3cbd92b0	0.023141235
200	0x3ea99928	0.3312466
201	0xbe0aa24e	-0.13538477
202	0x3d72b8ac	0.059258148
203	0x3e9a0051	0.30078366
204	0x3de14584	0.10999587
205	0xbf43c3a9	-0.7647043
206	0x3ddd83fa	0.10816188
207	0xbe6f2b07	-0.23356257
208	0x3e5082c8	0.20362389
209	0xbd122ac1	-0.035685305
210	0xbf331053	-0.69946784
211	0x3e186cb4	0.14885217
212	0x3e22bc6c	0.1589219
213	0x3e0cb9ed	0.137428
214	0xbefd69e4	-0.4949485
215	0xbf06133a	-0.5237309
216	0xbea0f048	-0.3143332
217	0xbe2fafc2	-0.1715689
218	0x3ddf0deb	0.108913265
219	0x3cfeb264	0.031090923
220	0xbe7c6585	-0.24648102
221	0x3e456124	0.19275337
222	0xbd24a60d	-0.04019742
223	0xbe8e7bf2	-0.27828938
224	0x3e549659	0.20760478
225	0x3e26589b	0.16244738
226	0x3e5d6ea4	0.21624237
227	0xbeb775a4	-0.3583194
228	0xbd2ff240	-0.042955637
229	0xbd129c78	-0.03579375
230	0xbf08ef01	-0.5348969
231	0xbe7a89fb	-0.24466698
232	0x3bb0f55f	0.0054003443
233	0xbea92d67	-0.33042452
234	0xbecfcda8	-0.4058659
235	0xbf187e97	-0.5956816
236	0x3e27771c	0.1635403
237	0x3d0b9a96	0.03408297
238	0x3db78595	0.089610256
239	0xbca0dc7f	-0.01963639
240	0xbe814fff	-0.25256345
241	0x3e80eab9	0.2517908
242	0xbe976f02	-0.2957688
243	0x3dfee184	0.124453574
244	0xbf0e8126	-0.55665815
245	0xbe171845	-0.14755352
246	0x3e73b7f6	0.23800644
247	0x3dc1ceff	0.094633095
248	0x3d8a9203	0.06766131
249	0x3e565066	0.20929107
250	0x3effccff	0.49961087
251	0xbf065d0f	-0.52485746
252	0xbe19c86e	-0.15017864
253	0x3e6538fc	0.22385019
254	0x3e52b6cd	0.20577545
255	0xbebf1285	-0.37318817

weight f4 [64, 32, 5, 5]
0	0xbc802f1d	-0.015647465
1	0x3d3c1bb2	0.04592485
2	0xbbc9da19	-0.0061600325
3	0x3e5b3ab7	0.21409117
4	0xbe85960e	-0.26091045
5	0x3e84b4fe	0.25919336
6	0x3d99c83e	0.07508896
7	0x3e32d3b0	0.17463565
8	0xbcd044f9	-0.025423514
9	0x3dfe6914	0.12422386
10	0xbd355b03	-0.04427625
11	0xbe36167f	-0.17782019
12	0xbe3aaf7d	-0.18231006
13	0x3d0a02af	0.033693966
14	0x3f1e4960	0.6183071
15	0xbdcc8ccd	-0.09987793
16	0x3cf68a41	0.030095221
17	0x3ce7416c	0.028229438
18	0xbe56c28c	-0.20972651
19	0x3e937ff9	0.28808573
20	0xbdcc7ce4	-0.099847585
21	0xbeba2e1d	-0.36363307
22	0xbdaa9b1c	-0.08330366
23	0x3eadb51f	0.33927247
24	0x3db7d13b	0.089754544
25	0x3e9b537e	0.30337137
26	0xbedbc05a	-0.4292019
27	0x3e1bce6f	0.15215467
28	0xbcd2cbcf	-0.02573195
29	0x3cb73604	0.022364624
30	0x3d876252	0.0661055
31	0x3e863254	0.26210272
32	0x3e90710a	0.28211242
33	0xbefebd21	-0.4975367
34	0xbd809aac	-0.06279501
35	0xbded282d	-0.115799285
36	0xbd8729fd	-0.065998055
37	0x3f1f2bb7	0.6217608
38	0xba0735ab	-0.00051578385
39	0xbe6192ac	-0.22028607
40	0x3eaa98fa	0.33319837
41	0x3e9d150e	0.30680126
42	0xbef9ad2e	-0.48764938
43	0x3ed780cc	0.42090452
44	0xbcb3e6e4	-0.021960683
45	0xbd048fa5	-0.032363553
46	0x3f25159f	0.64486116
47	0x3eac4d25	0.33652607
48	0x3d697722	0.05699838
49	0xbdb0a679	-0.08625502
50	0xbe860886	-0.26178378
51	0xbd0cb432	-0.034351535
52	0x3eed8ec2	0.46397978
53	0x3e6846a5	0.22683199
54	0xbcbb5449	-0.022867339
55	0x3e838655	0.25688425
56	0xbe2838a8	-0.16427863
57	0xbf11404b	-0.5673873
58	0xbf4bd485	-0.79621154
59	0xbf094cce	-0.5363282
60	0x3e6e40c8	0.232669
61	0x3d4f0eb8	0.050551146
62	0xbe913aae	-0.28365082
63	0x3e8ef482	0.2792092
64	0xbe947768	-0.2899735
65	0x3e5aac8a	0.21354881
66	0x3e2579ed	0.16159792
67	0x3e287dc8	0.16454232
68	0xbdcec4f7	-0.10096162
69	0xbe11149d	-0.1416802
70	0x3f24c0d1	0.64356714
71	0x3d803905	0.062608756
72	0x3b3d3460	0.002887033
73	0x3d0c5c61	0.034267787
74	0xbdb3d304	-0.087804824
75	0xbec064a0	-0.3757677
76	0xbeb5e58e	-0.355267
77	0xbe22cb80	-0.15897942
78	0x3ea515bc	0.32243145
79	0xbe882c77	-0.26596424
80	0x3ef08a12	0.4698034
81	0x3df72076	0.12066738
82	0x3d2be1eb	0.0419635
83	0x3ee8983f	0.45428655
84	0x3e71c326	0.236096
85	0xbce7ef2d	-0.02831229
86	0xbe384d13	-0.17998151
87	0xbec23374	-0.3792988
88	0xbed5b325	-0.4173824
89	0xbf6d38ae	-0.9266461
90	0xbed56396	-0.4167754
91	0x3d1044a2	0.035221703
92	0xbf8ccc9b	-1.0999941
93	0x3e0b346e	0.13594219
94	0x3e20cf3b	0.15704052
95	0x3e70cecc	0.23516387
96	0xbc6ce5d9	-0.014459097
97	0x3b5ad4f8	0.00333911
98	0x3f171cf9	0.59028584
99	0x3d227b3e	0.039668314
100	0xbb312314	-0.0027028965
101	0x3e61d8dd	0.22055383
102	0x3ea86d81	0.32896045
103	0xbc64d270	-0.013966188
104	0x3e033140	0.12811756
105	0xbe1829e2	-0.14859727
106	0xbd188736	-0.037238322
107	0x3d8aca42	0.06776859
108	0x3c9effca	0.01940908
109	0x3f2d9a6a	0.6781374
110	0x3ebbf011	0.36706594
111	0xbdb030c4	-0.08603051
112	0xbe04e15b	-0.12976591
113	0x3e056c50	0.13029599
114	0xbe3717a8	-0.17880118
115	0xbdb2467d	-0.08704851
116	0xbdf284f9	-0.11841769
117	0xbd3bf22f	-0.04588526
118	0xbf14b7c5	-0.5809291
119	0xbf20fbcd	-0.6288422
120	0xbeb05870	-0.34442472
121	0xbd8c6c07	-0.06856542
122	0x3dd3d434	0.10343209
123	0x3ed07bdb	0.40719494
124	0xbe92fe9e	-0.28709882
125	0x3cee15c6	0.029063117
126	0xbef3c2ae	-0.47609466
127	0xbeb06cc1	-0.34457973
128	0x3eaa1e70	0.33226347
129	0xbf4722a4	-0.7778723
130	0x3ee33e3e	0.44383425
131	0xbee027c0	-0.43780327
132	0x3d2fe5cd	0.042943764
133	0xbcb29959	-0.021801637
134	0xbdc935cf	-0.09824716
135	0x3d057fbf	0.03259253
136	0x3e7d4f02	0.2473717
137	0x3e100dc8	0.14067757
138	0xbd42da59	-0.047571514
139	0xbe656bc6	-0.22404394
140	0xbf0c76a2	-0.5486852
141	0xbe1139f3	-0.14182262
142	0x3cbedfd4	0.023300089
143	0xbdf48f90	-0.11941445
144	0xbce4460f	-0.027865438
145	0xbeb59061	-0.35461715
146	0xbe177025	-0.14788873
147	0x3e846b97	0.25863335
148	0xbda5bb39	-0.080923505
149	0x3e08727c	0.13324922
150	0x3cb0398b	0.021511814
151	0xbece9393	-0.40346965
152	0x3dc8fee5	0.09814242
153	0x3d9b2fe3	0.07577493
154	0xbe6a2cb3	-0.22868614
155	0x3dc7f4a9	0.09763462
156	0x3dcd25e3	0.10016992
157	0x3e84fa9a	0.25972444
158	0xbd720860	-0.05909002
159	0x3d910ddb	0.07082721
160	0xbd999939	-0.07499928
161	0x3e7c8e7d	0.2466373
162	0x3e59c37b	0.21265976
163	0xbe5c8154	-0.2153371
164	0xbe3a5d8a	-0.18199745
165	0x3d304c65	0.043041606
166	0xbd4dbdb8	-0.050229758
167	0xbd8af019	-0.06784076
168	0xbdbfb299	-0.09360237
169	0xbecf82b7	-0.40529415
170	0x3eb859cc	0.3600601
171	0x3e1d8f12	0.15386608
172	0x3e0c370e	0.13692877
173	0xbdea3f5d	-0.11437867
174	0xbe4bdf56	-0.19909415
175	0xbca77821	-0.020443024
176	0xbe93b7ea	-0.28851253
177	0x3e15369e	0.14571616
178	0xbe0fb619	-0.14034308
179	0x3d87b79c	0.066268176
180	0x3e8c2486	0.27371615
181	0xbc895882	-0.016765837
182	0x3e359506	0.17732629
183	0x3daaec63	0.083458684
184	0xbe45fca4	-0.19334656
185	0x3e27afdf	0.16375683
186	0x3dd9faab	0.10643514
187	0xbe63e36c	-0.22254723
188	0x3e8ef76a	0.27923137
189	0x3f12c3ce	0.57330024
190	0xbdf26cda	-0.11837168
191	0xbe84897f	-0.2588615
192	0xbd98807c	-0.074463814
193	0xbe4c94ff	-0.19978712
194	0xbe2fc918	-0.17166555
195	0x3e7afb9b	0.24510042
196	0xbe67c61e	-0.2263417
197	0xbd4505e8	-0.048101336
198	0xbf4d72be	-0.8025321
199	0xbe5ec609	-0.21755232
200	0x3e1d4854	0.15359622
201	0x3ece9d37	0.4035432
202	0xbe6d7a36	-0.23191151
203	0xbef28c1a	-0.47372514
204	0x3df32501	0.11872292
205	0x3ede2d96	0.43394154
206	0xbf4a6d89	-0.7907339
207	0x3dcfb2e7	0.10141545
208	0xbefed40c	-0.49771154
209	0x3e6d65cd	0.23183365
210	0x3e882b9d	0.26595774
211	0x3e567006	0.20941171
212	0xbd600053	-0.05468781
213	0x3cefe781	0.029285194
214	0xbf10453e	-0.56355655
215	0x3e989822	0.29803568
216	0xbd85ac85	-0.06527046
217	0x3c1dd7e7	0.009633995
218	0xbe20a534	-0.1568802
219	0x3ebb8260	0.36622906
220	0x3ecd9bf6	0.4015805
221	0x3dd274f6	0.10276215
222	0xbdb2a02a	-0.08721955
223	0x3c838cc0	0.016058326
224	0xbd87c9e5	-0.06630305
225	0x3eae6735	0.34063116
226	0x3e1409ee	0.14456913
227	0x3bded687	0.006800476
228	0x3c4e1460	0.0125781
229	0x3ecd6d98	0.40122676
230	0x3e0dca5e	0.13846728
231	0x3e1b6175	0.15173896
232	0x3e87729f	0.26454636
233	0xbcfbf0c5	-0.030754456
234	0x3e97c0bd	0.29639235
235	0x3c6ceddb	0.014461006
236	0xbd915d02	-0.07097818
237	0xbd6dc7a6	-0.058051728
238	0x3e1d9825	0.1539007
239	0x3d23044f	0.03979903
240	0x3ef3a0f8	0.47583747
241	0x3e30f8b5	0.17282374
242	0xbeb7d803	-0.3590699
243	0x3eb16f79	0.3465536
244	0xbba8b008	-0.0051479377
245	0xbe2d3f4b	-0.16918676
246	0xbe57b8a1	-0.21066524
247	0x3e610abe	0.21976754
248	0x3eb47543	0.35245714
249	0xbe0b755f	-0.13618992
250	0x3e3030f8	0.1720618
251	0x3e61ad67	0.22038804
252	0x3e49a76e	0.19692776
253	0xbe91ef74	-0.28503
254	0x3eb77b2d	0.35836163
255	0x3ef29ab7	0.47383663

weight f4 [256, 256]
0	0x3c62d34e	0.013844324
1	0x3d19e513	0.037571978
2	0x3bad193a	0.0052825483
3	0x3dab5522	0.08365847
4	0x3db60ca3	0.08889129
5	0xbcaa12b2	-0.020760868
6	0xbd90b996	-0.07066648
7	0xbdd08768	-0.10182077
8	0x3c57bf4c	0.013168167
9	0xbdfb51e3	-0.12271478
10	0xbd8534f1	-0.065042384
11	0x3d3eeeaf	0.046614345
12	0x3dc2ea05	0.09517292
13	0x3e60fa71	0.21970536
14	0xbcbed6e7	-0.023295833
15	0x3d01dcc9	0.031704698
16	0xbe5ad02d	-0.21368475
17	0x3e87376a	0.26409465
18	0x3db0d64a	0.086346224
19	0xbd640214	-0.055666044
20	0xbdf8567f	-0.12125873
21	0x3d4010c5	0.046890993
22	0xbcf57700	-0.02996397
23	0xbdc140ff	-0.09436225
24	0x3d96ab6b	0.07356914
25	0xbe1532c1	-0.14570142
26	0xbe234a33	-0.15946274
27	0xbd0721c2	-0.03299118
28	0xbb163c82	-0.002292425
29	0x3c360ef6	0.011111965
30	0xbc0e21c6	-0.008675044
31	0x3cac2fcc	0.021018885
32	0x3ee777f2	0.452087
33	0xbe0cf14a	-0.1376392
34	0x3c6e4d76	0.014544835
35	0x3d2781a6	0.040895127
36	0x3b2907b5	0.0025791947
37	0xbba5ae6a	-0.005056192
38	0xbc6bbc3e	-0.014388142
39	0xbb8e7e18	-0.0043485276
40	0xbbc152b9	-0.005899754
41	0xbeab4fab	-0.3345922
42	0x3bffe1ac	0.0078088846
43	0xbd53ad75	-0.051679093
44	0x3c8af9e0	0.016964853
45	0x3b62d75b	0.0034613225
46	0xbd16de8c	-0.03683333
47	0x3ce02472	0.027361128
48	0xbdb57d64	-0.08861807
49	0x3d1eb5f2	0.038747735
50	0xbd2a5a1f	-0.041589852
51	0x3e1846fb	0.14870827
52	0xbc8436ad	-0.016139353
53	0x3bed4680	0.0072410703
54	0xbd7cd738	-0.061728686
55	0xbdb984cd	-0.09058533
56	0xbd529463	-0.051411044
57	0xbedb256c	-0.42801988
58	0x3e735a79	0.23764981
59	0xbd40d844	-0.047081247
60	0x3e5fc94c	0.21854132
61	0x3e894874	0.2681309
62	0xbd1df4ba	-0.038563468
63	0xbe7980b6	-0.24365506
64	0xbd9a6e23	-0.07540538
65	0xbd999389	-0.07498843
66	0xbdb1ff93	-0.08691325
67	0x3d9b8e75	0.07595531
68	0x3e383d76	0.17992195
69	0x3cd735b9	0.026270734
70	0x3cc977bc	0.024593227
71	0xbd8bf636	-0.068340704
72	0xbd96eca2	-0.07369353
73	0xbd87627c	-0.06610581
74	0x3d937196	0.07199399
75	0xbb908a2d	-0.004411003
76	0xbe128bf4	-0.143112
77	0x3d3fc226	0.046816014
78	0xbd36dc2b	-0.044643562
79	0xbb12cf4e	-0.0022401395
80	0x3d3822d5	0.044955093
81	0xbce22602	-0.027606014
82	0x3dfbeace	0.12300645
83	0x3ddd0faa	0.10794003
84	0xbe0a70d2	-0.135196
85	0xbd40ab05	-0.047038097
86	0x3c82facd	0.015988732
87	0xbc644c14	-0.013934154
88	0xbb7d061c	-0.0038608378
89	0x3d39d331	0.045367423
90	0xbdb23c0e	-0.08702861
91	0xbad1f032	-0.0016017018
92	0x3d1254dd	0.035725463
93	0xbd36a44f	-0.04459029
94	0x3d2bed74	0.0419745
95	0xbdb71263	-0.08939054
96	0x3eeb5580	0.4596367
97	0x3db2a132	0.08722152
98	0xbc73223a	-0.014839703
99	0xbc912e40	-0.017722249
100	0x3e79473b	0.24343579
101	0xbddbf4fe	-0.10740088
102	0x3e537b9d	0.20652623
103	0xbf0eb5fe	-0.5574645
104	0x3de88438	0.11353344
105	0x3da12c96	0.07869832
106	0x3bbe1399	0.005800676
107	0x3de14f72	0.11001481
108	0x3e09d92d	0.13461752
109	0x3c409fa5	0.011756812
110	0x3e250136	0.16113743
111	0x3e4da0d4	0.20080882
112	0xbd4e452e	-0.050358944
113	0xbda3722f	-0.07980763
114	0xbd1883ab	-0.037234943
115	0x3a9fd5d7	0.0012194467
116	0xbdb71327	-0.089392
117	0x3cf398e5	0.029735992
118	0xbc16bded	-0.009200555
119	0x39652967	0.00021854565
120	0xbe4e5d2b	-0.20152728
121	0x3d6e8789	0.058234725
122	0xbe8ce331	-0.27517083
123	0xbe901fbe	-0.28149217
124	0x3d5d125a	0.05397258
125	0x3d08c9cc	0.033395573
126	0xbc945c5e	-0.01811045
127	0xbdbe7f5f	-0.09301638
128	0xbd7ebfbd	-0.062194575
129	0xbe108974	-0.14114934
130	0xbe1009ab	-0.14066188
131	0x3e6e9095	0.23297341
132	0x3da6aac4	0.0813804
133	0xbdb3cfde	-0.08779882
134	0xbd9ab6ff	-0.07554435
135	0xbcb80926	-0.0224653
136	0xbc8fa291	-0.017533572
137	0x3d034e27	0.032056954
138	0xbafef3bf	-0.0019451304
139	0xbd1f43e8	-0.03888312
140	0xbdc72e79	-0.09725661
141	0xbc85dbec	-0.016340218
142	0x3dc17d04	0.09447673
143	0x3cd4bee2	0.025969926
144	0x3d0c1c47	0.034206655
145	0x3da360d5	0.079774536
146	0x3d89dd48	0.06731659
147	0xbd5b18a0	-0.05349028
148	0xbd1c1bfe	-0.038112633
149	0x3d857810	0.06517041
150	0xbcd9ee45	-0.026602874
151	0xbcc22838	-0.023700818
152	0x3d80ad7b	0.06283089
153	0x3daf9498	0.08573264
154	0x3da0c28b	0.07849606
155	0xbe219cec	-0.15782517
156	0x3d5a3526	0.053273343
157	0xbda7732b	-0.081762634
158	0xbdd06db0	-0.10177171
159	0x3de63888	0.11241251
160	0xbd77fdb2	-0.060544677
161	0x3d121704	0.03566648
162	0xbd63d08c	-0.055618808
163	0x3da46011	0.08026136
164	0xbdd94629	-0.10609085
165	0x3d3480bc	0.044068083
166	0x3d9942c2	0.07483436
167	0xbb7a9e20	-0.0038241223
168	0x3db599fe	0.08867262
169	0x3dd39dd4	0.10332838
170	0x3d41c663	0.047308337
171	0x3db1cf4b	0.08682116
172	0xbd84cb39	-0.06484074
173	0xbd9eee6d	-0.0776032
174	0xb8f67de5	-0.00011753644
175	0xbedacd10	-0.42734575
176	0x3d85a309	0.06525237
177	0x3b84449f	0.0040365006
178	0x3db04b18	0.08608073
179	0xbda770ca	-0.0817581
180	0xbd782c7c	-0.0605893
181	0xbd9b25f6	-0.075756
182	0xbc2c1549	-0.010503122
183	0x3c233791	0.0099619785
184	0xbe4f216a	-0.2022759
185	0xbdd1ba2a	-0.10240586
186	0x3d117120	0.035508275
187	0xbdedb876	-0.11607449
188	0x3bb59e23	0.005542533
189	0x3db0cdb7	0.08632987
190	0xbd8064c7	-0.06269222
191	0xbce63141	-0.028099658
192	0xbcfdf4c9	-0.031000512
193	0xbe2a7306	-0.1664544
194	0x3d3d8b6d	0.046275545
195	0x3eb354e4	0.35025704
196	0x3a6c0f5f	0.0009004976
197	0xbc790e4d	-0.0152011635
198	0xbd417879	-0.047234032
199	0x3cbd2033	0.023086643
200	0xbda91a2d	-0.08256946
201	0xbe23e30d	-0.16004582
202	0x3e0edb30	0.13950801
203	0xbc7cd833	-0.015432405
204	0x3dbedbd5	0.093192734
205	0x3dbf734c	0.09348163
206	0x3e1b5975	0.15170844
207	0x3d016baf	0.031596836
208	0x3df1221a	0.117740825
209	0x3d2ed3e3	0.04268254
210	0x3bb05559	0.005381268
211	0xbc841732	-0.016124342
212	0x3eb21f04	0.34789288
213	0xbc1526bf	-0.009103476
214	0xbe71bf3d	-0.23608108
215	0xbe14e247	-0.14539443
216	0x3dd5965c	0.104290694
217	0x3dedb9b8	0.11607689
218	0xbddbe7d4	-0.10737577
219	0x3c0a8762	0.008455129
220	0xbc911e7f	-0.017714737
221	0x3d280554	0.041020706
222	0xbd2e717a	-0.04258869
223	0x3c9aaa04	0.018879898
224	0xbc17cb9c	-0.009264853
225	0x3d440efc	0.047865853
226	0x3db8eea5	0.09029893
227	0xbc23c08b	-0.009994636
228	0x3d3f2b57	0.04667219
229	0x3d557765	0.052115817
230	0x3d0c151f	0.03419983
231	0xbdb0749c	-0.086159915
232	0xbd614c6f	-0.055004533
233	0x3d380e0f	0.044935282
234	0x3d8a1a08	0.06743246
235	0x3d813812	0.06309523
236	0xbea1e933	-0.3162323
237	0xbd5785d8	-0.052617878
238	0x3e96db3e	0.29464144
239	0x3c554d96	0.013018986
240	0x3e384d84	0.1799832
241	0x3cae8bbd	0.021306867
242	0xbde40d08	-0.11135298
243	0xbd57e9ae	-0.05271309
244	0xbd949418	-0.07254809
245	0x3d67913d	0.056534994
246	0x3d661033	0.056167793
247	0x3d92de9c	0.071713656
248	0x3df73179	0.12069983
249	0x3d0f5596	0.03499373
250	0x3db7b44c	0.08969936
251	0x3db5b7e2	0.088729635
252	0x3c6f3896	0.0146008935
253	0xbbe0b8f2	-0.0068579847
254	0x3d08bee3	0.03338517
255	0x3bc16b80	0.0059027076

bias f4 [256]
0	0x3c80a765	0.01570482
1	0x3c4606d8	0.012086593
2	0x3d8eca3d	0.06972168
3	0xbc2810d5	-0.010257919
4	0xbd06980f	-0.032859858
5	0xbdcc294d	-0.09968815
6	0xbd4bbbed	-0.049739767
7	0x3d754ac9	0.059885774
8	0x3e1346f4	0.14382535
9	0xbded25c0	-0.11579466
10	0x3cbf7022	0.023368899
11	0xbc8314c5	-0.016001115
12	0x3da55e05	0.080745734
13	0xbd9d4eea	-0.07681067
14	0xbd056a9d	-0.032572377
15	0xbd047fad	-0.032348324
16	0xbc651d85	-0.013984089
17	0xbd2d614a	-0.04232911
18	0x3d8e15c6	0.06937747
19	0xbd8a1b44	-0.06743482
20	0x3c96acd5	0.01839296
21	0xbd7f1c27	-0.062282708
22	0x3d978450	0.073982835
23	0x3e3f4390	0.18678117
24	0xbe0d3b37	-0.1379212
25	0x3de71dfa	0.112850145
26	0x3d2957b2	0.0413434
27	0xbd94fa83	-0.07274344
28	0xbdd5ac02	-0.104331985
29	0xbdfeb7af	-0.124373786
30	0x3df365df	0.11884665
31	0x3dd5e239	0.10443539
32	0xbcb659bb	-0.022259584
33	0xb99e3f48	-0.00030183257
34	0x3d84f8e5	0.06492785
35	0xbb818e7b	-0.0039537526
36	0xbdf06352	-0.11737694
37	0xbc0e8e58	-0.00870093
38	0xbd1e7aea	-0.03869144
39	0xbe1e39e6	-0.15451774
40	0xbd5d696d	-0.05405562
41	0x3d3f2ffd	0.046676625
42	0x3d04c8fc	0.032418236
43	0xbdb9ae08	-0.09066397
44	0xbd0e9fa7	-0.034820225
45	0x3ce88bda	0.028386999
46	0x3ddc20e2	0.107484594
47	0x3e0dc399	0.13844146
48	0x3bd065f5	0.0063598105
49	0x3d77a767	0.06046238
50	0xbd28cf13	-0.041213106
51	0x3ca63656	0.020289581
52	0xbe000db4	-0.12505227
53	0x3dd7e2e8	0.10541326
54	0x3de6319b	0.1123993
55	0xbd13087f	-0.035896774
56	0xbccd2409	-0.025041597
57	0x3d3e3e38	0.046446055
58	0x3e3e8b2b	0.18607776
59	0x3c9fd699	0.019511508
60	0xbc7cd3eb	-0.015431385
61	0x3d3bcbdf	0.045848724
62	0xbdeefa5c	-0.11668846
63	0x3c8a8441	0.016908767
64	0x3ace9390	0.001576053
65	0x3d334633	0.04376812
66	0x3b4b9c7c	0.0031068614
67	0xbd4b54d4	-0.049641445
68	0xbda4b0a6	-0.080415055
69	0xbe51a6ce	-0.20473787
70	0xbd5ac577	-0.053410973
71	0xbca809d1	-0.020512493
72	0xbd9fa127	-0.07794409
73	0x3da13102	0.078706756
74	0x3d03edc1	0.03220916
75	0x3c9a2352	0.01881567
76	0x3c2a2dc9	0.010386893
77	0x3d26799c	0.04064332
78	0x3d28dd18	0.041226476
79	0xbd416b17	-0.04722127
80	0xbe0c9a81	-0.13730814
81	0x3cf6e262	0.030137245
82	0xbb47119b	-0.0030375484
83	0xbcde2789	-0.027118461
84	0xbdd358f0	-0.10319698
85	0x3daea038	0.08526653
86	0x3d9c3fc6	0.07629351
87	0x3d15ed58	0.0366033
88	0x3e2e6e20	0.17034197
89	0xbd4a602c	-0.049408123
90	0x3d8d45a0	0.068980455
91	0x3befee6f	0.0073221247
92	0x3d1f4520	0.038884282
93	0x3dcb80ef	0.099367015
94	0x3da1d5a3	0.07902076
95	0x3d4dedb9	0.050275538
96	0xbe14e682	-0.14541057
97	0x3e5582e3	0.2085071
98	0xbe056d1e	-0.13029906
99	0x3b34da08	0.0027595777
100	0x3d71674d	0.058936406
101	0xbdf47b1b	-0.11937543
102	0xbde3999d	-0.11113284
103	0x3b8d7fc7	0.0043182108
104	0xbd9d0b47	-0.076681666
105	0xbd4b7a30	-0.049677074
106	0xbd859437	-0.0652241
107	0x3de473fa	0.11154933
108	0x3e0b66b9	0.13613404
109	0x3d4d96eb	0.050192755
110	0xbd62355b	-0.055226665
111	0x3dc191e4	0.094516546
112	0x3b8e5cbd	0.0043445514
113	0x3c5d3cb1	0.0135032395
114	0xbd6d9297	-0.058001127
115	0x3c9d04e4	0.019167371
116	0xbdc2f7cb	-0.09519919
117	0xbe011edb	-0.12609427
118	0xbc3d814d	-0.011566472
119	0xbd96e295	-0.07367436
120	0xbca9223a	-0.020646203
121	0x3e0fcd61	0.1404319
122	0x3d658900	0.056038857
123	0xbc7f4cde	-0.015582291
124	0xbc55ad18	-0.013041757
125	0x3ce2b1c1	0.02767265
126	0xbcee3124	-0.029076166
127	0xbb8bf837	-0.004271533
128	0xbd9527c4	-0.07282975
129	0x3cd967f4	0.026538827
130	0x3d3799db	0.044824462
131	0x3d8d33d7	0.06894653
132	0xbdc96cc7	-0.09835201
133	0x3bd9dc52	0.0066485787
134	0x3dbb73db	0.09152957
135	0x3d9cd158	0.07657117
136	0xbdc1928d	-0.094517805
137	0xbc8f5c99	-0.017500209
138	0xbd46e33a	-0.048556544
139	0xbda9c97b	-0.082903825
140	0x3dca3d78	0.098750055
141	0xbbee526f	-0.0072730104
142	0xbd12d4bb	-0.035847407
143	0xbdc7d8b9	-0.097581334
144	0x3d5abdab	0.053403538
145	0x3c96d25f	0.01841086
146	0xbcfbf686	-0.0307572
147	0x3e395e85	0.18102463
148	0x3cef76ce	0.029231455
149	0x3e0eb628	0.13936675
150	0xbd0f7ced	-0.035031248
151	0x3d6fca31	0.058542434
152	0x3d2185aa	0.039434113
153	0x3d0d6527	0.034520295
154	0xbc3d91ce	-0.011570407
155	0xbb252b7b	-0.0025202918
156	0x3dc74644	0.09730199
157	0x3c4474b3	0.011990714
158	0xbdfbebfb	-0.12300869
159	0xbdd20849	-0.102554865
160	0x3cee1e77	0.029067261
161	0xbcaeb99c	-0.02132874
162	0xbc0bbd73	-0.008529055
163	0xbc2b3673	-0.010449993
164	0x3d9a2bbf	0.07527875
165	0xbe22586d	-0.15854044
166	0x3d8c745b	0.068581305
167	0xbd37c3b0	-0.044864357
168	0xbc686d8c	-0.014186274
169	0xbd3e40f0	-0.046448648
170	0xbbe03097	-0.00684173
171	0x3d4359e9	0.047693167
172	0xbca7bf2c	-0.0204769
173	0xbd2d916d	-0.042375017
174	0x3d05eada	0.032694675
175	0x3dc99489	0.09842784
176	0x3d5ea886	0.054359935
177	0xbd9f2018	-0.07769793
178	0xbdc96953	-0.09834542
179	0xbdf63097	-0.120209865
180	0x3d753446	0.059864305
181	0xb972731a	-0.00023121797
182	0x3e1e6551	0.15468337
183	0xbd026495	-0.031834204
184	0x3d1acde7	0.03779402
185	0xbdae53b5	-0.085120596
186	0x3e159df8	0.14611042
187	0xbce1d374	-0.027566649
188	0xbd77b930	-0.060479343
189	0xbd74cdf3	-0.05976672
190	0xbcd5f2b0	-0.026116699
191	0xba552508	-0.0008130823
192	0xbcbf8104	-0.02337695
193	0x3df7624e	0.12079297
194	0xbdb2bea1	-0.08727766
195	0x3dba7aa9	0.09105427
196	0x3cc9ca5a	0.024632622
197	0xbd491925	-0.049096245
198	0x3c8096fd	0.015696997
199	0x3d380978	0.044930905
200	0x3d5bed46	0.05369308
201	0xbdb75ced	-0.08953271
202	0x3db2781f	0.087143175
203	0xbcef4bc7	-0.029210938
204	0x3cbb3dbd	0.022856588
205	0xbd3be353	-0.04587109
206	0x3ce91e96	0.028456967
207	0x3d35ffb5	0.044433314
208	0x3e10f01b	0.14154093
209	0x3cbe3cf3	0.023222422
210	0xbd509379	-0.05092189
211	0xbd9d987b	-0.07695099
212	0xbd016d92	-0.031598635
213	0x3ddf5717	0.10905283
214	0xbdb6d706	-0.08927731
215	0x3dcb8cdd	0.09938977
216	0x3cb3c603	0.021945005
217	0x3e25b736	0.1618317
218	0x3d0bb50d	0.03410821
219	0xbc9415ef	-0.018076865
220	0x3d381d9f	0.044950124
221	0xbc23af2f	-0.0099904975
222	0x3d743d83	0.059628975
223	0x3dd6e043	0.10491993
224	0x3df5adb5	0.119960226
225	0xbb7930ee	-0.003802355
226	0x3cbef7c2	0.0233115
227	0xbcdb0c1a	-0.026739169
228	0xbbbd686e	-0.0057802713
229	0x3b824576	0.0039755655
230	0x3bab063c	0.005219249
231	0xbe072d07	-0.1320077
232	0xbd5925d4	-0.05301459
233	0x3dd2c720	0.10291886
234	0xbd3b4347	-0.045718458
235	0x3db59c83	0.08867743
236	0xbd30c430	-0.04315585
237	0x3da2b6e6	0.07945041
238	0xbe0d6862	-0.1380935
239	0xbc2b2c2b	-0.010447542
240	0xbd05c47e	-0.032658093
241	0x3ba00d1f	0.0048843767
242	0xbbf39596	-0.0074336035
243	0xbe176de2	-0.1478801
244	0x3d967412	0.073463574
245	0x3b789956	0.0037933192
246	0xbb5c0532	-0.0033572433
247	0x3d403dfe	0.04693412
248	0xbd96250d	-0.073312856
249	0x3d509aea	0.050928988
250	0x3aad6c5d	0.0013231147
251	0xbb7c7adf	-0.0038525385
252	0xbde71b4e	-0.11284505
253	0xbc7cadab	-0.015422265
254	0x3d723c8a	0.059139766
255	0x3de12f23	0.10995319

weight f4 [256, 256]
0	0x3c1c69b9	0.009546691
1	0xbd26bc2d	-0.040706802
2	0x3c8f5151	0.01749483
3	0x3cdb75d0	0.026789576
4	0x3aad4345	0.00132189
5	0xbd31b74b	-0.043387692
6	0xbc494197	-0.012283704
7	0x3cf8d3c0	0.030374408
8	0xbc41364b	-0.01179273
9	0xbc429a0a	-0.011877546
10	0xbc90a210	-0.017655402
11	0x3c0815af	0.008305951
12	0xb99713b8	-0.00028815656
13	0xbd815523	-0.06315067
14	0x3d43f96a	0.04784528
15	0xbb2c92bd	-0.002633258
16	0xbb9cfbb6	-0.0047907485
17	0x3b51c55b	0.0032008502
18	0xbd353b11	-0.044245783
19	0xbd1fbf30	-0.03900069
20	0xbd0b464b	-0.034002583
21	0x3d7fe2d5	0.062472183
22	0xbcd58f5a	-0.026069332
23	0xbd7c6371	-0.061618272
24	0x3cf0aedb	0.029380253
25	0x3c818e8b	0.01581504
26	0xbcb45d7a	-0.02201723
27	0x3d336b25	0.043803353
28	0x3d251d82	0.040311344
29	0x3dbf4214	0.09338775
30	0xbcb3bbe2	-0.021940175
31	0xbd34e6be	-0.044165365
32	0x3d84b948	0.06480652
33	0xbd092ac5	-0.033488054
34	0x3c2ae3d8	0.010430299
35	0x3b4ff4f0	0.0031731687
36	0x3d36a900	0.044594765
37	0xbbd5c76b	-0.0065240166
38	0x3ad5136a	0.0016256396
39	0x3d4e027e	0.050295345
40	0xbd925c13	-0.07146468
41	0xbd1ad063	-0.03779639
42	0x3c31bbae	0.010847969
43	0xbc38e350	-0.011284664
44	0x3cf58690	0.029971391
45	0xbcf0d09a	-0.029396344
46	0x3d10b79f	0.035331365
47	0x3da85d86	0.08220963
48	0x3cf1e8a9	0.029529886
49	0x3c0f0aa4	0.008730564
50	0x3d26a07f	0.040680405
51	0xbbf6f4e4	-0.0075365175
52	0xbc700863	-0.014650437
53	0x3bee35d2	0.0072695995
54	0x3cdfc99d	0.027317816
55	0x3d10dfb4	0.03536959
56	0x3d2afbc3	0.041744005
57	0xbbb1aaf4	-0.0054219905
58	0xbd0b0cee	-0.033947878
59	0xbc96b74e	-0.018397953
60	0x3d20d153	0.039262127
61	0xbd22c030	-0.039734066
62	0x3c62e00b	0.013847361
63	0xbc1bf039	-0.009517723
64	0xbb090d2c	-0.0020912392
65	0xbce112ef	-0.027474849
66	0x3a272138	0.00063754944
67	0x3d19d662	0.037557967
68	0xbc8a8502	-0.016909126
69	0x3c68d45f	0.014210789
70	0x3babb31b	0.005239857
71	0x3d12fd92	0.035886355
72	0xbcf0be8c	-0.029387735
73	0xbd1d9a0c	-0.03847699
74	0x3d0bbb5d	0.03411423
75	0x3da23a68	0.07921296
76	0x3cd0cab3	0.02548728
77	0xbd59edcf	-0.053205308
78	0x3cb1b098	0.021690652
79	0xbc2f3f54	-0.010696251
80	0xbc982759	-0.01857345
81	0x3cbd2f1d	0.023093754
82	0x3ccc29c0	0.024922252
83	0xbd95d090	-0.07315171
84	0x3d1c5edb	0.0381764
85	0x3c5d3fd1	0.013503985
86	0xbc225313	-0.009907502
87	0xbd00f445	-0.031482954
88	0x3d435b59	0.047694538
89	0x3cd6bda3	0.026213473
90	0x3c483f65	0.012222146
91	0xbd25528a	-0.04036192
92	0x3bb09da3	0.0053898855
93	0xbd3280b3	-0.04357977
94	0x3c8efa38	0.017453298
95	0xba35177c	-0.00069081015
96	0xbcadc8cf	-0.021213917
97	0xbce5abec	-0.02803608
98	0xbcb74055	-0.022369543
99	0xbd371f22	-0.044707425
100	0xbcaf5ded	-0.021407092
101	0xbd640039	-0.055664275
102	0x3ca4e117	0.020126862
103	0xbc6de7ca	-0.014520595
104	0x3c30f8f5	0.0108015435
105	0x3cd8d3fb	0.026468268
106	0xbc248292	-0.010040896
107	0xbd43236d	-0.047641207
108	0xbd3e0d55	-0.046399433
109	0xbd44342d	-0.04790132
110	0xbdb559a1	-0.08854986
111	0xbd142de6	-0.036176585
112	0x3e07d859	0.13266124
113	0x3c926656	0.017871063
114	0x3c78784d	0.015165401
115	0x3d9d5656	0.07682483
116	0xbb223ecf	-0.0024756675
117	0xbaee6e39	-0.0018190808
118	0x3d565abe	0.052332632
119	0x3bd485a8	0.0064856596
120	0x3c3bcc61	0.011462302
121	0xbc7d4966	-0.015459394
122	0xbbe5ecd2	-0.0070167566
123	0xbced98e6	-0.029003572
124	0xba8e4ba2	-0.001085628
125	0xbc5b0119	-0.013366961
126	0xbcb0b045	-0.021568427
127	0xbc3c58d5	-0.011495789
128	0x3c9602b1	0.01831183
129	0x3b6d160d	0.0036176473
130	0x3be96d69	0.0071236384
131	0x3dc589be	0.09645413
132	0xbbbc192e	-0.0057403063
133	0x3d1d392b	0.038384598
134	0xbd40461b	-0.046941858
135	0x3c31d570	0.01085411
136	0xbcde0b4a	-0.027104992
137	0xbc60ac2c	-0.013712924
138	0xbd1dd351	-0.038531605
139	0x3c262f25	0.010143076
140	0x3afe99e8	0.001942453
141	0x3cd833b3	0.02639184
142	0x3cad7404	0.021173485
143	0xbb8b4e23	-0.004251258
144	0x3d16d5b5	0.0368249
145	0xbd1b5607	-0.03792384
146	0xbd8581b1	-0.06518877
147	0xbcd7b9fe	-0.026333805
148	0xbd4591d3	-0.048234772
149	0xbc802156	-0.015640896
150	0x3934ccc6	0.00017242422
151	0x3d3df814	0.046379164
152	0xbc69f7ee	-0.014280302
153	0xbd19fb3a	-0.037593104
154	0x3d1093f9	0.035297368
155	0xbd94ca48	-0.072651446
156	0xbd54d1ac	-0.05195777
157	0x3c6ec9e7	0.014574504
158	0xbc298460	-0.010346502
159	0x3caf5eb7	0.021407468
160	0x3d5d1112	0.053971358
161	0x3cd970dc	0.026543073
162	0xbc8f8708	-0.017520443
163	0xbc8c6ebc	-0.017142646
164	0x3d411d7f	0.04714727
165	0x3bd59c29	0.00651886
166	0xbc7a6c46	-0.015284603
167	0xbd32cd59	-0.043652866
168	0xbd9af2d5	-0.07565848
169	0xbd48b5e7	-0.0490016
170	0x3d172405	0.036899585
171	0x3d5bbaf1	0.053645078
172	0x3d12f8ca	0.035881795
173	0x3cdf703b	0.027275195
174	0xbad3fb7a	-0.0016172968
175	0x3c3ba581	0.011453033
176	0xbd1455b3	-0.03621454
177	0xbb8ca954	-0.0042926464
178	0x3cf9a37a	0.03047346
179	0x3d0f6e32	0.0350172
180	0x3bb45f76	0.005504544
181	0xbcd1f513	-0.025629556
182	0xbb72553f	-0.003697708
183	0x3c7bb599	0.0153631205
184	0x3d58f651	0.05296928
185	0x3cefaa8f	0.029256133
186	0xbc69a0dd	-0.014259544
187	0x3ac67218	0.0015140204
188	0x3ca4814a	0.020081181
189	0x3c0b2a34	0.008493949
190	0x3d5cc3a4	0.053897515
191	0xbc293e60	-0.010329813
192	0x3d0fc65e	0.035101287
193	0xbc8ea0ee	-0.017410722
194	0xbd144ffe	-0.0362091
195	0xbca02c75	-0.019552449
196	0x3ce42b9a	0.027852822
197	0xbc3710b5	-0.011173417
198	0x3d1e9f18	0.038725942
199	0xbc3cccf3	-0.011523473
200	0xbd2fb212	-0.04289443
201	0x3c4c6da6	0.012477314
202	0x3d1238b8	0.035698622
203	0xbc005765	-0.0078333365
204	0x3d3fe173	0.046845865
205	0x3d10a3a1	0.0353123
206	0xbc9cfe85	-0.019164333
207	0x3cf44358	0.029817268
208	0xbd08a260	-0.033357978
209	0x3c945b0e	0.018109825
210	0x3d832bef	0.06404864
211	0xbc1de5c5	-0.009637301
212	0x39be3d80	0.00036285445
213	0xbcfb774a	-0.03069653
214	0x3ad31ce4	0.0016106633
215	0xbc5cd8fa	-0.013479466
216	0x3d82e763	0.0639179
217	0x3ce200c4	0.027588256
218	0xbd02f38a	-0.03197054
219	0xbdb01dd0	-0.08599436
220	0xbc3c25d2	-0.011483626
221	0x3d82aabc	0.06380221
222	0x3c2f66ea	0.010705689
223	0x3b7c3a3d	0.003848686
224	0x3d8fbe30	0.07018697
225	0x3c6cf323	0.014462265
226	0x3ca978fc	0.020687573
227	0x3c9ef893	0.019405639
228	0x3c2c31a2	0.01050988
229	0x3d6c1497	0.057636824
230	0xbb3308d7	-0.0027318501
231	0xbd38f2fc	-0.045153603
232	0xbd02587f	-0.031822678
233	0x3ce27234	0.027642347
234	0xbbdf03b7	-0.0068058628
235	0x3d00e425	0.031467576
236	0xbb6bd34b	-0.0035984095
237	0xbbf2cb78	-0.0074095093
238	0xbd3be8f1	-0.045876447
239	0x3d0118be	0.031517737
240	0xbcce6de6	-0.025198888
241	0x3d14c552	0.03632099
242	0xbba1c28e	-0.004936523
243	0x3cc65f66	0.024215411
244	0x3ca667c9	0.02031316
245	0xbcb7d315	-0.022439519
246	0x3c71f9d4	0.014769036
247	0xbd1d19ee	-0.038354807
248	0xbcbfaa03	-0.023396498
249	0xbd4a5f11	-0.04940707
250	0x3d32d300	0.043658257
251	0x3c25a5a0	0.010110289
252	0xbc48f936	-0.012266448
253	0xbd302616	-0.04300507
254	0xbcda05c0	-0.02661407
255	0xbc9401bf	-0.018067239

bias f4 [256]
0	0xbcacba9f	-0.021085082
1	0xbbeb1b76	-0.0071749045
2	0xbcd56b18	-0.026052043
3	0x3d3ac19c	0.045594797
4	0x3d546cf6	0.051861726
5	0x3d1b1f79	0.03787181
6	0xbc2af87c	-0.01043522
7	0xbc302232	-0.01075034
8	0x3be94a36	0.0071194423
9	0x3c835643	0.016032344
10	0xb912267f	-0.00013937986
11	0x3bd42f26	0.006475347
12	0x3d2f752f	0.042836364
13	0x3c134aa1	0.008989961
14	0x3d86b763	0.06577947
15	0x3ca9354b	0.020655295
16	0xbd3d43c2	-0.046207197
17	0x3c4dbdb5	0.012557437
18	0x3c17577a	0.009237165
19	0x3c3ca0d3	0.011512953
20	0x3cbe58f5	0.023235777
21	0xbd4caf1b	-0.04997168
22	0xbc2e2b15	-0.010630389
23	0xbbb1bfc8	-0.0054244734
24	0xbacc2c8d	-0.0015577242
25	0x3d21fa22	0.039545186
26	0x3a4d97f6	0.00078427733
27	0xbd10e529	-0.035374794
28	0x3c01149c	0.007878449
29	0x3d2563a6	0.040378235
30	0x3a8d893a	0.0010798343
31	0xbbded35d	-0.006800099
32	0x3c2065da	0.009789908
33	0xbcb0bf45	-0.02157558
34	0xbba5d095	-0.0050602653
35	0xbd051d0b	-0.0324984
36	0x3c25beb3	0.010116267
37	0xbacf2414	-0.0015803599
38	0x3d328001	0.043579105
39	0x3cfeb44a	0.031091828
40	0x3cc16866	0.023609351
41	0x3cf4b7c0	0.029872775
42	0xb91d6c61	-0.00015013061
43	0x3b3b80d1	0.0028610716
44	0xbcdb1aaa	-0.026746113
45	0x3b7448eb	0.0037274908
46	0xba75153d	-0.0009349173
47	0x3b784c1d	0.0037887164
48	0x3d188029	0.037231598
49	0xbc07f103	-0.008297208
50	0x3c0369b0	0.008020803
51	0xbc512ef9	-0.012767547
52	0xbca4df84	-0.020126112
53	0x3c1af2cc	0.009457301
54	0xbc289bcf	-0.010291054
55	0x3c80f00d	0.015739465
56	0x3b4d6581	0.0031341019
57	0xbcb5c5ea	-0.0221891
58	0xbd353856	-0.04424318
59	0xbaa7cebe	-0.0012802703
60	0x3c71f83b	0.014768655
61	0xbc1ffec0	-0.009765327
62	0x3d23e198	0.040010065
63	0xbc29415c	-0.010330524
64	0xbbb8e321	-0.0056423103
65	0x3d4a419e	0.049378984
66	0x3c705194	0.014667887
67	0xbcff617b	-0.031174412
68	0xbcf386cc	-0.029727362
69	0x3d92a7e0	0.07160926
70	0xbcd1c9fc	-0.025609009
71	0xbc55a636	-0.013040116
72	0xbd1b3a83	-0.037897598
73	0xbb0b08b0	-0.0021214895
74	0xbced11c8	-0.028939143
75	0x3d29a572	0.041417547
76	0xbd534720	-0.051581502
77	0x3d9df28e	0.07712279
78	0xbd683e95	-0.056700308
79	0xbcbc883c	-0.02301418
80	0xbcc3d9ce	-0.023907568
81	0xbbb0ec9c	-0.0053993
82	0x3d291a8a	0.041285075
83	0x3cb3abea	0.021932561
84	0x3d023fea	0.031799234
85	0xbbd19dbf	-0.0063969786
86	0xbc29c0cd	-0.010360909
87	0xbd4f910d	-0.05067544
88	0xbcd56876	-0.026050787
89	0x3cdb0a3a	0.026738275
90	0xbc09f81b	-0.008420969
91	0x3c7fee02	0.01562071
92	0xbd0deb17	-0.034648027
93	0x3c9df1a5	0.019280264
94	0xbb9273fd	-0.0044693933
95	0xbc64b298	-0.013958596
96	0x3d768b8d	0.06019168
97	0x3d0a11a0	0.033708215
98	0xbb701821	-0.0036635476
99	0xbcc215b4	-0.02369199
100	0xbc3d7901	-0.011564494
101	0xbcf0a294	-0.029374398
102	0xbcadb7f6	-0.021205883
103	0xbc4f7a59	-0.012663447
104	0x3d71c003	0.059021007
105	0x3c3d799c	0.011564638
106	0x39f3884f	0.0004645013
107	0x3c98a5e8	0.018633798
108	0xbd0f9dde	-0.035062663
109	0xbce0ed1a	-0.027456809
110	0x3ccb0018	0.024780318
111	0x3d0e22d9	0.034701202
112	0x3cfcef27	0.030875755
113	0xbd840a83	-0.064473175
114	0xbcfd823e	-0.030945893
115	0x3c4498e2	0.011999341
116	0xbcb0d954	-0.021588005
117	0xbca8d13c	-0.020607583
118	0xbb80e1da	-0.0039331736
119	0xbd8389aa	-0.06422742
120	0x3c565952	0.013082819
121	0x3c29a655	0.010354598
122	0x3cf94e0c	0.030432723
123	0xbc31083d	-0.010805187
124	0x3d0874e4	0.0333146
125	0x3b2c7a16	0.0026317886
126	0x3cf5cc35	0.0300046
127	0x3d103350	0.035205185
128	0x3cde35ce	0.027125265
129	0xbccdf46a	-0.02514096
130	0xbd4a4076	-0.04937788
131	0x3d95d806	0.07316594
132	0x3d3da4d6	0.046299778
133	0x3d1f3987	0.03887322
134	0x3c5d132c	0.01349334
135	0xbb76ec85	-0.0037677598
136	0xbd4fd8a2	-0.050743707
137	0xbc969c0a	-0.018384952
138	0xbbc389d4	-0.005967358
139	0x3b999b55	0.0046877065
140	0x3be56f2b	0.0070017776
141	0xbc173cb8	-0.009230785
142	0x3d4245a8	0.04742971
143	0x3d0eef83	0.034896385
144	0x3c211c1e	0.009833364
145	0x3c9a3d2e	0.018828
146	0xbcc72ca9	-0.024313288
147	0xbcf9ee40	-0.030509114
148	0xbca55a34	-0.020184614
149	0x3be68554	0.007034937
150	0x3c8768bd	0.016529435
151	0x3cd66639	0.02617179
152	0x3cbe4347	0.02322544
153	0x3d29ff47	0.041503217
154	0x3d68c0a1	0.05682433
155	0x3bf77526	0.007551807
156	0x3b861826	0.004092234
157	0xbcf5a940	-0.029987931
158	0xbc6f356a	-0.014600137
159	0x3bd03fab	0.006355246
160	0x3cb914ec	0.022592984
161	0x3ca2438a	0.019807596
162	0xba176774	-0.00057756086
163	0xbc93fd30	-0.018065065
164	0xbd0bc3f6	-0.03412243
165	0xbc6854bf	-0.014180361
166	0x3bf1f1b1	0.007383548
167	0xbc353676	-0.011060348
168	0x3c0d372d	0.008619112
169	0xbca7b93a	-0.020474065
170	0x3c9335c2	0.01796997
171	0xbbf1a84c	-0.007374799
172	0x3c657aca	0.014006326
173	0xbc65904e	-0.014011456
174	0xbd79f738	-0.06102678
175	0x3d08294a	0.0332425
176	0x3ccad7ff	0.024761198
177	0xbcf1d1fe	-0.029519077
178	0xbcb94791	-0.022617133
179	0x3c0c30c5	0.008556549
180	0xbbff4c38	-0.0077910684
181	0xbcce1a31	-0.025158973
182	0x3a9dc9e5	0.0012038319
183	0xbd0f062b	-0.03491799
184	0xbd515d72	-0.051114507
185	0xbb1e01d8	-0.0024109986
186	0x3d694524	0.056950703
187	0xbd22fff3	-0.039794873
188	0xbba9a866	-0.0051775454
189	0xbb076ac2	-0.0020662998
190	0xbd1d7f3c	-0.03845142
191	0x3c1e51a9	0.009663024
192	0xbd21f6cd	-0.03954201
193	0x3d20ea45	0.039285917
194	0x3b899a0a	0.004199271
195	0x3d264e58	0.04060206
196	0xbca6b310	-0.020349056
197	0x3d1bd011	0.038040224
198	0x3ce6c53b	0.028170219
199	0xbc9c38a5	-0.019069979
200	0xbca8b87a	-0.020595778
201	0xbd83da95	-0.064381756
202	0x3cc77d10	0.024351627
203	0x3ca516f5	0.020152548
204	0xbbc1f4c0	-0.005919069
205	0xbd4e4d39	-0.050366614
206	0xbb0fbbc7	-0.0021931992
207	0xbcd5fab8	-0.026120529
208	0x3c8a2a89	0.016865985
209	0xbd0d2da4	-0.034467354
210	0xbc47ebc7	-0.01220221
211	0xbb4a83a6	-0.0030901222
212	0x3c436b20	0.011927396
213	0xbd2e87c7	-0.042609956
214	0xbcc5fc0f	-0.024168042
215	0x3d26360d	0.04057889
216	0xbd2e55ec	-0.04256241
217	0xbcf508d7	-0.029911442
218	0x3c7093be	0.014683662
219	0xbbe3c6a1	-0.0069511686
220	0xbca67409	-0.020319002
221	0x3d651e6c	0.055937216
222	0xbc4ed2f5	-0.012623538
223	0xbc7cdaeb	-0.0154330535
224	0xbcb3d43b	-0.021951785
225	0xbcae280d	-0.021259332
226	0xbd08819a	-0.033326723
227	0x3cdde932	0.027088735
228	0x3af5c7e7	0.0018751592
229	0x3d4cb3f7	0.049976315
230	0x3d3148f5	0.043282468
231	0xbc19afa6	-0.009380257
232	0xbd1b60fe	-0.037934296
233	0x3ce47d96	0.027891915
234	0x3d98429d	0.074345805
235	0x3c4bad1a	0.012431407
236	0x3d3e8537	0.046513762
237	0xbc66f0cd	-0.014095497
238	0xbcfa2184	-0.03053356
239	0x3bee63c3	0.007275076
240	0xbd89f720	-0.067365885
241	0xb98123a1	-0.00024631343
242	0x3c01dc85	0.007926111
243	0x3b1d1061	0.0023966061
244	0x3b2d1383	0.0026409335
245	0x3c37fad7	0.0112292385
246	0xbce20587	-0.027590526
247	0xbc220fc9	-0.009891459
248	0x3d33a337	0.043856826
249	0x3bc86b71	0.0061163236
250	0x3cf88dfd	0.030341143
251	0x3ccdbe3b	0.025115123
252	0x3c1f0ba0	0.009707361
253	0xbbc3df07	-0.0059775147
254	0xbcba8b42	-0.022771481
255	0x3d0851d4	0.033281162
