output/2023-09-14-22-52-13/trained_model/tetris_epoch748_score500.pt (torch, 842187 bytes, 8 tensors)

weight f4 [32, 1, 4, 4]
0.036297828 0.028003003 -0.018850163 -0.009272357 0.024554167 0.07342146 -0.0043278667 0.056384057
-0.22034247 0.12390968 0.19230838 -0.0041129957 0.082704455 0.16165262 0.17236172 -0.033806294
0.4281832 0.02271558 -0.38781732 -0.22911829 -0.58919865 0.021740096 -0.07704957 -0.1577187
0.053263556 -0.19434859 0.068145186 -0.2939444 -0.11434024 0.011052682 0.09654517 -0.66233605
0.025443316 0.060254656 -0.7538214 -0.10822559 -0.013339968 -0.26821017 0.15661566 -0.264374
0.10955338 0.301952 -0.0070416513 0.030321307 -0.16730765 -0.12485271 -0.19441508 -0.07706339
-0.2275529 -0.27858606 -0.095859215 -0.007157162 0.20591891 -0.22568205 0.21766125 0.107453614
-0.30027026 0.07931714 -0.5405169 0.10527222 -0.11108073 -0.5410226 -0.44263193 0.098341115
-0.03839969 -0.7642319 -0.05375815 -0.06352045 0.06267467 0.038065027 0.08912512 0.06460277
0.23332211 -0.8788137 0.29517657 -0.018880032 -0.10486769 -0.11064372 -0.009193421 -0.0022897427
0.038751688 -0.027210882 -0.11663094 -0.08843698 0.04248191 -5.46207e-05 0.29116604 0.7491377
-0.041802216 -0.022123154 -0.2785601 -0.77082306 -0.02066825 -0.013605771 -0.019076807 -0.042963658
0.029836463 0.0560266 0.15909958 0.25893375 0.14305785 -0.026848176 0.1972531 -0.45241153
0.082452685 0.048915226 0.019339772 -0.62158376 -0.024315415 0.014854311 0.07765987 -0.31077552
0.002405277 0.017190391 0.16087452 -0.1831257 0.06318196 0.06602299 -0.6919267 -0.6227188
-0.030644394 0.08809409 -0.5304156 -0.020018674 -0.059986386 0.19289255 -0.33895436 -0.37906688
-0.12312221 0.12394 -0.4084491 -0.17645347 0.11208433 0.116161 0.19745862 -0.32022178
-0.0238878 0.08587823 -0.24725044 -0.6188001 0.13660203 -0.030228857 -0.07432369 0.0653333
-0.16688651 -0.030220166 0.026217204 0.011932918 -0.09465295 -0.17784552 -0.40726975 -0.04878943
-0.053896785 0.47349873 0.15881729 -0.030741949 0.06966524 -0.85985076 0.09034658 0.030340377
-0.01828174 -0.13090517 -0.13970555 -0.15335916 -0.06945222 -0.048596457 -0.19206163 0.031778976
-0.020536752 0.06321802 0.56383723 -0.04379041 -0.018076248 -0.10988526 -0.6888217 -0.0349364
-0.08406548 -0.067052685 -0.36341658 -0.07179967 -0.015925957 -0.12729506 0.03931512 0.20849535
-0.05730431 -0.015654868 0.14094661 -0.5139215 0.07776838 0.031133292 0.06861734 -0.41523522
0.10485928 -0.13240865 0.0512034 -0.068548605 0.03541679 0.50553304 0.024153942 -0.06348234
-0.0537143 -0.4912566 0.16060925 -0.03401446 -0.053315703 -0.60663384 -0.20128056 0.02852953
0.04828297 -0.06129592 -0.0062566856 0.053317297 -0.0002856735 0.16600892 0.13817906 0.0050970777
0.016972281 0.8510983 -0.03909877 0.05197144 -0.0056622843 -1.3159148 0.0831828 -0.028475517
0.011621959 0.44367665 0.06535284 -0.023619356 -0.023313325 0.70245206 0.0020673429 0.009377575
0.005267084 -1.2664168 -0.004478904 -0.011198588 -0.044942025 -0.03915061 -0.033041734 0.015374864
-0.21446578 -0.032534283 0.13510978 -0.111535616 -0.0047032232 -0.18853989 -0.07333813 -0.0070701838
0.16089611 0.17357436 0.09568718 0.14988595 -0.025202285 0.09539395 -0.03646945 0.12805462
00000000: 08ad 143d 8e66 e53c a86b 9abc 16eb 17bc
00000010: d225 c93c fe5d 963d c7d0 8dbb f8f2 663d
00000020: 75a1 61be 5cc4 fd3d 7dec 443e 4fc6 86bb
00000030: f460 a93d 4488 253e 977f 303e 7878 0abd
00000040: d43a db3e 0616 ba3c fe8f c6be fc9d 6abe
00000050: b9d5 16bf 4918 b23c 2acc 9dbd 0381 21be
00000060: e32a 5a3d 5103 47be b48f 8b3d e17f 96be
00000070: 372b eabd 4f16 353c 79b9 c53d db8e 29bf
00000080: 806e d03c 96cd 763d 70fa 40bf 61a5 ddbd
00000090: e28f 5abc d852 89be db5f 203e 075c 87be
000000a0: 865d e03d 7499 9a3e a7bd e6bb 6464 f83c
000000b0: b252 2bbe c7b2 ffbd bf14 47be 69d3 9dbd
000000c0: a103 69be d5a2 8ebe d651 c4bd a086 eabb
000000d0: 68dc 523e 3219 67be 97e2 5e3e a410 dc3d
000000e0: 06bd 99be 0671 a23d 515f 0abf f698 d73d
000000f0: 4b7e e3bd 7580 0abf a7a0 e2be 1167 c93d
00000100: fe48 1dbd b4a4 43bf 8231 5cbd 0217 82bd
00000110: 945b 803d 13ea 1b3d 3b87 b63d 754e 843d
00000120: feeb 6e3e eff9 60bf 6221 973e 4caa 9abc
00000130: dfc4 d6bd 2d99 e2bd 01a0 16bc 820f 16bb
00000140: 17ba 1e3d 5be9 debc 34dc eebd 731e b5bd
00000150: 8301 2e3d 8818 65b8 b713 953e 7dc7 3f3f
00000160: cd38 2bbd 9e3b b5bc 6e9f 8ebe a954 45bf
00000170: 7650 a9bc bdea 5ebc f746 9cbc a9fa 2fbd
00000180: 996b f43c 267c 653d 00eb 223e f792 843e
00000190: c27d 123e b5f0 dbbc b7fc 493e 7ca2 e7be
000001a0: f4dc a83d 555b 483d 716e 9e3c 1d20 1fbf
000001b0: 1f31 c7bc 7f5f 733c 230c 9f3d f81d 9fbe
000001c0: daa1 1d3b ddd2 8c3c 4abc 243e 4e85 3bbe
000001d0: 8b65 813d 1037 873d 1c22 31bf 806a 1fbf
000001e0: f409 fbbc ad6a b43d 51c9 07bf 34fe a3bc
000001f0: 49b4 75bd a085 453e 6d8b adbe 0e15 c2be
00000200: 7f27 fcbd 41d4 fd3d 3e20 d1be 38b0 34be
00000210: 788c e53d d2e5 ed3d 9832 4a3e 1cf4 a3be
00000220: 59b0 c3bc ede0 af3d 382f 7dbe af69 1ebf
00000230: 67e1 0b3e 82a2 f7bc 0537 98bd 77cd 853d
00000240: 4ce4 2abe 4890 f7bc 76c5 d63c 4982 433c
00000250: 68d9 c1bd 231d 36be a985 d0be 6dd7 47bd
00000260: e0c2 5cbd 6d6e f23e 00a1 223e 8ad6 fbbc
00000270: a6ac 8e3d 2e1f 5cbf a107 b93d 628c f83c
00000280: 96c3 95bc 010c 06be f90e 0fbe 2f0a 1dbe
00000290: f73c 8ebd 140d 47bd ceab 44be ac2a 023d
000002a0: b13c a8bc 7378 813d a357 103f 935d 33bd
000002b0: a414 94bc 860b e1bd 9e56 30bf 7819 0fbd
000002c0: 862a acbd eb52 89bd bd11 babe b50b 93bd
000002d0: 2777 82bc a359 02be e408 213d ce7f 553e
000002e0: edb7 6abd a33e 80bc 4f54 103e 5c90 03bf
000002f0: 0745 9f3d 3f0b ff3c 3f87 8c3d b699 d4be
00000300: 76c0 d63d 2296 07be a8ba 513d 3663 8cbd
00000310: 3211 113d 9d6a 013f 7dde c53c 0703 82bd
00000320: 8703 5cbd fc85 fbbe c076 243e bf52 0bbd
00000330: 9161 5abd 5b4c 1bbf 7e1c 4ebe c3b6 e93c
00000340: 5dc4 453d 6e11 7bbd e204 cdbb 3d63 5a3d
00000350: 73c6 95b9 3efe 293e d07e 0d3e 6305 a73b
00000360: 7409 8b3c 94e1 593f 0826 20bd 01e0 543d
00000370: af8a b9bb e56f a8bf be5b aa3d 7d45 e9bc
00000380: 076a 3e3c 9629 e33e b6d7 853d 617d c1bc
00000390: 96fb bebc e6d3 333f 427c 073b 66a4 193c
000003a0: 8197 ac3b f219 a2bf c5c3 92bb 487a 37bc
000003b0: 2115 38bd 645c 20bd c556 07bd dbe6 7b3c
000003c0: eb9c 5bbe ab42 05bd 385a 0a3e c96c e4bd
000003d0: 7f1d 9abb 9a10 41be 4d32 96bd 00ad e7bb
000003e0: f3c1 243e 7abd 313e a4f7 c33d b47b 193e
000003f0: 0675 cebc e75d c33d fd60 15bd c020 033e

weight f4 [32, 32, 5, 5]
0.05870659 -0.11619332 0.080881104 0.103646904 0.074658036 0.12208105 -0.26273972 -0.038006634
-0.11993368 -0.35351634 -0.01802459 -0.088116646 0.016374381 -0.22843716 -0.041614823 -0.11980669
-0.5190803 -0.25174174 -0.055689003 -0.32859707 0.05598809 0.05378696 -0.099791184 0.018247565
0.10645799 0.3507232 -0.36357245 0.22231005 0.5164067 0.33086663 0.010669012 0.35824412
-0.268678 -0.053919442 0.06641995 0.070202924 -0.2307462 -0.2907398 -0.019343225 -0.22628252
0.061579157 0.10463861 0.008686824 -0.26684383 -0.1770354 -0.17161186 0.37725633 0.081597365
0.0040080287 0.3287302 -0.05655785 -0.17817254 -0.1449224 0.28287655 0.039032765 0.42464295
0.34273902 -0.4943321 -0.42786717 -0.19253504 -0.15264462 0.39258835 -0.15136983 -0.21747029
0.04337235 0.28643215 -0.3571007 0.10534642 0.14094304 -0.16607301 0.043009084 -0.21231955
-0.005798534 -0.34348872 0.3061396 0.13263775 -0.16109861 0.35265127 -0.39417005 0.0981139
-0.48849663 0.3348854 0.20282772 -0.5783816 -0.087920204 -0.30847934 -0.24615341 -0.09043032
0.08847451 -0.56087375 -1.0856006 -0.071861655 -0.499059 -0.1086898 0.278203 -0.07669327
0.0856882 -0.2105916 0.23245902 -0.1785711 0.04936986 0.017990638 0.09392591 0.5564087
-0.758052 -0.22017303 0.41241926 -0.0710442 -0.3495263 -0.06658444 -0.2912051 -0.09523243
0.24209677 -0.054648366 0.68462604 -0.19587068 -0.008355788 -0.4181979 -0.19736905 -0.5636032
0.16531733 0.110803775 0.1680224 -0.16772006 -0.0050660847 -0.02814525 0.03332699 -0.0030319898
-0.037203643 -0.118856795 0.12765324 -0.2837712 0.03633049 0.027306944 -0.10175198 -0.1426694
-0.10036072 0.02103816 0.0083247265 0.060882326 -0.30565083 -1.6558001 -0.67665154 -0.24221475
-0.5706419 0.0063114204 -0.36267996 -0.0075263106 -0.28241125 -0.37787706 0.19372638 -0.053952325
-0.03438084 -0.3123132 -0.6583977 0.12577158 0.14595965 -0.3193392 -0.05267648 -0.86911297
0.006314786 0.27503714 -0.14429498 0.13171232 0.20015198 -0.23315282 -0.18625799 -0.30438155
-0.015708296 -0.093226284 -0.0011559497 0.05637655 0.0011467112 0.2714151 0.073542394 -0.07366201
-0.5568731 0.47462103 -0.066168495 -0.14675419 -0.0801701 0.08306859 0.050675403 0.38027054
-0.90249294 -0.024996338 -0.26313677 -0.19020392 0.151539 -0.24566014 0.13320504 -0.14648506
-0.26635447 0.26927292 0.11237139 -0.23413599 -0.15614557 -0.13640614 0.26962197 -0.0021674058
0.2676056 -0.1549793 0.078380264 0.2960277 0.08725647 -0.8786855 0.112110816 -0.25147405
0.2161387 -0.10807184 -0.70892197 0.16736086 0.13441904 0.1502211 -0.5338158 -0.52108395
-0.31783596 -0.21308146 0.11246776 0.07825532 -0.25630105 0.196526 -0.027926547 -0.26634818
0.17969388 0.1311336 0.2644939 -0.4276238 -0.020244375 0.026083006 -0.5217683 -0.3101664
0.00777411 -0.3550896 -0.33326155 -0.541825 0.2868884 -0.042164117 0.029937267 -0.032153495
-0.20535487 0.21771425 -0.2915378 0.19450341 -0.46470103 -0.13844882 0.26054913 0.10185303
0.060203686 0.22077566 0.6161065 -0.56093067 -0.052876916 0.19525348 0.17634913 -0.46418217
00000000: 5276 703d c3f6 edbd fea4 a53d d444 d43d
00000010: 50e6 983d a105 fa3d d285 86be d8ac 1bbd
00000020: ca9f f5bd 1800 b5be 4ea8 93bc 8076 b4bd
00000030: 9123 863c 6eeb 69be 4e74 2abd 365d f5bd
00000040: 72e2 04bf 4be4 80be 271a 64bd e03d a8be
00000050: c453 653d b74f 5c3d 525f ccbd eb7b 953c
00000060: a606 da3d fe91 b33e 2b26 babe 3fa5 633e
00000070: 3b33 043f 5a67 a93e 14cd 2e3c c66b b73e
00000080: 2a90 89be a2da 5cbd 2f07 883d 8dc6 8f3d
00000090: bb48 6cbe d9db 94be af75 9ebc 9bb6 67be
000000a0: 6d3a 7c3d c44c d63d 2e53 0e3c c19f 88be
000000b0: c548 35be 05bb 2fbe be27 c13e 851c a73d
000000c0: c855 833b 534f a83e 34a9 67bd dd72 36be
000000d0: 8a66 14be 32d5 903e d2e0 1f3d cd6a d93e
000000e0: 7d7b af3e 1919 fdbe 6811 dbbe e827 45be
000000f0: df4e 1cbe 5701 c93e b100 1bbe 88b0 5ebe
00000100: 35a7 313d 3ca7 923e e7d5 b6be ddbf d73d
00000110: 5f53 103e 0b0f 2abe 4b2a 303d 4c6a 59be
00000120: a101 bebb c1dd afbe 54be 9c3e 31d2 073e
00000130: 09f7 24be b58e b43e a8d0 c9be f1ef c83d
00000140: 3b1c fabe 1976 ab3e 12b2 4f3e d110 14bf
00000150: 820f b4bd 01f1 9dbe a40f 7cbe 8833 b9bd
00000160: 2032 b53d 6c95 0fbf f6f4 8abf 342c 93bd
00000170: a984 ffbe c298 debd a070 8e3e 5c11 9dbd
00000180: 4c7d af3d 53a5 57be bd09 6e3e 58db 36be
00000190: 0d38 4a3d 1a61 933c 3a5c c03d cd70 0e3f
000001a0: b20f 42bf 0a75 61be 9e28 d33e 9f7f 91bd
000001b0: 1cf5 b2be 6c5d 88bd d618 95be 3809 c3bd
000001c0: 37e8 773e f7d6 5fbd a743 2f3f 5392 48be
000001d0: b7e6 08bc 091e d6be 1d1b 4abe 4d48 10bf
000001e0: f248 293e 17ed e23d 100e 2c3e cfbe 2bbe
000001f0: 6601 a6bb de90 e6bc e281 083d 59b4 46bb
00000200: d962 18bd 316b f3bd 88b7 023e 754a 91be
00000210: 48cf 143d d0b2 df3c 5863 d0bd ed17 12be
00000220: ec89 cdbd 3858 ac3c 6f64 083c bf5f 793d
00000230: 447e 9cbe 42f1 d3bf 0939 2dbf 2507 78be
00000240: 9615 12bf 08d0 ce3b 30b1 b9be 459f f6bb
00000250: 3598 90be 1a79 c1be 3560 463e 1dfd 5cbd
00000260: ecd2 0cbd 84e7 9fbe c08c 28bf 44ca 003e
00000270: 7276 153e 6d80 a3be 4bc3 57bd 307e 5ebf
00000280: 44ec ce3b abd1 8c3e 10c2 13be 98df 063e
00000290: a4f4 4c3e 9dbf 6ebe 6aba 3ebe e6d7 9bbe
000002a0: afae 80bc 6ced bebd 3c83 97ba 19eb 663d
000002b0: 3e4d 963a ecf6 8a3e 659d 963d 1cdc 96bd
000002c0: 3c8f 0ebf 8701 f33e 5983 87bd bb46 16be
000002d0: 3930 a4bd dd1f aa3d 0391 4f3d d2b2 c23e
000002e0: c709 67bf 1fc5 ccbc ddb9 86be d1c4 42be
000002f0: 0a2d 1b3e 558e 7bbe e766 083e 2e00 16be
00000300: 9d5f 88be 24de 893e f922 e63d 58c1 6fbe
00000310: a0e4 1fbe 0dae 0bbe e40b 8a3e 090b 0ebb
00000320: 9a03 893e e5b2 1ebe d585 a03d f190 973e
00000330: 85b3 b23d 88f1 60bf 5b9a e53d 35c1 80be
00000340: 7753 5d3e c554 ddbd e97b 35bf a560 2b3e
00000350: 25a5 093e 8fd3 193e 27a8 08bf c265 05bf
00000360: 65bb a2be 0732 5abe 7f55 e63d 5344 a03d
00000370: e439 83be 1d3e 493e 37c6 e4bc ca5e 88be
00000380: ac01 383e e347 063e bf6b 873e 82f1 dabe
00000390: 88d7 a5bc 07ac d53c 9b92 05bf 21ce 9ebe
000003a0: f6bd fe3b 4ece b5be 42a1 aabe 0bb5 0abf
000003b0: 09e3 923e 48b4 2cbd 003f f53c 62b3 03bd
000003c0: 8c48 52be 7cf0 5e3e 7144 95be e72b 473e
000003d0: 4bed edbe 87c5 0dbe b266 853e 5298 d03d
000003e0: 2498 763d 0413 623e 28b9 1d3f 2799 0fbf
000003f0: 7795 58bd 87f0 473e de94 343e 49a9 edbe

weight f4 [64, 32, 5, 5]
-0.0077779843 -0.01871261 -0.03215738 0.19032046 -0.34489393 0.28522468 0.13224216 0.18173182
-0.020581169 0.13866131 0.02458409 -0.15227486 -0.13644043 0.07901043 0.6469648 -0.08075531
0.06600511 0.030191954 -0.19318478 0.28368768 -0.11016052 -0.38263234 -0.10148124 0.33790207
0.056739677 0.2495933 -0.46897385 0.1908458 -0.03761981 0.008318334 -0.012874964 0.28813812
0.2014172 -0.5753737 0.010254965 -0.049595766 -0.046621587 0.6647385 0.0012526992 -0.2858652
0.2892498 0.31360856 -0.4731849 0.42187196 0.02994087 -0.0064667827 0.62781775 0.3325607
0.07388834 -0.046696104 -0.27254426 -0.044543955 0.417911 0.20025027 -0.106967255 0.19255337
-0.20995183 -0.5824453 -0.8834297 -0.56516254 0.24707112 0.06684537 -0.3292062 0.2877818
-0.28255492 0.18843856 0.18004857 0.15666556 -0.062492978 -0.15018271 0.64563173 0.07808558
0.03678115 0.03399447 -0.08955008 -0.34923318 -0.442688 -0.15427083 0.24472944 -0.27869523
0.37786928 0.08392642 -0.022506444 0.5222785 0.26207316 -0.025724601 -0.10905824 -0.46074063
-0.4845266 -0.97866726 -0.38985398 -0.012682937 -1.1070117 0.13939574 0.17643686 0.2253316
-0.05457887 -0.009998859 0.6219127 0.08029013 0.016017657 0.19791651 0.2675325 -0.036972236
0.104926825 -0.17343795 -0.10472499 0.03247565 0.006785307 0.69718546 0.4335566 -0.09531796
-0.19789745 0.09112709 -0.17142238 -0.09831384 -0.11393501 -0.08201332 -0.63267803 -0.7045076
-0.37309134 -0.081147015 0.06609081 0.3968024 -0.3223233 -0.05182275 -0.5333632 -0.38806665
0.3411259 -0.76888 0.39921495 -0.46994463 0.057140134 -0.055905715 -0.114758015 0.038340926
0.22627708 0.15707383 -0.0119858915 -0.2156533 -0.57285666 -0.18290292 0.017457921 -0.15711562
-0.022377247 -0.39541188 -0.13836892 0.27790043 -0.10192553 0.13202773 -0.018938987 -0.45053017
0.06733428 0.02693496 -0.23750053 0.11028515 0.09986662 0.2563558 -0.074065 0.056344137
-0.058976337 0.2607904 0.24737827 -0.2133314 -0.22384892 0.037461102 -0.0623576 -0.07696386
-0.0939025 -0.43187556 0.34667277 0.13443135 0.11462837 -0.11436396 -0.1564244 -0.042627722
-0.36518577 0.14013384 -0.13973846 0.066268176 0.25538018 -0.0014951369 0.12538856 0.024565231
-0.19371152 0.11938987 0.06515362 -0.2239633 0.27710682 0.58690035 -0.050367195 -0.25988254
-0.04479054 -0.17343208 -0.13279885 0.2595501 -0.21574077 -0.08300998 -0.79115874 -0.22979583
0.19789883 0.38596863 -0.2585816 -0.49911413 0.08786745 0.3977985 -0.83345884 0.11664338
-0.48034576 0.23849908 0.23149033 0.24599941 -0.2085267 0.019321868 -0.5840441 0.30562776
-0.05259727 0.012984138 -0.1522339 0.3738039 0.4627126 0.09061796 -0.06096297 0.024009813
0.002814521 0.31985107 0.18570633 -0.063492216 0.015809368 0.37281808 0.12697807 0.1452299
0.2796561 0.0069644335 0.23920701 -0.17606053 -0.11458773 -0.08153126 0.114625536 0.12018148
0.5265189 0.12979878 -0.36701906 0.27824 0.057017367 -0.14517069 -0.1971219 0.19973963
0.39058265 -0.16030507 0.1698496 0.21311015 0.19378693 -0.30127996 0.31495214 0.45818248
00000000: 76de febb 304b 99bc 75b7 03bd 5ee3 423e
00000010: f095 b0be f808 923e 7d6a 073e e817 3a3e
00000020: d799 a8bc 3bfd 0d3e 9364 c93c f1ed 1bbe
00000030: 0ab7 0bbe 38d0 a13d 7c9f 253f 0a63 a5bd
00000040: b02d 873d 1e55 f73c 3bd2 45be 833f 913e
00000050: d79b e1bd 63e8 c3be 65d5 cfbd 8001 ad3e
00000060: dd67 683d 6395 7f3e 571d f0be 156d 433e
00000070: 3b17 1abd 9f49 083c 83f1 52bc d786 933e
00000080: 4f40 4e3e b14b 13bf 7104 283c ee24 4bbd
00000090: 47f6 3ebd 4d2c 2a3f 9c31 a43a ec5c 92be
000000a0: 8d18 943e 4d91 a03e 4b45 f2be 9aff d73e
000000b0: 8e46 f53c 4ee7 d3bb aab8 203f 6545 aa3e
000000c0: c552 973d 6a44 3fbd ec8a 8bbe b973 36bd
000000d0: 6ef8 d53e 680e 4d3e a611 dbbd b62c 453e
000000e0: 9dfd 56be 231b 15bf 7328 62bf 7eae 10bf
000000f0: 3600 7d3e 3ae6 883d b78d a8be 2358 933e
00000100: 0aab 90be 0af6 403e a75e 383e f06c 203e
00000110: a3f8 7fbd 7fc9 19be 1f48 253f 55eb 9f3d
00000120: d5a7 163d c93d 0b3d 0866 b7bd b1ce b2be
00000130: 00a8 e2be 2cf9 1dbe 5b9a 7a3e 24b1 8ebe
00000140: 1578 c13e 9de1 ab3d 6f5f b8bc 0bb4 053f
00000150: 742e 863e 66bc d2bc ed59 dfbd 32e6 ebbe
00000160: df13 f8be f089 7abf f19a c7be 18cc 4fbc
00000170: 8fb2 8dbf c2bd 0e3e ddab 343e 54bd 663e
00000180: 188e 5fbd 41d2 23bc ac35 1f3f 276f a43d
00000190: 7637 833c a0aa 4a3e 05fa 883e 3370 17bd
000001a0: e0e3 d63d b899 31be 0e7a d6bd 3005 053d
000001b0: 4857 de3b bf7a 323f 21fb dd3e 1036 c3bd
000001c0: a1a5 4abe d7a0 ba3d 5989 2fbe c458 c9bd
000001d0: c256 e9bd 99f6 a7bd 30f7 21bf 9c5a 34bf
000001e0: d405 bfbe 6830 a6bd 9e5a 873d af29 cb3e
000001f0: 8f07 a5be 1844 54bd 7e8a 08bf acb0 c6be
00000200: 0ea8 ae3e 52d5 44bf e765 cc3e 959c f0be
00000210: c60b 6a3d 64fd 64bd 4006 ebbd 600b 1d3d
00000220: 2eb5 673e f6d7 203e 7960 44bc 38d4 5cbe
00000230: bca6 12bf e74a 3bbe ea03 8f3c ebe2 20be
00000240: 7d50 b7bc 6d73 cabe 95b0 0dbe f748 8e3e
00000250: 55be d0bd 4732 073e ef25 9bbc e4ab e6be
00000260: 8ee6 893d b5a6 dc3c 5733 73be 2edd e13d
00000270: df86 cc3d 1141 833e 64af 97bd 1cc9 663d
00000280: 2c91 71bd 5286 853e bb50 7d3e 8c73 5abe
00000290: a738 65be d070 193d af6a 7fbd 3a9f 9dbd
000002a0: f44f c0bd cb1e ddbe 187f b13e 5fa8 093e
000002b0: 47c2 ea3d a737 eabd b82d 20be 689a 2ebd
000002c0: a1f9 babe 3f7f 0f3e 9917 0fbe 9cb7 873d
000002d0: 31c1 823e 78f8 c3ba dc65 003e 063d c93c
000002e0: 505c 46be ad82 f43d 436f 853d a356 65be
000002f0: f2e0 8d3e 1a3f 163f d54d 4ebd 530f 85be
00000300: 4976 37bd 2e98 31be 6cfc 07be c0e3 843e
00000310: 26eb 5cbe 2301 aabd 6189 4abf 994f 6bbe
00000320: fea5 4a3e ae9d c53e cf64 84be e38b ffbe
00000330: daf3 b33d 3fac cb3e 8f5d 55bf b9e2 ee3d
00000340: e1ef f5be 1a39 743e cd0b 6d3e 45e7 7b3e
00000350: 0688 55be e548 9e3c ea83 15bf 3e7b 9c3e
00000360: 3c70 57bd 6cbb 543c 34e3 1bbe 3a63 bf3e
00000370: aae8 ec3e e995 b93d 4fb4 79bd 3ab0 c43c
00000380: d473 383b 85c3 a33e cd29 3e3e 3508 82bd
00000390: a682 813c 03e2 be3e 8a06 023e 26b7 143e
000003a0: 162f 8f3e e735 e43b aff2 743e 3649 34be
000003b0: f9ac eabd dcf9 a6bd cbc0 ea3d b521 f63d
000003c0: f1c9 063f f9e9 043e ece9 bbbe 7975 8e3e
000003d0: 0b8b 693d a0a7 14be 53da 49be 8c88 4c3e
000003e0: 73fa c73e 0327 24be 0eed 2d3e 8c39 5a3e
000003f0: 1570 463e 5e41 9abe 6841 a13e e596 ea3e

weight f4 [256, 256]
-0.018292775 0.064669766 0.005011531 0.07019192 0.08889129 -0.020760868 -0.07066648 -0.10182077
0.013168167 -0.12271478 -0.065042384 0.046614345 0.10751261 0.24037643 -0.019807858 0.019604662
-0.19400157 0.24863017 0.11555707 -0.044354178 -0.12125873 0.046890993 -0.02996397 -0.09436225
0.07356914 -0.14570142 -0.15946274 -0.03299118 -0.037922464 -0.008251591 -0.027942754 0.021789817
0.47482985 -0.09536733 -0.056353685 0.15807949 -0.0135628125 0.007118732 -0.010743794 -0.0015579796
-0.005899754 -0.3345922 0.0078088846 -0.040519394 0.004574944 0.03572935 -0.06762623 0.03459329
-0.072427645 0.08560833 -0.029147504 0.110058576 -0.016139353 0.0072410703 -0.061728686 -0.09058533
-0.0005154129 -0.47715878 0.23764981 -0.047081247 0.23391843 0.29618 -0.027850403 -0.24365506
-0.07540538 -0.07498843 -0.08691325 0.07595531 0.19166587 0.016547253 0.03618542 -0.068340704
-0.07369353 -0.06610581 0.07199399 -0.004411003 -0.14322276 0.046816014 -0.044643562 0.0038835744
0.044955093 -0.027606014 0.12300645 0.10794003 -0.14402832 -0.051523592 0.01518897 -0.007377097
-0.0038608378 0.045367423 -0.08702861 -0.0016017018 0.035725463 -0.04459029 0.0419745 -0.08939054
0.42851827 0.055550154 -0.035772327 0.012042967 0.25777245 -0.09514007 0.20638056 -0.565339
0.11353344 0.07869832 0.005800676 0.11001481 0.13461752 0.011756812 0.16113743 0.20080882
-0.06228422 -0.08611928 -0.04980241 0.046883903 -0.089392 0.029735992 -0.009200555 0.00021854565
-0.20152728 0.058234725 -0.27517083 -0.28149217 0.05397258 0.033395573 -0.01811045 -0.09301638
-0.059596017 -0.087194696 -0.14066188 0.23297341 0.0813804 -0.08779882 -0.07554435 -0.0224653
-0.014187016 0.01208736 -0.007401134 0.03250343 -0.09725661 -0.016340218 0.09447673 0.025969926
0.028589746 0.07443584 0.06327007 -0.11328464 -0.034953237 0.07007997 -0.026069364 -0.024601797
0.06283089 0.08573264 0.07849606 -0.15782517 0.053273343 -0.081762634 -0.10177171 0.11241251
-0.060544677 0.03566648 -0.055618808 0.08026136 -0.10609085 0.044068083 0.07483436 -0.0038241223
0.08867262 0.10332838 0.047308337 0.08682116 -0.064782135 -0.060486943 -0.00011753644 -0.42734575
0.06525237 0.0040365006 0.08608073 -0.0817581 -0.06269413 -0.0813711 -0.004061949 0.02163094
-0.2022759 -0.10240586 0.035508275 -0.11607449 0.005542533 0.08632987 -0.06269222 -0.028099658
-0.06269669 -0.18056655 0.046275545 0.35025704 -0.005360062 -0.01512735 -0.053422462 0.029303912
-0.093196124 -0.27513614 0.14755553 0.015431614 0.06677668 0.11573425 0.13196567 0.031016814
0.1250851 0.042645164 0.006324731 -0.014330018 0.36301813 0.014764952 -0.23367366 -0.16737863
0.1265919 0.10681101 -0.14410982 0.053560313 -0.023039473 0.03904856 -0.04431703 0.018396098
0.0016340183 0.07472006 0.07024208 -0.013698823 0.04667219 0.052115817 0.03419983 -0.086159915
-0.055004533 0.044935282 0.06743246 0.06309523 -0.3141404 -0.0025257445 0.29984108 -0.006711059
0.1799832 0.021306867 -0.11135298 -0.05271309 -0.072724044 0.0631006 0.05386814 0.038110524
0.12069983 0.03499373 0.08969936 0.088729635 0.021271165 -0.003313524 0.031362683 0.0069660135
00000000: bbda 95bc 9571 843d c537 a43b c8c0 8f3d
00000010: a30c b63d b212 aabc 96b9 90bd 6887 d0bd
00000020: 4cbf 573c e351 fbbd f134 85bd afee 3e3d
00000030: 922f dc3d 3d25 763e 1744 a2bc f599 a03c
00000040: 59a8 46be e898 7e3e 2fa9 ec3d baac 35bd
00000050: 7f56 f8bd c510 403d 0077 f5bc ff40 c1bd
00000060: 6bab 963d c132 15be 334a 23be c221 07bd
00000070: 9654 1bbd ae31 07bc 34e8 e4bc 8f80 b23c
00000080: e61c f33e f24f c3bd 1fd3 66bd 97df 213e
00000090: 8f36 5ebc 4144 e93b bd06 30bc 1f35 ccba
000000a0: b952 c1bb ab4f abbe ace1 ff3b aaf7 25bd
000000b0: 69e9 953b f058 123d 9f7f 8abd b2b1 0d3d
000000c0: f254 94bd 6c53 af3d bfc6 eebc 6466 e13d
000000d0: ad36 84bc 8046 ed3b 38d7 7cbd cd84 b9bd
000000e0: c61c 07ba 284e f4be 795a 733e 44d8 40bd
000000f0: 5088 6f3e e8a4 973e 8726 e4bc b680 79be
00000100: 236e 9abd 8993 99bd 93ff b1bd 758e 9b3d
00000110: 0f44 443e 1b8e 873c 2a37 143d 36f6 8bbd
00000120: a2ec 96bd 7c62 87bd 9671 933d 2d8a 90bb
00000130: fda8 12be 26c2 3f3d 2bdc 36bd 9183 7e3b
00000140: d522 383d 0226 e2bc ceea fb3d aa0f dd3d
00000150: 297c 13be 670a 53bd 28db 783c 93bb f1bb
00000160: 1c06 7dbb 31d3 393d 0e3c b2bd 32f0 d1ba
00000170: dd54 123d 4fa4 36bd 74ed 2b3d 6312 b7bd
00000180: bf66 db3e 8f88 633d 0186 12bd dd4f 453c
00000190: c0fa 833e ccd8 c2bd 6d55 533e 0fba 10bf
000001a0: 3884 e83d 962c a13d 9913 be3b 724f e13d
000001b0: 2dd9 093e a59f 403c 3601 253e d4a0 4d3e
000001c0: bd1d 7fbd 4e5f b0bd 9dfd 4bbd 5609 403d
000001d0: 2713 b7bd e598 f33c edbd 16bc 6729 6539
000001e0: 2b5d 4ebe 8987 6e3d 31e3 8cbe be1f 90be
000001f0: 5a12 5d3d ccc9 083d 5e5c 94bc 5f7f bebd
00000200: f41a 74bd 2293 b2bd ab09 10be 9590 6e3e
00000210: c4aa a63d decf b3bd ffb6 9abd 2609 b8bc
00000220: a870 68bc 100a 463c 3685 f2bb 5122 053d
00000230: 792e c7bd ecdb 85bc 047d c13d e2be d43c
00000240: 0b35 ea3c d171 983d bd93 813d c701 e8bd
00000250: 202b 0fbd 1686 8f3d 6b8f d5bc b589 c9bc
00000260: 7bad 803d 9894 af3d 8bc2 a03d ec9c 21be
00000270: 2635 5a3d 2b73 a7bd b06d d0bd 8838 e63d
00000280: b2fd 77bd 0417 123d 8cd0 63bd 1160 a43d
00000290: 2946 d9bd bc80 343d c242 993d 209e 7abb
000002a0: fe99 b53d d49d d33d 63c6 413d 4bcf b13d
000002b0: 7fac 84bd 28c1 77bd e57d f6b8 10cd dabe
000002c0: 09a3 853d 9f44 843b 184b b03d ca70 a7bd
000002d0: c865 80bd e4a5 a6bd 191a 85bb 5e33 b13c
000002e0: 6a21 4fbe 2aba d1bd 2071 113d 76b8 edbd
000002f0: 239e b53b b7cd b03d c764 80bd 4131 e6bc
00000300: 1f67 80bd 70e6 38be 6d8b 3d3d e454 b33e
00000310: 75a3 afbb b4d8 77bc 83d1 5abd c20e f03c
00000320: 9cdd bebd a5de 8cbe cc18 173e e1d4 7c3c
00000330: 36c2 883d 1406 ed3d 0222 073e f916 fe3c
00000340: 4f16 003e b2ac 2e3d b03f cf3b 74c8 6abc
00000350: 83dd b93e b2e8 713c 2648 6fbe 4e65 2bbe
00000360: 4fa1 013e bbbf da3d 8691 13be 0f62 5b3d
00000370: 47bd bcbc 62f1 1f3d c685 35bd 6ab3 963c
00000380: 8e2c d63a d506 993d 14db 8f3d 0771 60bc
00000390: 572b 3f3d 6577 553d 1f15 0c3d 9c74 b0bd
000003a0: 6f4c 61bd 0f0e 383d 081a 8a3d 1238 813d
000003b0: 03d7 a0be f686 25bb c584 993e 71e8 dbbb
000003c0: 844d 383e bd8b ae3c 080d e4bd aee9 57bd
000003d0: 58f0 94bd e33a 813d d7a4 5c3d c819 1c3d
000003e0: 7931 f73d 9655 0f3d 4cb4 b73d e2b7 b53d
000003f0: de40 ae3c b527 59bb 2876 003d 2843 e43b

bias f4 [256]
0.0086256005 0.014983181 0.07476686 -0.016662441 -0.035215553 -0.10147305 -0.054377425 0.06450843
0.14929809 -0.11953859 0.025930438 -0.012331322 0.07771344 -0.07872612 -0.028422374 -0.033015084
-0.012594018 -0.049819548 0.07358731 -0.07063797 0.018200161 -0.061004695 0.074279845 0.19040565
-0.14374553 0.112826675 0.042001586 -0.07177157 -0.10451036 -0.118384056 0.12467459 0.1110594
-0.028294532 0.0006603093 0.06782659 -0.0029527484 -0.120938145 -0.012510128 -0.038814195 -0.15313362
-0.05211198 0.050464775 0.032504994 -0.095945396 -0.03453048 0.028246006 0.110475264 0.14673486
-0.00066961616 0.06386725 -0.039917372 0.020912306 -0.12904364 0.112472795 0.11644194 -0.037717365
-0.03408148 0.045197107 0.18964857 0.02169597 -0.012054517 0.0529114 -0.1201137 0.011240104
0.0028952453 0.039381146 0.0056861592 -0.048222173 -0.08214558 -0.21106467 -0.054338027 -0.017104091
-0.078550234 0.080735505 0.03101155 0.024504684 0.010201797 0.039335303 0.048112255 -0.04452408
-0.14228563 0.03542176 -0.008239898 -0.02707208 -0.106532045 0.09527624 0.07957811 0.041224223
0.17400558 -0.04773395 0.07237806 0.0013767263 0.04312266 0.10371617 0.08154563 0.04705033
-0.13897058 0.21361303 -0.13455659 0.0021713243 0.054498915 -0.12204753 -0.11913454 -0.0013923531
-0.074602805 -0.047394887 -0.07050014 0.11632987 0.13343982 0.04343547 -0.060844935 0.09293581
-0.0018352799 0.00935818 -0.059456713 0.025623994 -0.09063222 -0.12776648 -0.017869646 -0.074241325
-0.026842043 0.14860196 0.058929965 -0.020093018 -0.012094962 0.026174394 -0.026377255 -0.0040012416
-0.0800446 0.02613615 0.04515237 0.07595767 -0.103688814 0.004983982 0.095322035 0.0806412
-0.09642034 -0.024154611 -0.04533022 -0.09088491 0.10680013 -0.0073325094 -0.032080557 -0.09824483
0.059945665 0.017203871 -0.03644879 0.17833933 0.0320762 0.14344206 -0.027369956 0.06409755
0.04141963 0.037288588 -0.016882181 -0.00082797115 0.10408996 0.008838908 -0.119334504 -0.100457996
0.03318686 -0.020683233 -0.0024999517 -0.013827865 0.07599625 -0.16140945 0.07263761 -0.043650843
-0.01543357 -0.04610683 -0.0076533663 0.04915186 -0.023095874 -0.040438496 0.03659875 0.09820349
0.054969802 -0.08052136 -0.10032914 -0.119472235 0.059098236 0.0059982273 0.15909383 -0.03203596
0.03515275 -0.08726203 0.15011622 -0.028103923 -0.059983343 -0.058628425 -0.026279937 -0.0010714981
-0.02515314 0.124999754 -0.09078988 0.09487393 0.02928129 -0.048510656 0.012563446 0.042100914
0.060031187 -0.09435211 0.09274989 -0.035177115 0.020827409 -0.05124613 0.027302986 0.05007409
0.14946243 0.024665324 -0.05771128 -0.083554156 -0.037109643 0.11522473 -0.095803514 0.09984443
0.021674294 0.16411321 0.033092253 -0.023841225 0.042612217 -0.006879909 0.061496448 0.1058435
0.12300766 -0.004880207 0.017284412 -0.022440052 -0.011947969 0.004762099 -0.0007970766 -0.13847618
-0.05574137 0.09845433 -0.050607987 0.093211144 -0.038108062 0.08367792 -0.14291833 -0.008810393
-0.032969464 0.006198424 -0.013360699 -0.1452541 0.0739949 0.0052158013 0.0010307716 0.04788595
-0.082077414 0.048919965 -0.002010897 0.001149033 -0.11494526 -0.013149669 0.058357116 0.10925259
00000000: 6452 0d3c 047c 753c 5e1f 993d ac7f 88bc
00000010: 2f3e 10bd 1ad1 cfbd ddba 5ebd ff1c 843d
00000020: 99e1 183e a6d0 f4bd 126c d43c 5009 4abc
00000030: 3928 9f3d 293b a1bd 0ad6 e8bc d33a 07bd
00000040: 2457 4ebc 950f 4cbd f2b4 963d a4aa 90bd
00000050: 8118 953c 0fe0 79bd 0820 983d b3f9 423e
00000060: 0732 13be ac11 e73d db09 2c3d f9fc 92bd
00000070: 8709 d6bd 5773 f2bd 6455 ff3d 1c73 e33d
00000080: efc9 e7bc 9b18 2d3a abe8 8a3d e682 41bb
00000090: 6bae f7bd 48f7 4cbc a2fb 1ebd 0fcf 1cbe
000000a0: 5f73 55bd 27b4 4e3d f523 053d 057f c4bd
000000b0: d56f 0dbd 2b64 e73c db40 e23d aa41 163e
000000c0: 2e89 2fba d5cc 823d 6680 23bd 4950 ab3c
000000d0: 0424 04be 2358 e63d 1d79 ee3d 867d 1abd
000000e0: 0699 0bbd 9a20 393d 3c33 423e bfbb b13c
000000f0: 4f80 45bc a0b9 583d 2cfe f5bd 6a28 383c
00000100: 28be 3d3b 204e 213d f652 ba3b 9d84 45bd
00000110: f13b a8bd 5621 58be 8d91 5ebd e11d 8cbc
00000120: f2de a0bd a858 a53d ef0b fe3c 0cbe c83c
00000130: 7025 273c 0e1e 213d 5b11 453d e25e 36bd
00000140: 53b3 11be 6816 113d a300 07bc 44c6 ddbc
00000150: 792d dabd 3020 c33d d9f9 a23d bbda 283d
00000160: 852e 323e ad84 43bd f33a 943d 4573 b43a
00000170: 63a1 303d 2569 d43d 6501 a73d d9b7 403d
00000180: 4e4e 0ebe 60bd 5a3e 34c9 09be c74c 0e3b
00000190: 413a 5f3d 0ef4 f9bd cffc f3bd 9e7f b6ba
000001a0: 5bc9 98bd 2421 42bd 6162 90bd 5b3e ee3d
000001b0: 73a4 083e 64e9 313d 8a38 79bd 2155 be3d
000001c0: c68d f0ba 0d53 193c e288 73bd 69e9 d13c
000001d0: 639d b9bd 37d5 02be 5d63 92bc d60b 98bd
000001e0: d8e3 dbbc 1d2b 183e 8c60 713d 1d9a a4bc
000001f0: f329 46bc af6b d63c 1d15 d8bc d91c 83bb
00000200: 6cee a3bd 7b1b d63c b1f1 383d b28f 9b3d
00000210: cd5a d4bd ac50 a33b 3338 c33d 3727 a53d
00000220: 0778 c5bd e4df c5bc 2eac 39bd de21 babd
00000230: 07ba da3d 8c45 f0bb e766 03bd 9634 c9bd
00000240: 9689 753d 22ef 8c3c 544b 15bd 969e 363e
00000250: 5562 033d 7ae2 123e f536 e0bc 9445 833d
00000260: a1a7 293d ebbb 183d 804c 8abc 340c 59ba
00000270: 1e2d d53d 11d1 103c a665 f4bd ecbc cdbd
00000280: f2ee 073d e26f a9bc 3bd6 23bb 458e 62bc
00000290: eca3 9b3d 8548 25be 07c3 943d 3acb 32bd
000002a0: 16dd 7cbc 84da 3cbd 17c9 fabb 7653 493d
000002b0: 8f33 bdbc d6a2 25bd 92e8 153d e91e c93d
000002c0: 0428 613d 62e8 a4bd 5d79 cdbd dcad f4bd
000002d0: fe10 723d c78c c43b 7ee9 223e 2438 03bd
000002e0: 54fc 0f3d 6fb6 b2bd 11b8 193e 333a e6bc
000002f0: 18b1 75bd 5c24 70bd 0649 d7bc 8371 8cba
00000300: f50d cebc dfff ff3d 0bf0 b9bd 434d c23d
00000310: 51df ef3c 1cb3 46bd e9d6 4d3c 0272 2c3d
00000320: 43e3 753d ae3b c1bd a8f3 bd3d e115 10bd
00000330: 3e9e aa3c 76e7 51bd 83aa df3c 7d1a 4d3d
00000340: ae0c 193e ef0e ca3c aa62 6cbd 711e abbd
00000350: 4800 18bd f1fa eb3d a234 c4bd 3d7b cc3d
00000360: 4a8e b13c 4b0d 283e be8b 073d ac4e c3bc
00000370: 268a 2e3d dc70 e1bb b3e3 7b3d 7ac4 d83d
00000380: 71eb fb3d 25ea 9fbb 0a98 8d3c 33d4 b7bc
00000390: 6ac1 43bc 620b 9c3b e8f2 50ba b3cc 0dbe
000003a0: 1051 64bd 6ca2 c93d 524a 4fbd 7ce5 be3d
000003b0: 3317 1cbd 545f ab3d 2f59 12be 7759 10bc
000003c0: fd0a 07bd 261c cb3b d5e6 5abc 7ebd 14be
000003d0: a38a 973d 50e9 aa3b f51a 873a 0f24 443d
000003e0: 3418 a8bd 4d60 483d 41c9 03bb 269b 963a
000003f0: 6c68 ebbd b671 57bc df07 6f3d d2bf df3d

weight f4 [256, 256]
0.0084910225 -0.03738873 0.016183117 0.034675606 -0.010524021 -0.04483841 -0.026423931 0.022960382
-0.013707683 -0.0036924174 -0.007865563 0.026145171 0.011256363 -0.0465185 0.04825373 -0.015359737
-0.0149316 0.0073665963 -0.040972512 -0.046344087 -0.03593671 0.055954162 0.009974498 -0.048672944
0.034251686 0.011572712 -0.009659621 0.035239168 0.04656606 0.086907454 -0.0310144 -0.051943023
0.0660993 -0.03171378 0.0011235356 -0.023811053 0.058737922 -0.0039939247 -0.0067283604 0.0383507
-0.09548924 -0.031479828 0.010457744 -0.007093734 0.023997393 -0.026329353 0.04243864 0.07999332
0.035212953 0.0046158684 0.0490118 -0.0033989646 -0.018890643 0.008047543 0.025710788 0.01991301
0.046669967 0.020502567 -0.028602283 -0.012510091 0.044162024 -0.04582244 -0.0035275144 0.003113726
0.0014631919 -0.022214534 8.9538036e-05 0.037699167 -0.016588077 0.013370836 -0.0018356051 0.037264947
-0.036620107 -0.039725546 0.027982082 0.07923721 0.021643056 -0.018784184 0.016728003 -0.0038481252
-0.016611706 0.014197375 0.01152913 -0.06767851 0.024224363 0.0119982315 0.009545135 -0.028187871
0.04489612 0.017066168 -0.018527735 -0.04062047 0.010016241 -0.041850798 0.00940684 0.016551763
-0.021502782 -0.0370799 -0.020926312 -0.018608458 -0.017925462 -0.05072737 0.020442944 -0.014608573
0.0017730615 0.028849797 -0.005936683 -0.038333237 -0.055537026 -0.047091104 -0.0858993 -0.036102336
0.13204509 0.010756806 0.0063988175 0.080586314 -0.019545272 -0.00023278492 0.05163219 0.01193463
0.0080879135 -0.018901799 -0.02249619 -0.019968992 0.0045782216 -0.00450675 -0.029114211 0.0074840197
0.021521837 0.001975291 0.01623037 0.08649273 -0.011344398 0.036017705 -0.03746644 0.021000808
-0.03383213 -0.013053272 -0.026560782 0.010995199 -0.0015580214 0.022953896 0.018152868 -0.0018722251
0.043669518 -0.037126742 -0.06551093 -0.032318458 -0.041759938 -0.020978034 0.011172973 0.034619294
-0.01317015 -0.04176473 0.036870092 -0.045867257 -0.03361595 0.00089176866 -0.013814838 0.0006735508
0.047948785 0.03176267 -0.016873093 -0.02608328 0.056747667 0.011720484 -0.014935877 -0.043238223
-0.07529898 -0.021940412 0.04358676 0.060711123 0.03111431 0.038444433 0.009099902 0.01455731
-0.028252687 -0.0020978057 0.025867764 0.030071542 -0.0046327556 -0.026448619 0.0008180162 -0.007268339
0.048145328 0.021661311 -0.0144222155 0.0063618543 0.023170356 0.0064840815 0.041494936 -0.009552538
0.027937867 -0.021799745 -0.0368995 -0.027351536 0.014095871 -0.0029000267 0.0424253 -0.0060964995
-0.035162814 0.032668952 0.04357963 0.0013025498 0.04276744 0.034166068 -0.01616352 0.0237879
-0.029867902 0.022279752 0.054957435 -0.0032220618 0.004889771 -0.022611504 0.0021590798 -0.020319136
0.06888299 0.019439107 -0.026979532 -0.0859613 -0.0086660925 0.053013887 0.004548813 0.0029083723
0.06947828 0.018129969 0.019303897 0.037846815 0.016917005 0.044888705 -0.0023861974 -0.047519412
-0.040717192 0.025150118 -0.005507704 0.029144254 -0.007063019 -0.00044243629 -0.05317635 0.028304882
-0.03476272 0.04260177 -0.005915221 0.020839361 0.047217347 -0.043478075 -0.0038747229 -0.044661034
-0.019955322 -0.04178056 0.044324506 0.00093700807 -0.01309189 -0.03342353 -0.023812313 -0.019083079
00000000: ee1d 0b3c ed24 19bd 7592 843c 0208 0e3d
00000010: f26c 2cbc 7ba8 37bd 0077 d8bc 6917 bc3c
00000020: 3196 60bc 7cfc 71bb 90de 00bc 662e d63c
00000030: 9c6c 383c 2f8a 3ebd b4a5 453d 68a7 7bbc
00000040: aba3 74bc 7d63 f13b cbd2 27bd 4cd3 3dbd
00000050: 5f32 13bd 3130 653d 146c 233c 485d 47bd
00000060: 7f4b 0c3d 799b 3d3c 6343 1ebc f256 103d
00000070: 0ebc 3e3d 89fc b13d e911 febc 35c2 54bd
00000080: 125f 873d 4fe6 01bd 9943 933a 660f c3bc
00000090: 2d97 703d 78df 82bb 9479 dcbb a015 1d3d
000000a0: dd8f c3bd fef0 00bd f556 2b3c 8e72 e8bb
000000b0: 2e96 c43c a8b0 d7bc 24d4 2d3d 8ad3 a33d
000000c0: 753b 103d b640 973b 99c0 483d 2ac1 5ebb
000000d0: 8dc0 9abc d7d9 033c 6e9f d23c 9c20 a33c
000000e0: 0229 3f3d 00f5 a73c 564f eabc 20f7 4cbc
000000f0: 3de3 343d 50b0 3bbd df2d 67bb a70f 4c3b
00000100: 93c8 bf3a 41fb b5bc 5ec6 bb38 716a 1a3d
00000110: b8e3 87bc 5a11 5b3c b098 f0ba 21a3 183d
00000120: f7fe 15bd 41b7 22bd ae3a e53c 1e47 a23d
00000130: c74c b13c 4ae1 99bc 2a09 893c d430 7cbb
00000140: 4615 88bc 1b9c 683c ade4 3c3c 089b 8abd
00000150: 2c72 c63c 3b94 443c 3363 1c3c 40ea e6bc
00000160: fee4 373d 59ce 8b3c 7ac7 97bc a661 26bd
00000170: 291b 243c be6b 2bbd 261f 1a3c 9097 873c
00000180: 9a26 b0bc 18e1 17bd a86d abbc c470 98bc
00000190: 6bd8 92bc 81c7 4fbd f677 a73c cc58 6fbc
000001a0: 1266 e83a 6956 ec3c 8288 c2bb 5003 1dbd
000001b0: cb7a 63bd 9ae2 40bd f9eb afbd 0be0 13bd
000001c0: d436 073e 503d 303c 2cad d13b 700a a53d
000001d0: 681d a0bc ba17 74b9 467c 533d 7789 433c
000001e0: 2b83 043c f2d7 9abc ee49 b8bc 0396 a3bc
000001f0: e804 963b 5cad 93bb ed80 eebc 823c f53b
00000200: 904e b03c e273 013b 8ef5 843c 1a23 b13d
00000210: dbdd 39bc 4d87 133d 6976 19bd e309 ac3c
00000220: 8f93 0abd 64dd 55bc ff95 d9bc 3525 343c
00000230: 8636 ccba cf09 bc3c 53b5 943c 7365 f5ba
00000240: cfde 323d 3612 18bd 982a 86bd 5c60 04bd
00000250: 780c 2bbd 20da abbc d80e 373c f6cc 0d3d
00000260: 9dc7 57bc 7e11 2bbd 1805 173d 4edf 3bbd
00000270: e1b0 09bd 95c5 693a a157 62bc 3b91 303a
00000280: f265 443d 9319 023d 7139 8abc 9aac d5bc
00000290: 3e70 683d 4607 403c 9cb5 74bc 901a 31bd
000002a0: 5a36 9abd 61bc b3bc 0888 323d 3aac 783d
000002b0: 70e3 fe3c e977 1d3d c117 153c c981 6e3c
000002c0: 2e72 e7bc 577b 09bb a2e8 d33c 9858 f63c
000002d0: 5fce 97bb c6aa d8bc 2370 563a 3f2b eebb
000002e0: 0934 453d 1073 b13c 284b 6cbc 1a77 d03b
000002f0: c2cf bd3c 6b78 d43b 98f6 293d 4082 1cbc
00000300: f4dd e43c 6195 b2bc ee23 17bd 5410 e0bc
00000310: 5ef2 663c 600e 3ebb 27c6 2d3d 25c5 c7bb
00000320: e206 10bd e1cf 053d 8e80 323d 52ba aa3a
00000330: e92c 2f3d b8f1 0b3d 5c69 84bc d8de c23c
00000340: 88ad f4bc 0784 b63c 0c1b 613d 3a29 53bb
00000350: 5f3a a03b c33b b9bc 597f 0d3b 5174 a6bc
00000360: 8612 8d3d c33e 9f3c 2e04 ddbc 7a0c b0bd
00000370: 3afc 0dbc 1725 593d 360e 953b 649a 3e3b
00000380: a14a 8e3d 4d85 943c 3523 9e3c 4305 1b3d
00000390: 8895 8a3c 38dd 373d c061 1cbb b7a3 42bd
000003a0: 12c7 26bd 9f07 ce3c f879 b4bb eebf ee3c
000003b0: e670 e7bb cbf6 e7b9 72cf 59bd a4df e73c
000003c0: 5b63 0ebd 327f 2e3d 78d4 c1bb 4fb7 aa3c
000003d0: fa66 413d 1116 32bd 10ef 7dbb 7dee 36bd
000003e0: 5879 a3bc 1822 2bbd 9d8d 353d 8ca1 753a
000003f0: 5e7f 56bc 1de7 08bd 0a12 c3bc 1e54 9cbc

bias f4 [256]
-0.028739868 0.002156408 -0.027318966 0.04386915 0.052970167 0.039692037 -0.008087232 -0.0049691866
0.0067911875 0.019643815 -0.004400647 0.012575428 0.040191308 0.003107114 0.06374468 0.016462255
-0.042657338 0.013706516 0.010468716 0.009145626 0.024154939 -0.04938515 -0.0062071476 -0.00154221
0.0017953065 0.04203557 -0.005129907 -0.035783857 0.003424312 0.047195356 0.003549882 -0.005695581
0.004096531 -0.02383057 -0.00044542947 -0.034800537 0.0057174894 -0.003609882 0.042625487 0.03425841
0.022090927 0.025168562 -0.00067571306 0.0045382837 -0.02240039 0.004839243 0.0033090385 0.0055737393
0.036096465 -0.017641861 0.0020285936 -0.008886168 -0.017165653 0.0043216823 -0.01072633 0.01582592
-0.0010950209 -0.018148739 -0.043573804 0.0015399265 0.012143756 -0.011926075 0.035304338 -0.0017376704
-0.010443512 0.03558076 0.015257452 -0.028760064 -0.034193996 0.07007989 -0.028568253 -0.01579233
-0.036082126 -0.010574058 -0.031052744 0.040499114 -0.04687311 0.07330834 -0.052978586 -0.022307867
-0.017818235 -0.0045077153 0.043628573 0.018853376 0.03258543 -0.010220962 -0.009979094 -0.051017825
-0.02960443 0.025537414 -0.004160215 0.01775912 -0.031762093 0.020661566 -0.01121284 -0.012241414
0.059371118 0.027552305 -0.0060646837 -0.017395021 -0.010190301 -0.03338137 -0.016351916 -0.013711267
0.05810031 0.009070064 0.0009854612 0.014726891 -0.027856328 -0.021287385 0.02074382 0.033901222
0.025512222 -0.064358294 -0.027633691 0.014119326 -0.018533804 -0.017697157 -0.0010550285 -0.061607704
0.010833876 0.008591083 0.03500137 -0.00911279 0.03083264 -0.0013253705 0.024949826 0.03209653
0.030239996 -0.017827054 -0.05121503 0.06954305 0.045102034 0.04390157 0.007572255 -0.007538602
-0.0444555 -0.01906433 -0.009180434 0.0070924787 0.0063175857 -0.0015541967 0.051130176 0.035655543
0.0106307315 0.018405084 -0.022674032 -0.023967441 -0.021869762 0.0018248174 0.018185912 0.026201693
0.022731362 0.040853273 0.055780485 0.006798879 0.0055626947 -0.029443981 -0.012742594 0.013114511
0.0147329485 0.013421321 -0.0016471244 -0.012653051 -0.034487404 -0.012854183 0.011171456 -0.006313707
0.0066439435 -0.020013249 0.017714577 -0.010917174 0.008064583 -0.012048207 -0.05671336 0.03844167
0.018631501 -0.032299403 -0.023951974 0.00369413 -0.013255786 -0.021516163 0.0065629627 -0.03624208
-0.055307742 -0.007754575 0.05604385 -0.036366843 -0.0074576796 -0.0032775693 -0.038027193 0.006796356
-0.034871202 0.040278908 0.002204007 0.04102282 -0.022247963 0.03528542 0.026761677 -0.020173227
-0.0212514 -0.058507092 0.021385787 0.01648194 -0.001961991 -0.050341602 -0.0033009776 -0.027506905
0.021077223 -0.028258605 -0.01068897 -0.0006293997 0.013486884 -0.04469194 -0.022756876 0.039133873
-0.043223873 -0.02370979 0.017946268 -0.009619859 -0.022052716 0.051456574 -0.0092691835 -0.018886318
-0.02505538 -0.015730878 -0.02710115 0.022567637 0.0032804518 0.05097021 0.050594106 -0.0065022926
-0.03309196 0.022912186 0.0751562 0.016603723 0.046096664 -0.008454448 -0.031533074 0.0077012423
-0.06475288 0.0073443814 0.0021849289 0.0056968885 0.0039746542 0.012007635 -0.027302837 -0.01902044
0.04175583 0.0059264004 0.035388127 0.025878118 0.008423329 -0.0043898425 -0.018261954 0.036291413
00000000: df6f ebbc 8652 0d3b 06cc dfbc 23b0 333d
00000010: 3ff7 583d 1e94 223d 4f80 04bc 8fd4 a2bb
00000020: 9c88 de3b 11ec a03c 4d33 90bb 2b09 4e3c
00000030: a49f 243d b9a0 4b3b 928c 823d dadb 863c
00000040: 76b9 2ebd 4b91 603c fa84 2b3c 89d7 153c
00000050: 94e0 c53c 1548 4abd 5465 cbbb fb23 caba
00000060: 7d50 eb3a 7d2d 2c3d c718 a8bb 1892 12bd
00000070: 6c6a 603b eb4f 413d 23a5 683b ffa1 babb
00000080: 313c 863b 5438 c3bc 8888 e9b9 028b 0ebd
00000090: c759 bb3b c593 6cbb 1098 2e3d 8c52 0c3d
000000a0: 08f8 b43c 4d2e ce3c 5622 31ba e2b5 943b
000000b0: 0681 b7bc 8392 9e3b 74dc 583b eaa3 b63b
000000c0: e3d9 133d aa85 90bc 27f2 043b 4a97 11bc
000000d0: fc9e 8cbc e69c 8d3b 7dbd 2fbc 5ca5 813c
000000e0: ce86 8fba aaac 94bc 727a 32bd 5cd7 c93a
000000f0: 9bf6 463c 9665 43bc 489b 103d 8bc2 e3ba
00000100: 441b 2bbc 22bd 113d 64fa 793c 3a9a ebbc
00000110: 010f 0cbd 0c86 8f3d f807 eabc eb5e 81bc
00000120: daca 13bd d03e 2dbc 5362 febc 66e2 253d
00000130: 05fe 3fbd af22 963d 1300 59bd fdbe b6bc
00000140: 8cf7 91bc 75b5 93bb e0b3 323d 6572 9a3c
00000150: 4d78 053d d275 27bc 5b7f 23bc 11f8 50bd
00000160: fd84 f2bc d733 d13c 6a52 88bb 937b 913c
00000170: f818 02bd 7242 a93c 0fb6 37bc 3690 48bc
00000180: 212f 733d 5fb5 e13c 41ba c6bb 0180 8ebc
00000190: 38f5 26bc e7ba 08bd 74f4 85bc 39a5 60bc
000001a0: 97fa 6d3d 9b9a 143c 972a 813a 0f49 713c
000001b0: f432 e4bc e262 aebc f2ee a93c 02dc 0a3d
000001c0: 02ff d03c 48ce 83bd 0d60 e2bc bf54 673c
000001d0: 34d4 97bc a1f9 90bc e248 8aba 5c58 7cbd
000001e0: 9280 313c 9dc1 0c3c 995d 0f3d d04d 15bc
000001f0: bc94 fc3c 0eb8 adba 9463 cc3c a777 033d
00000200: deb9 f73c 0b0a 92bc dac6 51bd 966c 8e3d
00000210: e9bc 383d 22d2 333d ae20 f83b 6106 f7bb
00000220: f816 36bd cc2c 9cbc 8869 16bc 0668 e83b
00000230: c003 cf3b 30b6 cbba e06d 513d 8c0b 123d
00000240: 852c 2e3c 42c6 963c e4be b9bc 5e57 c4bc
00000250: 3728 b3bc b62e ef3a 9ffa 943c efa4 d63c
00000260: 1f37 ba3c c355 273d 147a 643d 21c9 de3b
00000270: 4447 b63b 8134 f1bc 50c6 50bc 3fde 563c
00000280: 7762 713c 1ae5 5b3c 53e4 d7ba be4e 4fbc
00000290: aa42 0dbd 5a9a 52bc 7c08 373c 37e3 cebb
000002a0: 70b5 d93b d3f2 a3bc 291e 913c f2dd 32bc
000002b0: 5021 043c d865 45bc 454c 68bd 0375 1d3d
000002c0: 17a1 983c 614c 04bd ee36 c4bc 3819 723b
000002d0: cc2e 59bc aa42 b0bc 1f0e d73b 9372 14bd
000002e0: 5f8a 62bd 171a febb 3c8e 653d 66f5 14bd
000002f0: 8d5f f4bb 7dcc 56bb 67c2 1bbd f7b3 de3b
00000300: 1bd5 0ebd 7ffb 243d 1a71 103b 8b07 283d
00000310: 5c41 b6bc 7287 103d 4e3b db3c 5342 a5bc
00000320: 6a17 aebc 22a5 6fbd 3f31 af3c 2205 873c
00000330: bf94 00bb ff32 4ebd 3755 58bb 2956 e1bc
00000340: 24aa ac3c 977e e7bc ca20 2fbc 4dfe 24ba
00000350: 17f8 5c3c e50e 37bd a16c babc d74a 203d
00000360: 840b 31bd 093b c2bc 0d04 933c 9d9c 1dbc
00000370: e6a7 b4bc 21c4 523d c6dd 17bc 7bb7 9abc
00000380: f140 cdbc 0bde 80bc 3b03 debc c4df b83c
00000390: d9fc 563b 24c6 503d c43b 4f3d 2f11 d5bb
000003a0: 6f8b 07bd 56b2 bb3c 7eeb 993d 8804 883c
000003b0: dbcf 3c3d 8684 0abc d328 01bd b45a fc3b
000003c0: 289d 84bd 23a9 f03b 0631 0f3b f7ac ba3b
000003d0: d13d 823b acbb 443c 33aa dfbc c1d0 9bbc
000003e0: 2908 2b3d 4032 c23b 24f3 103d 59fe d33c
000003f0: 0102 0a3c abd8 8fbb 189a 95bc 4ea6 143d
