output/2023-09-14-22-52-13/trained_model/tetris_epoch3500_score15400.pt (torch, 842187 bytes, 8 tensors)

weight f4 [32, 1, 4, 4]
00000000: 9fb7 54bc fcfc bd3c e161 41bd 14f6 c43c
00000010: 8f56 03bb 2b53 863d b907 12bb 68e4 943d
00000020: 3959 67be 3cc3 ea3d 6f8d 3d3e 2b07 903c
00000030: 968a 4e3d 3a8a 1f3e e6a0 3a3e 1f53 37bd
00000040: b03c d63e dd01 7abd c0e3 c9be 7266 96be
00000050: a615 12bf 1e2b 4f3a 40c2 bcbd a34f 48be
00000060: 3128 803d e900 55be 2f8d 733d 28b8 b2be
00000070: aba8 83be 6816 033d 4a8d b33d f3f6 30bf
00000080: a85c 973c 31ce d03d 61dc 4fbf d322 3dbe
00000090: 3168 433d 3826 85be cf01 593e 0c8f 99be
000000a0: c637 b63d 2d87 933e d230 803c 3117 773c
000000b0: 5c50 d9bd 1415 02be 37db 1fbe 8372 afbd
000000c0: 4089 c1be 6943 dcbe 8a8a 9cbd 2fb4 54bd
000000d0: 385b 873e a69c 38be 03ce 933e 7e13 ba3d
000000e0: e37e a8be 396f a23c 15a7 23bf 7b8c c43d
000000f0: 6b4e 3abe 7df4 23bf 97fd d8be 2bd0 913d
00000100: 7154 64bd 0da8 44bf d2f9 5cbd 624e ffbc
00000110: c9d2 1a3d ec73 013d a1ed cd3d 829e 153d
00000120: a9cd 563e eff9 60bf a960 a13e 4c7d f1bc
00000130: 6f3a a7bd 17d1 8dbd 0e0d 043c a491 1abc
00000140: 1f84 0cbd 972d 0f3c bf19 3cbe fd9a c6bd
00000150: 38ba 773c b299 19bc eec3 983e 4466 473f
00000160: cec2 05bc 922d dd39 0d13 86be 4c7f 48bf
00000170: d4c7 b4bc c0e4 e7bb 035e 49bd e21c f7bc
00000180: ba9b 55bc 4b0c 643d a400 203e 5a31 713e
00000190: 68df d33d dbc7 efbc fd51 4e3e 6839 c1be
000001a0: b6a4 de3d cef8 123d 73ed 943c b2b2 06bf
000001b0: bc4e 5e3c e93c 85b9 67e7 ed3d 17e0 cdbe
000001c0: a589 3abd 97d6 263d 2546 353e fcf7 e4bd
000001d0: 7ed2 6b3d 5123 e23d d8fa 38bf 806a 1fbf
000001e0: bb88 eb3c 9e67 993d 5a55 13bf 5383 5dbd
000001f0: eb8c 21bd 4018 493e ffd5 8cbe 5cb7 b0be
00000200: 9a61 f9bd e4a7 8f3d 2c5b 07bf c73c 4bbe
00000210: 5c25 e13d e88d 173e 92b2 5d3e a1cc cfbe
00000220: 997c 14bd 8309 a93d b8af 82be 6fe9 3dbf
00000230: cf0f 003e 8949 a2bd 9cc3 0abd d5d4 fe3d
00000240: d2ea 2abe 3c4e adbc 08ed eb3a 3062 af3d
00000250: 88aa 03be 356f 85be e432 ddbe fe79 0fbd
00000260: c461 84bd 29a4 e43e af7d 533e b3a1 dfbd
00000270: 5e90 923d dd84 5fbf 3dce c13d c15f 203d
00000280: de70 7dbd 3234 00be 8c24 33be f4e2 f7bd
00000290: 5392 94bb cf74 91bd b513 3dbe b62b 2c3d
000002a0: 2ca1 b3bc 5c23 073e 0fe7 143f 0ab3 b0bc
000002b0: a986 acbb 3f7d 0bbe 1753 3fbf 5b95 67bd
000002c0: 22a2 45be 492f bbbd 581f b2be 0f94 95bd
000002d0: eb13 adbd ef7f 05bd 8387 223c ac57 a13e
000002e0: 4a6c 14bc c6f7 53bd 7397 203e 9a81 08bf
000002f0: 4629 f93c c99a 1a3d f1b7 533d 8de4 02bf
00000300: 5c01 1c3e f90b 2fbe 7760 1b3d 0add 06bd
00000310: c650 383d 2085 0b3f fe31 4d3d f062 60bd
00000320: 946e b7bd 4395 12bf 5e96 2d3e 72d3 34bd
00000330: 51ac aabc 5520 0ebf 3b43 45be b497 8cbb
00000340: d005 f83c dd00 6bbd d608 28bd 4eeb 8d3d
00000350: e9d1 06bd b2ef 3b3e 5716 113e 4986 873c
00000360: 283f af3c 466a 5d3f 9c12 36bd 71d3 503d
00000370: cdb6 d0bb eab0 abbf 9a07 9d3d 450b cbbc
00000380: 47d1 c63c b135 e33e 612c 303d 72d6 7c3c
00000390: b510 47ba 50d7 353f 0ac9 d23c c644 453c
000003a0: 5c9b 97bc 3e43 aabf 2474 973c c1a7 acbc
000003b0: de3c dbbc 1abb 95bd d448 8fbd 690b 653c
000003c0: 6aa9 5bbe ad26 1abb 193b 253e 80f0 cfbd
000003d0: 41f5 c3bc 76f0 16be d1cf d1bd 1e06 c8bc
000003e0: 465d 023e 5b30 3e3e 6782 a03d bd4b 243e
000003f0: fb15 44bc 91ed a63d d4b3 40bb c4d8 e33d
-0.012983232 0.023191921 -0.047212485 0.02404312 -0.0020040607 0.06558832 -0.0022282435 0.072701275
-0.2259263 0.11463019 0.18510984 0.017581543 0.050425135 0.15580073 0.1822544 -0.044757005
0.41843176 -0.061036933 -0.39431572 -0.29375035 -0.5706428 0.00079028483 -0.09216738 -0.19561629
0.06257666 -0.20801128 0.059460815 -0.34906125 -0.2571462 0.03200379 0.08767183 -0.69126815
0.0184768 0.10195578 -0.81195647 -0.18470316 0.047706787 -0.2600572 0.21192096 -0.2999195
0.08897357 0.28814068 0.01564828 0.015081213 -0.106110305 -0.12703353 -0.15610968 -0.08566763
-0.37800026 -0.4302018 -0.07643612 -0.05192965 0.26436782 -0.18028507 0.28868112 0.09085749
-0.32909307 0.019828426 -0.6392682 0.09597107 -0.18193977 -0.64044935 -0.42380974 0.07119783
-0.055744592 -0.76818925 -0.053949185 -0.031165306 0.037798677 0.031604692 0.1005509 0.036528118
0.2097689 -0.8788137 0.31519058 -0.029478692 -0.08165442 -0.06924646 0.008059753 -0.0094341375
-0.034305688 0.008738897 -0.18369196 -0.096975304 0.015120082 -0.009375023 0.29836982 0.7789042
-0.008164121 0.00042186357 -0.2618641 -0.7831924 -0.022067942 -0.0070768297 -0.049161922 -0.03016514
-0.013037616 0.055675786 0.15625244 0.23553982 0.10345346 -0.029270103 0.20148464 -0.3773911
0.1087126 0.03588181 0.01817963 -0.5261642 0.013568576 -0.00025413118 0.11616402 -0.4021003
-0.045541424 0.040731993 0.1770254 -0.11180112 0.057573788 0.11041892 -0.7225776 -0.6227188
0.028751722 0.074904665 -0.5755211 -0.05408032 -0.03944103 0.19638157 -0.27507016 -0.34514892
-0.12176819 0.070144445 -0.5287349 -0.19847403 0.10993454 0.14800227 0.2165015 -0.40585807
-0.036251638 0.08253767 -0.25524688 -0.74184316 0.1250603 -0.07924182 -0.033877954 0.12442938
-0.1669114 -0.02115547 0.0017999718 0.0856365 -0.12858021 -0.26061407 -0.4320289 -0.03502845
-0.0646396 0.44656494 0.20653413 -0.109195136 0.07156442 -0.8731211 0.09463165 0.039153818
-0.061875217 -0.12519911 -0.1749441 -0.12103835 -0.004534045 -0.071023576 -0.18464549 0.042033873
-0.021927439 0.13197082 0.5816507 -0.021569747 -0.005265076 -0.13621996 -0.7473616 -0.05653892
-0.1930013 -0.09139878 -0.34789538 -0.073036306 -0.08451065 -0.03259271 0.009920004 0.315122
-0.009059021 -0.051749967 0.15682773 -0.53322756 0.030415189 0.03774527 0.051689092 -0.5112999
0.15234894 -0.17094411 0.037933793 -0.032925643 0.044998907 0.5450001 0.050096504 -0.054781854
-0.08956638 -0.57259005 0.16951892 -0.044146962 -0.02083412 -0.55518085 -0.19263928 -0.0042905454
0.03027621 -0.05737387 -0.04102405 0.069296464 -0.03291503 0.18353155 0.14168678 0.016543524
0.02139242 0.86490285 -0.04445134 0.050982896 -0.006369448 -1.3413365 0.076674655 -0.024785647
0.024269713 0.443769 0.043011073 0.015431987 -0.0007593737 0.71031666 0.025730629 0.012040323
-0.018506698 -1.3301771 0.018487997 -0.021076085 -0.026762422 -0.073110774 -0.06996313 0.013979771
-0.21451345 -0.0023521588 0.16135825 -0.101532936 -0.023920657 -0.14740166 -0.10244716 -0.02441698
0.12730893 0.18573134 0.07837372 0.16044517 -0.011968131 0.08150781 -0.002940406 0.11125329

weight f4 [32, 32, 5, 5]
00000000: f6a9 013d 4f4a 49be 3849 123d 13a7 803e
00000010: af66 053e 4565 ee3d bf22 87be 81d5 cbbc
00000020: 79c5 dabd a045 99be ac50 dfbd 6ceb 7fbd
00000030: d4a1 e13b a809 06be 71be dfbc 593c e7bd
00000040: dba0 2dbf de51 aabe 31b6 133c b84e b6be
00000050: 8964 b43d 5bc6 07bc d2f9 02be 9ca3 973d
00000060: b559 e43d a002 2b3e 4ad5 9ebe fb53 103e
00000070: 5933 0d3f 90e3 063f 6120 a0be d9e3 7f3e
00000080: 6531 57be afee 12be 7345 403e 7a53 a83d
00000090: 3069 8cbe b905 a2be aa50 403e cd61 3cbe
000000a0: 6d42 2ebd e8b7 943d 63bd fdbd c8bd ccbe
000000b0: 8a3d 31be 63e2 47be f2c2 d73e 2203 52bc
000000c0: 4bc2 283d 6754 bf3e 7dea 8f3e 1856 2cbe
000000d0: 46f5 f9bd f4d1 713e 81b7 cc3b 16a1 ef3e
000000e0: 3e5f a93e f540 35bf ae80 fabe a4f6 27be
000000f0: a1f4 99bd 6970 5a3e 8ef3 88bd 94f9 f0be
00000100: a4e8 213d a454 3f3e 07a1 abbe ce7e cabd
00000110: 9107 ae3e 60e9 6abe 1879 30ba 5864 a6be
00000120: 35e6 af3d 61ca a9be 2c93 973d 3524 2f3d
00000130: aea8 eebd 2a22 0d3f a478 dbbe 451f 0e3c
00000140: be48 17bf 1c76 563e 2e9f 15bd 9715 1dbf
00000150: 93df c83c 873d 8ebd 51b6 cbbe 7b4a 613c
00000160: f892 c73d 7354 37bf d54a 94bf 503a 26be
00000170: 5834 d1be 55be 90be 2dee f73d 3363 e739
00000180: affb 743e 8e9f c2bd dbee 483e 058b 2fbe
00000190: a912 573a d5da b93d b621 e53d 2e86 413f
000001a0: d2dc 42bf 85df cbbe 1a01 a83e 7f73 793e
000001b0: 4126 80be cd19 16be 3983 bfbe 74a7 12be
000001c0: 6eb4 b73e b388 953e feba 493f 05f8 31bc
000001d0: 041a 363c c2c9 ecbe 31e8 89bd f0db 16bf
000001e0: b5b4 cc3c 951f 113e 42b1 023e 37d0 3fbe
000001f0: 9024 87bd 2eb0 213e 1342 5d3e f0f2 eabd
00000200: 7916 66bd 6db7 1fbe 7d6c 6f3d 8cd5 a8be
00000210: 3163 23bd 7a67 18bd fc0f 10bd 9400 4dbc
00000220: 1314 20be 01bc 323d 2402 a93c 66ca 323e
00000230: 9f64 73be 0c0e eabf 282d 55bf 992b b2bd
00000240: f038 13bf 6c7f 58bd 9fa5 fbbe c064 393e
00000250: a248 c8be 0d54 09bf 6932 923e 6494 5bbd
00000260: 6a72 bbbd 10e2 93be b331 19bf ddee 093e
00000270: 4063 fc3d 791a cebe 5592 3abd fa8d 4abf
00000280: 7dde e13c 8fc1 5e3e faa2 38be 4edf 123e
00000290: 13b6 1e3e 18df 4bbe eb38 74bc 9647 b4be
000002a0: 84f1 a0bd 53e0 8dbd d55d 4c3d 0a6c e53d
000002b0: 11e7 eabc dae8 aa3e 2183 bf3d 3b0e 883d
000002c0: 89d1 2abf cf00 063f 437b c4bd a211 5b3d
000002d0: 62a8 b43d bdd7 eebb daf3 05bd e540 973e
000002e0: c0be 4abf c80b c63c 7d60 d1be f0d8 a3be
000002f0: 2827 2d3e 2aee 27be 8bfb 113e efab a7be
00000300: 917c aabe b1b5 463e fbf7 f53d e931 8fbe
00000310: 1c4b 4abe 8634 28be 20c1 833e 0ac1 cdbd
00000320: 06a8 193e 0ed0 08be 49fa 9d3d c039 c53e
00000330: 88b0 ec3d 99fc 4ebf 3398 0d3e d463 2dbe
00000340: 6226 a6bc f8a5 62bd 7c27 73bf d5c4 2b3e
00000350: 5d9a 433e 3ca5 31bb 3e29 0bbf 4c4c 12bf
00000360: c1fb babe bea2 93be de22 bf3d 2939 b3ba
00000370: b303 5fbe d008 823e 6a90 a8bd 74c2 9abe
00000380: 2e5e a33e 3456 ca3d 6045 003e 00a9 c4be
00000390: 4800 16be b915 843d e809 9fbe d0b7 98be
000003a0: e130 253e 3a81 91be 05c6 afbe 9362 d4be
000003b0: dda6 0c3f 7395 9abd 1883 4cbd 1da4 d6bc
000003c0: 66eb 51be 9f24 f03d 839d 90be 9df8 093e
000003d0: c871 07bf 839b 0ebe 1f24 713e ff43 f83d
000003e0: bef1 a33d af9e 773e d23d 613f 0a30 03bf
000003f0: 161d 213d ff10 473d 2242 1f3e 5ea7 0abf
0.031656228 -0.19657253 0.035714358 0.25127468 0.13027452 0.116404094 -0.26393697 -0.02488208
-0.10682196 -0.29935932 -0.10904059 -0.062480375 0.0068857465 -0.13089621 -0.02731249 -0.11290807
-0.6782357 -0.33265585 0.009015606 -0.35606933 0.08808238 -0.008287038 -0.12790611 0.07404253
0.11149923 0.1670022 -0.31022102 0.14094536 0.55156475 0.5269098 -0.31274703 0.2498926
-0.21014936 -0.14348863 0.18776493 0.08219047 -0.27424002 -0.3164499 0.18780771 -0.18396683
-0.042543817 0.0726164 -0.12389638 -0.39988542 -0.17308632 -0.19519953 0.4214092 -0.01281813
0.041200917 0.3736908 0.28108588 -0.16829717 -0.12204985 0.23615247 0.0062474613 0.46802586
0.33080477 -0.7080224 -0.489263 -0.1640268 -0.075173624 0.21331944 -0.06687079 -0.47065413
0.039528504 0.18684632 -0.33521292 -0.09887467 0.33990148 -0.22940588 -0.00067319116 -0.3249843
0.085888304 -0.33162215 0.07401118 0.04275914 -0.11653267 0.55130255 -0.4286548 0.008674447
-0.5909537 0.20943493 -0.03652876 -0.6136107 0.024520671 -0.06945329 -0.39787534 0.013750668
0.09744829 -0.71613234 -1.1585337 -0.16233182 -0.40860248 -0.28270212 0.12105975 0.00044133663
0.23924135 -0.09503089 0.19622366 -0.17142875 0.00082043797 0.09074942 0.111880705 0.75595367
-0.76118195 -0.3981897 0.3281334 0.24360465 -0.25029185 -0.1465828 -0.37404802 -0.14321691
0.35879844 0.29205856 0.7880095 -0.010862355 0.011114601 -0.4624768 -0.0673374 -0.5892935
0.024988512 0.14172204 0.12762931 -0.18731771 -0.065987706 0.15789863 0.21607237 -0.11472118
-0.056173775 -0.15597315 0.05845307 -0.32975423 -0.03988952 -0.037208058 -0.035171494 -0.012512345
-0.15632658 0.043636326 0.020630904 0.17460021 -0.23768853 -1.8285537 -0.8327203 -0.08699722
-0.57508755 -0.052855894 -0.49149796 0.1810484 -0.39117914 -0.53643876 0.28554085 -0.053608313
-0.09152682 -0.2888341 -0.5984146 0.13470025 0.12323618 -0.40254572 -0.04554971 -0.7912289
0.027571911 0.21753524 -0.1803092 0.14342996 0.15499143 -0.19909322 -0.014906148 -0.35210866
-0.078585654 -0.06927552 0.049894173 0.112022474 -0.028674634 0.33380777 0.09351183 0.06643339
-0.66725975 0.52344984 -0.09593823 0.053483613 0.08821179 -0.0072889016 -0.032703258 0.29541698
-0.7919731 0.02417554 -0.40893927 -0.32001448 0.16909468 -0.16399446 0.14256112 -0.32748362
-0.33298162 0.19405247 0.12010189 -0.27967766 -0.19755214 -0.16426286 0.2573328 -0.10046585
0.15005502 -0.13360617 0.07713754 0.38520622 0.11557108 -0.80854183 0.1382759 -0.16932613
-0.020281974 -0.05533406 -0.94982123 0.16774304 0.19101854 -0.0027106544 -0.54359806 -0.5714767
-0.36520198 -0.288351 0.09332822 -0.0013673651 -0.21778755 0.25397348 -0.0823067 -0.3022648
0.3190779 0.09879723 0.12526464 -0.38410187 -0.14648545 0.06449456 -0.31062245 -0.29827738
0.16131927 -0.28418905 -0.34330764 -0.41481456 0.54942113 -0.075480364 -0.04992971 -0.026201302
-0.20499954 0.11725735 -0.28245172 0.13473745 -0.5290799 -0.1392651 0.23548935 0.12122344
0.08005093 0.24181627 0.87984955 -0.51245177 0.03933438 0.048600193 0.15552571 -0.5416163

weight f4 [64, 32, 5, 5]
00000000: e844 97bb 3a32 c83d 53e4 9ebd 3ad1 5c3e
00000010: adc1 47be 4469 563e 3d43 323d 4c92 353e
00000020: 2ac9 1dbe 46ec f83d 1340 8d3d 40a2 61be
00000030: b617 27be 0967 a23d 4523 2b3f 2ceb eebd
00000040: ce37 383d 02fd 283d 577b 15be b696 a23e
00000050: 6c6e 87bd 128e f1be 2102 0fbe fd21 023f
00000060: 9e5c 8a3e 1db7 8e3e 3d57 e2be 2d79 583e
00000070: 2d9a 3d3e 6001 f43c 77c1 a53c c67e cd3e
00000080: a00a 6c3e 47b0 30bf 1077 81bd 83d6 673e
00000090: 2d4e 6f3e 10cc 273f 6ef1 be3d 2335 cabe
000000a0: 1131 533e 2702 b03e a215 24bf 571b c83e
000000b0: f7f7 ff3d f22d a8bc 2c20 243f 06b8 aa3e
000000c0: 9780 3e3d 999e 52bd 8359 78be d1aa e1bd
000000d0: e0c9 f83e f5c2 7b3e 64bf 91be 7dd5 b43d
000000e0: 9a21 03be 73af 1cbf 0333 83bf 40b9 11bf
000000f0: 6240 ef3d 1d7d 9c3d 5733 29bf 34af 253e
00000100: ff81 fabe 50d0 753e e329 6d3e cf8b 1ebe
00000110: 2020 81be 200f 84be b8fe df3e 01e4 e53d
00000120: 381f f43d 6ba0 f93d aabf 24be 901c dbbe
00000130: 217c f9be 1173 b1bd 5dcd b03e afb3 88be
00000140: fbee e83e 230e ce3d 2d96 a63e c1b1 373f
00000150: dae4 533e 8941 6c3e 1268 d1bc 4cc6 0ebf
00000160: e3fc 15bf 0036 9bbf e6e1 b9be 13ef 0bbe
00000170: b8fb 89bf 6296 4c3d cad3 b43e 7a64 123d
00000180: a560 c7bd 0f47 0ebb 67ee 093f e969 da3d
00000190: c839 55be 28d9 923e ff73 a83e 51c8 14bd
000001a0: b1c2 e73d e45e f2be 6b07 1bbe a378 293d
000001b0: c889 67bd 8472 323f f460 823e 8a9a c8be
000001c0: 3b67 3dbe bee8 153d 32bb 99be 3614 e7bc
000001d0: 8ab2 633e 71ed 52be 45fd 04bf b97e 14bf
000001e0: 41eb dabe 9ca8 60be 425a a0bd 1dd7 b93e
000001f0: d568 f0be f220 c2bd 9b19 03bf 65cd b3be
00000200: f953 e13e b083 33bf 7d9f eb3e 0ab2 cdbe
00000210: 2ac5 443e 6dab 92be e774 5ebe 383c 5fbb
00000220: a3de 643e 541d 0d3e 2049 5fb6 831c 55be
00000230: 7115 10bf 3508 60be 66a0 7c3d ba0d 73bd
00000240: 2fed c8bc cc2d 01bf 752c e3bd 8158 1b3e
00000250: f275 47bd 3523 d23d 97dc d1bc 1615 dfbe
00000260: 9b6c 833d 966f dd3d 6731 77be 1e92 993d
00000270: 4261 debb 55b2 153e 6da2 bcbd fbc0 663d
00000280: ff7f 00bd 83aa 853e 7a02 793e 26a6 87be
00000290: dc2b 41be 5394 0b3d 547b 9bbd 4976 69bd
000002a0: 6235 02be 5a55 aebe cbdc a43e c32a 273e
000002b0: 9d20 8abd 95bd b0bd 046e 643d bc6f 3dbc
000002c0: bed3 bfbe 5beb 043e cbe1 3dbe a475 3c3c
000002d0: 50d7 413e e9d9 bd3d c4b6 f23d 3194 ebbd
000002e0: af52 09bf de87 e53d 16a4 163c 72e8 a1be
000002f0: 3f36 4f3e 4f30 9e3e 36ea aa3d fb78 74be
00000300: 3853 1cbe d42d cfbd 06ff e0bb 2eb3 363e
00000310: 6b36 a0be 80cf 16be b3c6 56bf b6a1 88be
00000320: 1cf0 9e3e 9be8 cc3e 8da9 42be c7fe b7be
00000330: 0bfa e93d 5f25 c53e c43e 56bf c6dd 423e
00000340: 6ff6 11bf b918 f43e 5728 833e 0fdd 093e
00000350: 9b8a a5be 6294 d3bd 75c6 11bf 7a93 823e
00000360: 4800 e4be ce42 b13d 23bc 043c 7055 013f
00000370: 8d17 193f 466d 0dbe 82bf 2a3e b8b3 913e
00000380: 2997 713e 473c c73e 43e1 a8bd 5bef 94bb
00000390: a6d0 41be 848d 143f 887c 483e 94bf aebd
000003a0: 2146 843e ca4b 823c 8950 c9ba ed6d eb3c
000003b0: b92f aebd 58cf 8cbd 3576 25bc 5042 ce3d
000003c0: d285 fe3e 9313 273e 43b9 0ebf a122 753d
000003d0: 6356 f43c c815 8bbe c9f4 1b3e 67de 873e
000003e0: 2e55 843e 100a 7bbd 6071 e63d 1cb3 823e
000003f0: bd29 913e df41 36be 8a02 d93e 3a9a e93e
-0.0046163686 0.09775205 -0.07758393 0.21564189 -0.19507475 0.20938593 0.043521155 0.17731589
-0.15408769 0.121544406 0.06896987 -0.2203455 -0.16317639 0.07929809 0.6685069 -0.11665949
0.044975094 0.041256912 -0.14597832 0.31755608 -0.06612858 -0.47178704 -0.13965656 0.5083311
0.27023786 0.2787408 -0.44207183 0.21139975 0.18515845 0.029785812 0.020233853 0.40135783
0.23050928 -0.6901898 -0.063215375 0.22640423 0.23369665 0.6554575 0.09323393 -0.39493665
0.20624186 0.34376642 -0.6409551 0.3908336 0.124984674 -0.020529721 0.6411159 0.33343524
0.04650935 -0.05142078 -0.24252896 -0.11018909 0.48591518 0.24586089 -0.28466332 0.08829782
-0.12805787 -0.61205214 -1.0249943 -0.56923294 0.11682202 0.07641051 -0.66093963 0.16180116
-0.48927304 0.24005246 0.2316051 -0.1548302 -0.25219822 -0.2579279 0.43749022 0.11225129
0.11920017 0.121888004 -0.16088739 -0.4279523 -0.48727515 -0.08664525 0.3453168 -0.26699588
0.45494828 0.1006129 0.3253645 0.71755606 0.20692769 0.23071875 -0.02556232 -0.55771327
-0.58589 -1.2125854 -0.3630516 -0.13665418 -1.0779943 0.049948104 0.35317832 0.035740353
-0.0973523 -0.0021709835 0.538794 0.10664732 -0.20822823 0.28681302 0.32900998 -0.03632385
0.11316431 -0.4733802 -0.15139548 0.041374814 -0.056527883 0.69705987 0.25464594 -0.39180404
-0.1849641 0.036598913 -0.3002563 -0.02820788 0.22236076 -0.20598389 -0.5194896 -0.58005863
-0.4275761 -0.2193932 -0.07829715 0.3629693 -0.4695498 -0.0947894 -0.51210946 -0.3511764
0.4400938 -0.70122814 0.46020117 -0.40174896 0.19215837 -0.28646412 -0.21724282 -0.0034062993
0.22350554 0.13780719 -3.3272154e-06 -0.20811658 -0.56282717 -0.2187813 0.061676405 -0.059339263
-0.02452716 -0.50460505 -0.11092464 0.1517048 -0.048696466 0.102606215 -0.02561788 -0.43570775
0.06417199 0.10812299 -0.24139939 0.07498573 -0.0067864964 0.1461881 -0.09210668 0.056336384
-0.031372067 0.26106653 0.24317351 -0.2649395 -0.18864387 0.034077 -0.07591882 -0.05699757
-0.12715676 -0.34049493 0.32199702 0.16324906 -0.06744502 -0.0862991 0.05576898 -0.011562284
-0.37466234 0.12980406 -0.18543164 0.011502657 0.18929791 0.09270079 0.11851266 -0.11502875
-0.5364179 0.11207555 0.009194395 -0.31622654 0.20235537 0.30896232 0.083454534 -0.23874275
-0.1526612 -0.10116163 -0.0068663387 0.17841789 -0.31291518 -0.14727592 -0.8389694 -0.26685876
0.31042564 0.40021214 -0.19009991 -0.35936567 0.11424645 0.38505074 -0.8368952 0.19029912
-0.5701665 0.47675112 0.25616714 0.13463233 -0.3233231 -0.10331036 -0.56943446 0.2550314
-0.44531465 0.0865532 0.008101496 0.5052099 0.5980156 -0.13811216 0.16674617 0.28457427
0.2359282 0.38913175 -0.0824609 -0.004545135 -0.1892725 0.58028436 0.19578755 -0.085326344
0.25834754 0.01590528 -0.0015359084 0.02873894 -0.08505196 -0.06875485 -0.0100989835 0.10071242
0.49711472 0.1631606 -0.55751437 0.059847478 0.029826349 -0.27165055 0.15230097 0.26536867
0.25846237 -0.061288893 0.11252093 0.25527275 0.28352156 -0.17798565 0.4238475 0.45625478

weight f4 [256, 256]
00000000: de05 253b 1e90 d43c bfe3 263c 03f7 893d
00000010: a30c b63d b212 aabc 96b9 90bd 6887 d0bd
00000020: 4cbf 573c e351 fbbd f134 85bd afee 3e3d
00000030: 48da 313e fedf 1a3e 481b 44bd 27ed 2c3c
00000040: 6ab6 1ebe e379 4a3e d7ed df3d 6885 b03a
00000050: 7f56 f8bd c510 403d 0077 f5bc ff40 c1bd
00000060: 6bab 963d c132 15be 334a 23be c221 07bd
00000070: 42d6 4f3b c2cd 8b3c b494 6fbd 9f75 9a3c
00000080: 4169 fb3e e943 853c d41e 913b 33ca a33e
00000090: 7d77 2bbd 6719 39bc 0354 db3c 5aac 25bb
000000a0: c4aa 353e 2b1a 84be 1fe5 fcbc 63ce 4abc
000000b0: a574 043d 6a58 463d 8199 47bd 7b54 6e3d
000000c0: deeb c9bd 44b1 9c3d 2c3e c23c 73f9 813d
000000d0: ad36 84bc 8046 ed3b 38d7 7cbd cd84 b9bd
000000e0: 52d6 be3b e167 18bf cf3a af3e 44d8 40bd
000000f0: b725 863e b1b3 033f 233f ddbd 63b3 8ebe
00000100: 236e 9abd 8993 99bd 93ff b1bd 758e 9b3d
00000110: 72ca 2b3e f6db c63c d434 403c 36f6 8bbd
00000120: a2ec 96bd 7c62 87bd 9671 933d 2d8a 90bb
00000130: 4ad1 2abe 4829 9d3d 2bdc 36bd d2f6 d43b
00000140: d522 383d 0226 e2bc ceea fb3d aa0f dd3d
00000150: 6cdb 1fbe 1117 38bd 10d9 413d de0f a63b
00000160: 1c06 7dbb 31d3 393d 0e3c b2bd 32f0 d1ba
00000170: dd54 123d 4fa4 36bd 74ed 2b3d 6312 b7bd
00000180: 86ee d73e c755 ae3d 8e98 33bd d4a0 e13c
00000190: 11dc ca3e f46a f4bd 7e32 6d3e c570 0bbf
000001a0: 3884 e83d 962c a13d 9913 be3b 724f e13d
000001b0: 2dd9 093e a59f 403c 3601 253e d4a0 4d3e
000001c0: 5a81 03bc 1488 69bd b901 61bd 2635 973d
000001d0: 2713 b7bd 6bac ef3c edbd 16bc 6729 6539
000001e0: a137 f7bd f635 1f3d 31e3 8cbe be1f 90be
000001f0: 5a12 5d3d ccc9 083d 5e5c 94bc 5f7f bebd
00000200: f742 20bd 6bce b5bc ab09 10be 9590 6e3e
00000210: c4aa a63d decf b3bd ffb6 9abd 2609 b8bc
00000220: 5212 c1bc bff9 173d bb99 f839 5aaf f53c
00000230: 792e c7bd ecdb 85bc 047d c13d e2be d43c
00000240: e46a 8d3d 60be 433c dae8 0c3d b497 7abe
00000250: f7e9 0fbd 1300 873d c61a 8fbc 678f c4bc
00000260: 7bad 803d 9894 af3d 8bc2 a03d ec9c 21be
00000270: 2635 5a3d 2b73 a7bd b06d d0bd 8838 e63d
00000280: b2fd 77bd 0417 123d 8cd0 63bd 1160 a43d
00000290: 2946 d9bd bc80 343d c242 993d 209e 7abb
000002a0: fe99 b53d d49d d33d 63c6 413d 4bcf b13d
000002b0: 8b1b 84bd 4dd9 19bd 324e 083d 5822 cdbe
000002c0: 09a3 853d 9f44 843b 184b b03d ca70 a7bd
000002d0: 3cb3 b1bc 9609 98bd 4bf7 963c 5c60 193d
000002e0: 6a21 4fbe 2aba d1bd 2071 113d 76b8 edbd
000002f0: 239e b53b b7cd b03d c764 80bd 4131 e6bc
00000300: 9136 83bd 30db 4fbe 6d8b 3d3d e454 b33e
00000310: 60d3 cc3b c76b 1abc 6a76 45bd ca38 153d
00000320: beca c5bd 1a3c 25be 3693 ab3d 1f59 a63c
00000330: 64d8 e2bc b73e 063e 2c3e d93d 877a 5b3c
00000340: 983c ed3d 6442 0a3d 3910 973c 15fd 77bc
00000350: ae77 943e 21cf a53c 2fd8 89be 5730 7dbe
00000360: ea89 1f3e 761d 1d3e beae fdbd 560b 123e
00000370: 284b cdbc 3669 373d de9e 24bd 428e 4b3c
00000380: b64b 553c 6cd5 753d 990e b73d bd26 01bd
00000390: 572b 3f3d 6577 553d 1f15 0c3d 9c74 b0bd
000003a0: 6f4c 61bd 0f0e 383d 081a 8a3d 1238 813d
000003b0: a2ef 0fbe 8a4b 683d ae19 913e 3f20 d9bc
000003c0: 844d 383e bd8b ae3c 080d e4bd aee9 57bd
000003d0: 186d 98bd 04c0 813d d33f 593d 655d 6a3c
000003e0: 7931 f73d 9655 0f3d 4cb4 b73d e2b7 b53d
000003f0: 738d 313c a640 32bc 3535 e23c af54 0d3c
0.00251805 0.025947627 0.010186135 0.06736567 0.08889129 -0.020760868 -0.07066648 -0.10182077
0.013168167 -0.12271478 -0.065042384 0.046614345 0.17368424 0.15124509 -0.04787758 0.010554588
-0.15499273 0.19773059 0.10934036 0.0013467493 -0.12125873 0.046890993 -0.02996397 -0.09436225
0.07356914 -0.14570142 -0.15946274 -0.03299118 0.00317134 0.017065886 -0.058491424 0.018854914
0.4910374 0.016267734 0.004428724 0.31990203 -0.041862 -0.01129756 0.026773458 -0.0025279731
0.17740923 -0.25801215 -0.030870972 -0.012378308 0.032337803 0.048424162 -0.048730377 0.058186036
-0.09859441 0.07650998 0.023711286 0.06346407 -0.016139353 0.0072410703 -0.061728686 -0.09058533
0.005823889 -0.59533507 0.34224555 -0.047081247 0.2620065 0.5144606 -0.10803058 -0.27871236
-0.07540538 -0.07498843 -0.08691325 0.07595531 0.16776446 0.024274807 0.011731345 -0.068340704
-0.07369353 -0.06610581 0.07199399 -0.004411003 -0.166814 0.076738894 -0.044643562 0.00649915
0.044955093 -0.027606014 0.12300645 0.10794003 -0.15611047 -0.044943873 0.047326148 0.0050678095
-0.0038608378 0.045367423 -0.08702861 -0.0016017018 0.035725463 -0.04459029 0.0419745 -0.08939054
0.42174166 0.085124545 -0.04384666 0.02754251 0.39621022 -0.11934462 0.23163792 -0.5446895
0.11353344 0.07869832 0.005800676 0.11001481 0.13461752 0.011756812 0.16113743 0.20080882
-0.008026445 -0.05701454 -0.054933283 0.07383184 -0.089392 0.02925702 -0.009200555 0.00021854565
-0.12071157 0.03886982 -0.27517083 -0.28149217 0.05397258 0.033395573 -0.01811045 -0.09301638
-0.039126363 -0.022193154 -0.14066188 0.23297341 0.0813804 -0.08779882 -0.07554435 -0.0224653
-0.023568306 0.03710341 0.00047416784 0.02999084 -0.09725661 -0.016340218 0.09447673 0.025969926
0.069051534 0.011947244 0.034401752 -0.24471933 -0.035135236 0.06591811 -0.017468821 -0.02399416
0.06283089 0.08573264 0.07849606 -0.15782517 0.053273343 -0.081762634 -0.10177171 0.11241251
-0.060544677 0.03566648 -0.055618808 0.08026136 -0.10609085 0.044068083 0.07483436 -0.0038241223
0.08867262 0.10332838 0.047308337 0.08682116 -0.06450566 -0.03756075 0.033277698 -0.40065265
0.06525237 0.0040365006 0.08608073 -0.0817581 -0.02169191 -0.07423703 0.018428465 0.03744541
-0.2022759 -0.10240586 0.035508275 -0.11607449 0.005542533 0.08632987 -0.06269222 -0.028099658
-0.06406892 -0.20298457 0.046275545 0.35025704 0.006250784 -0.00942511 -0.04820863 0.03643111
-0.09657811 -0.16136208 0.08377688 0.020306168 -0.027691074 0.13109861 0.106075615 0.013395912
0.11583823 0.03375472 0.018440353 -0.015136023 0.28997558 0.020240368 -0.26922747 -0.24725471
0.15579954 0.1534327 -0.12386845 0.14262137 -0.025060251 0.04477807 -0.04019057 0.012424054
0.013018539 0.060017988 0.08938331 -0.031531084 0.04667219 0.052115817 0.03419983 -0.086159915
-0.055004533 0.044935282 0.06743246 0.06309523 -0.14056256 0.056712665 0.28339905 -0.026504634
0.1799832 0.021306867 -0.11135298 -0.05271309 -0.07442683 0.06335452 0.053039383 0.014304494
0.12069983 0.03499373 0.08969936 0.088729635 0.010836947 -0.010879671 0.027613262 0.008626147

bias f4 [256]
00000000: 77ce 0cbb baa1 8a3c afc0 a23d ea8c 94bc
00000010: 0180 35bd 56c0 e4bd e92b 72bd 9be7 8c3d
00000020: 5992 1b3e f514 04be 37bf ba3c fa4e 6abc
00000030: 034d b13d 2d24 a0bd 6d39 f0bc a105 0abd
00000040: 59f5 1bbc 2fad 56bd c599 9c3d 5d83 9bbd
00000050: 8441 c33c 2647 85bd 8507 a63d fc99 5c3e
00000060: 950c 22be 01d0 0a3e 33f9 2d3d 0785 a2bd
00000070: 1f1d debd 03dd d7bd 27c0 083e 5540 113e
00000080: c171 79bd ba03 6ebb 839c 973d 4091 f6ba
00000090: 356b 05be 89f3 1cbc 945a 58bd 3e6a 28be
000000a0: dd11 5cbd 0b26 393d 12f2 ef3c fb0a e7bd
000000b0: 1589 1bbd 2fad 243d 9917 f13d 5495 263e
000000c0: cfe8 b4bc 57ed ac3d ae2b 27bd 6608 f33c
000000d0: 58b9 14be 1208 ea3d 8dfc f03d 9fe9 28bd
000000e0: 8adf 85bd 1ea2 373d 1929 613e 3302 d83c
000000f0: 8996 75bc 8a20 8c3d 1e02 0abe d105 ee3b
00000100: 99a0 523b d795 0f3d 979e 18bb 52e9 58bd
00000110: 749b c3bd de35 77be 7875 6ebd f6a5 84bc
00000120: 7982 99bd e9f6 a83d 6618 163d 8f4b 783d
00000130: d071 df3b ab0f 103d c196 753d 5b5e 23bd
00000140: a5e1 28be 5217 283d b7e5 83bc cc08 10bd
00000150: 6bdd f8bd 4e52 de3d f669 a03d 461e 303d
00000160: d944 3a3e 34fe 66bd eca2 983d f7ec fdbc
00000170: b254 433d 8bd9 f43d 4ded a33d 608e 433d
00000180: d539 13be f809 813e 6913 11be 0f8e 96bb
00000190: 3aa2 5b3d 7134 0abe 128c 0dbe 1ef0 08bd
000001a0: b189 9abd 5e95 80bd 1ed8 babd 60f8 f63d
000001b0: 6bf9 1b3e 6af6 0a3d 0bdb c4bd 6f4a b83d
000001c0: ccec 0cbd b9c6 643c 6fa7 68bd d271 333d
000001d0: d3fa ccbd 2985 f9bd 86ec 54bd 9c38 9dbd
000001e0: 6dcb ecbc 5341 2e3e b6b4 4a3d 356f b6bc
000001f0: 601c 81bc 9ece dc3c c234 1bbd 1edc 35bc
00000200: d584 c2bd d073 ec3c e474 6e3d a9b5 d73d
00000210: 0604 edbd 3676 1c3c 3506 c93d 08c6 b53d
00000220: 66ab d0bd 82d7 14bd 08f5 67bd fd07 cebd
00000230: 8c24 023e e470 25bc 2fcc 22bd 5a72 e6bd
00000240: cee1 843d e16e 043c 0851 93bd bb27 4c3e
00000250: ba8d 4f3d c49d 2a3e 9666 d8bc 00cc 803d
00000260: 600f 3c3d b5fe 343d 2e2d 4dbd f97c 26bc
00000270: 51e1 f23d 1fc2 a73b dcab 05be fe52 c1bd
00000280: 21c4 0f3d 67fa b5bc 78a0 fb3c 7bd7 a1bc
00000290: 4e1c a63d a6f8 2fbe 0b94 a23d 5c13 2ebd
000002a0: 9b39 86bc 15f9 6abd ab3a 46bc 0865 163d
000002b0: 8f80 c3bc db11 4abd 7c60 4e3d 32e3 d73d
000002c0: 8852 6b3d 8290 b2bd 8f1e bfbd cc19 f9bd
000002d0: 37ea 9f3d bedd 1c3d 0fee 303e c4f0 19bd
000002e0: 9712 f23c 19d3 b8bd bf44 333e baba f8bc
000002f0: fbec 57bd 99c8 91bd 9cab f0bc f836 a7bb
00000300: 3863 9bbc bda0 063e fa5f d3bd 59fd e03d
00000310: 29f5 e63c 4a9f 61bd 243f 9a3b b90d eb3c
00000320: c907 853d e84f bfbd 9bfe da3d b8ad 2abd
00000330: 46af 923c 9f12 41bd 2426 023d a802 8c3d
00000340: 847f 263e aa0d ce3c 3ce1 89bd 71cd b0bd
00000350: 2b7f 29bd 207f 093e 81d6 e0bd 54fd e13d
00000360: fcbd a03c d1e1 313e 59d4 2c3d 947e 64bd
00000370: 5b08 163d 8978 b0bc c6de 5f3d 584b fc3d
00000380: 6096 063e 3b05 0cbc f730 b93c 0b50 7bbc
00000390: b167 b2bc 4670 0e3c 8889 06bd 5a5c 1dbe
000003a0: 866c 57bd 9751 af3d 3c40 71bd dc4c c83d
000003b0: 45f8 05bd 9895 cc3d 88a6 1bbe 9298 2bbc
000003c0: 726e 0fbd a61f 6f3c 9f15 3ebd dc84 18be
000003d0: e8a4 9a3d 5aa1 5bbb 343a aa3b 620f 833d
000003e0: 067a cabd e70c 383d dd0e b9bb 3472 09bb
000003f0: 08ac e5bd 28ae d1bb d391 543d 8e02 e73d
-0.0021485367 0.01692282 0.07946908 -0.0181336 -0.044311527 -0.11169498 -0.059123907 0.06880113
0.15192546 -0.1289862 0.022796256 -0.014301056 0.08657267 -0.078194 -0.029324258 -0.033696774
-0.009518945 -0.052411254 0.07646517 -0.07593415 0.023834951 -0.06507711 0.08106903 0.21543115
-0.15825112 0.1355591 0.042473983 -0.07935529 -0.10845398 -0.105402015 0.1335455 0.14184697
-0.0608995 -0.003631814 0.07402899 -0.0018811598 -0.13029177 -0.009579548 -0.052820757 -0.16446778
-0.053727973 0.045202296 0.029290233 -0.11281391 -0.03797253 0.040204223 0.11772079 0.16267902
-0.022083668 0.084437065 -0.04081314 0.02966709 -0.14523828 0.114273205 0.1176692 -0.041238423
-0.06536777 0.04483234 0.21988334 0.026368236 -0.014989504 0.06842144 -0.1347737 0.007263877
0.003213918 0.035055008 -0.0023287886 -0.052956887 -0.09551135 -0.24141642 -0.058217496 -0.016192418
-0.07495589 0.082502194 0.036644362 0.060618933 0.0068189874 0.035171192 0.059958223 -0.039884906
-0.16492327 0.041037865 -0.016100748 -0.03516464 -0.12151607 0.10855542 0.078327104 0.04299762
0.18190326 -0.05639477 0.0745295 -0.030996783 0.047688194 0.119555555 0.08004246 0.0477432
-0.1437753 0.25202918 -0.1416756 -0.0045945714 0.05362151 -0.13496567 -0.13822964 -0.03343212
-0.07545794 -0.062784895 -0.09123252 0.120590925 0.15231864 0.033926405 -0.09612092 0.08998572
-0.034405515 0.013963395 -0.056800302 0.04380972 -0.100087784 -0.121836014 -0.05198338 -0.07676813
-0.028905595 0.17017107 0.049488746 -0.022269825 -0.0157606 0.026953992 -0.03789211 -0.011099843
-0.09497992 0.028863817 0.058216944 0.10532696 -0.11573033 0.009549668 0.09815637 0.08875662
-0.10188942 -0.036338337 -0.056630164 -0.100601174 0.12709254 -0.010097716 -0.039745506 -0.112522796
0.06488381 0.008083076 -0.0719319 0.19937031 0.05067227 0.16661745 -0.026416104 0.0628891
0.0459131 0.04418822 -0.050091915 -0.010161632 0.11859382 0.0051195766 -0.1305384 -0.09439658
0.035099152 -0.022214128 0.030716166 -0.01975607 0.081108674 -0.17184696 0.07938393 -0.04249893
-0.01638489 -0.05736645 -0.0120989485 0.036717445 -0.023865012 -0.049333435 0.050384983 0.10541381
0.057451755 -0.08718969 -0.093320005 -0.121631235 0.07808345 0.038297407 0.17278312 -0.037583128
0.02954988 -0.09024639 0.17506693 -0.030362476 -0.052716237 -0.07118339 -0.029378705 -0.0051029883
-0.01896821 0.13147254 -0.103210405 0.10985822 0.028193073 -0.05508355 0.004707234 0.028693067
0.064956255 -0.09341413 0.106930934 -0.041669577 0.017905843 -0.0471369 0.031774655 0.06836444
0.16259581 0.025153 -0.06732413 -0.08632935 -0.041381042 0.134274 -0.109784134 0.11034647
0.019621842 0.17371298 0.042194698 -0.055784777 0.036629062 -0.02154185 0.054655813 0.12319058
0.13143301 -0.008546169 0.022606356 -0.015338908 -0.02177796 0.00869376 -0.032846004 -0.1536726
-0.05259373 0.08560484 -0.05889915 0.09780285 -0.03270747 0.0998947 -0.15200245 -0.010473387
-0.03501744 0.014594948 -0.04640734 -0.14894432 0.075509846 -0.003351292 0.0051949266 0.063994184
-0.098865554 0.04493418 -0.005647524 -0.0020972611 -0.11214453 -0.006398935 0.05189688 0.11279784

weight f4 [256, 256]
00000000: 9f91 18bd f976 aabc dac8 41bc 27a6 91bb
00000010: 4930 8dbd c927 34bb 4145 9fbc 06c3 183d
00000020: e573 22bd 21d3 73bc f9cf 70bb c4e8 92bb
00000030: bfc3 e43b 3759 15bc c5f8 d93c d4c7 4ebc
00000040: d416 3c3c e623 e03b aed9 033c fde1 05bd
00000050: 7604 00bd 8dc6 443d c791 3cbb 9d3e 40bd
00000060: 3c75 0a3d 5c02 89bb 3afa 30bd 0135 353d
00000070: 3649 183d dfe5 183d 5d66 f0bc adff 85bd
00000080: df73 773d 962b 51bd 2337 64bd 9a1f 13bc
00000090: fd6a 0f3d 70dd 3f3c b2fb cfbb 26ab 8d3c
000000a0: abd3 fdbc a856 07bd b9f8 07bd a5d3 bebc
000000b0: 94fb c1bb 90a8 c43c b79b eb3c 1ec8 383d
000000c0: c731 283b 7a61 4c3d 4bf4 083d 7f1c 8dbc
000000d0: 9c50 9bbc 77a0 b8bb fbf1 333c abaa ea3c
000000e0: 55ea 5a3c fa83 8fbc 601a 2d39 efe8 3cbd
000000f0: 74b4 5f3b d5b6 27bd 5272 713c 39fa 84bc
00000100: a90b fa3b 77dd 13bd 0506 95bc 05dd 993d
00000110: a7b6 2dbc a137 57bb 658f d33c df59 0d3c
00000120: 1174 0fbc a5e5 763d 2389 1c3d 5188 963d
00000130: 9564 edbb 5ad0 763b 7fab df3b 165b b23a
00000140: 7945 c5bc 5bac 0dbc b2e2 9dbb e665 80bd
00000150: 9f10 a33c cc0a 0e3d e338 debc 3a4d d9bc
00000160: abda 203d 685d d53c ca29 a3bc c096 31bd
00000170: 8b8f ee3b 0ea6 31bd d32e adbb a819 673d
00000180: fd46 62bc d878 4abb 5c95 03bd b410 93bc
00000190: a4ea efbc 8fa4 0ebc b6a6 38bc 42a6 82bc
000001a0: a748 253c 4e88 38bd b9b7 f83c 522e e8bc
000001b0: cf48 e6bc fd4c 15bd 3b98 9ebd 4c0f dbbc
000001c0: 35aa 043e 2659 07bd 21d4 183c b94a 2e3d
000001d0: 75b1 163c 7678 e03a d5f0 523d 14ea a73c
000001e0: f0a0 8bbc f900 653c 4b56 473c 665c bf3b
000001f0: 0c68 1cbc 115f 4cbc dc5c 7dbc d78d a5bb
00000200: 76dc 273c a4b4 07bc fd33 b73b f6a4 ae3d
00000210: ba1f b3bc 46d9 083c a560 0ebd 7508 2f3d
00000220: 76b3 abbc fa66 893a 3bfe a3bb 2568 94bb
00000230: 2a87 423b d0b6 4e3d 63ac 92bb e8b2 483c
00000240: 9747 353d 09de cc3a 2b61 82bd 0fbc fabc
00000250: a746 77bd 2c61 e2bc 9c1b f33c ff7f d33c
00000260: d050 20bc 11a0 62bd b931 113d 31f3 6abc
00000270: f574 3bbd 15eb 383c 7b2a 00bd d0cf f73a
00000280: 8fb7 8ebc 6e08 2839 6c99 91bc a13d 8ebc
00000290: 9297 7e3d 1280 763c 5fb8 6fbc c8c5 34bd
000002a0: d252 8cbd 2a9e 0a3c b957 583d 9adb beb9
000002b0: fa81 0f3d 8587 1b3d 480b 3abc e5b8 a53c
000002c0: 2f3b 3dbc 61c2 9db9 b63b 503b e9b4 12bc
000002d0: 3bcc aeb9 b817 c2bc 5533 0bbd 0df8 79bc
000002e0: adb5 903c 8c5d 663c 346e 59bc 8382 f1bc
000002f0: eebb 07bd 3d51 6dbb 40ab 123d 3657 3bbd
00000300: ad79 0b3c 92a1 2e3c c7aa 06bd ddb9 f23a
00000310: a270 693b 24be a03b 2dde 773c 226f 94ba
00000320: 62d6 42bc 7052 89ba 5c5d c13c 6cd4 cbbb
00000330: 8890 b7bc 2f7c d33c 53d6 c63c c7c7 a93c
00000340: a958 4dbd 907d 91bc e656 4b3d 1476 5cbd
00000350: 7cda bd3c eaa9 97ba 8937 453c 9c83 ea3b
00000360: 210f 853c eb13 a33b d369 9b3c 5d1c afbd
00000370: c9b7 27bd c304 853d 576e 38bc 8e26 5a3b
00000380: 798f 2d3d 3bee 02bb 385c 2d3d 27bc 7c3d
00000390: 92b5 143c d86e 543c 9f28 16bb fe8d 27bb
000003a0: ace1 05bd e697 ba3c 3d0c 15bc e6a1 09bd
000003b0: bac3 c9bb d08a 3ebb 4d48 68bd aa32 5b3c
000003c0: 7e45 0e3c 39b5 88bc 6bed 45bb f8b0 753d
000003d0: 480e 1f3d 06e8 cfbc 4f72 d8bc 7549 4abd
000003e0: 5e55 8cbc 1ee8 1ebd 4d35 e63c 7222 24bc
000003f0: 47af 3ebc b88a c7bb fdbc 283c 7a1e 45bc
-0.03724825 -0.020808684 -0.011827672 -0.0044448557 -0.06893975 -0.0027489534 -0.019442203 0.037295364
-0.039661307 -0.01488188 -0.0036745055 -0.004483314 0.0069813426 -0.009115509 0.02660788 -0.012620885
0.011480052 0.006840217 0.008047504 -0.032686222 -0.031254254 0.048040915 -0.0028773414 -0.046934713
0.03380321 -0.0041811895 -0.043207385 0.04424 0.037179194 0.037328597 -0.029345686 -0.06542907
0.060413238 -0.051066957 -0.055716645 -0.008979702 0.03501414 0.01171051 -0.006347143 0.017293524
-0.03098472 -0.033041626 -0.033196185 -0.02329428 -0.005919883 0.024006158 0.028760774 0.04511272
0.0025664435 0.04989765 0.0334361 -0.017225502 -0.018959336 -0.0056343633 0.010982986 0.028645834
0.013361533 -0.017518986 0.00016508391 -0.04612058 0.0034134658 -0.040945847 0.014736729 -0.016232597
0.0076307845 -0.036099877 -0.018191347 0.07512859 -0.01060263 -0.0032839554 0.025825212 0.008627384
-0.0087557 0.0602776 0.03821672 0.07350219 -0.0072446563 0.0037660808 0.006825864 0.0013607468
-0.024080979 -0.00864705 -0.004818284 -0.062694356 0.019905386 0.034678265 -0.027126735 -0.026526082
0.039271038 0.026045516 -0.019917388 -0.043356657 0.0072802952 -0.043371253 -0.005285123 0.056420952
-0.01381087 -0.0030894782 -0.032124862 -0.0179523 -0.02928669 -0.008706226 -0.011270216 -0.015948419
0.010088122 -0.045051865 0.030361043 -0.0283424 -0.02811089 -0.036450375 -0.077438794 -0.026740693
0.12955554 -0.033044003 0.009327919 0.04255173 0.0091975825 0.0017125744 0.051499207 0.02049736
-0.017044514 0.013977283 0.01216657 0.005839872 -0.009546291 -0.0124738375 -0.015464034 -0.005052309
0.010245433 -0.008282814 0.0055909143 0.085275576 -0.021865714 0.008352583 -0.034760136 0.042732675
-0.020959597 0.001048296 -0.005004672 -0.0045290166 0.0029682615 0.050467312 -0.0044761165 0.012249686
0.044257727 0.0015630136 -0.063661896 -0.030607251 -0.060370114 -0.027634226 0.029676251 0.02581787
-0.009784892 -0.055328432 0.03544781 -0.014340208 -0.045765836 0.011286517 -0.031290513 0.0018906537
-0.017421512 0.00016024869 -0.017773353 -0.017363371 0.062156267 0.015045183 -0.01463136 -0.04413393
-0.06851734 0.008460561 0.052818034 -0.0003640324 0.035036065 0.03797104 -0.011355229 0.020229766
-0.011549755 -0.00030090197 0.0031773872 -0.008954265 -0.0003334003 -0.02369295 -0.0339845 -0.015256894
0.017664755 0.014060389 -0.013270903 -0.029481178 -0.033138208 -0.0036211752 0.035807848 -0.045737468
0.0085128965 0.010658639 -0.03287771 0.0018518526 0.0035620113 0.004905479 0.015128654 -0.0011324624
-0.011891933 -0.0010476839 0.023604088 -0.006220391 -0.022407785 0.025816051 0.02427212 0.020725144
-0.05013338 -0.017760068 0.04964342 -0.053823546 0.02317547 -0.0011571024 0.012037166 0.0071568023
0.016242566 0.0049767396 0.01897136 -0.08550332 -0.040946756 0.06495049 -0.011256776 0.003328714
0.042373154 -0.0019978422 0.042324275 0.061702874 0.009076493 0.01296588 -0.0022912396 -0.0025566812
-0.03268592 0.022777509 -0.009097156 -0.033601664 -0.0061573656 -0.0029074438 -0.056709576 0.0133787785
0.00868356 -0.016687976 -0.0030201327 0.059983224 0.03883198 -0.025379192 -0.026421694 -0.04938646
-0.01713055 -0.038795583 0.028101588 -0.010017978 -0.011638469 -0.0060895346 0.010298965 -0.012031192

bias f4 [256]
00000000: 0a1d d6bc 9b50 e03b 0b48 debc ecbc 0a3d
00000010: f986 3c3d 7e28 e73c 3798 a2bc 3286 76bb
00000020: 4aac f9bb e0c0 663c 5cb5 75bc 554e 973c
00000030: abdc e03c 06da fdbc c348 7c3d 9786 d93c
00000040: 0e44 3bbd fd19 b6bb 0a76 5ebb c21f 673c
00000050: 32fa 623c 38bf 39bd 404f ba3b 49cc 82bb
00000060: ad22 873a 2b25 293d 3932 6ebb 5a87 a2bc
00000070: 4584 273c 24fc 203d 7ecc eeba ed5f 82ba
00000080: 365e 7cbc c1ff 0cbd 4b39 bfbb 6449 7bbc
00000090: 56f7 a93b 880a 97bb 1a08 253d af89 ce3c
000000a0: 981d d93c 9e9a cb3c 73c6 22bb 4c86 083c
000000b0: a3c5 55bc f747 a2bb 1769 2f3c 3b24 173b
000000c0: 3b13 133d 595e 8dbc 0c10 e83b 6d41 60bc
000000d0: 85aa 513b 659b b83b cbb0 73bc 4601 963c
000000e0: a78a efbb 8e8b 97bc a431 0cbd 67b6 6abc
000000f0: dc88 5f3c 02a3 adbc e76b a23c 4657 cdbc
00000100: 5863 abbb 1806 e03c c6d7 123c e452 75bc
00000110: d17b edbc 6f37 5e3d ae9b bbbc 88cc c6bc
00000120: 1b85 eabc e2d0 57bc 1e7a 93bc f794 063d
00000130: 7623 00bd 488e 6e3d 33a3 2dbd a3fe 91bc
00000140: 12bd 73bc 01e1 9cb8 06f1 f33c 9c95 973c
00000150: e76f e23c 93df b4bc 90f4 e0bb 4a5a 00bd
00000160: c4d1 55bc dcaf d53c 8fbb 01bc 3021 a93c
00000170: 5015 9eb7 2a42 ac3c d2d0 903a 78c5 38bb
00000180: e26c 4a3d 8a14 c73c d3c4 21bc 53af b7bc
00000190: 1255 9c38 86cc 0ebd d2cc 20bc da08 803b
000001a0: 0bed 4f3d 0648 633b ce63 1dbb 31a6 d23b
000001b0: 2aac 79bc aa5a 113c 7869 af3c c983 4e3d
000001c0: f1a0 af3c 71e6 3ebd aeec b4bc 7cb7 cbba
000001d0: 0bfe efbc bba3 a5bc 3d5c 83ba 5e31 42bd
000001e0: 6859 8e3a ad98 333a 50b5 313d 1743 8ebc
000001f0: 4307 153d e196 a63b 0d6a a13c f1d9 c73c
00000200: 8cc9 333d a52d 5cbc 6d6b 03bd 2fa0 6a3d
00000210: b743 193d 6702 063d aaf6 253c 86ca 1e3b
00000220: 54e2 5bbd 9371 f6ba 4b95 3bbc 345f 3cb9
00000230: bc30 22bc 421e efba 87fd 393d 5995 003d
00000240: 81ad a3bb 74d6 9d3c 3e7d b5bc 8c00 fcbc
00000250: 87d1 43bc 9b73 303b c1f7 923c 1348 443c
00000260: 8ee1 bb3c 457d f13c 48b1 f33c fbfc b93b
00000270: 9262 853c 2b86 13bd 4dab 84bc 97fa 94bb
00000280: 1235 8e3c 96bf 223b ab8e 0f3c 2191 f1bb
00000290: 586d 01bd ae48 2abc dc5b 763c d04e 94bc
000002a0: 82e3 df3b e7d6 a1bc 0cb9 963c 64e3 eabb
000002b0: ad2b c5bc 6bb7 67bc 983b 17bd da2d cd3c
000002c0: c4c5 43bc 0f4b b0bc c427 8bbc e776 0cbc
000002d0: 5405 51bd 863e 8cbc 8406 bebb 856a babc
000002e0: ffb9 29bd 7907 70bc 6326 383d c284 86bc
000002f0: 10dd 9e3b 141c 473c ee19 f3bc 7fb1 8cbb
00000300: a100 b0bc da1e 0d3d 2cf8 593b a30c de3c
00000310: a794 5ebc 6f1e d63c 6189 9f3b 07c9 3ebc
00000320: 2752 d8bc c06f 34bd 7e16 6dba daa7 a93c
00000330: c5eb 183b bb01 3bbd 5f70 b0bb 8e49 afbc
00000340: 799e 063d 91f6 993a c046 43bc afc4 133b
00000350: 88ae c33c e739 0bbd 9209 86bc 91a8 113d
00000360: c731 1bbd 17d0 c03b 0e78 223c bba9 a0ba
00000370: 78cd b2bc 1c86 3e3d 7184 413a 79f9 39bd
00000380: 5b72 69bc 0d3d 88bc 30e1 193b a4e7 c43b
00000390: 7c51 09bb abdc 4a3d 4906 4c3d b5a9 ec3b
000003a0: ab0b 0dbd 7e21 113c 8fd9 813d 6b76 933b
000003b0: 35d9 143d 16f8 733b 8c9e dbbc 4e8e 8e3c
000003c0: 40d4 5ebd d4af 4c3c 868e e33b 6dda 0cbb
000003d0: 2328 7dbb dca7 853c cb15 cfbc b5ee 4cbc
000003e0: 8754 323d 7790 223b 4ff6 e33c 8ca9 7c3c
000003f0: 0780 8a3c e3f0 633b 78f1 48b9 e56f 6e3c
-0.026136894 0.0068455464 -0.027133962 0.033871576 0.046027157 0.02821755 -0.019847972 -0.0037616608
-0.0076194154 0.014084071 -0.014996853 0.018469969 0.027448973 -0.03098775 0.06159283 0.026553435
-0.0457192 -0.0055572973 -0.0033944868 0.014106693 0.0138535965 -0.045348376 0.005685717 -0.003991638
0.0010310017 0.04129521 -0.0036345853 -0.019839931 0.010224407 0.03930296 -0.0018218902 -0.0009946801
-0.015403321 -0.034423593 -0.0058356873 -0.015337322 0.0051869554 -0.0046094097 0.04029093 0.025212137
0.02650337 0.024854 -0.0024837523 0.0083328 -0.013047609 -0.0049524265 0.010706208 0.0023062367
0.03590701 -0.017256903 0.007081991 -0.013687474 0.0031992507 0.005633759 -0.014873694 0.018311154
-0.00731023 -0.018499162 -0.03422703 -0.014325715 0.01364347 -0.021195892 0.019826842 -0.02506603
-0.0052303486 0.027346656 0.008962577 -0.014973376 -0.028989704 0.054252084 -0.022901382 -0.02426745
-0.028627923 -0.01317236 -0.018002566 0.032856908 -0.03128382 0.05824116 -0.042391967 -0.017821616
-0.014876621 -7.48057e-05 0.029778015 0.018503956 0.02764125 -0.022079265 -0.0068650916 -0.031336106
-0.0130505 0.026084833 -0.007918253 0.020645708 -1.8844992e-05 0.021027643 0.0011048561 -0.0028193872
0.049420245 0.024301786 -0.009873587 -0.022422468 7.454505e-05 -0.034863017 -0.009814458 0.003907305
0.05076317 0.003468038 -0.0024015787 0.006428503 -0.015238801 0.008871714 0.021412596 0.05041865
0.021439048 -0.046606485 -0.022085514 -0.0015542354 -0.029295942 -0.020219674 -0.0010021996 -0.04741036
0.0010860385 0.00068510586 0.043385804 -0.017365975 0.03638388 0.005083904 0.01970389 0.024395915
0.043893382 -0.013438617 -0.03208487 0.05728167 0.037418094 0.032717135 0.01012961 0.00242296
-0.05368264 -0.0018802158 -0.011449168 -0.00017964543 -0.0098993145 -0.001824327 0.0454078 0.03139243
-0.0049950485 0.019267298 -0.022154447 -0.03076198 -0.011951811 0.0026924375 0.017940404 0.011980074
0.022934701 0.029478678 0.02974762 0.0056759096 0.016282354 -0.036016624 -0.016194964 -0.004546474
0.01735929 0.0024833432 0.008762042 -0.007372037 -0.03159842 -0.010393305 0.015036549 -0.018103987
0.006832541 -0.019755794 0.018398784 -0.0071682204 -0.024068678 -0.014142851 -0.036922067 0.025046278
-0.0119490065 -0.021520166 -0.016986735 -0.00857327 -0.051030472 -0.017119657 -0.0057991166 -0.02275587
-0.041437145 -0.014650219 0.044958483 -0.016420726 0.00484813 0.01215269 -0.02967545 -0.00429362
-0.021484675 0.03445325 0.0033259494 0.027105635 -0.013585246 0.026137559 0.0048686718 -0.011644608
-0.02640636 -0.044051886 -0.0009044184 0.02070992 0.002333389 -0.045655947 -0.0053844894 -0.021397378
0.032865975 0.0011746456 -0.011918724 0.0022547652 0.023886934 -0.033990767 -0.016361985 0.035561148
-0.03788927 0.0058841812 0.009916319 -0.0012257615 -0.02182649 0.046514615 0.0007382101 -0.04540393
-0.014248456 -0.016630674 0.002348017 0.006009059 -0.002095311 0.04952685 0.04981068 0.007222379
-0.034434956 0.008858083 0.06340324 0.0045002005 0.036339957 0.0037226728 -0.026809 0.01740184
-0.054401636 0.012493093 0.0069444804 -0.0021492497 -0.003862866 0.016315393 -0.025278946 -0.012508084
0.043537643 0.0024805346 0.02782741 0.0154212825 0.016906751 0.003478103 -0.0001916344 0.014553045
