output/2023-09-14-22-52-13/trained_model/tetris_epoch2756_score3700.pt (torch, 842187 bytes, 8 tensors)

weight f4 [32, 1, 4, 4]
-0.0027447206 0.01567268 -0.02866427 0.021095917 0.0053252536 0.06532675 -0.0037984801 0.06310255
-0.2434148 0.10537138 0.18867373 0.005686563 0.05540034 0.15648091 0.18173666 -0.03758045
0.46655774 -0.03258883 -0.33610696 -0.31468877 -0.55187416 -0.015553106 -0.08437447 -0.20289096
0.07240975 -0.2263243 0.059511695 -0.34316576 -0.18698794 0.044274386 0.09957356 -0.69126815
0.027546246 0.05443505 -0.7538214 -0.19646986 0.035447236 -0.27989596 0.18577264 -0.29989594
0.0842041 0.30252907 -0.014824465 0.03487633 -0.08315009 -0.09908284 -0.19431755 -0.10107944
-0.38422 -0.37615386 -0.0881192 -0.010710911 0.23259686 -0.23338805 0.2746874 0.09078453
-0.28516394 0.02773769 -0.5946962 0.10319705 -0.16315173 -0.6208911 -0.48494095 0.088393174
-0.05598092 -0.76818925 -0.10333663 -0.072590835 0.036122855 0.007782557 0.0808312 0.044364415
0.22856647 -0.8788137 0.3066265 -0.008911736 -0.056441527 -0.06924472 0.020002184 -0.013177924
-0.004165568 0.026992932 -0.13611312 -0.087414876 0.018124225 0.00091083784 0.2900125 0.7471354
-0.035833843 0.00509309 -0.24854572 -0.79771036 -0.00013032628 -0.0126654385 -0.047780376 -0.042006448
0.022697816 0.051900793 0.1672324 0.22709268 0.12076651 -0.029508164 0.21279564 -0.41106072
0.08889783 0.05059762 0.0052502775 -0.53097826 0.006676367 -0.010704876 0.10254601 -0.38791823
-0.0058954805 0.04050579 0.17092277 -0.14641389 0.09617248 0.085888214 -0.6919267 -0.6227188
0.013210855 0.06576322 -0.5266085 -0.11366766 -0.06886656 0.18441406 -0.33947107 -0.33710858
-0.118142605 0.13012603 -0.4955821 -0.20499805 0.09031319 0.13675793 0.20467426 -0.4202988
-0.02631429 0.08869898 -0.22361954 -0.7290154 0.12756675 -0.053115796 -0.06574129 0.1319404
-0.14486563 -0.032983053 0.018712565 0.07271302 -0.08453049 -0.25450426 -0.45231974 -0.064103365
-0.039341915 0.4607801 0.19758078 -0.067725345 0.056716297 -0.877929 0.08440242 0.030029679
-0.031510025 -0.1251406 -0.18664303 -0.15220582 -0.021780673 -0.100364216 -0.20161651 0.042211972
-0.0028328542 0.11712958 0.54822767 -0.05450088 -0.014946364 -0.12878436 -0.7449789 -0.061901573
-0.14723085 -0.048560105 -0.34663582 -0.088520944 -0.025804373 -0.08599313 0.012918065 0.29392484
-0.042351387 -0.04385457 0.14738928 -0.512895 0.060452778 0.046237905 0.06590621 -0.5068522
0.12608571 -0.15173954 0.018994784 -0.0966185 0.03672948 0.5112082 0.027592704 -0.075289376
-0.09555965 -0.55981886 0.16738501 -0.04128266 -0.021124532 -0.553726 -0.2035054 -0.004443545
0.03793436 -0.0627768 -0.037001412 0.0384111 -0.031064095 0.18036588 0.14062324 -0.008116503
-0.0046396623 0.8585785 -0.046118382 0.03604471 -0.011672924 -1.3129448 0.08149024 -0.024032326
0.033421036 0.43712413 0.05951682 -0.022683129 -0.006768349 0.67134684 0.02400837 0.013080089
-0.020133058 -1.272241 0.025593258 -0.030914146 -0.022990912 -0.045823816 -0.06386361 0.02044118
-0.24032973 -0.020754347 0.18043739 -0.09965439 -0.002282038 -0.16485249 -0.10039841 -0.0040436536
0.13979787 0.18402189 0.07867684 0.15474997 -0.011799199 0.08206165 -0.014110572 0.11936654
00000000: c5e0 33bb fe63 803c 55d1 eabc 58d1 ac3c
00000010: 777f ae3b 08ca 853d ecef 78bb e93b 813d
00000020: bb41 79be f3cc d73d b033 413e 5956 ba3b
00000030: 78eb 623d 883c 203e 2d19 3a3e f5ed 19bd
00000040: a8e0 ee3e dd7b 05bd 3616 acbe e31e a1be
00000050: a047 0dbf 74d2 7ebc 86cc acbd a6c2 4fbe
00000060: 904b 943d 8fc1 67be 89c2 733d 6cb3 afbe
00000070: c479 3fbe 0f59 353d 39ed cb3d f3f6 30bf
00000080: aaa8 e13c 49f7 5e3d 70fa 40bf 652f 49be
00000090: 1f31 113d 864e 8fbe 2f3b 3e3e f68b 99be
000000a0: 3373 ac3d 17e5 9a3e 50e2 72bc 7cda 0e3d
000000b0: 984a aabd f2eb cabd 2efb 46be bd02 cfbd
000000c0: 7cb8 c4be 3d97 c0be d777 b4bd d17c 2fbc
000000d0: df2d 6e3e 47fd 6ebe d4a3 8c3e 3ded b93d
000000e0: 0201 92be 273a e33c 033e 18bf fa58 d33d
000000f0: 3f11 27be b8f2 1ebf 2e4a f8be 7b07 b53d
00000100: 404c 65bd 0da8 44bf 28a2 d3bd 81aa 94bd
00000110: 8ff5 133d d204 ff3b d48a a53d 76b7 353d
00000120: 540d 6a3e eff9 60bf 26fe 9c3e 8802 12bc
00000130: 3b2f 67bd 2dd0 8dbd 9fdb a33c 38e8 57bc
00000140: 517f 88bb 4820 dd3c 3d61 0bbe 9206 b3bd
00000150: 4179 943c 4bc5 6e3a 857c 943e 4444 3f3f
00000160: 82c6 12bd efe3 a63b c582 7ebe bf36 4cbf
00000170: 32a8 08b9 b382 4fbc 5bb5 43bd f40e 2cbd
00000180: c5f0 b93c ed95 543d f83e 2b3e fc8a 683e
00000190: 6f54 f73d 1bbb f1bc 1ae7 593e 8d76 d2be
000001a0: 1110 b63d 733f 4f3d 850a ac3b 31ee 07bf
000001b0: 6dc5 da3b 8163 2fbc a403 d23d 389d c6be
000001c0: e02e c1bb 66e9 253d 6106 2f3e 86ed 15be
000001d0: 14f6 c43d 29e6 af3d 1c22 31bf 806a 1fbf
000001e0: 5872 583c deae 863d d1cf 06bf 97ca e8bd
000001f0: e909 8dbd 0ad7 3c3e 27cf adbe 7f99 acbe
00000200: c0f4 f1bd c23f 053e f0bc fdbe 02eb 51be
00000210: 1ff6 b83d 450a 0c3e 2196 513e 6831 d7be
00000220: 1191 d7bc d0a7 b53d 85fc 64be c1a0 3abf
00000230: dca0 023e f38f 59bd 5fa3 86bd 621b 073e
00000240: a857 14be 3d19 07bd 184b 993c 90ea 943d
00000250: 521e adbd 624e 82be 7496 e7be a048 83bd
00000260: fd24 21bd 5feb eb3e 9e52 4a3e 96b3 8abd
00000270: 594f 683d f4bf 60bf 2ddb ac3d cd00 f63c
00000280: a810 01bd dc24 00be 5a1f 3fbe d8db 1bbe
00000290: 626d b2bc c18b cdbd 8f74 4ebe 76e6 2c3d
000002a0: 68a7 39bb a2e1 ef3d a658 0c3f 513c 5fbd
000002b0: 98e1 74bc 0ce0 03be f0b6 3ebf 818c 7dbd
000002c0: afc3 16be f6e6 46bd 407a b1be 784a b5bd
000002d0: b163 d3bc 2b1d b0bd 4ba6 533c 517d 963e
000002e0: a678 2dbd d9a0 33bd 37ed 163e 164d 03bf
000002f0: 559d 773d f563 3d3d d6f9 863d 11c1 01bf
00000300: 9d1c 013e 9c61 1bbe f39a 9b3c ecdf c5bd
00000310: a771 163d 8ade 023f 180a e23c 5131 9abd
00000320: c7b4 c3bd 4a50 0fbf fa66 2b3e 0218 29bd
00000330: 5b0d adbc fdc0 0dbf b863 50be 289b 91bb
00000340: 0f61 1b3d 1f91 80bd cb8e 17bd f554 1d3d
00000350: 217a febc d5b1 383e 8aff 0f3e 15fb 04bc
00000360: 4f08 98bb cdcb 5b3f a1e6 3cbd 9ea3 133d
00000370: cb3f 3fbc 930e a8bf 5be4 a63d 71df c4bc
00000380: 7fe4 083d bcce df3e e9c7 733d f8d1 b9bc
00000390: 07c9 ddbb 63dd 2b3f 33ad c43c df4d 563c
000003a0: 15ee a4bc cbd8 a2bf f4a8 d13c aa3f fdbc
000003b0: 7057 bcbc c1b1 3bbd edca 82bd 4374 a73c
000003c0: ff18 76be 0505 aabc 94c4 383e 9a17 ccbd
000003d0: 3f8e 15bb 17cf 28be ae9d cdbd a080 84bb
000003e0: 2c27 0f3e 3c70 3c3e 5321 a13d c776 1e3e
000003f0: 6d51 41bc f00f a83d 0730 67bc 7276 f43d

weight f4 [32, 32, 5, 5]
-0.0031912434 -0.12881355 0.046184987 0.18933669 0.15401018 0.14526676 -0.2207216 -0.02921581
-0.09606701 -0.2877796 -0.0717988 -0.04872707 -0.018407317 -0.15912032 -0.031056266 -0.07080797
-0.6935556 -0.27167463 0.00972027 -0.33751237 0.072571725 0.00970527 -0.09884014 0.080212414
0.0950183 0.25176853 -0.21308814 0.15951946 0.484402 0.4693393 -0.25246143 0.23933063
-0.21773335 -0.10454072 0.21499357 0.047581397 -0.15971763 -0.3826406 0.18170668 -0.23486333
-0.12340605 -0.018869357 -0.15735045 -0.33824453 -0.09478248 -0.19785681 0.31794226 -0.038252532
-0.022755539 0.3685919 0.22867334 -0.20527506 -0.1432431 0.19224787 -0.08468684 0.47200024
0.32066566 -0.7493713 -0.42887688 -0.27360308 -0.09608234 0.299855 -0.14389883 -0.47819045
0.02489022 0.25581023 -0.3402406 -0.058904897 0.33676237 -0.17604937 -0.028736772 -0.309077
0.022870036 -0.32226202 0.17394325 0.09300808 -0.26214537 0.4434746 -0.38395098 -0.035053782
-0.57490754 0.15239936 0.036327425 -0.63544536 0.011691859 -0.14444837 -0.38177586 -0.0009552978
0.07150942 -0.7009599 -1.1657808 -0.104571074 -0.44331694 -0.14468239 0.24175169 -0.0077298423
0.22950897 -0.05109596 0.2617478 -0.19237977 0.011110328 0.085005574 0.08950312 0.64093417
-0.70688975 -0.43299338 0.3505197 0.29121792 -0.29900292 -0.111340426 -0.34511563 -0.18090701
0.36670685 0.20764028 0.78981435 -0.06895843 0.07853065 -0.53105444 -0.0844496 -0.63333184
0.09004767 0.063103296 0.10374855 -0.22550069 -0.06546683 0.12660275 0.18953198 -0.115093075
-0.043036934 -0.1273662 0.040163945 -0.42286065 -0.09876955 -0.05091331 -0.034409672 0.0009983528
-0.18255621 0.035342924 0.035258044 0.24854228 -0.22584355 -1.7218784 -0.83261454 -0.12439334
-0.589645 -0.028409088 -0.46872982 0.07737373 -0.3666955 -0.4856229 0.18717651 -0.120673105
-0.14717475 -0.33276254 -0.6635866 0.09523615 0.14791329 -0.36847734 -0.086382024 -0.80275095
0.06917379 0.25580093 -0.16585329 0.13642497 0.21657221 -0.20640703 -0.13272546 -0.3729972
-0.034079902 -0.110647134 0.0032464848 0.09336025 0.006042834 0.35109 0.07207268 0.018681245
-0.57252616 0.5330217 0.03385219 -0.05872909 0.03631734 -0.03914264 -0.03947793 0.33290666
-0.80431545 0.005681572 -0.36139393 -0.31526342 0.1261393 -0.3223863 0.1868149 -0.23965855
-0.31593043 0.22275996 0.048378408 -0.25668183 -0.2343807 -0.17068131 0.2767658 -0.0459543
0.230021 -0.20954001 0.10571469 0.3838837 0.097911075 -0.8735421 0.14604574 -0.22943914
0.11143299 -0.16458322 -0.75724536 0.18727237 0.17254984 -0.06037865 -0.5750534 -0.5074847
-0.3662937 -0.29288638 0.1493205 0.03939641 -0.25171754 0.27728924 -0.10038714 -0.28738734
0.26122484 0.13588424 0.21204609 -0.3514904 -0.16916472 0.097131565 -0.34467387 -0.3288997
0.14044768 -0.29652408 -0.4043976 -0.41793427 0.4305322 -0.08685125 -0.012212845 0.0052632396
-0.22507575 0.08689234 -0.2756922 0.049557727 -0.5012335 -0.113344625 0.23641509 0.12620246
-0.01952462 0.21616913 0.8544013 -0.589011 0.078576334 -0.019836992 0.21885306 -0.4469031
00000000: 2e24 51bb b3e7 03be 782c 3d3d 7ae1 413e
00000010: d8b4 1d3e cfc0 143e d804 62be ff55 efbc
00000020: c8be c4bd d957 93be 400b 93bd 0996 47bd
00000030: f1ca 96bc 70f0 22be b669 febc c503 91bd
00000040: dc8c 31bf f018 8bbe c441 1f3c 6cce acbe
00000050: 7ca0 943d da02 1f3c b36c cabd 6846 a43d
00000060: f498 c23d cee7 803e c733 5abe 1259 233e
00000070: 8a03 f83e 3e4d f03e a042 81be 1713 753e
00000080: 7ef5 5ebe 7219 d6bd 4627 5c3e b6e4 423d
00000090: 058d 23be 78e9 c3be 5111 3a3e 0380 70be
000000a0: 50bc fcbd e993 9abc 7a20 21be 632e adbe
000000b0: 511d c2bd fa9a 4abe 54c9 a23e b0ae 1cbd
000000c0: d369 babc 14b8 bc3e 5829 6a3e a033 52be
000000d0: 52ae 12be a0dc 443e 4b70 adbd 04aa f13e
000000e0: 4a2e a43e ccd6 3fbf c095 dbbe b415 8cbe
000000f0: d1c6 c4bd 9886 993e 375a 13be 61d5 f4be
00000100: 93e6 cb3c 8ff9 823e 0434 aebe 4346 71bd
00000110: 1e6c ac3e 4946 34be 6169 ebbc 573f 9ebe
00000120: f159 bb3c 87ff a4be 2e1e 323e 057b be3d
00000130: eb37 86be 1a0f e33e 3995 c4be 8e94 0fbd
00000140: 242d 13bf 940e 1c3e 11cc 143d 8cac 22bf
00000150: 368f 3f3c 46ea 13be 2078 c3be f36c 7aba
00000160: 8873 923d 1c72 33bf 4e38 95bf 5c29 d6bd
00000170: 70fa e2be 9f27 14be c18d 773e 9e4a fdbb
00000180: 6604 6b3e ff49 51bd cf03 863e 34ff 44be
00000190: 1808 363c 6717 ae3d 694d b73d 4314 243f
000001a0: baf6 34bf 4fb1 ddbe 5177 b33e 841a 953e
000001b0: e916 99be 7306 e4bd ffb2 b0be b03f 39be
000001c0: 00c1 bb3e a79f 543e 4631 4a3f 143a 8dbd
000001d0: add4 a03d 2ff3 07bf e9f3 acbd 0922 22bf
000001e0: ea6a b83d 4d3c 813d 1f7a d43d a7e9 66be
000001f0: 7913 86bd 27a4 013e ac14 423e ebb5 ebbd
00000200: 7f47 30bd 496c 02be f382 243d 3181 d8be
00000210: b147 cabd 7a8a 50bd 28f1 0cbd 29db 823a
00000220: 04f0 3abe bec3 103d bd6a 103d de81 7e3e
00000230: 8843 67be 8366 dcbf 3a26 55bf efc1 febd
00000240: faf2 16bf 2dba e8bc 5bfd efbe 1e76 9e3d
00000250: 83bf bbbe 91a3 f8be 33ab 3f3e 7623 f7bd
00000260: fab4 16be da5f aabe d0e0 29bf 2c0b c33d
00000270: 9576 173e 10a9 bcbe 0fe9 b0bd 1681 4dbf
00000280: fdaa 8d3d 57f8 823e 72d5 29be fdb2 0b3e
00000290: 1bc5 5d3e 5d5c 53be 2fe9 07be 7df9 bebe
000002a0: 5e97 0bbd f79a e2bd fac2 543b a933 bf3d
000002b0: f702 c63b 12c2 b33e d79a 933d 6909 993c
000002c0: 1391 12bf 1c74 083f 98a8 0a3d ea8d 70bd
000002d0: 7ec1 143d 0854 20bd 9cb3 21bd be72 aa3e
000002e0: 9ee7 4dbf 7b2c ba3b a008 b9be 356a a1be
000002f0: a92a 013e d10f a5be 684c 3f3e 0d69 75be
00000300: a2c1 a1be 301b 643e 7028 463d cd6b 83be
00000310: 7f01 70be 15c7 2ebe 3fb4 8d3e 933a 3cbd
00000320: a08a 6b3e a891 56be f280 d83d 688c c43e
00000330: 9a85 c83d 74a0 5fbf 048d 153e 18f2 6abe
00000340: fb36 e43d 8188 28be d5da 41bf 54c4 3f3e
00000350: e8b0 303e 9a4f 77bd b336 13bf 84ea 01bf
00000360: d98a bbbe 34f5 95be 79e7 183e 215e 213d
00000370: 1fe1 80be dbf8 8d3e c697 cdbd 6f24 93be
00000380: 43bf 853e 3d25 0b3e 9c22 593e 8df6 b3be
00000390: 8439 2dbe eaec c63d 1879 b0be 8b65 a8be
000003a0: 84d1 0f3e 01d2 97be 340d cfbe 7bfb d5be
000003b0: b76e dc3e 11df b1bd 6218 48bc 4177 ac3b
000003c0: 427a 66be 9cf4 b13d 8727 8dbe 0bfd 4a3d
000003d0: d750 00bf 3a21 e8bd cc16 723e 383b 013e
000003e0: 19f2 9fbc 715b 5d3e 0bba 5a3f 6dc9 16bf
000003f0: a1ec a03d 3081 a2bc 041b 603e 7cd0 e4be

weight f4 [64, 32, 5, 5]
0.098689824 0.04103602 -0.063844964 0.27755564 -0.2649622 0.2575637 0.05588891 0.19426535
-0.062337454 0.113544874 0.09303684 -0.21909523 -0.14948477 0.07719592 0.67377114 -0.08567842
0.08634879 0.08479836 -0.12347842 0.30261755 -0.062130466 -0.5228376 -0.14007494 0.4653555
0.21083002 0.34273493 -0.43778285 0.21983244 0.0027131499 0.10452563 0.025242263 0.42604584
0.20971617 -0.6921871 0.043559145 0.26178896 0.07991408 0.5954241 0.098711066 -0.45609757
0.21486981 0.39646548 -0.6554447 0.48432836 0.04296105 -0.06491932 0.6287252 0.33186555
0.0321454 -0.03173423 -0.23873954 -0.085081756 0.4503134 0.23000298 -0.20857003 0.09652435
-0.25208142 -0.5435248 -0.9964601 -0.5504903 0.19130531 0.042186655 -0.5986591 0.19380546
-0.44569963 0.1760479 0.15943584 -0.04622099 -0.25638196 -0.17321956 0.46107727 0.16089937
0.111742266 0.104289375 -0.10784972 -0.40897122 -0.55650294 -0.2148148 0.22928344 -0.23171766
0.47490343 0.11028128 0.30672836 0.70451564 0.20850255 0.25414225 -0.03921678 -0.67717695
-0.5298666 -1.1221709 -0.26159465 -0.10009652 -1.1709639 0.09306909 0.38054216 -0.049976964
-0.10105762 -0.025562389 0.5829731 0.060115304 -0.18857832 0.22858275 0.27676368 0.00878926
0.21358024 -0.42640102 -0.16743691 0.052799724 0.023320297 0.66290796 0.2526872 -0.31694436
-0.22222503 0.014516834 -0.280627 -0.049128707 0.08011197 -0.16046694 -0.48964727 -0.7136524
-0.48247206 -0.20994362 0.061930194 0.38103893 -0.3838685 -0.08937855 -0.54570633 -0.3535404
0.42031932 -0.66963035 0.42655024 -0.4321853 0.15496233 -0.28735906 -0.15853712 -0.014413942
0.21441987 0.15341519 0.01353782 -0.16282327 -0.51986176 -0.2257934 0.012109123 -0.08642813
-0.010055792 -0.4079709 -0.079790734 0.20176594 -0.07585528 0.12067404 -0.035368573 -0.4562189
0.10352173 0.069317244 -0.23423634 0.07172448 0.011164362 0.18420222 -0.09598823 0.07728952
-0.031420887 0.27091488 0.2675079 -0.27638057 -0.17108093 0.03235729 -0.08397842 -0.07124436
-0.14746578 -0.30592653 0.33002037 0.16045088 -0.033230573 -0.089372 0.046026833 0.018046163
-0.4557026 0.17094359 -0.22103584 0.10840395 0.22497612 0.06836673 0.08496837 0.007459468
-0.4270263 0.06186275 0.048821382 -0.33667904 0.23990536 0.34564272 0.061408952 -0.21496232
-0.12800348 -0.10184616 -0.1078078 0.12588684 -0.24871226 -0.11616768 -0.7740657 -0.28744614
0.3384564 0.23092753 -0.24799207 -0.38369867 0.22575067 0.41742545 -0.83603764 0.13652639
-0.5334895 0.3306438 0.24425365 -0.05580534 -0.398725 -0.13748747 -0.6051095 0.33413512
-0.39747453 0.1677774 0.047469463 0.36548963 0.5703089 0.010562816 -0.005735484 0.25719735
0.24052107 0.29404473 -0.03126033 0.033873547 -0.12064132 0.60930926 0.12206142 -0.17163578
0.3054804 0.07313569 0.01822106 0.0023365195 -0.18047161 -0.08638548 -0.06818288 0.111399986
0.36986008 0.0977688 -0.578222 0.15629514 -0.10742462 -0.18648052 -0.12165692 0.23290668
0.4638864 -0.02385769 0.11252093 0.19095577 0.2965108 -0.235425 0.4236828 0.37259966
00000000: e41d ca3d 6315 283d 26c1 82bd c61b 8e3e
00000010: 20a9 87be 64df 833e c5eb 643d 7fed 463e
00000020: 8f55 7fbd 378a e83d 198a be3d 805a 60be
00000030: 8912 19be e518 9e3d 447c 2c3f 2b78 afbd
00000040: a2d7 b03d c3aa ad3d 41e2 fcbd b0f0 9a3e
00000050: 847c 7ebd afd8 05bf ce6f 0fbe 1343 ee3e
00000060: d3e3 573e f47a af3e 1325 e0be c11b 613e
00000070: 1acf 313b 8911 d63d ddc8 ce3c ae22 da3e
00000080: d6bf 563e 2c33 31bf 136b 323d 3409 863e
00000090: fea9 a33d b76d 183f 0729 ca3d 9f85 e9be
000000a0: d506 5c3e 86fd ca3e 39cb 27bf e3f9 f73e
000000b0: edf7 2f3d 6cf4 84bd 22f4 203f 48ea a93e
000000c0: e5aa 033d c1fb 01bd 2378 74be 583f aebd
000000d0: 7a8f e63e e785 6b3e 6293 55be 8fae c53d
000000e0: d110 81be 7124 0bbf 0218 7fbf efec 0cbf
000000f0: 8ae5 433e eacb 2c3d b941 19bf f074 463e
00000100: be32 e4be e745 343e 2643 233e 3952 3dbd
00000110: 7f44 83be 7860 31be 5212 ec3e cec2 243e
00000120: 21d9 e43d ab95 d53d 50e0 dcbd ad64 d1be
00000130: fa76 0ebf 69f8 5bbe 47c9 6a3e 6547 6dbe
00000140: 8b26 f33e 27db e13d 800b 9d3e 235b 343f
00000150: b181 553e ef1e 823e c6a1 20bd 785b 2dbf
00000160: 56a5 07bf 4ca3 8fbf bcef 85be 67ff ccbd
00000170: 25e2 95bf 029b be3d 6cd6 c23e a5b4 4cbd
00000180: 4cf7 cebd 3768 d1bc ba3d 153f 773b 763d
00000190: ad1a 41be 9911 6a3e f8b3 8d3e d400 103c
000001a0: c7b4 5a3e 3c51 dabe 9574 2bbe 8644 583d
000001b0: 350a bf3c 56b4 293f 3760 813e 8846 a2be
000001c0: f58e 63be 04d8 6d3c 58ae 8fbe 2f3b 49bd
000001d0: bf11 a43d 7251 24be 0cb3 fabe ecb1 36bf
000001e0: 9406 f7be 76fb 56be 84aa 7d3d 8917 c33e
000001f0: 698a c4be 1a0c b7bd 69b3 0bbf 3f03 b5be
00000200: 1834 d73e e56c 2bbf cb64 da3e 6447 ddbe
00000210: 72ae 1e3e ba20 93be 8e57 22be 7428 6cbc
00000220: e290 5b3e df18 1d3e bccd 5d3c 25bb 26be
00000230: a915 05bf 6336 67be 5865 463c 3b01 b1bd
00000240: 0cc1 24bc 90e1 d0be 5369 a3bd bb9b 4e3e
00000250: 035a 9bbd f323 f73d a3de 10bd 8695 e9be
00000260: 3303 d43d 33f6 8d3d a7db 6fbe 49e4 923d
00000270: baea 363c 829f 3c3e 7a95 c4bd f849 9e3d
00000280: 30b3 00bd 5bb5 8a3e ccf6 883e c181 8dbe
00000290: d72f 2fbe 1489 043d e1fc abbd 90e8 91bd
000002a0: 4501 17be 67a2 9cbe 6ef8 a83e 3c4d 243e
000002b0: c81c 08bd ab08 b7bd a286 3c3d 8cd5 933c
000002c0: da51 e9be d60b 2f3e 3857 62be e402 de3d
000002d0: 2460 663e db03 8c3d e603 ae3d 8e6e f43b
000002e0: 31a3 dabe cc63 7d3d eef8 473d 3261 acbe
000002f0: c0a9 753e 15f8 b03e f487 7b3d 151f 5cbe
00000300: 5813 03be b894 d0bd 56ca dcbd 7be8 003e
00000310: 6dae 7ebe 52e9 edbd 2b29 46bf 242c 93be
00000320: 284a ad3e 4478 6c3e a2f1 7dbe 2774 c4be
00000330: 2f2b 673e cab8 d53e 9006 56bf 93cd 0b3e
00000340: c592 08bf 254a a93e a11d 7a3e 2494 64bd
00000350: af25 ccbe 84c9 0cbe 75e8 1abf c213 ab3e
00000360: c881 cbbe d7cd 2b3e 576f 423d 7521 bb3e
00000370: c4ff 113f a90f 2d3c baf0 bbbb 5faf 833e
00000380: 284b 763e 088d 963e d50a 00bd fdbe 0a3d
00000390: cc12 f7bd b1fb 1b3f 56fb f93d 4ac1 2fbe
000003a0: ed67 9c3e 2ac8 953d 5544 953c 4b20 193b
000003b0: 8dcd 38be dfea b0bd 77a3 8bbd ad25 e43d
000003c0: 4d5e bd3e 023b c83d 5b06 14bf d50b 203e
000003d0: 7001 dcbd c0f4 3ebe 4327 f9bd 177f 6e3e
000003e0: 8582 ed3e 3471 c3bc 6071 e63d e989 433e
000003f0: 43d0 973e 4013 71be f4ec d83e 62c5 be3e

weight f4 [256, 256]
-0.011140539 0.04969188 0.01534752 0.093680255 0.08889129 -0.020760868 -0.07066648 -0.10182077
0.013168167 -0.12271478 -0.065042384 0.046614345 0.1279676 0.19531858 -0.03721084 0.009757687
-0.16420573 0.23546544 0.111124195 0.008043496 -0.12125873 0.046890993 -0.02996397 -0.09436225
0.07356914 -0.14570142 -0.15946274 -0.03299118 -0.00923378 0.021680007 -0.047019634 0.016106322
0.4927408 -0.007818694 0.0041515804 0.31482816 -0.030019067 -0.025837157 0.008195281 0.0054931464
0.22519276 -0.28441146 -0.0056760777 -0.020983206 0.010631124 0.0011989975 -0.09887209 0.064015135
-0.09938544 0.07463574 0.0027107487 0.08067722 -0.016139353 0.0072410703 -0.061728686 -0.09058533
0.031001817 -0.51831865 0.3423472 -0.047081247 0.28479373 0.49088722 -0.056275055 -0.27849764
-0.07540538 -0.07498843 -0.08691325 0.07595531 0.15655652 0.017312046 0.02442705 -0.068340704
-0.07369353 -0.06610581 0.07199399 -0.004411003 -0.16592495 0.06885453 -0.044643562 0.031758696
0.044955093 -0.027606014 0.12300645 0.10794003 -0.1539077 -0.05542489 0.051764905 0.0072881714
-0.0038608378 0.045367423 -0.08702861 -0.0016017018 0.035725463 -0.04459029 0.0419745 -0.08939054
0.42091846 0.085124545 -0.04384666 0.027349276 0.3411517 -0.13284247 0.22981347 -0.5446895
0.11353344 0.07869832 0.005800676 0.11001481 0.13461752 0.011756812 0.16113743 0.20080882
-0.02634613 -0.06513125 -0.05207913 0.06378508 -0.089392 0.02925702 -0.009200555 0.00021854565
-0.11859475 0.037186887 -0.27517083 -0.28149217 0.05397258 0.033395573 -0.01811045 -0.09301638
-0.012829526 -0.021312945 -0.14066188 0.23297341 0.0813804 -0.08779882 -0.07554435 -0.0224653
-0.015891615 0.026170352 -0.0011232609 0.027770866 -0.09725661 -0.016340218 0.09447673 0.025969926
0.058399327 0.061151456 0.04372032 -0.24320741 -0.035957158 0.06694032 -0.021018153 -0.024992615
0.06283089 0.08573264 0.07849606 -0.15782517 0.053273343 -0.081762634 -0.10177171 0.11241251
-0.060544677 0.03566648 -0.055618808 0.08026136 -0.10609085 0.044068083 0.07483436 -0.0038241223
0.08867262 0.10332838 0.047308337 0.08682116 -0.06450566 -0.03756075 0.033277698 -0.40065265
0.06525237 0.0040365006 0.08608073 -0.0817581 -0.024811653 -0.077372864 0.0057207206 0.012780789
-0.2022759 -0.10240586 0.035508275 -0.11607449 0.005542533 0.08632987 -0.06269222 -0.028099658
-0.03406031 -0.18630952 0.046275545 0.35025704 0.0029437782 -0.02009221 -0.04360751 0.04312673
-0.07521206 -0.19968164 0.14773795 0.019125925 -0.016757969 0.17464378 0.15636751 0.013395912
0.115999654 0.046277832 0.017414266 -0.02267292 0.35133275 0.05955095 -0.2760685 -0.17618531
0.18735169 0.16847004 -0.13110918 0.112007655 -0.027097404 0.04605772 -0.03756143 0.010750537
0.007673294 0.06587648 0.10076922 -0.017698465 0.04667219 0.052115817 0.03419983 -0.086159915
-0.055004533 0.044935282 0.06743246 0.06309523 -0.18765333 0.05787175 0.29384354 0.0073589077
0.1799832 0.021306867 -0.11135298 -0.05271309 -0.06457419 0.070971034 0.06144356 0.0081572635
0.12069983 0.03499373 0.08969936 0.088729635 0.015377005 -0.00895896 0.029692465 0.005316471
00000000: cf86 36bc b689 4b3d 2a74 7b3c 6fdb bf3d
00000010: a30c b63d b212 aabc 96b9 90bd 6887 d0bd
00000020: 4cbf 573c e351 fbbd f134 85bd afee 3e3d
00000030: f009 033e 9801 483e 656a 18bd b5de 1f3c
00000040: 8c25 28be da1d 713e 1595 e33d dec8 033c
00000050: 7f56 f8bd c510 403d 0077 f5bc ff40 c1bd
00000060: 6bab 963d c132 15be 334a 23be c221 07bd
00000070: 4849 17bc 459a b13c a997 40bd 68f1 833c
00000080: 8648 fc3e fb19 00bc fb09 883b 2831 a13e
00000090: 8cea f5bc 72a8 d3bc 8045 063c daff b33b
000000a0: ee98 663e 619e 91be 64fe b9bb f9e4 abbc
000000b0: 2a2e 2e3c ae27 9d3a 737d cabd 5e1a 833d
000000c0: 988a cbbd 9fda 983d d1a6 313b 193a a53d
000000d0: ad36 84bc 8046 ed3b 38d7 7cbd cd84 b9bd
000000e0: 86f7 fd3c 88b0 04bf 2248 af3e 44d8 40bd
000000f0: 7cd0 913e 9255 fb3e ac80 66bd 3e97 8ebe
00000100: 236e 9abd 8993 99bd 93ff b1bd 758e 9b3d
00000110: 5a50 203e fed1 8d3c 3d1b c83c 36f6 8bbd
00000120: a2ec 96bd 7c62 87bd 9671 933d 2d8a 90bb
00000130: 3be8 29be 9b03 8d3d 2bdc 36bd 6815 023d
00000140: d522 383d 0226 e2bc ceea fb3d aa0f dd3d
00000150: fb99 1dbe 3605 63bd 7007 543d 9dd1 ee3b
00000160: 1c06 7dbb 31d3 393d 0e3c b2bd 32f0 d1ba
00000170: dd54 123d 4fa4 36bd 74ed 2b3d 6312 b7bd
00000180: a082 d73e c755 ae3d 8e98 33bd 970b e03c
00000190: 70ab ae3e db07 08be 3954 6b3e c570 0bbf
000001a0: 3884 e83d 962c a13d 9913 be3b 724f e13d
000001b0: 2dd9 093e a59f 403c 3601 253e d4a0 4d3e
000001c0: d7d3 d7bc 8863 85bd ed50 55bd c1a1 823d
000001d0: 2713 b7bd 6bac ef3c edbd 16bc 6729 6539
000001e0: cee1 f2bd 4751 183d 31e3 8cbe be1f 90be
000001f0: 5a12 5d3d ccc9 083d 5e5c 94bc 5f7f bebd
00000200: ef32 52bc 7c98 aebc ab09 10be 9590 6e3e
00000210: c4aa a63d decf b3bd ffb6 9abd 2609 b8bc
00000220: 222f 82bc 3563 d63c 623a 93ba ba7f e33c
00000230: 792e c7bd ecdb 85bc 047d c13d e2be d43c
00000240: 2234 6f3d f379 7a3d 1414 333d 5d0b 79be
00000250: d047 13bd 0218 893d 432e acbc 50bd ccbc
00000260: 7bad 803d 9894 af3d 8bc2 a03d ec9c 21be
00000270: 2635 5a3d 2b73 a7bd b06d d0bd 8838 e63d
00000280: b2fd 77bd 0417 123d 8cd0 63bd 1160 a43d
00000290: 2946 d9bd bc80 343d c242 993d 209e 7abb
000002a0: fe99 b53d d49d d33d 63c6 413d 4bcf b13d
000002b0: 8b1b 84bd 4dd9 19bd 324e 083d 5822 cdbe
000002c0: 09a3 853d 9f44 843b 184b b03d ca70 a7bd
000002d0: cf41 cbbc aa75 9ebd e274 bb3b 8466 513c
000002e0: 6a21 4fbe 2aba d1bd 2071 113d 76b8 edbd
000002f0: 239e b53b b7cd b03d c764 80bd 4131 e6bc
00000300: d382 0bbd ecc7 3ebe 6d8b 3d3d e454 b33e
00000310: 67ec 403b 6b98 a4bc ca9d 32bd a7a5 303d
00000320: c808 9abd 5879 4cbe 9e48 173e f9ad 9c3c
00000330: 0248 89bc d2d5 323e ce1e 203e 877a 5b3c
00000340: 3a91 ed3d d38d 3d3d 5da8 8e3c 8fbc b9bc
00000350: e3e1 b33e b2eb 733d da58 8dbe ec69 34be
00000360: 1fd9 3f3e 6983 2c3e 7c41 06be 4564 e53d
00000370: 60fb ddbc 05a7 3c3d 04da 19bd 0523 303c
00000380: 4170 fb3b 3fea 863d 1860 ce3d 5ffc 90bc
00000390: 572b 3f3d 6577 553d 1f15 0c3d 9c74 b0bd
000003a0: 6f4c 61bd 0f0e 383d 081a 8a3d 1238 813d
000003b0: 3228 40be ee0a 6d3d a972 963e fe22 f13b
000003c0: 844d 383e bd8b ae3c 080d e4bd aee9 57bd
000003d0: 793f 84bd 4359 913d 3eac 7b3d 0ba6 053c
000003e0: 7931 f73d 9655 0f3d 4cb4 b73d e2b7 b53d
000003f0: d5ef 7b3c 9ac8 12bc 9d3d f33c cb35 ae3b

bias f4 [256]
-3.2320026e-05 0.0153418435 0.08426657 -0.015262537 -0.04711992 -0.10319762 -0.05450974 0.0713986
0.1527182 -0.12753697 0.024542158 -0.0073061083 0.08323145 -0.08202221 -0.026919909 -0.038952637
-0.012331282 -0.05270542 0.07411892 -0.06941082 0.016649121 -0.06246337 0.08157832 0.2163554
-0.16154769 0.13499461 0.044453252 -0.08229079 -0.11018675 -0.10758951 0.13650164 0.1402272
-0.055127837 -0.0023002902 0.07780817 -0.00062912365 -0.13066323 -0.011955996 -0.052687008 -0.1651909
-0.05474419 0.047951348 0.022769252 -0.105418414 -0.03994263 0.037384108 0.12077895 0.16865449
-0.021083161 0.08038155 -0.043056432 0.03221219 -0.13805425 0.12413464 0.12001601 -0.03805996
-0.061396483 0.0486587 0.2186082 0.02781548 -0.017404087 0.06435837 -0.13484883 0.008912688
0.00065205345 0.036928844 0.00024042276 -0.05835952 -0.08905866 -0.24005425 -0.061199244 -0.018046398
-0.076436915 0.089943685 0.03392485 0.05343554 0.011889016 0.04019919 0.053509198 -0.043055303
-0.16434409 0.040657267 -0.012424334 -0.029281529 -0.117842525 0.10861313 0.08121693 0.04228001
0.18326679 -0.055239167 0.06919233 -0.026126288 0.049288478 0.11789959 0.08229592 0.052090004
-0.14869782 0.24672791 -0.14647585 0.00055112934 0.05602003 -0.14031146 -0.14156951 -0.028444573
-0.080967836 -0.061346438 -0.0916383 0.117221996 0.14985065 0.0383695 -0.08703424 0.09063068
-0.029703217 0.012974154 -0.056785136 0.043800883 -0.099644914 -0.130619 -0.04637774 -0.08276574
-0.030073315 0.16711454 0.05082013 -0.021575645 -0.013021163 0.033363517 -0.036173068 -0.006548816
-0.09841353 0.030543631 0.052310206 0.10264325 -0.116981946 0.0043997387 0.10010959 0.083982
-0.10503632 -0.033138786 -0.047864236 -0.101407275 0.12829126 -0.008020096 -0.038841266 -0.11220885
0.06972156 0.013769291 -0.0649927 0.19791865 0.04385481 0.16765475 -0.02334311 0.06304274
0.04796235 0.045743894 -0.043869063 -0.0060426565 0.120509416 0.007358919 -0.13057734 -0.09776753
0.038212385 -0.021582475 0.025291668 -0.017509617 0.07605855 -0.17340246 0.07701895 -0.044508945
-0.012835061 -0.05034494 -0.010948677 0.041597627 -0.025667561 -0.045576137 0.046449054 0.10575741
0.05361852 -0.08737776 -0.09611222 -0.12493082 0.06991578 0.032704245 0.17199042 -0.04084146
0.025655529 -0.09492602 0.1762986 -0.029522205 -0.061162066 -0.06591444 -0.023772672 0.0019130466
-0.019156441 0.13124458 -0.10294948 0.110289045 0.030517882 -0.05062534 0.007318605 0.03940647
0.06493786 -0.10087085 0.10704519 -0.035425205 0.016059559 -0.051353864 0.030137798 0.059882436
0.16520086 0.026510598 -0.067656435 -0.09054585 -0.04189194 0.13131946 -0.11222391 0.10881878
0.023181507 0.17553896 0.03818053 -0.05102395 0.039498325 -0.017300772 0.055778276 0.118345395
0.135503 -0.008304748 0.016761178 -0.021753367 -0.021045972 0.008280154 -0.028033687 -0.15866096
-0.05771336 0.08558362 -0.056965087 0.10088756 -0.030534146 0.098295026 -0.15531899 -0.017447624
-0.036898714 0.010904036 -0.04137005 -0.15380283 0.07259419 -0.0052035875 0.0004460862 0.06029513
-0.09968891 0.04862733 -0.011945631 0.0033229305 -0.11824034 -0.01354755 0.053238515 0.11280843
00000000: 5d8f 07b8 5b5c 7b3c f493 ac3d b80f 7abc
00000010: d100 41bd 4659 d3bd 9b45 5fbd 6e39 923d
00000020: 2962 1c3e 0d99 02be a30c c93c 1468 efbb
00000030: 4075 aa3d 43fb a7bd 2487 dcbc cd8c 1fbd
00000040: 2509 4abc a3e1 57bd a9cb 973d 4327 8ebd
00000050: bd63 883c 97d9 7fbd 8912 a73d 458c 5d3e
00000060: c26c 25be 073c 0a3e 9d14 363d 1388 a8bd
00000070: 97a9 e1bd e457 dcbd 16c7 0b3e b897 0f3e
00000080: bacd 61bd 77c0 16bb e459 9f3d c6eb 24ba
00000090: 95cc 05be 15e3 43bc 55ce 57bd ce27 29be
000000a0: 723b 60bd a268 443d 9586 ba3c 9ce5 d7bd
000000b0: e29a 23bd 1420 193d f45a f73d c3b3 2c3e
000000c0: 98b6 acbc 159f a43d f15b 30bd eef0 033d
000000d0: 185e 0dbe 4d3a fe3d f4ca f53d c3e4 1bbd
000000e0: e17a 7bbd 584e 473d d4da 5f3e 4add e33c
000000f0: 0493 8ebc 52ce 833d d015 0abe 8606 123c
00000100: 91ee 2a3a b342 173d fe19 7c39 640a 6fbd
00000110: 6364 b6bd c8d0 75be 0fac 7abd 0ad6 93bc
00000120: f58a 9cbd 6534 b83d c9f4 0a3d 3adf 5a3d
00000130: 26ca 423c e8a7 243d 762c 5b3d c25a 30bd
00000140: d149 28be 3c88 263d 6f8f 4bbc d1df efbc
00000150: 6c57 f1bd 9070 de3d 1055 a63d ce2d 2d3d
00000160: 4aaa 3b3e 7742 62bd b5b4 8d3d cc06 d6bc
00000170: b7e2 493d 5775 f13d c38a a83d 545c 553d
00000180: 3e44 18be 3ea6 7c3e c4fd 15be aa79 103a
00000190: 4275 653d cfad 0fbe 99f7 10be 9804 e9bc
000001a0: 77d2 a5bd 6746 7bbd dcac bbbd 1612 f03d
000001b0: 7372 193e 5629 1d3d 023f b2bd 949c b93d
000001c0: 2954 f3bc 8c91 543c 8897 68bd 8e68 333d
000001d0: a212 ccbd fdc0 05be 96f6 3dbd 1681 a9bd
000001e0: 505c f6bc 1320 2b3e c528 503d 68bf b0bc
000001f0: b756 55bc 2fa8 083d 362a 14bd 7397 d6bb
00000200: 088d c9bd a336 fa3c 3a43 563d a036 d23d
00000210: 3b94 efbd af2b 903b 4206 cd3d c1fe ab3d
00000220: 481d d7bd 89bc 07bd 4a0d 44bd 9eae cfbd
00000230: c95e 033e b966 03bc 0518 1fbd c1cd e5bd
00000240: 2dca 8e3d 9898 613c e51a 85bd 30ab 4a3e
00000250: 1aa1 333d b0ad 2b3e 0d3a bfbc 8d1c 813d
00000260: 2b74 443d f35d 3b3d 0cb0 33bd 7a01 c6bb
00000270: a4cd f63d 1623 f13b 11b6 05be 583a c8bd
00000280: 9784 1c3d bbcd b0bc 7930 cf3c 5470 8fbc
00000290: 96c4 9b3d 6a90 31be 1cbc 9d3d 034f 36bd
000002a0: 264a 52bc 7f36 4ebd 1462 33bc 4662 2a3d
000002b0: c744 d2bc 0bae 3abd 5d41 3e3d 5797 d83d
000002c0: 189f 5b3d 1cf3 b2bd 7cd6 c4bd bbdb ffbd
000002d0: 0130 8f3d e3f4 053d 421e 303e 6049 27bd
000002e0: 8b2b d23c 9368 c2bd 9f87 343e 8dd8 f1bc
000002f0: 1385 7abd 26fe 86bd e8be c2bc 31bf fa3a
00000300: f8ed 9cbc fb64 063e 2dd7 d2bd 39df e13d
00000310: a300 fa3c 845c 4fbd e9d0 ef3b ae68 213d
00000320: 24fe 843d 6095 cebd 823a db3d 051a 11bd
00000330: 568f 833c 6e58 52bd 8be3 f63c 4947 753d
00000340: 6a2a 293e c12c d93c 758f 8abd 1a70 b9bd
00000350: e296 2bbd 9c78 063e a6d5 e5bd 61dc de3d
00000360: 25e7 bd3c 7cc0 333e 3063 1c3d 7dfe 50bd
00000370: ffc8 213d 59ba 8dbc c377 643d 125f f23d
00000380: 4cc1 0a3e a310 08bc bd4e 893c 1e34 b2bc
00000390: 9a68 acbc 7ca9 073c e7a6 e5bc 0578 22be
000003a0: d864 6cbd 7746 af3d 3954 69bd 239e ce3d
000003b0: bf22 fabc e74e c93d f10b 1fbe 52ee 8ebc
000003c0: 1b23 17bd d8a6 323c a473 29bd 7d7e 1dbe
000003d0: 43ac 943d db82 aabb ade0 e939 07f8 763d
000003e0: b329 ccbd 742d 473d 9cb7 43bc 86c5 593b
000003f0: fe27 f2bd 8bf6 5dbc a110 5a3d 1b08 e73d

weight f4 [256, 256]
-0.020035895 -0.0013993839 0.006566663 0.03239436 -0.006307652 -0.015477554 -0.021240594 0.034464553
-0.04522415 -0.026807955 -0.012129566 0.0076133967 0.022531176 0.0046415003 0.008296386 -0.008720465
0.011383338 0.011936506 -0.029791668 -0.011061672 0.0028231551 0.045695934 -0.009861369 -0.046681464
0.018757032 0.010902798 -0.026463369 0.035956196 0.017843297 0.04473988 -0.0113989785 -0.06576852
0.058955442 -0.054333728 -0.025082257 0.00054776145 0.040004022 0.025348451 -0.021052843 0.018521508
-0.053515807 -0.022063486 -0.018142726 -0.002186367 0.0036744536 0.018282242 0.047069788 0.046331268
0.023180122 0.052912824 0.038535062 0.0068045757 -0.03230531 -0.006061691 -0.019257316 0.02670209
0.00888001 -0.01159323 -0.030595498 -0.035920937 -0.02342183 -0.035606895 -0.018446608 -0.011303755
0.0011484203 -0.02487339 -0.0033293697 0.03250981 -0.010720763 -0.0023295651 0.014220454 0.022741253
-0.03702415 0.016745316 0.046338994 0.07589814 0.0015524175 -0.020939423 0.026355192 -0.0022914647
-0.03583198 0.00771509 0.029325424 -0.050600853 0.031171741 0.036380466 -0.0034186007 -0.027662706
0.053418756 0.0036267336 -0.014283041 -0.04160671 -0.00195326 -0.030954827 0.009345841 0.02125623
-0.020897057 -0.016011054 -0.019317389 -0.028617553 -0.021160554 -0.010762967 -0.009346902 -0.016495671
0.0116411755 -0.040801607 0.027428122 -0.044377655 -0.048547253 -0.020661669 -0.08047432 -0.029998282
0.1299018 -0.013214046 -0.0012465126 0.072293416 -0.00030465532 -0.0025587652 0.051350497 0.0017209497
0.026206758 0.011497975 -0.015956974 0.0026341532 0.01064091 -0.019935112 -0.017049875 -0.012635368
-0.00012604143 0.009672642 0.038264252 0.08517563 -0.005329051 0.01113404 -0.0074304026 0.036160078
-0.0359789 -0.0060556233 -0.013474231 0.021228785 -0.010875842 0.04008836 -0.018125253 0.0017856373
0.055442624 0.0034839555 -0.06293409 -0.054135267 -0.049953934 -0.036189266 -0.013932933 0.03132566
0.004494325 -0.04522219 0.034634136 -0.05216367 -0.034690116 -0.0043575764 -0.020894988 0.00012282791
-0.01868355 0.02366489 -0.01853848 -0.01595714 0.044498812 -0.00035273342 -0.0064016427 -0.024688035
-0.073809884 -0.016963486 0.038444046 0.024788458 0.035886947 0.0054771206 -0.024001552 0.012554402
-0.025762955 -0.019350426 0.008751041 0.008822705 0.020550955 -0.021645604 -0.010460364 -0.0054772003
0.04483239 0.012146079 -0.016128222 -0.018335307 -0.025500165 0.0040538535 0.014794197 -0.031431813
0.012268304 -0.018331781 -0.038037226 0.016136887 0.034945406 -0.015755849 0.020622548 -0.012002738
-0.036299895 0.025952255 0.017526112 -0.008309265 0.0006594372 0.019118847 0.021560427 0.025538817
-0.047573905 -0.011000897 0.0445776 -0.021123461 0.008813339 -0.0061937966 -0.0018933814 0.015632376
0.013717952 0.018900024 0.023112992 -0.08895189 -0.013701018 0.04931509 -0.013933969 0.0042930753
0.065786086 0.011997912 0.044928074 0.044502117 0.025677124 0.030740514 -0.0021618525 -0.01621616
-0.0416924 0.022910858 -0.012902478 0.031760857 -0.032262553 0.0051208073 -0.060268965 -0.011177717
-0.024297912 0.029996766 -0.004748996 0.040905464 0.03758636 -0.02678619 -0.030712707 -0.051540546
-0.02773165 -0.06635396 0.03340371 0.0023691729 -0.009391189 -0.015493828 0.012356428 -0.0076229167
00000000: 5122 a4bc 886b b7ba 292d d73b f3af 043d
00000010: 6cb0 cebb 9195 7dbc c100 aebc b42a 0d3d
00000020: f53c 39bd 5b9c dbbc 16bb 46bc cd79 f93b
00000030: 4d93 b83c ba17 983b 91ed 073c 48e0 0ebc
00000040: 2e81 3a3c 5691 433c a80d f4bc 043c 35bc
00000050: af04 393b a92b 3b3d 9491 21bc 1035 3fbd
00000060: 59a8 993c a6a1 323c b5c9 d8bc ce46 133d
00000070: 1b2c 923c 2a41 373d c8c2 3abc a5b1 86bd
00000080: 437b 713d 0b8d 5ebd 4e79 cdbc a697 0f3a
00000090: 42db 233d 8ea7 cf3c 0377 acbc 6bba 973c
000000a0: 6433 5bbd 7cbe b4bc 0ea0 94bc 2749 0fbb
000000b0: 1acf 703b a4c4 953c 40cc 403d dbc5 3d3d
000000c0: 3de4 bd3c 1ebb 583d f1d6 1d3d ebf8 de3b
000000d0: 9352 04bd 26a1 c6bb 85c1 9dbc 57be da3c
000000e0: 767d 113c 88f1 3dbc 69a3 fabc d521 13bd
000000f0: 23df bfbc 89d8 11bd 571d 97bc 6333 39bc
00000100: 9786 963a 48c3 cbbc 8e31 5abb 0229 053d
00000110: 24a6 2fbc 9eab 18bb e8fc 683c dd4b ba3c
00000120: a3a6 17bd 792d 893c f5cd 3d3d 7c70 9b3d
00000130: 7d7a cb3a 2789 abbc d8e6 d73c 662c 16bb
00000140: 8ec4 12bd dece fc3b df3b f03c d742 4fbd
00000150: e15b ff3c af03 153d 9a0a 60bb e69c e2bc
00000160: a0cd 5a3d 7eae 6d3b 6a03 6abc cc6b 2abd
00000170: 4402 00bb fa94 fdbc 4c1f 193c 8c21 ae3c
00000180: 4e30 abbc 9d29 83bc 803f 9ebc 5c6f eabc
00000190: e658 adbc 2857 30bc c023 19bc ee21 87bc
000001a0: a1ba 3e3c 961f 27bd f1b0 e03c 58c5 35bd
000001b0: 7cd9 46bd a942 a9bc b8cf a4bd f5be f5bc
000001c0: fa04 053e ba7f 58bc 0662 a3ba 920e 943d
000001d0: 25ba 9fb9 f5b0 27bb e654 523d 7d91 e13a
000001e0: 8eaf d63c 0162 3c3c 33b8 82bc c2a1 2c3b
000001f0: 3657 2e3c f64e a3bc 2eac 8bbc 9304 4fbc
00000200: fd29 04b9 007a 1e3c faba 1c3d 9070 ae3d
00000210: 529f aebb 8c6b 363c bc7a f3bb 971c 143d
00000220: 9c5e 13bd 406e c6bb 05c3 5cbc fde7 ad3c
00000230: 9630 32bc b133 243d 697b 94bc 0c0c ea3a
00000240: ce17 633d 1353 643b 97e3 80bd f1bc 5dbd
00000250: 7f9c 4cbd 323b 14bd f546 64bc 564f 003d
00000260: 2145 933b e73a 39bd 86dc 0d3d 93a9 55bd
00000270: 3917 0ebd 00ca 8ebb f72b abbc 5ecb 0039
00000280: 3f0e 99bc dfdc c13c 03de 97bc 8cb8 82bc
00000290: 6344 363d 14ef b8b9 dfc4 d1bb 903e cabc
000002a0: a329 97bd 02f7 8abc 8177 1d3d 2a11 cb3c
000002b0: 31fe 123d 6b79 b33b e79e c4bc fbb0 4d3c
000002c0: d50c d3bc c984 9ebc 8760 0f3c 1b8d 103c
000002d0: 7a5a a83c 1f52 b1bc f261 2bbc 167a b3bb
000002e0: 2ba2 373d 5900 473c 551f 84bc ed33 96bc
000002f0: b9e5 d0bc 30d6 843b 5c63 723c a5be 00bd
00000300: ff00 493c 882c 96bc eccc 1bbd 8131 843c
00000310: ea22 0f3d 6912 81bc 9ef0 a83c 22a7 44bc
00000320: 33af 14bd d399 d43c ec92 8f3c 9523 08bc
00000330: 15de 2c3a 219f 9c3c 7e9f b03c c836 d13c
00000340: dbdc 42bd 1b3d 34bc 0097 363d 1c0b adbc
00000350: d365 103c 55f5 cabb 562b f8ba 780f 803c
00000360: 43c1 603c 39d4 9a3c 7557 bd3c 692c b6bd
00000370: 3c7a 60bc 9ffe 493d 4d4b 64bc edac 8c3b
00000380: dbba 863d e492 443c 8006 383d da47 363d
00000390: d558 d23c 88d3 fb3c dead 0dbb c1d7 84bc
000003a0: a6c5 2abd 8daf bb3c ea64 53bc ac17 023d
000003b0: bd25 04bd 72cc a73b 97dc 76bd be22 37bc
000003c0: 6a0c c7bc c7bb f53c 779d 9bbb 7d8c 273d
000003d0: 28f4 193d b66e dbbc 3799 fbbc 2e1c 53bd
000003e0: 7c2d e3bc 96e4 87bd 54d2 083d 2044 1b3b
000003f0: 80dd 19bc d3d9 7dbc 9e72 4a3c a9c9 f9bb

bias f4 [256]
-0.029254489 0.01263578 -0.023401616 0.03364686 0.055827115 0.035139255 -0.009568067 -0.0002864214
-0.0008622099 0.018544883 -0.0106773935 0.018278608 0.037306484 -0.024581013 0.06354324 0.02121821
-0.050671697 0.0064817443 0.0013769447 0.017452056 0.021915914 -0.039365917 0.0002992206 -1.8263127e-05
0.000889614 0.035011392 -0.00828354 -0.026930796 0.006809688 0.041442346 -0.0021968337 -0.0029858532
-0.011932415 -0.03526378 -0.004865478 -0.019778663 0.0028799651 -0.0006790864 0.04564241 0.02552078
0.02075967 0.028717274 -0.0032860374 0.013349727 -0.011624977 -0.007180179 0.0029443142 0.0031721357
0.03590599 -0.022570312 0.0037787603 -0.010474701 0.0036765977 0.009742213 -0.010960664 0.01969518
-0.012406541 -0.022893487 -0.030877627 -0.0056863073 0.005305949 -0.015206981 0.01984701 -0.021072602
-0.011037692 0.030687513 0.013288711 -0.010451971 -0.04118842 0.060696594 -0.026282767 -0.021436146
-0.030892326 -0.017062746 -0.028777115 0.038138118 -0.03489256 0.068534836 -0.050056722 -0.016399428
-0.013526478 -0.009885544 0.03828811 0.015383206 0.024675988 -0.020358566 -0.011162127 -0.04992784
-0.017942274 0.022927204 -0.0026714008 0.01702278 -0.007312573 0.015470158 0.00022845555 -0.008838056
0.053246785 0.024695536 -0.009921293 -0.015306414 -0.009064972 -0.03543745 -0.010750536 -0.0035936246
0.05632292 0.009702776 -0.0013747037 0.0010675637 -0.01994723 0.005531718 0.02300384 0.040734474
0.020061329 -0.056507133 -0.026600806 0.007185359 -0.015459823 -0.022624299 -0.0018864755 -0.05483354
-0.00033879397 0.0011887237 0.046062425 -0.0078057954 0.03282776 -0.003163822 0.018290073 0.030296382
0.03885674 -0.012202031 -0.045806877 0.053914312 0.03402902 0.033776317 0.007063408 -0.007879512
-0.04441008 -0.008734314 -0.014897334 0.008620864 -0.0036951902 0.0037245157 0.04165554 0.035771724
0.0028856234 0.029009914 -0.024356937 -0.026888523 -0.016181547 0.007213145 0.024425114 0.023029922
0.015721127 0.037363872 0.045906115 0.006850981 0.016109716 -0.033904225 -0.009382529 0.008612514
0.019322013 -0.0010840376 0.00072793686 -0.010213986 -0.03838666 -0.010198297 0.011166473 -0.004105391
0.005231834 -0.01538803 0.02426787 -0.013987479 -0.019143954 -0.012699735 -0.042317703 0.039116513
-0.008306311 -0.026017671 -0.019097723 -0.0055469205 -0.04131746 -0.01989501 -0.0019987184 -0.024047974
-0.04266073 -0.022771977 0.048530046 -0.026654331 6.222223e-05 -0.00032762677 -0.033939723 0.0020360958
-0.028688822 0.036958672 0.0022766772 0.023513932 -0.022139195 0.03320823 0.0063192775 -0.0044047073
-0.02047719 -0.04474032 0.0021097604 0.01867221 0.00226183 -0.045213934 0.0016449795 -0.02409199
0.03198014 -0.0016869328 -0.018972918 0.006108298 0.02365947 -0.03348045 -0.015536734 0.03441894
-0.042351384 0.002881604 0.01702212 -0.0047780955 -0.0276042 0.047602706 -0.008414523 -0.038313124
-0.023460073 -0.015197689 -0.0005157005 0.012911072 0.0048936093 0.056707736 0.061152734 -0.0018013282
-0.031339716 0.019088212 0.063834086 0.020733865 0.037608862 -0.0045162197 -0.026374448 0.011369197
-0.05759211 0.002617937 -0.0008348628 0.0070213694 -0.008917245 0.010065325 -0.028037043 -0.020430429
0.044079877 -0.004683898 0.033139527 0.019444402 0.010795608 -0.005279901 -0.0016489949 0.021303672
00000000: 1ca7 efbc 4d06 4f3c bfb4 bfbc 4ad1 093d
00000010: f9aa 643d 2eee 0f3d 62c3 1cbc d42a 96b9
00000020: ed05 62ba 70eb 973c 3cf0 2ebc 05bd 953c
00000030: afce 183d 1f5e c9bc f522 823d d0d1 ad3c
00000040: 208d 4fbd d064 d43b 997a b43a 9df7 8e3c
00000050: 0189 b33c 283e 21bd b6e0 9c39 c433 99b7
00000060: fc34 693a 1b68 0f3d afb7 07bc f99d dcbc
00000070: ce23 df3b 73bf 293d c1f8 0fbb 4eae 43bb
00000080: 2d80 43bc c170 10bd 966e 9fbb dd06 a2bc
00000090: ccbd 3c3b b804 32ba 89f3 3a3d f410 d13c
000000a0: 2f10 aa3c 7d40 eb3c 8f5a 57bb d0b8 5a3c
000000b0: b076 3ebc b547 ebbb 65f5 403b 9be3 4f3b
000000c0: 2912 133d 60e5 b8bc 14a5 773b 159e 2bbc
000000d0: 13f3 703b ce9d 1f3c 5b94 33bc c957 a13c
000000e0: ce44 4bbc 1f8b bbbc 14f3 fcbc 3454 babb
000000f0: 87dd ad3b b426 79bc 3296 a23c 73a0 acbc
00000100: 70d7 34bc 6164 fb3c e5b8 593c be3e 2bbc
00000110: 30b5 28bd fe9c 783d f54e d7bc db9a afbc
00000120: e711 fdbc 2cc7 8bbc fcbd ebbc b736 1c3d
00000130: 80eb 0ebd fe5b 8c3d 4708 4dbd 1858 86bc
00000140: 299e 5dbc faf6 21bc fed3 1c3d d809 7c3c
00000150: 4c25 ca3c 02c7 a6bc 5be1 36bc 2281 4cbd
00000160: adfb 92bc d5d1 bb3c ab12 2fbb 5b73 8b3c
00000170: 4f9e efbb 8c76 7d3c 928d 6f39 7ecd 10bc
00000180: 4d19 5a3d 4b4e ca3c eb8c 22bc c1c7 7abc
00000190: 4085 14bc dc26 11bd 0423 30bc 0483 6bbb
000001a0: ddb2 663d 64f8 1e3c 672f b4ba 7eed 8b3a
000001b0: 6068 a3bc 6a43 b53b 8d72 bc3c 31d9 263d
000001c0: a857 a43c 0674 67bd efe9 d9bc 2973 eb3b
000001d0: 334b 7dbc 9856 b9bc 9d43 f7ba 2299 60bd
000001e0: 28a0 b1b9 f3ce 9b3a f4ab 3c3d c2c7 ffbb
000001f0: 6776 063d 2058 4fbb 10d5 953c 1e30 f83c
00000200: 3f28 1f3d 07eb 47bc fe9f 3bbd 41d5 5c3d
00000210: 0462 0b3d 0959 0a3d 2974 e73b 1219 01bc
00000220: 58e7 35bd 5e1a 0fbc f313 74bc 863e 0d3c
00000230: 012b 72bb 0117 743b 009f 2a3d 5f85 123d
00000240: ba1c 3d3b 33a6 ed3c 3388 c7bc 5245 dcbc
00000250: 2a8f 84bc 3f5c ec3b 2d17 c83c 3fa9 bc3c
00000260: 98c9 803c dc0a 193d 0d08 3c3d 327e e03b
00000270: 86f8 833c 28df 0abd 2eb9 19bc 801b 0d3c
00000280: 3349 9e3c 4416 8eba 04d3 3e3a 9058 27bc
00000290: 553b 1dbd c216 27bc 95f3 363c 8486 86bb
000002a0: ce6f ab3b 131e 7cbc 69cd c63c bd2b 65bc
000002b0: c8d3 9cbc 8d12 50bc 5455 2dbd a338 203d
000002c0: 3217 08bc 0323 d5bc d472 9cbc f1c2 b5bb
000002d0: 7f3c 29bd dcfa a2bc eefc 02bb 4200 c5bc
000002e0: 05bd 2ebd 4c8c babc 71c7 463d 2f5a dabc
000002f0: 4e7d 8238 52c5 abb9 6104 0bbd 0570 053b
00000300: d204 ebbc fa61 173d 4e34 153b 4aa0 c03c
00000310: 425d b5bc 5a05 083d f111 cf3b 5d55 90bb
00000320: c8bf a7bc a041 37bd e843 0a3b 76f6 983c
00000330: 363b 143b 3f32 39bd 5a9c d73a 915c c5bc
00000340: 9bfd 023d 121c ddba 186d 9bbc 1e28 c83b
00000350: 81d1 c13c cc22 09bd c98d 7ebc e0fa 0c3d
00000360: a578 2dbd 4bd9 3c3b f971 8b3c 9291 9cbb
00000370: 3422 e2bc 0efb 423d 11dd 09bc 39ee 1cbd
00000380: 572f c0bc baff 78bc 1330 07ba f688 533c
00000390: 925a a03b 5f46 683d 4a7b 7a3d 8b1a ecba
000003a0: 135e 00bd e25e 9c3c 72bb 823d 11da a93c
000003b0: c00b 1a3d ccfc 93bb 3a0f d8bc de45 3a3c
000003c0: b4e5 6bbd b291 2b3b b2da 5aba 8413 e63b
000003d0: a319 12bc 08e9 243c f1ad e5bc b75d a7bc
000003e0: 1a8d 343d 627b 99bb 50bd 073d de49 9f3c
000003f0: 10e0 303c 0503 adbb 1623 d8ba 0a85 ae3c
