output/2023-09-14-22-52-13/trained_model/tetris_epoch2806_score4600.pt (torch, 842187 bytes, 8 tensors)

weight f4 [32, 1, 4, 4]
000000 a4 ce 52 b9 8a b8 7b 3c ea 50 e5 bc 78 dd 9c 3c
       -0.0002010414 0.015363822 -0.027992684 0.019148573
000010 fc 3e c5 3b 65 80 88 3d 4a 65 5d bb 7c 6f 7f 3d
       0.006019471 0.06665114 -0.0033782297 0.06236218
000020 db 3c 7a be cc d9 d6 3d 46 7b 43 3e f3 79 36 3c
       -0.24437277 0.1049076 0.19089994 0.011137473
000030 63 cb 60 3d 1e bb 21 3e c0 df 3b 3e 7a e1 13 bd
       0.054881465 0.15794036 0.18347073 -0.036103703
000040 06 ca ec 3e 93 4a 26 bd 0f 12 a9 be db 45 9e be
       0.46247882 -0.040598463 -0.3302159 -0.3091267
000050 c0 1c 0c bf 02 ad 6f bc e1 fb 89 bd 6e 12 4a be
       -0.5473137 -0.014628651 -0.06737495 -0.19733593
000060 8b 70 97 3d b4 9a 67 be a8 63 a6 3d 24 25 b3 be
       0.07394513 -0.22617608 0.08124477 -0.34989274
000070 36 a3 3f be 48 80 05 3d 92 80 d6 3d f3 f6 30 bf
       -0.18714604 0.03259304 0.104737416 -0.69126815
000080 bb 86 01 3d 8a b5 79 3d 70 fa 40 bf 5c 94 51 be
       0.03162263 0.060964145 -0.7538214 -0.20466751
000090 7b 5b 08 3d 36 12 91 be 33 db 37 3e b9 f3 97 be
       0.033290368 -0.28334206 0.17954712 -0.29678133
0000a0 58 64 b3 3d 5b 9f 9a 3e 3e bc 79 bc 6f 92 f4 3c
       0.087593734 0.30199704 -0.015242634 0.029854981
0000b0 e7 96 9d bd c7 89 c6 bd 7e e7 3e be 10 27 dd bd
       -0.07694798 -0.09694248 -0.18642995 -0.10798466
0000c0 66 a2 c9 be 32 ea c4 be 4e 97 a4 bd 36 d9 48 bc
       -0.39381713 -0.38459927 -0.080366716 -0.012258818
0000d0 9f 4f 7a 3e 9b 76 62 be a6 23 91 3e 40 8f c6 3d
       0.24444436 -0.22115557 0.2834751 0.096952915
0000e0 1c 22 8d be a1 68 07 3d fe d4 1d bf a1 a0 c6 3d
       -0.27565086 0.033058766 -0.61653125 0.09698606
0000f0 9e 5e 11 be 6a 9d 19 bf 2e af ec be 82 e8 ad 3d
       -0.1419625 -0.6000582 -0.46227401 0.08491613
000100 5a 60 29 bd 0d a8 44 bf f0 65 cd bd cd 72 87 bd
       -0.041351654 -0.76818925 -0.10029209 -0.066136934
000110 72 78 18 3d 1f f0 94 3c 02 97 a5 3d e0 de 35 3d
       0.03722424 0.018180905 0.08085443 0.044402003
000120 09 39 66 3e ef f9 60 bf 06 02 9c 3e 91 17 21 bc
       0.22482695 -0.8788137 0.30470294 -0.009832279
000130 15 46 76 bd e9 25 98 bd d4 1d 5e 3c 48 19 26 bc
       -0.06012543 -0.07429106 0.013556916 -0.010137863
000140 24 19 d0 bb fa 85 db 3c 10 07 0c be ae 5b b4 bd
       -0.0063506532 0.026797283 -0.13674569 -0.08806549
000150 bc b6 b3 3c ad d3 db 3a 94 16 95 3e a0 05 40 3f
       0.02193772 0.0016771458 0.29118788 0.75008583
000160 3c 95 03 bd bc b7 9b 3b 00 8d 7d be f8 43 4d bf
       -0.032124743 0.0047521275 -0.24760818 -0.8018184
000170 ce 95 ef bb 6d 00 53 bc 2c ca 58 bd 34 12 11 bd
       -0.0073115593 -0.0128785195 -0.05292718 -0.03541775
000180 09 90 53 3c d1 c0 3a 3d b5 6d 28 3e 8c 3d 5b 3e
       0.012912759 0.04559404 0.164481 0.21410197
000190 1d d8 ef 3d b4 58 ff bc 8d 93 57 3e 18 6a d5 be
       0.11711142 -0.031170227 0.2105238 -0.41682506
0001a0 45 e4 af 3d 2e 0b 49 3d d7 f5 e3 3b c5 06 07 bf
       0.08588461 0.049082927 0.0069567966 -0.52744704
0001b0 e1 20 2d 3c c6 c8 da bb 58 17 da 3d 10 87 c8 be
       0.010566921 -0.006676766 0.10648984 -0.39165545
0001c0 68 17 23 39 51 5a 30 3d 68 b6 39 3e 41 25 04 be
       0.00015553611 0.043054882 0.18135989 -0.12904836
0001d0 ef 38 d6 3d cd 82 b2 3d ae 6d 30 bf 80 6a 1f bf
       0.10460078 0.087163545 -0.6891736 -0.6227188
0001e0 ed 34 c0 3c 29 2a 84 3d 25 e5 07 bf 6e 9e e6 bd
       0.023462737 0.06453354 -0.5308402 -0.11260687
0001f0 52 b9 66 bd 55 eb 44 3e 2e fa a2 be 68 53 ad be
       -0.05632908 0.19230397 -0.31831497 -0.33852696
000200 e5 bf e4 bd b8 c1 05 3e 1f 69 f9 be 80 93 58 be
       -0.111694135 0.13062179 -0.48713014 -0.21150017
000210 54 c9 c8 3d 2c 03 15 3e 4c 58 4f 3e b2 ef d4 be
       0.09804025 0.14551991 0.20248526 -0.41589123
000220 89 42 fd bc 9d ac bd 3d f4 2f 63 be 4d 94 3a bf
       -0.030915515 0.09261439 -0.22186261 -0.7288254
000230 e1 c0 f6 3d 10 6d 80 bd 63 8f 88 bd 64 96 09 3e
       0.120485075 -0.06270802 -0.06667974 0.13436276
000240 a2 92 1a be ea 9f d4 bc 9c dd af 3b fb a4 76 3d
       -0.15094998 -0.02595516 0.005366994 0.06021593
000250 bc 5d b2 bd 6b 0c 84 be e0 02 ea be 7c 52 8d bd
       -0.08709285 -0.25790724 -0.45705318 -0.06900498
000260 2d 62 ec bc 49 53 ea 3e fb df 52 3e 4e d1 5b bd
       -0.028855408 0.45766667 0.20593254 -0.053666405
000270 c3 c5 74 3d c6 9e 60 bf 96 b7 b9 3d cc 36 25 3d
       0.059758913 -0.8774227 0.09068219 0.04033546
000280 f5 a7 a6 bc e4 38 02 be 03 e2 38 be 47 22 18 be
       -0.02034376 -0.12717015 -0.18054967 -0.14856826
000290 a6 55 05 bc 67 36 c1 bd 9a 03 46 be f8 4c 41 3d
       -0.008138096 -0.094342045 -0.19337311 0.047192544
0002a0 b4 41 53 3b d9 fa f6 3d 38 fe 0d 3f f6 3c 36 bd
       0.0032235207 0.12059564 0.5546603 -0.04449173
0002b0 d8 a6 a2 bc 42 69 07 be 37 f2 3e bf 29 fc 5a bd
       -0.019854948 -0.13223746 -0.7458834 -0.053463135
0002c0 ae f7 27 be 6b 56 0b bd 45 57 ae be 21 36 be bd
       -0.16403076 -0.03401796 -0.34050956 -0.09287668
0002d0 09 99 0e bd b9 cc 94 bd 8f 18 0b 3c 6d 84 99 3e
       -0.034813914 -0.0726561 0.008489742 0.29983845
0002e0 1c f5 24 bd e6 6b 38 bd 98 41 14 3e d0 b3 0a bf
       -0.040272817 -0.045024775 0.14478147 -0.5418062
0002f0 07 ec 58 3d 83 a0 56 3d 78 80 83 3d c5 26 ef be
       0.05295947 0.05239917 0.06420988 -0.46709266
000300 06 24 13 3e 3a 23 19 be ce 96 c6 3c 43 7a ac bd
       0.1436921 -0.14954844 0.024241831 -0.08421757
000310 b2 86 31 3d 89 fc 03 3f 89 f3 d8 3c 4c f2 91 bd
       0.043341346 0.51557213 0.026483314 -0.071262926
000320 5c a8 bc bd 8b 12 10 bf 80 24 2f 3e 97 84 29 bd
       -0.092117995 -0.56278294 0.17103767 -0.041386213
000330 64 17 85 bc 9b c8 0d bf 10 e0 51 be cb 34 63 bb
       -0.016246505 -0.55384225 -0.2049563 -0.0034668918
000340 51 8a ff 3c a1 f3 82 bd 0b c8 29 bd ca 2c 2f 3d
       0.031193884 -0.06394125 -0.04145054 0.042767324
000350 27 0e 25 bd e8 6d 37 3e 2a 69 09 3e c0 f4 ed bb
       -0.0402967 0.1791302 0.13419023 -0.0072618425
000360 1a 4f 13 bc e8 3b 5b 3f d7 ab 3b bd 02 ed 25 3d
       -0.008991027 0.85638285 -0.045818176 0.04050923
000370 53 a7 1a bc 7a 1c a8 bf e7 86 a4 3d 9a 95 bf bc
       -0.009439307 -1.313369 0.08033543 -0.023386765
000380 e6 10 1b 3d 1c 8c dd 3e b0 f1 78 3d 62 9b 18 bc
       0.037857912 0.43270957 0.060777366 -0.00931439
000390 dd 1a b9 39 fd ff 2c 3f 12 e1 b9 3c 12 9c 82 3c
       0.00035305964 0.6757811 0.02269033 0.01594356
0003a0 d0 c9 41 bc f9 51 a3 bf da af b8 3c 24 b6 00 bd
       -0.011827901 -1.2759391 0.02254479 -0.031423703
0003b0 fa a2 1a bc c1 02 35 bd c7 a4 93 bd c6 a7 a8 3c
       -0.009438271 -0.04419208 -0.07209163 0.020587813
0003c0 48 a8 72 be 9a 83 9d bc e4 17 3a 3e 9e e8 cb bd
       -0.23697007 -0.019227792 0.18173176 -0.099564776
0003d0 a1 97 b6 bb a8 ff 1f be 59 a2 cc bd 65 03 e4 ba
       -0.005572275 -0.15624869 -0.09991903 -0.0017396031
0003e0 51 df 0f 3e 0a e5 3b 3e 5f 0e aa 3d 30 71 22 3e
       0.14050032 0.1834909 0.08303522 0.1586349
0003f0 c3 2c 29 bc 9d f9 ac 3d 23 76 3a bc be 09 f5 3d
       -0.010325613 0.084460475 -0.011380705 0.11964749

weight f4 [32, 32, 5, 5]
000000 6e 7e 3f 3a e0 47 0d be de c9 37 3d c9 bd 47 3e
       0.0007304911 -0.1379695 0.04487025 0.19505991
000010 fb bd 16 3e 8d 04 12 3e 76 7f 69 be 39 fc bd bc
       0.1472091 0.14259548 -0.22802529 -0.023191558
000020 97 b4 be bd 28 15 97 be 74 10 9a bd bb 7c 48 bd
       -0.093117885 -0.29508328 -0.075226694 -0.048947077
000030 86 15 57 bc 3d 6f 10 be 46 5c e3 bc e5 60 9b bd
       -0.01312769 -0.14104934 -0.02775396 -0.075868405
000040 d7 28 34 bf 43 07 90 be e8 50 82 3c 8d 39 b3 be
       -0.70374817 -0.2813054 0.01590772 -0.35004845
000050 9c 75 96 3d a4 bb 29 3b fe 2d d0 bd 5a b6 9e 3d
       0.07346651 0.0025899196 -0.10165022 0.077496246
000060 24 af be 3d 09 20 82 3e c7 db 54 be 7f 5e 25 3e
       0.09310749 0.25415066 -0.20786963 0.16149329
000070 7c 88 fb 3e 82 01 f8 3e 3e d4 83 be ce 35 83 3e
       0.49127567 0.4843865 -0.25747865 0.25626987
000080 2f 52 5e be 98 3c d3 bd 24 d8 5c 3e 6a 1c 40 3d
       -0.21711038 -0.10314292 0.21566826 0.046902098
000090 51 9d 27 be 27 e7 be be 67 ea 49 3e de 6d 6f be
       -0.16368605 -0.3728573 0.19718324 -0.23381755
0000a0 2f 2a d7 bd 67 50 5b bc b2 76 28 be c8 fb ad be
       -0.10506093 -0.013385869 -0.16451529 -0.33981156
0000b0 3e 10 dc bd 0f ea 41 be bf 2b ac 3e 7b f9 01 bd
       -0.107452855 -0.18936943 0.33627126 -0.031732064
0000c0 6a 45 03 bc 73 6a c0 3e b9 cd 73 3e 0e 18 45 be
       -0.008012155 0.37581214 0.23808946 -0.19247457
0000d0 b3 37 0d be 1c e2 3c 3e bb a5 a3 bd a6 11 f8 3e
       -0.13790779 0.18445629 -0.07990595 0.48450965
0000e0 67 8a a3 3e 21 c4 41 bf d7 61 df be 4c 29 8e be
       0.3194153 -0.75689894 -0.43629333 -0.27765882
0000f0 e6 cb bb bd dc b6 95 3e 67 9d 19 be 1b 05 f5 be
       -0.0916975 0.29241073 -0.1500145 -0.47855458
000100 72 1e bf 3c 03 43 78 3e 4e 24 ae be ba ee 82 bd
       0.023329947 0.24244313 -0.34012073 -0.0639319
000110 19 aa ac 3e 91 90 29 be 6d 55 2f bd cf 69 9d be
       0.33723524 -0.16559054 -0.042806078 -0.30744788
000120 be a8 ad 3c 1e 97 a2 be a8 6d 2a 3e f0 4d c7 3d
       0.021198627 -0.31755918 0.16643393 0.09731662
000130 06 b7 8b be 09 56 ef 3e 98 1c c0 be 41 35 25 bd
       -0.27288073 0.46745327 -0.37521815 -0.04033399
000140 3f dd 11 bf 0d 31 3a 3e b9 74 20 3d 2f f9 24 bf
       -0.5697822 0.18182774 0.039173815 -0.64442724
000150 b9 4b 57 3c f1 e6 04 be 92 cc bf be 0f d4 18 3c
       0.013140612 -0.12978722 -0.37460762 0.009327902
000160 52 d2 88 3d d9 56 32 bf 2e 3d 95 bf 9a 7d d9 bd
       0.066807404 -0.6966377 -1.1659296 -0.1061966
000170 7c 89 dc be 50 3d 1d be 52 82 5e 3e b0 06 26 bc
       -0.43073642 -0.1535542 0.21729401 -0.01013343
000180 9a 94 73 3e cb 4f 6d bd 77 40 87 3e d4 17 43 be
       0.23787156 -0.057937425 0.2641637 -0.19052058
000190 1a 8a 78 3c 7b c2 b4 3d 84 67 c7 3d 53 23 28 3f
       0.015169645 0.08826157 0.09736541 0.656789
0001a0 c3 6d 31 bf c3 3e db be 83 c1 b1 3e 8a 9d 94 3e
       -0.6930811 -0.4282132 0.3471795 0.29026443
0001b0 ee 26 97 be f2 66 d0 bd 6b b9 ac be 69 7a 39 be
       -0.29521888 -0.10175885 -0.33735213 -0.18113102
0001c0 1a 1c bc 3e d5 c4 5f 3e 99 09 4a 3f 6a 8b 3a bd
       0.3674019 0.21852429 0.78920895 -0.04554311
0001d0 8f ba c7 3d 84 1e 06 bf d3 82 99 bd 3a 36 1d bf
       0.0975238 -0.52390313 -0.07495656 -0.6141087
0001e0 ce 87 ca 3d 56 be 94 3d d2 b1 e3 3d 0f cb 6b be
       0.09889184 0.07262866 0.11117901 -0.2302668
0001f0 55 1d 84 bd b0 82 f1 3d e4 d5 46 3e e4 2a e2 bd
       -0.06450907 0.11792505 0.1941753 -0.11043337
000200 02 13 11 bd 9d 18 07 be a0 8d 04 3d 3e 56 d3 be
       -0.035418518 -0.13192983 0.032361627 -0.41276735
000210 5a b7 96 bd 4c 9e 48 bd ec 79 f4 bc ba 33 ba 3b
       -0.0735919 -0.04897909 -0.029843293 0.005682436
000220 41 6c 3a be a8 bb 30 3d c2 9b 12 3d bb e5 80 3e
       -0.18205358 0.043147713 0.035793073 0.2517527
000230 7c 2b 62 be 27 12 dc bf 66 22 55 bf 60 ab bc bd
       -0.220869 -1.719304 -0.8325561 -0.09212375
000240 20 fe 16 bf f7 13 fa bc d9 c7 f0 be 99 24 a1 3d
       -0.58981514 -0.030527098 -0.47027472 0.078683086
000250 46 87 bd be f5 f0 fa be 03 a0 47 3e 67 65 e9 bd
       -0.37017268 -0.4901196 0.19494633 -0.11396294
000260 07 c6 10 be 04 f8 9c be 5f 58 29 bf 4a ae cb 3d
       -0.14138041 -0.3065797 -0.6615047 0.099453524
000270 45 68 19 3e b4 0a b7 be 6d 29 9c bd 8c 1f 4e bf
       0.14981182 -0.35750353 -0.07625089 -0.80516887
000280 fa 60 95 3d fd 84 80 3e a2 df 21 be 9e 7a 13 3e
       0.072938874 0.25101462 -0.15807965 0.14402243
000290 f8 3e 63 3e 71 bc 4a be ed e4 fb bd 1b 47 c2 be
       0.2219199 -0.19798447 -0.122995235 -0.37944874
0002a0 aa 5b 95 bc b2 20 e7 bd 18 b8 25 bc 67 5f d9 3d
       -0.018232185 -0.11285533 -0.010114692 0.106139
0002b0 1b b9 08 3b de b4 b6 3e 29 55 6b 3d c6 c9 7a 3c
       0.0020862285 0.35684866 0.057454262 0.015306896
0002c0 c1 60 14 bf e9 6f 0b 3f 96 3b 03 3d 5e 3f 28 bd
       -0.57960135 0.54467636 0.032039247 -0.041076057
0002d0 f5 1e 7b 3d 4a 63 1e bd e0 e2 1b bd af 27 ae 3e
       0.06130882 -0.03866891 -0.03805816 0.3401465
0002e0 2a 34 4c bf a7 6e 54 bb 9e b4 bf be 24 5e a4 be
       -0.79767096 -0.0032414587 -0.37442487 -0.32103074
0002f0 48 3b 07 3e 90 ce a6 be ea 2c 36 3e 0d a1 82 be
       0.13206208 -0.3257947 0.17790571 -0.25513497
000300 64 0d a5 be a7 82 6c 3e 90 2d 85 3d 8d fb 87 be
       -0.3223678 0.23096715 0.06502831 -0.26559106
000310 b3 1b 77 be e7 d7 2e be 7d 91 8c 3e 6d 99 2e bd
       -0.2413166 -0.17074548 0.2745475 -0.042626787
000320 c6 46 6d 3e c1 d0 53 be 1c ad eb 3d 38 64 c5 3e
       0.23171529 -0.20685102 0.11507627 0.38553023
000330 b3 ba d6 3d 14 0c 5b bf 00 a6 1a 3e 76 66 69 be
       0.10484829 -0.85565305 0.15102386 -0.22792992
000340 1c 67 ee 3d 14 b1 1e be ba bc 40 bf ec 8f 3d 3e
       0.1164076 -0.15497237 -0.75287974 0.18511933
000350 bd 92 38 3e cd dc 54 bd d0 70 10 bf 4f 8a 04 bf
       0.18024726 -0.051968385 -0.5642214 -0.5177354
000360 50 1d b7 be 5f 54 90 be 9b db 0d 3e f7 02 f0 3c
       -0.3576455 -0.2818937 0.13853304 0.029298289
000370 bb ea 84 be 9d b8 92 3e 8e 67 e6 bd ca 1b 92 be
       -0.25960335 0.28656474 -0.1125022 -0.28536826
000380 60 f9 87 3e b5 fa 1c 3e cf 10 5b 3e 3b 24 b5 be
       0.26557446 0.15330012 0.2139313 -0.35379204
000390 bd c9 2c be 19 f6 df 3d 30 48 ad be 60 63 aa be
       -0.16873832 0.10935611 -0.33844137 -0.33278942
0003a0 30 3c 10 3e 10 bf 96 be 89 b2 c9 be 4c 37 d3 be
       0.1408546 -0.29442644 -0.39394024 -0.41253126
0003b0 98 27 dd 3e 6a b1 8f bd fa 02 d6 bb 18 80 dc 3c
       0.4319427 -0.07016261 -0.0065311166 0.026916549
0003c0 73 a4 4f be 39 c0 ce 3d de be 8e be 24 b3 5e 3d
       -0.20277576 0.10095257 -0.27879995 0.05437006
0003d0 46 ee 00 bf b2 9d e7 bd eb c2 71 3e 4d 93 f7 3d
       -0.50363576 -0.11309375 0.23609512 0.12088642
0003e0 9c 5a 5c bc 9f e7 75 3e c7 e0 5e 3f 7f df 12 bf
       -0.013449337 0.24014138 0.87061733 -0.5737228
0003f0 b0 cc 4e 3d b1 c6 df bc 29 0e 6a 3e de 4f e8 be
       0.050488174 -0.027316423 0.22856964 -0.45373434

weight f4 [64, 32, 5, 5]
000000 b4 25 b9 3d 91 56 36 3d 10 6e 57 bd 9f 05 8d 3e
       0.090403944 0.04451615 -0.0525952 0.2754335
000010 cb ac 84 be 81 df 81 3e 6b ec 65 3d b9 d2 3b 3e
       -0.2591308 0.25365832 0.05613367 0.18342103
000020 d9 aa 87 bd d7 0d f1 3d c7 6b b9 3d 89 3c 6f be
       -0.066243835 0.11770218 0.0905376 -0.23362936
000030 3f 06 18 be e1 03 96 3d 92 c3 2b 3f 4f 24 d0 bd
       -0.14846133 0.073249586 0.6709529 -0.10163175
000040 5a 32 a7 3d c0 44 92 3d fa 4b 06 be da 33 9a 3e
       0.08163901 0.07142019 -0.1311492 0.30117685
000050 0b 18 7a bd d0 b5 06 bf b6 e6 0a be 4f 75 f6 3e
       -0.061058085 -0.52621174 -0.13564572 0.48136374
000060 6e cb 69 3e 73 98 af 3e 75 82 e0 be 3e 2e 62 3e
       0.22831509 0.34295997 -0.4384953 0.22087952
000070 67 1c 0c 3c 06 2b da 3d d6 e8 1c 3d 7f 60 da 3e
       0.0085516935 0.10652737 0.038307987 0.42651746
000080 50 c0 4d 3e ed 3d 34 bf 8c 4f 44 3d 79 74 86 3e
       0.20092893 -0.7040699 0.047927424 0.26260737
000090 df 28 c2 3d b3 ae 17 3f 04 d2 e2 3d 13 3c e6 be
       0.09480452 0.59250945 0.110752136 -0.44967708
0000a0 11 12 61 3e 48 8a cd 3e a7 54 28 bf 5a 68 ef 3e
       0.21979548 0.40144563 -0.6575417 0.467593
0000b0 4c bd 25 3d 1d 77 8b bd 3d c6 20 3f 73 d6 ae 3e
       0.04046373 -0.068098284 0.6280249 0.34147987
0000c0 40 25 0f 3d 2c 80 03 bd cc 72 6f be fd 91 a6 bd
       0.034947634 -0.032104656 -0.23383635 -0.08133314
0000d0 2a 4b e9 3e e7 85 6b 3e 7a 87 4c be c3 e5 b5 3d
       0.45565158 0.23000298 -0.19973555 0.08881714
0000e0 8a fa 6d be f1 b7 09 bf 5e 7c 7d bf d9 31 07 bf
       -0.23240104 -0.537963 -0.99017894 -0.52810436
0000f0 36 28 32 3e 1d 74 3a 3d a5 bc 1a bf 8f 9f 44 3e
       0.17398152 0.04552089 -0.604441 0.19201492
000100 60 f7 dc be b8 cf 2f 3e e3 7f 2a 3e 07 bc 83 bd
       -0.43157482 0.17169082 0.16650347 -0.06432348
000110 58 4d 83 be 0d 04 35 be 8c 02 e3 3e 56 3f 17 3e
       -0.25644946 -0.17677327 0.4433788 0.14770254
000120 06 5c ed 3d 92 13 d7 3d f2 b8 df bd 7d 59 d2 be
       0.11589818 0.105017796 -0.109239474 -0.410839
000130 6d af 10 bf 35 fb 54 be 47 c9 6a 3e f0 b2 5b be
       -0.5651768 -0.20798953 0.22928344 -0.21454978
000140 8b 76 fa 3e 78 71 c4 3d 17 ae a2 3e 09 1c 38 3f
       0.48918566 0.09591955 0.31773445 0.7191778
000150 64 f3 71 3e 70 3d 86 3e 1f c1 80 bc f8 02 2b bf
       0.23628002 0.26218748 -0.015717087 -0.66801405
000160 31 be 09 bf f0 9c 8e bf 44 08 82 be 0d 5c d0 bd
       -0.53805834 -1.1141644 -0.2539693 -0.10173807
000170 c7 3c 95 bf 6c 9f a2 3d 44 28 c2 3e 2f 70 60 bd
       -1.1659173 0.079405636 0.37921345 -0.054794487
000180 cc c1 e2 bd c1 b2 6e bc 09 c4 15 3f de 17 6a 3d
       -0.1107212 -0.014568985 0.5850225 0.057151668
000190 0b ae 43 be be 5d 65 3e 9c 46 94 3e d4 33 97 3b
       -0.19109361 0.22399041 0.2896012 0.0046143327
0001a0 14 6f 58 3e 21 23 d3 be 7e f5 2c be 9b de 69 3d
       0.21136123 -0.4123774 -0.16890523 0.05709706
0001b0 fe 21 0a 3d a6 e4 27 3f c8 36 7f 3e 02 50 a3 be
       0.033723824 0.65583265 0.24923241 -0.3189698
0001c0 38 de 56 be 94 5c a8 3c 1a 46 8b be 86 0d 0e bd
       -0.20983207 0.020551957 -0.2720192 -0.034680866
0001d0 94 53 ac 3d d0 d3 1d be 72 ea f6 be 05 0b 38 bf
       0.08414379 -0.15412831 -0.48225743 -0.71891814
0001e0 7d 6a f4 be 9d 2e 60 be c9 72 4d 3d dd 98 c8 3e
       -0.47737494 -0.21892782 0.050158296 0.39179125
0001f0 f0 60 ca be 8d 75 a6 bd 03 c7 09 bf 40 22 b7 be
       -0.39527082 -0.0812789 -0.5381929 -0.35768318
000200 b4 47 d6 3e 68 f4 28 bf ff 0e e0 3e 54 c8 d9 be
       0.4185158 -0.65997934 0.4376144 -0.4253565
000210 ab da 2d 3e 90 a8 98 be 81 89 20 be 16 5c 2a bc
       0.16977946 -0.29816103 -0.15677454 -0.010397932
000220 ca f4 5f 3e a2 f7 14 3e 50 8b 8c 3c 3d 4c 29 be
       0.21870723 0.1454759 0.017156273 -0.16532989
000230 31 ad 01 bf c6 b6 56 be e7 d1 8f 3c 6a 8e ba bd
       -0.50654894 -0.2096816 0.017556144 -0.091091946
000240 b1 aa 45 bc 5c d4 de be 48 23 b2 bd b5 cd 4b 3e
       -0.012064622 -0.43521392 -0.086981356 0.1990269
000250 d0 f0 97 bd 71 15 f7 3d f0 3c 04 bd 8f ae e5 be
       -0.07418978 0.120646365 -0.032284677 -0.4485974
000260 74 0b da 3d ef 27 a8 3d 22 91 60 be f2 47 98 3d
       0.10646716 0.08210742 -0.21930364 0.074355975
000270 1d 61 48 3c 60 d8 41 3e 41 cb b2 bd f2 9b b2 3d
       0.012230185 0.18930197 -0.08730174 0.087211505
000280 6f 87 e0 bc 41 5a 8b 3e 8e 5c 89 3e 06 30 8f be
       -0.02740833 0.27217296 0.26828426 -0.27966326
000290 47 3c 28 be cf 88 05 3d f7 43 a8 bd 86 bd 92 bd
       -0.16429244 0.032601174 -0.08216088 -0.07165055
0002a0 a7 29 1f be 8e ce 9b be 51 b8 a7 3e a2 e1 24 3e
       -0.15543233 -0.30431026 0.3275781 0.16101697
0002b0 bf 49 0e bd c6 a1 c4 bd b9 a0 8f 3d 51 80 58 3c
       -0.0347383 -0.09601168 0.07013077 0.013214187
0002c0 9f 38 ec be 8a 86 31 3e 5b 8d 5a be c4 4d c4 3d
       -0.46136948 0.17336479 -0.21342985 0.09585145
0002d0 d9 d6 58 3e c6 8b af 3d 96 71 c9 3d 38 3f c3 3b
       0.21175708 0.085715815 0.09836118 0.005958464
0002e0 55 63 e0 be dd 44 8b 3d e1 79 46 3d b4 ca a8 be
       -0.43825784 0.06800244 0.048456077 -0.3296715
0002f0 7e 21 78 3e ec 94 b0 3e 16 4b 68 3d f8 95 51 be
       0.24231526 0.34488618 0.056712233 -0.20467365
000300 a2 1d f6 bd 1c 82 cc bd e9 bc e5 bd c0 27 10 3e
       -0.12017371 -0.09985754 -0.112176724 0.14077663
000310 2d 51 7b be c8 f0 ed bd 5b 91 48 bf 32 28 95 be
       -0.24542685 -0.11618191 -0.78346795 -0.2913223
000320 30 3e ad 3e ae 75 6c 3e 82 ea 74 be 27 74 c4 be
       0.33836508 0.23091766 -0.23917583 -0.38369867
000330 a0 00 63 3e 14 51 db 3e 7d 84 58 bf 95 80 05 3e
       0.22168207 0.42835295 -0.8457716 0.13037331
000340 44 05 07 bf e8 ee a8 3e c9 10 69 3e c4 00 72 bd
       -0.5274241 0.3299477 0.2276031 -0.05908276
000350 f6 b8 c3 be 12 78 0b be f6 9d 1c bf 13 e6 b0 3e
       -0.38227051 -0.13620022 -0.6117853 0.34550533
000360 cb 94 cf be 3a 90 1f 3e 47 36 3c 3d 9e c1 b4 3e
       -0.40543208 0.15582362 0.0459502 0.35303968
000370 d8 36 12 3f b3 31 c7 3c 63 69 14 3b 2b 18 8a 3e
       0.57114935 0.02431569 0.0022645823 0.26971564
000380 c5 81 80 3e 82 67 9a 3e 06 57 20 bd 72 c2 cf 3c
       0.25099006 0.30157095 -0.039145492 0.025361273
000390 d8 a1 e4 bd df 25 1d 3f 03 e8 14 3e 94 8d 23 be
       -0.11163682 0.6138591 0.1454163 -0.15971977
0003a0 33 f4 99 3e 20 c6 a7 3d f8 1e c8 3c 34 c1 33 bb
       0.30069122 0.08192086 0.02442883 -0.002742839
0003b0 95 4d 23 be f3 98 86 bd 28 67 85 bd e3 c3 db 3d
       -0.15947564 -0.065721415 -0.06513816 0.10730722
0003c0 a1 89 c0 3e 81 15 da 3d 22 a4 17 bf 47 8b 21 3e
       0.37605003 0.10648633 -0.5923482 0.15775786
0003d0 f5 be d0 bd 3f 31 27 be b7 d9 dd bd d9 3c 7b 3e
       -0.10192672 -0.1632738 -0.108325414 0.2453493
0003e0 20 1a ee 3e dd 68 db bc 60 71 e6 3d 63 22 4d 3e
       0.46504307 -0.026783401 0.11252093 0.20032649
0003f0 8e 8c 94 3e e1 b5 6e be 1f 19 de 3e a3 c7 bb 3e
       0.29013485 -0.23311569 0.4337854 0.36675748

weight f4 [256, 256]
000000 09 21 fc bb 77 9e 46 3d c8 a0 86 3c 96 74 b4 3d
       -0.007694368 0.048490968 0.016434088 0.088112995
000010 a3 0c b6 3d b2 12 aa bc 96 b9 90 bd 68 87 d0 bd
       0.08889129 -0.020760868 -0.07066648 -0.10182077
000020 4c bf 57 3c e3 51 fb bd f1 34 85 bd af ee 3e 3d
       0.013168167 -0.12271478 -0.065042384 0.046614345
000030 c7 1c 0e 3e 3b 7e 44 3e 68 55 2d bd 32 36 24 3c
       0.13878165 0.19188778 -0.042317778 0.010022687
000040 52 61 2d be ee 28 6c 3e 09 c1 cf 3d 17 71 34 3c
       -0.16931656 0.23062488 0.101442404 0.011013291
000050 7f 56 f8 bd c5 10 40 3d 00 77 f5 bc ff 40 c1 bd
       -0.12125873 0.046890993 -0.02996397 -0.09436225
000060 6b ab 96 3d c1 32 15 be 33 4a 23 be c2 21 07 bd
       0.07356914 -0.14570142 -0.15946274 -0.03299118
000070 ce 94 90 bb 74 6a ef 3c 8b 19 57 bd d1 60 6e 3c
       -0.00441227 0.029225565 -0.052514594 0.01454945
000080 06 f7 fc 3e bc f7 6c bc b9 0b 11 bb f5 2b a0 3e
       0.49407214 -0.014463361 -0.0022132231 0.31283537
000090 a3 00 d1 bc 85 f1 c9 bc d9 53 d9 3a b6 62 43 3b
       -0.025512999 -0.024651298 0.0016580775 0.0029813475
0000a0 37 2f 54 3e 50 22 8b be d4 98 17 bb c1 62 c6 bc
       0.20721136 -0.27174616 -0.0023131864 -0.024217011
0000b0 50 00 01 3c f3 f8 1a 3a 0d 86 d6 bd fc 15 70 3d
       0.00787361 0.000591173 -0.10474787 0.058614716
0000c0 92 3b ca bd a9 e5 98 3d 61 2d 3e 3b 1d 32 a5 3d
       -0.098746434 0.07465679 0.0029018747 0.08066199
0000d0 ad 36 84 bc 80 46 ed 3b 38 d7 7c bd cd 84 b9 bd
       -0.016139353 0.0072410703 -0.061728686 -0.09058533
0000e0 f3 82 39 3d 67 92 06 bf ec bb b0 3e 44 d8 40 bd
       0.0452909 -0.5256714 0.34518373 -0.047081247
0000f0 a2 28 90 3e 24 9e ff 3e c6 24 5d bd 3e 97 8e be
       0.28156 0.4992534 -0.053990148 -0.27849764
000100 23 6e 9a bd 89 93 99 bd 93 ff b1 bd 75 8e 9b 3d
       -0.07540538 -0.07498843 -0.08691325 0.07595531
000110 5c 85 22 3e 2e 37 4d 3c 0d db a5 3c 36 f6 8b bd
       0.15871185 0.012525363 0.020246053 -0.068340704
000120 a2 ec 96 bd 7c 62 87 bd 96 71 93 3d 2d 8a 90 bb
       -0.07369353 -0.06610581 0.07199399 -0.004411003
000130 94 bc 2a be a3 0d 8f 3d 2b dc 36 bd 90 38 f9 3c
       -0.166735 0.06985023 -0.044643562 0.030422479
000140 d5 22 38 3d 02 26 e2 bc ce ea fb 3d aa 0f dd 3d
       0.044955093 -0.027606014 0.12300645 0.10794003
000150 0a 0c 1e be d8 13 57 bd 82 70 3a 3d 11 2f ca 3b
       -0.1543428 -0.05250916 0.045517452 0.0061701615
000160 1c 06 7d bb 31 d3 39 3d 0e 3c b2 bd 32 f0 d1 ba
       -0.0038608378 0.045367423 -0.08702861 -0.0016017018
000170 dd 54 12 3d 4f a4 36 bd 74 ed 2b 3d 63 12 b7 bd
       0.035725463 -0.04459029 0.0419745 -0.08939054
000180 a0 82 d7 3e c7 55 ae 3d 8e 98 33 bd 2d 79 fb 3c
       0.42091846 0.085124545 -0.04384666 0.03069743
000190 65 8b ae 3e 1e 7d 07 be f1 31 6b 3e c5 70 0b bf
       0.34090725 -0.13231322 0.2296827 -0.5446895
0001a0 38 84 e8 3d 96 2c a1 3d 99 13 be 3b 72 4f e1 3d
       0.11353344 0.07869832 0.005800676 0.11001481
0001b0 2d d9 09 3e a5 9f 40 3c 36 01 25 3e d4 a0 4d 3e
       0.13461752 0.011756812 0.16113743 0.20080882
0001c0 ec 35 b2 bc cd 34 8e bd ff 1d 6d bd e0 85 8d 3d
       -0.021754228 -0.06943665 -0.057889935 0.069103
0001d0 27 13 b7 bd 6b ac ef 3c ed bd 16 bc 67 29 65 39
       -0.089392 0.02925702 -0.009200555 0.00021854565
0001e0 9c b8 e8 bd 29 d2 22 3d 31 e3 8c be be 1f 90 be
       -0.113633364 0.039751206 -0.27517083 -0.28149217
0001f0 5a 12 5d 3d cc c9 08 3d 5e 5c 94 bc 5f 7f be bd
       0.05397258 0.033395573 -0.01811045 -0.09301638
000200 6f 13 89 bc d2 8b bf bc ab 09 10 be 95 90 6e 3e
       -0.0167329 -0.023382101 -0.14066188 0.23297341
000210 c4 aa a6 3d de cf b3 bd ff b6 9a bd 26 09 b8 bc
       0.0813804 -0.08779882 -0.07554435 -0.0224653
000220 83 b7 38 bc 96 57 b9 3c 82 e3 52 bb 60 8e e4 3c
       -0.011274221 0.022624772 -0.0032179062 0.027899921
000230 79 2e c7 bd ec db 85 bc 04 7d c1 3d e2 be d4 3c
       -0.09725661 -0.016340218 0.09447673 0.025969926
000240 5d 10 6e 3d 91 65 82 3d 5d 3d 15 3d 5a 3c 7c be
       0.058121074 0.063670285 0.036435474 -0.24632397
000250 67 90 15 bd 51 24 89 3d 6d e9 af bc 16 f2 d7 bc
       -0.036514666 0.0669638 -0.02147361 -0.026360553
000260 7b ad 80 3d 98 94 af 3d 8b c2 a0 3d ec 9c 21 be
       0.06283089 0.08573264 0.07849606 -0.15782517
000270 26 35 5a 3d 2b 73 a7 bd b0 6d d0 bd 88 38 e6 3d
       0.053273343 -0.081762634 -0.10177171 0.11241251
000280 b2 fd 77 bd 04 17 12 3d 8c d0 63 bd 11 60 a4 3d
       -0.060544677 0.03566648 -0.055618808 0.08026136
000290 29 46 d9 bd bc 80 34 3d c2 42 99 3d 20 9e 7a bb
       -0.10609085 0.044068083 0.07483436 -0.0038241223
0002a0 fe 99 b5 3d d4 9d d3 3d 63 c6 41 3d 4b cf b1 3d
       0.08867262 0.10332838 0.047308337 0.08682116
0002b0 8b 1b 84 bd 4d d9 19 bd 32 4e 08 3d 58 22 cd be
       -0.06450566 -0.03756075 0.033277698 -0.40065265
0002c0 09 a3 85 3d 9f 44 84 3b 18 4b b0 3d ca 70 a7 bd
       0.06525237 0.0040365006 0.08608073 -0.0817581
0002d0 6c 38 d2 bc 0a 45 96 bd 1d 8a f7 3b 4d e0 cb 3b
       -0.02566167 -0.07337387 0.007554306 0.006221807
0002e0 6a 21 4f be 2a ba d1 bd 20 71 11 3d 76 b8 ed bd
       -0.2022759 -0.10240586 0.035508275 -0.11607449
0002f0 23 9e b5 3b b7 cd b0 3d c7 64 80 bd 41 31 e6 bc
       0.005542533 0.08632987 -0.06269222 -0.028099658
000300 e0 ab 0b bd 66 db 3e be 6d 8b 3d 3d e4 54 b3 3e
       -0.03409946 -0.18638381 0.046275545 0.35025704
000310 e5 b0 bf 3b 17 f8 98 bc 6f e9 44 bd 8e b6 28 3d
       0.005849945 -0.018672986 -0.048074182 0.041189723
000320 94 de a5 bd 62 da 4f be cb c8 11 3e a8 1b 2d 3c
       -0.08099094 -0.2029815 0.14236753 0.010565676
000330 71 b0 5c bc 61 d3 33 3e 05 98 1f 3e 87 7a 5b 3c
       -0.013469801 0.17561103 0.15585335 0.013395912
000340 9a f6 f6 3d fd fa 28 3d 1d 32 74 3c 10 7b bb bc
       0.12058754 0.041254986 0.014904526 -0.02288583
000350 6d 69 ab 3e b2 b2 7b 3d 9b 21 8e be df 52 38 be
       0.3347887 0.061449714 -0.27760014 -0.18000363
000360 6b 8b 41 3e f3 11 27 3e cb 46 06 be 33 5b e7 3d
       0.1890084 0.16315441 -0.13112943 0.11296692
000370 f6 b5 d1 bc 29 c4 30 3d e2 f1 1e bd 6d 5b 08 3c
       -0.025599461 0.043155823 -0.038804896 0.008322579
000380 7a 48 4b 3b c3 51 8b 3d c7 94 c6 3d 2f c1 9c bc
       0.0031018541 0.06802704 0.09696346 -0.019135086
000390 57 2b 3f 3d 65 77 55 3d 1f 15 0c 3d 9c 74 b0 bd
       0.04667219 0.052115817 0.03419983 -0.086159915
0003a0 6f 4c 61 bd 0f 0e 38 3d 08 1a 8a 3d 12 38 81 3d
       -0.055004533 0.044935282 0.06743246 0.06309523
0003b0 8d 56 42 be bb 2a 57 3d 22 33 97 3e 72 ae 99 3b
       -0.18978329 0.052530985 0.295312 0.004689985
0003c0 84 4d 38 3e bd 8b ae 3c 08 0d e4 bd ae e9 57 bd
       0.1799832 0.021306867 -0.11135298 -0.05271309
0003d0 ec c3 89 bd 2c 5c 8c 3d e6 03 65 3d 15 b4 0a 3c
       -0.06726822 0.06853518 0.05591192 0.008465786
0003e0 79 31 f7 3d 96 55 0f 3d 4c b4 b7 3d e2 b7 b5 3d
       0.12069983 0.03499373 0.08969936 0.088729635
0003f0 00 fc 77 3c 1d 3b 10 bc 1c 73 eb 3c 18 61 81 3b
       0.015135765 -0.008803156 0.028741412 0.003948342

bias f4 [256]
000000 fe 9a eb ba b4 d9 97 3c 77 c0 ad 3d 0d 69 79 bc
       -0.0017975268 0.018536426 0.084839754 -0.0152228
000010 d7 d8 3d bd 8d a5 cd bd 4d f5 70 bd 95 b5 8b 3d
       -0.046349373 -0.10041342 -0.058827687 0.068217434
000020 5e cb 18 3e f9 71 02 be b3 0d d6 3c 1b 93 1f bc
       0.14921328 -0.1273879 0.02612958 -0.0097396625
000030 fa 49 ac 3d 4f 8b a6 bd 7e 95 d3 bc a6 8c 20 bd
       0.084125474 -0.0813204 -0.02582812 -0.039196633
000040 0b 3f 30 bc 4e 17 5a bd 9a 81 9d 3d 47 ac 94 bd
       -0.010757218 -0.05324488 0.07690735 -0.07259422
000050 cf 9d 89 3c 7e a8 7e bd 6f 24 a9 3d 75 a9 5d 3e
       0.016798882 -0.062172405 0.08258902 0.21646674
000060 cd dc 22 be c3 62 0b 3e fa 51 33 3d fc 82 a8 bd
       -0.15904541 0.13611893 0.04377935 -0.08228108
000070 ed 7f e6 bd ff ec d8 bd 62 3f 0b 3e a1 89 0f 3e
       -0.11254869 -0.105920784 0.13598397 0.14017345
000080 e9 1d 63 bd a0 e0 6a b6 03 ad a0 3d 85 20 f8 b9
       -0.055448446 -3.4999466e-06 0.07845499 -0.00047326475
000090 f2 87 07 be 5d 33 39 bc 7c 80 5c bd d1 5f 25 be
       -0.13235453 -0.01130375 -0.05383347 -0.16149832
0000a0 f2 4d 5f bd 22 85 48 3d a4 13 cb 3c d2 c5 d9 bd
       -0.054517694 0.04895509 0.024789639 -0.10633434
0000b0 e2 43 26 bd 8a 81 18 3d 04 a0 fa 3d 7e 9c 2c 3e
       -0.04059208 0.037232913 0.12237552 0.16856572
0000c0 e5 55 ae bc bb 55 a4 3d 48 67 20 bd 0d 2c f6 3c
       -0.021281192 0.08024164 -0.039160997 0.030050302
0000d0 1e bf 09 be bb 33 fb 3d 0a 76 f9 3d e6 4f 17 bd
       -0.13451812 0.12265726 0.12180717 -0.03694143
0000e0 7a 2f 7d bd 4e 91 3e 3d 3f 5a 5f 3e e9 a8 eb 3c
       -0.061812855 0.046525292 0.2181177 0.028767066
0000f0 01 42 a8 bc 82 56 7e 3d bb af 0a be 4c e9 0a 3c
       -0.020539286 0.06209422 -0.13543598 0.008478474
000100 24 79 c6 ba 3e 7d 14 3d f1 2c 15 ba e4 46 6b bd
       -0.0015142304 0.036252253 -0.0005690596 -0.057440653
000110 3a 3d b3 bd a3 34 76 be 00 52 6d bd 46 13 8b bc
       -0.087519124 -0.24043517 -0.05793953 -0.016976964
000120 5b 5f a0 bd a8 ab b7 3d 1b 76 08 3d 23 f1 5b 3d
       -0.078306876 0.08968288 0.03331576 0.053696763
000130 47 b7 22 3c 17 5b 23 3d ef 81 68 3d d6 27 2c bd
       0.009931392 0.039881792 0.05676454 -0.042030178
000140 97 b5 27 be ad 28 32 3d 13 f4 65 bc 2f a2 f7 bc
       -0.16377865 0.043495823 -0.014035243 -0.030228702
000150 b6 f8 ed bd e5 7a e0 3d 48 66 a8 3d 2d ae 35 3d
       -0.116197035 0.1096094 0.082226336 0.04435556
000160 8a 39 3b 3e 7a 2e 5f bd 55 60 90 3d 6b a5 d9 bc
       0.18283668 -0.054487683 0.07049624 -0.026568135
000170 7c a5 4a 3d 50 c6 f3 3d fc d8 a5 3d f4 c4 57 3d
       0.049474224 0.119030595 0.08098027 0.052678064
000180 ef 0d 17 be 04 4b 7d 3e 1a f9 14 be 8f dc 11 3b
       -0.14751409 0.24735647 -0.1454815 0.0022256707
000190 8a 2c 63 3d 4d 4d 0e be 91 b7 10 be a5 d3 ec bc
       0.055462398 -0.13896675 -0.14132525 -0.028909514
0001a0 5d b0 9f bd e6 f8 77 bd ac 1c bd bd 92 29 f7 3d
       -0.077973105 -0.060540102 -0.09233984 0.12068476
0001b0 6a 83 19 3e 25 98 18 3d 65 f2 b2 bd a9 90 b5 3d
       0.14991537 0.03725447 -0.08737639 0.08865482
0001c0 34 9a f7 bc 42 c0 2a 3c b1 0b 6a bd b6 e9 37 3d
       -0.030224897 0.010421814 -0.057140056 0.04490062
0001d0 b2 0a cb bd 26 a8 04 be 78 6c 3f bd f3 80 9d bd
       -0.09914149 -0.12954769 -0.046734303 -0.07690611
0001e0 82 f1 f1 bc ba b5 2b 3e e6 fd 46 3d 86 9d 9f bc
       -0.029534105 0.16768542 0.04858198 -0.019484293
0001f0 35 6f 5a bc a0 1a 05 3d 43 6b 0a bd cc db f9 bb
       -0.013332178 0.032496095 -0.0337937 -0.007625079
000200 27 bc cb bd c2 95 fe 3c 78 54 5c 3d 41 05 d3 3d
       -0.099479966 0.03107727 0.053791493 0.103037365
000210 ff 0a f3 bd ca ba bc 3b 3f 41 d3 3d 83 86 ac 3d
       -0.11867332 0.0057595717 0.10315179 0.084240936
000220 12 d8 d9 bd 8f 8e 06 bd d5 7f 49 bd d2 ed ce bd
       -0.10636915 -0.0328508 -0.049194176 -0.101039544
000230 6f 9d 03 3e 26 e3 29 bc c9 1a 23 bd 16 96 e5 bd
       0.12853025 -0.010369098 -0.039820466 -0.11210267
000240 7d e8 8e 3d 63 86 51 3c e9 47 86 bd 4a e4 4a 3e
       0.06977937 0.012788388 -0.065566845 0.19813648
000250 e1 af 3a 3d a5 16 2c 3e 93 05 b7 bc e5 b7 83 3d
       0.045577887 0.16805513 -0.022341525 0.064315595
000260 ce 97 42 3d 4a a4 3e 3d af 7b 35 bd 42 02 04 bc
       0.047508053 0.046543397 -0.044307407 -0.008057179
000270 c2 88 f6 3d fe 62 8e 3b 81 8c 05 be 09 ef c0 bd
       0.12037803 0.004345297 -0.13041879 -0.09420592
000280 55 94 1a 3d 8f 2a 9b bc 61 8d d3 3c da 48 96 bc
       0.037739117 -0.018941192 0.02582425 -0.018345285
000290 13 3c a0 3d 90 f4 30 be ce fd a3 3d 17 04 39 bd
       0.07823958 -0.17280793 0.08007394 -0.045169916
0002a0 84 07 3a bc 34 8f 55 bd aa ea 05 bc 87 f5 2e 3d
       -0.011354331 -0.052138522 -0.008173624 0.042714622
0002b0 97 db b0 bc f6 57 32 bd 37 6f 48 3d 50 4b dc 3d
       -0.021589084 -0.043540917 0.048934188 0.10756552
0002c0 1f 59 6b 3d 40 60 b9 bd b5 1b ca bd 2e a3 fd bd
       0.05745804 -0.09051561 -0.09868566 -0.1238464
0002d0 e7 2c 8d 3d b7 19 08 3d a5 e1 31 3e c7 6f 2f bd
       0.0689333 0.03322765 0.17371233 -0.04283121
0002e0 bd c7 ce 3c b2 8e c1 bd 56 28 34 3e 27 32 02 bd
       0.025241727 -0.09451045 0.17593512 -0.03178611
0002f0 97 ee 7e bd 89 e1 8b bd 9d 8e e6 bc 22 1e 39 bb
       -0.062239256 -0.06830127 -0.028144175 -0.002824672
000300 fb 92 a5 bc bd b6 03 3e 06 4a cf bd c1 b5 e3 3d
       -0.020211687 0.12862678 -0.10121541 0.11118651
000310 4c 09 08 3d 28 d9 53 bd 92 c0 bb 3b 4b 6a 20 3d
       0.03321199 -0.05172077 0.0057297433 0.03916387
000320 26 63 8f 3d 00 61 d1 bd 8a e3 d4 3d dd fc 19 bd
       0.07001333 -0.102235794 0.10394962 -0.037594665
000330 76 e9 81 3c 72 46 59 bd 64 50 05 3d 34 7c 7c 3d
       0.015858393 -0.053045698 0.03254737 0.061641887
000340 1a 15 28 3e a3 fa e2 3c 1c 2f 8b bd 26 db b6 bd
       0.164143 0.027707404 -0.06796095 -0.08928518
000350 dc 5d 16 bd 31 11 06 3e 4e d1 e4 bd c2 ff e6 3d
       -0.036710605 0.13092496 -0.11172734 0.11279251
000360 a3 e9 b2 3c 0d 3f 34 3e 28 b3 1f 3d cc 53 52 bd
       0.021839922 0.17602177 0.038989216 -0.051349446
000370 4a a4 2b 3d 0f 1a 92 bc be 99 73 3d 50 03 ef 3d
       0.041904725 -0.017834691 0.05947279 0.11670554
000380 bb f2 0b 3e 82 82 ef bb c0 eb 99 3c 8c 59 a4 bc
       0.13666813 -0.007309259 0.018789172 -0.02006223
000390 58 08 aa bc 8c dd 12 3c 53 d6 e8 bc 47 51 22 be
       -0.020755932 0.008963954 -0.02842251 -0.15851317
0003a0 87 a7 70 bd a3 b0 a9 3d 28 4b 67 bd 92 78 cc 3d
       -0.058753517 0.08285644 -0.05646816 0.099839345
0003b0 62 04 ea bc 18 bc c8 3d 08 1d 20 be 58 d3 7f bc
       -0.028566543 0.09801501 -0.15636075 -0.015614353
0003c0 61 af 0a bd c0 01 5b 3c 79 61 2b bd 5e c6 1c be
       -0.03385866 0.013367116 -0.041841004 -0.15310046
0003d0 de 29 8f 3d 0f 68 89 bb 83 53 22 3b b2 59 70 3d
       0.069904074 -0.004193313 0.0024769015 0.05867929
0003e0 a3 2a cd bd a8 6c 35 3d 7d f6 06 bc 8d 6c 97 3b
       -0.10017898 0.044293076 -0.008237478 0.0046210946
0003f0 fb a7 f4 bd 05 9d 74 bc 47 1f 4a 3d 9a 07 de 3d
       -0.11946102 -0.0149300145 0.049346235 0.10841294

weight f4 [256, 256]
000000 0c fa b0 bc d1 40 03 bb 8d e3 23 3b 30 82 f5 3c
       -0.021603607 -0.0020027647 0.0025007457 0.029969305
000010 a4 93 0f bc 05 62 7e bc 10 c3 a9 bc 90 8f 12 3d
       -0.008763228 -0.015526299 -0.020722896 0.035781443
000020 77 4e 3e bd 7f 3e e4 bc db f5 21 bc a3 26 57 3c
       -0.04646155 -0.027861832 -0.009885277 0.01313177
000030 f8 d6 db 3c 4c 7e c9 ba 5a 82 ee 3b 96 99 f1 bb
       0.026835904 -0.0015372722 0.0072787227 -0.007373045
000040 6b b0 13 3c a6 2e 27 3c 2b 55 e4 bc 44 32 28 bc
       0.009014229 0.010203993 -0.027872643 -0.0102658905
000050 e6 77 be 39 19 5d 38 3d ee 51 32 bc 7a 55 3f bd
       0.00036328955 0.04501066 -0.010883791 -0.046712376
000060 06 80 98 3c 4a 67 20 3c 7a 6a c3 bc 2b 15 12 3d
       0.018615734 0.009790251 -0.023854483 0.03566472
000070 7c 78 81 3c d6 0a 3d 3d e4 04 8a bc 27 de 82 bd
       0.015804522 0.046152912 -0.016848035 -0.063900284
000080 5a 63 71 3d d3 4a 67 bd af e4 ca bc 38 0e 83 3b
       0.05893264 -0.056467842 -0.024767248 0.0039994977
000090 72 8d 34 3d e8 dc b5 3c b3 ff b5 bc 86 50 93 3c
       0.044080205 0.022200063 -0.022216653 0.017982733
0000a0 6d e7 5b bd bc d0 c0 bc b3 26 8e bc 2c 6a 6f ba
       -0.0536875 -0.023537032 -0.017352438 -0.00091329473
0000b0 51 b8 d1 3b ba c7 84 3c bf fe 4c 3d 1d e6 3a 3d
       0.006400146 0.016208518 0.050047632 0.04562961
0000c0 db 19 99 3c aa 16 54 3d 5a 82 1e 3d 15 9a 9c 3b
       0.018689087 0.051779427 0.03869853 0.00477911
0000d0 98 94 01 bd a3 a7 60 bb 6d be b3 bc 25 c5 ec 3c
       -0.03163585 -0.0034279607 -0.021941388 0.0289026
0000e0 ce 93 14 3c a8 50 5a bc f5 06 ef bc f9 8b 06 bd
       0.0090684425 -0.013324894 -0.029178122 -0.032848332
0000f0 ef 5c a9 bc e1 e8 12 bd 01 f9 a2 bc e7 01 70 bc
       -0.020674197 -0.035866622 -0.019894125 -0.014648891
000100 fe 0c 97 ba 65 7d cb bc 10 23 16 bb 12 af 00 3d
       -0.0011524258 -0.024840066 -0.0022909082 0.03141696
000110 ae be d8 bb eb e7 42 bb 88 36 53 3c f8 cb be 3c
       -0.0066145277 -0.0029740285 0.012891419 0.02329062
000120 c5 c1 13 bd f6 d4 74 3c 08 c5 35 3d 8e 77 9b 3d
       -0.036073465 0.014943352 0.044377357 0.075911626
000130 98 3b e5 bb c0 f9 b8 bc 9f fe ec 3c 61 b0 c9 ba
       -0.0069956295 -0.022580028 0.028930007 -0.0015387648
000140 0f f9 18 bd 69 35 21 3c 08 b7 04 3d 66 93 3f bd
       -0.037346896 0.009839394 0.032401115 -0.04677143
000150 e4 06 de 3c 0d 53 1d 3d 39 fe 4c bb 4b a0 cb bc
       0.027102895 0.03840928 -0.0031279458 -0.024856707
000160 50 63 48 3d 3a 0f 25 3b 6a c3 8f bc 74 01 2b bd
       0.048922837 0.0025186078 -0.017549235 -0.041749433
000170 6a 87 99 ba b1 1f 04 bd d6 ab 4d 3c b3 4f b5 3c
       -0.001171333 -0.032256786 0.012553176 0.02213273
000180 48 18 9d bc 59 35 8f bc f2 03 8a bc ae 7b d7 bc
       -0.019176617 -0.017481493 -0.016847584 -0.026304092
000190 c3 64 b2 bc 37 cf 1b bc f3 d5 0a bc 78 f1 87 bc
       -0.021776563 -0.009509853 -0.008473861 -0.016594633
0001a0 19 17 29 3c 10 6d 2c bd 15 6c d4 3c 76 fa 29 bd
       0.010320448 -0.042096198 0.025930444 -0.041498624
0001b0 71 ba 4d bd 95 58 92 bc f8 c2 a4 bd 57 21 f2 bc
       -0.050226633 -0.017864505 -0.08045 -0.029556913
0001c0 34 09 05 3e c8 db 6e bc 73 96 08 3b fc be 93 3d
       0.12991792 -0.014578767 0.0020841628 0.07214162
0001d0 83 ea e2 3a 4e cf 59 3a 63 b7 52 3d 94 5a 3c 3a
       0.0017312322 0.0008308784 0.051444422 0.0007185128
0001e0 d5 d6 a2 3c c9 81 59 3c 43 80 88 bc 46 ec b4 3b
       0.01987783 0.013275572 -0.016662722 0.00552133
0001f0 fe 6b 0d 3c 3e af 8d bc f2 81 95 bc c7 dc 34 bc
       0.008631704 -0.017295476 -0.01825044 -0.011038966
000200 ac e5 38 ba 36 f7 19 3c 3f 53 20 3d 06 99 b0 3d
       -0.0007053267 0.009397319 0.03914189 0.08622937
000210 e6 d1 70 bb 13 1d 25 3c df b7 d5 bb af 67 19 3d
       -0.0036746203 0.010077733 -0.0065221633 0.037452396
000220 ee 88 0d bd 77 0f 46 bc 40 26 58 bc 03 b5 81 3c
       -0.034554414 -0.012088648 -0.013192713 0.015833383
000230 0f b3 52 bc db 81 21 3d f0 41 af bc 4d b9 1a 3b
       -0.012860074 0.03943048 -0.021393746 0.0023608983
000240 54 a6 5a 3d 8d 1e 88 3b 22 86 80 bd a4 3d 5c bd
       0.05338128 0.0041540326 -0.06275584 -0.053769723
000250 a6 39 40 bd de 7f 13 bd a3 50 0e bc fe b8 10 3d
       -0.046929978 -0.036010616 -0.0086862175 0.035332672
000260 fd 30 12 3c e1 17 37 bd 55 a7 0d 3d bf 00 43 bd
       0.0089228125 -0.044700507 0.03458341 -0.047608133
000270 f0 fc f5 bc 20 79 b4 bb 77 25 95 bc d0 e1 d2 ba
       -0.030027837 -0.0055076033 -0.018206341 -0.0016089026
000280 46 98 9e bc f4 79 bb 3c 5f b7 98 bc ef 00 94 bc
       -0.019359719 0.0228853 -0.018642126 -0.018066851
000290 1c cf 33 3d 27 a4 b5 39 61 59 e1 bb 23 13 db bc
       0.043898687 0.00034645313 -0.00687711 -0.026742524
0002a0 ee 67 9c bd ae 4a 36 bc e0 41 0d 3d b7 76 dd 3c
       -0.076370105 -0.011126203 0.03448665 0.027034147
0002b0 32 af 07 3d cc 9c e1 3b af b9 b9 bc 17 7a 2a 3c
       0.033126064 0.0068851467 -0.022671549 0.010405085
0002c0 e2 4f 01 bd 4c 34 98 bc 62 92 69 3c 91 d3 26 3c
       -0.031570323 -0.018579625 0.014256092 0.010182277
0002d0 e3 29 92 3c fd c6 b1 bc 19 db 43 bc 68 04 da bb
       0.017842239 -0.02170133 -0.011954092 -0.0066533573
0002e0 2c 67 27 3d 29 a9 51 3c 07 f1 85 bc b5 f1 94 bc
       0.040869877 0.012796679 -0.016350282 -0.018181661
0002f0 29 5b c1 bc 99 35 c3 3b df 4f 97 3c 8a c9 d2 bc
       -0.023603039 0.005957317 0.018470703 -0.025730867
000300 c6 12 31 3c c1 58 83 bc c2 14 1c bd ba 9e 87 3c
       0.010807699 -0.016033532 -0.038105734 0.016555179
000310 3b 06 17 3d 3f 95 34 bc da 69 b4 3c 70 6a 56 bc
       0.036871176 -0.011021911 0.02202313 -0.0130869
000320 17 e5 26 bd 72 14 eb 3c c9 c9 bc 3c 40 e9 bd bb
       -0.04074582 0.028696273 0.023045437 -0.005795628
000330 04 62 58 ba 3a ec 98 3c 26 c6 9e 3c 76 03 b7 3c
       -0.00082543516 0.01866733 0.019381594 0.022340517
000340 93 02 46 bd cc 5b 37 bc e9 9b 37 3d 78 ba 93 bc
       -0.0483423 -0.01119132 0.044826422 -0.018033251
000350 bb 2f b0 3b 6a 2c e2 bb 06 10 73 bb 27 4c 73 3c
       0.0053767837 -0.006902267 -0.0037088408 0.014849699
000360 6c 62 4c 3c cf b5 a7 3c cf aa ca 3c 93 8d b6 bd
       0.0124746375 0.020472435 0.024739651 -0.08913722
000370 ab 98 ba bc e1 f3 47 3d 4f 80 76 bc 0f 2b ef 3a
       -0.022777876 0.048816565 -0.01504524 0.0018247085
000380 e1 8d 87 3d 35 e3 50 3c 38 d3 1c 3d fd 78 36 3d
       0.06618858 0.012749483 0.03828737 0.044548977
000390 d8 7e b2 3c a5 6c 03 3d ae 9d 15 bb b0 e6 78 bc
       0.021789 0.032086033 -0.002282958 -0.015191719
0003a0 9d 5c 2a bd 6b 6a 97 3c 6c 9d 59 bc a0 ee 09 3d
       -0.04159223 0.018483361 -0.013282161 0.033674836
0003b0 e5 ad 03 bd 8d 60 a8 3b ec 68 77 bd 8b be 2b bc
       -0.03214826 0.005138463 -0.060402796 -0.010482441
0003c0 6b 89 b3 bc 89 a6 de 3c 29 83 96 bb 67 45 36 3d
       -0.021916112 0.02717902 -0.004593272 0.04449978
0003d0 d0 fb 12 3d 2b 02 d7 bc 6b e1 f6 bc 92 4b 52 bd
       0.03588468 -0.026246151 -0.030136785 -0.0513416
0003e0 2b 8b d1 bc 6e 7a 86 bd 6c 7d f7 3c 1c 2c 61 3b
       -0.025579056 -0.0656632 0.030211173 0.0034358567
0003f0 32 06 34 bc 64 51 15 bc d9 e8 66 3c b6 42 e0 bb
       -0.010987805 -0.009113643 0.014093601 -0.00684389

bias f4 [256]
000000 ea c6 e6 bc 09 60 57 3c 8d 16 bb bc f8 73 07 3d
       -0.028171021 0.013145455 -0.022837901 0.03306958
000010 3e 6f 5e 3d a3 13 12 3d ab 9a 1f bc 5f ba f7 b9
       0.054305308 0.03566326 -0.009741466 -0.00047250369
000020 10 90 60 ba 19 d0 9c 3c bd ec 2b bc 9d 38 84 3c
       -0.0008566389 0.019142197 -0.0104934545 0.016140277
000030 77 74 17 3d 05 e3 cc bc e2 02 82 3d 23 4c a6 3c
       0.036976304 -0.025010595 0.06348206 0.020299977
000040 ce 32 4c bd 03 72 bb 3b 61 73 b5 3a 69 8a 84 3c
       -0.04985314 0.0057203784 0.001384359 0.01617928
000050 9d 1f b4 3c c7 f0 1d bd 86 ca 77 3a 20 5e cd 3a
       0.02198773 -0.0385597 0.00094524806 0.001566831
000060 67 97 9a 3a e2 8b 09 3d 3a 3b e0 bb 8b e9 d2 bc
       0.0011794389 0.03358067 -0.006842998 -0.025746128
000070 28 9e e9 3b 8b e9 25 3d d3 50 14 bb 64 a5 a1 bb
       0.0071294494 0.040505927 -0.0022631183 -0.004933046
000080 a9 b2 4a bc 7d 2e 0d bd a7 0c 8c bb 03 94 99 bc
       -0.012371697 -0.034468163 -0.004273969 -0.018747335
000090 3c a6 3c 3b a5 6a e2 b9 14 46 2f 3d a7 11 dd 3c
       0.0028785607 -0.00043185535 0.04279144 0.026985956
0000a0 26 eb b2 3c 7f f0 d7 3c b4 21 a7 ba e1 ec 5e 3c
       0.021840643 0.026359795 -0.0012751133 0.013606281
0000b0 d7 33 28 bc 49 6e cf bb 77 6f 88 3b 17 6e ad 3a
       -0.010266266 -0.0063302857 0.0041636783 0.0013231662
0000c0 4c e1 1b 3d 5c c9 ad bc d4 ac 80 3b 66 75 5d bc
       0.038056657 -0.02121418 0.0039268527 -0.0135167595
0000d0 c4 35 2f 3b 05 16 10 3c 71 c5 0c bc 83 89 a2 3c
       0.0026734928 0.008794312 -0.008591996 0.019840961
0000e0 2f 7f 3b bc 80 77 be bc 12 2e fa bc 81 62 b3 bb
       -0.011443897 -0.023250341 -0.030539546 -0.005474389
0000f0 c9 0d 95 3b 08 cc 71 bc 7b 7b a5 3c ca 3e a4 bc
       0.0045487625 -0.0147581175 0.020200482 -0.020049471
000100 ee fa 44 bc d7 f0 f3 3c 7b 23 57 3c d2 4f 13 bc
       -0.012022717 0.029777927 0.013131018 -0.008991199
000110 a6 39 20 bd 59 3f 78 3d 72 7d f1 bc aa 4c a0 bc
       -0.039117478 0.060607288 -0.029478762 -0.019567806
000120 d6 8a f0 bc 2a cf 88 bc 3c 46 ec bc 3d 34 27 3d
       -0.029363077 -0.016700346 -0.028842084 0.040821303
000130 1d ca 18 bd b0 26 8d 3d 80 f1 4a bd 3b 00 95 bc
       -0.037302125 0.06892145 -0.04954672 -0.018188586
000140 77 11 6a bc 36 3e 26 bc c1 f6 19 3d 5f 10 7d 3c
       -0.0142863905 -0.010146668 0.03758884 0.015445798
000150 06 df c8 3c 6a 83 a6 bc dd 22 2b bc 38 1e 44 bd
       0.024520408 -0.020326335 -0.010445324 -0.04788038
000160 28 69 91 bc 1f 73 b0 3c 79 f5 aa bb 2c 5f 91 3c
       -0.017750338 0.021539269 -0.005217251 0.017745577
000170 35 c2 8a bb b7 26 8c 3c 90 76 ac ba 8a d2 08 bc
       -0.004234577 0.017108304 -0.0013157893 -0.008350978
000180 16 03 5c 3d 09 05 d2 3c fe 43 1e bc 8f 75 76 bc
       0.05371388 0.025637167 -0.009659765 -0.015042677
000190 cd a5 23 bc 12 e9 1a bd 6e 71 6e bc 22 fe 8b bb
       -0.00998826 -0.03781993 -0.014553411 -0.0042722384
0001a0 7d 0e 68 3d 08 da 25 3c 2d 0c e1 ba 7f 1d 90 3a
       0.056654442 0.0101227835 -0.0017169766 0.0010995119
0001b0 cd 11 9f bc e0 81 c4 3b 8d e0 c0 3c 71 16 2e 3d
       -0.019417668 0.0059969276 0.023544574 0.04250187
0001c0 33 a8 b3 3c 32 6d 63 bd 5b 0e d9 bc 9f 9b eb 3b
       0.02193079 -0.05552406 -0.026496103 0.0071901823
0001d0 60 9d 83 bc 92 1c b9 bc 63 e5 38 bb a0 da 5f bd
       -0.016066253 -0.022596631 -0.0028212897 -0.054651856
0001e0 68 e0 c0 b9 f7 9c 93 3a ee 01 3a 3d f9 d3 03 bc
       -0.0003678829 0.0011261989 0.045411997 -0.008046144
0001f0 a8 0d 01 3d 00 61 0d bb b8 f3 9d 3c bf 3e f3 3c
       0.031507164 -0.002157271 0.019281253 0.029693006
000200 ed 46 1f 3d 8c ac 54 bc 4a b9 39 bd 1b 0f 5d 3d
       0.038886 -0.0129805915 -0.04534272 0.053969484
000210 97 c3 0c 3d c6 5c 0d 3d 25 a5 0a 3c f3 37 b5 bb
       0.034366217 0.034512304 0.008462225 -0.0055303513
000220 6f f1 30 bd 8d 24 0f bc a9 4e 5e bc 16 b2 fb 3b
       -0.043199 -0.008736742 -0.013568559 0.0076811416
000230 d2 5d 2d bb 35 d9 5f 3b a5 3d 27 3d 76 c4 0f 3d
       -0.0026453626 0.0034156565 0.040830273 0.03509947
000240 2f 7a 13 3b 60 1f e1 3c 31 d0 c9 bc 82 b3 d9 bc
       0.0022503247 0.027480781 -0.024635406 -0.026574854
000250 e7 2e 86 bc d0 7b e4 3b d7 27 bb 3c 44 98 c9 3c
       -0.016379787 0.0069727674 0.022846146 0.024608739
000260 50 7b 7e 3c 8d 6e 15 3d b6 83 37 3d c4 d6 e0 3b
       0.01553233 0.036482383 0.044803344 0.0068615396
000270 16 29 82 3c 0d 56 0e bd 56 d5 32 bc 6d 92 19 3c
       0.015888732 -0.034750033 -0.010915121 0.0093732895
000280 89 93 9a 3c 20 c3 f0 39 ad 40 66 3b ec 06 43 bc
       0.018869178 0.00045921747 0.0035133765 -0.011903506
000290 31 72 1c bd 42 09 2b bc 7f f5 46 3c 92 ad aa bb
       -0.03819484 -0.010439219 0.012143492 -0.0052086795
0002a0 aa d8 97 3b 02 e0 72 bc 53 06 d2 3c 4b 7d 64 bc
       0.0046339827 -0.014823915 0.025637781 -0.013945888
0002b0 73 72 a0 bc a2 d3 39 bc 73 ac 2c bd ff 6e 1b 3d
       -0.019585824 -0.011341961 -0.042156648 0.03794765
0002c0 e5 aa 0f bc 17 cf d9 bc a0 3a ac bc 06 0d a0 bb
       -0.008768772 -0.026588006 -0.021024048 -0.004884365
0002d0 23 9b 2a bd fb 9f 9e bc bc 29 c3 ba bd c6 c1 bc
       -0.041651856 -0.019363394 -0.0014889757 -0.023654336
0002e0 71 f9 38 bd 04 9f ba bc 7e 21 4c 3d 05 b9 db bc
       -0.04515976 -0.022780903 0.04983663 -0.026821623
0002f0 bd cb ad ba af b5 08 3a e1 26 10 bd be 90 1b 3b
       -0.0013259571 0.0005215061 -0.035193328 0.0023737396
000300 7d 9c ee bc 0f ba 15 3d 28 bb 04 3b cc ba be 3c
       -0.029127354 0.036554392 0.0020253155 0.023282431
000310 f1 1f a0 bc 53 34 00 3d 65 8b d9 3b 98 d7 a4 bb
       -0.01954648 0.0312999 0.0066389316 -0.0050305836
000320 51 e8 9a bc 3b 33 32 bd c4 99 f5 3a 28 8e ae 3c
       -0.018909605 -0.04350589 0.0018737842 0.02130802
000330 7f ec 24 3b b7 5c 38 bd 18 2a 4a 3b e7 3c c5 bc
       0.0025165377 -0.045010295 0.0030847844 -0.024076892
000340 02 57 02 3d 78 08 a0 ba 7c 8a a0 bc 42 c9 b6 3b
       0.03182126 -0.0012209555 -0.019597284 0.005578191
000350 c4 1c b8 3c 31 3b 03 bd 41 f0 57 bc f5 a9 0b 3d
       0.022474654 -0.03203887 -0.01317984 0.03409763
000360 fe a0 2d bd d6 12 5b 3b 13 0c a0 3c 5e 10 a1 bb
       -0.042389862 0.0033427975 0.019537007 -0.004915281
000370 e8 3b da bc 2b 80 44 3d 34 1f 07 bc a0 92 1e bd
       -0.026639894 0.047973793 -0.0082471855 -0.03871405
000380 2c 93 b8 bc 4c 56 85 bc dc 8b 49 b8 92 e3 56 3c
       -0.022531115 -0.016276501 -4.805239e-05 0.01311578
000390 9a 55 30 3b ee af 61 3d c9 ff 75 3d 6c 60 73 ba
       0.0026906491 0.05509942 0.06005839 -0.00092840823
0003a0 29 a7 fc bc a8 be 9c 3c 2b 2a 85 3d 59 1e a7 3c
       -0.030841427 0.01913388 0.065021835 0.020400213
0003b0 af 56 18 3d 7c 04 72 bb 96 8d d2 bc 17 b1 30 3c
       0.037192043 -0.0036928942 -0.025702279 0.010784409
0003c0 b9 d9 68 bd b9 25 3a 3b 20 d0 61 ba 2e a8 db 3b
       -0.05684826 0.0028403832 -0.0008614082 0.006703398
0003d0 28 5f 13 bc 9e 14 3c 3c 0a 2e e4 bc 40 77 9e bc
       -0.008994855 0.011479525 -0.027853984 -0.019343972
0003e0 f7 b6 2a 3d b8 c8 ad bb df d0 0c 3d 79 dc 9d 3c
       0.041678395 -0.0053034686 0.034378882 0.019270169
0003f0 2e 6c 3f 3c 9b 49 5e bb 54 46 37 ba 99 36 9f 3c
       0.011683507 -0.0033918384 -0.00069913757 0.019435214
