output/2023-09-14-22-52-13/trained_model/tetris_epoch2505_score2500.pt (torch, 842187 bytes, 8 tensors)

weight f4 [32, 1, 4, 4]
000000 a9 2c e4 3b 7a 0c 95 3c d6 ab dd bc f0 11 a5 3c
       0.0069633317 0.018194426 -0.027059477 0.020150155
000010 79 84 1e 3c 17 de 84 3d 1b c2 bc bb 0d 47 74 3d
       0.009675139 0.06487673 -0.005760444 0.05963807
000020 71 5b 78 be c1 58 da 3d 22 b7 3e 3e 0a 83 18 3b
       -0.24253632 0.1066146 0.18624547 0.0023271465
000030 28 d9 83 3d 15 8d 23 3e 56 36 3a 3e 4f 61 17 bd
       0.06437904 0.15971787 0.1818479 -0.036958035
000040 bc ec ee 3e 60 1c ba ba 8f a9 ae be fb a7 9e be
       0.4666499 -0.001419913 -0.34113738 -0.30987534
000050 d0 8b 1c bf 5e aa 7c bc 98 75 79 bd fb e8 48 be
       -0.61150837 -0.015421478 -0.06090316 -0.19620125
000060 48 9e 8c 3d fa ae 70 be 0c f6 94 3d 5e 50 a7 be
       0.06866127 -0.23504248 0.07273492 -0.32678503
000070 02 65 27 be 46 63 59 3d 4d 76 ea 3d d2 0f 30 bf
       -0.16347125 0.05307319 0.11448345 -0.6877414
000080 8e d8 f4 3c b5 59 16 3d 70 fa 40 bf b0 8c 5f be
       0.029888418 0.036706645 -0.7538214 -0.21831012
000090 5a 84 f6 3c fe b9 8e be fe c3 30 3e 7e 32 93 be
       0.030092407 -0.27876276 0.17262265 -0.2874946
0000a0 05 25 ae 3d 7f c4 a2 3e 97 40 fd bc 1b bc 37 3d
       0.08503155 0.3179054 -0.030914588 0.044857126
0000b0 a2 92 d6 bd 1b d2 a8 bd 2c 6c 34 be 37 05 7f bd
       -0.10477187 -0.082431994 -0.1761939 -0.062260833
0000c0 a3 1c d1 be 71 69 bb be fd 42 dc bd 1d 5f 04 3c
       -0.4084216 -0.36603883 -0.107549645 0.008079317
0000d0 59 18 6f 3e 65 2a 5e be 0d 55 82 3e b5 20 d9 3d
       0.23349132 -0.2169586 0.25455514 0.106019415
0000e0 f4 4d 8d be 7b 07 b1 3c 93 83 19 bf 1b 3d fb 3d
       -0.27598536 0.021610012 -0.5996639 0.12267514
0000f0 ed 28 19 be 83 74 21 bf 82 ab 02 bf 8e 60 cd 3d
       -0.14957018 -0.6306841 -0.5104295 0.10028182
000100 15 c2 f3 bc 0d a8 44 bf 50 cc e9 bd 47 78 90 bd
       -0.029755631 -0.76818925 -0.11415923 -0.07054191
000110 b5 56 85 3c 2c 5b 4b 3c 8d 9a 9a 3d ca a2 49 3d
       0.016276697 0.012411874 0.075490095 0.049227513
000120 a2 36 66 3e ef f9 60 bf 41 43 99 3e 5c c1 4c bc
       0.22481778 -0.8788137 0.29934123 -0.012497272
000130 df be 5c bd a5 83 85 bd 99 71 a0 3c cf 79 c9 bc
       -0.053892966 -0.0651925 0.019585418 -0.024594216
000140 b7 20 3a bc 4e 36 83 3c e6 a8 04 be 67 a2 99 bd
       -0.011360339 0.016017105 -0.12955055 -0.07501679
000150 38 70 88 3c 4d a7 e6 bb e6 76 95 3e 89 83 41 3f
       0.016655073 -0.007038987 0.29192275 0.7559133
000160 05 a0 29 bd 73 43 35 3c 96 a0 7d be 24 20 49 bf
       -0.041412372 0.011063444 -0.2476829 -0.7856467
000170 c2 23 3b bc 18 55 0a bb a8 59 29 bd 37 34 23 bd
       -0.0114221 -0.0021107849 -0.04134527 -0.039844718
000180 93 66 c7 3c e7 36 74 3d 42 d1 27 3e 7d 71 70 3e
       0.024340903 0.05962267 0.1638842 0.23480792
000190 0f bd f0 3d a5 9c a1 bc fa 11 4c 3e d1 95 dc be
       0.1175481 -0.019728014 0.19928733 -0.4308305
0001a0 f4 72 ab 3d 7e 30 19 3d 2d a2 f3 3c 62 b2 09 bf
       0.08371535 0.03739976 0.029740417 -0.53787816
0001b0 df 6f 30 3c 05 84 ef bc 89 08 d2 3d d0 48 bc be
       0.01076886 -0.029237757 0.10255534 -0.36774302
0001c0 19 e0 27 bd 8d a5 94 3b 99 06 1f 3e fa d0 ff bd
       -0.0409852 0.0045363368 0.1552986 -0.12491031
0001d0 cd 34 d3 3d 6c 5c a8 3d 1c 22 31 bf 80 6a 1f bf
       0.10312805 0.08220753 -0.6919267 -0.6227188
0001e0 2c 94 aa ba f4 67 8c 3d 5c 09 02 bf bf 55 e3 bd
       -0.0013014129 0.06855765 -0.5079553 -0.11100339
0001f0 13 4b 8d bd be 2a 3b 3e 98 78 a5 be fa ec 96 be
       -0.06899085 0.18278024 -0.32318568 -0.29477674
000200 33 cb 08 be 90 0d f1 3d 5e 18 ec be a6 5b 20 be
       -0.13358764 0.11770165 -0.4611234 -0.15659961
000210 39 2a d8 3d 3f 5c 0a 3e ec 90 49 3e 1b 30 d6 be
       0.10554928 0.13511752 0.1968419 -0.41833577
000220 3f 39 98 bc 44 14 a0 3d db cb 79 be 7a 44 2e bf
       -0.018581985 0.07816365 -0.24394171 -0.68073237
000230 37 1c 04 3e b2 d7 5e bd 7b 6f 94 bd f1 c6 eb 3d
       0.12901388 -0.05440492 -0.07247826 0.115125544
000240 41 33 11 be 6d 8f 16 bd 55 9d be 3c e7 19 67 3d
       -0.14179708 -0.036757875 0.023268381 0.056421187
000250 62 2c c5 bd e3 e8 74 be 7d 79 ec be 9b 51 8f bd
       -0.09627606 -0.23916964 -0.46186438 -0.06997987
000260 e1 b5 2d bd b2 67 ec 3e 83 fb 41 3e f0 74 82 bd
       -0.04240978 0.46172863 0.189436 -0.0636996
000270 38 b0 68 3d a7 cc 5b bf 16 5c cb 3d 50 a4 ea 3c
       0.05680868 -0.8585915 0.099296734 0.028642803
000280 26 0a df bc 5e cd d7 bd 37 f2 32 be 8e 7f 0f be
       -0.027226519 -0.105372176 -0.1747521 -0.14013502
000290 9e 68 f2 bc f5 f0 d5 bd 37 c6 68 be dc 71 a4 3c
       -0.029590901 -0.104463495 -0.22731863 0.020073824
0002a0 64 1c a2 bb ba 62 d1 3d 46 d1 0c 3f 2b 22 72 bd
       -0.004947232 0.10223909 0.55006826 -0.059114616
0002b0 9a 7e 1d bc ac 15 02 be 9e 56 30 bf c8 08 48 bd
       -0.009612704 -0.1270358 -0.6888217 -0.0488365
0002c0 b0 7c ff bd 79 36 1d bd 62 3b b0 be 1e 9c d6 bd
       -0.12474954 -0.038382027 -0.34420305 -0.10478996
0002d0 04 77 1d bd f5 e2 b7 bd 67 8e bc 3c 44 7b 8f 3e
       -0.03844358 -0.089788355 0.023017121 0.28023732
0002e0 88 ee 77 bd 7c 80 9c bc 9e b6 0b 3e 9b f9 06 bf
       -0.060530216 -0.019104235 0.13643882 -0.5272462
0002f0 46 a2 99 3d d1 7b 14 3d 4d 78 84 3d b7 e3 04 bf
       0.07501654 0.036250893 0.06468258 -0.51909965
000300 9e 1f f5 3d 7b 95 26 be 0c 7a 0d 3d bd 43 c5 bd
       0.11968921 -0.1626796 0.03454022 -0.09632061
000310 17 00 f1 3c b6 7d 03 3f 1c 71 15 3d 54 68 93 bd
       0.029418988 0.51363695 0.036484823 -0.071976334
000320 28 d5 8f bd c9 5c 0a bf 93 e6 34 3e 7f e9 19 bd
       -0.07023078 -0.5404783 0.17666082 -0.037576195
000330 34 13 c9 bc 5f e5 0c bf 89 56 3c be c8 39 08 3c
       -0.02454529 -0.5503749 -0.18392386 0.008314557
000340 eb 58 e3 3c b8 ab 8d bd 9a f7 e2 bc e9 02 08 3d
       0.02775236 -0.069175184 -0.027705956 0.0332059
000350 0a df 1f bd 6b f4 34 3e b1 42 fe 3d 9b 96 36 bb
       -0.039031066 0.17671363 0.12415064 -0.0027860764
000360 e7 76 12 bd c1 5a 5b 3f 80 78 46 bd 7c 48 30 3d
       -0.035757925 0.85685354 -0.04845476 0.043037876
000370 7a 22 1b 38 5a b1 a7 bf fe 77 bc 3d 80 b3 db bc
       3.698699e-05 -1.3100998 0.09202574 -0.02681899
000380 77 bf 14 3d a9 52 e1 3e b1 93 82 3d 72 57 8e bb
       0.036315408 0.44008377 0.06375826 -0.0043439204
000390 df 71 66 bc 53 b0 2d 3f 2c 76 9c 3c eb 32 68 3c
       -0.014065235 0.67847174 0.019099317 0.014172296
0003a0 4b 6e f6 bb 7a 6e a0 bf 2d 71 86 3c de 42 83 bc
       -0.007520472 -1.2533715 0.016411388 -0.016023096
0003b0 20 57 d3 bc 5d 7d 23 bd ce 82 8a bd 37 6c a9 3c
       -0.02579838 -0.039914478 -0.0676323 0.020681484
0003c0 60 84 75 be 2d 27 15 bd ea 77 35 3e fb ef cc bd
       -0.23976278 -0.036414314 0.17721525 -0.1000671
0003d0 b3 54 3f bc e9 53 31 be 68 36 9e bd 9f f3 e1 bb
       -0.011677909 -0.17317165 -0.07725221 -0.006895497
0003e0 c3 50 08 3e c0 fd 37 3e 0c 21 9c 3d 0a 35 22 3e
       0.13312058 0.17967892 0.07623491 0.15840545
0003f0 fa 0e ee bb cd a7 b3 3d ce 00 41 bc 9a 20 f9 3d
       -0.007264969 0.0877224 -0.011779977 0.121644214

weight f4 [32, 32, 5, 5]
000000 d8 80 8a bc fb eb 05 be 96 50 8f 3d 1c c0 2f 3e
       -0.01690714 -0.130783 0.069977924 0.17163128
000010 a9 25 44 3e 2a 41 1a 3e 14 15 5f be 82 af e9 bc
       0.19154991 0.1506392 -0.21785384 -0.028526071
000020 e6 5d af bd 7f b5 89 be 0d 8a 57 bd a9 27 63 bd
       -0.085628316 -0.26896283 -0.05262189 -0.055457745
000030 17 f8 e9 3b d3 89 24 be 06 a8 df bc 4e d5 8e bd
       0.0071401703 -0.16068201 -0.0273018 -0.069742784
000040 1c b3 28 bf 22 f0 8b be 7c cc 8b 3c a3 38 9b be
       -0.658983 -0.27331644 0.01706528 -0.30316648
000050 cf 34 8b 3d a1 7e b0 3c b3 56 c6 bd 0c fb 80 3d
       0.06797182 0.021544756 -0.09684505 0.062978834
000060 1a ed e5 3d a3 9f 6b 3e a1 c7 87 be 6f 8b 40 3e
       0.11226864 0.23010115 -0.26519492 0.1880319
000070 92 7f f8 3e 80 3f e1 3e e1 4d 7e be 43 45 80 3e
       0.48534828 0.4399376 -0.24834396 0.25052842
000080 8d 49 5f be 5b 8b fe bd 27 c6 5c 3e cc 68 87 3d
       -0.21805401 -0.12428924 0.21559964 0.06611785
000090 6f 58 3d be f7 dd dc be 7a 20 fb 3d 36 61 83 be
       -0.18490766 -0.43138096 0.12262054 -0.25660104
0000a0 e6 51 e0 bd 9a 57 a1 bc 93 69 4e be df ab 90 be
       -0.10953121 -0.019695092 -0.20157461 -0.28256127
0000b0 d4 2c 9a bd 8e bc 63 be 39 79 96 3e d8 9e 0d 3c
       -0.075280815 -0.22239897 0.2938936 0.008643828
0000c0 24 9e e1 bc a3 ca c3 3e 66 7a 40 3e c5 5e 74 be
       -0.027541228 0.38240537 0.18796691 -0.23864277
0000d0 f7 38 f7 bd c1 f5 56 3e 44 43 0b bd de f3 dd 3e
       -0.12071412 0.20992185 -0.033999696 0.43350118
0000e0 6b bf 9a 3e 8f 71 2f bf be cc d5 be 86 9c 84 be
       0.30224165 -0.6853265 -0.41757768 -0.25900668
0000f0 57 f8 f6 bd 11 95 ab 3e a8 bf 17 be 81 90 e7 be
       -0.12059086 0.33512166 -0.14819205 -0.45227435
000100 26 96 01 3d c3 f3 80 3e 59 af bc be d1 0e 35 bc
       0.031637333 0.25185975 -0.3685253 -0.011050896
000110 31 3c af 3e 03 15 37 be 26 b2 d4 bc 46 21 9b be
       0.3422561 -0.17879109 -0.025963854 -0.30298823
000120 71 e4 b7 bc 5f 31 a5 be 17 c8 64 3e da ba b2 3d
       -0.022447797 -0.3226423 0.22341953 0.08727045
000130 97 b4 83 be bb 79 ce 3e e8 5e bc be 36 87 eb bc
       -0.25723717 0.40327248 -0.36791158 -0.028750997
000140 17 0d 11 bf 4e 68 b9 3d c7 c7 8d 3d 49 5b 1e bf
       -0.566606 0.09053098 0.0692287 -0.6185804
000150 b8 83 20 3c 21 b9 68 be f8 9c cd be 99 3a cc bc
       0.009797029 -0.22726871 -0.4015882 -0.024930285
000160 5a bd c8 3d f9 fe 31 bf e8 79 96 bf 22 7c a1 bd
       0.09801741 -0.6952968 -1.1755953 -0.078850046
000170 09 8f da be c4 32 ee bd 7a c1 84 3e 72 53 72 bc
       -0.42687252 -0.116307765 0.2592886 -0.014790403
000180 f0 5b 65 3e 1b 2b 38 bd 81 2f 8a 3e 1a fc 7f be
       0.22398353 -0.044962984 0.26989368 -0.24998513
000190 a5 a6 02 3d ea a5 b9 3d 84 dc e5 3d 04 c2 2a 3f
       0.031897206 0.09064849 0.11223701 0.66702294
0001a0 06 3b 3e bf e8 51 cc be 4d 26 bf 3e ad 19 69 3e
       -0.7430881 -0.3990624 0.3733391 0.22763701
0001b0 f8 30 ad be 8a bd b8 bd 30 ea b3 be 35 1b 41 be
       -0.33826423 -0.09020527 -0.35139608 -0.18858035
0001c0 d1 90 bf 3e 08 af 28 3e 6c cd 4a 3f e3 a5 80 bd
       0.37415174 0.16473019 0.792197 -0.062816404
0001d0 dc 06 36 3d 49 1d 0e bf 5a 2c f4 bd 95 ca 2a bf
       0.044440135 -0.55513436 -0.11922522 -0.66715366
0001e0 8f 0b e7 3d 15 d2 4a 3d 94 5d e8 3d 48 25 57 be
       0.112815015 0.049516756 0.113459736 -0.21010315
0001f0 c6 92 5d bd 93 bf 9c 3d 93 eb 20 3e 62 96 d4 bd
       -0.054095052 0.076537274 0.15714864 -0.10380246
000200 ab 35 45 bd 54 53 d1 bd 93 f0 53 3d 63 f1 d7 be
       -0.048146885 -0.10220972 0.0517431 -0.4217635
000210 f7 24 f3 bd f5 81 75 bd 2d d0 c8 bc c7 60 da bc
       -0.11872285 -0.05993839 -0.024513328 -0.026657475
000220 ed 2d 28 be 8f 5c 25 3d 8f 12 12 3d 61 43 72 3e
       -0.1642377 0.040371474 0.03566223 0.23658516
000230 2a 50 65 be a9 3b dc bf 96 94 56 bf 55 b8 3b be
       -0.22393861 -1.7205707 -0.83820474 -0.18332036
000240 87 da 16 bf 73 90 82 bc a7 3f e7 be 06 dc 54 3d
       -0.58927196 -0.01593802 -0.4516575 0.051967643
000250 db 58 aa be 6d 08 c1 be 96 73 3d 3e 02 e1 0c be
       -0.33270916 -0.3770174 0.18501124 -0.13757709
000260 ea 84 c8 bd bc 84 b5 be 17 72 1e bf f9 ce d7 3d
       -0.09790976 -0.3545283 -0.6189284 0.10537524
000270 bf ad 04 3e 67 a1 bd be 6a 60 8b bd e0 17 4e bf
       0.12956904 -0.37037203 -0.06805499 -0.8050518
000280 3a dc 28 3d 2c 69 84 3e 4c 9c 1d be d3 76 0f 3e
       0.04122565 0.2586149 -0.15391654 0.14010172
000290 f1 10 54 3e 0d cd 5b be f1 28 22 be c8 48 d3 be
       0.20709588 -0.2146494 -0.1583593 -0.41266465
0002a0 58 41 02 bc f6 d4 87 bd e5 8c 31 bc a5 9e cc 3d
       -0.0079501495 -0.06632416 -0.0108368145 0.099911965
0002b0 6f 8c e2 bb 75 c8 a8 3e a1 a2 f2 3d d8 8e 81 3c
       -0.0069137136 0.32965437 0.11847425 0.015815184
0002c0 33 68 12 bf 57 a2 09 3f 7e 6d c3 3c f3 78 bb bd
       -0.57190245 0.53763336 0.02385592 -0.091539286
0002d0 80 ec 69 bc 02 8a 2d bd 21 46 6f bc b6 a0 97 3e
       -0.014277577 -0.042367943 -0.014604122 0.296148
0002e0 50 76 62 bf ed be 99 bb a2 19 b6 be f4 9e a7 be
       -0.8846178 -0.0046919496 -0.3556643 -0.3273846
0002f0 95 b3 00 3e 86 36 93 be 0f 04 4e 3e 0d 89 83 be
       0.12568505 -0.28752536 0.20118736 -0.256905
000300 57 f8 8d be 37 21 6e 3e 02 87 9a bc 20 d1 80 be
       -0.2772853 0.23254858 -0.018863205 -0.2515955
000310 87 a4 68 be a2 d4 25 be d7 9b 86 3e 24 b9 42 bd
       -0.22719012 -0.16194394 0.2629077 -0.047539845
000320 42 72 7c 3e 71 ff 78 be 58 e9 ad 3d 5e cb cb 3e
       0.24652961 -0.24316193 0.084917724 0.39803594
000330 15 eb 9c 3d 86 9d 63 bf 04 6e 11 3e 46 fe 79 be
       0.07662026 -0.88912237 0.14202124 -0.24413404
000340 9c 4c ee 3d 0c 9e 2b be d5 99 48 bf 9a aa 3b 3e
       0.11635706 -0.16759509 -0.7835973 0.18326798
000350 47 30 0c 3e 18 d0 80 bd 01 15 1c bf 42 05 05 bf
       0.13690291 -0.06289691 -0.6096955 -0.5196115
000360 38 27 b3 be c5 98 91 be aa 1d 00 3e c2 88 60 3d
       -0.3499086 -0.28436866 0.12511316 0.054817922
000370 1a e2 75 be 5d a1 8d 3e 16 a6 b0 bd a9 8f 98 be
       -0.24012032 0.27662173 -0.086254284 -0.29797104
000380 00 f3 82 3e db b0 05 3e 61 36 72 3e ef 42 b8 be
       0.2557602 0.13055746 0.23653556 -0.35988566
000390 09 f0 97 bd 54 89 b8 3d 89 7e c0 be 6b 51 9b be
       -0.0741883 0.09010568 -0.3759654 -0.30335554
0003a0 7e c0 c9 3d 4c 90 ae be 00 21 d1 be c9 72 db be
       0.09851168 -0.34094465 -0.4084549 -0.42861012
0003b0 9a 9b d3 3e 8a 63 fe bd 08 f7 0f 3d da f6 28 bc
       0.41329652 -0.12421329 0.035147697 -0.01031276
0003c0 90 f3 74 be 47 2b cf 3d 3a 1b 9d be 40 8d 46 3d
       -0.23921037 0.101156764 -0.30684835 0.04847455
0003d0 12 38 fd be dd 50 08 be 24 f5 68 3e 27 71 03 3e
       -0.4945684 -0.13312097 0.22749764 0.12836133
0003e0 2c ef 83 bb 21 cd 62 3e af 0c 55 3f fc 4a 1e bf
       -0.0040263142 0.22148563 0.8322248 -0.6183317
0003f0 7c 30 de 3d 02 a3 f4 3b 3d 09 5d 3e 35 f2 de be
       0.108490914 0.007465721 0.21585555 -0.43544164

weight f4 [64, 32, 5, 5]
000000 03 d9 c0 3d bc 72 8c 3c 63 fc a2 bd 01 93 8f 3e
       0.09416392 0.017144553 -0.07958295 0.28041843
000010 f7 39 a0 be cb c6 8b 3e 20 29 af 3d 51 69 53 3e
       -0.31294224 0.27300104 0.08552766 0.20645644
000020 3a 5f 54 bd b1 69 03 3e 22 35 a7 3d 70 b8 63 be
       -0.051848628 0.12833287 0.08164431 -0.22238326
000030 62 b8 24 be 7a 45 af 3d 3a 6e 2f 3f 81 ee b0 bd
       -0.16085961 0.085581735 0.6852757 -0.08639241
000040 83 46 b0 3d dc 71 a8 3d c1 a5 fb bd 2d 36 9b 3e
       0.08607199 0.08224842 -0.122874744 0.3031477
000050 ce 9d 46 bd d1 2d 09 bf c7 af 0d be ec b4 db 3e
       -0.048490338 -0.53585535 -0.13836585 0.4291147
000060 26 6f 2d 3e 3a 98 b1 3e 42 c0 d6 be 01 cb 7d 3e
       0.16936931 0.34686452 -0.41943556 0.24784471
000070 b1 c8 6d bd 39 b9 96 3d d7 11 03 3d 1c e0 b8 3e
       -0.058052722 0.07359547 0.031999435 0.36108482
000080 9b 61 3e 3e 31 bd 33 bf 6b e9 0e 3c 6e ba 77 3e
       0.18591921 -0.7021056 0.008722643 0.24192211
000090 27 94 93 3d 3d 3c 15 3f 9b 46 7a 3d 2a e3 e5 be
       0.07205992 0.5829504 0.06110249 -0.44899875
0000a0 28 e8 57 3e 96 c1 c5 3e e3 e8 28 bf 06 33 05 3f
       0.21084654 0.38624257 -0.65980357 0.5203098
0000b0 df 3b cb 3c 94 9a 93 bd fe 6e 22 3f 4c 6e a6 3e
       0.024808822 -0.07207218 0.6345061 0.32506025
0000c0 60 a1 ba 3c f8 4e a6 bc ac 68 8f be 94 3b a3 bd
       0.022782028 -0.020301327 -0.28009546 -0.07970348
0000d0 8f fe e6 3e 2f f3 6a 3e 2c ae 4c be 4a 69 24 3e
       0.45116088 0.2294433 -0.19988316 0.1605579
0000e0 bf df 9c be f2 93 09 bf 66 61 80 bf 4f 16 1d bf
       -0.30639455 -0.5374137 -1.0029724 -0.61362165
0000f0 bc 1f 93 3e eb 33 5e 3d 4c bb 0b bf c1 38 41 3e
       0.2873515 0.05424873 -0.5458267 0.18869306
000100 ee 97 d4 be f7 bc 20 3e 9d 78 f8 3d 13 85 f8 bc
       -0.41522163 0.15697084 0.1213238 -0.030336892
000110 d5 a7 83 be 9d be 2e be 66 8b e8 3e 1c 89 3c 3e
       -0.25713983 -0.170649 0.45418853 0.18411678
000120 df 59 c4 3d a6 34 e8 3d 9e 20 d7 bd 37 16 be be
       0.09587454 0.11338167 -0.10504268 -0.37126324
000130 b7 ed f7 be 57 8a 5e be 40 c9 6a 3e 70 e9 6f be
       -0.4842355 -0.2173246 0.22928333 -0.23428893
000140 b8 d6 c3 3e 34 bb cd 3d 99 37 88 3e 5c 30 32 3f
       0.38249755 0.10045472 0.26604918 0.6960504
000150 fb 18 3f 3e 73 41 3e 3e 2c 8a 9a bc 4c 35 2e bf
       0.18661873 0.18579654 -0.018864714 -0.68050075
000160 f4 10 ea be db fe 93 bf ea d8 93 be 4f ab 82 bd
       -0.4571606 -1.1562151 -0.2887643 -0.06380331
000170 f2 b2 91 bf 80 f3 d0 3d b8 b5 ae 3e 81 ed 2d bc
       -1.1382735 0.10202694 0.34123015 -0.010615707
000180 9a 1f f2 bd be 4d ed bc 73 db 16 3f 52 5d 88 3d
       -0.11822434 -0.028967734 0.589286 0.066584244
000190 40 7f 2b be f6 01 31 3e 85 80 81 3e 35 48 35 3c
       -0.16747761 0.17285904 0.25293365 0.011064579
0001a0 ae 8f 3e 3e 5d 2f d5 be 22 97 09 be 1c ae 91 3d
       0.18609497 -0.41637698 -0.13436559 0.07113287
0001b0 d1 91 85 3c 73 4e 2a 3f 75 10 81 3e 49 8d 8c be
       0.016304882 0.66525954 0.25207868 -0.27451542
0001c0 36 7c 6c be c8 82 a4 3b ee 68 8e be f8 5a 28 bd
       -0.23094258 0.005020473 -0.2781443 -0.04110238
0001d0 5e fa 48 3d 24 28 01 be 63 f7 04 bf 47 82 3c bf
       0.049066894 -0.12612969 -0.5193998 -0.7363629
0001e0 ec 27 f4 be e9 c9 23 be c3 2a 80 3d b6 42 ba 3e
       -0.47686708 -0.15994991 0.06258156 0.3637902
0001f0 07 23 cc be 90 be cb bd ca 88 0b bf 5e c0 bf be
       -0.39870474 -0.09948456 -0.545056 -0.37451452
000200 04 a1 d8 3e ab 2d 30 bf d6 cc de 3e 1d 8d d4 be
       0.42310345 -0.68819684 0.43515652 -0.4151391
000210 be e1 14 3e 48 3c 88 be b0 d3 14 be 1c f4 4d bc
       0.14539239 -0.2660849 -0.14533877 -0.012570407
000220 ca 3f 67 3e 8c f1 18 3e e7 af cd 3c 19 05 22 be
       0.22582927 0.14935893 0.02510829 -0.15822257
000230 27 42 04 bf bf a2 72 be 6b 00 14 bd be 11 a9 bd
       -0.5166344 -0.23694895 -0.03613321 -0.08255337
000240 16 23 89 bc 68 d4 c7 be 22 c4 78 bd b6 e1 42 3e
       -0.016740363 -0.3902924 -0.06073392 0.19031414
000250 b1 2d a2 bd af 59 02 3e c2 3e 46 bd e6 83 f1 be
       -0.07918871 0.12729524 -0.048399694 -0.47170943
000260 d9 a0 c9 3d 24 64 58 3d 3a ab 85 be d1 e1 b0 3d
       0.098451324 0.052829877 -0.26107198 0.08636821
000270 d7 16 f2 3c ba fb 39 3e 78 35 db bd 4f 88 99 3d
       0.029551907 0.18162432 -0.10703558 0.07496702
000280 4f 11 fe bc 2a 3a 8f 3e c1 61 8a 3e 5c 6b 86 be
       -0.031014113 0.27974063 0.27027705 -0.26253784
000290 16 5e 2a be 3d 15 0d 3d 94 90 ad bd 60 41 81 bd
       -0.16637453 0.034444083 -0.08474842 -0.063112974
0002a0 6a 38 0c be 02 41 97 be a0 97 ae 3e b0 ed 22 3e
       -0.13693395 -0.29541785 0.34100056 0.15910983
0002b0 14 ba 23 bc e4 f3 07 be 11 24 97 3c 3e 83 11 3d
       -0.009993095 -0.1327663 0.018449815 0.035525553
0002c0 63 c3 d5 be e3 b8 24 3e 23 f8 5c be 49 6f c5 3d
       -0.4175063 0.16086154 -0.21579032 0.096403666
0002d0 8f 8f 7b 3e 2b 76 38 3d 3f 99 02 3d 2a 62 59 bd
       0.24566482 0.04503457 0.031884428 -0.053072132
0002e0 c5 54 b3 be 93 6b 6a 3d 15 ed 7d 3d f1 20 a5 be
       -0.35025612 0.057231497 0.061993677 -0.32251695
0002f0 12 c6 83 3e 52 d8 dc 3e fc 3e 88 3d 33 c9 70 be
       0.25737053 0.4313379 0.06652638 -0.23514251
000300 71 5b 04 be 64 a2 b4 bd 36 01 0b be ff b5 f7 3d
       -0.12925507 -0.08820036 -0.1357468 0.1209526
000310 4d e7 86 be ec 89 e5 bd 61 8c 42 bf 1f 17 98 be
       -0.26348343 -0.11207947 -0.7599545 -0.2970514
000320 d4 34 af 3e b0 3f 6e 3e 2c 36 80 be 67 ce d8 be
       0.34219992 0.23266482 -0.2504133 -0.42344972
000330 13 63 54 3e ce c8 ca 3e a2 3b 4f bf ec ed 35 3e
       0.20740919 0.39606327 -0.8095037 0.17766541
000340 d5 7c 0e bf ff da a3 3e ce 70 7e 3e ad 64 38 3b
       -0.5565923 0.32003018 0.24847719 0.002813618
000350 63 8d c8 be af 2e df bd ef 21 17 bf 56 a0 ad 3e
       -0.3917037 -0.10897576 -0.59036154 0.3391139
000360 c7 1f d1 be 51 34 23 3e 92 d1 20 3d 1a 60 b7 3e
       -0.40844557 0.15937926 0.03926236 0.35815507
000370 50 38 13 3f 82 7c 7c bc 84 22 c4 3b 50 89 5c 3e
       0.575078 -0.015410544 0.00598556 0.21536756
000380 46 cc 68 3e 9b 50 97 3e 9f 18 2f bd 26 a0 c4 ba
       0.22734174 0.29553685 -0.04274809 -0.0015001341
000390 fb 31 13 be 21 14 1c 3f a4 ea 21 3e 35 e7 40 be
       -0.14374535 0.60968214 0.15812165 -0.18838198
0003a0 b3 aa a4 3e 81 1e 6e 3d d3 fa 8d 3d 76 23 e6 bc
       0.32161483 0.05813456 0.069326065 -0.028093081
0003b0 5a b7 4e be 02 87 fb bd dc 4b c3 bd a9 50 07 3e
       -0.2018713 -0.1228161 -0.095359534 0.13214363
0003c0 e8 68 d3 3e 29 3b 71 3d d3 43 07 bf 18 46 33 3e
       0.41290975 0.05889431 -0.52837867 0.17507207
0003d0 ac 95 12 be 1b 89 30 be 8d c3 11 be 21 ff 69 3e
       -0.14314908 -0.17239802 -0.14234753 0.2285123
0003e0 d7 4a f4 3e 55 96 e0 bd 60 71 e6 3d ed fb 3d 3e
       0.47713348 -0.109661736 0.11252093 0.18553133
0003f0 2a 76 99 3e 01 52 80 be a1 40 e0 3e f4 1f d0 3e
       0.29972965 -0.25062564 0.43799308 0.40649378

weight f4 [256, 256]
000000 d4 ca ca bc fd cf 51 3d d0 fa c7 3c 4e 09 b1 3d
       -0.02475492 0.051223744 0.024411589 0.08644353
000010 a3 0c b6 3d b2 12 aa bc 96 b9 90 bd 68 87 d0 bd
       0.08889129 -0.020760868 -0.07066648 -0.10182077
000020 4c bf 57 3c e3 51 fb bd f1 34 85 bd af ee 3e 3d
       0.013168167 -0.12271478 -0.065042384 0.046614345
000030 40 53 06 3e eb f8 4b 3e 2f 0e 37 bd f8 8d 11 3c
       0.13117695 0.19919173 -0.04469126 0.008883946
000040 9f ad 24 be 93 54 5d 3e 0f 1c f1 3d c7 e8 ae bb
       -0.16081856 0.21614294 0.1177293 -0.005337808
000050 7f 56 f8 bd c5 10 40 3d 00 77 f5 bc ff 40 c1 bd
       -0.12125873 0.046890993 -0.02996397 -0.09436225
000060 6b ab 96 3d c1 32 15 be 33 4a 23 be c2 21 07 bd
       0.07356914 -0.14570142 -0.15946274 -0.03299118
000070 71 5e ef bc 02 26 05 3d a0 68 48 bd dd b0 da 3c
       -0.029219838 0.03250695 -0.048927903 0.026695663
000080 06 34 fd 3e 1e 87 a0 bd 80 1c 49 bd e1 d9 9b 3e
       0.49453753 -0.078382716 -0.049099445 0.30439666
000090 30 f0 a4 bb 94 b8 72 bc a2 af c9 bb 74 03 e5 b8
       -0.0050335154 -0.014814515 -0.0061549703 -0.00010920214
0000a0 89 6b 78 3e 54 4c cb be 72 68 92 3c 46 5d 0c bd
       0.24259771 -0.3970667 0.017872069 -0.03426864
0000b0 60 f4 c6 3b 3a 4b 85 3c 1f 9a cf bd 70 ca 45 3d
       0.0060716122 0.016271222 -0.10136818 0.048288763
0000c0 07 fa c6 bd 04 32 97 3d 64 a4 2e 3c eb e5 94 3d
       -0.09715658 0.073825866 0.010659311 0.07270416
0000d0 ad 36 84 bc 80 46 ed 3b 38 d7 7c bd cd 84 b9 bd
       -0.016139353 0.0072410703 -0.061728686 -0.09058533
0000e0 ad 97 ce 3b e3 55 03 bf 94 73 a7 3e 44 d8 40 bd
       0.0063047023 -0.5130293 0.32705367 -0.047081247
0000f0 66 46 85 3e 46 99 06 3f 34 1c ee bd bc d5 92 be
       0.26030272 0.52577627 -0.11626473 -0.2867869
000100 23 6e 9a bd 89 93 99 bd 93 ff b1 bd 75 8e 9b 3d
       -0.07540538 -0.07498843 -0.08691325 0.07595531
000110 ea 10 2e 3e 41 54 02 3c f9 91 09 3d 36 f6 8b bd
       0.1699864 0.007954658 0.033586476 -0.068340704
000120 a2 ec 96 bd 7c 62 87 bd 96 71 93 3d 2d 8a 90 bb
       -0.07369353 -0.06610581 0.07199399 -0.004411003
000130 0c 61 29 be 26 c2 3f 3d 2b dc 36 bd 9e 49 22 3d
       -0.16540927 0.046816014 -0.044643562 0.039620988
000140 d5 22 38 3d 02 26 e2 bc ce ea fb 3d aa 0f dd 3d
       0.044955093 -0.027606014 0.12300645 0.10794003
000150 38 14 1b be 20 70 88 bd ca 4c 17 3d 8f db 6d 3c
       -0.15144432 -0.06662011 0.036938466 0.014517679
000160 1c 06 7d bb 31 d3 39 3d 0e 3c b2 bd 32 f0 d1 ba
       -0.0038608378 0.045367423 -0.08702861 -0.0016017018
000170 dd 54 12 3d 4f a4 36 bd 74 ed 2b 3d 63 12 b7 bd
       0.035725463 -0.04459029 0.0419745 -0.08939054
000180 8f 81 d7 3e c7 55 ae 3d 8e 98 33 bd bd de 2c 3d
       0.42091033 0.085124545 -0.04384666 0.042204607
000190 41 59 ad 3e 23 bc 03 be ca 89 6a 3e c5 70 0b bf
       0.33857158 -0.12864737 0.22904125 -0.5446895
0001a0 38 84 e8 3d 96 2c a1 3d 99 13 be 3b 72 4f e1 3d
       0.11353344 0.07869832 0.005800676 0.11001481
0001b0 2d d9 09 3e a5 9f 40 3c 36 01 25 3e d4 a0 4d 3e
       0.13461752 0.011756812 0.16113743 0.20080882
0001c0 30 9f 37 bd 6f 5f bc bd 2b 69 74 bd 70 d2 c5 3d
       -0.044829547 -0.0919789 -0.05967061 0.096592784
0001d0 27 13 b7 bd 6b ac ef 3c ed bd 16 bc 67 29 65 39
       -0.089392 0.02925702 -0.009200555 0.00021854565
0001e0 f3 19 f1 bd 67 6f d1 3c 31 e3 8c be be 1f 90 be
       -0.117725275 0.025565816 -0.27517083 -0.28149217
0001f0 5a 12 5d 3d cc c9 08 3d 5e 5c 94 bc 5f 7f be bd
       0.05397258 0.033395573 -0.01811045 -0.09301638
000200 3d 7e 56 bc f3 45 03 bc ab 09 10 be 95 90 6e 3e
       -0.013091621 -0.008012283 -0.14066188 0.23297341
000210 c4 aa a6 3d de cf b3 bd ff b6 9a bd 26 09 b8 bc
       0.0813804 -0.08779882 -0.07554435 -0.0224653
000220 6f 68 af bc 8e 95 85 38 fe 6b 17 bc c6 9c 33 3d
       -0.021412103 6.369791e-05 -0.009242056 0.043850683
000230 79 2e c7 bd ec db 85 bc 04 7d c1 3d e2 be d4 3c
       -0.09725661 -0.016340218 0.09447673 0.025969926
000240 03 04 ea 3c 9a f5 70 3d ee 14 5e 3d bf 37 50 be
       0.028566366 0.058827974 0.05421918 -0.20333765
000250 3d 9c 24 bd 27 7b 86 3d ee a8 b6 bc 16 78 e1 bc
       -0.040188063 0.06566458 -0.022297349 -0.027523082
000260 7b ad 80 3d 98 94 af 3d 8b c2 a0 3d ec 9c 21 be
       0.06283089 0.08573264 0.07849606 -0.15782517
000270 26 35 5a 3d 2b 73 a7 bd b0 6d d0 bd 88 38 e6 3d
       0.053273343 -0.081762634 -0.10177171 0.11241251
000280 b2 fd 77 bd 04 17 12 3d 8c d0 63 bd 11 60 a4 3d
       -0.060544677 0.03566648 -0.055618808 0.08026136
000290 29 46 d9 bd bc 80 34 3d c2 42 99 3d 20 9e 7a bb
       -0.10609085 0.044068083 0.07483436 -0.0038241223
0002a0 fe 99 b5 3d d4 9d d3 3d 63 c6 41 3d 4b cf b1 3d
       0.08867262 0.10332838 0.047308337 0.08682116
0002b0 8b 1b 84 bd 4d d9 19 bd 32 4e 08 3d 58 22 cd be
       -0.06450566 -0.03756075 0.033277698 -0.40065265
0002c0 09 a3 85 3d 9f 44 84 3b 18 4b b0 3d ca 70 a7 bd
       0.06525237 0.0040365006 0.08608073 -0.0817581
0002d0 da b1 0e bd 21 1e a6 bd 2d 28 a8 3b ea 2d 00 3d
       -0.03483758 -0.081112154 0.0051317425 0.031293787
0002e0 6a 21 4f be 2a ba d1 bd 20 71 11 3d 76 b8 ed bd
       -0.2022759 -0.10240586 0.035508275 -0.11607449
0002f0 23 9e b5 3b b7 cd b0 3d c7 64 80 bd 41 31 e6 bc
       0.005542533 0.08632987 -0.06269222 -0.028099658
000300 b2 41 16 bd ee d6 40 be 6d 8b 3d 3d e4 54 b3 3e
       -0.036683746 -0.18831989 0.046275545 0.35025704
000310 3a 0d 06 3c 9b 46 41 bc bb 85 27 bd 22 93 2f 3d
       0.008181864 -0.011796619 -0.04089902 0.042864926
000320 12 1c 96 bd 9a 11 52 be 98 84 3c 3e e8 c6 7b 3c
       -0.07329573 -0.20514527 0.18409956 0.015367247
000330 3d 02 a0 bb 34 af 3a 3e 06 96 2c 3e 87 7a 5b 3c
       -0.0048830793 0.18230897 0.16854104 0.013395912
000340 41 b5 01 3e d2 d5 2f 3d 14 62 7d 3c ed c9 96 bc
       0.12666799 0.042928524 0.015465278 -0.018406833
000350 7e a9 ae 3e 78 1d 4a 3d 5f b0 80 be d6 86 34 be
       0.34113687 0.04934451 -0.2513456 -0.17629561
000360 65 5f 29 3e a9 1e 0b 3e de f3 06 be 20 e5 d5 3d
       0.16540296 0.13585915 -0.13178965 0.10444093
000370 2c b2 a1 bc b2 f2 24 3d a5 24 30 bd cd 91 21 3c
       -0.01973828 0.040270515 -0.043003697 0.009861422
000380 f0 c4 0a 3c d4 92 8a 3d 52 18 e3 3d 65 a4 8d bc
       0.008469805 0.067662865 0.11088623 -0.017290303
000390 57 2b 3f 3d 65 77 55 3d 1f 15 0c 3d 9c 74 b0 bd
       0.04667219 0.052115817 0.03419983 -0.086159915
0003a0 6f 4c 61 bd 0f 0e 38 3d 08 1a 8a 3d 12 38 81 3d
       -0.055004533 0.044935282 0.06743246 0.06309523
0003b0 ad d0 5f be 8e 59 52 3d 76 1d 8d 3e 21 13 d4 3c
       -0.21856947 0.051354937 0.2756154 0.025888028
0003c0 84 4d 38 3e bd 8b ae 3c 08 0d e4 bd ae e9 57 bd
       0.1799832 0.021306867 -0.11135298 -0.05271309
0003d0 01 91 73 bd 62 18 6a 3d 60 e3 68 3d 1f a7 9d 3c
       -0.05946446 0.05715216 0.056857467 0.019244729
0003e0 79 31 f7 3d 96 55 0f 3d 4c b4 b7 3d e2 b7 b5 3d
       0.12069983 0.03499373 0.08969936 0.088729635
0003f0 76 45 43 3c a8 d9 15 bc 9f a1 eb 3c e6 4e a0 3b
       0.011918416 -0.009146132 0.02876359 0.004892218

bias f4 [256]
000000 28 8f aa ba 52 26 96 3c b9 a3 ab 3d 3f b5 71 bc
       -0.0013012635 0.01832882 0.08380837 -0.014752685
000010 75 4e 3b bd b3 29 cf bd b7 6b 77 bd 38 19 8b 3d
       -0.04572912 -0.10115375 -0.06040546 0.067919195
000020 ba 99 1a 3e d4 6e 02 be 4b fd de 3c 81 3e 2a bc
       0.15097705 -0.1273759 0.027220389 -0.010390879
000030 eb 55 ac 3d b7 a1 ab bd d5 50 e3 bc ec 98 25 bd
       0.08414825 -0.08380454 -0.027748505 -0.04042904
000040 2f 97 f5 bb 6d 65 58 bd 54 f9 9b 3d 30 b1 93 bd
       -0.007494829 -0.052831102 0.07615915 -0.0721153
000050 db 1b 86 3c 69 8f 80 bd 7b ca a6 3d ca c2 5c 3e
       0.016370704 -0.06277353 0.08144089 0.21558681
000060 44 7f 23 be 8d 38 0a 3e a3 d6 3b 3d 60 b6 ac bd
       -0.15966517 0.13498135 0.04585899 -0.08433223
000070 e3 11 e7 bd ca a0 dc bd e6 c0 0b 3e d0 bc 0d 3e
       -0.112827085 -0.107728556 0.13647804 0.13841558
000080 11 6b 57 bd b1 85 6f 3a 7f 56 a5 3d 6a 67 73 b9
       -0.05259234 0.0009137048 0.080731384 -0.0002321281
000090 db ef 09 be 92 e4 38 bc de c2 5e bd 05 cc 26 be
       -0.13470404 -0.011284964 -0.05438506 -0.16288765
0000a0 0a 5c 5b bd 74 c7 42 3d a3 22 d2 3c 44 4a d6 bd
       -0.053554572 0.047553495 0.025651282 -0.10463384
0000b0 e9 9a 2c bd ea 4e 0e 3d 92 52 fd 3d 15 ac 2b 3e
       -0.04213992 0.034743227 0.12369265 0.16764863
0000c0 93 a0 9b bc 16 6d 9e 3d 65 a5 1f bd 8d 58 fb 3c
       -0.018997466 0.0773565 -0.038976092 0.030681873
0000d0 65 c8 09 be e9 84 f8 3d db 2d fc 3d c9 38 0c bd
       -0.1345535 0.121347256 0.12313434 -0.034233842
0000e0 e9 c9 73 bd 05 14 47 3d 2f cd 5c 3e f3 a0 df 3c
       -0.05951873 0.048603076 0.21562646 0.027298426
0000f0 47 76 a1 bc 60 59 73 3d fa 2b 0b be 13 82 2e 3c
       -0.01970972 0.059411407 -0.13590994 0.010651129
000100 11 21 bd bb 0c 37 1a 3d cf a0 72 3a 6b cb 76 bd
       -0.005771764 0.037650153 0.000925553 -0.06025259
000110 cc 7a b6 bd 7a 09 74 be 60 66 6a bd 4f b2 8f bc
       -0.089101404 -0.2383174 -0.05722654 -0.017541079
000120 a2 66 9c bd 6b 66 b9 3d c5 38 02 3d 5b 5d 4d 3d
       -0.07636763 0.09052738 0.03179242 0.05013786
000130 cf 7a 16 3c 87 1e 21 3d ca f3 69 3d e2 a7 2a bd
       0.009184553 0.039335754 0.05711726 -0.04166401
000140 6b de 28 be 14 85 35 3d 2e 8f 44 bc 5c aa 02 bd
       -0.16491096 0.044316366 -0.011997027 -0.03190075
000150 c3 e9 ef bd c7 99 db 3d 19 ad a8 3d aa e2 39 3d
       -0.117145084 0.1072269 0.08236141 0.04538218
000160 c2 23 3a 3e 5b 96 66 bd 85 b7 95 3d 42 27 c0 bc
       0.18177703 -0.056295734 0.07310394 -0.02345622
000170 8f a4 46 3d 3a 56 f0 3d fc 25 ad 3d 37 e8 53 3d
       0.04849678 0.117351964 0.084545106 0.05173513
000180 65 8f 16 be 02 81 7a 3e 8a 30 16 be dd ca 74 3b
       -0.14703138 0.24463275 -0.14666954 0.0037352361
000190 a1 6e 5c 3d d0 84 0f be 0a 1a 0f be ba c1 d7 bc
       0.05381644 -0.14015508 -0.13974777 -0.026337493
0001a0 96 e8 a7 bd 7c e2 77 bd 4f 66 bc bd 9b ec f6 3d
       -0.08198659 -0.060518727 -0.09199201 0.12056848
0001b0 51 8a 19 3e 48 56 1f 3d 1e 8a ad bd d6 b3 b7 3d
       0.1499417 0.038900644 -0.084736094 0.08969848
0001c0 d2 2c dc bc c8 17 53 3c 68 24 61 bd 31 85 31 3d
       -0.02687684 0.012884088 -0.05496636 0.04333991
0001d0 95 2e cd bd 28 85 07 be da b2 31 bd 56 67 a3 bd
       -0.100186504 -0.13234389 -0.043383457 -0.07978694
0001e0 f9 c6 df bc 18 04 2c 3e bb 48 50 3d ff 44 9c bc
       -0.027316557 0.16798437 0.05085061 -0.019075869
0001f0 71 28 4f bc 49 40 04 3d fd 48 10 bd 85 6e 02 bc
       -0.012643919 0.03228787 -0.035225857 -0.00796092
000200 4c 5e c8 bd f4 4c ff 3c 6e 6c 59 3d 38 d2 cd 3d
       -0.09783611 0.031164624 0.053081922 0.10049862
000210 c9 a5 f0 bd 4e 09 7c 3b 17 08 cf 3d dd f6 ae 3d
       -0.11750371 0.0038457694 0.10108965 0.08543179
000220 f5 ec d9 bd a9 74 01 bd df 3e 4f bd 66 03 cf bd
       -0.10640899 -0.031605396 -0.050597068 -0.1010807
000230 34 0c 02 3e 5b ae 3a bc 53 5d 23 bd 93 44 ea bd
       0.12699968 -0.011394109 -0.039883923 -0.11438861
000240 dd c0 8c 3d 64 a7 5e 3c 26 5b 7c bd f4 9b 49 3e
       0.06872723 0.013589714 -0.061610363 0.19688398
000250 db 76 3d 3d c4 19 2a 3e e3 f0 c3 bc 8b 77 89 3d
       0.046255928 0.16611391 -0.023918575 0.06712254
000260 f3 c4 42 3d a9 d9 33 3d ba 2a 28 bd 29 4a 09 bc
       0.047551107 0.04390875 -0.041056372 -0.008379498
000270 09 42 f6 3d 0b bb b1 3b 23 7b 05 be 50 02 c4 bd
       0.12024314 0.0054239086 -0.13035254 -0.095707536
000280 74 ce 23 3d 5c c0 94 bc 5c 29 b7 3c 81 92 87 bc
       0.03999181 -0.01815813 0.022358589 -0.01654935
000290 f4 41 a0 3d f2 e3 32 be 70 07 a3 3d 98 49 48 bd
       0.078250796 -0.17469767 0.07960403 -0.04889831
0002a0 96 06 24 bc 07 de 5b bd f5 c5 12 bc a5 c7 30 3d
       -0.010011336 -0.05367854 -0.008958329 0.043159146
0002b0 88 72 ac bc 98 f9 38 bd 6a 5e 44 3d a9 39 de 3d
       -0.021050707 -0.045159906 0.047941603 0.108508416
0002c0 f3 31 5d 3d 95 d5 bb bd 70 d4 ca bd f8 fb ff bd
       0.054002713 -0.09171597 -0.099038005 -0.12499231
0002d0 df d1 8b 3d 9a ef f7 3c 26 86 34 3e 01 1d 2f bd
       0.06827139 0.030265618 0.17629299 -0.04275227
0002e0 64 17 de 3c fa 78 c6 bd 51 f4 33 3e c1 a0 03 bd
       0.027110763 -0.09691043 0.17573668 -0.03213573
0002f0 0f 97 7f bd a3 de 8c bd 64 39 e3 bc 42 c5 5d bb
       -0.06239992 -0.06878402 -0.027737327 -0.0033839499
000300 46 dc ac bc 0c 3c 07 3e eb 25 d2 bd 47 e5 e3 3d
       -0.021101128 0.132065 -0.102611385 0.111277156
000310 fb 30 06 3d a5 c9 5d bd 49 42 a0 3b fc 46 24 3d
       0.032761555 -0.05414738 0.0048907143 0.04010676
000320 3d bb 8e 3d 37 b1 d5 bd a6 8e d4 3d c0 f3 12 bd
       0.069693066 -0.10434192 0.103787705 -0.03587699
000330 b6 fc 8d 3c 12 8a 4d bd a2 0d fb 3c 14 2d 7a 3d
       0.017332416 -0.050180502 0.03064615 0.061078146
000340 42 8f 29 3e 2f f0 e0 3c c8 f4 86 bd 5d 3a b7 bd
       0.16558555 0.027458278 -0.06589657 -0.08946679
000350 9e 51 10 bd 11 59 05 3e 04 c3 e0 bd 16 4b e6 3d
       -0.035234086 0.13022257 -0.10974696 0.1124479
000360 d5 c8 d0 3c 6c 0d 34 3e 5e 5a 19 3d 26 c6 45 bd
       0.02548639 0.17583245 0.037439696 -0.048284672
000370 71 b8 2c 3d 69 73 a5 bc 7e 28 6b 3d d5 c1 f1 3d
       0.042168085 -0.020196633 0.057411663 0.11804549
000380 a5 a5 0c 3e 55 33 11 bc a6 0c 9d 3c 47 1e 8c bc
       0.13735063 -0.008862336 0.01917107 -0.017104281
000390 c1 b6 87 bc 4d d1 24 3c a5 0a ce bc 61 7b 21 be
       -0.016566636 0.010059667 -0.02515156 -0.15769722
0003a0 cd 94 72 bd b4 56 b0 3d e7 e9 62 bd 51 93 ca 3d
       -0.05922394 0.08610287 -0.055398848 0.098913796
0003b0 13 01 f8 bc 4f 41 c7 3d 56 b9 1e be 91 01 84 bc
       -0.03027395 0.097292535 -0.15500388 -0.016114028
0003c0 5b 53 15 bd cc 49 70 3c b8 78 1e bd 36 e1 1e be
       -0.036456447 0.014666032 -0.038689345 -0.15515599
0003d0 80 13 8e 3d 1f 15 96 bb 4a ea c4 3a 81 d9 6d 3d
       0.06937313 -0.0045801545 0.0015023437 0.058068756
0003e0 4e de d1 bd 22 c5 3f 3d c0 60 f9 bb 03 34 8e 3b
       -0.102474794 0.04681886 -0.0076104105 0.0043396964
0003f0 cd 36 f4 bd 0f e1 87 bc c4 e3 43 3d 62 f6 de 3d
       -0.11924515 -0.016586808 0.047824636 0.108868375

weight f4 [256, 256]
000000 e2 39 23 bd 8c dc 5d bc e7 43 7a bc b3 4b ae 3b
       -0.039850123 -0.013541352 -0.015274978 0.0053190826
000010 4d 53 cb bc 32 47 cf bc 8b 87 85 bc ef de 30 3d
       -0.024819994 -0.025302503 -0.016299983 0.043181356
000020 0f 6e ff bc 1d 9a d0 bc cd 40 84 3b fe ab b4 3c
       -0.03118041 -0.025464112 0.004036045 0.022054669
000030 6e 69 e3 3c 89 a1 2f bc c4 78 7a 3b 33 b6 84 bc
       0.027760234 -0.010719665 0.0038218955 -0.01620016
000040 d8 5d 34 3a ba ba b8 3b 22 66 18 bd 99 31 6c bc
       0.0006880439 0.005637494 -0.037206776 -0.014416122
000050 16 2d c4 3b f8 1e 4d 3d 9e 76 75 bc ff dc 2a bd
       0.00598682 0.050078362 -0.014981894 -0.041714665
000060 7e 34 10 3d 4d 81 13 3c 8e 9a fa bc 16 85 5a 3d
       0.03520631 0.009002996 -0.030591276 0.053349577
000070 ce 19 e3 3c 30 84 a7 3d 91 1f 92 bc 44 41 88 bd
       0.027722266 0.0817951 -0.017837318 -0.066530734
000080 6b 6c 76 3d 73 b7 6c bd d8 9b b4 bc 15 9d 50 3b
       0.06016199 -0.05779214 -0.022046968 0.003183191
000090 99 69 44 3d ae 71 65 3c b4 3d ba bc e8 37 61 3c
       0.04795227 0.014004154 -0.0227345 0.013746239
0000a0 b8 3c 69 bd 59 ba 76 bc 28 5a e3 bc 85 fb 7c 3b
       -0.05694267 -0.015059077 -0.02775295 0.0038602066
0000b0 72 23 a1 3b b0 df a9 3c 0f 12 fe 3c 41 89 74 3d
       0.0049175555 0.020736545 0.03101447 0.059701208
0000c0 67 5c c5 3c d8 64 e8 3c f2 da 1d 3d 07 b2 6b bc
       0.024091912 0.028368399 0.03853888 -0.014385707
0000d0 0b 56 36 bd 39 86 69 bc 0f d5 99 bc 13 36 8e 3c
       -0.04451565 -0.014253193 -0.018778352 0.017359769
0000e0 b2 23 52 3c 38 59 bf bb f1 de 11 bd 1e d4 0f bd
       0.012825893 -0.005839493 -0.035613004 -0.0351144
0000f0 7b 0b 9b bb 73 22 db bc 0e a2 97 bc cf 5b b1 bc
       -0.004731593 -0.026749825 -0.01850989 -0.021650223
000100 24 ac df 3b c3 30 e0 bc 32 1b 39 3c 13 3b 1c 3d
       0.0068259407 -0.027367001 0.011297988 0.038142275
000110 f4 79 61 bc 0c 0e a7 3c 9c c9 9c 3c 93 a5 0b 3d
       -0.013761986 0.02039244 0.019139104 0.03409345
000120 4a 23 a4 bc 7b a2 4a 3b ea 40 24 3d a9 c0 9a 3d
       -0.020036358 0.00309196 0.04010097 0.07556278
000130 da 5d 0c bc 3d b8 ab bc e3 f4 e1 3c 75 33 eb 3b
       -0.008567298 -0.020961875 0.027582591 0.007177765
000140 75 dc 37 bd 0d f1 83 3c b8 d7 06 3d d4 88 94 bd
       -0.04488798 0.016106153 0.03292057 -0.072526604
000150 17 ce 4d 3c 64 bd b2 3c 79 86 98 bc 45 3a af bc
       0.012561343 0.021818824 -0.018618809 -0.02139009
000160 9c b6 75 3d 04 cc 9f 3c e8 fe f0 bb be 1c 29 bd
       0.059988603 0.019506462 -0.007354606 -0.041287176
000170 70 02 31 bc 5c 0a 15 bd fa c8 eb 3c 62 d7 8d 3c
       -0.010803804 -0.036386833 0.028782357 0.017314617
000180 2a 8b 6b bb a5 44 3b bd 54 ef e4 bb b9 07 08 bd
       -0.0035941103 -0.04571976 -0.006986538 -0.03321049
000190 6a d2 61 bc 5c 60 05 bd 25 fc d6 3b 2c 85 7e bc
       -0.013783077 -0.0325626 0.0065608197 -0.01553468
0001a0 3e 26 ed 3b 7d 85 bb bc 3d 53 98 3c 29 0c 28 bd
       0.007237225 -0.0228908 0.018594379 -0.04102722
0001b0 05 e8 76 bd 46 0a bd bc df 1c a2 bd 06 21 d8 bc
       -0.060279865 -0.023076188 -0.07915663 -0.026382934
0001c0 54 a6 05 3e c5 45 22 bc 8c db 8c b9 f7 8d 8e 3d
       0.1305173 -0.00990433 -0.00026866456 0.069606714
0001d0 a9 e9 00 3c 03 07 ec 3b 4e e3 52 3d 6b f5 de bb
       0.007868209 0.0072029843 0.051486306 -0.0068041584
0001e0 dc 87 9d 3a 95 8a 31 3b 41 73 41 bc 0f 92 08 bc
       0.0012018639 0.0027090658 -0.011807264 -0.008335604
0001f0 1d 97 56 3c 4b a2 e1 bb a6 06 77 bb a3 ee a0 bc
       0.013097552 -0.006885802 -0.0037693172 -0.01964504
000200 98 ab 9c 3c 4a 54 12 ba f5 a7 e0 3c 09 0e 91 3d
       0.019124791 -0.0005582018 0.027423838 0.07082755
000210 12 74 63 bc a7 51 85 3c bb b1 81 bc 3d 43 d7 3c
       -0.013882654 0.016274286 -0.015831819 0.026277179
000220 f4 05 10 bd 60 24 86 bc 18 24 ea 3b b3 19 2e 3c
       -0.035161927 -0.016374767 0.007145416 0.010626244
000230 77 a5 bd bc 38 cb 09 3d 31 64 a0 bc ad cb 71 bc
       -0.023150189 0.03364107 -0.019579025 -0.014758033
000240 c8 28 3c 3d ec 36 cd 3a 6f b2 7c bd f5 3e 81 bd
       0.04593733 0.0015656627 -0.061693605 -0.06310836
000250 c9 48 49 bd 30 a6 0c bd 40 2d 4a 3b a1 a9 46 3d
       -0.04914168 -0.034338176 0.0030849725 0.048501614
000260 52 22 49 3c d6 1e 06 bd e3 97 16 3d 0b ea 1c bd
       0.012276249 -0.03274425 0.036765944 -0.03830914
000270 c0 36 e2 bc 8f 7d 51 3c 67 ee 22 bc 95 12 bd bc
       -0.027613997 0.012786283 -0.009944535 -0.02308015
000280 d0 af 85 3c eb d8 e8 3c 9a 0e 99 bc 9f 39 dc bc
       0.016319185 0.028423747 -0.01868372 -0.026882945
000290 b1 dd c9 3c 4b 10 0e 3c a5 c5 a1 bc 5f 82 4b bc
       0.024641844 0.008670877 -0.019747565 -0.01242122
0002a0 26 72 91 bd e1 9e 56 bc 5b 27 1f 3c f0 e2 17 3d
       -0.0710185 -0.013099403 0.009713973 0.03708166
0002b0 6a 2d 0f 3d 7f 36 49 3c fb be f2 bc ce 9d aa bb
       0.03495542 0.012281059 -0.029632082 -0.0052068
0002c0 3c 86 13 bd 8f ee b9 bb bf 12 f2 3c 1c b9 ae 3c
       -0.036016688 -0.0056741904 0.029549954 0.021328501
0002d0 92 b3 13 3b 51 6a c6 bc e2 3e c9 bc 7b f9 26 3b
       0.0022537452 -0.024220617 -0.024566118 0.0025478292
0002e0 4d 03 45 3d a5 2d c2 3c 4e e3 9c bc 4b b4 a2 3b
       0.04809885 0.023703406 -0.019151356 0.0049653403
0002f0 f2 ad f2 3a 9f 57 5c 3c 3f c5 09 3d f3 8b 8d bc
       0.0018514975 0.013448625 0.033635374 -0.017278647
000300 59 ca a9 3b 5a b8 b8 bc 43 07 01 bd 2a c3 5f 3b
       0.0051815924 -0.022548843 -0.031501066 0.0034143426
000310 ea 90 19 3d 25 af 8f bc e8 1a 60 3c 51 e7 47 bb
       0.037491716 -0.01753957 0.01367829 -0.0030502866
000320 7f fa 15 bd e6 1d c2 3c d7 01 f9 3c 9e 94 6e bc
       -0.036615845 0.023695897 0.030396385 -0.0145618
000330 23 3b 97 3b 37 c3 8b 3c b5 d2 45 3c 84 ae 88 3c
       0.004615204 0.01706086 0.012074162 0.016684778
000340 06 b6 1f bd c9 13 3d bc ad 71 3f 3d dd fa 66 bc
       -0.03899195 -0.011540362 0.04673927 -0.014097896
000350 99 bd 8e bb d7 93 fd bb 95 ee 8b 3c 6a 91 0e 3c
       -0.004356098 -0.007738571 0.017081538 0.008701662
000360 95 9a ad 3c 44 bd 47 3c 59 8f 9b 3c 66 56 b5 bd
       0.021191875 0.012191121 0.018989252 -0.0885437
000370 e5 8a ae bc 0a 86 3b 3d 70 19 c6 bc 57 ad 5d 3b
       -0.021306464 0.045782126 -0.024182051 0.0033825242
000380 56 72 91 3d 81 cb 21 3b b9 e0 b4 3c 8a 72 76 3d
       0.07101886 0.0024687948 0.022079812 0.060167827
000390 27 46 5a 3c b7 f0 db 3c 96 ba 24 ba fa 72 e4 bc
       0.01332239 0.02684818 -0.0006283907 -0.027886856
0003a0 59 ec d0 bc 2b 8e 28 3c 03 ce bd bc e2 af 21 3d
       -0.025503324 0.010287802 -0.023169523 0.039474376
0003b0 30 0f 0d bd 70 b9 0e 3c d4 af 4e bd e2 3e 7d 3c
       -0.034438312 0.008711204 -0.05046065 0.015456887
0003c0 3e 9b de bc e6 b5 35 3d 7a e0 9e bb 8b 43 30 3d
       -0.027173635 0.044362925 -0.004848537 0.043033164
0003d0 bf d6 65 3d 64 e2 f6 bc 7c 88 de bc 28 a8 4d bd
       0.056113 -0.030137248 -0.02716469 -0.050209194
0003e0 19 28 da bc be 8e 7d bd e0 38 2c 3c ea 43 13 bc
       -0.026630448 -0.061903708 0.010511607 -0.00898836
0003f0 fa a5 98 bc dc 54 9a 3b 60 b4 88 3c 5a 1f 82 bc
       -0.018633831 0.004709823 0.016687572 -0.01588409

bias f4 [256]
000000 7e fc 00 bd 93 0c 66 3c 40 8d a3 bc 22 6d 17 3d
       -0.031490795 0.014041084 -0.019964814 0.03696931
000010 2c 7b 6f 3d de 13 28 3d 6c 9d 44 bc 74 79 2c 3b
       0.058467075 0.04103457 -0.012000423 0.002631751
000020 87 b1 a4 bb 7d c1 a6 3c 82 a9 22 bc ee 26 5a 3c
       -0.0050260457 0.020355934 -0.009928109 0.013314946
000030 10 e6 1c 3d 12 eb b1 bc 6a 42 7e 3d 51 a4 aa 3c
       0.038305342 -0.021718536 0.062075056 0.020830305
000040 54 fa 36 bd b2 3a 00 3b a2 67 c5 39 d9 18 65 3c
       -0.044672325 0.0019566235 0.0003765198 0.013982975
000050 f6 09 db 3c 22 4c 21 bd 56 d6 9c 3a 23 97 ae 3b
       0.026738148 -0.039379247 0.0011965733 0.0053280755
000060 96 c7 90 3b 76 2f 02 3d 3e a5 08 bc 25 d6 dc bc
       0.0044183237 0.031783544 -0.008340178 -0.02695758
000070 47 c1 e9 3b 63 74 35 3d 76 94 f8 ba 2e 78 d3 bb
       0.007133636 0.04430045 -0.0018965143 -0.0064535355
000080 7e 99 46 bc ad d3 fa bc 23 bf 25 bb 69 fa c3 bc
       -0.012121556 -0.030618513 -0.0025290928 -0.023923116
000090 d6 ce eb ba 9c 45 0f ba 24 a3 40 3d e3 75 ea 3c
       -0.0017990719 -0.00054653897 0.047030583 0.028620666
0000a0 29 bd be 3c 14 aa d5 3c a2 8a ac bb 3b 94 8c 3c
       0.023283558 0.026082076 -0.0052655498 0.017160526
0000b0 b9 ed 1d bc 77 d7 7f bb c7 ae cb 3b 28 11 8e 3b
       -0.009639197 -0.003903834 0.0062159034 0.0043355413
0000c0 ae 58 16 3d 7d e8 b1 bc ad e2 59 3a d1 4d 4a bc
       0.036705665 -0.021717304 0.00083116704 -0.012347654
0000d0 46 74 f4 3a b6 29 8e 3b a9 cf db bb 3c c5 6e 3c
       0.0018650375 0.0043384684 -0.0067081046 0.0145733915
0000e0 be 92 38 bc e5 5d b8 bc a7 34 f0 bc 58 29 c8 39
       -0.011265455 -0.02250571 -0.029321982 0.00038177776
0000f0 be 66 1b 3c 33 20 a2 bc 40 32 9b 3c ad d5 8d bc
       0.009484945 -0.019790744 0.01894486 -0.017313803
000100 51 1f 76 bc e5 d4 0a 3d 9b af 38 3c 8c f0 f4 bb
       -0.015022115 0.03389444 0.011272336 -0.0074749645
000110 fe 75 35 bd 36 e1 7a 3d b8 60 05 bd 04 36 b7 bc
       -0.04430198 0.061249934 -0.03256294 -0.022364624
000120 85 0a e3 bc 7b 56 9c bc 5e ba 07 bd a7 cc 26 3d
       -0.027714977 -0.019084206 -0.033136718 0.040722515
000130 ac 1f 23 bd 89 09 8f 3d 77 33 5d bd 52 5a 8f bc
       -0.039825127 0.069842406 -0.05400416 -0.017499123
000140 cb 4e 85 bc 53 47 22 bc b4 94 1d 3d 37 50 80 3c
       -0.016272923 -0.0099047 0.038471892 0.01566325
000150 f0 b0 c7 3c b3 a6 a9 bc 2c 81 e6 bb 85 1d 40 bd
       0.024376363 -0.020709371 -0.0070344415 -0.046903152
000160 f1 a6 91 bc 76 00 d1 3c aa cd bb 39 c4 08 74 3c
       -0.0177798 0.025512915 0.0003582065 0.014894668
000170 c8 2a b0 bb da 23 3c 3c 0b e0 a9 bb ac 98 08 bc
       -0.0053761937 0.011483157 -0.0051841787 -0.008337181
000180 bb cb 5b 3d 3b 27 9c 3c dd db 09 bc 24 88 72 bc
       0.05366109 0.019061675 -0.008414236 -0.014802966
000190 c1 ba 30 bc 71 05 20 bd a8 7f 4e bc c5 0b 4b bc
       -0.010786713 -0.03906769 -0.012603678 -0.012392943
0001a0 bc 05 6e 3d 8d ab b8 3b 52 65 52 bb 2e a2 98 3b
       0.058110937 0.005635685 -0.0032103849 0.004658005
0001b0 d9 1d a5 bc 68 d4 37 3b d4 fc ac 3c f6 0c 1b 3d
       -0.020155834 0.0028050188 0.021116652 0.037854157
0001c0 b3 47 a7 3c f1 8e 63 bd 6b 13 e0 bc 2b f3 0b 3c
       0.020419931 -0.05555624 -0.02735301 0.0085418625
0001d0 30 97 77 bc f4 be b5 bc 13 b5 39 bb 55 4b 5b bd
       -0.0151117295 -0.02218578 -0.0028336688 -0.05353864
0001e0 30 b1 3c b9 c4 f9 b0 ba a3 4c 33 3d 43 f1 10 bc
       -0.00017995085 -0.001350217 0.04377426 -0.008846584
0001f0 de 1b 00 3d 05 52 b2 bb 6c 91 b4 3c ab 71 01 3d
       0.031276576 -0.0054419064 0.022041999 0.031602543
000200 69 9e 31 3d 61 b4 4c bc 15 ee 41 bd 2e 92 75 3d
       0.043363962 -0.012494178 -0.047346193 0.05995386
000210 a7 22 18 3d 20 55 19 3d e4 c2 c3 3a 74 1c aa bb
       0.037142422 0.037434697 0.0014935401 -0.00519138
000220 a3 b2 30 bd f3 c7 66 bc 5b b1 74 bc 48 90 d6 3b
       -0.04313911 -0.014085758 -0.014934863 0.0065479614
000230 3c 81 17 bb 44 fd 06 3b 27 3b 38 3d df 1a 19 3d
       -0.0023117801 0.0020597735 0.044978287 0.037379142
000240 c6 72 18 ba fa 6f ce 3c 4b 9b df bc 29 0f c3 bc
       -0.00058154424 0.025199879 -0.02729573 -0.02381094
000250 57 60 99 bc 0f d3 0b 3c 8f 3b ba 3c f6 3a fb 3c
       -0.018722696 0.008534207 0.022733478 0.030667763
000260 94 9e 3f 3c d5 c8 14 3d 08 f7 34 3d fc 6d bd 3b
       0.011695523 0.03632434 0.0441809 0.0057809334
000270 88 e1 7d 3c 69 29 02 bd ec f9 fd bb f5 e9 62 3c
       0.015495665 -0.031777773 -0.0077507403 0.013849725
000280 33 d7 8a 3c cb ed 1b 3b 91 79 d7 3b 40 b5 15 bc
       0.016948318 0.0023792859 0.006575771 -0.009137452
000290 8f 81 2a bd e5 2a 4e bc 61 3d 9d 3c 3d 9e 86 bb
       -0.041627463 -0.012583469 0.019194307 -0.004108219
0002a0 51 ca 99 3b fe 36 94 bc 6f ad f2 3c 4d 99 8d bc
       0.0046933074 -0.018092629 0.029623715 -0.017285014
0002b0 ad 00 86 bc 5c 72 8f bc 45 8d 1f bd 33 e1 20 3d
       -0.016357744 -0.017510585 -0.038953084 0.039277267
0002c0 88 34 b6 bb 76 1a d3 bc b5 c1 d4 bc 8b be ac bb
       -0.0055604614 -0.025769453 -0.025971273 -0.005271738
0002d0 39 cc 1d bd b6 d6 6c bc e1 94 21 ba 21 3b c8 bc
       -0.03852484 -0.014455488 -0.0006163847 -0.024442257
0002e0 57 ec 44 bd bc c9 b2 bc 73 29 49 3d 52 b4 d9 bc
       -0.048076954 -0.02182471 0.049111795 -0.026575241
0002f0 3d 29 cb bb 47 3b 24 bb b0 e9 11 bd 26 0e 6f b9
       -0.0061999843 -0.0025059746 -0.035623252 -0.00022798087
000300 37 3a 07 bd c0 23 13 3d e2 85 52 bb 41 11 c4 3c
       -0.033014502 0.035922766 -0.0032123257 0.023934009
000310 76 7a da bc 44 d9 04 3d fb 2d 42 3c 68 81 1a bc
       -0.026669722 0.032433763 0.011851783 -0.009430267
000320 86 ca 9f bc ca f7 27 bd e2 01 31 3b 7f 58 a3 3c
       -0.01950575 -0.041007794 0.002700918 0.01993966
000330 cb 89 c8 3b dc 13 32 bd 22 51 bb 3b 6a e8 af bc
       0.006119942 -0.04347597 0.005716459 -0.021473128
000340 42 21 04 3d fd 44 8f bb 51 36 9e bc 57 19 9d 3b
       0.03225828 -0.0043722377 -0.01931301 0.0047942805
000350 42 4b a8 3c 5d 1f 18 bd bd 3b 82 bc 07 e3 1d 3d
       0.020543698 -0.037139285 -0.015897626 0.03854659
000360 f7 8d 41 bd be fb 4b 39 65 c4 87 3c a7 61 a4 bb
       -0.04725453 0.0001945337 0.01657314 -0.005016524
000370 f9 e6 d0 bc fa 53 44 3d 10 eb f5 bb e2 f3 18 bd
       -0.025500761 0.04793165 -0.0075048283 -0.03734196
000380 f7 fa c1 bc fb bf 5e bc b3 b1 51 bb 74 cc 6f 3c
       -0.02367924 -0.013595576 -0.0031996786 0.014636148
000390 ac 4c b6 3b d8 9c 64 3d 50 b3 81 3d dc 8d a5 b9
       0.005563339 0.05581364 0.06333029 -0.00031576946
0003a0 6c b0 0e bd b3 29 5d 3c 09 0d 8c 3d a4 f2 d3 3c
       -0.034836218 0.013498711 0.06838424 0.025872536
0003b0 1a 46 14 3d 6c ed c6 ba e9 47 f8 bc bc 93 64 3c
       0.036199667 -0.0015176958 -0.030307727 0.013951238
0003c0 89 0d 73 bd d6 20 21 3b 87 4a 19 bb 63 0b 34 3c
       -0.05933908 0.0024586222 -0.002339037 0.010989043
0003d0 ba ac 84 bb c7 bc 41 3c 38 d2 f1 bc 63 af a6 bc
       -0.004048911 0.011824793 -0.029519185 -0.020347303
0003e0 c5 72 24 3d bd 2c 25 bc 8b a7 19 3d fb b4 8e 3c
       0.040148515 -0.010081467 0.037513297 0.017420283
0003f0 d7 3a 2e 3c fd 6c 99 bb 42 9b 13 3b b4 a2 b5 3c
       0.010634146 -0.004682182 0.002252296 0.02217231
