output/2023-09-14-22-52-13/trained_model/tetris_epoch3565_score16100.pt (torch, 842187 bytes, 8 tensors)

weight f4 [32, 1, 4, 4]
00000000: e0f3 70bc 6be4 d43c d2de 4cbd 581c e83c
00000010: 76e5 8dbb 0268 823d 01e7 01bb 5555 913d
00000020: e856 68be edd7 ef3d e6f8 413e 9b4b 8e3c
00000030: 9f49 463d 8972 243e 9c1d 3e3e 9e9c 31bd
00000040: 43d2 d33e 44f5 80bd bd43 cbbe 7266 96be
00000050: 7e4e 13bf 666f 5dba d2d5 cfbd bfef 47be
00000060: fc07 753d 2733 56be a9b6 5b3d 28b8 b2be
00000070: 3796 83be 8482 f23c 021e 923d f3f6 30bf
00000080: f6de e2ba 8d7f a43d 5694 56bf 91b5 52be
00000090: e0de 313d d8d9 84be 74d1 5d3e d306 93be
000000a0: c3d2 a03d e177 983e 4745 de3c 0e9e eb3c
000000b0: dd93 edbd 29eb e3bd b22b 10be 3193 aabd
000000c0: 2ee6 c4be 8186 d4be bd5c 9abd 4e6f 63bd
000000d0: 096b 833e bd94 41be 67e2 903e 8d66 ae3d
000000e0: 372f adbe fecb 643c bc5b 22bf 1a0b ba3d
000000f0: 7ebe 41be 7df4 23bf 0973 d8be c90e 983d
00000100: cbcb 61bd 0da8 44bf 442a 58bd cfb4 bdbc
00000110: a6b7 353d ee7a 143d 6c0e ce3d a357 113d
00000120: 8a7e 5a3e eff9 60bf 2e2a a13e 5758 e0bc
00000130: 7c30 a2bd a08a 87bd 3e27 053c bb19 30bc
00000140: 2781 09bd 4a26 b8ba 80a8 32be 9a22 aebd
00000150: c4af 353c 5f98 5bbb 3052 983e 1097 493f
00000160: df3d 46bb adf6 0fbb 8d13 87be c482 4abf
00000170: 5585 10bd 3a6e 64bc 3795 87bd 3608 8dbc
00000180: 161a 0dbc 6136 813d 94fd 243e 7a61 743e
00000190: d91e c93d 3de1 b8bc b545 533e 6f43 c3be
000001a0: 0f6e c43d 0be3 2f3d 6899 9e3c ba8f 08bf
000001b0: f115 103c 4655 be3a d4f5 e73d e02c c7be
000001c0: b12f 2cbd 21fa 283d 6876 353e 6d65 ebbd
000001d0: fbe7 933d eb32 ed3d d8fa 38bf 806a 1fbf
000001e0: b72e a83c cbb0 9b3d 5e10 18bf 643d 43bd
000001f0: 9263 5bbd a81d 3f3e 0182 8dbe d6e4 a2be
00000200: 2013 f0bd 3bf8 8c3d 580d 05bf 544c 4ebe
00000210: c9c7 ea3d 6c32 153e 65c0 653e 5706 d1be
00000220: 8cbb 21bd 491f 9a3d b91d 7fbe 3cdf 3dbf
00000230: 4d5f fb3d e184 98bd 4d2f c1bc e688 053e
00000240: 11fb 2fbe a92b fcbc c9fe f5bb 3024 a23d
00000250: 3053 00be ba41 8abe e1f1 ddbe daa6 30bd
00000260: 4f7b 5fbd f7fc e03e 62e7 473e bbc3 fcbd
00000270: 1c3a 903d 409e 5fbf 5bec b73d 0f0c 003d
00000280: ad8c 60bd 5621 fbbd 05df 45be 40ba 02be
00000290: 7af0 fcba 0572 87bd c9e0 43be 2316 3b3d
000002a0: cf90 c4bc 9e59 013e ea2c 153f f5f0 79bc
000002b0: f512 8dbc 85ed 06be 794c 3fbf 288b 07bd
000002c0: cf74 4dbe 393e c4bd 38c1 afbe 4752 9fbd
000002d0: bb39 cdbd 146d 01bd af68 bf3c 879a 9f3e
000002e0: f65c 17bc 66b5 7dbd 6218 203e 7ba0 08bf
000002f0: 1f7a 093d 2d5f 323d 09a2 4d3d 94c1 02bf
00000300: c67f 193e c7fb 38be fae8 1d3d 9ecd 35bd
00000310: c90f 223d 1070 0b3f b0fe 433d b7c1 6abd
00000320: 4b84 b5bd d704 14bf b492 2f3e d50f 55bd
00000330: c586 56bb 9769 08bf c7a9 3ebe 4c4e fbbb
00000340: f929 ed3c 0e34 6abd f36e 25bd 3fe3 833d
00000350: f624 0cbd 8648 393e 38db 183e d480 553c
00000360: c704 cb3c f9fa 5c3f 36f2 1dbd 7f8d 4f3d
00000370: 7cef 80bb 1da8 acbf 2703 a13d 80dd d9bc
00000380: ebeb be3c bba5 e13e c89f 2e3d 0795 3b3c
00000390: 3dcd 80bb b556 363f ee6f f33c e445 aa3c
000003a0: 98d9 92bc a344 aabf dd66 da3c be27 98bc
000003b0: baa0 73bc 3c9f 87bd af50 66bd a515 4a3c
000003c0: 51ea 5cbe bb7e a23a cfbf 223e 49bb c3bd
000003d0: f278 aebc 7325 1ebe 72d0 d4bd 9d51 efbc
000003e0: 3697 013e 496e 383e 776e 9d3d fae9 223e
000003f0: 65a9 91bc 2ffb a33d f6d5 b2bb 63f5 e73d
-0.014706582 0.025987824 -0.050017186 0.028333828 -0.0043303324 0.06367494 -0.0019821527 0.07096354
-0.22689402 0.117111064 0.18942603 0.017370036 0.048410054 0.16059317 0.18565983 -0.043362252
0.41371354 -0.06296781 -0.39700118 -0.29375035 -0.57541645 -0.00084470806 -0.10148205 -0.1952505
0.059822068 -0.2091795 0.053640995 -0.34906125 -0.25700542 0.02960325 0.0713463 -0.69126815
-0.0017308879 0.08032141 -0.8382009 -0.20577075 0.04342544 -0.25947452 0.21661931 -0.28716144
0.078526996 0.2977896 0.027132643 0.02876189 -0.11600468 -0.111288376 -0.14079168 -0.08328856
-0.38456863 -0.41508868 -0.0753722 -0.05552607 0.256676 -0.18904395 0.2829773 0.08515654
-0.33825085 0.013964651 -0.63421226 0.09084149 -0.18920323 -0.64044935 -0.42275265 0.07424695
-0.055125993 -0.76818925 -0.052774683 -0.023157505 0.044364594 0.036250047 0.100613445 0.035483968
0.21337333 -0.8788137 0.31477493 -0.027385874 -0.07919404 -0.066182375 0.008127032 -0.010748322
-0.033570435 -0.0014049497 -0.1744709 -0.085026935 0.011089269 -0.0033507568 0.29750204 0.7874613
-0.003024928 -0.0021967099 -0.26382104 -0.7910578 -0.035283405 -0.013942296 -0.06620257 -0.01721583
-0.008612176 0.063092 0.16112357 0.2386531 0.09820337 -0.02256834 0.2063206 -0.38137385
0.095913045 0.042941134 0.01936026 -0.5334431 0.008794294 0.0014521263 0.11326185 -0.38901424
-0.04203767 0.041254167 0.1772095 -0.11493955 0.07221981 0.115819775 -0.7225776 -0.6227188
0.020530088 0.0760208 -0.59399974 -0.04766597 -0.053561755 0.18663657 -0.27638248 -0.31815213
-0.11722398 0.06883284 -0.51973486 -0.20146304 0.11463887 0.14570016 0.22436674 -0.4082515
-0.0394855 0.075254984 -0.24913682 -0.74168754 0.122740366 -0.0744722 -0.023582125 0.13040504
-0.17185618 -0.030782538 -0.0075071794 0.079170585 -0.12531734 -0.2700327 -0.433486 -0.043127872
-0.054560956 0.43942997 0.1952186 -0.1234202 0.070423335 -0.87350845 0.08980628 0.0312615
-0.05482166 -0.12262218 -0.19323356 -0.12766361 -0.0019297742 -0.066135444 -0.19128717 0.045675408
-0.023994831 0.12631842 0.5827166 -0.015255203 -0.017220953 -0.13176544 -0.74726063 -0.033091694
-0.2006409 -0.095821805 -0.34327102 -0.07779365 -0.10020777 -0.031598166 0.023365347 0.31172583
-0.009238472 -0.061940573 0.15634301 -0.53369874 0.03356373 0.043547798 0.050203357 -0.51076627
0.14990148 -0.18064795 0.038552262 -0.044385545 0.039565835 0.5446787 0.04785031 -0.057313647
-0.088631235 -0.57819885 0.17145807 -0.05201705 -0.0032734137 -0.5328612 -0.18619452 -0.007669246
0.028950678 -0.05717855 -0.040389013 0.06439828 -0.034214936 0.18094072 0.14927375 0.013031203
0.024782551 0.86320454 -0.03856107 0.05067205 -0.0039347988 -1.3488804 0.078619294 -0.026594877
0.023305854 0.44071755 0.042632848 0.011449105 -0.0039307163 0.71226054 0.029716458 0.02078528
-0.017926022 -1.3302196 0.026660377 -0.018573638 -0.014869863 -0.066221684 -0.05622929 0.012334262
-0.2157376 0.0012397388 0.15893482 -0.09557206 -0.021297906 -0.15443973 -0.1039132 -0.029213721
0.12655339 0.1801082 0.07687085 0.15909567 -0.017780969 0.08006894 -0.005457635 0.11326101

weight f4 [32, 32, 5, 5]
00000000: b1de bf3c 7d74 51be fd2d e13c 22c8 813e
00000010: 2ed7 073e d501 e43d 533e 8abe a628 bcbc
00000020: 6434 d3bd 6c0b 97be 4ce0 e8bd df46 84bd
00000030: bdab 123c c955 02be c803 a4bc 5da3 f7bd
00000040: b07a 2dbf a94f abbe 5d75 7b3b 92eb b5be
00000050: 67ea c03d cee8 82bb 6e6a f6bd 6a4e 8f3d
00000060: dcdd e53d a2a0 263e 2557 9fbe 247c 0b3e
00000070: d62f 0f3f 5ecf 073f 637f a0be 51e7 7f3e
00000080: 86a7 56be 07c5 11be 62ed 3f3e 0ced aa3d
00000090: 786d 8bbe e7bb a5be c710 423e 1ccb 39be
000000a0: 7ee6 59bd ad75 8b3d c18b febd be31 cfbe
000000b0: 9982 2ebe 2ce4 4ebe d16d dc3e 9395 80bc
000000c0: 71d2 233d 1722 bc3e 1f5d 903e 637e 2cbe
000000d0: 566c 03be 2ecf 683e 3822 7fbb 5888 ed3e
000000e0: 5119 a83e e11f 34bf 844a f8be 7c12 20be
000000f0: e822 8cbd 317e 613e 02fc 87bd 0415 efbe
00000100: b969 2e3d f141 393e ca24 a9be 9b8e c1bd
00000110: 2901 ae3e 9b50 67be 19fb dabb 876a abbe
00000120: f32d c33d 7f8d afbe 8c68 9e3d 7688 1b3d
00000130: 4436 edbd 1b71 0e3f 273a dabe 63ce 163c
00000140: 9a0a 18bf 4c15 563e bd8a 18bd 9715 1dbf
00000150: 5399 da3c 2be3 76bd 0f2d cbbe e89e 7c3c
00000160: 2221 ca3d d0ed 38bf 754b 94bf 0809 29be
00000170: 7384 d4be 93bc 8dbe b5ac 003e c73e 823c
00000180: 06a2 823e 5460 c4bd 85ab 473e 325b 26be
00000190: 7a49 36bb 5e37 bc3d 5efc c23d cace 403f
000001a0: 9574 41bf ad15 cdbe 3e58 a63e 4ae8 7c3e
000001b0: 125a 82be c782 14be ec03 c1be ee7a 10be
000001c0: b4a3 be3e 7577 953e 1146 493f b364 b2ba
000001d0: 75a5 a23c 2029 ebbe 6445 87bd 9215 16bf
000001e0: 8e2c 023d f662 153e 1e36 ed3d b8da 37be
000001f0: c06e a5bd 9fbd 193e 122d 5b3e 0dab f2bd
00000200: b6af 6abd 0664 1dbe 6128 1a3d 5602 a9be
00000210: 4220 1ebd d377 1fbd 527a 15bd 9575 3fbc
00000220: 5303 24be 9c2c 373d 6a5f b43c f1b5 343e
00000230: b632 5cbe 1e35 ebbf e161 56bf a5ad b3bd
00000240: a80b 13bf e0cf 5fbd 4e5b f6be c505 383e
00000250: 852e c5be 461a 09bf 2361 913e bb69 5ebd
00000260: 854e c2bd a390 94be 895d 18bf 3da1 063e
00000270: 6af9 f73d 937c d4be cf2f 43bd af43 4abf
00000280: f482 cd3c f908 5d3e 5174 3dbe e176 0e3e
00000290: ed33 223e 9522 52be 43c2 6abc d3c5 b3be
000002a0: 28c5 a9bd 0fd6 8abd 416c 523d f36e f53d
000002b0: 5881 96bc cd67 a63e b4b4 bd3d 5d1a 7e3d
000002c0: 4dfc 2bbf e0eb 023f d903 c2bd a9e3 573d
000002d0: fb49 b53d 22c8 28bc 1a23 1ebd 8672 973e
000002e0: 90b5 4abf e687 b33c 3d1f d2be 6c0d a5be
000002f0: 95de 283e b26c 29be c292 053e 54c1 aabe
00000300: e61b a7be e423 3e3e c0d8 003e 66a4 8fbe
00000310: d1a6 3abe fe86 21be e9f5 813e 1350 c1bd
00000320: 5f0c 153e 924d 10be 3c91 a53d 3ecd c33e
00000330: f684 023e 603f 4fbf 2d63 0e3e 5220 31be
00000340: 96a5 afbc aaae 6ebd 19cd 73bf d084 333e
00000350: dd74 433e 0763 1f3b ef83 0abf f22b 10bf
00000360: efb2 bebe 9600 98be cfe4 c33d 4c67 60bb
00000370: 35ec 50be 7de9 833e 387f 9dbd 1fa9 99be
00000380: 083d a13e 4105 c13d de3e fe3d 2b58 c1be
00000390: 3ed5 0fbe 5584 923d c45d 99be 6566 97be
000003a0: c587 293e 18b9 91be 75e2 b0be 40ba d4be
000003b0: c148 0d3f 8f89 a5bd c34f 3ebd 92ef 9abc
000003c0: ea68 4bbe 08eb e83d 90c5 91be 5f73 023e
000003d0: 78d5 06bf 46cc 08be 09d5 703e 4137 ee3d
000003e0: 5a2b 9f3d 6726 6a3e dd16 643f 5dfe 02bf
000003f0: e4b3 3a3d 4fb3 5b3d 9784 243e 6bad 0abf
0.023421617 -0.20454593 0.02748775 0.25348002 0.13265678 0.11133162 -0.27000675 -0.022968601
-0.10312727 -0.29500902 -0.11370906 -0.0645883 0.008952078 -0.12728037 -0.020021334 -0.12091706
-0.6776533 -0.33459213 0.0038369515 -0.35531288 0.09419709 -0.0039950376 -0.120320186 0.06997378
0.11223957 0.16272214 -0.31121174 0.13621575 0.55932367 0.5305079 -0.31347188 0.24990584
-0.20962343 -0.14235316 0.18742898 0.08345994 -0.27231956 -0.3236992 0.18951713 -0.18143886
-0.05319833 0.06809554 -0.12429 -0.40467638 -0.17042007 -0.20204228 0.43052533 -0.015696323
0.039995614 0.36744758 0.28196046 -0.16845088 -0.12834296 0.22735283 -0.0038930308 0.46393085
0.32831815 -0.70361143 -0.4849435 -0.15632051 -0.06842595 0.22020794 -0.066398636 -0.4669572
0.042581294 0.18091561 -0.3303588 -0.09451028 0.3398526 -0.22589342 -0.006682765 -0.3347971
0.095302485 -0.3428764 0.077347845 0.037971936 -0.11582616 0.55641335 -0.42622492 0.00920448
-0.59391177 0.20906562 -0.037241686 -0.6136107 0.026684439 -0.060275238 -0.39682814 0.015418746
0.09869601 -0.72237873 -1.1585528 -0.16507351 -0.415073 -0.27682933 0.12565883 0.015899075
0.2551424 -0.09588686 0.19499023 -0.16245726 -0.0027814792 0.09190248 0.095207915 0.75315535
-0.75568515 -0.400556 0.32489198 0.24697986 -0.25459343 -0.14503013 -0.37698305 -0.14109394
0.3723427 0.291927 0.7862254 -0.0013610333 0.019854287 -0.45929813 -0.06605032 -0.58626664
0.031780772 0.14588532 0.11582588 -0.17954528 -0.080777645 0.15013741 0.21403912 -0.118490316
-0.057296477 -0.15370187 0.037636165 -0.33009595 -0.038604982 -0.038932633 -0.036493607 -0.011685749
-0.16016893 0.044720277 0.022018153 0.1764753 -0.2150372 -1.8375585 -0.837431 -0.087733544
-0.5743966 -0.054641604 -0.48116535 0.17970951 -0.38512054 -0.53555715 0.28394422 -0.05430005
-0.09487633 -0.290166 -0.59517723 0.13147445 0.12108119 -0.41501293 -0.047653016 -0.79009527
0.025086857 0.21585454 -0.18501402 0.13912536 0.1584012 -0.20521004 -0.014328542 -0.35111865
-0.08289558 -0.0677911 0.05137277 0.119840525 -0.018372223 0.3250107 0.09262982 0.06203686
-0.67181855 0.51141167 -0.0947339 0.052707348 0.08852001 -0.010301622 -0.038607694 0.29579562
-0.7918329 0.021915387 -0.41039458 -0.32236803 0.16491158 -0.1654537 0.13044265 -0.33350623
-0.32638472 0.18568379 0.12582684 -0.28055114 -0.18227698 -0.15774152 0.25382927 -0.09439101
0.145555 -0.1409209 0.08084342 0.38242525 0.12746033 -0.8095608 0.1390502 -0.17297485
-0.021441262 -0.05827204 -0.9523483 0.17531133 0.19087549 0.00243205 -0.54107565 -0.56317055
-0.3724589 -0.29687947 0.09565126 -0.0034241257 -0.20402606 0.25764075 -0.07690281 -0.30011842
0.31491876 0.0942483 0.12414335 -0.3776258 -0.14046189 0.071541466 -0.2995435 -0.29570308
0.16555698 -0.28461528 -0.34547773 -0.41548347 0.5518914 -0.08082878 -0.046462785 -0.018913064
-0.1986424 0.11372954 -0.2847104 0.12739323 -0.5266948 -0.13359174 0.23518766 0.116316326
0.077719405 0.22866212 0.89097387 -0.5116938 0.045581713 0.0536378 0.16066204 -0.54170865

weight f4 [64, 32, 5, 5]
00000000: dfb1 81bb 69f1 cb3d 1509 7fbd 75f7 6a3e
00000010: 42a1 44be 5cb0 623e 853f 293d e97a 3b3e
00000020: b763 13be 1a38 053e 1f71 973d 43d8 5dbe
00000030: dbab 25be 73cb bd3d baaa 2c3f 1f92 cebd
00000040: fd2d 2f3d 6f74 353d f785 19be 69e8 9e3e
00000050: 11b5 6ebd 0504 e9be 2d0a 08be 2adc 063f
00000060: 667f 913e 3113 8f3e 3d57 e2be a662 663e
00000070: fff2 3f3e 3ffb f33c 703d 643c 826a c43e
00000080: 29fa 6d3e e2e4 30bf 9e54 66bd 149c 6b3e
00000090: 2fcf 713e 0b31 233f 3a94 ba3d 9e56 c4be
000000a0: b77b 643e cfb4 b93e f0a5 23bf f9e3 c73e
000000b0: ce7c 043e f38d 9ebc f565 243f 6a75 aa3e
000000c0: 726a 403d fbc9 58bd f9d6 82be 87cf 04be
000000d0: 14ce f83e 9b2a 7b3e dfaf 90be 1b06 a53d
000000e0: 2436 01be 9cd3 1abf 0e78 84bf 6f28 10bf
000000f0: f3a6 dd3d 9d72 a43d ca04 27bf ace8 2d3e
00000100: 1a01 f3be 3b65 683e 4c75 813e 8009 0dbe
00000110: 5f41 8fbe 2ce6 7bbe 23c4 de3e e4f0 d73d
00000120: de3f 123e 449e ea3d 7366 21be 6a37 dbbe
00000130: 5891 f5be 6dd8 b2bd 5dcd b03e 30e5 88be
00000140: c4bb e03e f9a1 a73d b7d7 b03e 9afd 393f
00000150: eb59 613e 9fdd 703e 819d c4bc 1a32 14bf
00000160: ee03 16bf cf5d 98bf 871c b8be 34d1 14be
00000170: b29f 88bf b94d 7c3d 6c37 b43e 9822 df3c
00000180: 0211 b0bd 379e 0ebc d074 073f 08f2 dd3d
00000190: c839 55be 59a0 943e ed46 a43e d4dd 06bd
000001a0: a54e e73d 5f57 f2be b157 16be 9664 113d
000001b0: 95b3 68bd 703f 333f 4e1a 833e 01be ccbe
000001c0: 332b 51be e486 b63c 34fa a5be bac2 c2bc
000001d0: f6b5 5d3e 344f 50be f13c 03bf 9e7c 12bf
000001e0: 8752 dbbe 2413 6abe 5213 b0bd 44d1 b83e
000001f0: 3ba4 ebbe 8b5c ccbd 7bb5 04bf 1a48 b3be
00000200: 1b86 e23e 0214 30bf b477 e73e 0e66 d0be
00000210: 1a95 483e 4776 94be 8b4a 55be 47ed aebc
00000220: 1148 4d3e 9996 fb3d 9f29 0ebc babc 4abe
00000230: 8db8 12bf 5c71 55be 1d2d 8a3d fcff 29bd
00000240: f6bf c3bc 1f2d 02bf 702c e8bd c0c3 253e
00000250: 7ff7 45bd 52fd dc3d f37f e4bc 9dfe dfbe
00000260: b6e9 9e3d 57ed fa3d 2f86 64be ceb4 9a3d
00000270: e148 11bb 2f66 1b3e cbec a8bd e798 843d
00000280: 266d dcbc b9b5 873e e91f 7a3e f8a7 88be
00000290: 8e23 46be c89c 0c3d c998 97bd f599 62bd
000002a0: 31e1 04be c4aa abbe d4aa a63e effa 2c3e
000002b0: 0219 72bd c66b acbd f22b 363d bc6f 3dbc
000002c0: 01af bbbe d7c1 1e3e 9a18 38be a475 3c3c
000002d0: a0b4 473e 0134 bc3d 9126 f73d 20d0 e6bd
000002e0: d432 07bf f165 e03d 25cf bebb 749d a6be
000002f0: 73d3 4d3e a57b a03e 9e90 a83d 38e4 74be
00000300: 9b8b 14be 774c e8bd 66b6 bbbc dc97 343e
00000310: 19f3 a4be 8ca3 16be 163e 58bf 11b1 85be
00000320: 9dea 9e3e bbb7 d13e 2871 3fbe c7fe b7be
00000330: a1d2 e93d a7bd bb3e 5ded 53bf 528e 473e
00000340: ab74 14bf 6ce9 fc3e e0e8 813e 2f5d 063e
00000350: 8ad2 a9be 01d4 ecbd 396b 13bf e6d1 833e
00000360: c6a9 e1be 6cd1 b73d 9c20 9eb9 213f 043f
00000370: 6332 183f adda 0abe 4af3 2c3e cfe3 923e
00000380: 3f51 7b3e 5701 c53e 47e7 a1bd b7ee a4bb
00000390: 78c6 28be 1b70 193f 202b 4c3e c045 b3bd
000003a0: f54a 783e 2a62 963c 23c1 c8ba d66f 103d
000003b0: 4f1c 95bd 340e 90bd 1802 60bc cc7f 9d3d
000003c0: 9cb4 033f 82af 313e c1b6 0dbf 665c 773d
000003d0: 217e a23c 0268 84be a168 1f3e d2b1 883e
000003e0: d187 7f3e 4c26 9cbd 6071 e63d c3f1 803e
000003f0: 09ba 913e 296d 35be 68c7 d83e 7ba2 eb3e
-0.0039579715 0.09958155 -0.06226452 0.2294596 -0.1920214 0.22137588 0.041320343 0.18308605
-0.14393507 0.13009682 0.07394623 -0.21664529 -0.16178839 0.092673205 0.6744801 -0.10086464
0.042768467 0.044300493 -0.1499251 0.3103669 -0.058278147 -0.4551088 -0.13285132 0.52679694
0.2841751 0.2794433 -0.44207183 0.22498569 0.1874504 0.02978289 0.0139306635 0.3836251
0.2323996 -0.6909925 -0.05623304 0.23008758 0.2361419 0.6374671 0.09110303 -0.38347334
0.22312818 0.36270759 -0.63925076 0.39041117 0.12938234 -0.019354796 0.64218074 0.33292705
0.046976514 -0.052927 -0.25554636 -0.1296979 0.48594725 0.24527971 -0.2825918 0.08057805
-0.1261831 -0.6047914 -1.0349138 -0.56311697 0.10822859 0.08029673 -0.6524168 0.16983289
-0.47461778 0.22694866 0.25284803 -0.13773155 -0.27979562 -0.24599522 0.43509015 0.10543993
0.14282176 0.11455968 -0.15761738 -0.42815715 -0.4796245 -0.08732686 0.3453168 -0.26737356
0.43893254 0.08185191 0.34539577 0.7265259 0.22006957 0.23522042 -0.024000885 -0.5788895
-0.58599746 -1.1903628 -0.35959265 -0.1453293 -1.0673735 0.06159756 0.35198534 0.027238175
-0.08596994 -0.008704714 0.52912617 0.108371794 -0.20822823 0.29028586 0.32085362 -0.032926396
0.11294297 -0.47332284 -0.14681889 0.035496317 -0.056811888 0.7001867 0.25606006 -0.3998871
-0.20426635 0.022281118 -0.32417452 -0.023774493 0.21651444 -0.20342714 -0.51264864 -0.572214
-0.428364 -0.22858864 -0.08597435 0.36097157 -0.46023735 -0.09978589 -0.5183942 -0.35015947
0.4424294 -0.6878053 0.45208514 -0.40702862 0.19588128 -0.28996488 -0.20829217 -0.021353377
0.20047022 0.122845836 -0.008676915 -0.19798556 -0.5731285 -0.20844024 0.06746886 -0.04150389
-0.023895245 -0.508501 -0.11336601 0.16187954 -0.048331734 0.107905045 -0.027893042 -0.43748942
0.077594206 0.122523 -0.22316812 0.07554017 -0.0022168683 0.15175699 -0.0824829 0.06474476
-0.026907515 0.2650583 0.24426235 -0.2669065 -0.193495 0.034329206 -0.07402188 -0.055322606
-0.12976529 -0.3352872 0.32552207 0.16892599 -0.05910588 -0.08418994 0.044475503 -0.011562284
-0.36656955 0.15503632 -0.17978135 0.011502657 0.19502497 0.091896065 0.12067903 -0.112701654
-0.5281193 0.10956944 -0.0058230334 -0.32542002 0.20100193 0.31344333 0.082307085 -0.23915184
-0.1450638 -0.113427095 -0.022914123 0.17636055 -0.3221672 -0.14710826 -0.84469736 -0.26111653
0.3103837 0.40960488 -0.1869551 -0.35936567 0.114171274 0.3666813 -0.8278406 0.19487885
-0.5799052 0.49396837 0.25372982 0.13121484 -0.3316844 -0.11563874 -0.57585484 0.25746077
-0.4407484 0.08975491 -0.00030160404 0.5165883 0.59451884 -0.1355998 0.16889682 0.2868943
0.24542712 0.38477585 -0.07905441 -0.00503334 -0.1648196 0.59936684 0.19938326 -0.08753538
0.24247344 0.018357355 -0.0015316348 0.035262905 -0.0728079 -0.07033959 -0.013672374 0.07690391
0.51447463 0.17352107 -0.55356985 0.060390852 0.019835534 -0.25860602 0.15567257 0.26698166
0.24954154 -0.07624492 0.11252093 0.2518445 0.28462246 -0.17717423 0.42339635 0.460224

weight f4 [256, 256]
00000000: d506 a03c 25bd 153d 3e5f e23a f2cf 843d
00000010: a30c b63d b212 aabc 96b9 90bd 6887 d0bd
00000020: 4cbf 573c e351 fbbd f134 85bd afee 3e3d
00000030: 6c3e 2a3e 193e 203e 52dc 21bd 3bca ce3b
00000040: d739 15be 794e 3b3e 29bb d93d bfcb 033c
00000050: 7f56 f8bd c510 403d 0077 f5bc ff40 c1bd
00000060: 6bab 963d c132 15be 334a 23be c221 07bd
00000070: 7a56 893c 7d7a 1f3d 38db 44bd 3a10 463c
00000080: 736e fb3e ad5b d53c 1c2e 703b 2dc9 a33e
00000090: 2908 35bd e409 68bb da0d 3d3c 20ba 30bc
000000a0: ab71 463e 69e9 88be 1fe5 fcbc 4327 56bc
000000b0: 9e56 273d c97c 413d 3a40 8dbd 0a6f 5c3d
000000c0: edcf c9bd a9a9 9c3d 3de5 bd3c 39e8 2d3d
000000d0: ad36 84bc 8046 ed3b 38d7 7cbd cd84 b9bd
000000e0: e9cc d33a cfa2 21bf 9dff b33e 44d8 40bd
000000f0: b6e7 773e a983 093f 233f ddbd 63b3 8ebe
00000100: 236e 9abd 8993 99bd 93ff b1bd 758e 9b3d
00000110: eea8 303e 69cc 9a3c 3b4e 493c e508 8cbd
00000120: a2ec 96bd 7c62 87bd 9671 933d 2d8a 90bb
00000130: 4ad1 2abe 4829 9d3d 2bdc 36bd db44 133c
00000140: d522 383d 0226 e2bc ceea fb3d aa0f dd3d
00000150: f9be 11be 76c0 b0bc 3a87 5c3d c212 e73a
00000160: 1c06 7dbb 31d3 393d 0e3c b2bd 32f0 d1ba
00000170: dd54 123d 4fa4 36bd 74ed 2b3d 6312 b7bd
00000180: de7b df3e 8cd5 a43d 8e98 33bd d4a0 e13c
00000190: 11dc ca3e f46a f4bd 7e32 6d3e c570 0bbf
000001a0: 3884 e83d 962c a13d 9913 be3b 724f e13d
000001b0: 2dd9 093e a59f 403c 3601 253e d4a0 4d3e
000001c0: a056 00bc 430b 79bd f25e 7ebd 9488 8e3d
000001d0: 2713 b7bd 6bac ef3c edbd 16bc 6729 6539
000001e0: 8402 d0bd f2bb db3c 31e3 8cbe be1f 90be
000001f0: 5a12 5d3d ccc9 083d 5e5c 94bc 5f7f bebd
00000200: f500 3cbd 50f2 e4bc ab09 10be 9590 6e3e
00000210: c4aa a63d decf b3bd ffb6 9abd 2609 b8bc
00000220: e14c c8bc 1470 0e3d 4a13 4ab9 5aaf f53c
00000230: 792e c7bd ecdb 85bc 047d c13d e2be d43c
00000240: 04bc a03d fd48 793c cd5c 263d 3f3f 80be
00000250: 8c4c 0dbd 937b 873d a9f6 70bc 4218 95bc
00000260: 7bad 803d 9894 af3d 8bc2 a03d ec9c 21be
00000270: 2635 5a3d 2b73 a7bd b06d d0bd 8838 e63d
00000280: b2fd 77bd 0417 123d 8cd0 63bd 1160 a43d
00000290: 2946 d9bd bc80 343d c242 993d 209e 7abb
000002a0: fe99 b53d d49d d33d 63c6 413d 4bcf b13d
000002b0: 8b1b 84bd 4dd9 19bd 324e 083d 5822 cdbe
000002c0: 09a3 853d 9f44 843b 184b b03d ca70 a7bd
000002d0: 57c4 a9bc 4bbf 99bd fab6 ec3c 150f ef3c
000002e0: 6a21 4fbe 2aba d1bd 2071 113d 76b8 edbd
000002f0: 239e b53b b7cd b03d c764 80bd 4131 e6bc
00000300: a3ab 82bd ec9a 56be 6d8b 3d3d e454 b33e
00000310: 5c67 ac3b f7ee 99bb 7b2b 3fbd 9e4b e63c
00000320: 5f7a b4bd 9d9c 1abe 9aef 343d 8e8f 343b
00000330: 0c0a 87bc 5bac 073e f41c d73d 877a 5b3c
00000340: f502 f13d 1544 f83c abca 633c 9e79 dabc
00000350: acae 973e 443c 9fbb 10eb 83be f0b7 83be
00000360: e879 1f3e dcdd 2a3e beae fdbd 22fe 123e
00000370: 46c7 a5bc ed70 473d f884 38bd 06c1 de3b
00000380: c53b 483c 4fab 843d 1b53 b63d 4dcd 12bd
00000390: 572b 3f3d 6577 553d 1f15 0c3d 9c74 b0bd
000003a0: 6f4c 61bd 0f0e 383d 081a 8a3d 1238 813d
000003b0: 1542 05be dfb6 773d c7de 903e a091 f7bc
000003c0: 844d 383e bd8b ae3c 080d e4bd aee9 57bd
000003d0: 1003 92bd 4c4e 773d 9857 503d 326d 7f3c
000003e0: 7931 f73d 9655 0f3d 4cb4 b73d e2b7 b53d
000003f0: ca52 353c 2258 3cbc fb3d 023d b274 743c
0.019534508 0.036557335 0.0017270816 0.06484975 0.08889129 -0.020760868 -0.07066648 -0.10182077
0.013168167 -0.12271478 -0.065042384 0.046614345 0.16625375 0.15648688 -0.039516754 0.006310729
-0.14572845 0.18291654 0.10631401 0.008044182 -0.12125873 0.046890993 -0.02996397 -0.09436225
0.07356914 -0.14570142 -0.15946274 -0.03299118 0.016764868 0.038935173 -0.048060626 0.01208883
0.49107704 0.026044691 0.0036648577 0.31989422 -0.044197235 -0.0035406286 0.011538947 -0.010786563
0.19379298 -0.26740578 -0.030870972 -0.013070884 0.04085409 0.047238145 -0.06897016 0.053816833
-0.09854112 0.076495476 0.023180598 0.042457793 -0.016139353 0.0072410703 -0.061728686 -0.09058533
0.001615909 -0.6313905 0.35155955 -0.047081247 0.24209484 0.5371652 -0.10803058 -0.27871236
-0.07540538 -0.07498843 -0.08691325 0.07595531 0.17251942 0.018896298 0.012286718 -0.06837634
-0.07369353 -0.06610581 0.07199399 -0.004411003 -0.166814 0.076738894 -0.044643562 0.008988584
0.044955093 -0.027606014 0.12300645 0.10794003 -0.14233007 -0.021576148 0.0538399 0.0017629492
-0.0038608378 0.045367423 -0.08702861 -0.0016017018 0.035725463 -0.04459029 0.0419745 -0.08939054
0.4364919 0.08048543 -0.04384666 0.02754251 0.39621022 -0.11934462 0.23163792 -0.5446895
0.11353344 0.07869832 0.005800676 0.11001481 0.13461752 0.011756812 0.16113743 0.20080882
-0.007833153 -0.060801756 -0.062102266 0.06959644 -0.089392 0.02925702 -0.009200555 0.00021854565
-0.1015673 0.026823018 -0.27517083 -0.28149217 0.05397258 0.033395573 -0.01811045 -0.09301638
-0.04589935 -0.027947575 -0.14066188 0.23297341 0.0813804 -0.08779882 -0.07554435 -0.0224653
-0.024450721 0.034774855 -0.00019271407 0.02999084 -0.09725661 -0.016340218 0.09447673 0.025969926
0.07848361 0.015215156 0.040615845 -0.25048253 -0.03449683 0.06615367 -0.014707246 -0.018200044
0.06283089 0.08573264 0.07849606 -0.15782517 0.053273343 -0.081762634 -0.10177171 0.11241251
-0.060544677 0.03566648 -0.055618808 0.08026136 -0.10609085 0.044068083 0.07483436 -0.0038241223
0.08867262 0.10332838 0.047308337 0.08682116 -0.06450566 -0.03756075 0.033277698 -0.40065265
0.06525237 0.0040365006 0.08608073 -0.0817581 -0.020723505 -0.07507189 0.028895844 0.029181996
-0.2022759 -0.10240586 0.035508275 -0.11607449 0.005542533 0.08632987 -0.06269222 -0.028099658
-0.06380393 -0.20957536 0.046275545 0.35025704 0.005261345 -0.0046976763 -0.046672326 0.028112229
-0.08812403 -0.15098806 0.044173814 0.0027551386 -0.016484283 0.13249342 0.10503569 0.013395912
0.11768142 0.030305902 0.0139033 -0.02666932 0.29625452 -0.004859479 -0.25765276 -0.2572627
0.15573847 0.16686195 -0.12386845 0.14354756 -0.020236623 0.04869168 -0.045048684 0.0067979125
0.012221281 0.06477987 0.0890257 -0.03584032 0.04667219 0.052115817 0.03419983 -0.086159915
-0.055004533 0.044935282 0.06743246 0.06309523 -0.1301349 0.060477134 0.28294966 -0.030220807
0.1799832 0.021306867 -0.11135298 -0.05271309 -0.071294904 0.060377404 0.050864786 0.015589999
0.12069983 0.03499373 0.08969936 0.088729635 0.011067102 -0.011495622 0.03179739 0.0149204

bias f4 [256]
00000000: 372d 56bb 7c86 513c b4d6 a23d 5557 8cbc
00000010: deb1 47bd 0ec6 e4bd bbf9 70bd 3d72 8d3d
00000020: 7f26 1a3e dfeb 01be 5c46 9a3c 5ce0 8bbc
00000030: 36c4 aa3d bbe8 9dbd 35e2 dfbc b011 03bd
00000040: f6be 60bc 5fa9 5dbd be4c 9f3d 9931 98bd
00000050: 3b69 903c cba3 82bd 44d6 a43d e894 593e
00000060: f32c 22be faf8 073e 9362 2f3d 3d92 9cbd
00000070: c680 cabd f7ec d8bd d707 093e 95f2 103e
00000080: 9415 7fbd 9cd9 1f3b c8f0 8f3d 76a2 2dbb
00000090: 31f8 02be 0efe 33bc 7403 42bd 18e1 26be
000000a0: 8f93 55bd 129d 2b3d cfaa ef3c e275 e3bd
000000b0: 0d16 11bd 39cd 2c3d f149 ee3d 9f6e 253e
000000c0: b1e6 c8bc bb75 b13d 1171 28bd b7b5 f83c
000000d0: a218 15be 26e9 e13d 0405 ef3d 44e3 10bd
000000e0: b5f7 86bd 3437 423d 4f28 613e 6815 e13c
000000f0: dfe4 6fbc d844 8e3d d467 05be 3edf c03b
00000100: 1a89 913b 13c2 003d 39ad e2bb 5f2a 46bd
00000110: 2f61 c8bd 72c0 77be 9ee1 59bd adff 58bc
00000120: 84a4 97bd d467 a43d e195 e23c 1bb2 7d3d
00000130: edda 293c 8fc8 1b3d 2140 6c3d 80ed 22bd
00000140: 0415 26be 0ea1 183d 2e27 a4bc 65fd 0dbd
00000150: be6f f9bd a70f e03d 00ef 9e3d 0d66 133d
00000160: 583d 383e 7b27 5abd b03e 953d 6438 05bd
00000170: 312f 453d 0ddb ec3d f7f2 9f3d b773 403d
00000180: e9dc 0cbe 769e 813e 9c5a 10be 8959 3abb
00000190: 438e 603d 47e6 04be 2c5c 10be 8ce1 0ebd
000001a0: 2801 8fbd 1f0b 7ebd e164 b6bd 1a24 f23d
000001b0: d136 193e 6218 fa3c 2505 c8bd 0136 b03d
000001c0: ae4b 11bd a66b 263c eed1 63bd 6bd5 343d
000001d0: 3315 cdbd 164f f5bd 046e 59bd 9702 9abd
000001e0: 74dc e0bc efc6 2f3e e001 413d 9b06 a9bc
000001f0: 9b36 89bc 4889 cf3c 2b63 14bd d62d 2dbc
00000200: 5f58 c7bd 2af7 da3c 6bc8 643d 80ab da3d
00000210: 557b ecbd 3a1f 173c df4d c33d 531d b83d
00000220: 23da c4bd 93e1 1bbd c4a6 66bd 49e0 c3bd
00000230: c40d 033e af1a d8bb 1f60 14bd e274 d8bd
00000240: 427e 8b3d f2b5 d13a cd31 97bd 26ba 4b3e
00000250: 069d 4a3d 5e12 2b3e af42 bbbc c63b 7c3d
00000260: 0157 353d 1585 3e3d 97ff 52bd 74e6 ffbb
00000270: 6b6d ed3d 1382 8b3b 944d 08be a9e9 b6bd
00000280: 5efe 043d 7997 c3bc b8cc 023d 793b bebc
00000290: c209 a33d 5601 30be ca64 963d 7109 1cbd
000002a0: 6088 91bc 9c63 53bd ec81 3dbc 7d8c 0a3d
000002b0: c794 aebc 8b9c 54bd 81d7 523d 0f98 d23d
000002c0: d4b2 663d 71be a6bd 0f73 c5bd 43af f5bd
000002d0: 4325 a33d ee6b 223d 96b8 2d3e 87df 0fbd
000002e0: f605 dc3c 3783 b7bd 75b3 2f3e f81a 0dbd
000002f0: e8da 3ebd 2f31 97bd bdf3 c1bc b174 adbb
00000300: 48b8 4dbc ebc6 043e ca7a ccbd d374 dc3d
00000310: 5d7a cb3c df10 5cbd 2ba8 913b 3013 d03c
00000320: ef9d 7a3d f4ef c0bd 4b83 d13d a9cb 3cbd
00000330: 0447 533c 9ae1 36bd 49d4 f43c de30 8d3d
00000340: 8aaf 243e 6a1d c03c aebb 8cbd ed6e b6bd
00000350: 7adc 3cbd 3c05 0b3e 1cca e6bd df50 d73d
00000360: a613 a23c 9ee2 313e 3984 283d 4f9d 6abd
00000370: f845 123d 3508 9ebc 979c 583d 4889 f13d
00000380: f6f3 003e 6d8b 27bc 66af c43c d371 87bc
00000390: ec86 b8bc 0357 423c 1bbe 0cbd 976f 1bbe
000003a0: ddf9 5fbd 31d5 ac3d 6867 59bd 676b b93d
000003b0: 3a8d ddbc 6f20 cd3d 6628 17be 1bfd 55bc
000003c0: 4e95 0cbd 57ad 543c bc26 43bd 7f97 13be
000003d0: 4187 993d 2168 9039 2ab4 ff3b 20c8 893d
000003e0: 8280 c8bd c499 403d 135c 05bc b164 023b
000003f0: ab11 debd a3f4 cdbb 0218 563d 5f07 e43d
-0.0032680759 0.012788411 0.079511076 -0.017131487 -0.04875361 -0.111705884 -0.05883191 0.06906555
0.15053748 -0.12687634 0.018832378 -0.017074756 0.083382055 -0.077104054 -0.027329544 -0.03199929
-0.013717404 -0.054116603 0.07778309 -0.07431335 0.017628303 -0.06378897 0.080486804 0.2124821
-0.1583746 0.13278571 0.042818617 -0.0764508 -0.09887843 -0.105920725 0.13381897 0.14155038
-0.062276438 0.002439118 0.07028347 -0.002649454 -0.1278999 -0.010985864 -0.047366574 -0.16296804
-0.052142676 0.04189784 0.029256253 -0.11106469 -0.03542142 0.042187903 0.11635197 0.1615548
-0.024524065 0.086650334 -0.041123454 0.030360086 -0.14560178 0.11030798 0.116708785 -0.035372987
-0.06590215 0.047415927 0.21988033 0.027476028 -0.014641969 0.06946725 -0.13027889 0.0058859875
0.0044413926 0.031435084 -0.0069176224 -0.048380252 -0.09784161 -0.24194506 -0.05319368 -0.013244552
-0.07404426 0.08027616 0.027659358 0.061937433 0.010367137 0.038033064 0.057678346 -0.03977728
-0.16218954 0.03726297 -0.020038214 -0.034665484 -0.12179516 0.109404854 0.077604294 0.035985995
0.17992151 -0.053260308 0.07287347 -0.03252448 0.04814071 0.11565218 0.07810014 0.046985354
-0.13756146 0.2531621 -0.14097065 -0.0028434715 0.05482317 -0.12978469 -0.14097661 -0.034883067
-0.069826424 -0.062022325 -0.0890596 0.11823292 0.14962317 0.030529205 -0.09766606 0.086040504
-0.035472564 0.010157501 -0.055620126 0.044148844 -0.10013809 -0.11977975 -0.053083435 -0.07520025
-0.02744887 0.17165731 0.04712093 -0.020633033 -0.01674967 0.025334015 -0.036227386 -0.01057001
-0.09733652 0.026729185 0.055855196 0.10677242 -0.11546961 0.009223754 0.09536337 0.08989968
-0.09611919 -0.03805692 -0.056311384 -0.095642634 0.1279822 -0.006594978 -0.03622448 -0.105691686
0.06811191 0.0015999658 -0.073825456 0.19895229 0.049466155 0.16706225 -0.022858946 0.061580442
0.044272427 0.046513636 -0.05151328 -0.0078094546 0.115931354 0.0042574494 -0.13310844 -0.08931286
0.032469146 -0.023875939 0.031933516 -0.023221718 0.079608455 -0.1718801 0.07343443 -0.03809494
-0.017765224 -0.051608667 -0.01156662 0.033825386 -0.021311177 -0.051907104 0.05147505 0.10282909
0.056322888 -0.081417926 -0.09641086 -0.11996319 0.079660915 0.03965371 0.16964945 -0.03512528
0.026858311 -0.08960574 0.17158301 -0.034449548 -0.046595484 -0.07382428 -0.023675794 -0.0052934517
-0.012556143 0.12966506 -0.09984358 0.1076447 0.02483862 -0.053727027 0.004445096 0.025399774
0.061185773 -0.094207674 0.1023012 -0.046092663 0.012895349 -0.044648744 0.029886382 0.06894086
0.16082588 0.023451526 -0.068717346 -0.08907876 -0.0461087 0.13576216 -0.11269018 0.10513472
0.01978476 0.17371604 0.041141722 -0.057278927 0.03571126 -0.019291023 0.05288371 0.117937624
0.12593064 -0.010226113 0.024009418 -0.016533768 -0.022525273 0.0118615655 -0.034360986 -0.15179287
-0.054681648 0.084391005 -0.05307713 0.090536885 -0.027044881 0.10015952 -0.14761505 -0.013060833
-0.034322076 0.012980781 -0.04764436 -0.1441326 0.07496501 0.00027543402 0.0078034597 0.06727624
-0.09790136 0.047021642 -0.008139628 0.0019896443 -0.10843214 -0.0062852665 0.05226899 0.111342184

weight f4 [256, 256]
00000000: 108f 24bd e715 30bc b268 49bc c28a 5d3a
00000010: 4026 41bd 375d 72bb ac6b aabc 6ef0 1b3d
00000020: 5590 44bd 9a2a e0bc b8dc 93bc 6f0f 1c3c
00000030: 6d41 933c 10f9 c4bb d956 903c 1590 a1bc
00000040: a410 ad3b b531 393c 54c3 133c 7dec ebbc
00000050: 1d2e bfbc 0bea 343d 3eaa a63b 7346 43bd
00000060: 28a3 1e3d 703b 70bc 4085 2abd 6340 fb3c
00000070: 92f3 bc3c 8a41 dc3c cc83 f4bc 3b2e 89bd
00000080: 08d4 893d a5db 55bd 5f67 3bbd 3e5d d4bb
00000090: 2a8e 043d e608 9b3c ca37 f6bb a661 f63b
000000a0: cd98 39bd ce29 a5bc 62e1 10bd bc8a b5bc
000000b0: a0dd 16ba 8b56 cb3c 9442 f73c e054 323d
000000c0: dc64 24bc 1af1 4d3d ea75 e33c 0fcb 7ebc
000000d0: 40d6 84bc 3aaa 973b 584f 9b3b e8d2 dc3c
000000e0: 6f00 ac3c 7bc6 6cbc 3134 853c ca82 d2bc
000000f0: 140e 4dbc 6bef 01bd 2a92 7bba 593b 4fbc
00000100: beb7 af3b c6ed 36bd 3b1e 9abc 61cc 6a3d
00000110: 16db a7bc 9e91 22bc 99aa 913c a1c1 58bc
00000120: 335b 83bc 22de 873d 9c03 153d f8b2 853d
00000130: b134 bfbb df7f ae3b 87f9 5e3c bb17 85bb
00000140: d1a0 d7bc d345 4ebb 2aa7 43bb 1714 7ebd
00000150: 9903 8b3c e48f 343d 62a4 04bb 1bed b9bc
00000160: 4d17 563d 561e c23c 68c4 f7bc 3a9e 14bd
00000170: 180b 343c 1e3a c3bc 6c4f bf3b e269 3c3d
00000180: 320a d6bc 3cd9 b23a b891 d1bc fd47 81bc
00000190: b825 06bc fb1e a8ba 9f80 29bc 16de 07bc
000001a0: b5dc fd3b 4d92 79bd bacf ff3c 0939 18bd
000001b0: 7808 d6bc 6591 9abc 029b 8ebd f600 cdbc
000001c0: 06b0 0c3e 4724 1cbd 2591 b13b 7c27 873d
000001d0: 0bc0 8a3b f5e4 173c ae04 723d 3588 963c
000001e0: 093e f9bb 539e 5c3c 7af3 0f3a ece4 873c
000001f0: b752 aabc 060d d5bb 47f1 7bbc 8f74 4abc
00000200: baff 8e3b b56c fcbb 7f4f c83c 811c b33d
00000210: 9e07 4abc a013 fcb9 8f99 73bc 61b7 5a3d
00000220: 3d5f a1bc 40bb c237 1e0f 31bc 7cf2 a8ba
00000230: 5d17 013c bd70 3e3d 5c16 b1bc 1f8a 8a3c
00000240: e9a9 663d f08d 073c cff3 66bd d5e1 d9bc
00000250: 3883 38bd 4170 dcbc 12b4 c73c d73c c63c
00000260: 4063 9dbb 9903 51bd 63a8 2d3d 1bd2 f7bc
00000270: aa82 f3bc 07bd 01bb 81fc 1abd dcd2 a83a
00000280: b910 8bbc 76f4 9abc 916b cbbc 627b 65bc
00000290: 6dd4 873d e619 8b3c c547 d6bb 33a7 42bd
000002a0: 9445 99bd 0a06 e1ba 8374 4e3d fa21 44bb
000002b0: 04a5 243d 7d22 af3c 4f03 e2bb 3305 f33c
000002c0: c8d7 d2bc 893f 8cbc d232 163c 48eb 76bc
000002d0: fc13 ba3b 7eb2 fcbc b2c4 d0bc 53c7 90bc
000002e0: 3e74 b93c 5583 043c ce4d 6bbc d56e 22bd
000002f0: efd2 21bd 8357 41bb 259f 1f3c 710a 36bd
00000300: eefc 0e3b 3c84 efba aee9 0dbd 66d7 5a3c
00000310: 3a9c 893c d232 2abb 930c 953c 3af6 4dbc
00000320: 02b8 a5bc d1c3 b53c 8315 0b3d 388d 5b3c
00000330: 9b13 8cbc 0f38 0c3d 9103 2d3d c0a9 dd3c
00000340: c973 63bd 7697 11bc 4645 493d 57a5 22bd
00000350: ae2f ec3c 6c87 f03a d7a3 efbb 7422 603c
00000360: 2f6a 8f3c ffe5 603c 2a1c a93c 1d5f 9ebd
00000370: 07a2 0bbd 0255 703d d466 203c 3327 933b
00000380: 5d80 4f3d 4a12 9cbb 513c 143d f009 793d
00000390: c394 873b 4084 b2bb e361 b63b d036 22b9
000003a0: 65f8 3bbd 4f70 133d be11 94bb 2211 38bb
000003b0: 3227 38bc f5eb 103c b877 89bd b366 653c
000003c0: 70a3 a6b8 77d5 5abc 04fa 8c3b e0b6 703d
000003d0: 946e 103d ed3a 2abd 68c9 cebc e0f7 0bbd
000003e0: 8756 e0bb 85a0 06bd 43eb 0f3d f6ca ebbc
000003f0: 481b 6ebc 00cf b7bb 847c aa3c faf2 3ebc
-0.040175498 -0.010747409 -0.012293028 0.00084511575 -0.04715562 -0.003698183 -0.020803295 0.03807109
-0.04798921 -0.027364064 -0.018049583 0.009525164 0.017975533 -0.006011136 0.017619537 -0.019722024
0.0052815247 0.011303355 0.009018738 -0.02879929 -0.023337418 0.044168513 0.0050862124 -0.047674607
0.038729817 -0.0146626085 -0.041630983 0.03067035 0.023065362 0.02688672 -0.029848002 -0.06698271
0.06729895 -0.052211422 -0.04575288 -0.006480842 0.03236214 0.018925142 -0.007513975 0.007518965
-0.045311738 -0.020161536 -0.03537119 -0.02216088 -0.00057550706 0.02482154 0.030183114 0.043537974
-0.010033812 0.05027876 0.027766187 -0.015551343 -0.016215444 0.004628447 0.004739683 0.026956037
0.0209963 -0.014451618 0.016260238 -0.02569713 -0.0125155635 -0.031722467 -0.000959667 -0.012648427
0.00536248 -0.044660352 -0.018813243 0.057323817 -0.02049021 -0.009922413 0.017781543 -0.0132297585
-0.016034698 0.06634165 0.036380395 0.06528276 -0.0058351387 0.005325302 0.013609297 -0.004061667
-0.0263218 -0.0031474724 -0.0029854276 -0.062030878 0.016969489 0.044082537 -0.0020239581 -0.022696069
0.052268315 0.023696106 -0.030245021 -0.03628371 0.010988973 -0.023831423 0.0058383252 0.045999415
-0.026127908 0.0013645063 -0.02558218 -0.015781397 -0.008187704 -0.0012826616 -0.010345607 -0.0082926955
0.0077472576 -0.06093054 0.031226981 -0.037163768 -0.026127085 -0.018868158 -0.06963159 -0.025024872
0.13739023 -0.038120534 0.005418914 0.06599328 0.004234319 0.009270896 0.059086494 0.018375495
-0.007606272 0.013465482 0.0005491298 0.01658865 -0.020791395 -0.0065017967 -0.015377349 -0.012356891
0.004363981 -0.0077033886 0.02445197 0.08745671 -0.012330918 -0.00048079807 -0.014868154 0.05339754
-0.019698733 2.3213797e-05 -0.010806827 -0.0012889649 0.007879105 0.046494234 -0.021617107 0.016911564
0.056314383 0.008273587 -0.056384858 -0.026596943 -0.045047015 -0.026908996 0.024377856 0.024198933
-0.0048030913 -0.05102882 0.042396914 -0.030251553 -0.029725391 -0.0019796507 -0.037838463 0.0012880224
-0.016975747 -0.018915396 -0.024831565 -0.014006468 0.06632314 0.016980123 -0.0065393173 -0.047522735
-0.07483974 -0.0017167937 0.050404083 -0.0029927478 0.040196434 0.02137875 -0.006897367 0.029665565
-0.025737658 -0.01712014 0.00916739 -0.015070744 0.005678652 -0.03084683 -0.025484417 -0.01767317
0.022638436 0.008087953 -0.014361812 -0.03965648 -0.039507803 -0.0029501624 0.009742533 -0.04444355
0.0021818238 -0.0018273662 -0.034646682 0.013357019 0.016798127 -0.0025970233 0.018194472 -0.012570912
-0.020229343 0.0221881 0.033956062 0.013400368 -0.017099192 0.03423315 0.04223973 0.027058482
-0.055530343 -0.008886209 0.04913833 -0.03970846 0.02883133 0.0018350906 -0.0073132324 0.013680089
0.017506687 0.01372671 0.020643312 -0.07732985 -0.03409007 0.05867482 0.009790141 0.004490757
0.050659526 -0.0047629224 0.036190335 0.060800493 0.004137607 -0.0054478943 0.005565868 -0.00015469943
-0.045891184 0.035995778 -0.0045187166 -0.0028086384 -0.011239814 0.008845319 -0.06712288 0.014001536
-7.9459394e-05 -0.013356558 0.004302265 0.058768153 0.035261706 -0.041560102 -0.025242522 -0.03417194
-0.0068462524 -0.032867927 0.035136472 -0.028783303 -0.014532872 -0.005609393 0.020811327 -0.01165461

bias f4 [256]
00000000: 3b28 babc bc5a 813b 90b4 d7bc fbc7 053d
00000010: 2b72 2d3d d697 e03c f1dc a7bc 1585 d7bb
00000020: aed3 38bc f7ac 9c3c 8404 87bc 08ae 8a3c
00000030: c66c d53c f2ef 03bd e342 7c3d 538a 9f3c
00000040: 6b49 37bd f9e2 d4bb ee70 f9bb 6675 613c
00000050: 87fd 443c 5c52 32bd 9214 113b eea3 d7bb
00000060: 58b3 0cbb dacb 063d dabf a5b9 cdce b0bc
00000070: b5e5 d83b 8bd7 213d ad34 9bbb 6db6 87bb
00000080: 41b5 77bc a97b dfbc 1a54 bebb a579 3fbc
00000090: b6c1 143b 92d9 73bb f6f5 223d 260a c73c
000000a0: 65ee d63c d7a2 c63c abd0 59ba 0a1c d13b
000000b0: 65a7 6bbc 4444 b2bb f6cf 5e3c d66e b4ba
000000c0: bec2 0b3d 694d 59bc 8e4c 2f3c 664b 94bc
000000d0: ae39 3e3b 8cb1 1c3c 966e 60bc 0574 6e3c
000000e0: 18a5 66bc 7bf5 85bc f580 03bd a0d8 50bc
000000f0: 3248 2e3c 6a28 a4bc dd0f cf3c f224 d7bc
00000100: 72f0 f5b9 c634 c73c 480a 343c 8879 2ebc
00000110: ad17 c1bc f57f 493d c726 d2bc fccb aebc
00000120: 0b61 dfbc a74f 07bc 970e a2bc 40c7 0c3d
00000130: 0a8c 09bd df13 723d 8ec8 39bd fb60 7cbc
00000140: 4a98 84bc 6c40 8539 180d 073d 7f6c 993c
00000150: f289 f13c 03fc a8bc 9e2c 4bbb c407 03bd
00000160: b551 0dbc 7c8c ae3c 3648 13bc 68e1 b03c
00000170: ed2b e93b 9ee6 c13c fe91 b3ba ac2c 01bb
00000180: 4cf7 443d 856a d93c 8ee2 24bc 01f2 c3bc
00000190: 5aa6 6a3b 28ae 03bd 5c02 2abc 750a a83a
000001a0: 6f50 473d 1c84 233c 7a7a f1bb 91db 283c
000001b0: 71e5 80bc d3e0 243c 2469 ac3c 5c3c 5a3d
000001c0: db3e 953c d3c7 44bd 89ee acbc 6898 9dba
000001d0: 5e62 d0bc 5a6e a1bc 3124 57ba 7b64 46bd
000001e0: a6e0 3a3b 37c4 8c3b 2b0b 2c3d 35f3 bcbc
000001f0: 9a47 113d d91d fc3b 836d da3c 4980 c93c
00000200: 91dd 193d 856c 48bc 9eee 04bd bff6 5f3d
00000210: 7402 1d3d b387 003d 4f5d ce3b 626a d33b
00000220: 7f36 41bd 4b80 6bbb 8a38 ecbb 0777 b73b
00000230: 58ed 04bc 8b4a 8e3a b3cd 203d 8f9b d13c
00000240: 1f6b 69bb f9a1 b93c 9f5f b8bc edd3 d8bc
00000250: e434 66bc 5f74 12b9 4092 823c ee00 603c
00000260: 9fe7 a33c c034 d23c da53 d83c 6583 1a3c
00000270: 6c56 3a3c e7fc 14bd 1f5a 86bc abb3 0fbc
00000280: 951b a33c e1f2 253b 76fe 1f3c 4580 f3bb
00000290: b11b 05bd 980c 54bc 1060 693c b955 95bc
000002a0: a050 00ba 753f a1bc 745d bd3c 8220 dfbb
000002b0: dd41 cfbc 82e2 93bc 80c0 15bd 4269 b03c
000002c0: ab76 57bc 670f abbc 9910 a0bc 76fa 87ba
000002d0: 4a5e 55bd 5c45 93bc 1578 b2bb 3240 c0bc
000002e0: 5228 1bbd a334 98bc 3928 283d 988f 98bc
000002f0: 6d02 a93b 15f4 343c f4fe f1bc a26e 40ba
00000300: 379d bdbc b8a0 043d dfae 653b 0027 e63c
00000310: ac5f 67bc a824 ee3c b540 ad3b addc 4abc
00000320: 3191 e3bc d0b8 32bd 53ce 01bb fe49 b83c
00000330: faf0 ca3b d835 2abd bb04 e9bb dc5d 6dbc
00000340: 8f87 d53c 3628 1a3b f7ee 31bc fede 93ba
00000350: 9068 893c 01ab 06bd 1e4b 55bc e318 133d
00000360: e0cb 16bd 9458 e73b 7bf4 d83b 14d7 b039
00000370: 0889 bfbc 4959 463d 2119 503b 451e 2fbd
00000380: a3d4 49bc 3e91 8cbc f1a6 663b 320e 043c
00000390: 0550 2b3b d340 3f3d 2e5f 453d c8de 953b
000003a0: 6785 13bd b858 0e3c 5116 863d 47c0 de3a
000003b0: 917c 0a3d 2db9 833b ec21 c8bc fd5c 4f3c
000003c0: df51 68bd 632f 213c 23a2 2d3c 0e03 aabb
000003d0: 9c98 d3bb e483 6c3c fcb0 e0bc 5248 23bc
000003e0: 092c 1b3d 1527 1439 ad03 a83c e443 903c
000003f0: d9f3 813c 9ec6 053b c79f 5e3b 6713 7d3c
-0.022724262 0.003947584 -0.026331216 0.03266142 0.042345207 0.027416151 -0.020491095 -0.006577144
-0.011280937 0.019125445 -0.016481645 0.016928688 0.026052844 -0.03221125 0.061587226 0.019475138
-0.04474775 -0.006496784 -0.007612339 0.0137609 0.012023336 -0.043535575 0.0022137505 -0.0065808212
-0.0021469202 0.03290925 -0.00031614193 -0.021582985 0.00661918 0.0395122 -0.004736504 -0.00414162
-0.015118898 -0.027280645 -0.0058083655 -0.011686717 0.0022698469 -0.003720854 0.039785348 0.024296831
0.026236722 0.02424757 -0.0008308987 0.0063815163 -0.014383172 -0.005440267 0.013599386 -0.0013765942
0.034121267 -0.013263085 0.010699404 -0.018102359 0.002902608 0.009563815 -0.013698241 0.014554028
-0.014077447 -0.016352406 -0.032105405 -0.01274696 0.01063733 -0.020038802 0.025276119 -0.026262734
-0.00046909187 0.024317157 0.010988779 -0.0106490925 -0.02357086 0.049194295 -0.025653256 -0.021337502
-0.027267953 -0.008258737 -0.019782348 0.034369707 -0.033580817 0.05910098 -0.04535728 -0.015403981
-0.016185898 0.00025415735 0.03297147 0.018728493 0.029484723 -0.020627981 -0.0031001936 -0.031989828
-0.0086254375 0.021307223 -0.008989384 0.021591857 0.007115832 0.023669537 -0.0013700125 -0.0019710464
0.048087403 0.02654005 -0.0100637805 -0.023919107 0.003580472 -0.03214851 -0.010376539 0.0012820499
0.04866069 0.009980228 -0.0073693367 0.010306255 -0.015734406 0.010063368 0.021046229 0.05328022
0.018218448 -0.04804213 -0.021109836 -0.001202357 -0.02543753 -0.01970594 -0.0008206992 -0.04843567
0.0028515249 0.0042958516 0.042002838 -0.023065189 0.035468675 0.007693988 0.026663547 0.024597304
0.037564818 -0.012232904 -0.032454126 0.054678675 0.038332418 0.031379413 0.0062977443 0.006451891
-0.047171112 -0.0035934623 -0.0072088884 0.005598906 -0.008113228 0.0010855956 0.03925867 0.025586871
-0.0035616828 0.022660242 -0.022506533 -0.026468242 -0.014050696 -0.00013966997 0.015938878 0.013672097
0.020007906 0.025659919 0.026407171 0.009430741 0.011373144 -0.036374 -0.016400395 -0.0087708635
0.019910613 0.002532177 0.009765258 -0.0074310624 -0.03249711 -0.012942456 0.0142440945 -0.018229352
-0.00048948266 -0.019683579 0.023115851 -0.006809295 -0.02529996 -0.018052343 -0.036560535 0.021534566
-0.013150851 -0.020881368 -0.019539164 -0.0010374326 -0.052091874 -0.017977409 -0.005446444 -0.02346811
-0.03788025 -0.018579787 0.041053984 -0.018623158 0.00515776 0.011044522 -0.029540516 -0.00073407043
-0.023146255 0.032379836 0.0035046858 0.028094769 -0.014121931 0.029070213 0.0052872547 -0.012381715
-0.027779194 -0.043633282 -0.0019806817 0.02249622 0.0061932774 -0.041555256 -0.0071111596 -0.01448771
0.026065616 0.0023522503 -0.010860196 -0.0011281667 0.016773492 -0.032877926 -0.013018398 0.035912406
-0.036815524 0.00706012 0.006620941 0.00033729582 -0.023380771 0.048424993 0.003175326 -0.042753477
-0.012318763 -0.0171591 0.003519472 0.008060025 0.0026140225 0.04669268 0.048186474 0.0045736767
-0.036015894 0.008688144 0.06547225 0.0016994559 0.033810202 0.0040198774 -0.024430238 0.0126564475
-0.056718703 0.009837958 0.010597738 -0.0051883524 -0.0064574014 0.014435742 -0.027428143 -0.009965973
0.037883792 0.00014128939 0.020509565 0.017610498 0.015863346 0.0020412575 0.0033969746 0.01544652
