output/2023-09-14-22-52-13/trained_model/tetris_epoch3415_score14900.pt (torch, 842187 bytes, 8 tensors)

weight f4 [32, 1, 4, 4]
00000000: 2d4c 77bc fb7a cf3c 19bc 3abd 024a d13c
00000010: aadd 2dba b0f0 883d 980e a5bb 6dab 9b3d
00000020: e458 6abe 7f0c e83d 41bc 393e 8f74 b93c
00000030: cf11 4d3d 53e6 1e3e e1df 393e 33d3 33bd
00000040: 5106 d53e 933e 8ebd b8b8 cabe 7266 96be
00000050: c65f 11bf d04d d9bc da60 d0bd 2279 48be
00000060: dd43 6c3d 6468 53be cfb0 a43d 2b34 b3be
00000070: 6295 80be 0c14 053d ed4e d83d f3f6 30bf
00000080: d910 d73c c879 b93d 61dc 4fbf 7b80 56be
00000090: ca18 353d 2739 89be 4d30 593e ece4 a1be
000000a0: ded1 ba3d ead5 913e d38c 473c 4d0a 1a3c
000000b0: 8453 d3bd 8d4c 03be c3e9 20be f896 c9bd
000000c0: 8179 c4be 1eaf dcbe d033 aebd f742 82bd
000000d0: fa06 823e 1a88 3dbe 6a1c 8d3e c316 be3d
000000e0: cace adbe 13c4 853b 0ef2 24bf 86cf 9a3d
000000f0: ee3a 34be 53fc 23bf 6f9b d9be 2065 953d
00000100: bd6f 43bd 0da8 44bf 6bb7 5ebd 84ae d1bc
00000110: a5da 013d d4a6 103d c664 dc3d 8003 203d
00000120: e6f8 583e eff9 60bf 2e26 a23e ac42 08bd
00000130: fdf9 9ebd 688d 93bd 4993 673c 8936 1bbc
00000140: d9f8 fbbc 5430 fe3b a347 38be bb59 f0bd
00000150: e6a8 753c c544 47bc 4822 973e bef4 433f
00000160: 0209 60bc 2e8d 08bb 503c 88be d40f 49bf
00000170: fe6c 96bc 11bd e4bb 0808 5ebd 7b91 0bbd
00000180: 7e3b 7cbc c62e 6c3d 0d61 1a3e 7b04 6f3e
00000190: 5ccd da3d 1ead e4bc 24ef 473e 4748 c5be
000001a0: 6125 dd3d 29f2 043d 1556 2a3c 5f47 06bf
000001b0: abcc 873c 2282 bb3a 4fcb f03d ba0a d1be
000001c0: 24b3 7ebc a797 353d 4a5f 3a3e 7dc3 dabd
000001d0: f1e9 843d e691 db3d d8fa 38bf 806a 1fbf
000001e0: 0ebf 123d b50a 933d 97ec 16bf 5f7a 67bd
000001f0: 6e7e 35bd 781d 3f3e a7d8 89be 7cad b4be
00000200: 0e62 eebd a947 a83d 995b 06bf 1a95 40be
00000210: 30ea e93d bc5f 203e 8c87 563e 2aaf cdbe
00000220: 2ed7 24bd b8d7 943d 8a9c 84be 8f2e 3fbf
00000230: f7ba f33d ef54 a5bd 9f70 40bd 5b3d 013e
00000240: cf4d 21be c10b a4bc 8432 d9ba 129a a73d
00000250: 9b2c fcbd 54ef 7dbe d331 dfbe f23a dcbc
00000260: 7afe 7ebd 56bf e73e b3f9 633e 18d2 cebd
00000270: aff1 733d a4f0 5fbf 2397 ba3d 40ca 063d
00000280: 1823 6ebd 911d 0bbe 1673 31be 3808 edbd
00000290: 141d dc39 8a8b 9fbd 3263 4abe c1ef 523d
000002a0: 1f89 54bc e2bf 083e 191e 133f a8f9 b7bc
000002b0: 3572 2abc 7774 11be 84f2 3ebf 8069 6ebd
000002c0: 94c6 49be baf3 b1bd 940b b2be d35b a1bd
000002d0: ca4e b0bd ed0e 3ebd a1c4 80bb 8404 a73e
000002e0: 72f9 283a a7da 59bd c226 103e 468b 06bf
000002f0: 8029 0a3d 692d 303d 7858 573d 26a3 fcbe
00000300: 428e 1d3e fc09 3bbe 025f e13c 85e9 1abd
00000310: 6ec7 3e3d 0c2c 0a3f 2a13 163d 4bbb 74bd
00000320: 8779 a9bd d62e 13bf a10c 213e b336 36bd
00000330: 184b 35bc 8800 0cbf 0684 4bbe 3f92 14bb
00000340: 1872 ec3c f4fa 7ebd 5c47 1ebd 66f7 8a3d
00000350: e430 0bbd df9f 383e 4a3b 143e 60ae 183c
00000360: ac88 8b3c e857 5c3f a788 15bd 6e0d 513d
00000370: 69fa 80bc b283 acbf 3909 9c3d 42f4 b4bc
00000380: cf6a 123d 510d e33e 926f 3e3d 1c08 b73c
00000390: 21a0 ec3b 5777 353f eba2 de3c fd70 273c
000003a0: 6cc5 eebb 7a91 a7bf 9486 a03c dc34 d5bc
000003b0: 9c2a c6bc a37c 9bbd 74b8 92bd 2401 5b3c
000003c0: 21ea 55be dbda daba 3235 2b3e 6bc6 c9bd
000003d0: 5e5f d3bc 7cb0 1cbe da33 dbbd b4ed b6bc
000003e0: a3ad 033e 9347 3d3e c79d 9b3d 991d 243e
000003f0: 16b0 13bc 5149 a73d 1a96 5aba 7d79 e83d
-0.015093845 0.025327196 -0.04558954 0.025547985 -0.0006632457 0.066865325 -0.00503714 0.07601056
-0.22885472 0.113305084 0.1813822 0.022638587 0.05006581 0.15517549 0.1815181 -0.043902587
0.41606382 -0.06945529 -0.39594054 -0.29375035 -0.56786764 -0.026526362 -0.10174723 -0.19577459
0.057681907 -0.2064529 0.08041536 -0.35000739 -0.2511397 0.03248982 0.10561929 -0.69126815
0.02625315 0.09056431 -0.81195647 -0.20947449 0.044213094 -0.26801416 0.21209832 -0.31619966
0.0912206 0.28483516 0.012179571 0.00940187 -0.10318664 -0.1282217 -0.15714173 -0.09843248
-0.3837395 -0.43102354 -0.08505976 -0.06360429 0.25395948 -0.1850895 0.2756074 0.09281685
-0.3394683 0.0040822118 -0.64431846 0.07559113 -0.17600605 -0.6405689 -0.425014 0.07294679
-0.047713984 -0.76818925 -0.05437414 -0.02559591 0.031702656 0.03531535 0.107614085 0.039065838
0.21188697 -0.8788137 0.31669754 -0.03326671 -0.07762525 -0.072047055 0.014134237 -0.009473451
-0.030758308 0.007757226 -0.17996077 -0.11735865 0.014993882 -0.012162392 0.29518342 0.7654532
-0.013674023 -0.0020836103 -0.26608515 -0.78539777 -0.018362518 -0.0069805463 -0.054206878 -0.034074288
-0.015395043 0.057661794 0.15076084 0.23341553 0.106837004 -0.02791458 0.19524819 -0.38531706
0.10798145 0.032457504 0.0103965 -0.52452654 0.016577085 0.001430575 0.11757528 -0.40828496
-0.01554564 0.04433408 0.18200412 -0.10681818 0.06489933 0.10721187 -0.7225776 -0.6227188
0.035826735 0.071797766 -0.5895476 -0.056513187 -0.044310026 0.18663585 -0.26923105 -0.35288608
-0.11639796 0.08216793 -0.52483517 -0.18806878 0.11421621 0.1566152 0.20950145 -0.40172702
-0.040244274 0.072677076 -0.2590068 -0.7468042 0.11900895 -0.080728404 -0.046982404 0.12621062
-0.15752338 -0.020025136 -0.0016570841 0.081836835 -0.12313195 -0.24798328 -0.435927 -0.026883576
-0.062254407 0.45263165 0.22263221 -0.10098666 0.05955666 -0.87476563 0.09110858 0.032907724
-0.058138937 -0.13585497 -0.17329058 -0.11573833 0.00041983335 -0.07790287 -0.19764403 0.05149818
-0.012972145 0.13354447 0.574678 -0.022457913 -0.010403206 -0.14204584 -0.745888 -0.05820608
-0.19704658 -0.08689065 -0.34774458 -0.07878842 -0.08608778 -0.046400953 -0.00392969 0.32620633
0.00064458617 -0.05318704 0.14077285 -0.52556264 0.033730984 0.043012056 0.052574605 -0.49343222
0.15386298 -0.18265527 0.027511124 -0.037820358 0.04657691 0.5397346 0.03663937 -0.05974893
-0.082751326 -0.5749334 0.15727474 -0.04448576 -0.011065267 -0.5468831 -0.19874582 -0.0022670177
0.028862998 -0.062251046 -0.038642272 0.06785469 -0.033982173 0.18029736 0.14475742 0.009318918
0.017032944 0.86071634 -0.036507275 0.0510382 -0.015744405 -1.347769 0.076189466 -0.022089127
0.03574639 0.44346097 0.04649312 0.022342734 0.0072212373 0.70885223 0.027177295 0.01021981
-0.007286718 -1.3091271 0.019595422 -0.026026182 -0.02419024 -0.07592132 -0.07164088 0.013366971
-0.20890094 -0.0016697304 0.16719511 -0.09852298 -0.02580231 -0.15301698 -0.10703249 -0.022330143
0.12859206 0.18484335 0.07598453 0.16026916 -0.00901415 0.08168281 -0.0008338407 0.11351297

weight f4 [32, 32, 5, 5]
00000000: 3f90 3e3d 083c 39be 5e3b 053d 2e3f 833e
00000010: 8084 023e 5acb f93d c180 80be b8d8 c6bc
00000020: 3570 c7bd f446 95be aa8f d0bd b871 5fbd
00000030: c3b4 823c bc78 04be 9643 d2bc 383a d4bd
00000040: 036c 2abf 3bcf a8be 62e5 103c 3cd8 b0be
00000050: 4792 c73d 54c2 b23b e061 febd 57bc a13d
00000060: 8381 f63d 3297 313e 96ff 9abe ed5d 0a3e
00000070: 813f 0d3f ab9c 063f 7142 a0be c8a6 7e3e
00000080: 4fa7 56be be22 13be 4053 583e 0016 963d
00000090: 85fe 8ebe e03e a3be 12b8 433e 4056 3dbe
000000a0: b677 03bd 5a5c 993d 6d27 04be 43ae d0be
000000b0: 0aa8 2bbe 4d8d 3dbe 954b d63e 19b2 c8bb
000000c0: 6ee2 213d fc12 bb3e caea 963e cc1d 30be
000000d0: 9aba edbd 18e0 883e dcde 113d 83c4 f63e
000000e0: d9b9 ab3e ef3a 38bf 71d0 f9be 751c 26be
000000f0: 3975 8dbd 9393 573e 3509 9ebd 3ab6 f0be
00000100: 8885 fd3c 848b 313e 0c67 adbe e9a4 bfbd
00000110: 79e4 b03e 9e09 6dbe d12a 973b 0070 9ebe
00000120: 5722 953d 46a2 a8be 6e56 983d 4faa 413d
00000130: b67c f1bd 919c 0e3f a6ed d8be 5f74 333c
00000140: 2eb7 17bf 9225 553e a17e f3bc b3b1 1cbf
00000150: a619 c33c 2217 8cbd 48c7 c8be 2d64 153c
00000160: 573d c83d 3d9e 36bf 870d 94bf fbfc 24be
00000170: 1826 cdbe f21a 85be fed6 fe3d 614a 1abb
00000180: ff58 653e fe53 bebd 6a0c 433e 8263 3bbe
00000190: dc35 d23a 4174 cf3d bbb0 073e 8ba7 413f
000001a0: f788 45bf 30da ccbe 0903 a03e 24e1 7f3e
000001b0: 8513 86be d5e1 13be 7f30 bdbe 0d86 25be
000001c0: c45a b43e 59b6 933e d992 483f 43f0 fabc
000001d0: a761 cf3a 9b4c efbe 416e b0bd 67f2 1cbf
000001e0: 73a6 2a3d ffa4 163e 02be 0e3e ce49 4fbe
000001f0: 22e9 70bd 2f06 2a3e 4ffc 583e f565 e4bd
00000200: 5ce9 5abd 479b 23be 01d0 983d 1fc4 a8be
00000210: 9b2d 3fbd 100c 35bd d315 d6bc c6ff 36bc
00000220: 1676 1ebe 7808 4a3d 97a4 a93c d187 353e
00000230: 5f46 83be 1559 edbf 5519 55bf 146d 9fbd
00000240: dca0 14bf f993 71bd 0580 fdbe 12d6 4f3e
00000250: 9d4f cbbe ef3d 08bf b434 8d3e bf3a 68bd
00000260: 2693 ccbd 186f 93be 3ff6 19bf 9d80 063e
00000270: b87e ff3d f87d ccbe 8491 31bd 1884 47bf
00000280: e813 a83c 0040 613e 46e8 32be 8c6a 1b3e
00000290: 5f1e 223e c470 4cbe 1c73 3ebc a71b b6be
000002a0: b09e 98bd 6812 8cbd d958 5d3d a52c f63d
000002b0: 00bb 1bbc 58b2 a83e 03a4 c83d 1989 8f3d
000002c0: 0327 27bf d623 043f 99e2 c3bd 17a3 463d
000002d0: 8a3d be3d 7086 a73a c6b2 f2bc e34d 9a3e
000002e0: cda6 4cbf 3d05 0b3d 5bbb d0be 6bb2 a3be
000002f0: a519 273e 8b75 1fbe 9ac4 063e c8c2 9fbe
00000300: 9e0f a7be 48b9 4a3e 2f8a 003e 7c57 87be
00000310: f53a 4cbe e93b 19be d0e3 843e 339d c2bd
00000320: 68af 173e 2fc3 07be d494 9f3d fd39 c23e
00000330: e7d6 f93d bdc2 4dbf e878 133e 6a7d 35be
00000340: 82ad 9ebc fc48 8cbd 7927 70bf 6b20 253e
00000350: 32c2 3a3e dc81 05bb fa51 0bbf 012d 0fbf
00000360: 9f40 b5be 9dda 8cbe b204 c83d c8fc 053c
00000370: d8e4 61be 3e0f 833e f4b5 9cbd d46f 9bbe
00000380: 4e6b a43e d486 d33d d066 0a3e 7882 c4be
00000390: fcda 31be 4b3f 8c3d e48f 9ebe 9189 9fbe
000003a0: 42cd 303e 0a85 90be b63e aebe 05c6 d6be
000003b0: 8dfd 0d3f aa73 ffbc ddab 01bd 77de 04bd
000003c0: c2bd 44be 064e 083e b36a 90be 4c55 ec3d
000003d0: 1be0 06bf 0bbc 02be 54ff 733e dacd 083e
000003e0: f097 923d 7dc7 723e d493 663f 4e82 02bf
000003f0: 585d 273d 9157 6a3d 6163 1f3e d90c 0abf
0.046524283 -0.18089306 0.03252732 0.2563414 0.12745857 0.12196989 -0.2509823 -0.024273261
-0.09738199 -0.29155695 -0.10183652 -0.05455181 0.015955335 -0.12936682 -0.025666993 -0.10362667
-0.6657106 -0.32970604 0.008843752 -0.34539974 0.09744697 0.0054552946 -0.12421012 0.07897251
0.12036421 0.17342833 -0.30273122 0.13512392 0.55175024 0.52582806 -0.3130069 0.2486831
-0.2096226 -0.14368722 0.21125507 0.07328415 -0.27928558 -0.31883907 0.19113186 -0.18489933
-0.032096587 0.07488318 -0.12905665 -0.4075795 -0.1676332 -0.18510933 0.4185454 -0.0061247465
0.03952258 0.3653792 0.29476005 -0.17198867 -0.11607857 0.2673347 0.035612926 0.48196802
0.33540228 -0.71964926 -0.4879184 -0.16221793 -0.06907124 0.21052389 -0.077166 -0.47014028
0.030947462 0.17338377 -0.3386768 -0.09357626 0.3454931 -0.231482 0.0046132584 -0.30944824
0.072819404 -0.32936305 0.0743836 0.04728156 -0.11791365 0.5570765 -0.4236881 0.010953038
-0.59263885 0.20815113 -0.029723467 -0.6120865 0.023815941 -0.0684035 -0.3921454 0.009118122
0.09777325 -0.713352 -1.1566628 -0.1611213 -0.40068126 -0.2599712 0.1244335 -0.0023542868
0.2239723 -0.09293364 0.19047704 -0.18299678 0.001603778 0.101295955 0.13251011 0.75646275
-0.77162117 -0.40010214 0.31252316 0.24988228 -0.26186767 -0.14441617 -0.36951062 -0.16164418
0.352255 0.28850058 0.7834907 -0.030632144 0.0015821949 -0.46738133 -0.08614779 -0.61307377
0.041662645 0.14711379 0.1393967 -0.20242998 -0.058816083 0.16603921 0.21189998 -0.11152259
-0.053445205 -0.15977202 0.074615486 -0.3296213 -0.046674352 -0.044200957 -0.026133453 -0.01116938
-0.15474734 0.049324483 0.020708365 0.17727591 -0.25639626 -1.8542811 -0.8324178 -0.07784477
-0.5805795 -0.05897901 -0.49511734 0.20296505 -0.39709178 -0.53219503 0.27579272 -0.05669665
-0.09989004 -0.28795695 -0.60141367 0.13135 0.124753416 -0.39939857 -0.043351665 -0.77935934
0.020517305 0.2199707 -0.17471418 0.15177363 0.15831898 -0.19964892 -0.011624124 -0.35567972
-0.07452142 -0.06839448 0.05403981 0.12020234 -0.0095050335 0.32948565 0.09796908 0.07008571
-0.652939 0.5161718 -0.095647044 0.04849538 0.092890814 0.0012781154 -0.029626261 0.30137548
-0.7994202 0.033940542 -0.4076794 -0.3197206 0.16318376 -0.15572183 0.13160935 -0.31203294
-0.32629102 0.19797242 0.12552713 -0.26433933 -0.19944365 -0.1496426 0.25955057 -0.095026396
0.14813006 -0.1325805 0.077920586 0.37934867 0.121991925 -0.8037527 0.14401591 -0.17723623
-0.019369844 -0.06849858 -0.9381023 0.16125648 0.18238142 -0.0020371592 -0.5442196 -0.55928046
-0.35400864 -0.2751054 0.097665206 0.0081779435 -0.22059953 0.25597566 -0.07651892 -0.30358756
0.32113117 0.10328451 0.13515782 -0.3838079 -0.17368692 0.0684801 -0.30969155 -0.31159642
0.172658 -0.282265 -0.3403222 -0.41947952 0.5546501 -0.031183083 -0.031658042 -0.03243872
-0.19213012 0.13311014 -0.28206405 0.115397066 -0.5268571 -0.12767045 0.23827869 0.13359776
0.07157886 0.23708911 0.9006932 -0.5098008 0.040860504 0.057212416 0.15565254 -0.53925854

weight f4 [64, 32, 5, 5]
00000000: 24af feba 3da4 d23d 7e7c 82bd e874 633e
00000010: cee9 44be 2c19 5d3e 836e 433d a6a7 363e
00000020: 234d 16be fdc8 003e 8b77 9b3d e625 68be
00000030: d363 23be 16a0 a63d a82a 2a3f 0db5 f0bd
00000040: 1ee3 5a3d 5ab1 383d b1a9 17be bd7e a33e
00000050: 8c19 3dbd 2f30 f1be a281 01be 3ac8 023f
00000060: 3304 8c3e 598f 8e3e bf56 e2be c444 5d3e
00000070: 8a5b 3e3e 3cc6 203d e10e 843c 27ef c83e
00000080: a825 793e cc91 33bf 8145 56bd 2f4c 673e
00000090: 22fc 623e d593 2a3f 4642 b33d e83f d1be
000000a0: 065a 443e d264 aa3e 0094 20bf 2661 c03e
000000b0: ea05 ec3d f854 bcbc 3f80 253f f9b2 a83e
000000c0: b86f 1a3d 3c34 5abd 110f 6abe 87d0 b3bd
000000d0: 2ca0 f83e 690e 7c3e 0bd0 8fbe 4809 bc3d
000000e0: 3d9c eebd 65e2 19bf d13d 82bf e111 0fbf
000000f0: 9168 f63d b6fc 9d3d 248c 2cbf d54f 283e
00000100: 2bc4 f5be 5a02 813e b897 513e eb47 14be
00000110: 2550 80be 9a1f 82be c94f d93e 5037 d13d
00000120: 6ec8 d63d 07b9 f43d 86d1 1ebe 0f1c dbbe
00000130: d97f f9be 3eee afbd d4f0 b03e 80c9 7fbe
00000140: e101 ec3e c197 d73d ef78 a73e d215 383f
00000150: 8ce5 513e a326 703e 25f1 c5bc 89f0 10bf
00000160: b70d 13bf 1c48 9abf 9a51 b4be ad57 0cbe
00000170: 03af 8abf 1246 1f3d be24 b73e 2e67 383d
00000180: 5f01 d5bd f29a 38bc b17c 0b3f c9dc d23d
00000190: 0e39 55be 0300 933e 5ad1 ac3e 3fa1 0ebd
000001a0: b410 e83d 4650 ebbe c0b7 0abe d7f6 593d
000001b0: 45a2 2dbd 56ad 333f 50ad 813e 68d3 c4be
000001c0: 3575 4abe 66d8 093d c1b6 95be db12 05bd
000001d0: 1a94 703e 5f90 58be a93b 05bf 3f3e 17bf
000001e0: 2c2e e1be d143 5fbe 5e95 c6bd 8d1b b53e
000001f0: 5ee4 efbe 15bf b7bd 9fbc 00bf 5c12 b3be
00000200: 3692 e13e f554 32bf 29ff f23e 6e71 cdbe
00000210: 355b 403e 3990 90be cb52 53be 4efa babb
00000220: 0074 6e3e 1679 113e f063 673c c98c 52be
00000230: 672c 0dbf 1456 6dbe 7c45 493d 8171 82bd
00000240: 3b06 b5bc 26c6 01bf 1f85 f9bd 35bf 203e
00000250: 052e 4cbd 991c db3d e4df 90bc 7485 dbbe
00000260: 76b9 823d 47df de3d fcee 6fbe 4b6d a43d
00000270: ec2e 35bb ad87 1c3e 5305 b0bd a760 8e3d
00000280: 8c68 f1bc b69e 863e 6788 803e bc3a 87be
00000290: e2cc 3cbe f138 153d e2e0 98bd 7891 5cbd
000002a0: a2b1 04be 4f91 b0be 476f a53e c7e4 2a3e
000002b0: ecd8 69bd 7234 bfbd 76ef 933d 7869 3dbc
000002c0: 44f5 c3be 6585 093e 67df 47be a475 3c3c
000002d0: f67b 443e 0185 c13d 88d8 103e 450a cbbd
000002e0: 9caa 06bf 8c81 f43d 13da 053c c437 94be
000002f0: e577 4d3e 71fc 9d3e 320e a13d 2ce7 80be
00000300: f70d 27be 820c c4bd d981 c13a 8a81 343e
00000310: 6d55 9cbe 6321 1abe 11b1 56bf 6c02 89be
00000320: f988 9f3e d76c cb3e dcb2 43be c810 b8be
00000330: eef2 e13d cbab c53e 563d 54bf 7321 3e3e
00000340: 0541 0fbf 5de3 f33e f17e 873e c44f 093e
00000350: 0114 a8be b6ef d1bd d606 14bf 894f 853e
00000360: ab73 ebbe 1f99 8b3d a4f9 c93b ea53 fe3e
00000370: bfd2 1c3f d77c 0dbe 0fc9 343e 1930 913e
00000380: 27c4 753e 65ef cd3e 3791 aabd 9449 a13a
00000390: 65b8 38be b55a 163f b719 433e b25a 95bd
000003a0: ffcf 8a3e 8b65 933c 9ddb 973c 763b f53c
000003b0: e784 9ebd c629 48bd f7f0 bdbc 71ae ed3d
000003c0: e475 f43e 2e5f 2d3e 9567 0fbf 61d4 863d
000003d0: 5f34 7a3c ebeb 8bbe 5f7f 073e e757 873e
000003e0: 6cd2 7a3e c8cd 3fbd 6071 e63d 582a 823e
000003f0: 821c 903e 3a04 36be d70a d93e 364a eb3e
-0.0019430858 0.10285232 -0.06371401 0.22212565 -0.19229814 0.21591634 0.047712814 0.1783739
-0.14677863 0.12576671 0.075911604 -0.22670707 -0.15956049 0.08136003 0.6647134 -0.11753283
0.053439252 0.04509101 -0.14810826 0.3193263 -0.04616694 -0.47107074 -0.12647107 0.5108677
0.27346954 0.2784374 -0.44206807 0.21608263 0.18589607 0.03925155 0.016120376 0.3924496
0.24330771 -0.70144343 -0.052312378 0.22587655 0.22166494 0.66631824 0.08752875 -0.4086907
0.19174966 0.33280045 -0.6272583 0.37574118 0.115245655 -0.022989735 0.64648813 0.32949045
0.0377042 -0.05327247 -0.2285731 -0.08780008 0.485597 0.24614872 -0.28088412 0.09181458
-0.11650894 -0.60111076 -1.0175115 -0.55886656 0.12031663 0.077142164 -0.6740134 0.16436704
-0.48001227 0.25197107 0.20468032 -0.1448056 -0.25061145 -0.25414735 0.42443684 0.10215628
0.10487448 0.11949354 -0.15509614 -0.42794845 -0.48730353 -0.08590363 0.34558737 -0.2497921
0.46095183 0.10526992 0.32709453 0.71908295 0.20497721 0.23452239 -0.024162838 -0.5661703
-0.574428 -1.2053256 -0.35218507 -0.1370532 -1.0834659 0.038885184 0.3577022 0.045020275
-0.10400652 -0.011267411 0.5448714 0.10296018 -0.20822546 0.28710946 0.33753473 -0.034821745
0.11331311 -0.4595968 -0.13546658 0.05321392 -0.04239108 0.70186365 0.2532754 -0.3844254
-0.19771273 0.03365364 -0.29240993 -0.032488685 0.23493996 -0.21148823 -0.5204416 -0.59079355
-0.4398054 -0.21803214 -0.09696458 0.35372582 -0.46853918 -0.08971993 -0.5028781 -0.34974945
0.44056863 -0.69660884 0.47460297 -0.40125602 0.18784793 -0.28235033 -0.20637052 -0.005706108
0.23286438 0.14206347 0.014122948 -0.20561518 -0.5514588 -0.23177367 0.04913853 -0.063693054
-0.022097697 -0.50692976 -0.12183594 0.1569794 -0.049848575 0.10698814 -0.017684884 -0.42875254
0.0638303 0.108824305 -0.23431009 0.080286585 -0.0027646376 0.15286131 -0.085947655 0.06952029
-0.029468797 0.26292962 0.25104067 -0.26411998 -0.18437532 0.036431257 -0.07464768 -0.053849667
-0.12958387 -0.34485862 0.3231146 0.16688834 -0.05709164 -0.09336175 0.07223408 -0.01156079
-0.3827306 0.13429792 -0.19518815 0.011502657 0.19187912 0.094491966 0.141451 -0.09914068
-0.5260408 0.119387716 0.008169669 -0.28948796 0.20065267 0.3085666 0.07864036 -0.2517637
-0.16313921 -0.09572698 0.0014763429 0.1762754 -0.30533925 -0.15051799 -0.8386393 -0.2675966
0.3115919 0.39731476 -0.19111198 -0.35950303 0.11032663 0.3860763 -0.8290609 0.18567447
-0.55958587 0.47634402 0.26464036 0.13409334 -0.32827762 -0.10250799 -0.5782293 0.26037243
-0.45986685 0.06816315 0.0061637927 0.49673396 0.61259073 -0.13817154 0.17654823 0.28357008
0.24000607 0.40221706 -0.08328479 0.0012305253 -0.18039091 0.5873216 0.19052778 -0.072926894
0.27111813 0.017992755 0.018537337 0.02993558 -0.07740193 -0.048867963 -0.02318619 0.11605538
0.47746193 0.1693084 -0.5601743 0.06583477 0.015271275 -0.2732843 0.13232182 0.26434252
0.24494332 -0.046827108 0.11252093 0.2542293 0.2814675 -0.1777505 0.42391083 0.45955056

weight f4 [256, 256]
00000000: a19e 223b 4ee6 b83c b862 5a3c 27bb 8d3d
00000010: a30c b63d b212 aabc 96b9 90bd 6887 d0bd
00000020: 4cbf 573c e351 fbbd f134 85bd afee 3e3d
00000030: 34c1 2c3e 5a40 1f3e c5d6 61bd 785c 693c
00000040: 0841 1fbe 565d 5a3e dc9a df3d d7ee d23b
00000050: 7f56 f8bd c510 403d 0077 f5bc ff40 c1bd
00000060: 6bab 963d c132 15be 334a 23be c221 07bd
00000070: 8060 993b eee7 8f3c 3b74 49bd f72e 473c
00000080: fa69 fb3e 60d4 933a c545 6c3b 25e7 a33e
00000090: f3c8 01bd 5aa2 94bc d753 ae3c d510 01bc
000000a0: 0b7d 343e 1598 7fbe 1fe5 fcbc 2625 96bc
000000b0: 610e e43c 0432 183d 4dbe 53bd d6be 513d
000000c0: 21ee c9bd 1d95 9d3d 56ec c33c 2474 843d
000000d0: ad36 84bc 8046 ed3b 38d7 7cbd cd84 b9bd
000000e0: c086 2f3b c6f1 13bf 4969 a23e 44d8 40bd
000000f0: 41a8 843e 71b0 033f 0b3f ddbd 63b3 8ebe
00000100: 236e 9abd 8993 99bd 93ff b1bd 758e 9b3d
00000110: 6bef 193e d901 6d3c db8b 073c 36f6 8bbd
00000120: a2ec 96bd 7c62 87bd 9671 933d 2d8a 90bb
00000130: 4ad1 2abe 0228 9d3d 2bdc 36bd f8de 003c
00000140: d522 383d 0226 e2bc ceea fb3d aa0f dd3d
00000150: 1ea8 21be c924 26bd f1c8 1a3d f00e 1c3c
00000160: 1c06 7dbb 31d3 393d 0e3c b2bd 32f0 d1ba
00000170: dd54 123d 4fa4 36bd 74ed 2b3d 6312 b7bd
00000180: 86ee d73e c755 ae3d 8e98 33bd d4a0 e13c
00000190: 11dc ca3e f46a f4bd 7e32 6d3e c570 0bbf
000001a0: 3884 e83d 962c a13d 9913 be3b 724f e13d
000001b0: 2dd9 093e a59f 403c 3601 253e d4a0 4d3e
000001c0: 33f3 4fbc 55fb 48bd 2183 82bd 3bb1 883d
000001d0: 2713 b7bd 6bac ef3c edbd 16bc 6729 6539
000001e0: d0f0 fbbd 37d6 653d 31e3 8cbe be1f 90be
000001f0: 5a12 5d3d ccc9 083d 5e5c 94bc 5f7f bebd
00000200: 6df8 1fbd 7bd4 9dbc ab09 10be 9590 6e3e
00000210: c4aa a63d decf b3bd ffb6 9abd 2609 b8bc
00000220: cfa9 c4bc d471 b73c df0b 51ba 5aaf f53c
00000230: 792e c7bd ecdb 85bc 047d c13d e2be d43c
00000240: de3e 9e3d de34 a93b 5699 f13c 3aa3 75be
00000250: 09ae 15bd ba1f 863d ec79 95bc c93c cabc
00000260: 7bad 803d 9894 af3d 8bc2 a03d ec9c 21be
00000270: 2635 5a3d 2b73 a7bd b06d d0bd 8838 e63d
00000280: b2fd 77bd 0417 123d 8cd0 63bd 1160 a43d
00000290: 2946 d9bd bc80 343d c242 993d 209e 7abb
000002a0: fe99 b53d d49d d33d 63c6 413d 4bcf b13d
000002b0: 8b1b 84bd 4dd9 19bd 324e 083d 5822 cdbe
000002c0: 09a3 853d 9f44 843b 184b b03d ca70 a7bd
000002d0: 8c92 b0bc aa10 93bd 0ed6 383c 07df fb3c
000002e0: 6a21 4fbe 2aba d1bd 2071 113d 76b8 edbd
000002f0: 239e b53b b7cd b03d c764 80bd 4131 e6bc
00000300: daa6 71bd 3b77 58be 6d8b 3d3d e454 b33e
00000310: a75f fa3b 13ff 1cbc 64ae 43bd a578 0b3d
00000320: 5ab6 cabd f2f1 28be 5da1 b23d 5c3d 083b
00000330: ac65 20bd a5cd 093e c9db b93d 877a 5b3c
00000340: cd81 f33d 9ba1 283d c15e b13c f16a 72bc
00000350: ba37 923e 93e8 dd3c 8584 8cbe 8e4e 83be
00000360: f9db 1e3e e30e 293e beae fdbd dd6e 103e
00000370: a565 c6bc eb5a 3a3d a2d4 17bd 4d74 d93b
00000380: 256a 1cba 57e5 6b3d c93d bd3d b345 1bbd
00000390: 572b 3f3d 6577 553d 1f15 0c3d 9c74 b0bd
000003a0: 6f4c 61bd 0f0e 383d 081a 8a3d 1238 813d
000003b0: 8add 1bbe cf72 453d ee04 913e c99b 13bd
000003c0: 844d 383e bd8b ae3c 080d e4bd aee9 57bd
000003d0: e11e 9dbd 267e 823d 6006 503d fe9a 143c
000003e0: 7931 f73d 9655 0f3d 4cb4 b73d e2b7 b53d
000003f0: 60d8 1a3c 6a98 18bc 9d8e d93c d29c b83b
0.0024813788 0.022570755 0.0133292 0.06920462 0.08889129 -0.020760868 -0.07066648 -0.10182077
0.013168167 -0.12271478 -0.065042384 0.046614345 0.16870576 0.15551892 -0.05513646 0.014243238
-0.15552151 0.21324667 0.10918209 0.0064371633 -0.12125873 0.046890993 -0.02996397 -0.09436225
0.07356914 -0.14570142 -0.15946274 -0.03299118 0.004680693 0.017566647 -0.04918311 0.012157193
0.4910429 0.0011278503 0.0036052328 0.32012287 -0.03168578 -0.018143822 0.021280212 -0.007877548
0.17625825 -0.24960358 -0.030870972 -0.01832826 0.027838888 0.037157074 -0.051695157 0.051207386
-0.098598726 0.07694457 0.023916405 0.064674646 -0.016139353 0.0072410703 -0.061728686 -0.09058533
0.0026783198 -0.5779079 0.3172095 -0.047081247 0.25909618 0.51441103 -0.1080304 -0.27871236
-0.07540538 -0.07498843 -0.08691325 0.07595531 0.15032737 0.014465773 0.00827309 -0.068340704
-0.07369353 -0.06610581 0.07199399 -0.004411003 -0.166814 0.076736465 -0.044643562 0.00786566
0.044955093 -0.027606014 0.12300645 0.10794003 -0.15786788 -0.040562425 0.03778929 0.009525046
-0.0038608378 0.045367423 -0.08702861 -0.0016017018 0.035725463 -0.04459029 0.0419745 -0.08939054
0.42174166 0.085124545 -0.04384666 0.02754251 0.39621022 -0.11934462 0.23163792 -0.5446895
0.11353344 0.07869832 0.005800676 0.11001481 0.13461752 0.011756812 0.16113743 0.20080882
-0.012692261 -0.049067814 -0.06372667 0.06674429 -0.089392 0.02925702 -0.009200555 0.00021854565
-0.12301791 0.056112494 -0.27517083 -0.28149217 0.05397258 0.033395573 -0.01811045 -0.09301638
-0.039055277 -0.019266358 -0.14066188 0.23297341 0.0813804 -0.08779882 -0.07554435 -0.0224653
-0.024006752 0.022393145 -0.0007974486 0.02999084 -0.09725661 -0.016340218 0.09447673 0.025969926
0.07726835 0.005163773 0.029492062 -0.23988047 -0.036542926 0.0654902 -0.018246613 -0.024687188
0.06283089 0.08573264 0.07849606 -0.15782517 0.053273343 -0.081762634 -0.10177171 0.11241251
-0.060544677 0.03566648 -0.055618808 0.08026136 -0.10609085 0.044068083 0.07483436 -0.0038241223
0.08867262 0.10332838 0.047308337 0.08682116 -0.06450566 -0.03756075 0.033277698 -0.40065265
0.06525237 0.0040365006 0.08608073 -0.0817581 -0.021554254 -0.07180913 0.011281503 0.030745996
-0.2022759 -0.10240586 0.035508275 -0.11607449 0.005542533 0.08632987 -0.06269222 -0.028099658
-0.058997013 -0.21139233 0.046275545 0.35025704 0.007640797 -0.009582299 -0.047773734 0.034050602
-0.09898062 -0.16498545 0.08722184 0.0020788526 -0.03915946 0.13457353 0.09075124 0.013395912
0.11889992 0.041169744 0.021651627 -0.014796005 0.2855814 0.02708844 -0.27444854 -0.2564587
0.155136 0.16509585 -0.12386845 0.14104791 -0.02421839 0.045496862 -0.037068017 0.0066361786
-0.00059667445 0.057591762 0.092403 -0.037908267 0.04667219 0.052115817 0.03419983 -0.086159915
-0.055004533 0.044935282 0.06743246 0.06309523 -0.15221229 0.048205193 0.28324074 -0.03603724
0.1799832 0.021306867 -0.11135298 -0.05271309 -0.07671905 0.06371717 0.05078733 0.009070156
0.12069983 0.03499373 0.08969936 0.088729635 0.009451002 -0.009313682 0.026557261 0.005633929

bias f4 [256]
00000000: 423c c6ba 5c35 883c 1aeb a73d d0c1 8dbc
00000010: 25ac 38bd 25b8 e4bd 083c 79bd f587 8f3d
00000020: 5688 1d3e 9293 06be eb4d b83c 0d2c 7ebc
00000030: d33c b33d 97a5 a4bd d934 f4bc df73 11bd
00000040: 5b8a 24bc 6cb5 59bd 0e9f 9f3d fecc 97bd
00000050: 0e27 bc3c fc3e 87bd 6585 a63d b9a9 5d3e
00000060: e4f7 21be 2b03 0b3e d4bf 313d 2adc a1bd
00000070: 1e30 e1bd fc45 d9bd 36a9 083e ff1d 113e
00000080: 9224 74bd c4e0 1aba 7632 993d d9da dfba
00000090: d2bc 09be b38c 15bc 47e2 5cbd 314c 29be
000000a0: bed4 59bd 2c39 3e3d b83a ee3c 7221 e7bd
000000b0: 90a2 1abd 60c4 1d3d 9810 f93d 9be8 283e
000000c0: 2b07 b3bc 9a3d aa3d 0d02 27bd b1f7 f13c
000000d0: 9630 13be 2c66 f33d f766 f43d 580d 21bd
000000e0: 2c5e 84bd 8ca1 323d 7d7d 623e 00f3 d73c
000000f0: b790 86bc 37b4 893d 0ff9 09be 18de 043c
00000100: cf1a 2d3b c0c0 123d e6f7 2038 7b38 58bd
00000110: 2ed0 c0bd 2eaf 77be 5f8c 6cbd d1c6 79bc
00000120: 8e7a 99bd 7eee ae3d 10ce 113d 3777 733d
00000130: 0087 eb3b 88f7 1a3d 641b 793d a3e1 30bd
00000140: 96b2 29be 1787 2b3d e81f 8cbc d566 13bd
00000150: 42b0 f7bd e135 e03d d647 a73d bf2f 353d
00000160: 1300 3d3e c160 6bbd 36ee 993d 747a f4bc
00000170: 8073 4d3d cdf9 f43d f1ac a73d 2c2f 423d
00000180: 2e7d 15be f6e4 803e b83c 12be 66f8 96bb
00000190: 309e 6b3d 0b50 0dbe c275 0fbe 0593 04bd
000001a0: af77 9abd c4c0 81bd 647a bcbd 4a81 f33d
000001b0: 9e38 1c3e 5c3a 133d aa59 c3bd f47e bc3d
000001c0: c502 08bd bb1f 4a3c 5429 75bd a8de 2d3d
000001d0: 54ca cdbd c393 fdbd 1e54 50bd 14e2 9cbd
000001e0: d0d2 eebc 2ec3 2c3e 96ac 443d abcf b5bc
000001f0: 32d4 78bc b409 e13c 0c18 1fbd d5bd 06bc
00000200: 0663 c4bd a63d f33c 59f7 6e3d 91b7 d63d
00000210: 5457 ecbd 4260 083c 3afb cc3d f14f b63d
00000220: aafd cebd 408b 10bd ae38 6bbd ea11 cebd
00000230: 5e6e 033e 1d3e 20bc 4a5c 24bd 4952 e7bd
00000240: d631 893d 9a98 073c a264 90bd e701 4d3e
00000250: 4121 503d e315 2b3e ab95 d8bc 7629 803d
00000260: bcf8 423d b66e 393d 9b94 47bd fa24 17bc
00000270: 2d2c f83d 2404 b23b 57e2 04be 446e c5bd
00000280: 1997 153d b167 b8bc a911 f23c 6cfd a4bc
00000290: 8599 a93d 5f9a 31be e81b a03d f4c3 30bd
000002a0: 3f9d 88bc dc52 66bd de8b 42bc a8bd 1c3d
000002b0: cb42 c6bc 7e96 4bbd 9e26 473d 7f62 dc3d
000002c0: ef66 703d 4fd7 b5bd bd2b c1bd 899e febd
000002d0: ed7a 9a3d d4e1 173d 279a 303e 7510 1cbd
000002e0: deeb f73c 0a9a babd ac81 343e 0222 04bd
000002f0: 6b83 63bd 66ba 90bd bc06 e6bc b887 f2ba
00000300: ffa0 8abc 570a 0a3e ce56 d2bd f0a3 e53d
00000310: a13b ed3c 0ea5 58bd 7462 5c3b 6f8a 053d
00000320: 0ce1 823d 25cb c4bd 8e6e de3d c11b 29bd
00000330: 1d2f 683c 5c10 3ebd 3e98 fd3c 11f7 863d
00000340: ec47 253e 267c dc3c 5f44 8dbd 994e b6bd
00000350: 656c 28bd 60f0 093e 66a2 e3bd 13f4 e13d
00000360: 462d b33c 8428 333e 3090 243d f9b3 5fbd
00000370: 9cee 153d f81b a9bc ec70 6a3d 604b fa3d
00000380: aed0 063e 2c63 07bc 5f8d b63c 2a6a 83bc
00000390: 7397 9cbc e3b1 033c 8563 01bd 337d 1ebe
000003a0: d732 62bd 165c b03d 6c9e 70bd 28b8 cb3d
000003b0: ef66 0dbd f53b c93d ff51 1ebe be78 2abc
000003c0: fdd2 0ebd dc21 293c 0d62 39bd 416b 1bbe
000003d0: 2fdb 9a3d 637a 82bb e8e8 a43b 4026 823d
000003e0: 5c86 c6bd 41f6 2e3d 48c3 b6bb 4910 9aba
000003f0: 4d0a e6bd f69a 1bbc fda4 5f3d caeb e53d
-0.0015124159 0.016627006 0.08199139 -0.017304331 -0.045086045 -0.11167935 -0.060848266 0.070083536
0.1538404 -0.13142231 0.022498092 -0.015513432 0.08751836 -0.08039396 -0.029810356 -0.035510894
-0.010042752 -0.053151533 0.07794009 -0.07412146 0.022967841 -0.0660381 0.08130912 0.21646775
-0.15817219 0.13575427 0.043395832 -0.07903321 -0.10995506 -0.106090516 0.13345799 0.14171599
-0.05960519 -0.00059081265 0.07480328 -0.0017078771 -0.13450935 -0.009127784 -0.053926732 -0.16532971
-0.053181402 0.046441242 0.029080734 -0.11285676 -0.037752688 0.038517356 0.12161368 0.16494982
-0.021854004 0.08312531 -0.04077344 0.029537054 -0.14374003 0.11884722 0.119337015 -0.039319366
-0.06463274 0.043611094 0.22118182 0.026360989 -0.016426427 0.067238264 -0.13473915 0.008109592
0.0026413684 0.035828352 3.8377846e-05 -0.05278824 -0.09414707 -0.2418792 -0.057751056 -0.015245155
-0.074940786 0.085415825 0.035596907 0.059439864 0.007187724 0.03783372 0.060817137 -0.043183934
-0.16572031 0.04187688 -0.017105058 -0.03598674 -0.120941654 0.109477766 0.081679985 0.044234987
0.1845706 -0.05746532 0.07516138 -0.029843546 0.050158978 0.11961708 0.08187283 0.047408268
-0.14598534 0.25174683 -0.14280975 -0.004607248 0.057523906 -0.13800065 -0.14009765 -0.03236677
-0.07542359 -0.06335595 -0.09203032 0.11889894 0.15255973 0.035944328 -0.095385864 0.09203902
-0.033205766 0.012336667 -0.059853867 0.04244867 -0.10048357 -0.12381699 -0.05086147 -0.076603085
-0.029153258 0.1687133 0.048016153 -0.02219375 -0.01518731 0.027470447 -0.038841292 -0.00822397
-0.095892 0.029692482 0.058341358 0.10484231 -0.11540094 0.008323731 0.10008855 0.08901966
-0.10106976 -0.03528905 -0.0574271 -0.100620106 0.1283507 -0.009780434 -0.040127076 -0.112949915
0.066989586 0.008276129 -0.07050444 0.20020257 0.050812963 0.16707568 -0.026438555 0.06257908
0.047600493 0.045271598 -0.048725706 -0.0092251245 0.12117801 0.0054326225 -0.12976967 -0.09640172
0.03652105 -0.022510381 0.029549437 -0.020140372 0.08281235 -0.17344044 0.07817823 -0.043155625
-0.016676543 -0.056231365 -0.011874167 0.038266808 -0.024201771 -0.049704067 0.048620813 0.10760974
0.058691915 -0.088789575 -0.094321705 -0.12432582 0.075429775 0.0370806 0.17246304 -0.038101632
0.030263837 -0.09111412 0.17627591 -0.032258995 -0.05554525 -0.07066803 -0.028079383 -0.0018503582
-0.016922472 0.13480507 -0.10270463 0.11212909 0.028959097 -0.052891783 0.0033628019 0.032602724
0.063905805 -0.09609059 0.108609304 -0.041286234 0.014171389 -0.04640232 0.030956384 0.06590093
0.16140717 0.026914667 -0.068978064 -0.0890171 -0.041118998 0.13470602 -0.111149594 0.110328816
0.021872174 0.17495924 0.04017657 -0.054614995 0.03660451 -0.02064322 0.057236597 0.12221408
0.13165542 -0.0082633905 0.022284208 -0.016041834 -0.019115185 0.008038017 -0.03158905 -0.15477447
-0.055224266 0.08611314 -0.058744833 0.099472344 -0.034521993 0.09825889 -0.15460967 -0.010404764
-0.034869183 0.010323014 -0.045259524 -0.15177633 0.07561337 -0.003981875 0.0050326474 0.06354952
-0.09693596 0.042715315 -0.0055774786 -0.0011754121 -0.112324335 -0.009497395 0.054600704 0.11226614

weight f4 [256, 256]
00000000: 3f8e 0dbd 92ae 76bc 0dab 23bc 80ff 0239
00000010: b189 7cbd 3f66 cbbb bcf3 4abc 7a58 f33c
00000020: fa1d 15bd f6b9 8abc b27d bebb 5c2e f4bb
00000030: 1b9c 0c3c ec5e 05bc b780 7d3c c22b 48bc
00000040: a192 663c 4963 5a3c 83ff 143c 6493 26bd
00000050: df43 f1bc 3484 4a3d 48fa 253c 0279 21bd
00000060: 6cce 0b3d dce6 053b 4cf3 12bd 8144 123d
00000070: 6530 153d 5691 0b3d e797 e8bc c1df 73bd
00000080: 482e 783d 12bf 51bd 8bef 72bd d2e6 e2bb
00000090: 72dd 0a3d b289 853b 76ca 0bbc 6f78 543c
000000a0: 17fc efbc adbf 00bd fe5a 03bd 1efa d3bc
000000b0: d9b3 88bc 95d7 d93c fae0 063d 0bc9 4e3d
000000c0: 668c 133c 5a83 4f3d 0dd9 f23c 2a54 87bc
000000d0: e6f2 9ebc 6e3f 04bc 227e 1e3c 9353 b93c
000000e0: 6492 293c 0fbd 81bc f6c5 003b be63 37bd
000000f0: f361 09bb 3efd 29bd 416e 413c d25d d1bb
00000100: 3eff 763c fb64 1dbd 42b8 bfbc 759a 8f3d
00000110: b2ce a0bc e72f 2bbc a92b f63c b8f3 10ba
00000120: 0790 d4bb bd64 613d 837a 2d3d 5f44 963d
00000130: e989 06bc 4c70 ac3b 6f5b 433b a3ef 453b
00000140: 39a2 fabc 6d74 f7bb c63e 2abb d616 88bd
00000150: 71d5 a23c 8a06 e73c 0dc0 d8bc 8718 b0bc
00000160: 2fbb 253d b37f 9a3c dd77 84bc 5115 2fbd
00000170: 59a4 9c3b 3039 29bd 2530 a7bb d013 723d
00000180: 24a2 bebc d23a c9b8 ffb2 c6bc 3d28 a4bc
00000190: ec43 d9bc 04d1 85bc d73d 4fbc 2d76 82bc
000001a0: 4e1e 7a3b 5d18 32bd 0e4c df3c 5efb b2bc
000001b0: 4afa c0bc ee73 14bd 45b4 9fbd 96f5 c3bc
000001c0: 2296 053e ab00 e5bc b080 273c 7ec9 303d
000001d0: d386 293c ad6d 863a d35f 553d 250a 8a3c
000001e0: 821c afbc 305a b43c 70f2 253c 731a b63b
000001f0: b2a2 aabb e31f 7cbc afb4 b2bc c2c4 dcbb
00000200: 76ca ff3b deb4 03bc b002 de3b 4446 b33d
00000210: a67a 81bc 91c0 3a3c 3925 18bd 9420 423d
00000220: ea6b c0bc 736d 3f3a c6df 10bc c4b5 30bc
00000230: 3687 0cba 791c 573d c426 dbbb 1517 f13b
00000240: e64d 1f3d 5770 f43b 58e1 81bd 387a dabc
00000250: b1ba 64bd 8f3e e5bc 3842 e73c 6485 d83c
00000260: 607c 8ebc 5b8f 5fbd 5c98 133d 06f6 37bc
00000270: 517e 34bd f8db 903c e4c8 f2bc cf92 e5bb
00000280: cb44 4abc 1a92 663a 9118 95bc ab9e 88bc
00000290: 6561 7e3d ea47 943c a446 5cbc fb23 3cbd
000002a0: 09c7 6ebd 0161 403c 47ad 543d a8d6 683a
000002b0: b060 f83c 99aa 063d 9cc8 6ebc 1bac ea3c
000002c0: 342a c9bb 43c6 3cbc e34a c33b c7c9 b9bb
000002d0: ee16 373a a8e8 c7bc c2ab 06bd ae67 91bc
000002e0: 85cc d43c f193 893c dc59 17bc 19a7 d5bc
000002f0: de4c 19bd ae12 97bb c6f4 e43c 240d 37bd
00000300: bf4e c63b b2bc 893c 64d5 07bd 6d58 a23a
00000310: e91f ebb9 2dc6 373b f5b5 4b3c bc7a 8d3b
00000320: ad0c 34bc 107d fe39 08bf e43c 8528 a53b
00000330: 6e39 5bbc 3c64 e53c 5217 e23c 16d6 d03c
00000340: f5bb 39bd 2b16 4bbc d87b 583d 2ccf 43bd
00000350: ffdd ac3c 8622 b5b9 e478 433c 4b3a 813b
00000360: 64f5 9e3c 1c39 6b3b 857f 883c a66b aebd
00000370: 00cf 40bd 8cd2 883d f42e 83bc bcb5 313c
00000380: d18b 493d f3a7 dbba 43f1 243d 4a58 9a3d
00000390: 8992 603c a7f9 2b3c 46fc eaba 4dc7 0ebc
000003a0: 0b16 04bd fd14 d23c ec0c 52bc b507 e7bc
000003b0: 706c 60bc f68f a3bb bbd4 61bd d8aa 103c
000003c0: 4b78 d43b 0ded f9bb 94ab 24bb cc04 523d
000003d0: a109 233d 6b8b 0abd f7ed ffbc b62f 54bd
000003e0: fd6b 80bc 9cb0 debc cced be3c 5002 3bbc
000003f0: e508 35bc 9b04 d3bb f978 023c 5836 3dbc
-0.034559485 -0.015056269 -0.009989512 0.00012492947 -0.06165475 -0.006207257 -0.012387212 0.029705275
-0.03640554 -0.016934376 -0.005813324 -0.0074518155 0.00858214 -0.008140307 0.015472583 -0.012217464
0.014073045 0.0133293355 0.009094122 -0.040667906 -0.029451309 0.049442485 0.0101304725 -0.039422043
0.034132406 0.0020431792 -0.035876557 0.03570986 0.036423106 0.03407415 -0.028392745 -0.05953956
0.060591012 -0.05120761 -0.059310477 -0.0069244886 0.033902593 0.0040752525 -0.008532157 0.012968167
-0.02929501 -0.031432796 -0.0320692 -0.025876101 -0.01668732 0.026592055 0.032929398 0.0504847
0.009005642 0.050662376 0.029644514 -0.016519625 -0.019402932 -0.008071763 0.009673627 0.02262286
0.010349844 -0.01583722 0.0019649244 -0.044772856 -0.0020962923 -0.041501276 0.011806072 -0.006389358
0.015075503 -0.03842638 -0.02340329 0.07011882 -0.01962981 -0.0104484325 0.030050116 -0.0005529481
-0.006486896 0.055027712 0.042353164 0.073372595 -0.008211591 0.0052624103 0.0029809137 0.003020265
-0.030594932 -0.007551721 -0.0025977357 -0.066449806 0.019877167 0.02820136 -0.026458764 -0.02149607
0.040461715 0.01885972 -0.016170437 -0.04274494 0.004780334 -0.041314304 -0.005102175 0.059100926
-0.023270674 -9.595383e-05 -0.024255274 -0.020038718 -0.026521645 -0.016335018 -0.012649021 -0.015925491
0.0038165036 -0.043480266 0.027257945 -0.021848377 -0.023556847 -0.03624337 -0.077980556 -0.023920815
0.13045552 -0.02795442 0.010223553 0.043160908 0.010347086 0.0010256075 0.05209334 0.01685054
-0.021375898 0.022015661 0.010128602 0.005557352 -0.005207383 -0.015388462 -0.021814672 -0.0067373225
0.0078061176 -0.008038728 0.0067752227 0.087536365 -0.015805554 0.0113984505 -0.037144873 0.04739435
-0.023488957 0.0007302381 -0.008842414 -0.010785524 -0.0005360724 0.052517388 -0.006687971 0.007357488
0.03889265 0.007459681 -0.06341809 -0.026669607 -0.055842105 -0.027983932 0.028229818 0.026430793
-0.017393291 -0.054580074 0.036033973 -0.01122809 -0.044065777 0.017683014 -0.029636808 -0.0070060263
-0.012345503 0.00087955745 -0.01820019 -0.016677221 0.0621046 0.018100698 -0.013444576 -0.04593275
-0.058295283 0.0117418775 0.051923063 0.0008882084 0.030319542 0.03287754 -0.014574196 0.02864652
-0.006139064 -0.011521879 0.005959855 -0.0056698057 0.0006984313 -0.024402931 -0.032878645 -0.017749634
0.025976429 0.016794177 -0.009237733 -0.026080655 -0.037426822 -0.004610381 0.027948748 -0.044690266
0.0060518677 0.01681361 -0.03316249 0.0012385972 -0.00044846468 0.0028041706 0.012433519 0.0043176096
-0.01098935 0.00048539834 0.027923122 0.0050402307 -0.0133803915 0.028001897 0.02759901 0.02549271
-0.045345265 -0.012395422 0.05285248 -0.047804996 0.02110195 -0.00034548732 0.011930678 0.0039437166
0.01940412 0.0035892194 0.016662369 -0.08516626 -0.04707241 0.06680784 -0.0160136 0.0108465515
0.049205605 -0.0016758427 0.040269148 0.07536371 0.013706812 0.0104965335 -0.0017927967 -0.008714509
-0.032247584 0.025644774 -0.012820464 -0.028201917 -0.0136977285 -0.0049915267 -0.055134516 0.008829795
0.0064840666 -0.0076271356 -0.0025126683 0.051274106 0.039804105 -0.033824366 -0.0312414 -0.051803313
-0.015676493 -0.027183823 0.02330675 -0.011414126 -0.011049484 -0.006439758 0.007963412 -0.011548601

bias f4 [256]
00000000: 6d17 ccbc b621 e53b 0ae2 dfbc eb40 033d
00000010: 925e 3e3d dc56 d83c b86d 9abc 1fe7 5fbb
00000020: bc3f 0abc c31c 783c 9cbb 7ebc e7fd 873c
00000030: 9bd8 dd3c ab12 f4bc d87e 803d 3b96 cd3c
00000040: 2e40 3ebd 6899 fbbb d9e8 6bbb 9826 783c
00000050: 4b9d 5d3c 1826 32bd b5b6 a73b ffaa 48bb
00000060: fecc 423a cedc 273d 3e73 4cbb 7f0f 8ebc
00000070: a43c 303c cf42 1a3d 3903 f0ba cf2b f9b9
00000080: b33e 8abc 4f40 0abd 7f3b d0bb 8fcb 88bc
00000090: 1afb aa3b 0d63 9abb e599 1d3d a4da c53c
000000a0: da3b d33c e6df c93c 6c7c 8aba a2d8 323c
000000b0: 6b7f 4ebc 9aa6 abbb 1018 293c 370d 2a3b
000000c0: 7057 173d 7628 93bc 6a56 be3b b28d 71bc
000000d0: 59e8 883b fcda 983b 824c 6fbc a11d 973c
000000e0: aa3f e1bb e471 95bc 03c0 06bd de8d 4ebc
000000f0: 8c10 643c 95da adbc e267 9b3c 56fe d0bc
00000100: 1dde 65bb 6328 f53c 3e2c fa3b d0ab 5dbc
00000110: d3c2 f2bc 6d61 583d b677 cfbc 1d6f bdbc
00000120: c06a f2bc de05 70bc 7d7b 99bc e45a 043d
00000130: 4b12 01bd 126e 673d f6f6 2cbd 4ac4 93bc
00000140: 6efd 7fbc 86a7 ac38 e71a eb3c 2566 963c
00000150: ec8a e43c e8e7 adbc 0e59 e5bb 5d39 02bd
00000160: c2ee 5ebc 135f c73c 3deb f5bb 6cc4 af3c
00000170: 0b30 beba 4796 a33c 1770 3a3a b7bd 59bb
00000180: 1af2 493d cdcc c53c 9402 38bc 1520 acbc
00000190: 8889 c2ba c875 16bd 1610 45bc 707b 963b
000001a0: cb5f 4e3d ae58 423b c963 87bb e4cf f93b
000001b0: 57bd 7cbc 75fd ff3b ec7b b13c 72f3 4c3d
000001c0: fcc3 b13c 36d7 41bd 1c1a b9bc 0582 41ba
000001d0: 3f35 e5bc df66 9dbc b4fa c5b9 aca6 42bd
000001e0: 959a 473b 3fa5 493a 4568 323d 5c20 97bc
000001f0: 42d7 083d d776 003b 63a3 b03c b4a6 d13c
00000200: 2efa 2b3d f393 7bbc b5fb fdbc 54d3 663d
00000210: f706 1a3d 5ca9 ff3c f628 143c e553 cb3a
00000220: 850c 5dbd 0f34 72bb 44d9 3fbc 5924 1a38
00000230: e08d 09bc 7684 aeba 95f8 373d e2e1 013d
00000240: 8de2 b9bb 70e8 a43c 9af4 b9bc fec7 ffbc
00000250: bbc1 41bc 8d70 813b eedb 753c 90f3 653c
00000260: 18da b33c 7730 fa3c 425e eb3c c084 a43b
00000270: b72d 8d3c ca0c 15bd 0422 5ebc a6b8 94bb
00000280: 2393 873c d2d6 073b bdae e43b 68c7 d9bb
00000290: d1a6 fabc 4276 2bbc e89b 593c 1ce5 97bc
000002a0: d09b d43b d604 b2bc 1a52 a53c 72a7 06bc
000002b0: 07c4 bbbc bce1 5cbc e271 18bd eb9d d33c
000002c0: 8616 32bc 0789 babc d1e3 8cbc 5c59 0fbc
000002d0: e613 4cbd 489a 86bc 66f0 d1bb 9f89 b5bc
000002e0: f7ab 2bbd ac81 83bc ed40 3a3d 039a 74bc
000002f0: 8c63 763b f214 353c d8cb f6bc 9d82 c7bb
00000300: fc6b abbc ca05 0c3d 846a e83a eab1 d93c
00000310: 7282 78bc 0bd1 c93c b8a7 b53b 1d71 38bc
00000320: 37bc d2bc 2715 32bd 3cb8 6139 c0d1 b63c
00000330: 5cc9 663b 6452 3ebd 55dd 93bb d7d0 a1bc
00000340: 4b73 f03c 3ef1 1539 6ac1 3fbc 3280 473b
00000350: 79c0 b03c e291 0fbd 51cb 66bc f8ea 103d
00000360: d1b1 1ebd 6ceb 9e3b 77af 223c cf4c 9bba
00000370: 4636 b4bc 6143 433d cc57 b3ba 588d 36bd
00000380: d862 6ebc 36f0 92bc 0127 ad3a bd19 a83b
00000390: 9dd3 d7ba aae0 483d a8e0 453d d39c 153c
000003a0: 9f97 0cbd 0691 043c 2bbd 853d 6729 ad3b
000003b0: ad0c 0d3d 53a8 4c3b f25a dfbc 9ad3 8e3c
000003c0: 6447 60bd 3ae5 633c 9cd0 f03b fc1b 4339
000003d0: af19 8dbb a621 993c 172a ccbc 148e 44bc
000003e0: e412 363d f085 d33a d18a fb3c f60d 863c
000003f0: d4b3 903c 72ad 523b ea33 0e3b 9cde 663c
-0.024913514 0.006992544 -0.027329464 0.032044332 0.046476908 0.026408605 -0.018851146 -0.0034164859
-0.008438047 0.015143576 -0.015547659 0.016600562 0.027080825 -0.029794058 0.062741935 0.02509605
-0.046447925 -0.0076781996 -0.0035996942 0.01514592 0.013526271 -0.04349336 0.005118216 -0.00306195
0.0007431059 0.04098206 -0.003119662 -0.017341373 0.010756645 0.03766137 -0.0018311507 -0.0004752562
-0.0168756 -0.033752736 -0.0063547487 -0.016698627 0.005217922 -0.004711515 0.038476843 0.024152108
0.025785375 0.024642896 -0.0010565645 0.010915907 -0.012603621 -0.0052383663 0.010320678 0.0025947818
0.03694862 -0.01796363 0.005808641 -0.014743255 0.0041780886 0.004664777 -0.014605643 0.018446745
-0.0068740444 -0.018242784 -0.03289796 -0.012607066 0.013919961 -0.021222392 0.018970434 -0.025511902
-0.0035075017 0.029926484 0.0076346686 -0.013529733 -0.029633915 0.052827287 -0.025325637 -0.023124272
-0.029591918 -0.014649836 -0.018735642 0.032313243 -0.031511586 0.056501456 -0.042227708 -0.018037934
-0.015624387 8.232803e-05 0.028699351 0.018359253 0.027898274 -0.021228746 -0.0069991415 -0.031792987
-0.013606729 0.024337327 -0.007504849 0.021455966 -0.0014510168 0.019969119 0.00071120396 -0.003322465
0.04930315 0.024145508 -0.011231083 -0.021011392 -0.0014842013 -0.03673342 -0.012027761 0.0045923516
0.050384324 0.0029654908 -0.0041317684 0.0076236594 -0.0154260015 0.007812197 0.021665536 0.050036855
0.021699898 -0.04732438 -0.022595458 -0.000738174 -0.027979491 -0.019214092 -0.00037761556 -0.047522232
0.0030457128 0.0007692165 0.04355647 -0.018448047 0.03340841 0.0019602084 0.021562284 0.025592186
0.041986637 -0.015355098 -0.031003812 0.056353882 0.0376043 0.031208687 0.009042969 0.0015512673
-0.053967018 -0.00369573 -0.011709515 3.6750313e-05 -0.008395642 -0.0013314623 0.0449148 0.03170956
-0.005672759 0.020130366 -0.022699643 -0.031223293 -0.011825974 0.0039501847 0.015006049 0.014035121
0.021954581 0.030540688 0.028731469 0.005020708 0.017233713 -0.03638915 -0.013557915 -0.0045386134
0.016549652 0.0020727408 0.0069788382 -0.0066460855 -0.030597122 -0.010465207 0.0132818 -0.018541865
0.006488301 -0.021730822 0.02018075 -0.008218633 -0.022920622 -0.013481554 -0.037217982 0.025832137
-0.010869628 -0.022770418 -0.017198475 -0.008749332 -0.049823664 -0.016430989 -0.0064068316 -0.02216035
-0.041912045 -0.016053043 0.045472074 -0.014929297 0.0037595956 0.011052357 -0.030126497 -0.0060885684
-0.020925514 0.03418521 0.001773194 0.026574094 -0.015167819 0.024635812 0.0055436753 -0.011257437
-0.025724513 -0.043477204 0.00021526305 0.022316813 0.0035215234 -0.046465293 -0.004512469 -0.019752903
0.029351851 0.00014299617 -0.011703828 0.00304414 0.021576153 -0.035051234 -0.01408656 0.035380334
-0.038743798 0.004849842 0.009929529 -0.0011848452 -0.021998536 0.04767168 -0.0013682782 -0.04456839
-0.014549933 -0.017936807 0.0013210477 0.0051300214 -0.0016466264 0.04904238 0.048309952 0.009131628
-0.034324285 0.008091217 0.065302216 0.0052844766 0.034435917 0.0031228259 -0.027265046 0.017434884
-0.054755583 0.013909632 0.007349087 0.00018607074 -0.0043060402 0.018692803 -0.024922414 -0.011996765
0.04445161 0.0016137939 0.030705841 0.016364079 0.017663874 0.0032146838 0.0021698424 0.01409116
